results/first/SpaceInvaders/SpaceInvaders-12974.onnx (onnx, 78374 bytes, 9 tensors)

discrete_act_size_vector f4 [1, 2]
00000000: 0000 4040 0000 0040
3.0 2.0

network_body._body_endoder.seq_layers.0.weight f4 [128, 4]
00000000: 56d6 94be 6a70 8ebd 7e09 3abe 20fd 90bf
00000010: b173 01bf f857 11be 23df 643d f361 d0bd
00000020: 729e c33e 1783 b43e 243a 9ebd f980 ad3d
00000030: e695 c8be 7aa9 88be 45d1 fcbe 97de 5e3e
00000040: 44e0 223e f676 cebd e135 58be 63ad f23e
00000050: c2fd 36bf 4358 d63e be6b 693e 1a1d 86bd
00000060: 7340 cf3d 6415 9f3e 0869 35bf dc75 8a3e
00000070: 0e00 10bf d819 f83e 45f2 29bd 977e c43d
00000080: 511b 173f 9d0d 4a3e a4e2 3bbe a6e0 05bf
00000090: 5af6 6bbe cb91 1ebf 812e 103f 46b4 42bf
000000a0: 53ac 82bf a314 dc3e b2de c9bd e57d b0bd
000000b0: 7812 7c3e d8c4 753e 42bc 54bd d35e d03d
000000c0: c670 b7be c226 c83e 5fff 183d 7ae6 acbe
000000d0: 63d6 0fbd f7ee f6bd 556c 2bbd 41c4 e0be
000000e0: 8287 b6bd c18e 373f 44d7 29bf 5f53 803f
000000f0: a0c1 8fbe eedd 3ebe df7c 18be f3fb 593e
00000100: 6546 aa3c a0bd 253f 311d 3ebf 7625 c03e
00000110: 9037 093e 6b25 ecbe 9656 573f 3cab 13bf
00000120: 6346 4e3e 0e0a 06bf 6b75 353d 0a9e 453f
00000130: 6c15 53bc 64cb 663e cdca 0d3f 5ad3 98bc
00000140: bc94 cfbe 12d5 c63e 70c3 53be 28c6 a7be
00000150: 8bba 873d 64f8 fdbe fc1a 463e 53a5 2c3f
00000160: 8cd4 0bbf c92c 56be 021e 1abf c73b 3e3f
00000170: c2bd 72bc 76bf 863d d0dc 66be d6e7 42bd
00000180: 8fb7 033f 9ea7 063e 4743 d33e 4228 053b
00000190: 04ab 963e e88f d83e 203e 1bbe 91f5 4c3f
000001a0: 296a c83f 868b 98be bfa2 a83e 04e9 743e
000001b0: 4177 263f 629e 67bf c159 a93e 4cdf ec3e
000001c0: 9e3a e6bd 109c 1abe 9359 9b3a 386a 583f
000001d0: b8d7 b0bd 9250 0ebe e657 8bbd d34c dcbe
000001e0: af1d 7bbe 4c89 49be 6554 ccbd b3fa f53a
000001f0: ada4 ecbe b066 f93e 452d 973e fcd8 e93e
00000200: 5a85 2c3e 7c17 30bd f8d4 1f3e 05cc b8be
00000210: 6d62 1f3f e323 f3be 3082 73be 5688 573f
00000220: 668a cd3d be30 83bd aa2c d5be a375 83be
00000230: 0035 4dbe 2ee3 083f c141 b6be 5a9e 36be
00000240: 9517 34bc 6634 c03d 2444 a23e c0f3 493e
00000250: 6611 85be 4493 3fbe 26f1 94bd 6d76 013e
00000260: 0803 543e 86f7 68bc 0506 06be b06a 603e
00000270: a112 63bf b2c9 dc3e fb7b 09bb abaf fc3e
00000280: 72db b83c f21d 93be 779d b63e 671d 27be
00000290: 20c6 83bc 4037 e3bd ac59 84bf 4803 1fbf
000002a0: 5c38 19bf a719 1dbf 3560 eb3d c9bf 2a3f
000002b0: d74b 963e 1e40 93bb 3050 45bf 3bd5 7ebe
000002c0: 069d 1b3e dccf 193e 479e 67be c018 93be
000002d0: 0ab3 23be c957 1abf 4a9b c93e b65b c0bf
000002e0: 8664 21be cb9e c73e 7cef 813f 23e6 373f
000002f0: 868c c5be fad9 86be fa1d 30bf 8d80 b13e
00000300: bf02 423e a1fe 373e 420b 7e3f 6207 18be
00000310: 796e 3cbf 3cdf 0b3f 0534 a13e b788 15bf
00000320: 118f 6a3e d8f7 a1bc 8b03 e1bb 35c0 80be
00000330: a7c3 0bbd 3070 cd3e 3ef1 823d 4704 c6be
00000340: 8bfb 123e d0d5 4cbd b257 c7be 4dd9 413e
00000350: ad11 9e3e 7a8f c63e 1619 b63e e16a 56bd
00000360: c1b8 623f fbb1 063f 76d3 1f3e 3297 8f3e
00000370: b24d 483e 3e78 1c3e cf3e 28be c521 fbbd
00000380: f087 1e3f e0f4 27bf 7e30 1d3f 8aa5 3fbe
00000390: 5465 27bf cee6 503e eb12 323f c2f8 91bb
000003a0: 68b2 14be 379a 123f 3d5e 093d 08a0 e3bd
000003b0: 8978 3dbf e51d 0bbf 83db df3e 08f8 48bf
000003c0: 8966 c1be ab69 8a3e 6bb5 9d3c 2a4a 023e
000003d0: 8aea 49bf e3ba a3be b209 9abf 4df5 18bf
000003e0: 04d2 153f 73d6 7b3e eebb 45be 41bd 35be
000003f0: 4642 56be 229d c5bd 6d8c 173e b05f d23e
-0.29069775 -0.06955035 -0.18167683 -1.1327248 -0.50567156 -0.14193714 0.055876862 -0.10174932
0.38206822 0.35256264 -0.07725933 0.08471865 -0.39176863 -0.266918 -0.4937841 0.21764599
0.15905863 -0.10081284 -0.21114303 0.4739791 -0.71480954 0.41864213 0.22795007 -0.065485194
0.101197146 0.31071007 -0.7086339 0.27043045 -0.56250083 0.48457217 -0.04149081 0.095944576
0.59026057 0.19731756 -0.18348175 -0.5229591 -0.23043194 -0.6194121 0.5632096 -0.76056325
-1.0208839 0.42984495 -0.09856929 -0.086177625 0.2461642 0.24000871 -0.05193735 0.10174336
-0.35828227 0.3909207 0.037352916 -0.3376959 -0.035116564 -0.12057298 -0.04185136 -0.4389973
-0.08912565 0.717022 -0.66344094 1.0025443 -0.28077412 -0.18639347 -0.14891385 0.21287517
0.02078552 0.6474247 -0.7426329 0.3752858 0.13400102 -0.46122298 0.84116495 -0.5768316
0.20144038 -0.5235909 0.04430143 0.77194273 -0.012883525 0.22538525 0.55387574 -0.018655468
-0.40543163 0.38834435 -0.20680022 -0.3276837 0.06627377 -0.4960357 0.19346231 0.67439765
-0.54621196 -0.20915522 -0.6020204 0.74309963 -0.01481575 0.06579487 -0.22545171 -0.047584377
0.51451963 0.13149878 0.41262266 0.0020318185 0.2942735 0.42297292 -0.15160418 0.80062205
1.5657398 -0.29793948 0.32936665 0.23917013 0.6502572 -0.9047605 0.3307629 0.46264112
-0.11241649 -0.15098596 0.0011852257 0.84537077 -0.08634895 -0.13897923 -0.06803875 -0.43027362
-0.24523042 -0.19681281 -0.099770345 0.0018766731 -0.46219388 0.48711157 0.29526725 0.45673358
0.16847745 -0.042991146 0.15608585 -0.36093155 0.6225956 -0.47488317 -0.23780131 0.8419241
0.10036163 -0.06405781 -0.41635638 -0.25675687 -0.20039749 0.5347165 -0.3559704 -0.17833844
-0.0109919505 0.09384994 0.31692612 0.1972189 -0.25989836 -0.18708521 -0.07272558 0.12642832
0.20704281 -0.01421917 -0.13088234 0.21915698 -0.887003 0.4312263 -0.002097844 0.49352774
0.022565577 -0.28733784 0.3566701 -0.1631981 -0.016085684 -0.110945225 -1.0339866 -0.6211438
-0.5985162 -0.6136727 0.114929594 0.6669889 0.29354736 -0.0044937273 -0.7707548 -0.24886028
0.15196618 0.15020698 -0.22618972 -0.2872982 -0.15986267 -0.602902 0.3937629 -1.5027988
-0.15761003 0.38988337 1.015121 0.71835536 -0.38583773 -0.26338178 -0.6879574 0.3466839
0.1894636 0.17968227 0.9923593 -0.14846566 -0.7360607 0.54637504 0.31485 -0.58411735
0.22906138 -0.019771501 -0.0068668774 -0.25146642 -0.034122135 0.40124655 0.063936695 -0.38675138
0.14353769 -0.050008595 -0.38934094 0.1893055 0.3087286 0.3878134 0.35566014 -0.05234802
0.8856316 0.52615327 0.1560801 0.2804504 0.19560888 0.15280244 -0.1643021 -0.122623004
0.61926174 -0.65608025 0.6140212 -0.18715492 -0.6538899 0.20400545 0.69560117 -0.004454703
-0.14521182 0.57266563 0.03353714 -0.11114508 -0.7401205 -0.5434249 0.43722162 -0.78503466
-0.3777354 0.27033743 0.019251546 0.12723604 -0.78873503 -0.3197852 -1.2034209 -0.597493
0.58523583 0.24593525 -0.1930997 -0.17747976 -0.20923719 -0.09649111 0.14799662 0.4108863

network_body._body_endoder.seq_layers.0.bias f4 [128]
00000000: 585f 103c ad54 5b3d 7177 11bd ee7b f33e
00000010: 2655 3d3c 5284 0dbd 92a3 1abe fb87 e23c
00000020: f967 2f3e 6318 413e ad39 613c d92d 79bd
00000030: ab78 a6bb 2691 103f db51 4b3d fbb4 92bc
00000040: dcf8 1a3a 29d5 f7bc ff9f 92bd cba5 f93c
00000050: 903e b4bd f407 58bb 17ca eabd 4254 9cbe
00000060: 461b 1dbd b607 b4bd 852f 2c3d ba34 e53d
00000070: 709a a53d d7d2 083f ca81 eb3e 1d62 a83d
00000080: e410 893d 39ac b8bd b536 a53e 7b84 613c
00000090: 8c01 00be b8c8 393d b128 b83c 5b6b 6a3d
000000a0: 2747 973d 3825 b43e 5ea6 813b 0e98 433e
000000b0: 8f7d a5be e122 983d c66f a7bd a752 d53e
000000c0: 9940 8f3d 23e9 9c3c b6da c03e de22 58bd
000000d0: 7cfa 803e 39f4 0ebe f0cd fcbd 780b 49be
000000e0: 80b9 5c3d 2a14 403d 3d00 08be bdbf 583d
000000f0: 6614 493d 0916 5ebe c34f 6abe 2989 d5bc
00000100: 8323 303d da5f 593e 26c1 223f b13b d9bd
00000110: a1af 0bbe 51f7 313c 5c6b 2d3c eb20 aebd
00000120: 3e64 8d3d 0d5f 7f3d 4275 163e fe58 aebd
00000130: 09f1 e2bd 1ddc 16be f35e fa3d 38af 9bbb
00000140: 2282 25bd 0c41 28be 5831 723c 0541 7f3c
00000150: 808a 5fbc 918b d1bc 15f3 a9bc ffea fabd
00000160: 0e12 55be 735f 033e 0a52 4e3e 9b7d 443d
00000170: c527 0dbe 327d 193e 198e 2a3d a05e c43e
00000180: c467 1fbe 4641 b4bd 5093 173e 949d 1c3e
00000190: 7694 d0bd 6327 96bb a87d 36be 227e e63c
000001a0: e48c 88bd 487a ecbd 872d d6bd 95da 89bd
000001b0: 6325 113c 0d2a 3bbd a950 ee3d 0b58 903d
000001c0: 40dc 023f 54a3 8fbd 40cc 8b3d 4ad0 22bd
000001d0: b43f 05be 509a ab3d 4ec5 75bb 529c 4bbd
000001e0: e7af 593e 76dc 55be d875 bb3e 9305 86bb
000001f0: ccb7 c23d f110 e3bc 7a24 62bd ed2e 853d
0.008811794 0.05354755 -0.0355143 0.47555488 0.0115559455 -0.03455002 -0.1510146 0.027652731
0.17129506 0.18856959 0.013746661 -0.06083474 -0.0050803027 0.5647148 0.04963861 -0.017908564
0.0005911717 -0.03025301 -0.07159423 0.030474564 -0.08800995 -0.0032963725 -0.11464327 -0.30533034
-0.038356088 -0.08790533 0.042037506 0.111916974 0.08086097 0.53446716 0.4599746 0.082218386
0.06692675 -0.09017224 0.322683 0.013764496 -0.1250059 0.045357436 0.02248034 0.05723129
0.07386618 0.35184646 0.0039566 0.19100973 -0.32322356 0.074285276 -0.08175616 0.4166462
0.06994743 0.019154137 0.37666863 -0.052767627 0.25191104 -0.13960351 -0.12343967 -0.19633281
0.053887844 0.04689423 -0.13281341 0.05291723 0.04909172 -0.21688093 -0.22881989 -0.02606638
0.043002617 0.2122797 0.6357597 -0.10607088 -0.13641216 0.0108621875 0.0105846785 -0.08502372
0.06903885 0.062346507 0.14693168 -0.08513068 -0.1108113 -0.14732404 0.122251414 -0.0047511123
-0.040407307 -0.16431063 0.014782272 0.015579467 -0.013643861 -0.025579246 -0.020745793 -0.12251853
-0.20807669 0.1282938 0.20148483 0.04797135 -0.13784702 0.14989164 0.04163942 0.38353443
-0.15566927 -0.088015124 0.14802289 0.15294486 -0.10184567 -0.004582332 -0.17821372 0.028136317
-0.06667498 -0.11546761 -0.104579024 -0.06731144 0.008859011 -0.0456944 0.116364785 0.07048043
0.51117325 -0.07013574 0.06826067 -0.03974942 -0.13012582 0.08379042 -0.0037501636 -0.049709626
0.21258508 -0.2088488 0.36613345 -0.00409002 0.09507713 -0.02771804 -0.055210568 0.06503091

network_body._body_endoder.seq_layers.2.weight f4 [128, 128]
00000000: 660a 363e da22 1b3e d792 a8be 66e3 10bd
00000010: dc77 643e 895b 953d 4808 ad3c 307d 0e3e
00000020: 581a 8b3e 24e9 2bbd a059 9cbd c4f7 10be
00000030: 3f2a 163e 93d3 b83d 1db3 1d3e d7c5 e03d
00000040: 6b9d 0cbd 749e c1bc d571 443d 2e27 d7bd
00000050: a0df 613c 30f4 49bd a57b 933d 345f 1cbe
00000060: fdeb 203d 1272 bebd c64c 82bd aa56 73bd
00000070: bade d0bd 16f9 cebd e026 ab3d d174 d6bd
00000080: 549d 053e 7a78 fcbb 36ed 833d a4d8 813d
00000090: c547 a43b ceeb 683e 452f f53c 8416 b5ba
000000a0: 7b57 0cbe 6211 2dbd d64c 0bbe b7f0 2f3e
000000b0: 548a 2fbe b4b8 283d 5f62 613a d19f debd
000000c0: 6268 4ebe 7d98 ccbc 7ee7 493e c7f9 783d
000000d0: c703 143e 05c3 afbe 01c1 c23c c348 8dbe
000000e0: 6f94 c13d 58ab 95bd 63f8 0bbe c1ed 173f
000000f0: 6a7e 373c 229d c53d dcf0 d43d 2a81 cc3e
00000100: ccfe 8a3d 28ed d4be 9938 37be 8c88 153d
00000110: 6542 8cbc 9316 8a3e 76b9 47bc 5fd8 0cbe
00000120: 3a13 e93e a66b c23d 5f06 58bc 06df 793b
00000130: 31e8 7fbd cc7d 393e a4fe 753d 1b0e b63e
00000140: 40ec af3d 1fcd 36bd 5da4 16be b927 b8bc
00000150: 1754 123e 6501 10bd a7a4 173d ab7d 183d
00000160: 5537 013d e298 a23d cadd 26be 9add cbbd
00000170: 03c1 663e 49b6 4cbd c925 153e 0ebb ef3a
00000180: 304c 41be 9837 2ebe 96f2 213e 9bd7 433e
00000190: 89c6 963e 2e61 c6bd 1e9d 79bd d02c 1f3d
000001a0: 5d04 53bd 7d54 02be d390 d23d 748b 9b3d
000001b0: 1d54 02bd 191c 6ebe 54da 19be 4bea cbbd
000001c0: 462e 373d 4561 cd3c 4ec7 a8bc 4d65 01be
000001d0: 1f16 183d 789c 20be 745c d73d b4a6 9dbd
000001e0: 47f2 e43b f5f9 193d 2c4e 78bd 69cd a93d
000001f0: 3664 64be 195a 123e d846 c3bd 6c67 833d
00000200: 7eb6 5dbd 995e 9bbd e2a1 763d cc3c 56be
00000210: 356e 2fbe a4c8 25bb 6cf5 fcbc be81 42bd
00000220: 8817 6e3d 3836 a83d 4e1d 55bd 3b9e b43c
00000230: a8c0 7d3d 6c15 72be 8931 aabc d9a7 ca3d
00000240: 3d95 01be 86a8 f9bd fed1 a2bb 01a2 183e
00000250: bb2a c73d 468c 153d ca5c acbb ca56 583c
00000260: 6d8a 9abc d638 b23d d9a1 cfbb 679f e03c
00000270: 8803 2f3d 3dd8 a9bd e64c f7bd d3b8 75be
00000280: b75d 29bd 0b93 5bbd 08d9 efbd 1d03 cfbd
00000290: d979 763c 8f9b 4dbe aade d2bc 076e 9abb
000002a0: df55 41be 048b 52be 390a cabc 7c04 4ebe
000002b0: 9f68 6f3d 3aec b1bc 37c2 813d 571a 0abe
000002c0: fc9b 0c3e 1af2 1cbe da5d 583c c337 e83c
000002d0: 76a1 18be 79c3 a1bc 71a8 1bbc 6333 473e
000002e0: 5cf7 333e 7ad0 9bbd 0989 99bd a58e 24be
000002f0: 829f 1f3e 21d6 043e 68ca 213e 48b7 e63d
00000300: 098a c3bd 98cb d6bc 8946 88be 65ea 823d
00000310: a83f e1bd a2ce aabd 8514 07be 5bee 273c
00000320: b099 9cbd a33e 2bbe 8fbb b0bd 8c6f 9bbd
00000330: f767 84bd 85d5 133e 42ff 3dbd 7aec abbd
00000340: bb45 9cbc c6da 503e 6dde ddbc 8ead 9c3a
00000350: e61d e9bd f816 d2bd 4af1 1c3d 9692 8cbd
00000360: 7a87 77be 84f9 24bd caec f73d dabf 06bc
00000370: cf85 d2bd b0ea 203e 0114 98bc 2d93 103c
00000380: 83bf 5ebd 002b 5bbc 7fc2 90bc 0b7a 643c
00000390: 5031 03bb bb53 a63d d901 0eba 7e8e 7e3d
000003a0: f7c2 d7bb 8172 15bd d8f8 81bd 477d 533c
000003b0: 4b26 913c 3b93 ec3d d273 d83c deb4 703d
000003c0: e10e 40be 1095 d7bd dfa6 eb3d 2215 ddbd
000003d0: f639 2cbe 5c5a 623c 2f31 aa3d a0e4 e1ba
000003e0: e543 a63c b112 22bc fee1 19be bee7 7f3d
000003f0: 98dd 753d 499d 8abc 3d78 0cbe 7e80 203e
0.17777404 0.15150014 -0.3292453 -0.035373114 0.22311348 0.072928496 0.021122113 0.13914943
0.27168536 -0.041970387 -0.07634282 -0.14157015 0.14664553 0.090247296 0.15400358 0.10975235
-0.034329813 -0.023635127 0.04796012 -0.1050552 0.0137862265 -0.04930514 0.07201318 -0.15270692
0.039287556 -0.09299101 -0.063622996 -0.05940882 -0.10198732 -0.10106103 0.08357024 -0.104715
0.13048297 -0.0077047916 0.06441729 0.06340149 0.0050134384 0.22746202 0.029929766 -0.0013815914
-0.13705246 -0.042252906 -0.1360353 0.17181669 -0.17142612 0.04119177 0.0008597727 -0.10870326
-0.20157006 -0.024975056 0.19717214 0.06078508 0.14454566 -0.34328476 0.023773672 -0.27594575
0.094521396 -0.07308072 -0.13668971 0.5934716 0.011199573 0.09649111 0.10397503 0.39942294
0.0678688 -0.41587186 -0.17892684 0.036507174 -0.017121503 0.26970348 -0.012190213 -0.13754414
0.4552248 0.094931886 -0.013185113 0.0038127317 -0.062477294 0.18114394 0.060057297 0.35557637
0.08589983 -0.044629212 -0.14711137 -0.022479879 0.1428989 -0.03515758 0.03702226 0.03722922
0.03154691 0.07939316 -0.16295543 -0.099543765 0.22534566 -0.04997853 0.14565195 0.001829
-0.1887672 -0.17013395 0.15815195 0.19125216 0.29448345 -0.09686504 -0.060940854 0.038861096
-0.051517833 -0.12727542 0.10281529 0.07594958 -0.031818498 -0.23252906 -0.15024692 -0.09956797
0.044721864 0.025070796 -0.020602848 -0.126363 0.03713047 -0.15684688 0.10515681 -0.07697812
0.0069868895 0.037591893 -0.060621426 0.08291132 -0.22303852 0.14292182 -0.09534997 0.064162105
-0.054129116 -0.075864024 0.060212977 -0.2092163 -0.17131884 -0.0025296593 -0.030878745 -0.047487013
0.05812791 0.082134664 -0.0520299 0.022048106 0.06195131 -0.23640984 -0.020775573 0.09895296
-0.12654586 -0.121903464 -0.0049688807 0.1490555 0.09724947 0.03651073 -0.0052600848 0.013204286
-0.018864835 0.08702247 -0.0063364324 0.027419759 0.042727977 -0.08293197 -0.12075214 -0.23996286
-0.04134914 -0.053607028 -0.11711317 -0.10108016 0.015043699 -0.20078872 -0.02574094 -0.0047128233
-0.18880413 -0.20560843 -0.024663078 -0.20118898 0.058449384 -0.021719087 0.06335872 -0.1348661
0.13731378 -0.1532673 0.01320597 0.028346902 -0.14905342 -0.019746529 -0.009500609 0.19453196
0.17574829 -0.07608123 -0.074968405 -0.1607004 0.15588191 0.12972309 0.15799868 0.11265427
-0.095478125 -0.026220128 -0.26616314 0.063923635 -0.109984696 -0.08340193 -0.13191421 0.0102496995
-0.07646501 -0.16723113 -0.08629524 -0.07589635 -0.06465142 0.1443692 -0.04638601 -0.08394714
-0.019076219 0.20395955 -0.0270836 0.0011953579 -0.11382656 -0.10258287 0.03831605 -0.068638965
-0.24172774 -0.04027702 0.12105711 -0.008224452 -0.10279428 0.15714526 -0.018564226 0.008824152
-0.05438186 -0.013376951 -0.017670868 0.013945113 -0.0020018406 0.08121439 -0.00054171454 0.06214761
-0.006584521 -0.036486153 -0.06346291 0.012908286 0.017718455 0.115515195 0.026422415 0.05876624
-0.18755676 -0.10526478 0.115064375 -0.107950464 -0.16818985 0.013815489 0.08310162 -0.0017234273
0.020296047 -0.009892152 -0.15027615 0.062476866 0.06002578 -0.016920703 -0.13717742 0.15674016

network_body._body_endoder.seq_layers.2.bias f4 [128]
00000000: 7648 88bc 823a 043c 195e 2fbd 5361 e43c
00000010: 2a0e 19bc be58 173d c165 da3d 1978 5b3d
00000020: 42b8 45bd f796 4b3d 676c f8bc be1e 573d
00000030: 32d1 4ebb 749a f4bc f5bc 01bc aa22 d13b
00000040: e93c 633d 5a24 b53b 406a aabd 924b 873c
00000050: 09ad 503e e64e 3ebd a99e 843b 01e7 6dbe
00000060: 46ef 2fbc c554 cdbd 9787 c63b 6901 26bd
00000070: 0afd 9e3d 1f57 873d 78b1 92bd 4815 5d3d
00000080: e8e6 fb3b 48d8 a63c 26e9 283c 1175 453d
00000090: 493e a33d 44d0 803e 954e 063c d58f b43e
000000a0: 1070 fd3b e9a0 0ebd 2234 9c3d 35b4 52bd
000000b0: 7097 efbc 1235 ac3d a760 bcbc 6a60 b2bc
000000c0: c0c8 4b3c 21df fb3c ad2f c23c 3c71 b2bc
000000d0: dcca 1abd 439b 5bbc fa70 afbc 688d 903c
000000e0: 2719 7e3c 7e3d 3d3d 5e82 46bc b8b8 90bc
000000f0: f915 06bd 2d08 f3bc a9e8 18bc 53cb 583c
00000100: ad35 c93d b9af 92bc 2fa4 fcbc 71cd 313d
00000110: 7258 28bd f3d5 83ba 3146 3abb 78ff 47ba
00000120: add8 0a3e 1b4d 22bb 78ed babc 00dd b63b
00000130: 86c0 d33a d385 f5b8 3d5d 17bd 1e54 e03d
00000140: 879b 3d3e 7b93 9bbd a7df 003c ce64 f83d
00000150: 2c1c 533e 4bc9 463c e7fe 993d 51b6 85bc
00000160: a0dd a3bc 33d4 6b3c 4889 afbc 7528 5ebc
00000170: da12 023d 2bf8 013e a53f 12bc 036c ee3d
00000180: dd32 d1bc 9e49 a43c 1544 3bbd 0ce8 613e
00000190: 42ba f4bb e9e6 0fbc 04d6 463d a2e7 1cbd
000001a0: 0c3f 25bc 4c2a 343d c3b7 d9bc ef3e 3cbb
000001b0: 0f65 3d3c de98 70bc 1e3d 34bb d944 cdbd
000001c0: de28 b9bc 3d1c 19bd b1bf 063b ae28 663e
000001d0: 4cca 0f3e 873a 113e d39f b83d 6026 313c
000001e0: 1741 b2bc 1533 c23b 776b 7bbe 0c16 803d
000001f0: 654b fabb 8163 08bd 7991 c0bd d470 68ba
-0.016636115 0.00807059 -0.042814348 0.027878439 -0.009341756 0.036949866 0.10663939 0.05358133
-0.048271425 0.04970452 -0.030325128 0.052519552 -0.0031557796 -0.029858805 -0.007918586 0.006382306
0.05547801 0.005528015 -0.08321047 0.016515527 0.20378508 -0.046461962 0.004047234 -0.23232652
-0.0107382 -0.10025934 0.006058644 -0.04052869 0.07763107 0.06608414 -0.07162756 0.053975374
0.0076874383 0.020366803 0.010309493 0.048207346 0.07970864 0.25158894 0.008197446 0.35265985
0.007734306 -0.034821425 0.07627131 -0.05144139 -0.029247016 0.0840856 -0.022995306 -0.02177449
0.012437999 0.030746045 0.023704374 -0.02178251 -0.037791118 -0.0134037165 -0.021416176 0.017645553
0.0155089265 0.04620122 -0.012116043 -0.017666206 -0.0327358 -0.029666984 -0.009332814 0.01323207
0.09824691 -0.017906057 -0.030840008 0.043408815 -0.041099973 -0.0010058269 -0.0028423185 -0.00076293154
0.13559218 -0.0024765197 -0.022818312 0.0055805445 0.0016155399 -0.00011707437 -0.036954153 0.10953544
0.1851636 -0.07596489 0.007865823 0.12128602 0.20616215 0.012132953 0.07519322 -0.016322287
-0.02000314 0.014393854 -0.021427765 -0.01355945 0.03175626 0.12692325 -0.008926307 0.11641695
-0.025536949 0.020054635 -0.045719225 0.22061175 -0.0074684927 -0.008783081 0.048543945 -0.03830684
-0.010085832 0.04398565 -0.026576882 -0.0028724035 0.011559739 -0.014684884 -0.002750225 -0.10022897
-0.022602495 -0.037380446 0.0020561034 0.22476456 0.14042014 0.14182483 0.09014859 0.010812372
-0.021759553 0.0059264996 -0.24552713 0.06254205 -0.0076383823 -0.03329802 -0.09402747 -0.00088669104

action_model._discrete_distribution.branches.0.weight f4 [3, 128]
00000000: e80c 973d f61d 673d b588 8bbc 226a 9f3d
00000010: 3b2e e0bc efae d03d b286 583e 4124 3f3c
00000020: 24f3 263c bdc7 f3bb bab8 b03b 5d56 903c
00000030: 1042 4f3d 7022 7c3b 6b9c 22bd cdc5 ac3d
00000040: c2c4 193e b443 0e3c f96d a6ba 4b20 3cbd
00000050: 3bf6 cfbd e4ce 07bd 075e c63c bf3c fc3c
00000060: fa56 74bc 3605 973c 97fc 60bc 86f3 8d3c
00000070: 71a9 dc3d 2a64 e43d 6163 7e3c e976 943d
00000080: 7fe7 4b3d 2d24 593d ba0d bebb e7d6 5f3d
00000090: 3ac4 e8bb 4b57 80bd 4a7e 783c 981a 92be
000000a0: 3baf 54bb a577 8c3c 2997 dabd b8ce 36bd
000000b0: 4c7e 72ba 384c bd3d 942c 553d bc48 383c
000000c0: 29fc c73b 753c 6b3d ab9d 9f3c 404f 11bd
000000d0: 2098 3ebb 10ea d736 63e4 223d 1cbb 1a3c
000000e0: dbc4 27ba d10c 903d ce8d 6e3c 4e56 f63d
000000f0: d2a8 c63c fff2 b83b fb0a ad3b 159c d93c
00000100: 42fa 83bc 9786 49bc 95aa 363a 28af 82bb
00000110: 63d0 433b 4e2b 85ba 6f0d 363c 1594 1d3c
00000120: 593e 803e d061 353d e998 413c d554 313c
00000130: 1248 43b9 60fc 95bc 2adc c23b c5f3 f73c
00000140: 57fe c93e 66db 733b 2196 253d ccaf 773e
00000150: 0e07 b73e 4425 863d 5f4d f33d 328f 463c
00000160: 7e7a a9bc 20c5 d83b c552 373d b6f4 4b3d
00000170: 1e3e 2e3d 86a7 7c3e d6b0 bfb9 7875 313c
00000180: 9f30 5cba a36f 31bc f774 b93b 9886 61bd
00000190: a7ad 4a3c 167d aa3c 3407 033e ff26 e53b
000001a0: d065 8f3b 9704 e23b c4f0 d5ba 87fc 1c3c
000001b0: d473 c93b a492 183d a54f a83c 5564 6b3c
000001c0: f0a0 ecbb 5fb3 46bc 3c08 443b 5a40 de3e
000001d0: 3fcc d5bc b2b5 923e e16c c7bc 1d3a 2a3d
000001e0: 80f4 6cbc a087 ccbc 42be 913d b543 d0bb
000001f0: 867e 153c 395f f33b a844 ae3c 4d42 4cbd
00000200: 4859 e9bd 91c4 913c 06e5 fa3c a94d 01bd
00000210: 279a a7bb eea5 06bc 4a68 973b ccf4 903d
00000220: 63d5 0e3b a310 9abc f827 e3bb bcf8 29bd
00000230: db60 24bd a6c4 043c cc1f 313e 0b8c 84bc
00000240: 4880 3fbd 726f 2dba 1000 0b3c 1fd3 7e3d
00000250: b128 d7bd a891 3f3d 2500 82bc f1e8 4e3d
00000260: ff7b 983a 3a82 b23c f61e af3c 6756 713c
00000270: f89f 3b3d 7b7f e0bc baa3 813c 4a4d 5abc
00000280: e33c fdbb d9d0 84bd 02a0 463e 22de e03a
00000290: d9cb f9bc 3fbc 16bd 1764 50bc cf02 e0bd
000002a0: 9ca3 c93c 6c2f 82bd fad8 0dbe 818c a63d
000002b0: 8207 ebba 04e6 353c 6eac 57bb eb0a e73c
000002c0: 594f 48bc 10f7 203c b4c1 d13c c85c eebc
000002d0: b7f6 6d3d 8025 5d3d a7af 9c3c 5c74 ad3d
000002e0: dbab b83b ddb8 32bb 3660 953c cea4 a0bc
000002f0: 9ad1 7a3c 2b6d f33d 31a0 073d 1a1b aabc
00000300: 53d8 1d3c a8bc 5d3d f004 953c bb8a e03c
00000310: 66d1 1abc c84e c13b 2573 99bb 37a9 a23b
00000320: 3c62 a9bb 46d9 7dbc 9fa0 9b3d f254 3d3a
00000330: 9002 d13c 3ccc dc3c 9788 9ebc 1b83 82be
00000340: a42c 6f3d 758d 633c e165 91bc 8217 653c
00000350: e8dd 903d 0195 52bd 03ca 933c 76ec dbbb
00000360: 29f9 b03d 6d2a 2b3d 5b82 a2bd ca52 96bd
00000370: 0376 13bc bf86 2abc f018 e83b 273a 8ebd
00000380: 340f 0c3c bcf4 a6bc 603e 083d 48ae ebbc
00000390: 1525 0b3a 6577 6ebd f15a 39bc 4f3a 6d3c
000003a0: d729 aa3c c777 e33c a66a dd3c a523 21bc
000003b0: e1b0 80bc da04 203d 3775 c73b 0359 663c
000003c0: 861e a03c a318 b23a 673b 853c ed56 653d
000003d0: 895e 85bc 5498 e1bb d78a 03bb 2dde dbbc
000003e0: 3305 b3b9 28a4 8b3c 3c57 653d 8c21 6c3c
000003f0: 079f 323d 2380 df3b 1920 aa3c 980f ca3d
0.073755085 0.056425057 -0.01703296 0.07783915 -0.027365794 0.10189616 0.21145132 0.011666358
0.010189805 -0.007439582 0.005393115 0.017619306 0.05060011 0.0038472675 -0.039699953 0.08436165
0.15016463 0.008683134 -0.0012697569 -0.045929234 -0.101543866 -0.03315629 0.024214758 0.030790685
-0.014913315 0.018435102 -0.013732097 0.017328035 0.10774506 0.11151917 0.015526623 0.07249243
0.04978132 0.053013016 -0.005799976 0.054648306 -0.00710347 -0.0626665 0.015166828 -0.28535914
-0.0032453078 0.017146895 -0.10673363 -0.044630736 -0.0009250387 0.09243053 0.052044466 0.01124781
0.006103058 0.057430703 0.019484362 -0.03547597 -0.0029082373 6.434748e-06 0.039768588 0.009444024
-0.0006399878 0.070336945 0.014560176 0.1202818 0.024250422 0.0056442018 0.00528085 0.026563684
-0.016110543 -0.012300155 0.0006968168 -0.0039881654 0.0029878847 -0.001016 0.011111601 0.009617825
0.25047567 0.044282734 0.011816242 0.010823448 -0.00018623497 -0.018308818 0.0059466558 0.030267606
0.39451858 0.003720963 0.040426377 0.24188155 0.3574757 0.065500766 0.11879992 0.012119101
-0.020688292 0.006615296 0.04475667 0.04979392 0.04253971 0.2467328 -0.00036562112 0.010831229
-0.0008399579 -0.010829839 0.0056596952 -0.05506 0.0123705035 0.020811599 0.12795717 0.006993174
0.0043761507 0.00689752 -0.0016322364 0.009581692 0.006147841 0.037249222 0.02054579 0.014367183
-0.0072213337 -0.012127726 0.0029912135 0.4340847 -0.026098369 0.28654248 -0.02434391 0.041559327
-0.01446259 -0.024967015 0.07116367 -0.0063557276 0.009124404 0.007427123 0.021272972 -0.049867917
-0.11393982 0.017793925 0.030626785 -0.031568203 -0.005114812 -0.008218272 0.0046205865 0.07077941
0.002179467 -0.018806761 -0.006932255 -0.041496977 -0.04013143 0.008103525 0.17297286 -0.016180059
-0.046753198 -0.0006616033 0.008483902 0.06221306 -0.10505808 0.046769768 -0.01586921 0.05051512
0.0011633633 0.021790612 0.021377068 0.014730073 0.045806855 -0.027404537 0.015825141 -0.013324091
-0.0077282055 -0.06485147 0.19396976 0.0017156044 -0.03049271 -0.03680062 -0.012719176 -0.10938036
0.024614148 -0.06356701 -0.13852301 0.08132268 -0.0017931315 0.011102203 -0.0032909173 0.028203448
-0.012225949 0.009824529 0.02560506 -0.029096976 0.058096614 0.05399084 0.019126726 0.084694594
0.005635721 -0.0027270832 0.018234354 -0.019609835 0.015308762 0.118860565 0.033111755 -0.020764876
0.009634095 0.054134995 0.018190831 0.027409902 -0.009449339 0.005899284 -0.0046829158 0.0049640196
-0.005169181 -0.015493697 0.075989954 0.00072224357 0.025513917 0.026952855 -0.01935224 -0.2549065
0.058392182 0.013888706 -0.017748775 0.0139826555 0.07073575 -0.051411632 0.018040663 -0.006711538
0.086412735 0.041788507 -0.079350196 -0.073400095 -0.009000304 -0.010408103 0.007083051 -0.069446854
0.008548547 -0.02038037 0.03326261 -0.028769627 0.0005307955 -0.058219332 -0.011313186 0.014479234
0.020771904 0.027767075 0.027028393 -0.0098351585 -0.015709342 0.039067127 0.006086971 0.014059308
0.019545805 0.0013587665 0.016263677 0.055991102 -0.01628043 -0.006884614 -0.0020071769 -0.02683934
-0.00034145414 0.01704605 0.055991396 0.014412295 0.04360869 0.006820695 0.020767258 0.098662555

action_model._discrete_distribution.branches.0.bias f4 [3]
00000000: 1388 07bd 87a8 59bc 19b7 813d
-0.033088755 -0.013284809 0.06333751

action_model._discrete_distribution.branches.1.weight f4 [2, 128]
00000000: aa1e cd3d 6caf e1bc b2ab 9db9 134f dd3d
00000010: 48e6 973b 6955 e63e f8a4 773d 7e32 b53c
00000020: 1944 bdbb 4d19 143c cced a53b d711 a8bc
00000030: e151 fa3c 19c9 b83b 7cb0 003c 04df 5a3d
00000040: a40f 323d 5c86 92bc acdd a53b c957 84bc
00000050: 11da 18bd 6480 183c 076a 9a3b 457a 023d
00000060: b1f3 ebba 6627 cfbb 51d6 773b f329 50bb
00000070: ef27 8c3d d330 a53d 0370 223c 989c e13c
00000080: 2ba0 8d3c c33d 093d 9f6a 1cbd f1f2 373c
00000090: 7446 e3b9 15da 6cbd 8a7f 903c a2c0 90bd
000000a0: 2385 b73b f9a5 cdbb da7d 80bd 8588 4a3a
000000b0: d40c aa3b e4f7 a33d ec2e 9d3b 9cab 4ebc
000000c0: 867f 50bc b917 ae3c e5d6 443c c3c3 a7bd
000000d0: 8579 1fbc 519d d23b e17a 613d 90c1 6f3c
000000e0: fbe8 26bb ebca e43c a27d deba 9cd6 71bd
000000f0: ba95 2fba 0f46 d73c 0abe 403c 21e0 113c
00000100: 5efd cfbc 1809 10bc 6396 6fbb 8bd0 3abc
00000110: f125 133b f46d d9bb 401e 97ba fd5d 1d3c
00000120: 7c87 063e 9af4 f03c 31d5 b73c 604f 2bbc
00000130: 04e7 05bc b470 24bc 8b33 473c 5b5b e4bd
00000140: 66e1 4a3e 2611 3a3b 4ae8 f5bb 0d10 ea3d
00000150: 34f5 4d3e 4890 18bb d7b1 933d b652 1d39
00000160: 5a36 823c b001 063c e2b4 1d3d b896 313d
00000170: a793 293d 178b c13d 4de6 993b 28cd 503b
00000180: 37d8 9fbb cf7b 303c 1d10 873b bce4 86bd
00000190: ba0a 43bc 39f2 c73d d18f 193d 0e8c 30bb
000001a0: c5cc 7cbb 3f30 20bd 67b6 303c 7823 44bb
000001b0: 8874 f3b9 f820 8039 5a90 243b c0c7 38ba
000001c0: 1f5f 483b 7b7d 3c3c ad0d f8bb 1b7c 503e
000001d0: c857 f7bc 8855 123e e5a5 5abb 1ab0 87ba
000001e0: a86f d13b 5ec4 9cbc 4c30 313c a3a9 debc
000001f0: aa8c f43b f2cb c5b6 26aa 0dba b263 153c
00000200: 17e3 d3bd fb19 e53c 8057 83bc 9e8c bdbd
00000210: 3f98 dfbc f479 e2be b2da 54bd 89ca a8bc
00000220: ef57 03bc 0eb7 c93c 6b36 2bbc 7c37 703c
00000230: d46c b6bc 3709 cbbb 220a 5f3c 2c5f 2fbd
00000240: f2d4 3abd 367e abbc a3a7 7cbb af2f 013c
00000250: c28a 493d 6a89 83bb dd65 56bc 4c78 13bd
00000260: 1bfa 893c 5088 d0bb 21a7 853b 5d9a acbb
00000270: a1b2 91bd 8391 82bd 0fb0 ba3b f312 c3bc
00000280: 1668 0fbd 748c 11bd 25b4 463d 04fe b0bc
00000290: 3d94 213c c934 993d 0a96 88bc 1026 cc3d
000002a0: 786c a0bb b9f0 543c b2d9 893d cd78 323b
000002b0: 643c 1cbc 6771 2abd e3a3 89bc 1783 98bb
000002c0: d758 563c 50a5 02bd 8a4a 63bc d357 9b3d
000002d0: b89c 2f3c 12a1 a53a 3d5d 2fbd ead9 b2bc
000002e0: 74d1 8cbb b400 00bd 96a2 6fbc efd0 fb3c
000002f0: 126e 32bc a9d4 fbbb 85ef 543c 79ec b83a
00000300: b6b6 dd3c b366 a53a aa9a 41bb 9d66 873c
00000310: b6f4 02bc 144b 0b3c 2d7e 623c 87de 46bc
00000320: 6a2a 00be 14a5 c0bc f45e 43bc e5ca 3abc
00000330: 72cd b7bb f12d 0b3b c15f 6c3c 7776 fb3d
00000340: ec3c 63be 7e45 033c bbe9 073c 2c72 d2bd
00000350: 3542 42be b3d3 303b d2b2 85bd 41ba 13bc
00000360: de54 2fbc b612 ccbb 0ea3 2cbd c0bb ebbc
00000370: 0607 49bd 3ddc 91bd 000f 1f3b c8a1 fd3b
00000380: 28e4 6d3b 1b37 31bb 3c9b 0039 541d 403d
00000390: 7b7f 48bc d179 c8bd ac02 0fbd 8842 da3b
000003a0: c270 c73a 9054 0c3d 15ee 91b9 19c0 3c3c
000003b0: 3fd6 cbbb 45da f23b 4c91 91bb c5e6 94bb
000003c0: 450c d6bb f89b 25bc 686e 70bc b1e3 60be
000003d0: 3d5a 953c 61a4 22be 06f2 183c 9824 7cbc
000003e0: 3706 32ba 3e92 b83c ae2e 3ebd 8ab8 733c
000003f0: be20 e0ba 26f0 cfbb ba20 17bc a79a 92bc
0.10015614 -0.027549468 -0.00030073297 0.10806098 0.004635606 0.44987038 0.06046006 0.022118803
-0.00577594 0.009039235 0.005063748 -0.02051632 0.030556621 0.005639207 0.007854577 0.05343534
0.043471947 -0.017886333 0.0050618257 -0.01615514 -0.03731734 0.009307954 0.0047123465 0.031854887
-0.0018001703 -0.0063218353 0.0037816952 -0.0031763285 0.06843554 0.08065953 0.009914401 0.02754049
0.017288288 0.033506166 -0.03818762 0.011227355 -0.00043349306 -0.057825167 0.01763894 -0.07067992
0.005600588 -0.006275889 -0.06274004 0.00077260315 0.0051895175 0.08006266 0.0047968533 -0.012614157
-0.012725716 0.021251546 0.0120141255 -0.081916355 -0.009733562 0.006427445 0.055048827 0.014633551
-0.0025468457 0.02792879 -0.0016974697 -0.059042558 -0.0006698031 0.026278524 0.011764059 0.008903534
-0.02538937 -0.008791231 -0.0036558143 -0.01140226 0.0022453035 -0.006635422 -0.0011529401 0.009604928
0.1313762 0.02941351 0.022440525 -0.010455936 -0.008172754 -0.010036636 0.012158285 -0.11150237
0.19812545 0.002839157 -0.0075044977 0.11428843 0.20113069 -0.0023279358 0.07211655 0.00015003499
0.015895057 0.008179113 0.03850258 0.043356627 0.041400578 0.094503574 0.0046966434 0.0031860564
-0.0048780697 0.010771706 0.004121794 -0.06586596 -0.011904413 0.09762997 0.03749067 -0.0026938948
-0.00385742 -0.03910851 0.010785676 -0.0029928368 -0.00046435394 0.00024438626 0.0025110454 -0.0007048808
0.0030574275 0.011504526 -0.0075699897 0.20359842 -0.030193225 0.1429044 -0.003336304 -0.0010352165
0.0063914843 -0.019136604 0.0108147375 -0.027180498 0.0074630575 -5.8948e-06 -0.0005404077 0.0091180075
-0.10346048 0.02796649 -0.016032934 -0.09255336 -0.027294276 -0.44233668 -0.051966377 -0.020604389
-0.0080165705 0.02462342 -0.010449986 0.014661666 -0.02226869 -0.006196167 0.013613256 -0.042815372
-0.045613237 -0.020934206 -0.0038552068 0.007884904 0.049204595 -0.0040141838 -0.01308581 -0.036003396
0.016842892 -0.006363906 0.004078761 -0.005267425 -0.07114149 -0.063754104 0.0056972574 -0.023812747
-0.035011373 -0.035534337 0.048511643 -0.0216055 0.009862003 0.07480771 -0.016673107 0.09968197
-0.004895743 0.012996846 0.06730975 0.0027232647 -0.009535883 -0.041612055 -0.01680178 -0.004654299
0.0130827045 -0.031895936 -0.013872752 0.075851105 0.010718517 0.0012636504 -0.04281353 -0.021832425
-0.0042974297 -0.03125067 -0.014626166 0.030739276 -0.010890501 -0.007685263 0.012996559 0.001410856
0.027064662 0.0012619108 -0.002954165 0.016528422 -0.007992914 0.008501787 0.013824028 -0.012138016
-0.1251618 -0.023516215 -0.011924494 -0.011400913 -0.005609208 0.00212371 0.014427126 0.12278455
-0.22191209 0.008012174 0.008295472 -0.10275683 -0.18970568 0.0026981651 -0.06528248 -0.009016574
-0.010701386 -0.0062278165 -0.04214769 -0.02877605 -0.049078964 -0.07122085 0.0024270415 0.007740233
0.0036299322 -0.0027040902 0.0001226486 0.04690297 -0.012237425 -0.0978886 -0.034914657 0.006660763
0.00152161 0.034260333 -0.0002783394 0.011520409 -0.0062206085 0.0074112737 -0.0044423696 -0.0045441114
-0.0065322244 -0.010107987 -0.01467476 -0.21961857 0.018231506 -0.15883018 0.009335047 -0.015389584
-0.0006791087 0.022530671 -0.046431236 0.0148755405 -0.0017099602 -0.0063457666 -0.009224111 -0.01789601

action_model._discrete_distribution.branches.1.bias f4 [2]
00000000: f281 a0bc 2b82 a03c
-0.019593213 0.019593319
