results/first/SpaceInvaders/SpaceInvaders-3940.onnx (onnx, 78374 bytes, 9 tensors)

discrete_act_size_vector f4 [1, 2]
0	0x40400000	3.0
1	0x40000000	2.0

network_body._body_endoder.seq_layers.0.weight f4 [128, 4]
0	0x3b78dd24	0.0037973607
1	0x3f54e72d	0.83165246
2	0x3f48c8e3	0.7843153
3	0x3f1db33d	0.6160162
4	0x3edf2c3e	0.43588442
5	0x3f02a810	0.51037693
6	0x3dc8f0fc	0.09811589
7	0xbd5dda1b	-0.05416308
8	0x3eb48052	0.3525415
9	0xbeccc9ef	-0.39997813
10	0x3e8b8bad	0.27255002
11	0xbef1e375	-0.47243848
12	0x3e0e1199	0.138739
13	0xbf2f0497	-0.6836638
14	0xbe8eb576	-0.2787282
15	0x3d781d64	0.060574904
16	0xbf265747	-0.64976925
17	0xbc0adb10	-0.00847508
18	0x3ec3055f	0.38090035
19	0xbe9b86e2	-0.30376345
20	0xbe96b78a	-0.29436904
21	0xbeb1c094	-0.34717238
22	0x3e79afd7	0.24383484
23	0xbe86c04d	-0.2631859
24	0x3eacd228	0.33754086
25	0xbe1306d9	-0.14358081
26	0xbf5a8096	-0.85352457
27	0x3f15fe91	0.5859156
28	0xbf279e23	-0.6547567
29	0x3f0d3489	0.5515829
30	0x3f4a52f3	0.7903282
31	0x3d4978eb	0.049187582
32	0xbf3993c8	-0.7249112
33	0x3df451ff	0.11929702
34	0xbf8ff0ff	-1.1245421
35	0x3f3c9b42	0.73674405
36	0xbe0e4bc2	-0.13896087
37	0x3ead7ea7	0.3388569
38	0x3ea5eeb2	0.32408673
39	0xbf111f74	-0.5668862
40	0x3e062091	0.1309836
41	0x3e12113f	0.14264391
42	0xbd87e01b	-0.066345416
43	0xbed46b6b	-0.41488203
44	0xbe48d8a4	-0.19613892
45	0xbe2af88d	-0.16696377
46	0x3ea88e04	0.3292085
47	0x3df47a96	0.11937444
48	0x3f116ca1	0.5680638
49	0xbe9e7cf9	-0.30954722
50	0x3f83eff4	1.0307603
51	0x3f0f6aee	0.56022537
52	0xbe31c911	-0.17361857
53	0x3df00dc2	0.11721374
54	0xbeae7ac8	-0.3407805
55	0xbbb4a6f2	-0.0055130655
56	0x3da95e85	0.08269981
57	0xbf811b0d	-1.008638
58	0x3ea26685	0.3171884
59	0x3f1983b7	0.59966606
60	0xbe8a5b63	-0.27022848
61	0xbeaee46c	-0.34158647
62	0x3f48bd1f	0.78413576
63	0xbe804c5d	-0.2505826
64	0x3f042ccc	0.51630855
65	0xbf061ea9	-0.52390534
66	0x3ec3cbba	0.3824137
67	0xbe66b712	-0.22530773
68	0x3cb3437f	0.02188277
69	0xbed860ce	-0.42261356
70	0xbe3bd2aa	-0.1834208
71	0xbe6895a0	-0.22713327
72	0xbd48cf99	-0.049026106
73	0x3e3c7ac6	0.1840621
74	0x3e21b13e	0.15790269
75	0xbf7ee168	-0.9956269
76	0x3f1917c0	0.59801865
77	0xbf63c8be	-0.88978183
78	0x3f425f9e	0.7592715
79	0xbdf11cda	-0.11773081
80	0x3d941eda	0.07232447
81	0x3de5409c	0.11193964
82	0xbe8f1249	-0.27943638
83	0x3f5f5a39	0.87247044
84	0xbf3db113	-0.7409832
85	0x3e7de83c	0.24795622
86	0x3f39d6fd	0.7259367
87	0xbe09ed6e	-0.13469478
88	0x3ef385ce	0.47563022
89	0xbe8d81ae	-0.27638
90	0xbf1fb074	-0.6237862
91	0xbf36c289	-0.7139059
92	0xbe1812b4	-0.14850885
93	0xbe3c5f40	-0.1839571
94	0x3d8ea40b	0.069648825
95	0xbe06a4bf	-0.13148783
96	0xbe918769	-0.28423622
97	0xbe4a4c6c	-0.19755715
98	0x3e5fbaaa	0.2184855
99	0xbe182c72	-0.14860705
100	0x3e6117c3	0.2198172
101	0x3e9dde5a	0.30833703
102	0xbe93af2b	-0.2884458
103	0xbed62f76	-0.41833085
104	0xbf043095	-0.5163663
105	0x3b68a160	0.0035496578
106	0xbf0c62b3	-0.54838103
107	0x3f00ec39	0.5036045
108	0x3f845d69	1.0341007
109	0x3eebfbff	0.46090695
110	0x3e8ed6d4	0.27898276
111	0xbd239e52	-0.039945908
112	0x3e087415	0.13325532
113	0x3f83fa5c	1.0310779
114	0xbee499f2	-0.446487
115	0x3f8256ff	1.0182799
116	0x3fbc1826	1.469487
117	0xbe3f4ba9	-0.18681206
118	0x3ec5b63a	0.3861559
119	0xbeea4401	-0.45755008
120	0xbe536b10	-0.2064631
121	0x3e7aceb0	0.24492908
122	0x3eb8a2f2	0.36061817
123	0x3e82f3f5	0.2557675
124	0x3fa4d809	1.2878429
125	0x3ddee019	0.10882587
126	0xbb709a1f	-0.0036712957
127	0x3f267a16	0.6503004
128	0x3ece3e05	0.40281692
129	0x3ed58201	0.41700748
130	0xbdb3b1aa	-0.08774121
131	0x3f0235c9	0.5086332
132	0xbe1158f2	-0.14194086
133	0xbe4c6d64	-0.19963604
134	0xbcae53d7	-0.021280212
135	0x3f3157db	0.6927468
136	0x3e889b98	0.2668121
137	0xbce74cda	-0.028234888
138	0x3e546175	0.20740302
139	0xbec190b3	-0.3780571
140	0xbed9888f	-0.42486998
141	0xbe96063a	-0.29301625
142	0x3f2833aa	0.65703833
143	0xbe2ba81f	-0.16763352
144	0xbe7edfac	-0.24890012
145	0xbe92950d	-0.28629342
146	0x3e2451ea	0.16046873
147	0x3f3a9bec	0.7289417
148	0x3f89315b	1.0718187
149	0x3e65f6e6	0.22457466
150	0x3e8bb911	0.27289632
151	0x3f8780ad	1.0586144
152	0xbe688455	-0.2270673
153	0xbe29442c	-0.16529912
154	0xbf32e4dc	-0.6988046
155	0xbf823355	-1.0171915
156	0xbef2eb13	-0.47444972
157	0x3e8d6e28	0.27623105
158	0xbe4338a0	-0.1906457
159	0x3ee67cf2	0.450172
160	0x3e00e6e1	0.12588073
161	0x3e19f9ad	0.1503665
162	0x3f068b36	0.5255617
163	0xbf0203e6	-0.507872
164	0x3df7b174	0.120943934
165	0x3e6582b2	0.22413138
166	0xbe73faf0	-0.23826194
167	0xbefc5114	-0.49280608
168	0x3f447d8c	0.7675407
169	0x3dec897f	0.11549663
170	0xbe979977	-0.29609272
171	0x3db757e8	0.08952314
172	0xbf28d23e	-0.65945804
173	0xbe3d638b	-0.18495004
174	0xbd534d48	-0.051587373
175	0xbe84952b	-0.25895056
176	0x3da1b10a	0.07895096
177	0x3ee9c23e	0.45656008
178	0xbf07bb42	-0.5302011
179	0x3f28711d	0.657976
180	0x3f0db52b	0.55354565
181	0xbea2ee3a	-0.31822377
182	0x3e382d3c	0.17986006
183	0xbf16127e	-0.58621967
184	0xbd9b70bd	-0.075898625
185	0x3d2c0d49	0.042004857
186	0x3e69846b	0.2280442
187	0xbe27c1b2	-0.16382483
188	0x3e55809b	0.2084984
189	0x3dfed97d	0.12443826
190	0x3ee211b3	0.44154128
191	0x3eeb9dc9	0.46018818
192	0x3f57a031	0.8422881
193	0xbe33e459	-0.17567576
194	0x3bd96777	0.0066346484
195	0xbed09161	-0.40735915
196	0x3e751523	0.23933844
197	0xbf211e45	-0.6293681
198	0x3f020c84	0.5080035
199	0x3ebe968a	0.37224227
200	0x3f48ef35	0.7849
201	0x3eb51010	0.35363817
202	0x3f1bd021	0.60864455
203	0xbf3cf943	-0.73817843
204	0x3f850cc7	1.0394524
205	0xbf4d627d	-0.80228406
206	0x3f61d047	0.8820843
207	0xbf520974	-0.82045674
208	0x3f91d7eb	1.1394018
209	0xbf009be5	-0.50237876
210	0x3ea60318	0.32424235
211	0x3e9dbbd1	0.30807355
212	0xbf69acd8	-0.91279364
213	0xbe6b37f2	-0.2297056
214	0x3e080f5b	0.13287108
215	0x3ec13945	0.37739006
216	0x3de4cb9f	0.1117165
217	0x3f16668e	0.58750236
218	0x3edfb2fe	0.43691248
219	0x3e49ace4	0.19694859
220	0xbcb1cca8	-0.021704033
221	0xbe0a0db1	-0.13481785
222	0x3f0f64c8	0.56013155
223	0xbf8b5a71	-1.0886976
224	0xbe96f489	-0.2948344
225	0x3e5d316f	0.21600889
226	0xbe58d465	-0.21174772
227	0xbedc95ff	-0.43083188
228	0xbe1bca06	-0.15213785
229	0x3f3a6254	0.72806287
230	0x3eff3769	0.49846962
231	0xbed191d0	-0.4093156
232	0xbdafe9f0	-0.08589542
233	0x3f7a582a	0.9779078
234	0x3e054cbf	0.13017558
235	0x3e916d56	0.2840373
236	0x3e312d48	0.1730243
237	0x3f7b3dac	0.9814098
238	0x3e12fadb	0.14353506
239	0xbd152b59	-0.036418293
240	0x3ca3b246	0.019982468
241	0xbecd807a	-0.40137082
242	0x3e94c462	0.29056078
243	0x3f77885a	0.9669243
244	0xbfaacf0d	-1.3344437
245	0xbf3eaa26	-0.74478376
246	0x3daa3630	0.08311117
247	0xbc81244e	-0.015764382
248	0x3ddac2eb	0.10681709
249	0x3f50bb1d	0.8153551
250	0x3f1cabe6	0.61199796
251	0x3e1e1793	0.1543868
252	0x3de1096b	0.109881245
253	0xbf0a95d1	-0.5413485
254	0xbdd99e3b	-0.10625883
255	0x3f7ac1e2	0.9795209

network_body._body_endoder.seq_layers.0.bias f4 [128]
0	0xbd179034	-0.037002757
1	0x3d2600c5	0.040528078
2	0x3d18e17f	0.037324425
3	0x3a974d2c	0.0011543385
4	0x3bd8f374	0.0066208187
5	0x3e75961d	0.23983045
6	0x3cfc51d8	0.030800745
7	0xbd5f5837	-0.054527488
8	0x3ca9160f	0.020640401
9	0xbcea23f9	-0.028581606
10	0xbcd6709c	-0.026176743
11	0xbd2588dc	-0.040413722
12	0xbd119ed6	-0.03555187
13	0x3ca9830b	0.020692369
14	0x3b85c404	0.004082205
15	0xbd421cae	-0.047390632
16	0x3e51ec97	0.20500408
17	0x3e2d36a3	0.16915374
18	0x3c276fcb	0.010219525
19	0x3d14c902	0.03632451
20	0xbc62bcbc	-0.013838943
21	0x39a73ce4	0.0003189809
22	0x3d28a71e	0.041175
23	0x3e4bc34a	0.19898716
24	0x3c72304f	0.0147820255
25	0x3d594921	0.053048257
26	0x3c1f9397	0.009739778
27	0x3d9885b6	0.07447378
28	0x3ce75b29	0.02824171
29	0x3bca015b	0.0061647124
30	0xbc564277	-0.01307737
31	0x3dac1693	0.08402743
32	0xbcfaf69c	-0.03063517
33	0x3dfbc1a0	0.122927904
34	0xbcfc1c8f	-0.030775337
35	0xbcdc41bc	-0.026886813
36	0x3e2bb7e9	0.16769375
37	0xbdd8dab5	-0.1058859
38	0x3bd1da0c	0.006404167
39	0xbd324514	-0.04352291
40	0xbd0810c4	-0.033219114
41	0x3d14644a	0.036228456
42	0xbd0e453b	-0.034733992
43	0xbaba854c	-0.0014230399
44	0x3cf48486	0.029848348
45	0x3d3e6ead	0.046492267
46	0x3c876835	0.016529182
47	0xba48e316	-0.0007663233
48	0x3d39a9cf	0.045327958
49	0x3e7033cc	0.23457259
50	0x3d300ab9	0.042978976
51	0x3d198a40	0.03748536
52	0x3e1f5bff	0.15562437
53	0x3c1e0746	0.009645289
54	0xbd000bac	-0.03126113
55	0xbcc15714	-0.023601092
56	0xbcc38705	-0.023868093
57	0xbc0cf0ef	-0.008602365
58	0xbd01b2a3	-0.031664502
59	0x3bb885da	0.0056311907
60	0x3e39ab92	0.18131855
61	0x3d297bd5	0.04137786
62	0xbca8b1d5	-0.02059261
63	0x3b9f23a9	0.004856546
64	0xbd01e217	-0.031709757
65	0xbd5642e5	-0.05230989
66	0x3bb8905e	0.0056324443
67	0x3e3e38fc	0.18576425
68	0xbd23abd2	-0.039958782
69	0x3e124f74	0.14288121
70	0xbd35cb3b	-0.04438327
71	0x3d64d9ef	0.0558719
72	0xbca93124	-0.020653315
73	0xbd2efc01	-0.0427208
74	0x3b23fdbf	0.002502307
75	0x3dd34c1a	0.103172496
76	0x3df5bd16	0.11998956
77	0x3d185ed6	0.037199818
78	0x3c54d1aa	0.012989441
79	0xbb715629	-0.0036825037
80	0x3d7ec763	0.06220187
81	0xbc5210e7	-0.012821413
82	0xbce1957f	-0.027537106
83	0x3df653e5	0.1202772
84	0x3d02e753	0.03195889
85	0xbd0f139e	-0.034930818
86	0xbd898ba1	-0.06716085
87	0x3de8c2ca	0.11365278
88	0xbca824f8	-0.02052544
89	0x3c99b944	0.0187651
90	0xbbb3ed5f	-0.0054909433
91	0xbd2479fc	-0.040155396
92	0xbd1fb523	-0.038991105
93	0x3d4ecb7d	0.05048703
94	0xbbac7ae8	-0.005263675
95	0xbda756cf	-0.08170854
96	0x3c703808	0.014661796
97	0xbd384a45	-0.044992704
98	0xbd13c6ae	-0.036078148
99	0xbcb9c605	-0.02267743
100	0x3d72c638	0.059271067
101	0xbbd21513	-0.0064112036
102	0x3d9baabd	0.07600925
103	0xbcba72f6	-0.022759896
104	0x3d481081	0.048843864
105	0xbd37ebfb	-0.044902783
106	0xbc8b499b	-0.017002871
107	0xbd7a8ea5	-0.061171193
108	0xbd0e8ae3	-0.03480042
109	0xbcf413ae	-0.02979454
110	0x3e6516a7	0.22371922
111	0xbd0c3681	-0.034231666
112	0xbd5978f9	-0.053093884
113	0x3a1bed6b	0.0005948159
114	0xbd697e30	-0.057005107
115	0xbd14a3aa	-0.036288895
116	0x3c8069c2	0.01567543
117	0xbd1b3e64	-0.037901297
118	0xbc0c4a5d	-0.008562651
119	0x3e7d7588	0.24751866
120	0xba09333a	-0.00052337686
121	0xbc1251ca	-0.008930633
122	0xbc3379b0	-0.0109543055
123	0x3d2ffa25	0.042963166
124	0xbd2815f4	-0.04103656
125	0xbb67d9f6	-0.0035377718
126	0x3d0b9db0	0.03408593
127	0xbcd8b812	-0.026454959

network_body._body_endoder.seq_layers.2.weight f4 [128, 128]
0	0x3ab95cb3	0.0014142006
1	0x3d520cfb	0.05128191
2	0xbd695257	-0.05696329
3	0xbd570f38	-0.052504748
4	0xbe140288	-0.1445409
5	0x3dddec3d	0.108360745
6	0xbb3aaab6	-0.00284831
7	0x3c4eb300	0.012615919
8	0xbd63bc55	-0.05559953
9	0x3c39a02a	0.01132969
10	0x3c4ed740	0.012624562
11	0xbdac4e15	-0.084133305
12	0xbc047a10	-0.008085743
13	0xbdbcbe91	-0.09216035
14	0xbacd710a	-0.0015673947
15	0x3e17a54d	0.14809151
16	0x3cd05d13	0.025435006
17	0x3dfd235b	0.12360259
18	0x3e3767fe	0.17910764
19	0x3d97dfcf	0.07415735
20	0xbe0c15e7	-0.1368023
21	0xbcf0757b	-0.029352894
22	0x3e2c54b2	0.16829184
23	0xb92d0954	-0.0001650204
24	0x3c1f7eea	0.0097348485
25	0x3d9fbd7f	0.077998154
26	0x3b580b16	0.0032965592
27	0x3dca6e79	0.09884352
28	0xbdfba529	-0.12287361
29	0xbc4d6e27	-0.012538469
30	0xbcb857a2	-0.022502724
31	0x3cfed123	0.031105584
32	0x3c836b8c	0.016042493
33	0xbdac123b	-0.08401915
34	0x3d4acdb9	0.0495126
35	0x3bb08855	0.005387346
36	0x3e2f2657	0.17104469
37	0xbda654b3	-0.08121624
38	0x3e0f272c	0.13979787
39	0xbd866129	-0.065615006
40	0xbd026770	-0.031836927
41	0xbccdb969	-0.025112825
42	0x3dd6633f	0.104681484
43	0xbd6c6841	-0.05771661
44	0x3de09bd8	0.10967225
45	0x3e1fb5a8	0.1559664
46	0x3970a6bc	0.00022950297
47	0xbd117242	-0.035509355
48	0x3e2b478f	0.16726516
49	0x3e8d8e70	0.27647734
50	0xbddde2bd	-0.108342625
51	0x3de9185e	0.11381601
52	0xbc71a411	-0.014748589
53	0xbd92efa6	-0.071746156
54	0x3d84c1cc	0.06482276
55	0x3d276315	0.040865976
56	0xbdbd2b97	-0.0923683
57	0xbc46ea6a	-0.01214085
58	0x3b6c5002	0.003605843
59	0x3dd0dc56	0.10198276
60	0x3cc91db5	0.024550298
61	0xbdc99c63	-0.098442815
62	0x3da101a1	0.07861639
63	0xbd77afdf	-0.060470458
64	0xbe6c290a	-0.2306253
65	0xbe15b624	-0.14620262
66	0xbdc82770	-0.09773147
67	0x3db54b70	0.08852279
68	0xbc2b19a2	-0.010443123
69	0x3d82db60	0.06389499
70	0xbc3cb178	-0.011516921
71	0x3e0d92ed	0.13825579
72	0xbcdcceb6	-0.026954036
73	0xbe3a9ee3	-0.18224673
74	0xbdbfdac0	-0.09367895
75	0x3c4551ee	0.012043459
76	0x3cb617b3	0.022228098
77	0x3dc9ebf3	0.09859457
78	0x3e4958e6	0.19662818
79	0xbe118c35	-0.14213641
80	0x3c4f292c	0.0126440935
81	0xbd72f70a	-0.059317626
82	0xbb26eed1	-0.0025471936
83	0xbd2e7a76	-0.042597257
84	0x3ca6b6a7	0.020350767
85	0xbd9bea1d	-0.07613013
86	0xbde11e6d	-0.109921314
87	0x3d97d0b9	0.074128576
88	0xbdf0d166	-0.117586896
89	0xbe09eaba	-0.13468447
90	0x3e1bea33	0.15226059
91	0xbd47392c	-0.048638508
92	0xbdee5e18	-0.11639041
93	0xbd907d9d	-0.07055209
94	0xbdca7238	-0.09885067
95	0x3c8e1b16	0.0173469
96	0xbcd07a1a	-0.025448848
97	0xbd934269	-0.07190401
98	0x3e0a9f4c	0.1353733
99	0x3d495a6d	0.049158502
100	0xbddebb02	-0.10875513
101	0x3cb669ef	0.02226731
102	0xbcc5dcd4	-0.02415315
103	0xbe257410	-0.16157556
104	0x3e02de19	0.12780036
105	0xbdc5745b	-0.09641334
106	0xbe1c0f2c	-0.15240163
107	0x3deca18f	0.11554252
108	0x3e00b885	0.12570389
109	0xbdbca813	-0.09211745
110	0xbda106b9	-0.0786261
111	0xbbbc4e06	-0.005746606
112	0xbca1d257	-0.019753618
113	0x3e1b8fcb	0.15191571
114	0xbdb9d925	-0.0907462
115	0xbd5add64	-0.05343379
116	0xbe04ad70	-0.12956786
117	0xbd86804f	-0.06567442
118	0x3ccf3a4d	0.025296355
119	0x3e10e826	0.14151058
120	0xbd92ec82	-0.071740165
121	0xbd92fbc4	-0.07176927
122	0x3e2bd2f4	0.16779691
123	0xbe349d87	-0.17638217
124	0xbd9d2e0b	-0.076747976
125	0x3bca688b	0.0061770133
126	0x3d5d990d	0.05410104
127	0x3ce1f7d8	0.027584001
128	0xbcefa33a	-0.029252637
129	0x3cf92200	0.03041172
130	0xbdf7c485	-0.1209803
131	0xbd133231	-0.035936538
132	0x3da3c9ac	0.0799745
133	0xbd9517c8	-0.072799265
134	0xbb6b70ba	-0.0035925345
135	0xbe678803	-0.22610478
136	0x3cd1fc6f	0.025633065
137	0x3de99522	0.11405398
138	0xbd6b19d5	-0.057397682
139	0x3bf38e30	0.0074327216
140	0x3d8c6b69	0.06856424
141	0xbcac5b49	-0.021039622
142	0xbd0776a4	-0.03307213
143	0xbe8e970f	-0.27849624
144	0xbc866c1b	-0.01640897
145	0x3da8948d	0.08231459
146	0x3d10db5c	0.035365447
147	0x3d125472	0.035725065
148	0xbe305d55	-0.17223103
149	0xbd0051b3	-0.031327914
150	0xbd047f00	-0.03234768
151	0xbe57782e	-0.21041939
152	0x3d4e7a5c	0.05040966
153	0xbd56d1ed	-0.052446295
154	0x3d988482	0.07447149
155	0xbd1f5ef1	-0.038908903
156	0xbc538c26	-0.012911832
157	0x3de2e84a	0.11079462
158	0xbda90dc1	-0.082545765
159	0x3e00b722	0.1256986
160	0x3d93dd78	0.07219976
161	0xbc06f040	-0.008235991
162	0xbdcf40db	-0.10119792
163	0xbbfa3eac	-0.0076368656
164	0xbd2cf549	-0.04222611
165	0x3c4d20da	0.012520039
166	0x3bcd1e0c	0.0062596854
167	0x3d8a6330	0.067572
168	0x3da7ae83	0.08187582
169	0x3d0e617e	0.034760945
170	0x3e46da03	0.19419102
171	0xbd0b9841	-0.034080748
172	0xbd87899d	-0.066180445
173	0xbdfb72b0	-0.12277734
174	0xb9f3e2ba	-0.00046517496
175	0x3daa68ab	0.08320745
176	0xbb80acfc	-0.0039268713
177	0xbdd275ea	-0.102763966
178	0xbd4332c0	-0.04765582
179	0x3da72ac4	0.08162454
180	0xbe58ecbf	-0.21184061
181	0xbd0a7978	-0.033807248
182	0xbe060276	-0.13086876
183	0x3d9ee93c	0.0775933
184	0x3d63aa0d	0.055582095
185	0xbddb465e	-0.10706781
186	0xbdeb3685	-0.11485008
187	0xbdb634dd	-0.088968016
188	0xbd81fe8e	-0.063473806
189	0x3d73f3f1	0.059558813
190	0xbc92637f	-0.017869709
191	0x3d0a806a	0.03381387
192	0xbac4c48d	-0.001501219
193	0x3d9c72e2	0.076391
194	0xb985e9fd	-0.00025542072
195	0xbe45480d	-0.19265766
196	0xbc8d3941	-0.017239215
197	0x3e86292a	0.2620328
198	0x3e11fad1	0.14255835
199	0x3d7e6a68	0.062113196
200	0x3d7ea1c8	0.062166005
201	0xbe43dd3b	-0.19127361
202	0x3da56080	0.080750465
203	0xbe11d497	-0.14241253
204	0xbdc872ba	-0.09787507
205	0xbd8ee7b4	-0.069777876
206	0x3d819177	0.06326573
207	0x3c941c97	0.018080039
208	0x3d8dddbb	0.06927057
209	0xbda860ec	-0.082216114
210	0xbdc8ae29	-0.097988434
211	0xbdf2d217	-0.11856478
212	0xbd96fd8c	-0.07372579
213	0xbd1f148e	-0.03883796
214	0x3cbaf48f	0.022821693
215	0xbd50bdb6	-0.050962172
216	0xbdc33b19	-0.09532756
217	0x3d02f813	0.031974863
218	0x3d9d8629	0.07691605
219	0xbdc25259	-0.09488363
220	0xbc23cc07	-0.009997374
221	0x3e3d31dd	0.18476053
222	0x3d53ce84	0.05171062
223	0xbcb6a4c6	-0.022295367
224	0x3cd1159b	0.025522998
225	0x3c6c5e59	0.014426791
226	0xbe2e5474	-0.17024404
227	0x3d47097b	0.048593026
228	0xbdd35974	-0.10319796
229	0x3e200d01	0.1562996
230	0x3d8fc336	0.070196554
231	0x3d01e2dd	0.031710494
232	0x3cbf1510	0.023325473
233	0x3dd1a4ea	0.10236533
234	0x3dc66123	0.09686496
235	0x3d3de6b8	0.04636261
236	0xbe24cfd4	-0.16094905
237	0xbe19870e	-0.14992926
238	0x3de475f0	0.11155307
239	0x3d09e0ca	0.03366164
240	0xbe36ab7e	-0.17838857
241	0x3c878cf5	0.016546706
242	0x3caa4f8d	0.020789886
243	0xbe416a5a	-0.18888226
244	0x3d2c34db	0.042042594
245	0x3c891afb	0.016736498
246	0xbcf0aeb9	-0.02938019
247	0xbef28172	-0.47364384
248	0x3d9602a7	0.07324725
249	0x3d5e07e1	0.054206733
250	0xbcba4f8b	-0.022743007
251	0xbb9a7e4d	-0.0047147633
252	0xbe184bb3	-0.14872627
253	0xbcd2d384	-0.025735624
254	0x3e7b612b	0.24548785
255	0x3cce6d61	0.02519864

network_body._body_endoder.seq_layers.2.bias f4 [128]
0	0xbc506fa9	-0.012721934
1	0xbcfb4ec2	-0.030677203
2	0xbcb18364	-0.021669097
3	0xbb9895dc	-0.0046565365
4	0x3b051903	0.0020309098
5	0x3b8a9c2b	0.0042300425
6	0xbc817fd9	-0.015808033
7	0xbc174ab9	-0.009234124
8	0xbcd27ffe	-0.025695797
9	0x3c165629	0.009175816
10	0x3c0106ac	0.007875126
11	0xbc0b5bb7	-0.008505753
12	0xbbf84251	-0.007576265
13	0x3ba47de3	0.0050198897
14	0x3cef8c64	0.029241748
15	0xbd02e0bb	-0.0319526
16	0xbd5259bd	-0.051355112
17	0xbc68b541	-0.014203371
18	0xbc31e582	-0.010857942
19	0xbc25b109	-0.010113009
20	0xbbc409c3	-0.005982609
21	0xbcd84835	-0.026401618
22	0x3c2648cc	0.010149192
23	0x3a9ef81e	0.0012128388
24	0xbc917757	-0.017757101
25	0xbbf3cb28	-0.0074399896
26	0x3b050fe1	0.0020303654
27	0x3b388464	0.0028155083
28	0x3dac02bc	0.08398959
29	0xbbf16253	-0.0073664575
30	0xbc83b73a	-0.01607858
31	0xbc4e7ac1	-0.012602509
32	0xbc47bb54	-0.012190659
33	0x3c6ca147	0.014442748
34	0xbc713494	-0.014722008
35	0xbce0e6d7	-0.027453823
36	0xbbb179e0	-0.00541614
37	0x3bab3225	0.0052244836
38	0xbd66e1fc	-0.05636786
39	0xbb3d068a	-0.002884301
40	0xbc466211	-0.012108342
41	0xbd04a932	-0.03238792
42	0x39cd2f7e	0.0003913603
43	0xbcc90720	-0.02453953
44	0xbc24d6ff	-0.010061025
45	0xbcd04657	-0.025424166
46	0xbb96dbe2	-0.004603849
47	0xbcaba43f	-0.020952342
48	0xbd02fb7b	-0.03197811
49	0xbcd3a0ff	-0.025833605
50	0x3d7a6c4b	0.061138432
51	0xbc2907bb	-0.0103167845
52	0xbb814b4e	-0.0039457446
53	0xbb11c692	-0.0022243601
54	0x3c659b95	0.014014144
55	0x3bd24595	0.006416986
56	0xbc5332c4	-0.012890521
57	0xbd31995b	-0.04335914
58	0x3bfa81ac	0.0076448526
59	0xbba991d9	-0.005174857
60	0xbba0139d	-0.0048851506
61	0xbc974947	-0.018467559
62	0xbce2106a	-0.027595717
63	0xbc867bcc	-0.016416453
64	0xbc71880a	-0.014741907
65	0xbc8e33bd	-0.017358655
66	0x3aa6bc4f	0.0012720915
67	0x3c8c3681	0.017115833
68	0xbd20ef56	-0.03929075
69	0xb978db77	-0.0002373288
70	0xbbfa62c5	-0.007641169
71	0xbc98ed90	-0.018667966
72	0x3ccee014	0.025253333
73	0x3d8fc747	0.07020431
74	0xbd00f283	-0.031481277
75	0xbbc6c447	-0.0060658786
76	0x3b7d1eda	0.0038623125
77	0x3c1722b7	0.009224585
78	0xbc4d0d04	-0.01251531
79	0xbc564dd3	-0.013080078
80	0xbce43d3f	-0.027861236
81	0xbc90cdf5	-0.017676333
82	0x3cb8b11e	0.022545394
83	0xbc77c89f	-0.015123515
84	0xbc844fd7	-0.016151352
85	0xbc0f6785	-0.008752708
86	0xbc1f3a52	-0.0097184945
87	0xbbce3121	-0.0062924777
88	0xbd125440	-0.03572488
89	0xbc929e98	-0.017897889
90	0x3b557c98	0.0032575484
91	0x3c8a0c9c	0.016851716
92	0xbc160085	-0.009155397
93	0xbcb7c56a	-0.022433002
94	0xbc6e0bc8	-0.014529176
95	0xbd32a9d6	-0.043619
96	0xbcdf4460	-0.027254283
97	0x3b811fb3	0.0039405464
98	0x3d71541b	0.0589181
99	0x3cb250d4	0.021767057
100	0xbc65a60e	-0.014016641
101	0xbd01ab5a	-0.031657554
102	0xbc601d69	-0.013678887
103	0xbc46e464	-0.0121394135
104	0xbbf94c71	-0.0076079895
105	0xbcfebd05	-0.03109599
106	0xbb67d352	-0.003537376
107	0x3bfd0f90	0.0077228025
108	0xbd1fdddc	-0.03902994
109	0xbc24f803	-0.010068896
110	0xbbcb885f	-0.006211325
111	0xbc8f9db2	-0.01753125
112	0xbb97679e	-0.0046205064
113	0x3cdb570b	0.026774904
114	0xba92cbfe	-0.001119971
115	0xbc36c1b3	-0.01115458
116	0xbd4ab2e0	-0.049486995
117	0xbc9cd7a3	-0.019145792
118	0xbbed678e	-0.0072450107
119	0xbc198a13	-0.009371298
120	0xbc3189b4	-0.010836054
121	0x3ca1fda1	0.01977426
122	0xbac2c49b	-0.0014859618
123	0x3ceda37e	0.029008623
124	0xbc013cc2	-0.007888021
125	0xbcc37b5d	-0.023862535
126	0xbc95ec8b	-0.018301269
127	0x3bfe2f3f	0.007757097

action_model._discrete_distribution.branches.0.weight f4 [3, 128]
0	0x3b48f3be	0.003066286
1	0x3ba63d41	0.00507322
2	0x3c010606	0.007874971
3	0x3cb06b7b	0.021535626
4	0xbc24384f	-0.010023191
5	0x3b96b3f2	0.004599088
6	0x3a8f9ee1	0.0010957384
7	0xbc9dbc8d	-0.019254947
8	0xbbc565e3	-0.0060241087
9	0xbcb900aa	-0.022583324
10	0x3cb6dd24	0.022322245
11	0xbbc51401	-0.0060143475
12	0xbc3061d8	-0.010765515
13	0x391b9b93	0.00014839908
14	0xbcbc825a	-0.023011375
15	0xbaa0b067	-0.0012259603
16	0xbb7cd9d0	-0.0038581975
17	0x3b6170a9	0.0034399426
18	0x3bceb764	0.006308483
19	0x3c8c83c8	0.017152682
20	0x3dade471	0.08490837
21	0x3c19790a	0.009367237
22	0x3c23182f	0.009954496
23	0xbbcd01b6	-0.0062563075
24	0x3c8a85e5	0.016909549
25	0x3ba9cfd1	0.0051822443
26	0xbb913b40	-0.004432112
27	0x3bacd288	0.0052741207
28	0xbc3f2fac	-0.011669081
29	0x3bfd693c	0.007733492
30	0xba0b9c20	-0.00053256936
31	0x3ba0121a	0.0048849704
32	0xbc20764b	-0.009793828
33	0xbd05889a	-0.032600977
34	0x3b308bcd	0.0026938797
35	0x3bd6442c	0.0065388884
36	0x3c8342a2	0.016022984
37	0xbc393aa2	-0.011305483
38	0x3b5e72ad	0.0033942864
39	0xb9dba584	-0.00041894254
40	0xbb80fb96	-0.0039362414
41	0xba9daa8b	-0.0012028975
42	0x3ba28fce	0.0049609905
43	0x37e7fe0b	2.7655644e-05
44	0x3bf8d01d	0.0075931684
45	0xb90fb2b4	-0.00013704115
46	0xb97f7332	-0.00024361609
47	0x3b2cf668	0.0026391987
48	0x3b315a6e	0.0027061957
49	0xbd761d9a	-0.060086824
50	0x3c257a81	0.010100008
51	0x3b165374	0.0022937926
52	0x3b537504	0.0032265792
53	0x3ac82e7f	0.0015272646
54	0x3c21f353	0.009884673
55	0xb6914d50	-4.330337e-06
56	0xbb3782a9	-0.0028001464
57	0xbb4193b3	-0.0029537498
58	0xbb8570f3	-0.0040723025
59	0x3c5ecedd	0.013599125
60	0x3a7dd7cf	0.0009683342
61	0x3c9f6c80	0.019460917
62	0x3cacaaf8	0.021077618
63	0x3bcb422f	0.006202958
64	0x3c04ab60	0.0080975
65	0x3aad3f68	0.0013217749
66	0xbc048e77	-0.008090607
67	0xbc4a9564	-0.012364719
68	0x39c9797e	0.00038428226
69	0xbc8d871a	-0.017276336
70	0xbb6a31d5	-0.0035735269
71	0x3cc7e74e	0.024402287
72	0x3d843d1e	0.0645697
73	0xbd9181c4	-0.07104829
74	0x3b1531a4	0.0022765184
75	0x39ae9c00	0.00033304095
76	0xbc1a068f	-0.009400978
77	0x3bc4fbc4	0.006011458
78	0x3c3bb594	0.011456866
79	0xbc5573f2	-0.013028132
80	0xbb735036	-0.0037126667
81	0xb9e4efc4	-0.00043666188
82	0xbd2abbed	-0.041683126
83	0x3c483eda	0.012222016
84	0x3ca5731a	0.020196486
85	0x3b42fbae	0.0029752064
86	0xbba587c1	-0.0050515835
87	0xbaf8d394	-0.0018983954
88	0xbb8b910d	-0.0042592348
89	0x3c73dee6	0.014884686
90	0x3c885092	0.016639981
91	0xbc22b8d0	-0.009931758
92	0x3c98406d	0.018585408
93	0x3a30f294	0.0006750014
94	0xbc9cda1e	-0.019146975
95	0xbbd67041	-0.0065441434
96	0x3c0193e1	0.007908792
97	0x3c0ab771	0.008466587
98	0xba77a265	-0.0009446501
99	0xbd12aa7e	-0.035807125
100	0x3cbea392	0.023271356
101	0xbb94463c	-0.004524974
102	0x3b4dc4d2	0.0031397832
103	0x3cd1f283	0.025628334
104	0x3c847bb5	0.01617227
105	0x3c106b35	0.008814623
106	0x3aa26f10	0.0012392718
107	0x3d1c0efe	0.038100235
108	0x39fa4dce	0.00047741685
109	0x3b651f87	0.0034961419
110	0xbc010947	-0.007875747
111	0xbb51473f	-0.0031933335
112	0xbc4bb91c	-0.01243427
113	0x3d8ddd06	0.069269225
114	0xbb24c471	-0.0025141502
115	0xbbc72fef	-0.006078712
116	0xbb032fc7	-0.0020017491
117	0x3b1bbd0f	0.002376381
118	0x3b138ec1	0.0022515508
119	0x3c6ca019	0.014442467
120	0x3aa812f7	0.0012823035
121	0xbbe58a35	-0.007005001
122	0x3c349005	0.011020665
123	0x3ccc5e4b	0.024947306
124	0xbaf3fa74	-0.001861407
125	0x3cc777d5	0.024349133
126	0xbbb4deb1	-0.005519711
127	0x3cc3a0d0	0.023880392
128	0x3bcd9c0a	0.006274705
129	0x3c335566	0.010945654
130	0xbb6d19e7	-0.003617877
131	0xbc8302c4	-0.01599253
132	0x3bdab48f	0.0066743563
133	0xbc17d7e5	-0.009267782
134	0xbba24f32	-0.0049532885
135	0x3c149c28	0.009070434
136	0xbb60f925	-0.003432819
137	0xbdd619e1	-0.10454155
138	0xbd6969ae	-0.05698555
139	0xbc124d1f	-0.00892952
140	0xbcdb157e	-0.026743647
141	0xbd70906f	-0.058731493
142	0xbd5ff055	-0.054672558
143	0xbb3dfb7d	-0.002898901
144	0xbbedec3a	-0.0072608264
145	0x3c53fdc2	0.012938919
146	0xbce44b86	-0.027868044
147	0xbcb636e0	-0.022242963
148	0x3d84c138	0.06482166
149	0xbb862394	-0.0040935967
150	0xbd2010dd	-0.039078582
151	0x3bec4e80	0.0072115064
152	0xbd0172f4	-0.03160377
153	0x3bb4b9ff	0.0055153365
154	0x3ad125de	0.001595672
155	0x3c256497	0.010094783
156	0x3d10b968	0.035333067
157	0xbb0bcc14	-0.0021331357
158	0xbc2d5f02	-0.010581734
159	0xbbf6fb4c	-0.007537281
160	0xbca1e5d3	-0.019762909
161	0x3ce696f4	0.028148152
162	0x3bf20704	0.0073860902
163	0xbbf4e8ea	-0.0074740546
164	0x3b1e5d83	0.0024164624
165	0xbc821e46	-0.015883576
166	0xbbbc7119	-0.005750787
167	0x3af6b426	0.0018821999
168	0xbca0f011	-0.019645723
169	0xbbb77494	-0.005598614
170	0xbbb40b2d	-0.0054944963
171	0xbbc25e4a	-0.0059316503
172	0x3c98725e	0.018609222
173	0xbb2b3bc7	-0.002612816
174	0x3a31478b	0.0006762675
175	0xbb49a4cc	-0.0030768393
176	0xbc43f892	-0.011961119
177	0x3db8e8e8	0.09028798
178	0x3cba513a	0.02274381
179	0x3b6411cf	0.0034800654
180	0x3b4a3b75	0.0030858193
181	0xbba8bd36	-0.005149509
182	0x3bd79a3f	0.006579667
183	0x3c4ce68c	0.0125061385
184	0xbbd09d5f	-0.0063664163
185	0xbc39de62	-0.011344524
186	0xba5dbfb9	-0.000845905
187	0x3b73e1b6	0.0037213392
188	0x3b45690c	0.0030122427
189	0x3c8bb148	0.017052308
190	0xbcd7f7a6	-0.026363205
191	0xbb8784f8	-0.004135724
192	0x3bbfd6ce	0.005854464
193	0xb9ce16f4	-0.00039308483
194	0xbbaccc5a	-0.005273384
195	0x3b047832	0.0020213244
196	0xbb15e24d	-0.0022870481
197	0xbc0c35b3	-0.008557725
198	0xbc8dbb31	-0.017301174
199	0xbce674f4	-0.02813194
200	0x3da09ce2	0.07842423
201	0x3db3c329	0.08777458
202	0xbc0b8409	-0.008515366
203	0x3b89aa55	0.0042012134
204	0xbad60a10	-0.0016329903
205	0x3c4aa5d9	0.012368643
206	0x3c1f3503	0.009717229
207	0xbc20d71d	-0.009816912
208	0xbc59938b	-0.013279806
209	0xbad70904	-0.0016405885
210	0x3d831904	0.06401256
211	0x3c7bf2e1	0.015377731
212	0xbc9540ca	-0.01821937
213	0x3aa9ba1b	0.001294914
214	0xbc038e54	-0.008029539
215	0xbb7957e9	-0.0038046783
216	0xbc1618d2	-0.009161191
217	0x3c78b8ce	0.01518078
218	0xbc68f924	-0.014219556
219	0x3d775545	0.060384054
220	0x3c178d06	0.009249931
221	0xbb26d6ea	-0.0025457689
222	0x3bd93050	0.0066280738
223	0xbbfed785	-0.007777157
224	0x3b19f3e0	0.0023491308
225	0x39954541	0.00028471093
226	0x3cf72938	0.030171022
227	0xbc9ec0bb	-0.01937901
228	0xbb28bdde	-0.0025747935
229	0xbcb2368b	-0.021754524
230	0x3b43339e	0.0029785405
231	0x3c9c7f04	0.019103535
232	0x3d005d2f	0.031338867
233	0x3abda556	0.001446883
234	0xbc9dfff1	-0.019287081
235	0xbd587c82	-0.052853115
236	0xbc9b28c1	-0.018940331
237	0x3ade5415	0.0016962314
238	0xbc08a358	-0.008339725
239	0xbc10f62b	-0.0088477535
240	0xbbebf121	-0.0072003757
241	0xbda085e5	-0.07838038
242	0x3c9daa78	0.019246325
243	0x3c72d76a	0.0148218665
244	0xbbf8dca5	-0.0075946623
245	0x3bbae1f4	0.0057032052
246	0xbda88688	-0.08228785
247	0xbc9ee93e	-0.019398328
248	0xbb895ada	-0.0041917386
249	0x3ba33925	0.0049811774
250	0xbcbc40a0	-0.022980034
251	0x3d8313a3	0.0640023
252	0x3c7a127b	0.015263195
253	0xba979f95	-0.0011567945
254	0xbb882711	-0.0041550477
255	0xbc0ae63c	-0.008477744

action_model._discrete_distribution.branches.0.bias f4 [3]
0	0xbc2e773d	-0.010648546
1	0x3d0befcf	0.034164246
2	0xbd3c365f	-0.04595029

action_model._discrete_distribution.branches.1.weight f4 [2, 128]
0	0xbb1373ba	-0.0022499398
1	0x3b83ee4e	0.004026211
2	0x3b80dc9a	0.0039325478
3	0xbab10223	-0.0013504665
4	0xbc8a2f4b	-0.016868254
5	0xbcb5dbd4	-0.022199549
6	0xbbc78894	-0.0060892794
7	0xbc8080ba	-0.015686382
8	0xbb308ab4	-0.0026938142
9	0x3e19780c	0.149872
10	0x3bbe8111	0.0058137258
11	0x3c07a6fa	0.008279556
12	0xbc470df3	-0.012149322
13	0xbc49c55f	-0.012315123
14	0xbb941f5a	-0.004520339
15	0xbc2d02db	-0.010559763
16	0x3bcd8a30	0.0062725767
17	0x3befc0e3	0.007316695
18	0x3d1c6966	0.038186453
19	0x3c929fea	0.017898519
20	0xbd851253	-0.06497636
21	0x3bc73a5d	0.0060799555
22	0xbbc15466	-0.0058999537
23	0xbc72e475	-0.014824976
24	0x3cc5b7f9	0.024135577
25	0xbc407634	-0.011746932
26	0xbb8ef0eb	-0.0043622158
27	0xbc3e7254	-0.011623938
28	0xbc0cdbd2	-0.008597331
29	0xbb4b8247	-0.0031052993
30	0x3c594ec1	0.013263405
31	0xbb09165d	-0.002091787
32	0x3d73e8d1	0.059548203
33	0x3ca3e903	0.02000857
34	0x3a98f570	0.0011669826
35	0x3be25f2c	0.006908318
36	0xbbd5431e	-0.006508245
37	0x3d2d413e	0.042298548
38	0xbc53ef3c	-0.012935456
39	0xbb6c8d8b	-0.0036095108
40	0x3c8d1fe6	0.017227124
41	0x3c8ee015	0.017440835
42	0x3c04dcc3	0.008109274
43	0x3b304c34	0.002690089
44	0xbc2eb221	-0.010662586
45	0x3bf1316d	0.0073606283
46	0x3c94d21e	0.018166598
47	0x3b9d4eea	0.004800667
48	0x3af873c4	0.0018955399
49	0xbccd79a1	-0.025082411
50	0x3bb1b083	0.005422653
51	0x3c421613	0.011846083
52	0x3a0dc942	0.0005408713
53	0xbc6c376f	-0.014417513
54	0x3cb6fc68	0.022337154
55	0x3bf8a7b8	0.007588353
56	0xbb8c3ffc	-0.0042800885
57	0xbbf642a9	-0.0075152707
58	0xbd014380	-0.031558514
59	0x39e37b01	0.0004338846
60	0xbacb914d	-0.0015530974
61	0xbac10351	-0.001472572
62	0x3c925cff	0.01786661
63	0xbb9fb930	-0.004874371
64	0xbc68cbfe	-0.014208792
65	0xbb872039	-0.0041237143
66	0xbc253c00	-0.010085106
67	0x395d64f2	0.00021113807
68	0xbc1763d2	-0.009240108
69	0x3ba7dffa	0.0051231356
70	0x39cd3c1e	0.00039145438
71	0xbc19ab2e	-0.009379191
72	0x3ccd98bf	0.02509725
73	0x3d037d17	0.032101717
74	0x3b8be237	0.0042689103
75	0x3bfdd242	0.007746012
76	0xbb79a8b5	-0.0038094942
77	0x3b9e3c0b	0.004828935
78	0x3b4ebfa2	0.0031547328
79	0x3bfe30d8	0.0077572875
80	0xbaa05318	-0.0012231795
81	0x3b740dff	0.0037239788
82	0x3c98656a	0.018603045
83	0xbb3b3c3b	-0.0028569836
84	0x3b773dd7	0.0037726068
85	0xbb0d5901	-0.0021567943
86	0x3a781ca2	0.0009464716
87	0x3a4f488f	0.00079072354
88	0xbb861148	-0.0040914156
89	0x3c5878bb	0.013212378
90	0x3c9ccf6d	0.019141877
91	0xbd009274	-0.03138967
92	0x3b2938be	0.0025821174
93	0xbbaf7d72	-0.0053555304
94	0x3cd67662	0.026179496
95	0x3b61a770	0.0034432076
96	0xba578e85	-0.0008222836
97	0xbca34a40	-0.019932866
98	0x3aca8133	0.0015449881
99	0x3de027ef	0.10945117
100	0x3c97b551	0.018519076
101	0x3bdc2df0	0.0067193434
102	0xbc590203	-0.013245109
103	0x3afc5f52	0.0019254482
104	0xbb8f21de	-0.004368051
105	0xbb7c663b	-0.0038513083
106	0x3d3b6ced	0.045758177
107	0x3c91247f	0.017717598
108	0x3c3dc0e4	0.011581633
109	0xbb870226	-0.004120129
110	0xbac8fd41	-0.0015334265
111	0xbadc38af	-0.0016801561
112	0x3aae174d	0.0013282091
113	0x3dfe42c0	0.12415075
114	0x3d029826	0.03188338
115	0xbc7a4604	-0.015275482
116	0x3a5cd98f	0.0008424753
117	0x3b4c307a	0.0031156824
118	0x3da82657	0.08210438
119	0x3c30d7ba	0.010793621
120	0xbaeea65f	-0.0018207541
121	0x3c4471d9	0.011990034
122	0x3ba4033a	0.0050052674
123	0xbd867085	-0.0656443
124	0x3b90b598	0.004416179
125	0xbca01f99	-0.019546317
126	0xbc180778	-0.009279124
127	0xbb4a1be0	-0.0030839369
128	0xbba88caa	-0.0051437216
129	0xbc9572d8	-0.018243238
130	0xbc510887	-0.012758381
131	0xbc414cf3	-0.011798131
132	0x3cd550d7	0.026039524
133	0x3d24cd5e	0.040234916
134	0xbb8e27c2	-0.0043382356
135	0x3ca6ad85	0.020346412
136	0xbc2b4854	-0.010454256
137	0xbe2c1c2a	-0.16807619
138	0xbbe58735	-0.0070046433
139	0xbbc0d8b7	-0.0058852094
140	0x3c20e61e	0.009820489
141	0x3c83cef0	0.016089886
142	0x3c88d8ec	0.016704999
143	0xbc4629e5	-0.012094949
144	0xbc9bf927	-0.019039704
145	0xbc7a35c7	-0.015271611
146	0xbcf7bee9	-0.0302424
147	0xbc6050db	-0.013691152
148	0x3d5aa8da	0.053383686
149	0x3c19f8c3	0.009397688
150	0xbb9a68e7	-0.0047122124
151	0x3cbfc9de	0.023411687
152	0xbd26dc47	-0.040737417
153	0xba92c043	-0.0011196214
154	0xbb7484cf	-0.0037310605
155	0x3cbc90a0	0.023018181
156	0x3b8769b5	0.0041324743
157	0xbae38001	-0.0017356874
158	0x3959a949	0.00020757796
159	0xbbb24a70	-0.0054410025
160	0xbd571807	-0.05251315
161	0xbc8e90bf	-0.017403005
162	0x3ba0f530	0.004912041
163	0x3b5d76e2	0.0033792784
164	0xbb1d5bca	-0.002401101
165	0xbcb37568	-0.02190657
166	0xbbc9e082	-0.0061607966
167	0xbc23a03e	-0.009986935
168	0x39f99480	0.00047603622
169	0xbc3c5d8e	-0.011496915
170	0xbc013c99	-0.007887983
171	0x3aa70f5e	0.0012745669
172	0x3c7eb1a5	0.015545283
173	0x3aba7e3c	0.0014228295
174	0x3c75f696	0.015012404
175	0x3c00d379	0.007862919
176	0xba86a8b2	-0.0010273664
177	0x3c579571	0.013158188
178	0x3b669790	0.0035185553
179	0x3bbe2a2e	0.005803368
180	0x3a5dbfe7	0.00084590766
181	0xbc40a1ee	-0.011757357
182	0xbd1bfc74	-0.038082555
183	0xbba4efa5	-0.0050334507
184	0xbc691ab2	-0.014227556
185	0xbc07c5b6	-0.008286884
186	0x3d0245ec	0.031804964
187	0x3c866722	0.0164066
188	0x3b3b1d90	0.0028551556
189	0x3b8fd773	0.004389697
190	0xbcd50d96	-0.026007455
191	0xbb0c087d	-0.0021367364
192	0xbc0ac76f	-0.0084704
193	0xbbe9b48d	-0.007132119
194	0xbcb427be	-0.021991607
195	0xba6ff677	-0.00091538526
196	0xbc5a41c9	-0.0133213485
197	0x3b53625c	0.0032254672
198	0x3c128acd	0.0089442255
199	0x3c4aff59	0.012389981
200	0xbc8bb189	-0.017052429
201	0xbcaa4e9f	-0.020789443
202	0x3b4d33fe	0.0031311507
203	0x3ca1200f	0.019668607
204	0xbc102df8	-0.008800022
205	0x3bccb47e	0.0062471023
206	0x3b6c206c	0.0036030067
207	0xbb68c73d	-0.0035519146
208	0xbb85d5ef	-0.0040843408
209	0x3b949bfc	0.0045351963
210	0x3c92d02d	0.017921532
211	0x3aa92536	0.0012904766
212	0xbcb60671	-0.022219868
213	0x3b5283b9	0.003212197
214	0xbbc4a5b0	-0.006001197
215	0xbc5b2374	-0.013375152
216	0xbb1ce31e	-0.0023939083
217	0x3bca603d	0.0061760233
218	0xbd162e27	-0.036665108
219	0x3d0168bc	0.031594023
220	0x3b7d0b0c	0.003861132
221	0x3ba125aa	0.00491782
222	0xbc47667d	-0.012170431
223	0xbc30499b	-0.010759736
224	0x3baa44a8	0.0051961727
225	0xbcb8fb12	-0.022580657
226	0x3b3c3a5a	0.0028721304
227	0xbde62145	-0.112368144
228	0xba9c2693	-0.0011913351
229	0xbc9a527d	-0.018838162
230	0xbb6a35b8	-0.0035737585
231	0x3bc062eb	0.005871167
232	0xbbd50b4c	-0.006501591
233	0xbbb49d25	-0.005511897
234	0xbd0bf1df	-0.034166213
235	0xbcc65ca9	-0.024214106
236	0x3b8230f6	0.0039731218
237	0xbba7ae9f	-0.005117252
238	0xbbae2196	-0.0053140623
239	0xbc0fd12c	-0.008777898
240	0xbb76b5b4	-0.0037644925
241	0xbdf3e192	-0.119082585
242	0xbcde19c3	-0.027111894
243	0x3c98f2c2	0.018670443
244	0xbb5a30c7	-0.0033293234
245	0x3b777396	0.0037758104
246	0xbda7f2be	-0.08200596
247	0xbc450143	-0.012024227
248	0x3c2fe65d	0.010736075
249	0x3c00c16e	0.007858617
250	0xbc8de2fa	-0.017320145
251	0x3d79e794	0.061011866
252	0x3b88bdc8	0.0041730143
253	0x3c929bd2	0.017896567
254	0xbc35e899	-0.011102819
255	0xbbbb9b31	-0.0057252874

action_model._discrete_distribution.branches.1.bias f4 [2]
0	0xbac7c6f3	-0.0015241787
1	0x3ac7d42f	0.0015245731
