results/first/SpaceInvaders/SpaceInvaders-15960.pt (torch, 985271 bytes, 83 tensors)

discrete_act_size_vector f4 [1, 2]
0	0x40400000	3.0
1	0x40000000	2.0

network_body._body_endoder.seq_layers.0.weight f4 [128, 8]
0	0xbe41c068	-0.18921053
1	0xbee491de	-0.44642538
2	0x3e3daf68	0.18523943
3	0x3dd972b0	0.10617578
4	0x3d71da37	0.059045997
5	0x3e491283	0.19635968
6	0x3ee0d431	0.4391189
7	0x3dfc377d	0.12315271
8	0xbedba31f	-0.4289789
9	0xbe17a259	-0.14808024
10	0x3dddc103	0.1082783
11	0x3df1edb0	0.118129134
12	0x3f3a4c30	0.727725
13	0xbdc5490a	-0.09633072
14	0xbdd53e80	-0.104123116
15	0xbe9bc075	-0.3042027
16	0xbec7d353	-0.39028415
17	0x3e6fd383	0.23420529
18	0xbe824db5	-0.2544991
19	0x3dcf50ad	0.101228096
20	0xbe761d38	-0.24034584
21	0x3e66476d	0.22488184
22	0x3ea3c3db	0.31985363
23	0xbee8faa8	-0.45503736
24	0x3df06b1b	0.11739179
25	0x3d189543	0.037251722
26	0xbf15aad7	-0.58463806
27	0xbd5f3acc	-0.054499432
28	0x3e6ebb67	0.23313676
29	0x3ed1fb31	0.41011956
30	0xbe01ddff	-0.12682341
31	0x3ebaeb80	0.36507797
32	0xbe591122	-0.21197942
33	0xbd89f8e6	-0.06736927
34	0xbdb14bb1	-0.08657015
35	0xbec49792	-0.3839689
36	0x3ee8d66d	0.45476094
37	0x3e4f8c66	0.20268402
38	0x3e245c93	0.1605094
39	0xbed01607	-0.40641806
40	0x3c843991	0.016140731
41	0xbe54e3b9	-0.20789994
42	0x3e899823	0.26873884
43	0xbde22963	-0.1104305
44	0xbd1f5492	-0.038899012
45	0x3b9ae58b	0.0047270707
46	0xbe9f24af	-0.31082675
47	0x3e8624c2	0.2619992
48	0x3eaa1520	0.33219242
49	0x3d9c7072	0.07638635
50	0x3f085ac9	0.5326353
51	0xbeee5aae	-0.46553558
52	0x3dbbcc38	0.09169811
53	0xbf471b7a	-0.777763
54	0xbe3da506	-0.18519983
55	0xbe739718	-0.23788106
56	0x3d6fd4d9	0.058552597
57	0xbdb57cab	-0.08861669
58	0xbf0ad8da	-0.5423714
59	0x3e0d818f	0.13818954
60	0xbc5c1ff3	-0.013435352
61	0x3e1b4cc1	0.15165998
62	0x3e5eae5b	0.21746199
63	0xbf07fcfd	-0.53120404
64	0x3f7361eb	0.95071286
65	0x3edcb412	0.43106133
66	0xbeaff3aa	-0.34365588
67	0xbf079adb	-0.52970666
68	0x3e9c1625	0.30485645
69	0xbe2a288d	-0.16617031
70	0xbe3da455	-0.18519719
71	0xbeefec62	-0.46860033
72	0x3e49fa38	0.19724357
73	0x3ef32eba	0.47496587
74	0x3f09d472	0.5383979
75	0x3e67a6c0	0.22622204
76	0x3ec889e0	0.3916769
77	0xbd0e72e9	-0.034777556
78	0x3ebeb8ba	0.3725031
79	0xbf00ffdc	-0.5039041
80	0xbf1232e2	-0.5710889
81	0xbe9e67de	-0.3093862
82	0xbeacf4ce	-0.3378052
83	0xbe5ac361	-0.21363594
84	0xbf094f63	-0.5363676
85	0x3d8a77ac	0.06761107
86	0x3e51a113	0.20471601
87	0x3e5de132	0.21667936
88	0x3e460cee	0.1934087
89	0xbcab53e0	-0.020914018
90	0xbea10e2c	-0.31456125
91	0xbe780171	-0.242193
92	0x3da66585	0.08124832
93	0x3ec4b4d3	0.38419208
94	0xbf25a92a	-0.6471125
95	0xbd472f85	-0.048629303
96	0x3ecd01b0	0.4004035
97	0x3e12cf03	0.14336781
98	0x3ea0ba67	0.31392214
99	0x3f112bb4	0.5670731
100	0x3e4a3ae5	0.19749029
101	0x3d34334e	0.04399424
102	0xbee731e9	-0.45155266
103	0xbed2d351	-0.41176847
104	0xbf13c2c1	-0.57719046
105	0xbe9bf273	-0.30458412
106	0x3f08b91c	0.53407454
107	0xbe4f3b26	-0.20237407
108	0xbe509661	-0.20369865
109	0x3ec40256	0.38283032
110	0x3eaec2dc	0.3413304
111	0xbd8133dc	-0.063087195
112	0x3ebf1eda	0.37328225
113	0xbeeb71c2	-0.45985228
114	0xbf0edbed	-0.5580433
115	0x3eaa4bbe	0.33260912
116	0xbc45bd36	-0.012069037
117	0x3f839ede	1.0282857
118	0xbf3b384b	-0.7313277
119	0x3f5a3302	0.8523408
120	0xbd894c7e	-0.06704043
121	0x3e1f5276	0.155588
122	0x3f1bedf6	0.60909975
123	0x3f1c3530	0.6101866
124	0xbddb7b49	-0.10716874
125	0xbe1b8dd2	-0.15190819
126	0xbe9de0d0	-0.3083558
127	0x3e157baa	0.14597955
128	0xbe83da0c	-0.25752294
129	0xbe899c83	-0.2687722
130	0xbe130c34	-0.14360124
131	0x3cc847fb	0.024448385
132	0xbf3056e4	-0.68882585
133	0x3d4c42ee	0.049868517
134	0xbeb790ff	-0.3585281
135	0xbe91f2c0	-0.28505516
136	0x3eb00103	0.34375772
137	0xbb0aa0a8	-0.0021152887
138	0x3ec1b514	0.37833464
139	0xbf3ecaf5	-0.7452844
140	0x3ea7cbe6	0.3277275
141	0x3ecba327	0.39772913
142	0x3cc42829	0.023944931
143	0xbeb9dc8c	-0.36301076
144	0xbe40ad95	-0.18816216
145	0x3e90d9a3	0.28291044
146	0xbe8008cf	-0.2500672
147	0xbcb8eb64	-0.02257318
148	0x3f082f65	0.5319732
149	0x3e5ec62d	0.21755286
150	0x3e88a7ca	0.26690513
151	0x3dba12ea	0.09085639
152	0x3e45e018	0.19323766
153	0x3e41ca2d	0.1892478
154	0xbe973f1a	-0.2954033
155	0x3e939556	0.28824872
156	0x3e177b7b	0.14793198
157	0xbe6ea694	-0.23305732
158	0xbe943ff1	-0.28955033
159	0x3e4cbacc	0.19993132
160	0xbe55bf56	-0.2087377
161	0x3d93e061	0.07220531
162	0x3f1eb7b8	0.6199908
163	0xbea2706e	-0.31726402
164	0xbe05f16b	-0.13080375
165	0xbebc5eb5	-0.36791006
166	0x3ea20ef9	0.31652048
167	0xbebd29e6	-0.36946028
168	0x3e90b34b	0.2826179
169	0x3d07702f	0.03306597
170	0xbf17bec4	-0.5927546
171	0xbe7df359	-0.24799861
172	0x3f03b95b	0.51454705
173	0x3e3bb8fb	0.18332283
174	0x3ea3a61d	0.31962672
175	0xbd8f4b7b	-0.06996819
176	0x3db468e3	0.08809068
177	0x3e1a8dd1	0.15093161
178	0x3de75460	0.1129539
179	0xbe3bef3d	-0.18352981
180	0xbe016296	-0.12635264
181	0x3d186369	0.03720418
182	0x3f1f3e16	0.6220411
183	0xbee0d47f	-0.43912122
184	0xbe96dcab	-0.2946523
185	0xbf0b872a	-0.5450312
186	0x3ed22c16	0.4104926
187	0x3e0aaed0	0.13543248
188	0x3d9ade85	0.075619735
189	0xbbed7534	-0.0072466377
190	0x3bcaadb7	0.006185259
191	0x3efb3b52	0.49068695
192	0x3ec6f6be	0.38860124
193	0xbe93f28b	-0.28895983
194	0x3e7ee866	0.2489334
195	0x3da5d6ae	0.080975875
196	0xbf014921	-0.5050221
197	0xbf2de969	-0.6793428
198	0x3b83f21c	0.0040266644
199	0xbeee4c5e	-0.4654264
200	0x3e0e98b7	0.13925444
201	0x3ea13db6	0.31492394
202	0xbef6628b	-0.48122057
203	0xbdb4d6f8	-0.088300645
204	0x3eaad724	0.33367264
205	0xbed7a579	-0.42118433
206	0xbe3b6904	-0.18301779
207	0xbf1736f2	-0.59068215
208	0xbe220438	-0.15821922
209	0x3eda419f	0.4262819
210	0x3e1bfbbb	0.15232746
211	0x3ea1ef59	0.3162792
212	0x3eb63365	0.35586086
213	0x3ebb7699	0.3661392
214	0x3e411b9e	0.18858191
215	0xbdb6c543	-0.089243434
216	0xbec81765	-0.3908035
217	0xbeee4148	-0.4653418
218	0x3cf0bdd5	0.029387394
219	0x3e6e5e4e	0.23278162
220	0x3e03da30	0.128762
221	0x3da3aa11	0.07991422
222	0x3d29d5d4	0.041463688
223	0xbe483905	-0.19553001
224	0x3c72a2ff	0.014809369
225	0xbde3d806	-0.111251876
226	0xbc8f9c8a	-0.017530698
227	0xbf66d69c	-0.9017122
228	0x3d70ac5b	0.05875812
229	0x3f261bde	0.6488627
230	0x3dbbb6b0	0.09165704
231	0xbed5be56	-0.41746777
232	0x3f3089fa	0.68960536
233	0x3d5ec40b	0.05438618
234	0x3e6f1ec2	0.23351577
235	0xbd2cba2f	-0.042169746
236	0x3e11511d	0.14191099
237	0x3dd07f0e	0.10180484
238	0xbe0221dd	-0.1270823
239	0x3e9a2efc	0.3011397
240	0x3e9d3a69	0.30708626
241	0x3f09360b	0.5359809
242	0xbeb03206	-0.34413165
243	0xbe60c2d8	-0.21949327
244	0x3d969717	0.07353037
245	0xbecadbb2	-0.3962074
246	0x3eb8cd55	0.36094156
247	0xbeb41264	-0.3517028
248	0x3ef644c1	0.4809933
249	0x3e9b0eb7	0.30284664
250	0xbe6313ee	-0.22175571
251	0x3d666e5a	0.056257583
252	0x3c74812c	0.014923375
253	0xbe0eac2b	-0.13932864
254	0xbe8901dc	-0.2675923
255	0x3e288cc7	0.16459952

network_body._body_endoder.seq_layers.0.bias f4 [128]
0	0x3e39fa0c	0.18161792
1	0xbda8fa3b	-0.08250853
2	0xbd03ae15	-0.03214844
3	0xbce20fa4	-0.027595349
4	0x3d41c0db	0.047303062
5	0x3d295e9b	0.04134999
6	0x3d612513	0.054966997
7	0x3ecff0a5	0.40613285
8	0x3f002c71	0.5006781
9	0xbca9af42	-0.020713452
10	0xbcd61323	-0.026132172
11	0x3ee0df67	0.43920442
12	0xbdaf2627	-0.08552199
13	0xbd2a0f6a	-0.041518606
14	0xbcbe5080	-0.023231745
15	0xbd26f66f	-0.04076236
16	0x3ed5fb73	0.41793403
17	0x3d92057c	0.07129952
18	0x3cf58dab	0.02997478
19	0xbd852c89	-0.06502635
20	0xbd851097	-0.06497305
21	0x3ecb47b5	0.39703146
22	0xbe22298b	-0.1583616
23	0xbd676355	-0.056491215
24	0x3d9b0a9c	0.07570383
25	0xbd962acf	-0.07332384
26	0xbcd2dead	-0.025740946
27	0xbd3de4f6	-0.046360932
28	0x3f005cf7	0.50141853
29	0xbc4c2b36	-0.012461474
30	0xbdafc7fc	-0.08583066
31	0xbdfb262d	-0.12263141
32	0xbd6e2350	-0.058139145
33	0x3eb6e908	0.35724664
34	0xbdb043c0	-0.08606672
35	0x3c025a9a	0.007956171
36	0xbeb737d7	-0.3578479
37	0xbd896192	-0.06708063
38	0xbbd417dc	-0.006472571
39	0xbd37e411	-0.044895235
40	0xbdbd3a02	-0.0923958
41	0xbd2f2d12	-0.04276759
42	0xbdc977a7	-0.09837275
43	0x3e4c1850	0.1993115
44	0x3f15c9ae	0.58510864
45	0x3e1e0313	0.1543086
46	0xbd8562cf	-0.06512987
47	0xbbdaf702	-0.0066822777
48	0x3dc10988	0.09425646
49	0x3f006238	0.5014987
50	0x3eca058b	0.39457354
51	0x3b55eee3	0.0032643608
52	0xbe25b5bb	-0.16182606
53	0x3c423eea	0.01185582
54	0x3d8bdbdd	0.06829045
55	0xbd173d9a	-0.036923982
56	0x37729eea	1.4461324e-05
57	0xbeaec4a2	-0.34134394
58	0x3d9cecfa	0.07662387
59	0x3f327be4	0.6972029
60	0xbe8176f7	-0.25286075
61	0xbdbb3d9f	-0.09142613
62	0xbc045d50	-0.008078888
63	0x3c8c27c1	0.0171088
64	0x3d45f003	0.048324596
65	0xbb8bf7a6	-0.0042714654
66	0xbbb3d3a2	-0.005487875
67	0xbcf821d3	-0.030289566
68	0xbd728569	-0.05920926
69	0xbde32035	-0.110901274
70	0xbe315ae8	-0.17319834
71	0xbdfce927	-0.12349158
72	0x3d83f669	0.064434834
73	0xbe3fd68a	-0.18734184
74	0x3de3b90a	0.11119278
75	0x3eb8b09f	0.3607225
76	0xbd04b64d	-0.032400418
77	0x3dd40ec3	0.10354378
78	0x3e1e3ed9	0.15453662
79	0xbdff7102	-0.124727264
80	0x3b8625d4	0.004093865
81	0x3eb40f0d	0.35167733
82	0xbe4bbae5	-0.19895513
83	0x3e716beb	0.23576324
84	0xbd136f34	-0.035994723
85	0xbccaeeb5	-0.024772028
86	0xbe175577	-0.14778696
87	0x3e36909b	0.178286
88	0x3d2a678c	0.041602656
89	0xbe89082d	-0.2676405
90	0x3ce9ef72	0.02855656
91	0xbcc15766	-0.023601245
92	0xbd86720b	-0.06564721
93	0xbc96c1bf	-0.018402932
94	0xbe845ad1	-0.25850537
95	0x3f02f1f0	0.5115042
96	0xbd721e10	-0.0591107
97	0xbd852451	-0.065010674
98	0xbd77c815	-0.060493547
99	0xbd714128	-0.05890003
100	0xbcd9206b	-0.026504716
101	0xbed40ab8	-0.41414428
102	0x3ed3c561	0.41361526
103	0x3eb0406f	0.3442416
104	0xbea0d0d3	-0.3140932
105	0xbed6e957	-0.419749
106	0xbcaa7dba	-0.020811904
107	0xbd8012d5	-0.06253592
108	0xbd614f2a	-0.055007137
109	0xbcd8ad58	-0.026449844
110	0x3e802958	0.25031543
111	0x3d5e492b	0.054268997
112	0x3d2ee067	0.042694476
113	0xbe7d57d3	-0.24740534
114	0x3e578473	0.21046619
115	0xbcd314ad	-0.025766695
116	0xbde52bed	-0.11190019
117	0xbe19dfbb	-0.15026753
118	0x3da87e96	0.08227269
119	0x3df1dd77	0.11809819
120	0x3d300636	0.042974673
121	0xbe1f2291	-0.1554053
122	0xbe2790aa	-0.16363779
123	0xbcbef85d	-0.023311788
124	0x3d3993c9	0.045306955
125	0xbe5e23f9	-0.2169341
126	0xbd47f8ea	-0.048821367
127	0xbbbde79b	-0.005795432

network_body._body_endoder.seq_layers.2.weight f4 [128, 128]
0	0xbe25e197	-0.16199337
1	0xbd828474	-0.0637292
2	0x3db2e93c	0.08735892
3	0xbc4bdf45	-0.012443368
4	0x3d1743a4	0.03692974
5	0xbd41fae1	-0.047358397
6	0xbd674367	-0.056460764
7	0x3de5a779	0.112135835
8	0xbd74ee83	-0.059797775
9	0xbd3ff256	-0.04686197
10	0x3e3cc04c	0.1843273
11	0xbbdf68bf	-0.0068179066
12	0xbea22917	-0.31671974
13	0xbd67e084	-0.0566106
14	0x3e150838	0.14553916
15	0x3bff8a0e	0.00779844
16	0x3d87e49c	0.06635401
17	0x3e26b3d6	0.1627954
18	0xbdf0d840	-0.117599964
19	0xbc54fb3d	-0.012999353
20	0x3a85d6b7	0.0010211085
21	0xbe2b186a	-0.16708532
22	0x3d881332	0.06644286
23	0xbd99f9f1	-0.07518376
24	0x3e06092a	0.13089433
25	0x3e2acc33	0.16679458
26	0xbe06e098	-0.13171613
27	0xbe4b9ff8	-0.19885242
28	0xbe21ccfe	-0.15800855
29	0xbd79d64b	-0.06099538
30	0xbc266b49	-0.010157415
31	0x3d405191	0.046952788
32	0xbdcb85f1	-0.09937657
33	0x3d66f022	0.056381352
34	0x3d0421ed	0.032258917
35	0x3daaf8d8	0.083482444
36	0xbde6635e	-0.112494215
37	0x3da15693	0.07877841
38	0x3e018912	0.12649944
39	0x3ceb3364	0.028711028
40	0xbda0a2c1	-0.07843543
41	0xbe3815ab	-0.17977016
42	0x3cc44347	0.023957862
43	0x3d779edc	0.060454234
44	0xbdaefa88	-0.08543879
45	0xbc99498e	-0.018711831
46	0x3e137a92	0.14402226
47	0x3bb58199	0.005539131
48	0xbc77cd32	-0.015124606
49	0xbd20d815	-0.039268572
50	0x3bf70708	0.00753868
51	0x3dc3480a	0.09535225
52	0xbd43b3a2	-0.047778733
53	0x3d99328a	0.07480343
54	0x3dd8d468	0.10587388
55	0x3e659afd	0.22422405
56	0x3d407ffa	0.046997048
57	0xbe1b383e	-0.15158173
58	0xbdc8f2b1	-0.09811915
59	0x3df3f954	0.1191279
60	0xbd75c1d8	-0.059999317
61	0xbdc1f87a	-0.09471221
62	0x3ce44c3f	0.027868388
63	0x3db4ec16	0.08834092
64	0x3d873162	0.06601216
65	0xbd470e43	-0.048597585
66	0x3df50312	0.11963476
67	0xbd570e1d	-0.052503694
68	0x3de74f57	0.1129443
69	0xbd74e09a	-0.05978451
70	0xbd244e4f	-0.040113743
71	0xbd11fb11	-0.035639826
72	0xbe28ee6a	-0.16497198
73	0xbe1a998a	-0.15097633
74	0x3d5ccb03	0.053904545
75	0x3e05ffdf	0.13085888
76	0x3cd0bd37	0.02548085
77	0x3d4c9071	0.049942438
78	0x3dbef63f	0.093243115
79	0x3e052727	0.13003217
80	0xbcb33dc1	-0.021880032
81	0xbd21830a	-0.03943161
82	0x3c546b27	0.012965
83	0x3e0b0a72	0.13578203
84	0xbd578d14	-0.052624777
85	0xbd91a45c	-0.07111427
86	0x3a9923b7	0.0011683617
87	0x3dea3aee	0.11437021
88	0x3d1d53a0	0.03840983
89	0x3dea404b	0.11438044
90	0xbde16ac6	-0.110066935
91	0x3cfb1e9d	0.030654246
92	0x3cced86d	0.025249684
93	0x3e647c57	0.22313057
94	0xbdf84c6d	-0.12123952
95	0xbe089ea3	-0.13341765
96	0xbc914515	-0.017733136
97	0xbd350ef5	-0.044203717
98	0xbd58b39a	-0.052905656
99	0x3d9cae76	0.07650463
100	0xbe38ac1f	-0.18034409
101	0x3c6da8ce	0.014505578
102	0xbe554884	-0.20828444
103	0xbe051786	-0.12997255
104	0xbd73ffd5	-0.059570152
105	0x3d085779	0.033286545
106	0x3c8bb62b	0.017054638
107	0xbc92c9c2	-0.017918471
108	0xbdb2f5ae	-0.08738266
109	0xbe21cdab	-0.15801112
110	0x3ebff79f	0.37493607
111	0xbdbb1cca	-0.091363505
112	0xbd78c759	-0.060736988
113	0x3d44a86d	0.048012186
114	0xbda0f334	-0.07858887
115	0x3cf54305	0.029939184
116	0xbd39c90e	-0.045357756
117	0x3d0a6c49	0.033794675
118	0xbdf1d8eb	-0.11808952
119	0x3d7c8f7a	0.061660267
120	0x3c6244fb	0.013810392
121	0xbdd28f5b	-0.10281249
122	0x3d452a90	0.048136294
123	0xbd8f447e	-0.06995486
124	0xbc42750a	-0.011868725
125	0xbd7f45fe	-0.06232261
126	0xbc5c27bc	-0.013437208
127	0x3c613311	0.013745085
128	0xbdd74325	-0.10510854
129	0x3c37ec9a	0.011225844
130	0xbdbfcd2a	-0.09365304
131	0x3d9ae316	0.075628445
132	0xbdc05b15	-0.093923725
133	0x3e16fe43	0.1474543
134	0xbc95a9f6	-0.01826952
135	0xbe24bc72	-0.16087511
136	0xbc656e68	-0.014003374
137	0x3db2844b	0.08716639
138	0xbe060846	-0.13089094
139	0xbecd80df	-0.40137383
140	0x3e022e88	0.12713063
141	0xbd7c80ab	-0.061646145
142	0xbdfa65b3	-0.12226429
143	0xbd001b01	-0.031275753
144	0xbe98432b	-0.29738745
145	0xbde83336	-0.11337893
146	0xbd51d992	-0.05123288
147	0x3e5f6d77	0.21819101
148	0xbd0e52aa	-0.034746803
149	0xbe75d444	-0.24006754
150	0xbd98278f	-0.0742942
151	0xbda4b147	-0.080416255
152	0x3d03edfc	0.03220938
153	0x3d504bac	0.050853416
154	0xbe13f9ad	-0.14450713
155	0xbd89fbd7	-0.06737488
156	0xbec9c633	-0.39409027
157	0xbdfa369e	-0.12217449
158	0x3c9faa23	0.019490307
159	0x3cf26e18	0.029593512
160	0x3d8fda48	0.07024056
161	0xbdeac798	-0.11463851
162	0xbabc487c	-0.0014364864
163	0x3c32d2e3	0.010914537
164	0x3d44f02a	0.0480806
165	0x3cf887b5	0.030338148
166	0xbe3e3026	-0.18573055
167	0x3dfbfe8d	0.12304411
168	0xbdab8e17	-0.08376711
169	0x3dc2aced	0.09505639
170	0x3db8f03d	0.09030197
171	0xbe4d1002	-0.20025638
172	0xbd372210	-0.04471022
173	0xbe64d714	-0.22347671
174	0xbccb72b4	-0.024834968
175	0xbdf800fd	-0.121095635
176	0x3e2f430d	0.17115422
177	0xbe7ab345	-0.24482448
178	0xbe91c3db	-0.28469738
179	0x3d76c87e	0.060249798
180	0x3c6034fa	0.013684506
181	0x3d67dc2b	0.056606453
182	0xbb8c2ff6	-0.0042781783
183	0x3dbdf8f3	0.09275999
184	0xbdb20349	-0.08692033
185	0x3c2fc70c	0.010728609
186	0x3e4ec34b	0.20191686
187	0xbeb868e3	-0.36017522
188	0x3d594877	0.053047623
189	0xbc72b5e4	-0.014813874
190	0x3e0b4596	0.13600764
191	0x3eb38935	0.35065618
192	0x3dbb9fb9	0.09161324
193	0x3dc6cb73	0.097067736
194	0xbe0c28bc	-0.13687414
195	0xbd44e4ee	-0.048069887
196	0xbe6434d4	-0.22285777
197	0xbe104329	-0.1408812
198	0x3d079879	0.033104394
199	0xbd61333a	-0.054980494
200	0xbe15535d	-0.14582582
201	0xbe159b69	-0.14610066
202	0xbe69ae07	-0.22820292
203	0xbe9f3162	-0.31092364
204	0x3c7d0d30	0.015445039
205	0xbe33fe32	-0.17577437
206	0xbd12b579	-0.035817597
207	0x3e1ee905	0.15518577
208	0xbe0aa92e	-0.135411
209	0xbe2bc657	-0.1677488
210	0x3d987cdd	0.07445691
211	0xbf1507b5	-0.58214885
212	0x3de1f05b	0.11032172
213	0xbe13388b	-0.14377038
214	0xbce47dc3	-0.027892
215	0xbceeb588	-0.029139295
216	0x3de630b7	0.1123976
217	0x3d1c931c	0.038226232
218	0xbd35553c	-0.04427074
219	0x3d8f0675	0.069836535
220	0xbdcb2132	-0.09918441
221	0xbdec8e0b	-0.1155053
222	0xbd1a76cf	-0.03771096
223	0x3d3821b9	0.044954035
224	0xbe2d4483	-0.16920666
225	0x3d186b6b	0.037211817
226	0xbc8763cf	-0.016527085
227	0x3c873231	0.016503425
228	0xbe878e4e	-0.26475757
229	0x3d033ff1	0.0320434
230	0x3d78bfe5	0.06072988
231	0xbde48028	-0.11157256
232	0x3c7325cf	0.014840557
233	0xbe0f6fbe	-0.1400747
234	0xbdd9266d	-0.10603032
235	0xbd1cf767	-0.03832188
236	0x3defecfa	0.117151216
237	0x3de010d6	0.10940711
238	0xbe265d5e	-0.16246554
239	0xbbde84e4	-0.006790744
240	0xbcc67a75	-0.024228314
241	0x3c477e5f	0.012176125
242	0xbdd4dcae	-0.10393654
243	0x3d249a05	0.040185947
244	0x3d8dfa24	0.06932476
245	0x3d4607a9	0.04834715
246	0xbe125114	-0.14288741
247	0x3c985d5d	0.018599207
248	0xbdb148f2	-0.08656491
249	0x3de2e436	0.11078684
250	0xbba6e96a	-0.005093743
251	0x3cc70e5b	0.024298837
252	0xbd8875da	-0.066631034
253	0xbcdc4979	-0.026890503
254	0xbd7a50b8	-0.061112136
255	0xbd647d32	-0.055783458

network_body._body_endoder.seq_layers.2.bias f4 [128]
0	0xbc0557f9	-0.00813865
1	0x3c7cadb0	0.01542227
2	0xbe3b5dfc	-0.18297571
3	0xbb054a44	-0.0020338455
4	0xbb74d715	-0.0037359644
5	0xbc8cf9e4	-0.017209
6	0x3d336625	0.043798584
7	0xbd05ce5d	-0.032667506
8	0xbe04d12a	-0.12970415
9	0x3ce796d0	0.028270155
10	0xbb05469b	-0.0020336274
11	0xbcdbc04b	-0.02682509
12	0xbde5f1a6	-0.112277314
13	0xbc263c7d	-0.0101462575
14	0xbd0e5629	-0.034750137
15	0x3e32bd8a	0.17455116
16	0x3da2dd6d	0.0795239
17	0x3d821ec9	0.06353528
18	0x3defa142	0.11700679
19	0x3d15e3d6	0.036594234
20	0x3cab7fa6	0.020934891
21	0xbc2e6d29	-0.010646143
22	0x3ce8b73e	0.02840769
23	0xbb245566	-0.0025075315
24	0x3c119ead	0.008887929
25	0x3dcf8e94	0.101346165
26	0xbe0d26b8	-0.13784301
27	0x3cdbe7bc	0.026843898
28	0x3d1a58eb	0.037682455
29	0xbe4fd3fa	-0.20295706
30	0x3e06c3f8	0.13160694
31	0xbe0f41ea	-0.13989988
32	0x3d50b56a	0.05095426
33	0xbde050b5	-0.10952894
34	0x3d267f47	0.040648725
35	0xbdaf5b13	-0.08562293
36	0x3d68f255	0.05687173
37	0xbe46eab3	-0.19425468
38	0xbcab5a16	-0.02091698
39	0x3c226e55	0.0099140005
40	0x3d4e8143	0.050416242
41	0x3caf85f5	0.02142618
42	0x3ce3170e	0.027720954
43	0xbb6479f3	-0.0034862726
44	0x3da697ae	0.08134399
45	0x3d2a6e2a	0.041608967
46	0x3e068983	0.13138394
47	0xbd9407cc	-0.0722805
48	0x3d7aadf9	0.06120107
49	0xbdb35336	-0.087561056
50	0x3d46522d	0.048418213
51	0x3b8ac606	0.004235032
52	0xbc8a9769	-0.016917901
53	0x3e12d0f2	0.14337519
54	0x3e6b103a	0.22955409
55	0x3e0c4d0b	0.13701265
56	0x3c7ea40e	0.015542043
57	0xbd396e1c	-0.045271024
58	0x3e51d1a7	0.20490132
59	0x3cef68d5	0.029224792
60	0x3e179eca	0.14806667
61	0x3e10f7c7	0.1415702
62	0xbc62480a	-0.013811121
63	0xbdced12e	-0.100984916
64	0xbdbedcb7	-0.09319442
65	0x3ba9b15c	0.0051786136
66	0xbd39792d	-0.045281578
67	0x3d5e9440	0.0543406
68	0x3d7bc948	0.061471254
69	0x3cd74f25	0.026282856
70	0x3ce52145	0.027969966
71	0xbd89dfa4	-0.06732109
72	0xbd9d57f2	-0.0768279
73	0x3d12c468	0.03583184
74	0x3da1a42c	0.078926414
75	0xbbc71348	-0.0060752966
76	0xbac03dca	-0.0014666852
77	0x3d5b7b00	0.0535841
78	0x3db9fb4e	0.09081136
79	0xbd204929	-0.03913227
80	0x3cb24e84	0.021765955
81	0x3d4d4a42	0.050119646
82	0x3ce21a5c	0.02760046
83	0x3d4728d5	0.048622925
84	0xbe984eae	-0.29747528
85	0xbcce2036	-0.025161844
86	0x3eb92861	0.3616362
87	0x3e788823	0.24270682
88	0x3dfecb9a	0.12441178
89	0x3c458a2c	0.0120568685
90	0xbc3614fa	-0.0111134
91	0x3be44ffb	0.006967542
92	0x3bd74418	0.0065693967
93	0x3df5a1e2	0.11993767
94	0x3d637ced	0.05553906
95	0xbe56bb22	-0.20969823
96	0xbc93b3f7	-0.01803015
97	0x3cc0eb3b	0.023549667
98	0x39c66fa3	0.0003784868
99	0xbdbf0d72	-0.09328736
100	0x3dcad6c3	0.09904244
101	0x3dbbaf28	0.09164268
102	0x3e47a65f	0.1949706
103	0x3bd44f72	0.006479197
104	0x3e311e03	0.17296605
105	0xbd41c3b9	-0.047305796
106	0x3bb1ff62	0.0054320553
107	0xbd0490e8	-0.032364756
108	0x3d5acd21	0.053418282
109	0x3ca103c9	0.019655125
110	0x3e31e41e	0.17372176
111	0x3e5d7f2a	0.2163054
112	0xbd8f2c5e	-0.06990884
113	0x3dd9646b	0.10614856
114	0xbd1307f2	-0.03589625
115	0x3cdba92f	0.026814071
116	0xbdb76d21	-0.089563616
117	0xbdc43a87	-0.09581476
118	0x3e4603e3	0.1933742
119	0x3dbab982	0.09117414
120	0xbd841164	-0.064486295
121	0xbc6ad8f2	-0.01433395
122	0xbde3b09a	-0.111176684
123	0xbd926897	-0.07148855
124	0xbce36e27	-0.027762486
125	0x3df2fc73	0.11864557
126	0x3c2ce3c2	0.010552349
127	0x3dacce4c	0.084377855

action_model._discrete_distribution.branches.0.weight f4 [3, 128]
0	0x3cd090b7	0.02545963
1	0xbd1259c2	-0.03573013
2	0x3c6b3807	0.01435662
3	0x3ccbefcf	0.024894623
4	0x3c605f21	0.0136945555
5	0xbbcd87f7	-0.006272312
6	0x3d56540c	0.052326247
7	0x3d0caab6	0.03434249
8	0x3d4a2829	0.049354706
9	0xbc8d2459	-0.017229246
10	0x3d28ebc3	0.041240465
11	0xbb4bf04a	-0.0031118565
12	0xbb25c5b7	-0.002529485
13	0xbcd0446a	-0.025423247
14	0xbc51c6bc	-0.01280373
15	0x3d2f2596	0.042760454
16	0x3e6404e0	0.22267485
17	0x3d17a80f	0.037025508
18	0xbd123e50	-0.035703957
19	0x3cc240e2	0.02371258
20	0x3c1cb510	0.009564653
21	0x3dca1fa2	0.09869315
22	0x3e4b527f	0.19855689
23	0xbd08947e	-0.03334474
24	0x3d1fbf18	0.0390006
25	0x3d2d65ce	0.042333417
26	0x3bc1fc7f	0.0059199925
27	0x3cba9d58	0.022780105
28	0xbd355836	-0.044273578
29	0x3c1f5717	0.009725354
30	0x3c8f7893	0.017513549
31	0x3c69de01	0.014274121
32	0x3c471bd6	0.012152633
33	0x3c9c3089	0.019066112
34	0x3e1f4cc2	0.15556625
35	0x3cacb231	0.021081062
36	0xbaa4064e	-0.0012514086
37	0x3c2458e7	0.010030962
38	0x3cf9435a	0.030427624
39	0x3e5e5e41	0.21715643
40	0x3ca4f9c1	0.020138623
41	0xbd896e41	-0.067104824
42	0x3d669375	0.05629297
43	0xbd30ae61	-0.04313505
44	0x3c8f7e3c	0.017516248
45	0x3d58a43e	0.05289101
46	0x3cb01f13	0.021499192
47	0x3d44d700	0.048056602
48	0x3de8c40f	0.1136552
49	0x3d8f2af7	0.06990617
50	0xbd5221dc	-0.051301822
51	0xbda1af81	-0.07894803
52	0x3cdd0f5d	0.026984865
53	0x3ee44596	0.4458434
54	0x3d9a76a4	0.0754216
55	0x3ddce757	0.10786312
56	0x3dc72cb9	0.09725327
57	0x3a59425f	0.0008287783
58	0xbafdf309	-0.0019374798
59	0x3d950012	0.07275404
60	0xbdc69783	-0.09696867
61	0x3ccbe7e6	0.024890851
62	0xbd64738a	-0.05577425
63	0xbc0d4847	-0.008623189
64	0x3cfcf9d8	0.030880854
65	0x3b7114eb	0.003678615
66	0x3bbe931c	0.0058158766
67	0xbc0783c2	-0.00827116
68	0xbd3d6a93	-0.046244215
69	0xbcb9b879	-0.022670971
70	0x3e2d36fa	0.16915503
71	0xbc048aa9	-0.0080897
72	0x3d4ac27e	0.04950189
73	0x3d83f676	0.06443493
74	0xbcac6615	-0.02104477
75	0x3d9a1aa8	0.075246155
76	0x3c4a6f71	0.012355671
77	0xbd1c9a1c	-0.038232908
78	0x3d215658	0.039388984
79	0xb985695f	-0.00025446244
80	0xbb4386f9	-0.0029835089
81	0x3b88fed6	0.0041807694
82	0x3c819887	0.015819801
83	0x3df8636d	0.12128339
84	0xbbc4b05c	-0.006002469
85	0x3d3c0d21	0.04591096
86	0xbd3a138c	-0.045428798
87	0xbc96e084	-0.018417604
88	0xbc3c70f3	-0.011501539
89	0x3d48e30c	0.049044654
90	0x3c9c8c3e	0.019109841
91	0xbc294708	-0.010331877
92	0xbd0a1207	-0.0337086
93	0xbc1a4568	-0.009415962
94	0xbc1a900c	-0.0094337575
95	0x3cb0b542	0.021570805
96	0xbd99066c	-0.07471928
97	0x3cf743f0	0.030183762
98	0x3dab3688	0.083600104
99	0x3d873ea6	0.06603746
100	0xbe3ddcf6	-0.18541321
101	0x3d821dc9	0.06353337
102	0x3dfcb48a	0.123391226
103	0xbc560458	-0.013062559
104	0xbb816873	-0.003949219
105	0xbc58e086	-0.013237124
106	0x3c2227f9	0.009897226
107	0x3cb3c40d	0.02194407
108	0x3d59b51c	0.053151235
109	0xbcc33e9c	-0.023833565
110	0xbb2652c3	-0.002537892
111	0xb8b954d9	-8.8372915e-05
112	0x3c33a1f6	0.010963907
113	0x3ea8456c	0.32865465
114	0x3bf14b26	0.0073636947
115	0xbc81374c	-0.015773438
116	0x3c270bd7	0.010195694
117	0xbbe99139	-0.0071279076
118	0x3b29e3b0	0.0025923066
119	0x3d1e0d87	0.03858712
120	0xbc32883a	-0.010896737
121	0xbbc3aab8	-0.005971279
122	0xbc37982b	-0.011205713
123	0xbe4ef547	-0.20210753
124	0x3bf81fe6	0.007572162
125	0xbc1a351d	-0.009412077
126	0x3c790839	0.015199714
127	0x3f2bb812	0.67077744
128	0x3c2f1449	0.010685989
129	0x3d9c9ec3	0.07647469
130	0x3c9c65ab	0.019091448
131	0xb9d37111	-0.00040329297
132	0x3cb342f8	0.02188252
133	0xbc6e0202	-0.014526846
134	0xbcbf2efa	-0.02333783
135	0x3c3e62a1	0.011620195
136	0xbd28401d	-0.04107677
137	0x3caae065	0.020858953
138	0xbca03ef5	-0.01956127
139	0xbbb0bbab	-0.0053934655
140	0x3d37bc38	0.044857234
141	0x3da6c910	0.081438184
142	0x3d0c9c21	0.034328584
143	0x3ecc1496	0.39859456
144	0xbe54c6cb	-0.20778958
145	0x3d4be131	0.049775306
146	0x3d888ac4	0.066670924
147	0xbb54cb11	-0.003246967
148	0xbc68e1d1	-0.014213995
149	0x3d8ddc37	0.06926768
150	0xbe23df98	-0.16003263
151	0x3d8caf75	0.06869403
152	0x3d8f4667	0.0699585
153	0x3e605288	0.21906483
154	0x3c883420	0.016626418
155	0x3bbe7cca	0.005813216
156	0x3deb0d6d	0.1147717
157	0x3ca19a5c	0.019726925
158	0x3e8ca6b7	0.27470943
159	0x3ce46b57	0.027883215
160	0x3c57e7f2	0.013177859
161	0x3c364c4d	0.01112659
162	0xbe2101f8	-0.15723407
163	0x3d1ed460	0.038776755
164	0xbc98de44	-0.018660672
165	0x3b47e9e7	0.0030504407
166	0xbd1ba9e2	-0.03800381
167	0xbe722fc0	-0.23651028
168	0x3bab5984	0.005229177
169	0xbadd1965	-0.001686853
170	0xbc0c9e0f	-0.008582606
171	0xbcb811b0	-0.022469372
172	0xbd3900e5	-0.04516687
173	0x3d06d9f8	0.032922715
174	0xbd1c4978	-0.038156003
175	0xbcdb2bef	-0.026754348
176	0xbde58399	-0.11206741
177	0xbde20b46	-0.110373065
178	0xbd1ccc90	-0.038281024
179	0x3dd42292	0.10358156
180	0xbd451e59	-0.048124645
181	0xbf03683a	-0.5133091
182	0x3eda74b2	0.42667156
183	0xbbd51f28	-0.0065039583
184	0xbdc757d2	-0.09733547
185	0x3cf23d97	0.029570384
186	0xbda31291	-0.07962526
187	0xbde95173	-0.11392488
188	0x3ece6062	0.4030791
189	0x3df9b9f3	0.1219367
190	0x3c8fea04	0.017567642
191	0x3c5c3139	0.01343947
192	0xbc0c1121	-0.008549006
193	0x3b63bbd2	0.00347494
194	0xbc87ce24	-0.016577788
195	0x3cdb7a16	0.026791614
196	0x3e4bfab4	0.19919854
197	0x3cbbcef1	0.022925826
198	0xbe0d7acb	-0.13816373
199	0x3cd5dfee	0.026107755
200	0xbd88ceba	-0.06680055
201	0xbc60cf18	-0.01372125
202	0x3bad16e3	0.0052822693
203	0xbd70430b	-0.058657687
204	0x3bcab0dd	0.0061856345
205	0xba4e637c	-0.00078731007
206	0x3e0bb772	0.13644198
207	0xbc4b5cd0	-0.012412265
208	0x3c47ed4c	0.012202572
209	0x3cfc33a5	0.030786345
210	0x3da6e0c5	0.0814834
211	0xbda988eb	-0.08278068
212	0x3da51baf	0.08061921
213	0x3cd030d7	0.025413914
214	0xbe2962c1	-0.16541578
215	0xbdc45b27	-0.095876984
216	0xbd37da01	-0.04488564
217	0xbcac8a29	-0.021061974
218	0x3be24b4f	0.00690595
219	0x3cf155cb	0.029459855
220	0x3d5226d7	0.05130657
221	0x3dfb172b	0.12260278
222	0x3d8cb009	0.068695135
223	0x3c96de47	0.018416537
224	0x3dc3da48	0.09563118
225	0x3c2bba6c	0.010481458
226	0xbd483a3d	-0.048883665
227	0xbdf520a6	-0.11969118
228	0x3e2a293e	0.16617295
229	0x3cbe829a	0.023255635
230	0x3eb08740	0.34478188
231	0x3ccb97b3	0.02485261
232	0xbd981399	-0.07425613
233	0x3c428118	0.011871599
234	0x3cb84632	0.02249441
235	0xbbff7cff	-0.007796883
236	0xbbee12ea	-0.0072654383
237	0x3d30fe10	0.043211043
238	0x3ec94f7c	0.39318454
239	0xbd4a4cc4	-0.049389616
240	0x3c384c7c	0.011248704
241	0xbeb6cefe	-0.35704798
242	0x3c33663e	0.010949669
243	0x3d225df5	0.039640386
244	0x3be0e9fe	0.0068638315
245	0x3d133a8d	0.03594451
246	0x3ecca959	0.39972952
247	0x3e256047	0.16150008
248	0x3cdd2887	0.026996864
249	0xbcf82f4a	-0.030295987
250	0x3cb29d47	0.021803511
251	0x3dc22a2d	0.09480701
252	0xbbf2874a	-0.0074013816
253	0x3e01973d	0.12655349
254	0xbd1f65d2	-0.038915463
255	0xbf335377	-0.7004923

action_model._discrete_distribution.branches.0.bias f4 [3]
0	0xbda12b8b	-0.07869633
1	0x3d2d03bf	0.0422399
2	0x3e061a0c	0.13095874

action_model._discrete_distribution.branches.1.weight f4 [2, 128]
0	0xbd2d5cbd	-0.04232477
1	0xbace9a87	-0.0015762605
2	0xbc406698	-0.01174321
3	0xbc88910f	-0.016670732
4	0xbc029d9a	-0.007972145
5	0xbc4a8086	-0.012359744
6	0xbcc0ce60	-0.023535907
7	0x3be42d15	0.006963382
8	0xbbe8b61f	-0.0071017887
9	0x3c9d7f92	0.01922587
10	0x3da8966f	0.08231818
11	0x3d9f35e6	0.07773952
12	0xbd5c8529	-0.05383793
13	0x3c87862b	0.016543468
14	0x395bb9dd	0.00020954707
15	0xbe40beec	-0.18822831
16	0xbddcafab	-0.107756935
17	0xbda53602	-0.08066942
18	0x3cc21748	0.023692742
19	0x3d875274	0.066075236
20	0x3c02e029	0.007988014
21	0x3d1772b3	0.03697462
22	0x3ce19566	0.027537059
23	0xbc3cc644	-0.01152188
24	0xbbe21c1f	-0.006900325
25	0xbde27418	-0.110572994
26	0xbc5d9892	-0.013525145
27	0x3e0146b3	0.12624626
28	0x3e318672	0.17336443
29	0xbae6602d	-0.001757627
30	0xbe1f3313	-0.15546827
31	0xbc827fcf	-0.015930085
32	0x3a6cc6ff	0.0009032338
33	0xbb3ea061	-0.0029087292
34	0xbcf707c6	-0.030155074
35	0xbb3c1ef1	-0.0028704966
36	0x3a9318f6	0.0011222649
37	0x3bd247fe	0.0064172735
38	0x3d0978e2	0.03356255
39	0x3d07b242	0.033128984
40	0xbcdcbaa8	-0.026944473
41	0xbd9a8bfb	-0.075462304
42	0xbccd2f83	-0.02504707
43	0x3caecc72	0.021337721
44	0xbd3621ea	-0.044465937
45	0xbd2cf361	-0.04222429
46	0x3ae40c96	0.001739877
47	0x39ddb9ec	0.00042290927
48	0xbc7a942e	-0.015294118
49	0xbcdf6515	-0.02726988
50	0xbc03531d	-0.008015421
51	0xbd95ba39	-0.0731091
52	0x3c68d8d2	0.01421185
53	0xbe860ff3	-0.26184043
54	0xbe5899a5	-0.2115236
55	0xbdae41d7	-0.08508652
56	0xbdb1a415	-0.08673874
57	0x3cd545b4	0.026034214
58	0x3cf78143	0.030213004
59	0xbe862cd2	-0.2620607
60	0xbd49a74f	-0.049231824
61	0xbd59af3c	-0.053145632
62	0x3d352f13	0.044234347
63	0xbbcf12d2	-0.006319382
64	0xbc2567dd	-0.010095564
65	0x3c5bf6aa	0.0134255085
66	0x3b733a45	0.0037113589
67	0xbcf0a067	-0.02937336
68	0xbe1c974e	-0.15292093
69	0x3d801d6f	0.06255614
70	0xbcdfbfe8	-0.027313188
71	0xbd2423af	-0.040073093
72	0xbc7ad394	-0.015309233
73	0x3cc428ab	0.023945173
74	0xbc966325	-0.018357823
75	0x3d28558f	0.04109722
76	0xbb6fe21f	-0.0036603285
77	0x3ca35cbe	0.019941684
78	0xbd9c39b4	-0.076281935
79	0xbba510b0	-0.0050373897
80	0xbc46e003	-0.0121383695
81	0xbd706b87	-0.058696296
82	0xbc901266	-0.017586898
83	0xbcf0b9c8	-0.029385462
84	0xbc814a9e	-0.01578265
85	0xbc9d8738	-0.019229516
86	0x3d525b83	0.051356804
87	0x3c90339b	0.017602732
88	0xbca550a8	-0.020180061
89	0xbd5ca868	-0.053871542
90	0x3dab4691	0.08363069
91	0xbbf734a8	-0.007544119
92	0x3d7046da	0.05866132
93	0xbd8c5729	-0.06852562
94	0xbc1487da	-0.009065593
95	0xbb8866b3	-0.0041626333
96	0xbc711879	-0.014715307
97	0xbd951671	-0.07279671
98	0xbc0aa446	-0.008462017
99	0xbddc5903	-0.10759165
100	0x3d866985	0.06563095
101	0xbdd4a03c	-0.10382125
102	0xbe6a909f	-0.22906731
103	0xba43fa0e	-0.0007475921
104	0x3c95d9ef	0.018292395
105	0xbcb9ecb8	-0.022695884
106	0x3da6aab0	0.08138025
107	0x3b6a55da	0.0035756738
108	0xbd0d34db	-0.034474235
109	0x3e6383ad	0.22218199
110	0xbe0d7767	-0.1381508
111	0x3d24c3e1	0.040225867
112	0x3ba7bb3e	0.0051187566
113	0xbe3c7a4b	-0.18406026
114	0xbdb1422a	-0.08655198
115	0x3aeb6798	0.001795995
116	0x3baf7fa8	0.005355794
117	0xbcfa42dc	-0.03054946
118	0xbe0c619d	-0.13709112
119	0xbd74cc95	-0.059765417
120	0xb8daf250	-0.00010440184
121	0x3d756633	0.059911918
122	0xbc26ec2f	-0.0101881465
123	0xbe05ec1a	-0.13078347
124	0x3c82c78f	0.015964298
125	0xbcc63ddb	-0.024199417
126	0x3be2be4b	0.0069196573
127	0xbe16d3fa	-0.147293
128	0x3d7e0fd1	0.062026802
129	0x3c0d2d12	0.008616703
130	0xbbd8e3fa	-0.006618974
131	0x3d0b55c6	0.034017347
132	0x39732e29	0.00023191482
133	0x3bf4f57a	0.007475552
134	0xbb744ae0	-0.0037276074
135	0x3b60fea3	0.0034331463
136	0x3c9f12cc	0.019418143
137	0xbae62731	-0.0017559287
138	0xbd8e0e70	-0.069363475
139	0xbda19970	-0.07890594
140	0x3d2eb537	0.04265329
141	0xbd346e78	-0.044050664
142	0x3b2d1d8c	0.0026415316
143	0x3e425c09	0.18980421
144	0x3dc2f6ce	0.095197305
145	0x3db26e7b	0.08712479
146	0xbcc26568	-0.023729995
147	0xbd9b7943	-0.07591488
148	0xb9994825	-0.00029236186
149	0xbcbc9591	-0.023020538
150	0xbd08331f	-0.033251878
151	0x3c4b1740	0.01239568
152	0xbc3c6994	-0.011499781
153	0x3dc0e1f3	0.094180964
154	0xbb22b45b	-0.0024826739
155	0xbe046990	-0.12930894
156	0xbe48dc4a	-0.19615284
157	0x3b5ef03a	0.0034017698
158	0x3e195608	0.14974225
159	0xb8ec15e8	-0.00011257437
160	0x3c992b26	0.018697333
161	0x3b06c1cf	0.0020562296
162	0x3d13ef9b	0.036117177
163	0x3bbed9c8	0.0058243014
164	0xbc17eec8	-0.0092732385
165	0x3c42114c	0.011844944
166	0xbc2ee286	-0.010674125
167	0xbccb84bb	-0.024843564
168	0xbb3545ab	-0.0027659934
169	0x3d9a5c42	0.07537128
170	0x3d2b4da2	0.041822083
171	0xbc8d19e9	-0.017224269
172	0x3d2e7118	0.042588323
173	0x3cd17910	0.025570422
174	0x3c75720e	0.014980806
175	0xbc2b61cd	-0.010460329
176	0x3b47ba30	0.0030475967
177	0x3cd2b6d2	0.025721941
178	0x3a7997fb	0.0009521243
179	0x3d95bf59	0.07311887
180	0x3c866234	0.016404249
181	0x3e80d88c	0.25165212
182	0x3e679d2d	0.22618552
183	0x3de0f3bd	0.109839894
184	0x3daa32a8	0.08310443
185	0xbc7fe32d	-0.015618128
186	0xbcde4c3a	-0.027135957
187	0x3e88cbca	0.2671798
188	0x3d17fc30	0.03710574
189	0x3d666ee9	0.056258116
190	0xbd3efda2	-0.0466286
191	0x3c0569ec	0.0081429295
192	0xbbe47995	-0.0069725015
193	0x3b2c2c46	0.0026271506
194	0xbbdf9cad	-0.006824097
195	0x3ce48638	0.027896032
196	0x3e2f75e5	0.17134817
197	0xbda1c671	-0.07899178
198	0x3d0800cd	0.03320389
199	0x3d1a2f61	0.03764284
200	0x3cc7f4eb	0.024408778
201	0xbc2a570c	-0.01039673
202	0xba9b9a0a	-0.0011871469
203	0xbd2bde78	-0.04196021
204	0x3ba65187	0.005075637
205	0xbbd90fff	-0.0066242213
206	0x3d9ca308	0.07648283
207	0x3b93a14e	0.004505313
208	0x3a211cd5	0.0006145959
209	0x3d379590	0.04482037
210	0x3c8e464d	0.017367506
211	0x3d16b7b3	0.036796283
212	0x3cacabee	0.021078076
213	0x3bc7163e	0.0060756495
214	0xbd2153d2	-0.039386578
215	0xbd1726ce	-0.03690224
216	0x3bd652e2	0.006540642
217	0x3d5db07f	0.054123398
218	0xbd97060b	-0.073741995
219	0xbbdf9a6a	-0.0068238275
220	0xbd4c71c5	-0.049913187
221	0x3d951a9a	0.072804645
222	0x3a4b3edf	0.0007753204
223	0x3ac1b783	0.0014779422
224	0xb9fc8148	-0.00048161508
225	0x3da9d792	0.0829307
226	0x3d292125	0.041291375
227	0x3ded83bb	0.11597391
228	0xbd64f314	-0.05589588
229	0x3dcd4138	0.10022205
230	0x3e51bda0	0.20482492
231	0x3bb38447	0.005478415
232	0xbcd2ac4e	-0.025716927
233	0xbc365937	-0.011129669
234	0xbda7b7f1	-0.08189381
235	0xbc04e4e4	-0.008111212
236	0x3d5daa9e	0.05411779
237	0xbe6352b5	-0.22199519
238	0x3e089149	0.13336672
239	0xbd052db3	-0.032514285
240	0x3bcda030	0.0062751994
241	0x3e563039	0.20916833
242	0x3dac41b4	0.084109694
243	0xbc397ae5	-0.011320804
244	0xba54c334	-0.0008116246
245	0x3d08fc6e	0.03344386
246	0x3e08b5f2	0.13350657
247	0x3d89e4d9	0.06733102
248	0x376e29a2	1.4195599e-05
249	0xbd644b35	-0.055735786
250	0x3ca8bfe9	0.020599322
251	0x3e08fdf9	0.13378133
252	0xbd00662c	-0.03134744
253	0x3c865cbd	0.016401643
254	0xbbe37385	-0.0069412612
255	0x3e08223a	0.13294306

action_model._discrete_distribution.branches.1.bias f4 [2]
0	0x3d8003d0	0.06250727
1	0xbd8003cf	-0.062507264

q1_network.network_body._body_endoder.seq_layers.0.weight f4 [128, 8]
0	0x3f6a2a98	0.9147124
1	0xbe15c4c5	-0.14625843
2	0x3e961e6a	0.2932008
3	0x3f20d2ab	0.62821454
4	0x3ec1b4d1	0.37833264
5	0x3a84ef3d	0.0010142099
6	0xbe0e74ee	-0.13911793
7	0x3e81bf69	0.25341347
8	0x3d292a39	0.041300032
9	0xbead08b4	-0.33795702
10	0xbed8e0b6	-0.4235894
11	0xbe8dc78e	-0.2769131
12	0xbf0c5e4c	-0.54831386
13	0xbe320a92	-0.17386845
14	0x3e3b4f1f	0.18291901
15	0x3ec48744	0.3838445
16	0xbcbc76ea	-0.023005921
17	0xbea415ed	-0.32047978
18	0x3e42d118	0.19025075
19	0xbeee10ef	-0.46497294
20	0x3ed984a7	0.42484018
21	0xbef65c4d	-0.48117295
22	0xbf046f6b	-0.5173251
23	0xbef1eb88	-0.4725001
24	0x3eafecba	0.34360296
25	0x3f20b9c6	0.6278347
26	0xbde92620	-0.11384225
27	0x3eb282e4	0.34865487
28	0x39ea91cc	0.00044740585
29	0xbe10f6ad	-0.141566
30	0xbdbfc094	-0.09362903
31	0xbe90fea9	-0.2831929
32	0xbe61d93f	-0.22055529
33	0xbd39f3b0	-0.045398414
34	0xbb9dcd2c	-0.004815718
35	0x3e48ecdd	0.19621606
36	0xbea2b7c4	-0.31780827
37	0xbcbea31d	-0.023271138
38	0x3e9b4e7f	0.30333325
39	0x3d8f75e7	0.0700491
40	0x3eb63aeb	0.35591826
41	0x3c347cb6	0.0110160615
42	0xbe1e5f21	-0.15465976
43	0x3db63692	0.08897127
44	0x3e1178cf	0.14206241
45	0x3e4513a9	0.19245781
46	0xbdd3139d	-0.10306475
47	0x3e984158	0.29737353
48	0x3d5c5dd8	0.053800434
49	0x3e0810d6	0.13287672
50	0xbea4ba80	-0.32173538
51	0x3d307b0a	0.04308609
52	0x3e89fd2c	0.26950967
53	0x3f23046f	0.6367864
54	0x3e41ae69	0.18914188
55	0x3f029003	0.51000994
56	0xbeb45796	-0.35223073
57	0x3ee6aba8	0.45052838
58	0xbe1d0f59	-0.15337886
59	0x3d9e7e70	0.0773896
60	0xbe6e4cac	-0.23271435
61	0x3ee86afd	0.45394126
62	0x3e23d4bc	0.1599912
63	0x3ccdcf11	0.025123151
64	0xbe4ebbd8	-0.20188844
65	0xbe534354	-0.20631152
66	0x3e5cb85e	0.21554706
67	0x3ebe5ced	0.37180272
68	0xbe7fee07	-0.24993144
69	0xbd5c23f4	-0.053745225
70	0xbdcb333e	-0.09921883
71	0xbe6dbff3	-0.23217754
72	0x3f0b6b1d	0.54460317
73	0x3eb2c879	0.34918573
74	0x3e275e50	0.16344571
75	0xbda91b59	-0.08257169
76	0xbf0cc323	-0.54985255
77	0xbf130d57	-0.5744223
78	0xbe57dc50	-0.21080136
79	0xbcd44c9d	-0.025915438
80	0xbe19db2e	-0.15025017
81	0x3f67ff94	0.90624356
82	0x3d8efce2	0.06981827
83	0xbcce525b	-0.025185755
84	0xbeec3511	-0.46134236
85	0xbe471141	-0.19440176
86	0xbea07a17	-0.31343147
87	0xbd3eb4ec	-0.04655926
88	0x3e2086ca	0.15676418
89	0x3f04cd54	0.51875806
90	0x3eab623e	0.3347339
91	0x3d96e2ef	0.07367503
92	0x3d8b7d66	0.06811027
93	0xbda52c4f	-0.08065092
94	0xbe523338	-0.20527351
95	0x3db123c4	0.086494
96	0x3cdf3ffa	0.027252186
97	0x3ec380a7	0.3818409
98	0xbe09bbf9	-0.13450612
99	0xbe3cf008	-0.1845094
100	0x3e918d09	0.28427914
101	0xbcc8d767	-0.024516774
102	0x3e8db0be	0.27673906
103	0x3eda5bc6	0.42648143
104	0x3f3933c7	0.7234463
105	0x3e409b8a	0.18809333
106	0x3ecc3b7b	0.3988913
107	0xbe98da8d	-0.2985424
108	0x3ef9ac3c	0.48764217
109	0xbf3e3618	-0.7430129
110	0x3e291f42	0.1651583
111	0x3f06b23e	0.52615726
112	0x3e9cbb52	0.30611664
113	0xbcc1fecc	-0.023681067
114	0x3e45ab47	0.19303618
115	0xbdd23ef4	-0.102659136
116	0x3cdca06c	0.026931964
117	0x3d2ec0d1	0.042664353
118	0xbf166331	-0.58745104
119	0x3eff6591	0.49882177
120	0xbd966dad	-0.07345138
121	0x3dfa92f8	0.12235063
122	0xbf02358a	-0.50862944
123	0x3e2e61b4	0.17029458
124	0x3f33c994	0.7022946
125	0x3ead369c	0.33830726
126	0xbdf01670	-0.117230296
127	0xbe849848	-0.2589743
128	0x3ecc7392	0.39931923
129	0xbe5c1333	-0.21491699
130	0xbf3b8d46	-0.7326244
131	0x3eb4f4cf	0.35343024
132	0x3ea765c2	0.32694823
133	0x3f18ec67	0.5973572
134	0xbf0c9f64	-0.5493071
135	0x3c32642e	0.0108881425
136	0x3c32e89a	0.010919714
137	0x3e1e8fcd	0.15484543
138	0xbf22b335	-0.635547
139	0xbe5dfb69	-0.21677937
140	0xbe9c0bfd	-0.30477896
141	0x3f36f124	0.714617
142	0xbd5ec684	-0.054388538
143	0xbdca3a44	-0.098743945
144	0xbde0b2b4	-0.10971585
145	0x3da24ff4	0.07925406
146	0xbeff0b69	-0.49813393
147	0xbe02248f	-0.12709258
148	0x3dc98693	0.09840121
149	0xbf23288e	-0.63733757
150	0x3d539c88	0.05166295
151	0x3ebe7785	0.3720056
152	0x3d8cb947	0.06871276
153	0x3eb540fd	0.35401145
154	0xbd34ff69	-0.04418889
155	0xbb4aee6c	-0.0030964864
156	0xbe8242d4	-0.2544161
157	0x3f306a61	0.6891232
158	0x3df46003	0.11932375
159	0x3ea0b337	0.3138673
160	0xbeac4f1a	-0.336541
161	0xbe9136c7	-0.28362104
162	0x3ef297f0	0.47381544
163	0x3dd120fd	0.1021137
164	0x3e7053b7	0.23469435
165	0x3d841e19	0.06451053
166	0x3f0cbf0f	0.5497903
167	0xbe26b2bc	-0.16279119
168	0x3e4299b7	0.1900395
169	0x3e35a716	0.1773952
170	0xbf2eae08	-0.682343
171	0x3d27ad2c	0.040936634
172	0xbca84617	-0.020541234
173	0x3dc6eb07	0.09712797
174	0xbd1bd089	-0.03804067
175	0xbe252ae2	-0.1612964
176	0x3e9a88b7	0.3018243
177	0xbe55a29c	-0.20862812
178	0x3ded37fd	0.115829445
179	0x3d5ef9c7	0.054437425
180	0x3effc380	0.49953842
181	0xbc4ceee6	-0.01250813
182	0xbdcef0d8	-0.10104531
183	0x3e6a8877	0.2290362
184	0x3f1e48a0	0.61829567
185	0x3e624898	0.22098005
186	0xbe314e7f	-0.173151
187	0xbbcc471f	-0.006234064
188	0xbecaf1c0	-0.39637566
189	0x3e768cdc	0.24077171
190	0x3d404dfd	0.046949375
191	0x3f519985	0.8187488
192	0xbde9aee6	-0.11410312
193	0xbdd9c313	-0.106329106
194	0xbf220c51	-0.63300043
195	0x3e72649c	0.23671192
196	0x3e885e52	0.2663446
197	0xbf24af73	-0.64330214
198	0x3edb570b	0.42839846
199	0x3e6b0116	0.22949633
200	0xbea43c78	-0.32077384
201	0x3ee04f6b	0.4381059
202	0x3da61fad	0.081115104
203	0xbeb479f6	-0.352493
204	0x3e2a976f	0.1665933
205	0x3ed5f928	0.41791654
206	0x3df825be	0.12116574
207	0x3f1a91b4	0.60378575
208	0x3dce5f7f	0.10076808
209	0x3e4c8190	0.19971299
210	0xbed34ccb	-0.41269526
211	0xbd14392a	-0.03618733
212	0x3ed97598	0.4247253
213	0xbcd1dd2c	-0.025618158
214	0xbe664564	-0.22487408
215	0x3e0af1d3	0.13568811
216	0xbdfc601d	-0.1232302
217	0xbe8ae289	-0.27125958
218	0xbe1c4e9d	-0.15264364
219	0x3e88be6f	0.2670779
220	0xbd2114cc	-0.039326474
221	0xbe570ea7	-0.21001683
222	0xbe50a05e	-0.20373675
223	0x3ed19220	0.40931797
224	0x3f2edcaf	0.68305486
225	0xbc8fc984	-0.017552145
226	0xbe956f50	-0.29186487
227	0x3e9b9a85	0.30391327
228	0x3e95959f	0.29215714
229	0xbf14912a	-0.58034
230	0xbe88b8f9	-0.26703623
231	0x3e82df3b	0.25560936
232	0x3e01f845	0.12692364
233	0x3e85c14c	0.26124036
234	0x3d75dbf1	0.060024206
235	0x3e9929de	0.29914755
236	0xbe83984c	-0.2570213
237	0x3c1f92fa	0.009739632
238	0xbe733e76	-0.23754296
239	0xbd871bff	-0.06597137
240	0xbeaea000	-0.34106445
241	0x3e2f17e3	0.17098956
242	0x3ec55c53	0.38547
243	0xbe07d781	-0.13265802
244	0x3e16a061	0.14709617
245	0xbecfd791	-0.40594152
246	0x3e65adf9	0.22429647
247	0xbe828fb9	-0.25500277
248	0xbd769daa	-0.060208954
249	0xbddb86a1	-0.10719038
250	0x3e1f9346	0.15583524
251	0x3ec3ef68	0.3826859
252	0x3e7b3308	0.24531186
253	0x3e24f01e	0.16107222
254	0xbe94e3d8	-0.2908008
255	0xbf00ac14	-0.5026257

q1_network.network_body._body_endoder.seq_layers.0.bias f4 [128]
0	0xbd35cf75	-0.0443873
1	0x3e6f36eb	0.23360793
2	0x3e3da3e7	0.18519555
3	0xbbfffeac	-0.0078123417
4	0xbd68dca4	-0.056851044
5	0xbc7b610e	-0.015342964
6	0xbc69aa35	-0.014261772
7	0xbd96713d	-0.07345817
8	0xbd8fefd5	-0.07028166
9	0x3ccc1336	0.024911504
10	0x3b5e6a73	0.003393796
11	0x3d5a1622	0.053243764
12	0xbc929af3	-0.017896151
13	0xbce5ce99	-0.028052615
14	0x3d58a5e1	0.05289257
15	0xbd8ca45f	-0.06867289
16	0xbae997b4	-0.00178217
17	0xbd2f3e53	-0.042784046
18	0xbd1e838a	-0.038699664
19	0xbc3b00bc	-0.011413749
20	0x3d032fb9	0.032027934
21	0x398ed4cd	0.000272429
22	0xbcebc213	-0.028779065
23	0x3dc04af2	0.09389295
24	0x3daaa5e0	0.083324194
25	0xbd4a1001	-0.04933167
26	0x3a96438d	0.0011464223
27	0x3e88429a	0.26613313
28	0x3c131394	0.008976836
29	0x3c4b9a42	0.012426915
30	0x3ce4727d	0.027886624
31	0xbd6fe687	-0.058569457
32	0x3cd7b787	0.02633263
33	0x3c1eb65c	0.009687033
34	0xba58dbeb	-0.00082725164
35	0xbd75abac	-0.059978172
36	0xbd677ef8	-0.05651757
37	0x3d73101a	0.059341528
38	0xbcc8e4f9	-0.024523245
39	0x3da21ee7	0.079160504
40	0xbce6d943	-0.02817977
41	0x3d1d1db9	0.038358424
42	0x3bd827e7	0.0065965536
43	0x3c6065e0	0.013696164
44	0x3d559a3f	0.052149054
45	0xbce6ed6e	-0.028189387
46	0xbc9bef71	-0.019035073
47	0x3d4a8f77	0.049453225
48	0x3c638f07	0.013889081
49	0xbd09f4b2	-0.033680625
50	0xbd4078f9	-0.04699037
51	0xbd432aef	-0.047648367
52	0xbc4c524f	-0.012470796
53	0x3dbd652a	0.09247811
54	0x3d8a2f70	0.06747329
55	0x3c6517f8	0.013982765
56	0xbc3be08b	-0.011467109
57	0x3cb05d2e	0.021528807
58	0xbc43ef99	-0.01195898
59	0x3d8e0bc6	0.06935839
60	0xbd49871a	-0.04920111
61	0x3e5dbfea	0.2165524
62	0xbbe28fda	-0.006914121
63	0xbb8e7c4a	-0.0043483125
64	0x3d3dc4c4	0.04633023
65	0x3d6518ac	0.055931732
66	0x3cb4c41c	0.022066168
67	0xbc2f12c4	-0.010685626
68	0x3ce52416	0.027971309
69	0x3daee48f	0.08539688
70	0x3d3058b3	0.04305334
71	0x3df0f299	0.11765022
72	0x3dce0608	0.10059744
73	0x3d8a3536	0.067484304
74	0x3ddc00f4	0.10742369
75	0x3dc83d79	0.0977735
76	0xbcee876d	-0.02911731
77	0x3e2301d8	0.15918672
78	0xbd8d8eb4	-0.06911984
79	0x3b9306af	0.0044868807
80	0xbd7ea136	-0.06216546
81	0x3cf51ec6	0.0299219
82	0xbc6ab17e	-0.014324544
83	0x3cf6e473	0.03013823
84	0x3d8b9bd6	0.06816833
85	0x3cb20237	0.021729572
86	0x3d2e3a3c	0.042536005
87	0x3d623baf	0.0552327
88	0xbbaea6a5	-0.005329924
89	0x3e12ad99	0.14324035
90	0x3cd0abc9	0.025472539
91	0x3df010d8	0.11721963
92	0xbd40755e	-0.04698693
93	0x3d85fe01	0.06542588
94	0xbda14763	-0.07874944
95	0xbc0da663	-0.008645627
96	0xbcc2c882	-0.02377725
97	0x3d1a39a6	0.037652634
98	0x3c36c97f	0.011156439
99	0xbc552564	-0.013009403
100	0x3d1e2423	0.03860868
101	0x3d86f1d6	0.06589095
102	0xbd5b3ca3	-0.053524625
103	0x3d3dde00	0.046354294
104	0xbd75d2e9	-0.060015593
105	0xbc2af16b	-0.010433535
106	0x3df81012	0.1211244
107	0xbd110b5e	-0.03541123
108	0xbbd205ee	-0.0064093983
109	0xbc0cc5aa	-0.008592049
110	0xbc6583fc	-0.014008518
111	0x3d95066e	0.07276617
112	0xbc81d3ae	-0.015848007
113	0x3e24935a	0.16071835
114	0xbc71f980	-0.014768958
115	0x3d36e3b5	0.044650752
116	0x3dced68a	0.10099514
117	0xbbb65746	-0.005564603
118	0x3d2746b0	0.040838897
119	0xbdbd6ea6	-0.0924962
120	0xbd2f9bd8	-0.042873234
121	0xbd715eac	-0.058928177
122	0xbc0ed79f	-0.0087184
123	0x3d4db670	0.050222814
124	0x3d4e3aca	0.050349034
125	0xbd13d67a	-0.036093213
126	0x3e10403c	0.14087003
127	0xbdac410d	-0.08410845
