results/first/SpaceInvaders/SpaceInvaders-3066.onnx (onnx, 79398 bytes, 9 tensors)

discrete_act_size_vector f4 [1, 2]
0	0x40400000	3.0
1	0x40000000	2.0

network_body._body_endoder.seq_layers.0.weight f4 [128, 6]
0	0x3ec29bfe	0.38009638
1	0x3e822b40	0.25423622
2	0xbefbe0fc	-0.49195087
3	0x3e914dfe	0.28379816
4	0x3ea6cc94	0.32577956
5	0x3e641a3d	0.22275634
6	0x3c256e01	0.010097028
7	0x3e93d5c3	0.28874025
8	0xbe904b76	-0.28182572
9	0xbe198cab	-0.14995067
10	0x3e6d0e69	0.23150028
11	0xbf255328	-0.6458001
12	0xbea9a542	-0.33133894
13	0xbd07f60d	-0.033193637
14	0xbe2c3148	-0.16815674
15	0xbe5c920b	-0.21540086
16	0xbd17746f	-0.036976274
17	0x3e26e69f	0.16298912
18	0x3e237e36	0.15966114
19	0x3deb8a39	0.11500973
20	0xbdd688c7	-0.10475307
21	0x3b60ac01	0.003428221
22	0xbdbaf0b5	-0.091279425
23	0x3e91a766	0.28448027
24	0x3ec43642	0.38322645
25	0xbf3bfc71	-0.7343207
26	0xbe808858	-0.25104022
27	0x3eeeacde	0.46616262
28	0x3e74b806	0.23898324
29	0xbd841c54	-0.06450716
30	0x3ee7486c	0.4517244
31	0xbe8a11e8	-0.26966786
32	0xbe745293	-0.23859625
33	0x3f292ce6	0.66084135
34	0x3eb269cc	0.34846342
35	0x3e154f49	0.14581026
36	0x3d04dcc6	0.03243711
37	0xbd030472	-0.03198666
38	0x3e935cf8	0.28781867
39	0x3e07e759	0.13271846
40	0xbdcaa10d	-0.09893999
41	0x3d7ba407	0.061435726
42	0xbe4a814c	-0.19775885
43	0xbcc708a6	-0.024296116
44	0xbf6c194c	-0.922261
45	0x3e2bd1c7	0.16779242
46	0x3db07c39	0.086174436
47	0x3d815214	0.06314483
48	0x3eaf2dc9	0.3421462
49	0x3ed50e6a	0.4161256
50	0xbf05cf94	-0.52269864
51	0x3d024743	0.03180624
52	0x3f1c23e1	0.60992247
53	0xbce6adfa	-0.02815913
54	0xbd85988a	-0.06523235
55	0xbd87c7d8	-0.06629914
56	0x3e80ae01	0.25132754
57	0x3eb00c1d	0.34384242
58	0x3e47150b	0.19441621
59	0xbf41cf88	-0.7570729
60	0xbcd4c7d3	-0.02597419
61	0x3ee20621	0.441453
62	0xbf0c9274	-0.5491097
63	0xbcf9361b	-0.030421307
64	0xbf157a41	-0.5838967
65	0xbdf48974	-0.119402796
66	0x3f653df7	0.89547676
67	0x3f25711c	0.64625716
68	0xbe132c17	-0.14372288
69	0xbd91cb15	-0.07118813
70	0x3f094074	0.5361397
71	0x3f860bc9	1.0472347
72	0x3e2a680b	0.16641252
73	0xbe32a4eb	-0.17445724
74	0xbd9ecf25	-0.077543534
75	0xbe9277f1	-0.28607133
76	0x3db1b9a8	0.08677989
77	0xbe7c532f	-0.24641107
78	0xbe774cf6	-0.24150452
79	0xbf3d9d6f	-0.7406835
80	0xba3bb9a7	-0.0007161148
81	0xbe6d5f08	-0.23180783
82	0x3ebb2edf	0.36559197
83	0x3f5900b3	0.8476669
84	0xbe36956c	-0.17830437
85	0x3eac271a	0.33623582
86	0xbf268f53	-0.65062445
87	0xbe61ddcf	-0.2205727
88	0xbefbc702	-0.49175268
89	0x3da37926	0.079820916
90	0xbedf4469	-0.4360688
91	0x3d00d209	0.031450305
92	0xbc71f448	-0.014767714
93	0x3d80e3bc	0.06293437
94	0xbec26cc4	-0.37973607
95	0xbe9cedc0	-0.3065014
96	0x3f253f02	0.6454927
97	0xbd58c28b	-0.052919906
98	0x3e3f9972	0.18710878
99	0x3ebaaa9e	0.36458296
100	0xbf1c4fbf	-0.6105918
101	0x3e8500fc	0.25977314
102	0x3e81adf5	0.2532803
103	0xbe8bd563	-0.2731124
104	0xbef093fa	-0.46987897
105	0x3ef19a43	0.47188005
106	0xbc40e104	-0.011772398
107	0xbd45257c	-0.04813145
108	0xbe2b469f	-0.16726159
109	0x3e4aeddb	0.19817297
110	0xbf9622ae	-1.1729333
111	0x3f50a0ad	0.8149517
112	0xbe0d61ed	-0.13806887
113	0x3edfa3db	0.436797
114	0xbe0d8b0d	-0.13822575
115	0x3f541cc0	0.8285637
116	0x3d5af7ff	0.053459164
117	0xbe22f4bf	-0.15913676
118	0x3db33868	0.08750993
119	0xbf2c947f	-0.6741409
120	0x3e9fc638	0.31205916
121	0xbde3ef84	-0.11129668
122	0xbd51d8f3	-0.05123229
123	0x3dda6068	0.10662919
124	0xbdf8b0d3	-0.121431015
125	0xbd5d2ae4	-0.05399598
126	0x3e9faf4e	0.31188434
127	0x3de4f673	0.11179819
128	0x3f39171b	0.7230088
129	0xbde134fb	-0.10996433
130	0x3e2581e8	0.16162837
131	0x3ebb7db6	0.36619347
132	0x3f086492	0.5327846
133	0x3d872d66	0.06600456
134	0x3e78c427	0.24293576
135	0x3e850b28	0.25985074
136	0x3dd92cd3	0.10604253
137	0x3e858a48	0.26082063
138	0xbf0c033a	-0.54692423
139	0xbd7b5ac9	-0.061365876
140	0xbebb3e4e	-0.36570972
141	0x3e26b7b5	0.16281016
142	0xbee3febd	-0.44530287
143	0xbf4852f8	-0.782516
144	0xbc1ff1ef	-0.009762271
145	0xbbeaf043	-0.0071697547
146	0xbf2b888f	-0.67005247
147	0xbf265726	-0.6497673
148	0x3ed40c6a	0.4141572
149	0xbe8de1c5	-0.2771131
150	0xbebc40f0	-0.36768293
151	0xbf24bc29	-0.6434961
152	0xbeafe678	-0.3435552
153	0xbd578b76	-0.052623235
154	0xbf13c37e	-0.5772017
155	0xbee49b1a	-0.44649583
156	0xbec99c63	-0.39377126
157	0x3f0165ad	0.5054577
158	0xbfac79b2	-1.3474638
159	0xbe6d2ed7	-0.23162399
160	0x3dd222e9	0.10260565
161	0x3f01b7b0	0.5067091
162	0x3ef99bf2	0.4875179
163	0xbe1fdf0e	-0.15612432
164	0xbedc2412	-0.4299627
165	0x3f5114db	0.8167245
166	0x3f08cf6b	0.53441495
167	0xbd63a3f1	-0.05557627
168	0xbf504d70	-0.8136816
169	0x3e9e01ce	0.30860752
170	0x3e2ec5c3	0.17067628
171	0x3cd7be8c	0.026335977
172	0xbd1f8120	-0.038941503
173	0xbea4b4d4	-0.3216921
174	0xbe6222d8	-0.22083604
175	0xbec238a3	-0.37933835
176	0x3e4ca4de	0.19984767
177	0x3e1d2bc2	0.15348724
178	0xbe66d845	-0.22543438
179	0x3e193a90	0.14963746
180	0xbcdf5d23	-0.02726609
181	0x3f0a86cb	0.5411193
182	0x3e0129d6	0.12613615
183	0x3f50f94d	0.816304
184	0xbf0f3ad1	-0.5594912
185	0xbed7711c	-0.42078483
186	0xbed37ff4	-0.41308558
187	0x3e62dbc0	0.2215414
188	0xbe7c756f	-0.24654172
189	0x3f106d77	0.5641703
190	0xbdf18088	-0.117920935
191	0xbe2b828a	-0.16749015
192	0x3f2e7b4a	0.68156874
193	0x3f884baa	1.0648091
194	0xbe7bbd8b	-0.24584024
195	0x3f36bca1	0.71381575
196	0xbd15779d	-0.036491025
197	0x3e11756e	0.14204952
198	0xbee3c691	-0.44487432
199	0xbe82de69	-0.2556031
200	0xbe562801	-0.20913698
201	0xbe81140c	-0.25210607
202	0xbe113a9a	-0.14182511
203	0xbe9f4b7d	-0.3111228
204	0xbecf36a2	-0.4047137
205	0xbeca5341	-0.39516643
206	0x3f15143b	0.58233994
207	0x3bc96e6d	0.006147197
208	0xbe3334a2	-0.17500547
209	0x3f9e2bec	1.2357154
210	0x3d801f3d	0.06255958
211	0x3db1df5f	0.08685183
212	0xbe83f36f	-0.25771663
213	0x3d714fe9	0.0589141
214	0xbed7fe43	-0.42186174
215	0x3eb1e2ab	0.34743246
216	0x3e8b435b	0.27199826
217	0xbf073966	-0.5282196
218	0xbda51ec0	-0.08062506
219	0x3ea9dac0	0.33174706
220	0x3e53cdcc	0.20683974
221	0x3ea187d3	0.31548938
222	0x3e8d9f77	0.27660725
223	0x3e8f38d3	0.2797304
224	0x3f1a8a33	0.60367125
225	0xbf4b9391	-0.79522043
226	0xbed32eba	-0.41246587
227	0xbe846bbf	-0.25863454
228	0x3ebc25a0	0.36747456
229	0xbef08b0f	-0.46981093
230	0xbdf9128e	-0.12161742
231	0x3e2399c7	0.1597663
232	0xbf80c2f7	-1.0059499
233	0xbc9e8b76	-0.01935361
234	0xbbffa1a8	-0.0078012533
235	0x3e839ead	0.25706998
236	0x3df500e2	0.11963059
237	0x3ee7788f	0.45209166
238	0x3dc971a8	0.09836131
239	0xbf170f3c	-0.5900762
240	0xbf026d66	-0.5094818
241	0xbe177b87	-0.14793216
242	0xbe1e1e72	-0.15441301
243	0x3f249b3d	0.64299375
244	0x3f1a809c	0.6035249
245	0xbe301df8	-0.17198932
246	0x3e9e8fd9	0.30969122
247	0xbdb6deef	-0.0892924
248	0x3eadf0ba	0.33972722
249	0x3dca8cce	0.098901376
250	0xbf17b547	-0.5926098
251	0x3d3e82ab	0.046511333
252	0x3e79050e	0.24318334
253	0x3ea2ce00	0.3179779
254	0x3f7a1f84	0.9770434
255	0xbe79d6ee	-0.24398395

network_body._body_endoder.seq_layers.0.bias f4 [128]
0	0x3d008ca9	0.031384144
1	0x3e586314	0.21131545
2	0xbe5e9323	-0.21735816
3	0x3d503d42	0.05083967
4	0x3db596b2	0.088666335
5	0xbd6568c5	-0.05600812
6	0xbe2e8a87	-0.17045031
7	0xbe8a2d11	-0.26987508
8	0x3ce6c686	0.028170835
9	0x3e83698b	0.2566646
10	0xbe667749	-0.22506441
11	0x3c1ec9f3	0.009691703
12	0x3df8dbb3	0.12151279
13	0x3e50dd90	0.2039702
14	0x3e69e361	0.22840644
15	0xbe930024	-0.28711045
16	0x3bcff5a5	0.006346422
17	0x3d96ae40	0.07357454
18	0xbe6fe7d5	-0.2342828
19	0xbe911c67	-0.28341982
20	0x3a158ccd	0.000570488
21	0x3de26b08	0.11055571
22	0xbcc6da54	-0.024274029
23	0xbe41de92	-0.1893256
24	0x3e2ef531	0.1708572
25	0xbe889997	-0.2667968
26	0x3e7ac0e7	0.24487649
27	0xba713004	-0.00092005753
28	0xbe3ac102	-0.18237689
29	0x3e1bc318	0.15211141
30	0xbe9d619c	-0.30738533
31	0x3e58a813	0.21157865
32	0x3cfda3c2	0.030961875
33	0xbe628c9c	-0.2212395
34	0x3e456a8c	0.19278926
35	0x3da18ce6	0.07888202
36	0x3d5e4af2	0.054270692
37	0xbc6cae5b	-0.014445866
38	0x3d946315	0.07245461
39	0xbe714525	-0.23561533
40	0x3e86667a	0.26250058
41	0x3dbdad53	0.092615746
42	0xbd0b9602	-0.034078605
43	0x3e7353db	0.23762457
44	0x3d17fdbe	0.03710722
45	0x3cc5ef9a	0.024162102
46	0x3b696871	0.003561523
47	0xbe619f34	-0.22033387
48	0xbe36dd69	-0.17857899
49	0xbe83e749	-0.25762394
50	0x3d41adeb	0.047285
51	0xbe6b4219	-0.22974433
52	0x3d455915	0.04818066
53	0x3bbdc183	0.0057908907
54	0xbe832bba	-0.25619298
55	0xbe6ff62a	-0.23433748
56	0xbe7794cc	-0.24177855
57	0xbe8ba53c	-0.272745
58	0x3e7ac13e	0.24487779
59	0x3d09dfe9	0.033660803
60	0x3e354e64	0.17705685
61	0x3c2eec98	0.0106765255
62	0xbe7c99f5	-0.24668105
63	0x3d16c305	0.03680708
64	0xbe95e151	-0.29273465
65	0xbea88c76	-0.32919663
66	0xbe86fa68	-0.2636292
67	0xbe84c925	-0.2593471
68	0x3c947678	0.018122897
69	0x3d94d2d9	0.072667785
70	0x3e61e647	0.220605
71	0xba41f732	-0.00073992007
72	0xbe634e6f	-0.22197889
73	0xbe646f70	-0.22308135
74	0xbe70bb99	-0.23509063
75	0xbe85ffa3	-0.26171598
76	0xbd8b0ff5	-0.06790153
77	0x3e73791a	0.23776665
78	0x3e65bd49	0.22435488
79	0x3cbdc89f	0.023166953
80	0xbe364b04	-0.17802054
81	0x3c19f932	0.009397792
82	0xbe48f393	-0.19624166
83	0x3c352dfe	0.011058329
84	0xbe6d7a14	-0.231911
85	0x3d2c9ae4	0.042139903
86	0xbd0ad773	-0.033896875
87	0xbc5c4b9e	-0.013445763
88	0xbe73b97c	-0.23801225
89	0xbdc06757	-0.093947105
90	0x3deb7b24	0.114980966
91	0xbd18d55c	-0.03731285
92	0xbcca7516	-0.024714034
93	0xbc34ec34	-0.011042643
94	0xbeaab9b1	-0.33344796
95	0xbe8d4fd7	-0.27599975
96	0x3e757eb6	0.23974118
97	0xbc6b8f32	-0.014377402
98	0x3e4dbdc3	0.2009192
99	0xbd00332b	-0.031298798
100	0x3cd4543d	0.025919074
101	0xbc9f7afd	-0.019467825
102	0x3da85d7a	0.08220954
103	0x3da06924	0.07832554
104	0x3d1bb4df	0.03801429
105	0xbe62c8e0	-0.2214694
106	0xbe0d8d97	-0.13823543
107	0xbe832da5	-0.25620762
108	0x3e5e4ca6	0.21708927
109	0xbe54090b	-0.20706575
110	0xbcc685dc	-0.024233751
111	0xbc68bacd	-0.014204693
112	0x3e5ee08f	0.2176535
113	0xbe8cb65a	-0.27482873
114	0xbe943f5f	-0.28954598
115	0xbc28b91d	-0.010298041
116	0xbcd616fb	-0.026134005
117	0x3e68a4be	0.22719094
118	0x3e791d5d	0.24327607
119	0xba1b94f4	-0.00059349765
120	0xbe87c6c1	-0.26518825
121	0x3e54dd35	0.20787509
122	0x3d4962fb	0.04916666
123	0xbe999b9c	-0.30001533
124	0xbc998c97	-0.018743796
125	0x3d9acd7e	0.07558726
126	0x3c8aa6e1	0.016925277
127	0xbcad9987	-0.021191372

network_body._body_endoder.seq_layers.2.weight f4 [128, 128]
0	0x3d4354da	0.047688343
1	0xbd4d9dde	-0.050199382
2	0x3987635d	0.00025823238
3	0x3d3490ec	0.04408352
4	0xbd495b0f	-0.049159106
5	0x3d8e3727	0.06944113
6	0x3e21d810	0.15805078
7	0x3db66bfd	0.08907316
8	0x3d42cdbc	0.047559485
9	0xbdf14292	-0.117802754
10	0x3dfea2b6	0.124333784
11	0xbdfd4d84	-0.123683006
12	0xbce4cc29	-0.027929382
13	0xbe9ccc14	-0.3062445
14	0xbe8f474b	-0.2798408
15	0xbd354f67	-0.044265177
16	0x3d28504c	0.041092202
17	0x3c1fff4a	0.0097654555
18	0x3e4744bc	0.19459814
19	0xbc23a85c	-0.0099888705
20	0xbcf8c103	-0.030365473
21	0x3cd497ba	0.025951255
22	0x3da575cc	0.080791086
23	0xbda6731b	-0.081274234
24	0xbe0d0bb8	-0.13774002
25	0xbe0eabf3	-0.13932781
26	0xbdf269d7	-0.118365936
27	0xbd525252	-0.051348038
28	0xbe3e85ee	-0.18605778
29	0xbe6a2742	-0.22866538
30	0xbd036ff8	-0.032089204
31	0xbe2ae8ac	-0.1669032
32	0xbd026d7a	-0.031842686
33	0xbd91147f	-0.070839874
34	0xbe911300	-0.28334808
35	0xbdce7b71	-0.10082138
36	0x3cdd3f08	0.027007595
37	0xbcb22682	-0.021746878
38	0xbda38480	-0.07984257
39	0x3d8d5f88	0.06902987
40	0xbe25f856	-0.16208014
41	0x3c9d3a3c	0.019192807
42	0xbd102ec5	-0.035200853
43	0x3cb37407	0.021905912
44	0xbe06ce7f	-0.1316471
45	0x3d83ad33	0.064295195
46	0xbdcd7897	-0.10032766
47	0x3dc4f23c	0.09616515
48	0x3e248f45	0.16070278
49	0x3e040bf0	0.12895179
50	0xbdf31b1c	-0.11870405
51	0x3d196913	0.037453722
52	0xbd3657c6	-0.0445173
53	0x3c04361a	0.008069539
54	0x3e768718	0.24074972
55	0x3d9df78b	0.07713231
56	0xbdb9c7e6	-0.09071331
57	0x3defe74d	0.11714039
58	0xbe12ee55	-0.14348729
59	0x3dc252fe	0.09488486
60	0xbb7f10f0	-0.0038920008
61	0x3d030235	0.031984527
62	0x3ddb7504	0.10715678
63	0xbc5a3b1b	-0.013319756
64	0xbe0d355b	-0.13789885
65	0x3ced30e7	0.028953983
66	0x3c9ade2b	0.018904766
67	0x3dfa710a	0.12228592
68	0x3d364902	0.04450322
69	0xbd707979	-0.058709595
70	0xbe38a252	-0.1803067
71	0x3d273ed3	0.0408314
72	0x3dc35a2f	0.095386855
73	0x3dcde35d	0.10053132
74	0x3b98d837	0.0046644467
75	0x3e98166e	0.29704612
76	0x3dd14608	0.102184355
77	0xbe6dc8dc	-0.23221153
78	0xbe68b794	-0.2272628
79	0xbe1e7639	-0.15474786
80	0x3cc1b7a8	0.023647144
81	0xbd7690c1	-0.06019664
82	0x3e1adef0	0.15124106
83	0xbd91566b	-0.07096561
84	0x3e23cb88	0.1599561
85	0xbbfc8355	-0.0077060857
86	0x3ca98473	0.02069304
87	0x3c5920ce	0.01325245
88	0xbd39f5e7	-0.045400526
89	0x3d9f6266	0.0778244
90	0xbcb17839	-0.021663772
91	0xbd7bf532	-0.061513133
92	0x3d0b361d	0.033987153
93	0x3cefe174	0.02928231
94	0xbdfaa62f	-0.12238728
95	0x3e583318	0.2111324
96	0xbe75bf2e	-0.2399871
97	0x3e1bd4a6	0.15217838
98	0xbe4e0b56	-0.20121512
99	0x3ca86ee7	0.020560695
100	0xbd04115a	-0.03224311
101	0xbdcb9828	-0.09941131
102	0xbb739765	-0.0037169096
103	0xbe213376	-0.15742287
104	0xbd0ebf77	-0.034850564
105	0x3c024bc9	0.007952639
106	0x3e48a98e	0.1959593
107	0x3d0ac21d	0.033876527
108	0xbe4d2b0d	-0.20035954
109	0x3e423833	0.18966751
110	0x3c01c831	0.0079212645
111	0xbd2839af	-0.041070636
112	0xbe227586	-0.15865144
113	0x3e1115fe	0.14168546
114	0xbdd1409f	-0.102174036
115	0xbddde1ff	-0.10834121
116	0x3ce8e59a	0.028429795
117	0xbe66000f	-0.2246096
118	0xbe23fe62	-0.16015008
119	0x3da310ae	0.07962166
120	0xbbe4383c	-0.0069647115
121	0xbe2a201f	-0.16613816
122	0xbd66d4f2	-0.056355424
123	0x3e3dd552	0.18538406
124	0xbddddbfb	-0.108329736
125	0xbcb958b5	-0.022625307
126	0xbd42a1f5	-0.047517736
127	0x3db4463f	0.08802461
128	0x3d8c5754	0.06852594
129	0xbdaaf1f4	-0.0834693
130	0x39a4d400	0.0003143847
131	0xbe043cc5	-0.12913807
132	0x3e0c7ffe	0.137207
133	0x3dea8394	0.11450878
134	0xbd797827	-0.0609056
135	0xbcc2e358	-0.023790047
136	0x3e33eeb2	0.17571524
137	0xbe11cea4	-0.14238983
138	0x3d40e3c8	0.04709223
139	0xbd8a19a0	-0.06743169
140	0xbdcff7e1	-0.10154701
141	0xbdca49f9	-0.098773904
142	0xbe128f20	-0.1431241
143	0xbe1be136	-0.1522263
144	0xbe0099a8	-0.12558615
145	0x3dc7f4e3	0.09763505
146	0x3cfd3bf5	0.030912379
147	0xbc648951	-0.013948754
148	0x3d2fa943	0.04288603
149	0xbdd56d33	-0.10421219
150	0x3d8e8fa0	0.06960988
151	0x3df7466d	0.120739795
152	0xbd811c0e	-0.06304179
153	0x3bd64ffa	0.0065402957
154	0xbe9643c5	-0.2934858
155	0xbb38a1c7	-0.0028172599
156	0xbe606efc	-0.21917337
157	0xbe8b4485	-0.27200714
158	0x3da4d01f	0.080475084
159	0xbe70e853	-0.23526125
160	0xbd6afc9d	-0.057369817
161	0xbcaf7d49	-0.021422045
162	0xbdd04a52	-0.101704255
163	0x3dd82d81	0.10555554
164	0xbc74efa6	-0.014949715
165	0x3d6d8688	0.057989627
166	0xbe11aaae	-0.14225265
167	0xbd9a288b	-0.07527264
168	0xbe1152cd	-0.14191742
169	0x3dc08519	0.09400386
170	0xbda5f24a	-0.081028536
171	0x3c56764b	0.013089727
172	0xbd2f24c1	-0.04275966
173	0xbe197ad1	-0.14988257
174	0xbe82d547	-0.25553343
175	0x3e55d93a	0.20883647
176	0xbd6e095d	-0.0581144
177	0x3d68ddb6	0.056852065
178	0xbde2baac	-0.11070761
179	0xbe1aaeea	-0.15105787
180	0xbd3a0757	-0.045417156
181	0xbbc3c708	-0.005974654
182	0x3d7e38b8	0.06206581
183	0xbe0072c2	-0.12543777
184	0xbdbfcf91	-0.09365762
185	0xbe4a54d0	-0.19758916
186	0xbda1e5a9	-0.07905132
187	0xbdb9ca1c	-0.090717524
188	0x3c6903e3	0.014222118
189	0xbdcc89e6	-0.099872395
190	0xbcabab8b	-0.020955821
191	0x3e253104	0.16131979
192	0xbdaced7c	-0.08443734
193	0x3d183f5b	0.037169795
194	0xbd0946a1	-0.033514623
195	0x3d6dfd2b	0.058102768
196	0xbc8a2faf	-0.01686844
197	0x3cd17270	0.025567263
198	0xbe7bf05f	-0.24603413
199	0x3cac773a	0.021052945
200	0xbd8dcdca	-0.06924017
201	0xba873c19	-0.0010317593
202	0xbd5bb734	-0.053641513
203	0x3e5ce698	0.2157234
204	0x3e1fbb3d	0.1559877
205	0xbe9a4085	-0.3012735
206	0xbeb6418a	-0.35596877
207	0x3c5d0e3a	0.013492161
208	0xbe219a1b	-0.15781443
209	0x3d9792f8	0.07401079
210	0x3e0c7601	0.1371689
211	0xbd692bc1	-0.056926493
212	0x3df5a509	0.119943686
213	0x3e07998d	0.13242169
214	0xbca1c292	-0.019746099
215	0xbd961cb0	-0.073296905
216	0xbd9ff318	-0.07810038
217	0x3de19566	0.110148236
218	0xbdad0d11	-0.08449758
219	0xbc4d306f	-0.0125237545
220	0xbcef7aec	-0.029233418
221	0x3dc67168	0.09689599
222	0xbdd4f6ca	-0.10398634
223	0xbe783410	-0.2423861
224	0x3b7b014b	0.0038300331
225	0xbc952439	-0.018205749
226	0xbe61a502	-0.22035602
227	0x3bb99e74	0.005664641
228	0xbb803d57	-0.0039135623
229	0x3dd4818c	0.103762716
230	0x3bb32c76	0.0054679466
231	0xbdf3c637	-0.11903041
232	0x3d703cf6	0.058651887
233	0x3ca361d5	0.01994411
234	0x3e4eef86	0.20208558
235	0xbd8dded3	-0.06927266
236	0xbe0a9b05	-0.13535698
237	0x3ddbf423	0.10739925
238	0x3da38ef9	0.07986254
239	0xbcc7d644	-0.024394162
240	0xbdb4bf85	-0.08825592
241	0x3e08128d	0.13288327
242	0xbe6832c7	-0.2267562
243	0xbe131ca9	-0.14366402
244	0xbc561bde	-0.0130681675
245	0xbe586baa	-0.2113482
246	0xbde3bda3	-0.11120155
247	0x3d1ba41e	0.03799831
248	0x3e6b5cd3	0.22984628
249	0xbe8d27e3	-0.27569494
250	0xbdd32c4e	-0.10311185
251	0xbce205b2	-0.027590606
252	0xbdbd35ea	-0.09238799
253	0xbcc51f3a	-0.024062742
254	0xbe5259b0	-0.20542026
255	0x3dee49ec	0.11635193

network_body._body_endoder.seq_layers.2.bias f4 [128]
0	0xbe25fd0c	-0.16209811
1	0xbe066391	-0.13123919
2	0xbe3dac54	-0.18522769
3	0x3d4e46d8	0.05036053
4	0x3b91b17d	0.004446207
5	0xbcecc76a	-0.028903682
6	0x3ce01898	0.027355477
7	0xbe2feecd	-0.17180939
8	0xbbadfa68	-0.0053093918
9	0xbd33bf8b	-0.04388384
10	0xbd17045f	-0.036869403
11	0xbd5acedc	-0.053419933
12	0xbd522954	-0.051308945
13	0xbd628160	-0.055299163
14	0xbd0a9865	-0.03383674
15	0xbcee7410	-0.029108077
16	0x3e00ae60	0.12566519
17	0xbd837331	-0.064184554
18	0xbde9b84c	-0.11412105
19	0xbe227446	-0.15864667
20	0xbd5f0735	-0.054450233
21	0xbe26e8a2	-0.1629968
22	0x3e5b00f9	0.2138709
23	0xbdf1678f	-0.1178733
24	0xbd83d53d	-0.06437156
25	0x3d06e51f	0.03293335
26	0x3e8b9b0d	0.27266732
27	0xbd832170	-0.06402862
28	0x3dd88171	0.10571564
29	0xbe1cf4f5	-0.15327819
30	0xbccad986	-0.024761926
31	0xbb8eead5	-0.0043614903
32	0x3e060cf4	0.13090879
33	0x3dfd391b	0.12364408
34	0xbe1e7e5e	-0.15477893
35	0xbe3e209c	-0.18567127
36	0x3ddac211	0.106815465
37	0xbe36075a	-0.17776242
38	0xbd277504	-0.04088308
39	0x3dc7364f	0.097271554
40	0xbd3715c8	-0.044698507
41	0xbe28a4a8	-0.16469061
42	0xbcd7bc7b	-0.026334992
43	0xbb18dcfa	-0.0023325072
44	0x3bbc2d3a	0.005742696
45	0x3dcb7599	0.09934539
46	0xbe094025	-0.13403375
47	0x3d0e7828	0.03478256
48	0x3db358b3	0.087571524
49	0x3bda711c	0.0066663157
50	0xbdc70e8a	-0.0971957
51	0xbd970bb7	-0.07375281
52	0xbe37e8f8	-0.17959964
53	0xbe5b8783	-0.21438412
54	0xbc8478b8	-0.016170844
55	0xbe029632	-0.12752607
56	0x3dd3c8b9	0.10341019
57	0xbcf8c3cb	-0.030366799
58	0x3c958eb7	0.018256528
59	0xbd49247d	-0.049107064
60	0x3c7cc535	0.015427877
61	0xbe0c4a80	-0.13700294
62	0x3accbe7a	0.0015620731
63	0xbe288227	-0.16455899
64	0x3e151006	0.14556894
65	0xbd7be275	-0.061495263
66	0xbc9d18cf	-0.019176869
67	0xbe2ad270	-0.16681838
68	0xbdf49796	-0.11942975
69	0xbe1e9fa0	-0.1549058
70	0x3de09c03	0.10967257
71	0x3e12f811	0.14352442
72	0xbe3ce913	-0.18448286
73	0xbe2c913f	-0.16852282
74	0xbdf32e1b	-0.11874028
75	0x3d9bab18	0.07600993
76	0xbc016211	-0.007896916
77	0xbb91abcb	-0.004445528
78	0x3e92e518	0.2869041
79	0xbd155ef2	-0.0364675
80	0xbd3a5514	-0.045491293
81	0x3de36ca4	0.11104706
82	0xbe69d5da	-0.22835484
83	0xbcfbb71e	-0.030726966
84	0xbd14d03a	-0.036331393
85	0xbcda3962	-0.02663869
86	0xbe22868a	-0.15871635
87	0xbd0b4e1f	-0.03401005
88	0x3b38d999	0.002820587
89	0xbad41b5d	-0.0016182471
90	0x3cd04aec	0.02542635
91	0x3c4341d3	0.011917549
92	0xbdb3e4bf	-0.08783864
93	0xbd064e84	-0.032789722
94	0x3ce3df6a	0.027816493
95	0xbe51bf36	-0.20483097
96	0xbe4518f2	-0.19247797
97	0xbe1aa005	-0.15100105
98	0xbe4d061d	-0.20021863
99	0x3e46de8c	0.19420832
100	0x3d1611c7	0.036638048
101	0xbe54fec4	-0.2080031
102	0x3cc1f24d	0.023675108
103	0x3c2c6eab	0.010524432
104	0xbcb0e70a	-0.021594543
105	0x3c4ae205	0.012382989
106	0x3c7a1970	0.015264854
107	0xbc8790c5	-0.016548524
108	0x3c82a8cf	0.015949635
109	0xbcb5f941	-0.02221358
110	0xbd645275	-0.0557427
111	0x3e43aca4	0.19108826
112	0x3dc80e84	0.09768394
113	0xbd8f48c7	-0.06996303
114	0xbe305f32	-0.17223814
115	0xbdc93196	-0.09823911
116	0xbe3df080	-0.18548775
117	0xbe3b9ac2	-0.18320754
118	0x39401c7f	0.00018321162
119	0x3bb64c23	0.0055632754
120	0xbd5c5c6f	-0.05379909
121	0xbdf1c1b5	-0.11804525
122	0x3c5c4641	0.013444484
123	0x3daaa1cf	0.08331644
124	0xbe45cf24	-0.19317299
125	0xbc9efc5f	-0.01940745
126	0xbd00f127	-0.03147998
127	0xbdc943d5	-0.09827391

action_model._discrete_distribution.branches.0.weight f4 [3, 128]
0	0x3d08ad95	0.033368666
1	0x3c9fc567	0.019503308
2	0x3aa5e1f1	0.0012655837
3	0x3c900d99	0.017584609
4	0xbc091da2	-0.008368881
5	0xbbd081d7	-0.0063631344
6	0xbc0fcfbf	-0.008777558
7	0x3c87d4f0	0.016581029
8	0xbb2339d9	-0.0024906306
9	0xbc282c12	-0.010264413
10	0x3afe0d64	0.0019382653
11	0xbc0d5b82	-0.008627774
12	0xbc68430a	-0.01417614
13	0x3d7dc8ac	0.061958954
14	0xbbb5ea35	-0.0055516013
15	0xbc2e3228	-0.010632075
16	0xbce12ce8	-0.027487233
17	0xbc5e8080	-0.0135804415
18	0x3cb517cb	0.022106072
19	0xbb1b1784	-0.002366514
20	0xbc28c608	-0.010301121
21	0x3beeb7ab	0.0072850785
22	0xbd3ae0a2	-0.045624383
23	0xbc8837a5	-0.016628096
24	0x3d8f8a72	0.07008828
25	0xbac5aa9f	-0.0015080756
26	0xbd7af18b	-0.06126551
27	0xbc8be410	-0.017076522
28	0x3c759ece	0.014991475
29	0x3d81ea49	0.063435145
30	0xbb6c2433	-0.0036032319
31	0x3b7213dd	0.003693811
32	0xbce91946	-0.028454434
33	0x3bb0e270	0.005398087
34	0xba968ea0	-0.0011486597
35	0x3bb0023b	0.0053713596
36	0x3bb73068	0.0055904873
37	0xbcb75461	-0.022379102
38	0x3bbd31aa	0.0057737427
39	0x3b7b38ec	0.0038333489
40	0x3b1c5905	0.002385677
41	0x3c42a947	0.011881179
42	0xbdd206c9	-0.102552004
43	0x3c66ea72	0.014093982
44	0xbc507a10	-0.0127244145
45	0xbcd7a5f1	-0.026324244
46	0x3c884692	0.016635213
47	0x3ba64c53	0.0050750165
48	0xbc1cdf39	-0.009574705
49	0xbbb6d6d5	-0.005579809
50	0x3ce7b767	0.028285695
51	0x3ac8ef19	0.0015330046
52	0x3ca90e28	0.020636633
53	0x3c398632	0.011323499
54	0x3be5848a	0.0070043253
55	0x3d4f0d7a	0.05054996
56	0xbb1e8391	-0.0024187306
57	0x3d3b8727	0.04578319
58	0xbbe25750	-0.006907381
59	0xbaed70e0	-0.0018115304
60	0xbd082918	-0.033242315
61	0xbaf5e388	-0.0018759826
62	0x3b615340	0.0034381896
63	0xbbb84829	-0.0056238365
64	0xbd26fabc	-0.040766463
65	0xbb98d6c6	-0.004664275
66	0x3b1674e4	0.0022957856
67	0xbbb4e2ba	-0.005520192
68	0xbc16e84e	-0.009210659
69	0x3d1093b4	0.03529711
70	0x3c12ee82	0.0089679975
71	0xbc4b594f	-0.01241143
72	0x3b857280	0.0040724874
73	0x3d171357	0.03688368
74	0x3c4f4723	0.012651238
75	0x3af3713f	0.0018573179
76	0xbc230262	-0.009949299
77	0xbb44a284	-0.0030004093
78	0xbd65d18b	-0.05610804
79	0x382b36c4	4.082058e-05
80	0x3d954f35	0.07290498
81	0xbc2e22c1	-0.010628403
82	0xba06e583	-0.0005145894
83	0x3cbf7c1b	0.023374608
84	0x3b15eedf	0.0022877974
85	0x3b473d2c	0.0030401452
86	0x3ada5558	0.0016657514
87	0x3c56d383	0.013111952
88	0x3a457f5e	0.0007533933
89	0x3af9efa2	0.0019068609
90	0x3c4247b6	0.0118579175
91	0x3b5053b1	0.0031788165
92	0x3c462ef8	0.012096159
93	0x3c466cc9	0.012110897
94	0xbc939231	-0.018014045
95	0xbc43e864	-0.011957262
96	0x3c8e5b47	0.017377509
97	0xbc03a82e	-0.008035703
98	0xbbdc50a5	-0.0067234808
99	0x3ca3f4d2	0.0200142
100	0xbc72cd89	-0.014819511
101	0xbd012eef	-0.0315389
102	0x3bc77b20	0.0060876757
103	0x3c265780	0.010152698
104	0x3c997aac	0.018735252
105	0x3b9f0e65	0.004854011
106	0x39b6569d	0.00034778277
107	0x3bc9bda9	0.0061566425
108	0x3c6cfe1a	0.014464879
109	0x3c040198	0.008057021
110	0xbc1c6746	-0.009546107
111	0x3caf2aec	0.021382771
112	0xbca29c29	-0.019849854
113	0x3b356716	0.0027679852
114	0x3bcf3ae6	0.00632416
115	0x3cd758ce	0.026287463
116	0xbca34807	-0.019931806
117	0xbbfb3b46	-0.007666978
118	0xbbe4f809	-0.006987576
119	0xbc2ed937	-0.010671905
120	0x3b1b896c	0.0023733033
121	0xbc855512	-0.016275916
122	0x3c839811	0.016063722
123	0x3c08499c	0.008318331
124	0x3c2a422d	0.010391754
125	0xbc0bc1a0	-0.0085300505
126	0xbd9de1e7	-0.07709103
127	0xbc8fc260	-0.01754874
128	0x3db70ee5	0.08938388
129	0x3d85f249	0.06540353
130	0x3e01958a	0.12654701
131	0xbcbff5c7	-0.023432625
132	0x3c68d322	0.014210494
133	0x3ce08427	0.027406765
134	0x3c326e76	0.010890594
135	0x3db702b8	0.089360654
136	0x3c9f4889	0.019443767
137	0x3c8e44eb	0.017366847
138	0x3cb2bae0	0.021817625
139	0x3cdc936b	0.026925763
140	0x3d23bfe7	0.039977934
141	0x3cb09691	0.02155617
142	0x3c8d13b0	0.017221302
143	0x3b16a979	0.0022989197
144	0xbc9a0742	-0.018802289
145	0x3cbc4471	0.022981854
146	0x3df82418	0.12116259
147	0x3d1beb74	0.038066342
148	0x3cc7a630	0.024371237
149	0x3e50f726	0.2040678
150	0xbd8b5e97	-0.06805151
151	0x3cdfce3d	0.027320022
152	0x3d024f75	0.031814057
153	0x3becdbd3	0.0072283535
154	0xbdb437a9	-0.08799679
155	0x3ccc65b6	0.024950843
156	0xbdcb8786	-0.099379584
157	0x3e57a258	0.21058023
158	0x3cb4dccb	0.022077939
159	0x3cbca212	0.0230265
160	0xbca1f134	-0.019768335
161	0xbc7b0867	-0.0153218275
162	0x3e3742a0	0.17896509
163	0x3e22ed87	0.15910922
164	0x3cc4ea54	0.024037518
165	0x3e25fa3b	0.16208737
166	0x3cbd7dcb	0.023131272
167	0xbcb312a6	-0.021859478
168	0x3c8b05b6	0.016970497
169	0x3e48fcad	0.19627638
170	0x3de2010f	0.11035358
171	0x3c459dce	0.012061549
172	0x3d0cf55f	0.03441369
173	0xbc69175e	-0.014226763
174	0x3deed0a2	0.11660887
175	0xbd0dc5b8	-0.034612387
176	0xba0ff246	-0.00054911186
177	0x3c4435bb	0.011975701
178	0x3d16ae3a	0.03678725
179	0x3c8b3362	0.016992275
180	0x3e43f4b3	0.19136314
181	0x3e07a316	0.13245806
182	0xbb0117d2	-0.0019698036
183	0x3d731cba	0.059353568
184	0xbc21e1af	-0.009880467
185	0x3c46104a	0.012088845
186	0x3bd00767	0.0063485387
187	0x3cbf8047	0.023376597
188	0xbcb45000	-0.022010803
189	0x3db40b98	0.08791274
190	0x3c5c16b2	0.013433145
191	0x3d337cb2	0.04382009
192	0xbd7d162a	-0.061788715
193	0x3a9c0354	0.0011902847
194	0x3b3c7cd7	0.0028760934
195	0x3e3c2755	0.18374379
196	0xbb1ea6c5	-0.002420829
197	0x3d8bc4c2	0.06824638
198	0xbd360964	-0.04444255
199	0xbbfe7174	-0.0077649895
200	0x3e28dae5	0.16489752
201	0x3e5538f9	0.20822515
202	0xbd6fdfb2	-0.05856294
203	0xbc2f76b6	-0.010709455
204	0x3c1f16b6	0.009710005
205	0x3c80b4c4	0.015711196
206	0xbdc1aebe	-0.094571576
207	0x3c2bf7b5	0.01049607
208	0x3cc3e80f	0.023914365
209	0xbd6ad744	-0.0573342
210	0x3d2f6c73	0.042828035
211	0x3cb2573c	0.021770112
212	0x3c96e0a9	0.018417673
213	0x3cc74288	0.024323717
214	0x3d0e6b38	0.03477022
215	0x3c3186f1	0.010835395
216	0xbac8ffa7	-0.0015334979
217	0x3aec43ca	0.0018025574
218	0xbc7292bc	-0.014805492
219	0x3b651b45	0.003495888
220	0x3d4f11f4	0.05055423
221	0x3d35a411	0.04434592
222	0x3cc934bd	0.02456128
223	0x3e3366d3	0.17519693
224	0x3dd56b62	0.10420872
225	0x3e7ecdb7	0.24883161
226	0x3dd9d4a7	0.10636263
227	0xbde6ccb2	-0.11269511
228	0x3b72b6e1	0.0037035274
229	0x3e196ec6	0.14983663
230	0xbd72d139	-0.05928156
231	0xbc62a4e2	-0.013833256
232	0x3c91feb3	0.017821645
233	0x3ce64b46	0.028112065
234	0xb90ff1e6	-0.00013727657
235	0x3b3b997c	0.002862542
236	0x3c67fd90	0.014159575
237	0x3c9df863	0.01928348
238	0x3d322c75	0.04349943
239	0xbe0a3e59	-0.13500346
240	0xbc40c404	-0.011765484
241	0x3d421f0f	0.0473929
242	0x3de54ef0	0.11196697
243	0x3d9bb2e5	0.07602481
244	0x3da8660d	0.0822259
245	0x3e2bb419	0.1676792
246	0x3c4baace	0.01243086
247	0x3cb02498	0.021501824
248	0x3d2a869b	0.041632276
249	0x3d534df1	0.051588003
250	0x3caca605	0.021075258
251	0xbcd70c6b	-0.026251039
252	0x3e2803d0	0.16407704
253	0xbb88b9e3	-0.00417255
254	0x3e8b1f52	0.27172333
255	0x3d29e1ac	0.041474983

action_model._discrete_distribution.branches.0.bias f4 [3]
0	0xbb9d6d7b	-0.004804311
1	0xbdb69acd	-0.08916245
2	0x3dcba3bc	0.09943339

action_model._discrete_distribution.branches.1.weight f4 [2, 128]
0	0xbc2baff9	-0.010478967
1	0xbca0f969	-0.019650178
2	0x3b0cca08	0.0021482725
3	0x3bd7a097	0.006580423
4	0xbae81d48	-0.0017708922
5	0x3b8cb785	0.004294338
6	0xbbe4a4be	-0.0069776466
7	0xbc441405	-0.011967664
8	0x3abcb709	0.001439781
9	0xba5c03a9	-0.00083928794
10	0xbc9c9bd5	-0.019117275
11	0x3bdcd041	0.006738693
12	0x3b419591	0.0029538611
13	0x3bc35d50	0.0059620515
14	0x3c6361a1	0.013878257
15	0x3b007f55	0.0019607146
16	0xbc818933	-0.015812492
17	0xbc15183c	-0.009100016
18	0xbbcb41a9	-0.0062028957
19	0xbca33bc7	-0.019925965
20	0xbb9d508e	-0.0048008626
21	0xbd6a4b8d	-0.057200957
22	0xbc7b98d7	-0.015356264
23	0x3c071b6f	0.008246287
24	0x3cde1d0b	0.027113458
25	0x3bb97930	0.0056601986
26	0xbd27e9cc	-0.04099445
27	0x3c1c5fcb	0.009544323
28	0xbc20a6ac	-0.009805363
29	0x3c62a277	0.01383268
30	0xbb8f6e56	-0.0043771667
31	0xbc6630c0	-0.014049709
32	0xbb3d07ff	-0.0028843877
33	0xbc21c67a	-0.009873981
34	0x3b88ee60	0.004178807
35	0xbbd619ee	-0.006533853
36	0xbd086c2a	-0.03330628
37	0xbd241958	-0.040063232
38	0xbb6fe222	-0.0036603292
39	0xbcb864de	-0.022509035
40	0xba8f2a0f	-0.0010922569
41	0xbd0ccedb	-0.03437696
42	0xbd07e621	-0.033178452
43	0xba9c1bda	-0.0011910156
44	0x3c276ee1	0.010219307
45	0xbc69644a	-0.014245102
46	0xbc6f5baa	-0.014609257
47	0xbb8d027c	-0.0043032747
48	0xbc775e04	-0.015098099
49	0x3b800cf0	0.0039077923
50	0xbc614386	-0.013749009
51	0xba0fd478	-0.00054866774
52	0xbccab3a8	-0.02474387
53	0xbce8b972	-0.02840874
54	0x3c589eae	0.013221426
55	0x3c110047	0.008850164
56	0x3cc2aa96	0.023762982
57	0x3a584779	0.00082503963
58	0x3bd2e097	0.0064354646
59	0xbc982b52	-0.018575344
60	0xbd0a5588	-0.033772975
61	0xbc75e4eb	-0.015008192
62	0xbc19fbd1	-0.009398417
63	0xbb74d876	-0.0037360466
64	0xbcfb14b3	-0.030649519
65	0xbceecffb	-0.029151907
66	0xbbb83e59	-0.005622667
67	0xbcb31862	-0.021862213
68	0xbb4c88ec	-0.0031209541
69	0xbb17b8b9	-0.0023150875
70	0xbc3a3e97	-0.011367462
71	0xbc360e51	-0.011111812
72	0xbc9d151a	-0.019175101
73	0xbd358b36	-0.044322215
74	0xbcaa6ffb	-0.02080535
75	0xbce2578c	-0.027629636
76	0x3c6d142d	0.014470142
77	0x3c3ea6ac	0.011636417
78	0xbd09c622	-0.03363622
79	0x3bd5e6cf	0.0065277587
80	0xbc2c7c86	-0.010527736
81	0xbce2e0b7	-0.027695043
82	0xbd5ce491	-0.053928915
83	0xbbfed0cc	-0.0077763554
84	0x397c7f1d	0.00024079946
85	0x3b1f949f	0.002435006
86	0xbc4dd646	-0.012563294
87	0xbc85992e	-0.016308393
88	0xbab9640a	-0.0014144194
89	0xbb7b0230	-0.0038300864
90	0xbb6bcefc	-0.0035981527
91	0xbb687733	-0.003547144
92	0xbc4e0e00	-0.01257658
93	0x3afb6dcc	0.0019182502
94	0xbb277c6f	-0.0025556346
95	0xbcb20fad	-0.02173599
96	0x3accd014	0.0015625977
97	0xbd028b5f	-0.031871196
98	0xbcc0c7d6	-0.02353279
99	0x3aeaff5d	0.0017928887
100	0x3c80ee2f	0.015738575
101	0xbcf81b11	-0.030286344
102	0xbbf8c1b1	-0.007591449
103	0x3b8df6d5	0.004332403
104	0xbc49839f	-0.012299447
105	0x3c33ccca	0.0109741185
106	0xbbcc215c	-0.0062295627
107	0xbc8cc9ec	-0.017186128
108	0x3c493ab5	0.012282063
109	0x3b74686c	0.0037293686
110	0x3af96878	0.0019028326
111	0xbc796a66	-0.015223121
112	0xbc59ee41	-0.013301433
113	0xbc25961a	-0.010106588
114	0xb9bd3b08	-0.0003609287
115	0xbcc06a0f	-0.023488073
116	0xbc61faee	-0.013792736
117	0xbc691a0b	-0.0142274005
118	0x3b943d4e	0.0045239097
119	0x3b19e735	0.0023483757
120	0x3c8867b8	0.01665102
121	0xbb7ffff3	-0.003906247
122	0x3bedf6a8	0.0072620697
123	0xba663633	-0.000878188
124	0xbc584864	-0.013200853
125	0x3bf9ef5c	0.007627411
126	0x3d279732	0.040915675
127	0x3b984954	0.0046474133
128	0x3c100553	0.008790332
129	0x3b757d7f	0.0037458835
130	0x3cb69339	0.022286998
131	0xbb4f8a0a	-0.003166797
132	0xbb14486d	-0.0022626177
133	0xbb941570	-0.004519157
134	0xbafb115f	-0.0019154957
135	0x3d28dec3	0.041228067
136	0xbc391f66	-0.01129899
137	0xbc4ea273	-0.012611973
138	0xba0ea479	-0.00054413785
139	0x3bc7f4f8	0.0061022006
140	0x3c7df3d0	0.015500024
141	0x3bd37ae4	0.0064538587
142	0x3baf7a6d	0.0053551705
143	0x3c9afee0	0.018920362
144	0x3c506e1c	0.012721565
145	0x3c0f763e	0.0087562185
146	0x3cd344c2	0.025789622
147	0x3c76b6f9	0.0150582725
148	0xba79374f	-0.0009506838
149	0x3cdc719d	0.026909644
150	0x3c8d2a59	0.017232107
151	0x3c08f60c	0.008359443
152	0xbc0bc13e	-0.008529959
153	0xbc03905a	-0.008030022
154	0x3cb7aaae	0.022420254
155	0x3c4785f3	0.012177932
156	0x3bf32330	0.007419966
157	0x3c4b8022	0.012420686
158	0xbc468583	-0.012116793
159	0x3a3523c3	0.0006909931
160	0x3b14babc	0.002269431
161	0x3c480c64	0.012209985
162	0x3cc29f57	0.02375762
163	0x3ceb36ad	0.028712595
164	0x3d045bb7	0.03231403
165	0x3cdfddca	0.027327437
166	0x3bcfdcc6	0.006343457
167	0x3bd3a2b8	0.0064586066
168	0xbbc7b1d9	-0.006094199
169	0x3c8a485f	0.016880212
170	0x3cafb0bf	0.021446584
171	0x3a8c7720	0.0010716654
172	0x3ba9e0c4	0.005184265
173	0x3c092aae	0.008371992
174	0x3bf161f0	0.0073664114
175	0x3bb45fef	0.0055046002
176	0x3b7a5b17	0.0038201266
177	0xbbc2afd5	-0.005941371
178	0x3d1a9ed1	0.037749115
179	0xbaf618b6	-0.0018775675
180	0x3d1113e5	0.035419364
181	0x3d247940	0.040154696
182	0xbc5083f7	-0.012726775
183	0x3be69f18	0.0070380084
184	0xbbdb649d	-0.0066953436
185	0x3c2a614f	0.010399177
186	0x3c98b595	0.018641273
187	0xba025f20	-0.0004973281
188	0x3c79a344	0.015236679
189	0x3a8ddd63	0.0010823425
190	0x3b7e2150	0.003877718
191	0x3c8f7980	0.01751399
192	0x3c5a8c02	0.0133390445
193	0x3ce784df	0.0282616
194	0xbb68da13	-0.0035530373
195	0x3cfa744b	0.030573031
196	0xbb975afc	-0.0046190005
197	0x3bda4f89	0.0066623134
198	0x3b1c8144	0.002388076
199	0x3cc200f0	0.023682088
200	0x3ce001af	0.027344553
201	0x3d61a164	0.055085555
202	0xbb448cda	-0.002999118
203	0x3c602b2c	0.013682168
204	0x3bfca416	0.0077099903
205	0x3b79e3d7	0.0038130188
206	0x3cd79ab6	0.02631889
207	0xb9a14377	-0.00030758578
208	0xbc0a58ce	-0.008444024
209	0x3c8116e6	0.01575799
210	0x3d722f0d	0.059126902
211	0x3cba8a31	0.022770973
212	0xbc114213	-0.008865851
213	0xbb1b8223	-0.002372869
214	0x3ca4e593	0.020129
215	0xbc0e4f49	-0.008685895
216	0x3af6ce47	0.0018829786
217	0xbb2e74b7	-0.002661986
218	0xba45897d	-0.0007535441
219	0xbaf29217	-0.0018506673
220	0x3c922d02	0.017843727
221	0x3bb62f4d	0.005559838
222	0x3ade73ed	0.0016971804
223	0x3c918acf	0.017766384
224	0x3b77c600	0.0037807226
225	0x3c576c96	0.0131484475
226	0x3d0d673d	0.034522284
227	0x3c5d86a5	0.013520871
228	0xbbe4b74c	-0.0069798585
229	0x3d1b1631	0.03786296
230	0x3c3a2e37	0.011363558
231	0x3c4aea09	0.0123849
232	0x3843dc56	4.6696827e-05
233	0xbad53e4b	-0.0016269175
234	0xbbdaa879	-0.0066729155
235	0x39823827	0.0002483737
236	0x3c4eedb5	0.012629916
237	0x3bbed967	0.005824256
238	0x3b771ac0	0.0037705153
239	0x3a8c9dd5	0.001072819
240	0x3c1cba5c	0.009565916
241	0xbc06a65c	-0.008218374
242	0x3cbaa857	0.022785349
243	0x3cb128ac	0.02162584
244	0x3c4ed020	0.012622863
245	0x3d182a1a	0.037149526
246	0xbb66c130	-0.0035210364
247	0x3b8605a3	0.0040900274
248	0x3c5ff09f	0.013668208
249	0xba318ca9	-0.0006772974
250	0x3c0ca09f	0.008583217
251	0xbc626ad5	-0.013819416
252	0x3bdf97d2	0.0068235183
253	0xbbf7c403	-0.007561208
254	0xbcfcfa6f	-0.030881135
255	0x3c93ca7d	0.01804089

action_model._discrete_distribution.branches.1.bias f4 [2]
0	0x3c5cc58d	0.013474834
1	0xbc5cc542	-0.013474764
