results/first/SpaceInvaders/SpaceInvaders-14978.onnx (onnx, 79398 bytes, 9 tensors)

discrete_act_size_vector f4 [1, 2]
3.0 2.0
00000000: 0000 4040 0000 0040

network_body._body_endoder.seq_layers.0.weight f4 [128, 6]
0.13014174 0.06384218 0.065006524 0.0994826 -0.102442995 -1.0429578 -0.42810395 -1.0292186
-0.43095395 0.90732765 -0.013020573 0.45707387 -0.029743243 -0.12242986 -1.7273813e-05 -0.013578114
0.15108883 0.4544568 0.041125257 0.103916325 -0.16193417 -0.6762555 0.022261789 0.072021335
0.9299841 -0.09203757 0.3688623 -0.6040228 0.7171754 0.16918674 -0.10642982 -0.39644784
0.6723115 -0.21837203 0.8842288 -0.42627582 0.23154105 -0.04020204 0.23279737 -1.038239
0.5585338 -0.051864576 0.061919827 0.06413967 -0.25850317 -0.04558328 0.21770474 0.56914157
0.4766302 0.3022848 0.16600323 -0.46184847 0.042551626 0.046901688 0.29100695 -0.34464926
0.2338298 -0.18615119 0.5011569 -0.08149452 0.16687208 -0.21483827 0.368291 -0.655008
-0.14666027 0.1589434 0.28789952 -0.21458957 0.15844408 0.47181085 -0.21126285 -0.6500763
0.31140742 0.36498907 0.25459358 -0.6960937 -0.41066527 -0.6724569 0.06906705 -0.071188174
-0.6796444 -0.5149322 -0.16060804 -0.5306788 -0.15443179 0.28998822 0.03307808 0.4688388
0.10720661 0.52282435 0.08786584 -0.071456395 0.21743841 0.3658018 0.3537678 -0.018103903
0.38040766 -0.05815512 -0.29452002 0.37554806 0.18677685 0.50157344 0.18632807 -0.3921029
-0.17594628 0.6695856 -0.18269937 -0.31988364 0.27405557 -0.051112335 -0.06975398 -0.06535679
0.27606967 -0.17608234 0.16063772 -0.021202339 0.3938423 -0.33558065 0.59777117 -0.27262065
-0.2266585 0.021685643 -0.012097454 0.47310254 -0.10670669 -0.083368555 0.78149235 0.46893492
0.15149045 -0.252559 -0.7438865 0.4512286 -0.65603316 0.1343161 0.22695939 0.033968408
-0.02244839 0.44550213 0.21480878 0.001177596 0.0211271 0.014414855 0.20234749 -0.39254823
0.7371913 -0.71771586 0.3540873 0.16631988 -0.86823964 -0.27127686 0.70064425 0.46079972
0.19218373 0.077726945 -0.3005921 0.5060176 -0.28125706 -0.44982705 0.4331612 0.5299132
0.77099836 -0.4592228 -0.16407391 -0.21881846 -0.39957383 0.1890882 -0.14606734 -0.47640717
0.024785168 -0.09914272 -0.68837255 -0.044090845 0.09917164 -0.29246315 -0.31563312 0.2119537
-0.41755444 -0.2658135 1.0594848 1.0363334 -0.09199152 0.22518466 -0.38420188 0.06871867
0.3675915 0.20687585 -0.8478953 -0.6086187 -0.2720322 0.035585802 0.017082548 -0.0500922
-0.39246482 0.13799615 -0.01142874 -0.60594016 -0.9328473 -0.14171432 -0.18167156 -0.21994679
-0.22019288 -0.05475358 -0.56299883 0.041281905 -0.33001012 0.48682436 0.11807126 -0.21717274
-0.0422623 0.1669989 -0.9408589 -0.2985925 -0.039380163 0.077076085 0.15082231 -0.08032689
0.7131836 -0.54787385 0.58391625 0.349369 -0.6872075 -0.66673857 0.7048563 0.39199746
0.007517622 -0.30041403 0.31575802 0.13012518 -0.41258916 -0.022712111 -0.2727806 0.18554968
-0.27940926 -0.25248498 -0.21163504 0.25241038 -0.065583676 -0.53747654 0.117770515 0.22060023
-0.5236566 -0.13614066 0.29833934 0.31242916 0.27442572 0.59414756 0.08216496 0.408639
-0.5045703 -0.10106924 -0.08008975 -0.43377054 0.9395773 -0.82525367 0.5158421 0.45172077
00000000: e043 053e b0bf 823d 2422 853d 89bd cb3d
00000010: a2cd d1bd a47f 85bf 7130 dbbe 6fbd 83bf
00000020: ffa5 dcbe a046 683f 3e54 55bc 9605 ea3e
00000030: 1aa8 f3bc 82bc fabd 3be7 90b7 bd76 5ebc
00000040: 08b7 1a3e 90ae e83e f572 283d 15d2 d43d
00000050: 12d2 25be 151f 2dbf 5b5e b63c ec7f 933d
00000060: 7013 6e3f 327e bcbd 85db bc3e 3da1 1abf
00000070: cf98 373f 4a3f 2d3e e1f7 d9bd 36fb cabe
00000080: 9b1c 2c3f eb9c 5fbe d25c 623f d340 dabe
00000090: 1919 6d3e e5aa 24bd 6f62 6e3e 04e5 84bf
000000a0: 12fc 0e3f f36f 54bd a59f 7d3d a95b 833d
000000b0: 875a 84be 89b5 3abd feed 5e3e 43b3 113f
000000c0: e008 f43e 13c5 9a3e c0fc 293e 6777 ecbe
000000d0: 9d4a 2e3d fc1b 403d ddfe 943e de75 b0be
000000e0: 1471 6f3e 6b9e 3ebe d24b 003f 99e6 a6bd
000000f0: 84e0 2a3e 90fe 5bbe a390 bc3e 9bae 27bf
00000100: 1c2e 16be 0fc2 223e 9167 933e 5ebd 5bbe
00000110: 2a3f 223e 3191 f13e 4a55 58be 676b 26bf
00000120: cb70 9f3e d9df ba3e 175a 823e 3233 32bf
00000130: b842 d2be 2326 2cbf 0773 8d3d 1bcb 91bd
00000140: 2dfd 2dbf 99d2 03bf 6f76 24be 91da 07bf
00000150: 5e23 1ebe 5679 943e e17c 073d a40b f03e
00000160: 248f db3d d1d7 053f 01f3 b33d bb57 92bd
00000170: 2da8 5e3e 604a bb3e 0e21 b53e a34e 94bc
00000180: cbc4 c23e 1034 6ebd 54cb 96be d647 c03e
00000190: 6e42 3f3e 1e67 003f c9cc 3e3e b6c1 c8be
000001a0: 432b 34be f669 2b3f 8b15 3bbe cac7 a3be
000001b0: 0351 8c3e 2b5b 51bd 2ddb 8ebd c8d9 85bd
000001c0: 0159 8d3e ee4e 34be 377e 243e 87b0 adbc
000001d0: b3a5 c93e 3ad1 abbe 8807 193f ef94 8bbe
000001e0: 2a19 68be 17a6 b13c 6634 46bc 7f3a f23e
000001f0: 0989 dabd 22bd aabd e20f 483f 3d18 f03e
00000200: 5020 1b3e 6a4f 81be 586f 3ebf 6f07 e73e
00000210: caf1 27bf 298a 093e 0b68 683e 7522 0b3d
00000220: b0e5 b7bc db18 e43e d5f6 5b3e 9159 9a3a
00000230: bd12 ad3c 492c 6c3c 2e34 4f3e 15fc c8be
00000240: 92b8 3c3f 3abc 37bf ee4a b53e c24f 2a3e
00000250: f444 5ebf cde4 8abe 6c5d 333f f1ed eb3e
00000260: d0cb 443e 4e2f 9f3d 35e7 99be 5f8a 013f
00000270: ed00 90be bb4f e6be 4ec7 dd3e 64a8 073f
00000280: 2660 453f 401f ebbe fe02 28be f211 60be
00000290: f194 ccbe 56a0 413e ad92 15be a4eb f3be
000002a0: 440a cb3c 570b cbbd 2f39 30bf 9a98 34bd
000002b0: 801a cb3d bbbd 95be aa9a a1be 640a 593e
000002c0: b2c9 d5be b518 88be 339d 873f 93a6 843f
000002d0: 0d66 bcbd cf96 663e 1cb6 c4be 60bc 8c3d
000002e0: f434 bc3e 43d7 533e ab0f 59bf 6fce 1bbf
000002f0: ce47 8bbe 6bc2 113d b3f0 8b3c 7b2d 4dbd
00000300: 26f1 c8be dd4e 0d3e 9c3f 3bbc e51e 1bbf
00000310: 15cf 6ebf 8f1d 11be 1c08 3abe bb39 61be
00000320: 3e7a 61be 4a45 60bd b120 10bf 3717 293d
00000330: 16f7 a8be 0b41 f93e 58cf f13d 8862 5ebe
00000340: 3c1b 2dbd c201 2b3e 21dc 70bf 1ee1 98be
00000350: 184d 21bd 11da 9d3d 2a71 1a3e 6d82 a4bd
00000360: 3393 363f 7641 0cbf 897b 153f 7ee0 b23e
00000370: d5ec 2fbf 61af 2abf 7671 343f e4b3 c83e
00000380: 6256 f63b decf 99be 09ab a13e 893f 053e
00000390: e33e d3be c00e babc e6a9 8bbe bc00 3e3e
000003a0: bb0e 8fbe b645 81be dbb6 58be ef3b 813e
000003b0: bc50 86bd 1098 09bf ab31 f13d 07e5 613e
000003c0: 5c0e 06bf 7568 0bbe efbf 983e b7f6 9f3e
000003d0: 8781 8c3e 0e1a 183f 1a46 a83d 2239 d13e
000003e0: 852b 01bf 64fd cebd 1806 a4bd 2c17 debe
000003f0: 2388 703f d343 53bf 3a0e 043f f247 e73e

network_body._body_endoder.seq_layers.0.bias f4 [128]
-0.028049493 0.06948575 0.16590396 -0.100359246 0.173027 -0.07420545 0.021354351 -0.024636611
-0.13115647 -0.0053055347 0.1491028 0.030540667 -0.09995836 0.16662797 -0.10183129 -0.049407996
0.002941064 0.042470716 0.15941563 -0.12330791 -0.035389815 -0.039292455 -0.1627671 -0.05194445
0.041310374 -0.015153441 -0.03874662 0.31153747 0.22195102 -0.03272124 -0.009603539 0.09880437
0.018920114 0.14070098 -0.09127813 -0.024298709 -0.012003119 0.06282794 -0.038262177 -0.02642562
0.0033846633 -0.12386706 0.07248265 -0.06655452 -0.04009312 0.086523026 0.21883509 0.09154676
0.021642625 0.0028534436 0.2389361 -0.04616512 -0.08565493 0.12311029 0.011473347 -0.08119638
0.009096973 -0.006081736 -0.007154921 -0.045581244 -0.0707842 -0.14785817 -0.03572137 0.069722824
0.0017165951 0.09096785 -0.028235767 0.213048 -0.049264252 0.0023439974 0.08222069 -0.046088103
-0.064443685 -0.076562375 -0.04483673 0.15210731 -0.056849957 0.008277081 -0.018283276 -0.06478891
0.23844036 0.19321558 -0.00475357 -0.026140178 0.08822698 -0.14283806 0.14409447 0.023727844
0.0063798344 0.027749758 0.025018167 -0.018987367 -0.11373176 -0.12927623 0.030866329 -0.0044077043
0.16015302 -0.08552159 -0.039306816 -0.0001089546 -0.071375854 0.049552824 0.3374779 0.026660534
0.107097074 0.042580225 0.010455082 -0.05019215 0.019319251 0.035292562 -0.091099665 0.00051270804
0.16323613 0.04551986 0.016861496 0.057696145 0.15269223 -0.09926067 0.027208991 -0.071757466
0.23947784 -0.0015055633 -0.054217473 -0.02684954 -0.067768104 0.0073492993 -0.030170647 0.032345563
00000000: 0dc8 e5bc 8b4e 8e3d bae2 293e 2689 cdbd
00000010: fd2d 313e 07f9 97bd 52ef ae3c b8d2 c9bc
00000020: e24d 06be 0dda adbb 68ae 183e 6c30 fa3c
00000030: f8b6 ccbd 86a0 2a3e ec8c d0bd 0a60 4abd
00000040: debe 403b c6f5 2d3d da3d 233e dc88 fcbd
00000050: e9f4 10bd 20f1 20bd 6bac 26be b4c3 54bd
00000060: 1135 293d 2346 78bc c7b4 1ebd d781 9f3e
00000070: 2147 633e b506 06bd 2958 1dbc f259 ca3d
00000080: 5bfe 9a3c eb13 103e 07f0 babd 160e c7bc
00000090: bba8 44bc efab 803d cdb8 1cbd 8b7a d8bc
000000a0: 3ad1 5d3b 03ae fdbd c971 943d bc4d 88bd
000000b0: af38 24bd fc32 b13d 4e16 603e de7c bb3d
000000c0: e04b b13c d700 3b3b aaab 743e a317 3dbd
000000d0: da6b afbd 3f21 fc3d b5fa 3b3c 4a4a a6bd
000000e0: 780b 153c 4d49 c7bb d473 eabb 66b3 3abd
000000f0: 4ff7 90bd 2268 17be 9250 12bd d7ca 8e3d
00000100: 60ff e03a 5a4d ba3d b24e e7bc 4129 5a3e
00000110: 50c9 49bd c09d 193b 5263 a83d e1c6 3cbd
00000120: 0dfb 83bd bccc 9cbd b8a6 37bd 05c2 1b3e
00000130: 80db 68bd 989c 073c cfc6 95bc 0cb0 84bd
00000140: b629 743e 4eda 453e d6c3 9bbb ed23 d6bc
00000150: 59b0 b43d 2444 12be 808d 133e e560 c23c
00000160: ee0d d13b 7653 e33c e6f2 cc3c 658b 9bbc
00000170: 32ec e8bd fd60 04be 62db fc3c 816e 90bb
00000180: 27ff 233e f225 afbd 2f00 21bd 8e7e e4b8
00000190: 812d 92bd e7f7 4a3d e7c9 ac3e 3167 da3c
000001a0: b655 db3d 9a68 2e3d cb4b 2b3c 4996 4dbd
000001b0: 6843 9e3c ef8e 103d 7692 babd 4167 063a
000001c0: 5f27 273e 0873 3a3d 1f21 8a3c cb52 6c3d
000001d0: 5a5b 1c3e 2e49 cbbd 64e5 de3c 94f5 92bd
000001e0: ae39 753e 5256 c5ba 2413 5ebd 91f3 dbbc
000001f0: 01ca 8abd 64d2 f03b 6f28 f7bc c87c 043d

network_body._body_endoder.seq_layers.2.weight f4 [128, 128]
0.074245915 0.17298503 -0.02921292 -0.021877723 -0.41104943 0.0067828773 -0.12485299 -0.11647739
0.06308696 0.038200695 -0.10994988 -0.14371273 -0.0561836 -0.12027519 -0.083240904 -0.063792385
-0.19570135 -0.1397024 -0.27069974 0.032542676 -0.24359672 0.113586895 -0.1782832 0.11347947
-0.13014957 -0.017844064 0.07188675 -0.18232194 -0.24437721 -0.115651704 -0.11742891 0.10712061
0.051536925 -0.08931766 -0.00020737655 -0.052402575 -0.2834145 0.0178147 -0.1952509 -0.12780306
0.026019203 -0.018599609 -0.14016978 -0.050816942 -0.12580939 0.19169673 -0.102541104 0.20075968
0.008636232 -0.050678115 0.1066176 -0.17587452 0.10101585 0.20630142 0.101897605 0.05474801
-0.036605317 0.08637759 -0.025238294 0.0022321574 -0.041245386 -0.023164406 0.040705625 0.015637362
-0.030102573 0.04983118 -0.09311193 -0.14693247 0.043631367 -0.28406632 0.10731612 -0.15862314
0.021649903 0.028889846 -0.03261853 0.20791471 0.021883087 0.0117206555 -0.006785468 -0.085232295
-0.18516324 0.00064888666 -0.077168435 -0.09145828 0.05084515 -0.060762722 0.022496952 -0.26518065
-0.027463403 -0.018591259 0.09433797 -0.0037769394 0.030963385 -0.012226389 0.09280264 0.11630847
0.1622423 0.041416094 -0.08312538 -0.10295331 -0.056419246 0.2121202 -0.13710478 -0.19875251
0.01123751 -0.080988646 0.09427621 0.011252588 -0.10265106 0.10824661 -0.066956036 0.014403826
-0.040640973 0.08077117 0.09970035 -0.101102404 -0.036632504 -0.014590529 0.01953059 0.11116228
-0.08349002 -0.061913844 -0.099325 0.07425493 -0.14389978 0.114977375 -0.010572008 -0.031526394
0.11456976 0.13771582 -0.1719805 0.044032253 0.17927864 0.022144228 -0.11784169 0.046812274
0.05649745 0.050247304 -0.13996923 0.05222276 -0.102157 -0.069208086 0.09833125 -0.17228438
0.024933783 -0.14185531 0.06135109 -0.053595044 -0.12991558 -0.028089128 -0.0071007833 0.06577594
0.03430939 -0.075038955 0.078162916 -0.14560713 -0.038657732 -0.05929491 0.027163401 0.19187987
0.06329376 -0.061898895 -0.04910358 0.06259306 -0.11067073 -0.11793209 0.083746366 0.015527402
0.059165757 0.07110719 0.00312555 -0.04081475 0.022281889 0.058046866 -0.06595909 0.11961326
-0.07511167 0.026126862 -0.17321521 -0.0662802 -0.20108877 0.13506559 -0.120548196 0.055803824
-0.14647757 0.14211433 -0.08516129 0.23539984 0.14337297 -0.015712176 -0.10615436 0.15705946
0.036144737 0.034587976 0.0158607 0.043767493 -0.038627177 -0.005367621 0.1938806 0.018645735
0.0037271301 0.061637945 -0.07738048 -0.15226477 -0.06620409 0.111582726 -0.085246906 0.08041466
-0.06644557 -0.07906095 -0.034438383 0.027200293 0.0024073708 0.035135023 0.124262005 0.02921752
0.03755787 -0.05943705 0.17789997 -0.012621563 0.21333507 -0.12251669 -0.12922192 -0.046957966
0.13811518 0.06398923 -0.07800457 -0.13172045 -0.18253568 0.18915851 -0.39850488 0.052963477
0.031132184 0.1357136 -0.09538147 -0.06722847 0.07350903 0.0004222857 0.2741503 0.03661927
-0.08341178 -0.087799355 0.1338933 -0.16083919 -0.115716755 0.15349348 0.06716045 -0.07441012
-0.32600623 0.052940574 -0.047238775 -0.01191916 0.15670203 0.16220695 -0.069638684 0.10537732
00000000: 3e0e 983d fd22 313e ef4f efbc e938 b3bc
00000010: 1275 d2be e642 de3b edb2 ffbd b38b eebd
00000020: bc33 813d 5578 1c3d 672d e1bd 6e29 13be
00000030: c620 66bd d752 f6bd 357a aabd 95a5 82bd
00000040: ef65 48be 250e 0fbe 2899 8abe 784b 053d
00000050: 6b71 79be 3fa0 e83d df8f 36be ed67 e83d
00000060: ee45 05be b72d 92bc 5c39 933d 9ab2 3abe
00000070: 053e 7abe cdda ecbd 927e f0bd 0d62 db3d
00000080: 6218 533d 2dec b6bd 3873 59b9 15a4 56bd
00000090: b51b 91be 22f0 913c daef 47be cede 02be
000000a0: 3926 d53c 355e 98bc ab88 0fbe 6d25 50bd
000000b0: 2dd4 00be 264c 443e 1201 d2bd f293 4d3e
000000c0: fc7e 0d3c db93 4fbd 545a da3d 7318 34be
000000d0: 66e1 ce3d ae40 533e b1af d03d 733f 603d
000000e0: 75ef 15bd bce6 b03d 8ac0 cebc 6349 123b
000000f0: ecf0 28bd 48c3 bdbc f1ba 263d ed19 803c
00000100: ac99 f6bc c81b 4c3d 78b1 bebd 7775 16be
00000110: ceb6 323d 2471 91be 8ec8 db3d 1b6e 22be
00000120: 235b b13c 66aa ec3c 029b 05bd 98e7 543e
00000130: 2944 b33c fe07 403c a258 debb 458e aebd
00000140: 6f9b 3dbe 0c1a 2a3a 7c0a 9ebd 7b4e bbbd
00000150: 0143 503d 55e2 78bd 874b b83c c2c5 87be
00000160: eefa e0bc b24c 98bc 4434 c13d 8786 77bb
00000170: eda6 fd3c 3151 48bc 4f0f be3d 2333 ee3d
00000180: d822 263e eca3 293d a43d aabd 2fd9 d2bd
00000190: de17 67bd 0a36 593e 3265 0cbe c785 4bbe
000001a0: 881d 383c 60dd a5bd e313 c13d c65c 383c
000001b0: b83a d2bd 66b0 dd3d 3f20 89bd 06fe 6b3c
000001c0: 2677 26bd 5b6b a53d b22f cc3d c70e cfbd
000001d0: f70b 16bd 1d0d 6fbc 9efe 9f3c 0da9 e33d
000001e0: d1fc aabd 5f99 7dbd e86a cbbd f812 983d
000001f0: 775a 13be 4279 eb3d 3736 2dbc d221 01bd
00000200: 8da3 ea3d 6005 0d3e a81b 30be 2a5b 343d
00000210: d294 373e d067 b53c fc56 f1bd 3abe 3f3d
00000220: df69 673d 1ed0 4d3d 1854 0fbe 88e7 553d
00000230: b037 d1bd f8bc 8dbd e561 c93d 516b 30be
00000240: ef41 cc3c 8542 11be 484b 7b3d 7a86 5bbd
00000250: 9708 05be 2c1b e6bc b0ad e8bb 89b5 863d
00000260: 0188 0c3d 06ae 99bd e113 a03d 091a 15be
00000270: 9257 1ebd 38df 72bd c885 de3c 287c 443e
00000280: 29a0 813d b289 7dbd d620 49bd ca30 803d
00000290: 56a7 e2bd 6186 f1bd 3783 ab3d a566 7e3c
000002a0: cb57 723d a5a0 913d 07d6 4c3b 5e2d 27bd
000002b0: 8288 b63c 8dc2 6d3d 8f15 87bd ccf7 f43d
000002c0: 26d4 99bd 0008 d63c 545f 31be eabd 87bd
000002d0: 37ea 4dbe a24e 0a3e f9e1 f6bd 8d92 643d
000002e0: 37fe 15be 6b86 113e 0b69 aebd a80c 713e
000002f0: 5dd0 123e d2b6 80bc 7567 d9bd 32d4 203e
00000300: 810c 143d 1fac 0d3d 4cee 813c 8b45 333d
00000310: 8837 1ebd dee2 afbb a388 463e f1be 983c
00000320: de42 743b 1278 7c3d a879 9ebd 4ceb 1bbe
00000330: 0396 87bd 7c85 e43d ee95 aebd 71b0 a43d
00000340: 9d14 88bd b5ea a1bd 430f 0dbd 26d3 de3c
00000350: fbc4 1d3b bee9 0f3d 147d fe3d 9559 ef3c
00000360: 48d6 193d 4474 73bd 692b 363e acca 4ebc
00000370: 8274 5a3e 08ea fabd c052 04be ff56 40bd
00000380: 116e 0d3e c90c 833d dcc0 9fbd bae1 06be
00000390: a2ea 3abe c5b2 413e d508 ccbe 3bf0 583d
000003a0: ec08 ff3c 82f8 0a3e 5c57 c3bd 15af 89bd
000003b0: e78b 963d 3a66 dd39 6e5d 8c3e 16fe 153d
000003c0: ccd3 aabd 26d0 b3bd 531b 093e 07b3 24be
000003d0: e8fc ecbd 652d 1d3e 6b8b 893d 5564 98bd
000003e0: 4aea a6be 37d8 583d 727d 41bd 9548 43bc
000003f0: 7f76 203e 9419 263e ba9e 8ebd 10d0 d73d

network_body._body_endoder.seq_layers.2.bias f4 [128]
0.005949926 -0.019267032 0.006501885 -0.04215096 0.0057114125 -0.06290243 0.02027492 -0.004627631
-0.0072017238 -0.005271888 -0.036542352 -0.021709466 -0.03713022 0.026591381 0.021957144 0.016411774
0.01757676 -0.043677866 0.014723227 0.020572644 0.045583464 0.035067588 -0.010667825 -0.0012833687
0.012996863 -0.036409613 0.03209859 0.0081205405 0.0018088714 -0.06827445 -0.05303549 0.054075435
-0.005914694 -0.010193249 -0.011929048 0.07815469 -0.0003268396 -0.033793375 -0.010577647 0.09371031
-0.011781286 -0.08604555 0.06589494 0.017123397 -0.053931195 -0.013499559 -0.020687157 -0.0132369185
-0.0573877 0.06211004 -0.03425957 0.01337153 -0.016301807 0.009845516 0.016215544 -0.029300323
-0.032531403 -0.03707275 0.012471183 0.0072792578 0.09310073 -0.014703795 -0.028141594 0.025618548
0.032344308 -0.039980438 -0.04417717 -0.07093502 0.014050941 -0.056399763 0.022222357 0.013077237
0.0077945604 -0.027861658 0.014252133 -0.03825661 -0.035431825 -0.0044836723 -0.034666754 -0.018848667
0.00084543263 -0.020069405 0.016855743 -0.013229304 0.033244472 -0.004144704 -0.044993404 0.01748984
-0.008341689 0.036270287 0.0203352 -0.00018690647 -0.050807096 0.04314345 -0.036775924 -0.03396065
-0.0054258453 0.015835186 -0.06035337 -0.00075521047 0.08053674 0.005007058 -0.011862172 0.05361065
-0.013086812 -0.014549762 0.02159802 -0.038646955 0.07066102 0.011431639 -0.010716389 0.015272028
-0.017482478 -0.015664523 -0.013867457 0.007603089 0.02372432 0.048603725 0.04781362 -0.008211223
0.06137408 0.07587635 0.004561011 0.046763938 -0.05337172 -0.030854788 -0.04359198 0.017350271
00000000: 99f7 c23b e5d5 9dbc c40d d53b 7ca6 2cbd
00000010: cd26 bb3b fdd2 80bd 9717 a63c 62a3 97bb
00000020: 70fc ebbb cdbf acbb 6fad 15bd 0dd8 b1bc
00000030: dc15 18bd 2bd6 d93c 78df b33c fc71 863c
00000040: 23fd 8f3c 90e7 32bd b139 713c f687 a83c
00000050: bab5 3a3d 08a3 0f3d 1ac8 2ebc b536 a8ba
00000060: cbf0 543c 3f22 15bd d079 033d 040c 053c
00000070: a717 ed3a 7ad3 8bbd be3b 59bd 347e 5d3d
00000080: 0dd0 c1bb 9601 27bc 0e72 43bc 910f a03d
00000090: ab5b abb9 ec6a 0abd de4d 2dbc 31eb bf3d
000000a0: 4c06 41bc a638 b0bd edf3 863d 5e46 8c3c
000000b0: f5e6 5cbd 412d 5dbc 1d78 a9bc a9df 58bc
000000c0: 5d0f 6bbd 1967 7e3d c353 0cbd 4314 5b3c
000000d0: 5e8b 85bc 164f 213c 76d6 843c 3b07 f0bc
000000e0: a63f 05bd 99d9 17bd ef53 4c3c d786 ee3b
000000f0: 98ab be3d 30e8 70bc 3389 e6bc fddd d13c
00000100: 777b 043d 87c2 23bd 1ff3 34bd 6146 91bd
00000110: eb35 663c 7003 67bd a90b b63c e841 563c
00000120: 8369 ff3b 223e e4bc c781 693c f7b2 1cbd
00000130: f620 11bd c5eb 92bb bafe 0dbd 8568 9abc
00000140: 06a0 5d3a 9868 a4bc 0e15 8a3c b9bf 58bc
00000150: 5b2b 083d 4cd0 87bb 014b 38bd da46 8f3c
00000160: 94ab 08bc 2790 143d 0196 a63c 53fc 43b9
00000170: 1a1b 50bd 30b7 303d 5aa2 16bd 531a 0bbd
00000180: 4acb b1bb cbb8 813c 1835 77bd 51f9 45ba
00000190: 72f0 a43d 3f12 a43b 8e59 42bc d796 5b3d
000001a0: 116a 56bc 2062 6ebc 55ee b03c 454c 1ebd
000001b0: bab6 903d c54b 3b3c cb93 2fbc 8737 7a3c
000001c0: 6a37 8fbc e352 80bc 5534 63bc 5523 f93b
000001d0: 8159 c23c b314 473d 37d8 433d 5e88 06bc
000001e0: 6363 7b3d 0f65 9b3d 8974 953b 8b8b 3f3d
000001f0: 4e9c 5abd 2ec3 fcbc 818d 32bd 2822 8e3c

action_model._discrete_distribution.branches.0.weight f4 [3, 128]
0.016956037 0.019149229 0.002066705 -0.05086567 0.15830684 -0.0023115561 0.119724594 0.010936206
0.0008101429 -0.0070190704 -0.0197848 0.0071333046 0.0032046954 -0.11067081 0.006877204 0.078517325
-0.023740653 0.05265653 0.035065368 -0.01864749 0.15501995 -0.0037380976 -0.0058456245 0.015853725
-0.40409574 0.020750538 -0.014696574 0.0024754212 -0.16840032 0.0043707 0.006815458 -0.07856714
0.006063442 0.027448075 0.059348814 -0.085812934 0.02462229 -0.0048827063 -0.018863391 0.013248831
-0.014916694 0.011239198 -0.17803821 0.024519341 -0.020957928 0.047776964 0.0017152911 -0.09786817
-0.012871173 0.015999323 -0.044392724 0.014585717 0.0052166292 0.01274558 0.055080943 -0.00019028185
-0.11564452 -0.18400322 0.01304529 -0.0019866424 -0.07310655 0.017271893 -0.03760151 -0.09239006
0.029017657 0.0140379295 0.0306258 -0.001833179 -0.1255085 -0.00031909964 -0.015553554 0.020718565
0.0042965603 0.1327968 0.0059888856 -0.018007653 -0.013617139 0.010647148 0.035858314 -0.011157555
0.0055985423 0.06540976 -0.018076107 0.088255666 -0.032913733 -0.01983421 -0.013000137 0.07024556
0.05168854 0.07801339 -0.009692608 0.033880424 0.00387176 -0.053003278 -0.037632905 0.02910217
0.032713614 0.021005189 0.017748114 0.019113133 6.216465e-05 -0.04119468 -0.00950422 0.021738626
-0.0020856806 -0.066132456 -0.017830815 0.020563368 0.0020665212 -0.033857945 0.014290112 0.045439288
0.005276871 -0.0060405117 -0.004635814 0.0034810705 -0.012285817 0.0009495281 0.0046658493 0.05306696
0.0089782635 -0.14120126 -0.0030244607 0.010071372 -0.015396659 0.018491616 -0.04634853 0.017551394
0.0005689559 0.001425235 0.015743697 0.10076258 -0.08335273 -0.021629665 -0.07816553 0.01931203
-0.036036666 0.036165614 -0.014025402 0.009780928 -0.019555891 -0.006760885 0.022883536 -0.05028603
0.05077908 -0.05819559 -0.07253091 0.10397721 -0.27342203 0.024494441 0.0009438734 0.0034563446
0.23882653 -0.02316035 0.020274008 0.0022258544 0.13371055 -0.14929363 -0.0986845 0.08537902
-0.0011462563 0.03690465 -0.0067461496 0.40841573 -0.10159954 -0.014572659 0.0041184924 0.04595071
0.016199244 -0.13830782 0.17556058 0.02775492 -0.10625023 -0.05500455 -0.0114242975 -0.03746893
-0.039838687 0.015052257 -0.13703929 -0.026969584 -0.0075305454 0.05597637 0.11798048 0.008325428
0.08331827 0.11768031 0.010997162 -0.02093464 0.12611486 -0.0038057524 -0.062252544 0.39650097
0.020588877 0.015195542 -0.13449964 -0.00034421927 -0.046003215 -0.082370624 0.011144935 -0.08180556
0.0041183997 -0.08035014 -0.05071258 0.01738665 -0.00822124 -0.0005199211 0.003018063 -0.023557113
-0.008405613 -0.018665474 0.045925397 -0.003586248 0.097453535 0.10317947 0.024351519 0.007833913
-0.07027911 -0.1151728 -0.03437523 -0.027351191 -0.1410224 -0.06976307 0.012614738 -0.02336078
-0.043449704 0.0039363406 0.04181667 -0.001979592 0.02613798 0.041766644 0.017201124 0.06118833
-0.016191602 0.027986983 -0.03348216 -0.14105676 0.0506872 -0.029783834 0.013923233 -0.05562669
0.0008843494 -0.008445439 -0.013124352 0.0038732525 0.0009623049 0.014811015 0.026099758 -0.040885303
0.016588788 0.3158408 -0.007134883 -0.080049425 -0.09377033 -0.010998351 0.0108132195 0.058700494
00000000: 63e7 8a3c d8de 9c3c 8e71 073b 8558 50bd
00000010: 301b 223e 7a7d 17bb 2b32 f53d c62d 333c
00000020: c55f 543a 3b00 e6bb bc13 a2bc 7fbe e93b
00000030: de05 523b 61a7 e2bd 2b5a e13b b1cd a03d
00000040: c27b c2bc 60ae 573d b4a0 0f3d 9fc2 98bc
00000050: 8dbd 1e3e dffa 74bb a78c bfbb acdf 813c
00000060: a3e5 cebe 08fd a93c e6c9 70bc ad3a 223b
00000070: 2271 2cbe 1738 8f3b 3554 df3b cfe7 a0bd
00000080: d7af c63b c9da e03c be17 733d b1be afbd
00000090: afb4 c93c 1cff 9fbb 6687 9abc a011 593c
000000a0: 2665 74bc 9d24 383c a64f 36be c9dc c83c
000000b0: f6af abbc c7b1 433d 9ed3 e03a 1b6f c8bd
000000c0: 9de1 52bc 0311 833c 25d5 35bd eef8 6e3c
000000d0: 42f0 aa3b d6d2 503c 8e9c 613d 6586 47b9
000000e0: 09d7 ecbd 576b 3cbe e9bb 553c 5432 02bb
000000f0: e3b8 95bd c97d 8d3c 0a04 1abd 0037 bdbd
00000100: 70b6 ed3c 58ff 653c f5e2 fa3c 4847 f0ba
00000110: 4d85 00be d44c a7b9 55d4 7ebc fbb9 a93c
00000120: 29ca 8c3b e2fb 073e 6a3e c43b c984 93bc
00000130: 6c1a 5fbc 6071 2e3c 2be0 123d 2dce 36bc
00000140: fa73 b73b 8df5 853d 5814 94bc 63bf b43d
00000150: 8dd0 06bd 5a7b a2bc 87fe 54bc e7dc 8f3d
00000160: 5db7 533d 7cc5 9f3d bfcd 1ebc 33c6 0a3d
00000170: 5bbd 7d3b f719 59bd f624 1abd ad67 ee3c
00000180: b6fe 053d 1313 ac3c 7e64 913c 2593 9c3c
00000190: 645e 8238 c1bb 28bd 97b7 1bbc 3415 b23c
000001a0: eaaf 08bb 7470 87bd ee11 92bc 8274 a83c
000001b0: 796e 073b a1ae 0abd 1321 6a3c 8c1e 3a3d
000001c0: 9ae9 ac3b 7cef c5bb 07e8 97bb ac22 643b
000001d0: 744a 49bc c1e9 783a fbe3 983b be5c 593d
000001e0: 9119 133c 1097 10be 0836 46bb 6502 253c
000001f0: 4542 7cbc bb7b 973c f5d7 3dbd f1c7 8f3c
00000200: fc25 153a f3ce ba3a edf8 803c 9d5c ce3d
00000210: d6b4 aabd b230 b1bc 4015 a0bd 4334 9e3c
00000220: 2f9b 13bd 6522 143d cdca 65bc 2f40 203c
00000230: ad33 a0bc 6a8a ddbb 4176 bb3c b9f8 4dbd
00000240: b9fd 4f3d 805e 6ebd 168b 94bd 01f2 d43d
00000250: f9fd 8bbe 91a8 c83c 466e 773a d783 623b
00000260: f18e 743e c6ba bdbc ad15 a63c a4df 113b
00000270: 6beb 083e 6ee0 18be 191b cabd 32db ae3d
00000280: fb3d 96ba 5529 173d ce0e ddbb de1b d13e
00000290: 6b13 d0bd 29c2 6ebc 6bf4 863b d036 3c3d
000002a0: 47b4 843c 91a0 0dbe 27c6 333e 495e e33c
000002b0: b899 d9bd 734c 61bd fa2c 3bbc 0579 19bd
000002c0: e42d 23bd be9d 763c 0754 0cbe 51ef dcbc
000002d0: cbc2 f6bb 7a47 653d c09f f13d 6067 083c
000002e0: c5a2 aa3d 6002 f13d 712d 343c 1f7f abbc
000002f0: 4124 013e ee69 79bb 86fc 7ebd 2d02 cb3e
00000300: 01aa a83c b9f6 783c 46ba 09be 5478 b4b9
00000310: de6d 3cbd eeb1 a8bd 3f99 363c ac89 a7bd
00000320: a4f3 863b 9d8e a4bd ffb7 4fbd 736e 8e3c
00000330: 61b2 06bc 504b 08ba b2ca 453b d9fa c0bc
00000340: b2b7 09bc 56e8 98bc 451c 3c3d 4207 6bbb
00000350: b895 c73d c24f d33d d67c c73c d059 003c
00000360: 7eee 8fbd b8df ebbd 0bcd 0cbd 9b0f e0bc
00000370: 2d68 10be f1df 8ebd 0cae 4e3c 1b5f bfbc
00000380: 51f8 31bd 6bfc 803b f547 2b3d 0bbc 01bb
00000390: 511f d63c 8013 2b3d 5fe9 8c3c 9da0 7a3d
000003a0: 40a4 84bc f544 e53c 9724 09bd 2f71 10be
000003b0: 629d 4f3d 3afd f3bc 461e 643c d0d8 63bd
000003c0: afd3 673a bd5e 0abc 8607 57bc 65d6 7d3b
000003d0: 3043 7c3a e6a9 723c 29cf d53c 5977 27bd
000003e0: 36e5 873c e3b5 a13e bdcb e9bb f4f0 a3bd
000003f0: a90a c0bd 6d32 34bc ee29 313c ee6f 703d

action_model._discrete_distribution.branches.0.bias f4 [3]
-0.021748593 0.050933924 -0.054820325
00000000: 1b2a b2bc 17a0 503d 478b 60bd

action_model._discrete_distribution.branches.1.weight f4 [2, 128]
-0.086689934 -0.009088082 -0.016979214 -0.017448839 0.069496065 -0.008725854 0.0945489 -0.0033177247
0.005398536 -0.011041268 -0.0025061376 -0.0009730614 0.0022009742 0.23860225 0.0089042615 0.023832945
0.048092578 0.21320447 0.016703889 0.012577765 0.30839443 0.0050055753 -0.015818497 -0.0038046387
-0.031654168 -0.12047542 -0.0031025037 -0.0058661764 -0.026488233 0.030094447 0.017399292 -0.022886224
0.08677657 -0.0026041463 0.027885523 -0.028304957 0.079139255 -0.009928244 -0.03954454 0.0043933224
-0.068340644 0.036134318 -0.020764826 -0.0070226 0.019493788 -0.012501589 0.010776206 0.07988361
-0.010416407 0.004959597 -0.049188104 0.023676362 0.0065507633 0.031171013 -0.026960334 -0.010510897
0.0017855951 0.025517775 0.024166146 -0.0665427 -0.0183762 -0.006645795 -0.015188097 -0.0045832302
0.037981723 0.044655982 0.13134678 0.13767824 -0.17413309 0.006704607 0.021306101 -0.0011581319
-0.0009968145 -0.057561703 -0.016324302 -0.0052160677 -0.046906058 0.013775226 -0.029482726 0.0086574145
0.0021740515 0.013120733 0.0031934907 0.009392041 -0.0018543454 0.0052813357 -0.015706725 0.003063408
-0.004719818 0.0010390811 -0.0052951677 -0.024140175 0.005575859 -0.01986761 -0.021952517 -0.010839201
0.0075761783 0.02277314 -0.030677594 0.012707724 -0.013220629 -0.0007062572 -0.02841965 0.13111849
-0.010674203 0.17711042 0.10355429 0.010064534 0.0014776607 -0.012592294 -0.0028548758 -0.014280675
-0.01016398 0.014554989 -0.08517307 -0.012241534 -0.012135314 -0.0067981607 0.005589817 0.010381372
-0.04819478 -0.10748112 -0.006638369 0.012586264 -0.018346008 0.005837224 -0.18978932 -0.0060832524
0.06519309 0.016227448 0.006331224 0.015066769 -0.079881415 0.010096466 -0.0951687 -0.0023473753
-0.008935127 0.009288248 0.009755447 0.010516124 0.0059226933 -0.23942605 0.003689479 -0.022212181
-0.052610658 -0.22603673 -0.012649894 -0.030463459 -0.30389637 0.009541265 0.021283343 0.00035034903
0.016682765 0.12398243 -0.0020096607 -0.0070015476 0.025762644 -0.02428786 -0.037092503 0.030640354
-0.09303813 0.0033102024 -0.028935023 0.035292502 -0.06853501 -0.002870531 0.037487704 0.0002574279
0.06472308 -0.026763765 0.009628199 -0.0029533166 0.0059773307 0.0065222303 0.01501319 -0.078554355
0.028628672 0.0066087497 0.055563547 -0.0155939935 -0.012965246 -0.009681363 0.018414399 -0.0013908214
0.0061483467 -0.039294034 -0.03559264 0.065423794 0.025373917 -0.009844302 0.015168661 -0.014216476
-0.019488253 -0.023774253 -0.13357686 -0.14410912 0.19226712 -0.0063959346 -0.023128588 -0.0003166156
-0.004366118 0.060819507 -0.008907909 0.015870227 0.04963885 -0.0019526443 0.0018514512 -0.0010564665
0.0079239225 -0.0270059 -0.01001152 -0.0073456126 0.0054575643 0.0070565273 0.013695406 -0.0073895683
0.0031303973 0.0033856123 0.011042377 0.0077592824 0.0118134245 -0.0024212461 0.019942923 0.009679195
-0.007868636 -0.009322246 0.034724478 -0.006315452 0.0037497485 0.0006968991 0.03945057 -0.1282982
0.0024335696 -0.18697253 -0.112225704 -0.027537515 0.0015142785 0.018196864 -0.013571035 -0.0033208553
0.01005662 -0.016048342 0.08144811 0.015266857 -0.0026503175 -0.0117089795 -0.009562873 -0.03246314
0.053528532 0.12358626 -0.007689343 -0.0070500486 0.028404579 -0.010790653 0.19204105 0.000671908
00000000: 7e8a b1bd 2ee6 14bc fe17 8bbc def0 8ebc
00000010: f453 8e3d e2f6 0ebc dba2 c13d 2f6e 59bb
00000020: 34e6 b03b 6fe6 34bc 033e 24bb 0c15 7fba
00000030: 383e 103b 2654 743e 2ee3 113c 4f3d c33c
00000040: b9fc 443d 4652 5a3e 98d6 883c f812 4e3c
00000050: e0e5 9d3e cf05 a43b cb95 81bc 3f57 79bb
00000060: cda7 01bd d1bb f6bd 6053 4bbb 0e39 c0bb
00000070: dafd d8bc a188 f63c f688 8e3c e47b bbbc
00000080: eab7 b13d 53aa 2abb 2e70 e43c ccdf e7bc
00000090: c313 a23d 13aa 22bc 75f9 21bd dcf5 8f3b
000000a0: 2ef6 8bbd 9401 143d ff1a aabc d71d e6bb
000000b0: 70b1 9f3c 77d3 4cbc af8e 303c 059a a33d
000000c0: 94a9 2abc 1d84 a23b 7779 49bd eef4 c13c
000000d0: c9a7 d63b 5a5a ff3c ebdb dcbc e635 2cbc
000000e0: a10a ea3a a70a d13c 15f8 c53c 8a47 88bd
000000f0: af89 96bc f8c4 d9bb 7fd7 78bc ec2e 96bb
00000100: b992 1b3d 31e9 363d c57f 063e 86fb 0c3e
00000110: f24f 32be 52b2 db3b 228a ae3c 75cc 97ba
00000120: 8ba7 82ba d2c5 6bbd 8bba 85bc 8ceb aabb
00000130: 9120 40bd 7cb1 613c c285 f1bc d4d7 0d3c
00000140: 887a 0e3b 58f8 563c e249 513b 13e1 193c
00000150: 820d f3ba 0e0f ad3b 64ab 80bc 75c3 483b
00000160: b4a8 9abb c731 883a 1683 adbb 9ec1 c5bc
00000170: b2b5 b63b 66c1 a2bc c4d5 b3bc e796 31bc
00000180: 9741 f83b bc8e ba3c 944f fbbc 0f34 503c
00000190: 569b 58bc 1e24 39ba 53d0 e8bc ed43 063e
000001a0: dae2 2ebc 6f5c 353e 4614 d43d b7e5 243c
000001b0: 11ae c13a e94f 4ebc de18 3bbb 7ef9 69bc
000001c0: d286 26bc 0c78 6e3c 386f aebd b790 48bc
000001d0: 32d3 46bc 1bc3 debb c92a b73b a116 2a3c
000001e0: e467 45bd 101f dcbd ad86 d9bb 9e36 4e3c
000001f0: 5e4a 96bc 2f46 bf3b 2258 42be 0556 c7bb
00000200: f483 853d 6def 843c 2876 cf3b 9cda 763c
00000210: de98 a3bd a66b 253c cfe7 c2bd 6cd6 19bb
00000220: a464 12bc bc2d 183c 4fd5 1f3c d24b 2c3c
00000230: 2713 c23b 1a2c 75be 30cb 713b 52f6 b5bc
00000240: 467e 57bd 2c76 67be 8041 4fbc 818e f9bc
00000250: 4e98 9bbe f752 1c3c 685a ae3c 0daf b739
00000260: 4baa 883c 80ea fd3d 83b4 03bb 3d6d e5bb
00000270: 2e0c d33c 56f7 c6bc 4fee 17bd 7b01 fb3c
00000280: c68a bebd fbef 583b 2409 edbc df8e 103d
00000290: 155c 8cbd 851f 3cbb b58c 193d 63f7 8639
000002a0: 898d 843d af3f dbbc 98bf 1d3c 6e8c 41bb
000002b0: 7cdd c33b 6fb8 d53b e2f9 753c 1be1 a0bd
000002c0: ad86 ea3c 368e d83b 9a96 633d f37d 7fbc
000002d0: 2f6c 54bc 949e 1ebc cbd9 963c 394c b6ba
000002e0: 1278 c93b c8f2 20bd 97c9 11bd e9fc 853d
000002f0: f6dc cf3c ff49 21bc fa85 783c 39ec 68bc
00000300: d4a5 9fbc 39c2 c2bc 5fc8 08be 5791 13be
00000310: ace1 443e fd94 d1bb 2a78 bdbc 6dff a5b9
00000320: a711 8fbb e01d 793d 7af2 11bc 4702 823c
00000330: 1b52 4b3d dfef ffba 65ac f23a 2279 8aba
00000340: 57d3 013c 7a3b ddbc 5c07 24bc 77b3 f0bb
00000350: 5ed5 b23b 713a e73b b262 603c 3124 f2bb
00000360: 5a27 4d3b 26e1 5d3b 16eb 343c 9441 fe3b
00000370: 188d 413c c5ad 1ebb 575f a33c 7c95 1e3c
00000380: 74eb 00bc 55bc 18bc 413b 0e3d daf1 cebb
00000390: 57be 753b 1bb0 363a ec96 213d 9a60 03be
000003a0: 867c 1f3b ba75 3fbe 97d6 e5bd 5b96 e1bc
000003b0: c17a c63a 9711 953c 0c59 5ebc b5a2 59bb
000003c0: 86c4 243c d077 83bc 44ce a63d d721 7a3c
000003d0: f3b0 2dbb 05d7 3fbc 99ad 1cbc 12f8 04bd
000003e0: bc40 5b3d cb1a fd3d e2f6 fbbb 1804 e7bb
000003f0: b8b0 e83c 47cb 30bc 69a6 443e fc22 303a

action_model._discrete_distribution.branches.1.bias f4 [2]
-9.211201e-05 9.500395e-05
00000000: 422c c1b8 db3c c738
