results/first/SpaceInvaders/SpaceInvaders-6973.onnx (onnx, 79910 bytes, 9 tensors)

discrete_act_size_vector f4 [1, 2]
00000000: 0000 4040 0000 0040
3.0 2.0

network_body._body_endoder.seq_layers.0.weight f4 [128, 7]
00000000: 3140 20be 876f 93bd 5e6a a2bd c122 fcbe
00000010: 6138 2bbe d4de f0bd eb82 e13e 0abe 46be
00000020: 5fb0 a5be a539 093e 91ab 343e 9046 d63b
00000030: 2741 473f 6309 643d 86fa eb3e 50bc 64bf
00000040: 4f76 edba c492 1e3f f618 ffbd 4786 5b3e
00000050: dbdf 1abf 0bda b4bd f6b5 a03c 204f 3fbe
00000060: a2f5 4cbf 78ed 92bc e709 143e 8bd1 8bbe
00000070: 44e7 ff3d 2634 06be 8c66 0d3e 11d2 a4be
00000080: 0084 223f 22da c8be d928 8fbd 158b 873e
00000090: 3684 8a3d efd4 903e 6617 12bf 4a39 b63e
000000a0: de37 bdbe 9788 373d 1ac1 b33d c3c1 62bd
000000b0: 1326 fe3e 151d 3e3e 13bb cdbd c4aa 8e3e
000000c0: 51c8 47bf 5303 a8bd b1f0 cf3e ff10 403f
000000d0: b8e1 93bb 0c96 0ebf 79d4 c73d ed44 b6be
000000e0: da40 d3be 4d2b 583f 1252 993e 3ad8 3abf
000000f0: 8f52 333e 7eab e23d 3ec8 523e 0358 c2be
00000100: bcba 813d 4e01 d2bd e594 b9bd da12 223e
00000110: 34b7 27bf 737b bd3e 232a d13e c066 e13e
00000120: 5e48 d7be 463a 7e3d e09e cfbd 198d 59bf
00000130: 9eb3 7a3d ccd4 f0be 74d4 0cbe c65e 21be
00000140: d0e6 373f 6af1 3abe 69b2 f73e 7589 333e
00000150: 9eb3 073e c21d 403e 3c6f 143e f172 cd3e
00000160: 2e12 b2be 2bb7 ac3d e74d 813d 6f56 05bf
00000170: 79d4 9fbe c19c e1bd 30cd 28bf 31bb f93e
00000180: 4d6e 0ebe 7cf6 c7bd 2a6e ddbe 6700 79bd
00000190: f4f3 623e db96 863e 0d12 23bf d820 17bf
000001a0: f6a0 e2bd af39 b13d 6984 90be 2265 013f
000001b0: dec9 b3be 320d 263e 45c3 ce3e 87eb 8d3d
000001c0: 9f29 f3bd b5de 893d 7ba1 493f a47b 2cbe
000001d0: 10f6 5dbe 7908 2d3e 0c54 24bf a7af b53d
000001e0: fa47 d13e 7a0a 84bd 4d88 2bbd 9bdb 42be
000001f0: 8caa a5bd 2d4a cfbe 2295 bbbe f60f c9be
00000200: 89d2 053f 1111 07bf 050c c33e 9eb2 fa3e
00000210: 7b79 93bf 7e84 d93e 46c0 443f 1d3f 453e
00000220: 65a4 813e 2091 13be 790b 98be d594 253e
00000230: e271 bbbe 4ed7 bebe a426 d8be 8ea8 dbbe
00000240: 1494 fcbe 0c28 8abe abbd dfbb 9ea4 c1be
00000250: 67ed e6bd 84c9 b2bd 0f46 b9bd d98d 38bd
00000260: 9a2c 21bf 488d 5bbf 48b9 183f 874b 073f
00000270: c3d2 b03e 6d5d 8c3f c34d e2be 573f 433e
00000280: 3870 efbe d125 083f 7bd1 dd3d 0e90 11be
00000290: fb0a 30be ebcd 1f3e a658 67be 2bb6 f73e
000002a0: b904 1bbd 2639 00bf 4be0 d8bd 6d9e 04bd
000002b0: 257c d9be 8e84 133f 03c5 dabe b24a cabd
000002c0: a55a 003f 40a9 a13e 5dbf a1bd 8f19 c23d
000002d0: 5e8f 9e3e 7033 913e d65c d73d a75b 193f
000002e0: 9090 573e 7dac 1a3e 5fc7 d9be 3c30 0d3e
000002f0: 6780 ec3d a2c6 a6be 6b48 c53e 727e f0be
00000300: 0873 703e b6ab 4c3e d17b 26be 918e d33e
00000310: 8a17 943e 8153 4f3e 25da 40be f389 243f
00000320: 1864 ff3e a167 e9be dab7 bb3e 02f2 f1be
00000330: c2f4 e43e 3446 abbe 13f6 04be d3cf 75be
00000340: 5048 0fbf 352e 843c f59e 543f 0db2 c5be
00000350: 6f07 2dbf 2461 9dbd 0bef 553e 795a 393f
00000360: 1b07 66be 03ee b03e da13 573e 507e 273f
00000370: e8f1 9d3e 8c66 04be ce20 8d3f c8ad 82be
00000380: 0fe7 323d 2051 c53d 70ae c6bd 9863 d43b
00000390: db20 a5be d6ee c23d 7f73 d2be 2bb3 8c3f
000003a0: b7e5 2cbe 0934 f4bc ab57 b9bd aaf1 a03e
000003b0: d5ff b1be 0dfe a33e a153 febe faa6 9ebe
000003c0: ce51 8f3e 72c6 b4bd bc25 b53e 6802 38be
000003d0: 4795 12bf 1771 013e 1ceb a63d e06e bcbe
000003e0: a9a7 ea3e 8b9e ff3e f6e3 a6bd 0b3b 41bf
000003f0: 25fd 94bd ff6b 883f d11e 59be a9b9 b6be
-0.15649487 -0.071990065 -0.07930444 -0.49245265 -0.16720726 -0.11761251 0.44045195 -0.19408432
-0.32361123 0.13400896 0.17643572 0.0065391734 0.7783379 0.055673014 0.46089572 -0.8934984
-0.0018116924 0.61942697 -0.12455933 0.21437941 -0.60497826 -0.08830651 0.019618016 -0.18682528
-0.80062306 -0.0179355 0.14456902 -0.27308306 0.12495282 -0.1310583 0.1380865 -0.32191518
0.63482666 -0.39228922 -0.06990213 0.264733 0.067634985 0.28287455 -0.57066953 0.35590583
-0.36956686 0.044807997 0.087770656 -0.055360567 0.49638423 0.18565781 -0.10045447 0.2786466
-0.78040034 -0.08203759 0.4061332 0.75025934 -0.0045129918 -0.55697703 0.09757323 -0.3559946
-0.41260415 0.8444107 0.29945427 -0.72986186 0.17511962 0.11067866 0.20584199 -0.37957773
0.06334445 -0.10254155 -0.090616025 0.15827504 -0.6551392 0.37008247 0.4085246 0.44023705
-0.420474 0.062067293 -0.10137725 -0.8498092 0.061206453 -0.4703735 -0.1375292 -0.1575881
0.71836567 -0.18256155 0.48378304 0.17532904 0.13252112 0.18761352 0.14495558 0.40126756
-0.34779495 0.08433374 0.06313687 -0.5208501 -0.3121679 -0.110162266 -0.6593809 0.48775628
-0.13909264 -0.0976381 -0.4324811 -0.0607914 0.22163373 0.2628697 -0.6369942 -0.5903449
-0.11065857 0.086535804 -0.2822602 0.5054494 -0.3511495 0.16215971 0.40383354 0.06929689
-0.11873173 0.06731931 0.78762025 -0.1684404 -0.21675897 0.16897763 -0.64190745 0.08871394
0.40875226 -0.06447311 -0.041878033 -0.19029085 -0.0808917 -0.4048628 -0.36637217 -0.3926999
0.52274376 -0.52760416 0.38095108 0.489644 -1.1521448 0.42483896 0.76855886 0.19262357
0.25320736 -0.1441083 -0.29696253 0.16170056 -0.36610323 -0.3727364 -0.4221698 -0.42902035
-0.49331725 -0.26983678 -0.00682803 -0.37820905 -0.1127575 -0.08729842 -0.09046566 -0.04505715
-0.6295868 -0.85762453 0.59657717 0.5284962 0.34535798 1.0966011 -0.44199952 0.19067131
-0.46765304 0.53182703 0.10830971 -0.14215109 -0.17191689 0.15605895 -0.2259241 0.4838117
-0.0378463 -0.500872 -0.105896555 -0.03237765 -0.42477527 0.5762414 -0.42728433 -0.09877528
0.5013831 0.3157444 -0.07897828 0.09477531 0.30968755 0.28359556 0.10515754 0.59905475
0.2105124 0.15104862 -0.4253492 0.13787931 0.11547928 -0.3257342 0.38531813 -0.4697147
0.23481381 0.19987378 -0.1625817 0.41319707 0.2892421 0.20246698 -0.18833216 0.64272994
0.49881053 -0.45586875 0.36663705 -0.4725495 0.44717985 -0.33451998 -0.12984495 -0.2400506
-0.55969715 0.016135314 0.8305505 -0.38612404 -0.6758947 -0.07684544 0.20891969 0.72403675
-0.22463648 0.3455659 0.21003667 0.6542711 0.30848622 -0.12929744 1.1025636 -0.2552321
0.043677386 0.09634614 -0.0970124 0.006481599 -0.3225163 0.095182106 -0.41103742 1.0992178
-0.16884504 -0.029809969 -0.090499245 0.31434375 -0.34765497 0.32029763 -0.4967318 -0.30986768
0.279921 -0.08826913 0.35380352 -0.17969668 -0.5725903 0.12640797 0.08150312 -0.3680334
0.4583104 0.49925646 -0.08148949 -0.7548072 -0.07274846 1.0657958 -0.21203162 -0.35688522

network_body._body_endoder.seq_layers.0.bias f4 [128]
00000000: e0d7 d73c 2240 c3bd 464f ebbd 9ba4 ab3e
00000010: 2546 d1bb 1096 3c3d 40e5 94bc 3d7a 3ebd
00000020: 94e7 abbd bb51 91ba b5c1 a53c 73d4 60bc
00000030: 60b1 373d 394d a1bd 47ff eabd ee96 0dbd
00000040: 7952 3cbd 9a0f 6e3c 0e3e 68bd ec4e 573d
00000050: 0b41 3a3e 6e60 b53a 5b8a 083c d604 30b9
00000060: 7167 863e bcb4 35bd 0281 20bb 0807 073a
00000070: fbf0 10bd 4181 873d 3602 463d a520 63bc
00000080: cc6d 723e daeb d13d 1488 00bd bab6 bdbb
00000090: a2e8 573e 6ad9 45bd a65a b4b8 62da 5bbc
000000a0: 4086 82bd b64b 173a 411c 19bc 357e debc
000000b0: f072 123d bd49 76bd 3cac 4e3e 119f 413e
000000c0: 76df f53c 41ac 9ebd db5b 86bd 6aaa 0cbd
000000d0: 9ce1 dcb9 6149 8d3e 8ff1 5dbd 09fc 4fbd
000000e0: 15fa 543d 2f7b 1a3d 81c3 e43b 2321 b73c
000000f0: d132 47bc 7fd3 8bbd 328f 4cbd d5b1 d83a
00000100: 474e e4bc a04d 77bd d15e 62bd 10d7 1e3d
00000110: 9147 693b 652d b63c 85d2 8bbd 317f d63b
00000120: 5ac2 83bc b149 03bd 5be7 babc 0769 bbbc
00000130: 45cb 3ebd 8efc 16bc e3cb 89bc c03e 80bd
00000140: 8868 773c f2ae 0ab9 bf4c 1cbd 10e8 603d
00000150: a5b5 f2bb a6b1 26bb 9136 b23d 8797 e33c
00000160: ad23 0a3e 8ddc 933d 57e0 f1bb c9ae aebc
00000170: 576a 973c 05a3 abbd 499f 39bd 5da4 30bb
00000180: ea3a e33d 5047 89b7 88fd 15bd f3dd 943c
00000190: 5563 a5bc 02f2 96bb 8c5c 453d 90f0 08bc
000001a0: ac6c dcba 21ca 81bd c70f 503e 96ba a73c
000001b0: 72ad 7ebc 456b 8fbc 7902 65bc 1846 da3c
000001c0: 3b82 b8bc c3cb b13d 6af8 f2bc 68bb eb3b
000001d0: ae92 21bd fd47 333c 68ce 003e af73 513d
000001e0: 4391 1f3d 4dc7 ae3d a0fd d3bb 431c 183e
000001f0: 21f8 9e3d 2828 36bd 5729 7c3c dbdd 81bd
0.026348054 -0.09533717 -0.114897296 0.33524022 -0.0063865357 0.04604155 -0.018175721 -0.046503294
-0.083937794 -0.001108698 0.020233968 -0.013722527 0.044846892 -0.07876057 -0.114744715 -0.034567766
-0.04597709 0.014530087 -0.056699805 0.0525655 0.18188874 0.0013837942 0.008333768 -0.0001678647
0.26250795 -0.044361815 -0.0024490957 0.0005150889 -0.035386067 0.0661645 0.048341952 -0.0138627635
0.23674697 0.10250063 -0.031379774 -0.005789605 0.21084836 -0.048303045 -8.5999534e-05 -0.013418766
-0.063732624 0.00057714747 -0.009345115 -0.02715979 0.035754144 -0.060128916 0.2018289 0.18908335
0.030013781 -0.077476986 -0.06560489 -0.034342207 -0.00042129762 0.27595046 -0.054185446 -0.05077747
0.05199631 0.037715133 0.0069813137 0.022354668 -0.012158112 -0.06827449 -0.04994125 0.001653249
-0.027869357 -0.060376763 -0.055266205 0.03877932 0.0035595635 0.022238443 -0.06827263 0.006545924
-0.016083885 -0.0320527 -0.022815397 -0.02287723 -0.04658057 -0.009215487 -0.016820854 -0.062619686
0.015100606 -0.00013225878 -0.03815913 0.054908812 -0.0074069076 -0.0025435477 0.08701814 0.027782215
0.13490172 0.07219801 -0.0073814797 -0.021323578 0.018483324 -0.08380703 -0.04531792 -0.0026953437
0.11095221 -1.636488e-05 -0.03661874 0.01817224 -0.020188967 -0.0046064863 0.048183963 -0.008358136
-0.0016817055 -0.06337381 0.20318519 0.020474713 -0.015544282 -0.017507205 -0.01397764 0.026644751
-0.022523036 0.086814426 -0.029659469 0.0071939714 -0.039446525 0.010942456 0.12578738 0.051135715
0.03895689 0.08534107 -0.0064694434 0.14854531 0.077621706 -0.04447189 0.015390716 -0.06341144

network_body._body_endoder.seq_layers.2.weight f4 [128, 128]
00000000: 5c05 a5bd 1753 bf3c 230e 9cbd da44 19be
00000010: a4f3 35bc b92d 183e 0644 be3c 9102 5b3e
00000020: 7f80 f6bd a309 5cbd b824 483e ba1f 3cbd
00000030: 2453 5fbd 3604 903d 9cc4 923d 1068 c13a
00000040: 1818 ea3b a175 2cbd 2225 a9bc 3ef3 073d
00000050: 6c87 183d 047b 543d 9bcd 43bc 91ff edbd
00000060: 528a 85bd dd97 0abe 20cd 77bd d594 583d
00000070: 111d 8b3d 611c c13e d747 d0bb f05a a0bd
00000080: 24c7 4d3d e08c 143d 25c3 8c3d 6812 14be
00000090: 194d f43c 94a4 883d a287 ba3d 58de ec3d
000000a0: bb9a f6bc dbd5 babd c17b e53d 173f 94bd
000000b0: e4f4 083e 8143 053e e436 8d3d 5153 543d
000000c0: 701b 9fbd cdc5 4fbd a1c4 86bd ad0d 663d
000000d0: b0b3 47be 27c7 7e3d f0d0 c3bb a598 c9bc
000000e0: 2a37 2bbd 12c1 51bd cab7 e7bd 4856 9cbd
000000f0: 3470 0e3e 24b0 b6bb 0010 c8bd eb85 b03d
00000100: 8f36 353e 2921 a7bb 816a d2bd 410c 063d
00000110: 157b 87bd c32d 78bc a8aa 92bd eab1 cfbd
00000120: 6639 4d3d 0bef 673d 6408 32bd a4b4 da3d
00000130: 7a19 0fbd b729 073d f530 49be 34d7 173e
00000140: 24d3 2a3a 2a6f a83d f9e1 04be 9e4b 46be
00000150: f145 46bd 2bd9 e8bd 31fa 45bd 4c36 fbbd
00000160: 7e71 68bd e075 a33e 76e6 973d b480 1abe
00000170: 079d 193e c351 51be 6741 d03d 2092 843d
00000180: f66f 5b3d 6d9e 9d3d 8942 b63d c1e8 0abd
00000190: ae71 cbbd 8230 6c3d e89c b4bd aa0f 56be
000001a0: f343 263c a74d 06bd 3055 1bbe b5fb 02bd
000001b0: d601 5cbc 304e d33c a71f 143e b40a 983c
000001c0: 0e2d 333d f8a9 d13c b828 203d 9a6f 0e3e
000001d0: 04d3 19be 4e61 b9bd 1ab7 53bd a7dc 133e
000001e0: c9a1 12bd 05ea 4c3d 0e87 87bd eb86 54bd
000001f0: 71ab cdbd fe96 24be 1176 7d3d 6ae7 16be
00000200: a959 643e c296 b1bd 1f90 a7bc cca9 d63d
00000210: 1188 20bd 55c3 6ebe 76be 823d 3832 6bbe
00000220: b87c 803d ca6b 733e eed9 b73d fdc6 7b3d
00000230: 9267 6bbd 861c d8bd 8eb9 a5bd 399b 86bd
00000240: 6a77 063c 0400 b9bc 2e02 ef3c 1f72 cd3b
00000250: 7947 6cbe 7020 06bd fa25 dcbd ed9c 08bd
00000260: 2643 513d 7c29 6f3e 4e75 403d 00df 453e
00000270: 55d7 27bd f928 893e 959f 003e 8133 81bd
00000280: dc8e 1e3e 37c1 83be 9b9f 08bd f96c 6138
00000290: 46bb 26bd ffaa 97bd e743 0bbe 555b 37be
000002a0: e964 04bc a2f3 ffbd ee95 1abd eb0f 8a3c
000002b0: aea8 2a3a 39e7 11be c430 003d d274 833c
000002c0: 2f09 88bd b9d0 1e3e 1fde 57bb dd4d 93bd
000002d0: 44f5 ecbc b475 12be d6b3 c0bb c4ff 823d
000002e0: 5b3c 0bbe 417a babd eb31 e93d e6d0 c1bd
000002f0: 911f 843e a96f 9f3d 0286 c5bd 62bb 0ebe
00000300: 6c01 ccbd 0890 fc3c 752c 263d eb5c 02be
00000310: ddb3 83be ad82 29be 1700 bcbd 714b ee3d
00000320: a813 3abe d3ef 36bd a442 35bb 73ba 41be
00000330: eccd 243c 5826 a13d b3d6 6b3d 5397 c6bc
00000340: 5e90 cb3d 20c7 57bd 47b0 7d3d c8c9 cabc
00000350: 610e 0cbd 0e01 243c 8ce2 f5bb 8c3d 063d
00000360: dc58 20be 16ad d53e c81b 873d 6bbf adbd
00000370: 0dbc ac3d e5b5 843d af37 aebd 8283 cc3d
00000380: 2aca 633d 8d91 683e 6e0e a53d 3195 d7be
00000390: 5d26 debd fb5f d53e 92ee bfbd bdba d43c
000003a0: 215c 29bd 071d 0cbd a219 563d 30e9 25bd
000003b0: a6f0 3c3d 98cf 013d 32cc 9c3c 0835 6cbe
000003c0: ff81 573d a9ae 6c3d b86d 3d3e ea14 8b3d
000003d0: 4caf 633d d863 23be bbd9 493d e3b5 77be
000003e0: 9e3e 9bbe b78e 00be daf7 12be 2653 743d
000003f0: 3f5f 003e 8915 513d 20b8 3e3d ea4f 413d
-0.08057663 0.02335505 -0.07619884 -0.14967671 -0.011105452 0.14861192 0.023225795 0.21387698
-0.120362274 -0.053720128 0.19545257 -0.045928694 -0.05452265 0.07032053 0.071664065 0.0014755744
0.0071439855 -0.042104367 -0.02064759 0.03319096 0.037238523 0.05187513 -0.011950876 -0.11621011
-0.06520523 -0.13534494 -0.060498357 0.052876312 0.06792653 0.37716964 -0.00635622 -0.07829845
0.050238743 0.03626716 0.06873158 -0.14460146 0.02982192 0.06672016 0.09107901 0.11565846
-0.030103078 -0.09122821 0.11205245 -0.07238596 0.13374668 0.13014032 0.06895235 0.05183727
-0.07768905 -0.050725747 -0.06580473 0.056165386 -0.19502139 0.062201645 -0.005975835 -0.02460892
-0.041800655 -0.051209517 -0.11314352 -0.07633644 0.1390999 -0.005575197 -0.09768677 0.08619293
0.17696594 -0.0051003885 -0.1027422 0.03272653 -0.06615273 -0.015147629 -0.07161456 -0.10141356
0.050103568 0.056624454 -0.043465033 0.10678986 -0.034936406 0.032998767 -0.19647582 0.14828187
0.0006516448 0.08224328 -0.12976827 -0.19364783 -0.048406545 -0.113695465 -0.048334304 -0.12266216
-0.05674886 0.3192587 0.07417004 -0.15088159 0.15001307 -0.20441346 0.101687245 0.06473184
0.05357357 0.07696233 0.08899409 -0.033913378 -0.09933792 0.05766345 -0.0881899 -0.20904413
0.010148036 -0.0327889 -0.15169215 -0.031978328 -0.013428172 0.025794119 0.144652 0.018559791
0.04374414 0.025593743 0.039101332 0.1390976 -0.15021902 -0.090517625 -0.05168829 0.14439641
-0.03579882 0.050027866 -0.066175565 -0.05188648 -0.100424655 -0.16073224 0.061880175 -0.14736715
0.22299828 -0.08671333 -0.020454464 0.10481605 -0.039192263 -0.23316701 0.06383984 -0.22968376
0.06273788 0.23771587 0.08977114 0.061469067 -0.05747182 -0.105523154 -0.080920324 -0.06572575
0.0082071815 -0.022583015 0.029175844 0.006269708 -0.2307414 -0.03274578 -0.10749431 -0.03335278
0.05108943 0.23355669 0.04698687 0.19323349 -0.04097684 0.26789072 0.12560876 -0.06308652
0.15484184 -0.2573335 -0.033355337 5.374567e-05 -0.04070594 -0.07405662 -0.13600121 -0.17905934
-0.0080806995 -0.12497641 -0.03774064 0.016853293 0.00065101206 -0.1424836 0.031296507 0.016046915
-0.06642377 0.15509309 -0.003293879 -0.071925856 -0.028925546 -0.14302713 -0.005880813 0.0639644
-0.13597243 -0.09105349 0.11386474 -0.09463672 0.25805333 0.07784969 -0.096447006 -0.13938668
-0.09961209 0.030830398 0.04056974 -0.12730758 -0.25723162 -0.16553755 -0.09179705 0.11635483
-0.18171561 -0.044662308 -0.002765813 -0.18918781 0.010058861 0.078686416 0.0575778 -0.024242079
0.09939645 -0.052680135 0.06193569 -0.02475442 -0.0341934 0.010010017 -0.007503813 0.03277354
-0.15658897 0.41733617 0.06597096 -0.08483776 0.08434305 0.06480006 -0.085067146 0.099860206
0.05561272 0.22711773 0.08059393 -0.42106012 -0.10847161 0.4167479 -0.093716756 0.02596795
-0.041347627 -0.03420737 0.05227054 -0.040505588 0.046127938 0.031692117 0.019140337 -0.23067105
0.05261421 0.057783756 0.18498886 0.067910984 0.055587098 -0.15956056 0.04927991 -0.24190478
-0.3032121 -0.12554441 -0.1435236 0.05964961 0.12536334 0.05104593 0.046562314 0.047195353

network_body._body_endoder.seq_layers.2.bias f4 [128]
00000000: c462 1fbb 7cab 0bbc a06a 11bc d7d2 dabb
00000010: 13c0 4cbc c65a 943b b9cd 49bc a3de b2bc
00000020: f3da 253b 2a99 56bc fc08 57bc ede5 373d
00000030: 830f 6fbc 3959 f3bb 4bbc db3c 9c7e 1cbb
00000040: 0c46 18bc d06a ff3b b851 83bb a657 21bc
00000050: 689c 843d 57ea 3fbc 7425 a6bb 86e2 91bc
00000060: 8d83 09bd 5f06 50bc 564e 1a3d 608b 03bd
00000070: 23d2 0bbc 7a4f 33bc 4bc0 883d 3426 9bbd
00000080: c265 a93c ae24 60bd b8bb 943c 82e8 41bc
00000090: 8d46 433b 3239 353c 3683 dabb c25e 153c
000000a0: 2fac 2f3d 98fb 3d3d 517c 21bc cbb9 27bd
000000b0: ac52 003c 7cdb 20bd 1e57 aebc f343 b43a
000000c0: 9417 053a e636 463c f343 333b d548 03bd
000000d0: e3cf 323c 405a 503c 5f9f f2bb 5d49 7a3c
000000e0: 26f6 71bc 2026 5dbc b75d 5abb 7e46 d9bb
000000f0: 86d2 e4bb 9e5e c7bc 73ed 51ba 4ea1 c2bb
00000100: d0f9 59ba 40ff 8f3d de4f d2bc 036e bc3a
00000110: 04f6 683c 6933 1e3c 723e 2cbd c523 8d3c
00000120: 84da 5dba 85cf 243d 6c6b f5bb 4d13 f8bb
00000130: f55a f23b b0b2 5d3d 0533 02bd c36f d1bc
00000140: 725d 87bd 20a1 e5bc e1d1 49bd 38af 4abb
00000150: c8ae efbc ff12 413d f625 8d3d a64b 62bc
00000160: 5ba3 98bb 03e6 79bc 8ba7 e2bb bc84 fc3a
00000170: b8ce 22bc 40f5 2fb9 c1f7 16bb a46b 56bc
00000180: d515 3f3d a407 80bc 6e72 a5bc a50b 26bc
00000190: 8530 73bb 248b 5fbc 99ce eaba 32ea c4bc
000001a0: 43a5 7bbc a20c 6abc 07c4 aebc cbd7 73bc
000001b0: b845 89bc 5977 b63b 2166 18bd 7f96 2c3c
000001c0: 9603 77bc f6c3 dc3a fc95 13bc 3a9d 8cbd
000001d0: 54b2 29bc efc1 b9bc df66 8e3a 20a2 613c
000001e0: 8274 44bb 4fe5 c6bc bc34 a03a 0a80 31bc
000001f0: bd3a 5c3d 14c5 b8bc c9dd 8d3b 718a b73c
-0.0024320344 -0.008524772 -0.008875519 -0.006677966 -0.012496966 0.0045274226 -0.0123171145 -0.021834677
0.0025307506 -0.013098041 -0.013124701 0.04489701 -0.014591101 -0.0074264077 0.026823184 -0.0023879176
-0.009294044 0.0077947155 -0.0040075444 -0.009847557 0.064751446 -0.011713586 -0.0050703827 -0.01780821
-0.033572722 -0.0126968315 0.037672363 -0.03211534 -0.008533987 -0.010944242 0.06677302 -0.07575646
0.020678405 -0.05472248 0.018155918 -0.011835219 0.002979669 0.011061 -0.0066684736 0.00911683
0.042888816 0.046382517 -0.0098562995 -0.04094867 0.0078322105 -0.039271817 -0.021281775 0.0013753161
0.0005077061 0.01209805 0.0027353733 -0.03205188 0.010913822 0.01271683 -0.0074042524 0.01527628
-0.014768159 -0.013497859 -0.0033320019 -0.006630718 -0.006983104 -0.02433711 -0.00080081 -0.005939639
-0.0008315118 0.07031107 -0.02567285 0.0014376048 0.014218811 0.009655812 -0.04205174 0.01722897
-0.00084630423 0.04023697 -0.0074896123 -0.00757066 0.007396097 0.054125488 -0.031786937 -0.025565987
-0.0660962 -0.028030932 -0.04927242 -0.0030927192 -0.029258147 0.047137257 0.06892006 -0.013811981
-0.0046581454 -0.015252593 -0.0069169453 0.0019265632 -0.009936981 -0.00016780663 -0.0023035856 -0.013087187
0.04665168 -0.015628643 -0.020196166 -0.010134612 -0.0037107777 -0.013644014 -0.0017914354 -0.024037454
-0.015359226 -0.014285238 -0.021333707 -0.014882992 -0.016756877 0.0055684266 -0.037206773 0.010533928
-0.015076539 0.0016843069 -0.009007927 -0.06865926 -0.010357458 -0.022675483 0.0010864398 0.013771564
-0.002997667 -0.024279265 0.0012222747 -0.01083375 0.053766955 -0.022554912 0.0043294174 0.022404881

action_model._discrete_distribution.branches.0.weight f4 [3, 128]
00000000: 147d 923c d632 49bd fb4c 0ebd 3ef3 173e
00000010: e93d 1dbb d19c abb9 ff14 edbb 0480 1a3c
00000020: 2397 71bb 0c99 8c3d 7225 383c 0f6b c4bd
00000030: 2314 ad3c a69e 863c 4294 823c 1ae6 c2bd
00000040: fb24 853c 0441 533c 2673 17bd bbf1 0f3c
00000050: ede7 2d3d 9f38 1c3c de9e 873a da75 29bc
00000060: 92d7 743b 28fa ba3c 2af4 efba d4c6 73b8
00000070: 793c 0bbc d585 51bd 06d8 d23b 3e84 993c
00000080: b724 c7bd 899f ebbb 3247 2a3c be3a d33b
00000090: c926 3fbd bdb4 3b3d 87e8 e0bd fb84 02bc
000000a0: 676f dabc 67a6 513c a940 56bd 0991 5abb
000000b0: 6943 113c 5157 38bc 45ab 433c 3d3b 633c
000000c0: cdcb cf3b 7197 9f3c e3be 49bb 514a 713b
000000d0: 262b 1e3c 8ed0 3d3c dd4f 04bb 6fa3 9a3c
000000e0: 0dea 873a bc06 70bc 95f9 063c 82c0 423d
000000f0: e7ea 4ebc 14ef 0e3c 68e7 1d3d 8f4c 203d
00000100: 41e8 8bbc 6d85 6fbc ca31 303c e4f0 5e3d
00000110: 3944 373a f41c 173d be99 e93c 4ab9 aabc
00000120: d1a7 00bc ccc6 353c 4ebd cf3c 5374 3b3c
00000130: 470b 9f3c affb 8b3c 700c d1bb 59b5 4dbc
00000140: 2b4f a9bb ad26 89bc 9b48 d83c b8c9 35bd
00000150: bd46 01bc 9cab 9abc 5eb7 9a3c 4de6 073d
00000160: 6e59 f3bc 1449 0fba d300 9bbc 47e6 eb3c
00000170: e7e3 ce3a 1d9f cebd 6f7c 283d c9e9 f5bc
00000180: fdbd bc3c b8fc 82bc c87c 20bc 967a 56bb
00000190: cc1d 9b3c 8f9f 663c f1bf 013b 86b5 2b3b
000001a0: a07b 1138 bf46 273b 2fe6 a13b e17e 7b3c
000001b0: febd 543c 989b 16bd 2220 20b9 b88a c63c
000001c0: 48a6 89bc 525a bcbb 7f09 35bc d184 3cbc
000001d0: 71f2 463c 98e8 363d 52ee 443c 7a49 913c
000001e0: 2c5e 8cbd 0d24 d9b9 679d 783d 3613 94bc
000001f0: de26 6b3c a17c 533a 0aeb 003c 488d 673e
00000200: e5b9 703b b0f9 373c 5e64 383c df0d 93bd
00000210: 0d8b 09ba 89de cd3b cbe4 3dbc 2d0b 6e3b
00000220: 5aa6 dbbb 0e40 bebc 1d23 01bc dcd1 383e
00000230: eff8 0b3d 3c08 58bc c48c bebc b563 8a3d
00000240: 23b7 323c fa30 773c 24b0 333d 9262 0ebc
00000250: 17a0 10bd 47aa 263d b5bc c63a d490 bebb
00000260: 19b2 663c ac32 193e 75a0 3bbc c00e 323c
00000270: 3afc b13c d2eb 8a3c b7a2 14bd 4895 0a3d
00000280: 0fe0 223e 7ada 193d f48b 183c 5662 57bc
00000290: 509f 1ebd 238d 0e3d 119d 263d a162 00bc
000002a0: 8d8c 3a3d ada9 883d 4e1c ab3c 8f8a 9c3b
000002b0: 56ea eb3c 358e 3ab9 a6e4 cdbb 4a3f 953c
000002c0: 5d59 f3bb ac5d f0bd 1807 49bc ced7 333c
000002d0: 1b73 63bc fdd9 95bb b7b0 d93b 2719 f13c
000002e0: 47fd 323c 2dd3 4c3a 4af9 dabb 78df 9d3c
000002f0: cee3 7c3c e3e8 c33b 6a2a 9b3d eb97 9dbd
00000300: 0668 f93c deac 593e 80ba d73b 3d10 44be
00000310: b796 403c 8763 22bc 5670 ce3c af3b 023d
00000320: d164 923c 42ef c8bc eb23 a13c 680b 363c
00000330: 5b8b 94bc 465e f8bc 5f73 38b8 9e37 e73b
00000340: 58d1 5e3b 3cab 873d 21c8 3a3d 5fe3 de3c
00000350: 81d1 05bb f63e a43d 5615 f4bc 30c9 98bb
00000360: 5c70 053e c64e ea3c e3a5 913c 1320 803c
00000370: bdad c8bb 9f6b 2f3c 35fc 2a3c 4845 673c
00000380: 5e00 bc3d 2e09 f839 d155 09bc 1687 683b
00000390: b744 e63c eaa5 2a3c 776d 4abc 124a 9e3c
000003a0: 5726 4dbc ed7e 9e3b 83d6 22bc 1642 163c
000003b0: ccc7 5fbb c74a 543d ceae 923b 6e67 ee3b
000003c0: 44da 383d 22ba b23c 4bd9 653c f632 953b
000003d0: 1bd1 593d 6c10 4abd c2c2 5b3c 17a8 953d
000003e0: 1882 b73d a6c8 da3b df60 d6bc 6d66 aebc
000003f0: f895 47bd ecc6 603a cbd3 04bc 29db a2bd
0.017881908 -0.049120747 -0.034741383 0.14838883 -0.00239932 -0.000327325 -0.007235169 0.009429935
-0.0036863766 0.06865129 0.011239396 -0.09590732 0.021127766 0.016433071 0.015939835 -0.09516545
0.016252985 0.012893919 -0.03697505 0.00878566 0.04245751 0.009534984 0.0010347029 -0.010343039
0.0037359935 0.022824362 -0.001830702 -5.8120888e-05 -0.0084983045 -0.051153023 0.0064344434 0.018739816
-0.097238 -0.007190649 0.010392951 0.0064462116 -0.046667848 0.045826662 -0.10981851 -0.007966275
-0.026664449 0.012796021 -0.05230776 -0.0033350608 0.0088661695 -0.011251287 0.011942689 0.013869104
0.0063414336 0.019481393 -0.0030783943 0.0036817978 0.009653842 0.011585368 -0.0020189204 0.01887676
0.0010369435 -0.014650043 0.008238216 0.04754687 -0.012629247 0.008723993 0.038550764 0.039135512
-0.01707852 -0.0146192135 0.010754058 0.05442895 0.0006991062 0.036892846 0.028515693 -0.020840306
-0.007852511 0.01109476 0.025358822 0.011441308 0.019414557 0.017087786 -0.0063796565 -0.012555444
-0.0051669083 -0.016742075 0.026401808 -0.044381827 -0.0078904005 -0.018880658 0.018886264 0.033178616
-0.02970573 -0.00054659066 -0.018921291 0.028796328 0.0015784473 -0.10088942 0.041134294 -0.030018704
0.023039812 -0.015989646 -0.009795375 -0.0032726876 0.018935107 0.014076128 0.0019798244 0.0026200726
3.468583e-05 0.0025524346 0.00494077 0.0153500745 0.012984751 -0.03676948 -0.0001527076 0.024236068
-0.016802922 -0.0057480717 -0.011049627 -0.011506275 0.0121427635 0.044655412 0.012019711 0.017735232
-0.06853899 -0.00041416325 0.060696986 -0.018075567 0.014352528 0.00080675824 0.007868538 0.22612488
0.0036731896 0.011228964 0.011254398 -0.0718038 -0.00052468554 0.006282632 -0.011590193 0.003632258
-0.0067031803 -0.023223903 -0.007881907 0.18048805 0.03417295 -0.013185557 -0.023260482 0.06757299
0.010907921 0.0150873605 0.043869153 -0.008690493 -0.035308924 0.040689733 0.001516244 -0.0058156047
0.014080548 0.14960736 -0.01145183 0.0108677745 0.021726716 0.016958151 -0.03628799 0.033833772
0.15905784 0.03756187 0.009310711 -0.013146004 -0.03872615 0.034802567 0.040677134 -0.007836015
0.045544196 0.06672988 0.02088752 0.0047772597 0.028798264 -0.00017791319 -0.0062833605 0.018218655
-0.0074264244 -0.117366165 -0.012269758 0.010976745 -0.013882424 -0.0045731054 0.0066433805 0.029430939
0.010924644 0.000781345 -0.0066825496 0.019271597 0.015435172 0.00597869 0.07576449 -0.07694992
0.03044511 0.2125735 0.006583512 -0.1914682 0.011754683 -0.0099114245 0.02520005 0.0317952
0.017870339 -0.02452815 0.019670447 0.011111118 -0.018132856 -0.03031839 -4.3976466e-05 0.0070561906
0.003399929 0.06624457 0.045601014 0.027208028 -0.0020419064 0.08019821 -0.02979533 -0.0046626553
0.13031143 0.028602015 0.017779296 0.015640294 -0.006124227 0.010706811 0.010436107 0.014115639
0.091797575 0.00047309085 -0.008382277 0.0035480908 0.028108938 0.010415534 -0.0123552 0.019322429
-0.012521348 0.004836908 -0.009938839 0.00917103 -0.0034146188 0.051829126 0.0044764047 0.0072755134
0.04513003 0.02181727 0.014028857 0.004553194 0.053177934 -0.049332067 0.013413133 0.07307451
0.0896036 0.006676751 -0.026169239 -0.021289075 -0.048727006 0.00085745635 -0.008107136 -0.07951958

action_model._discrete_distribution.branches.0.bias f4 [3]
00000000: 5185 cabb f597 abbc d903 003d
-0.0061804433 -0.020946482 0.03125367

action_model._discrete_distribution.branches.1.weight f4 [2, 128]
00000000: ee4b e2ba ebd9 18bc f42e ba3b 4b0c c43c
00000010: e885 eabb 20fc 2dbc 8f84 2a3c e43c d33b
00000020: 456e 37bc 5311 623c 5c60 3cbb 5728 cb3c
00000030: 15c8 88bc adfc 873c aadc 19bb 3a0f 97bc
00000040: 5c3f 41bc ef8c c03c 05d5 2dbc 4f84 993b
00000050: e4c3 463c c358 c8b9 71e1 0abc 0225 e3bb
00000060: a9bc 5f3b 980c 0b3d 6254 3c3c 70fd 4abc
00000070: e269 1bbb 864b 08bc 5bbe 083c 3e48 553c
00000080: 0ca9 183e 8651 3639 6c20 66bb ef6b 68ba
00000090: bb7c aabc 603b f5bb 6988 85bb 19e3 2e3c
000000a0: 3a51 92bc ad75 21bc 097d cd3b 783c 243a
000000b0: bd39 84b8 4e44 41bc 56f9 67b7 5fea d03b
000000c0: 0c62 163c 6bb6 963c 57fe 35bc c6ea 983b
000000d0: 4d58 353c 16da 38bc 2a01 6abc d370 e1bb
000000e0: 634e 25bc 7896 903c b774 e0bb a5d9 6fbc
000000f0: 825b e6bc cf71 8b3b f0bc 773d e2b0 30bc
00000100: cd7e c6bb ec13 84bd d599 89ba 4042 f0bb
00000110: 9676 36bc 80b5 46bc 58c0 daba e250 06bc
00000120: 042d 13bb 88f1 5cba f6fd bf3c d73d 8e3b
00000130: ece3 c1ba 84bf 3abb 529c 81bb cc8f 15bc
00000140: 9560 55bb 1d07 473c e1e5 ceb9 a30f 473c
00000150: 339f b4bb b006 7dbc cae9 953a 2f67 983b
00000160: 9991 7a3d 1874 003c b98b 5a3b 2a54 e13a
00000170: ad38 4c3b 70d7 e0bc 17aa b2bb e1c9 1fbc
00000180: 982a c139 c3aa 953b d046 b43b 9b62 1ebc
00000190: 8b4a 373b 641f 8b3b 733a 093c 268e ebbb
000001a0: b420 f1b8 bd9f 923c d612 7ebb 154b 17bc
000001b0: 67ea aa3b d5d9 613a c6cf 51bc 941b b0bb
000001c0: 5a74 95bc 5713 03bc 68fe 3ebb 54d7 813b
000001d0: 9366 353c eda5 09bd 6f8f e13b 0bff 6bbc
000001e0: 2469 013c 5c38 86bc 2392 d43b 0cb1 fbba
000001f0: 4d6c c33c 9aef 5e3c 0c61 12bb 2511 06be
00000200: b139 97bb 0030 2cbb c094 02bc c431 d0bc
00000210: f1d1 fbbb 37dd 8fbb 00e8 723b abcc 5d3b
00000220: d719 52bc bb47 33bd d2ba 8abb 936b 15bd
00000230: 7c83 a63c 1e62 3d3c b232 1bbc d74c 3a3c
00000240: c2aa a2bb 2f8c 83bb e027 a93c bb1b 693b
00000250: 7a02 adb9 37f9 4abb 3f17 a3bb ad8b 093b
00000260: 6ef1 f239 2698 47bd fb0f fbbb b298 2f3b
00000270: a842 8dbb 686e 3dbc 9677 9cbb 32c3 753c
00000280: 4402 2abe de1d d73b 1075 83bb bda6 ccbc
00000290: 45d6 173c 5a9e d93c 2c02 823b 1bd6 b63b
000002a0: 8026 fd3a 8732 903c aefb 86b9 6890 5d3b
000002b0: fa76 03bc 33d3 31bc 2f5b 6e3b b78f 193b
000002c0: 131b 153c 3c16 dab7 cafb 35bc cb98 083c
000002d0: 3540 1fbc 3457 81bc 1a1d c13b 119b a73b
000002e0: 0dfa a43b 6771 f03b ee81 4ebc f538 2ebc
000002f0: de22 9e3c b208 3d3b 37dd 94bd 2b7e 93bb
00000300: 45bc 873c 9ccf 873d 3470 343b 23d3 623c
00000310: ba25 c3bb 5df5 d8ba 9036 b6bb 78ed 803c
00000320: 2842 e73b 97df fe3b 88f5 463b 7122 b9bc
00000330: 2fbd 30bc c79e 283b b7cd f5bb 9160 c53a
00000340: d443 63bb 9bd3 98bb 530b 133b c809 c9bb
00000350: 2406 4c3c afde 863c b40d 9dbc 65dd 8abc
00000360: 47c2 abbd 3c19 7fbc 6c4e bf38 8b66 94bc
00000370: 7b84 8fba 96c6 0e3b 2d48 87bc 538c 32bc
00000380: b1ed 7fbb abc9 553c fc1f 0b3c ae47 64bb
00000390: b8dd ea3a 5f45 0cbc b69b 153c 732a 1fbc
000003a0: a661 69bb 2b00 4f3b cce9 e13a 10d3 823b
000003b0: 191c d73b 0599 923b cf2d 54bc 662a fe3b
000003c0: 9302 0b3c 4289 113b f3aa 1b3b 4570 c93b
000003d0: 8806 2a3c 6241 2b3d 579c b23b 2fe4 493c
000003e0: b1bf 6abb a8c3 6fbc 7001 30bc 4708 023c
000003f0: 2dda 563c c257 833b 49c3 d1b8 8cb7 143e
-0.001726506 -0.009329299 0.005681867 0.023931643 -0.007157076 -0.010619193 0.010407581 0.0064464677
-0.011195724 0.013798076 -0.0028743958 0.024799509 -0.016696969 0.016599977 -0.0023477473 -0.018439878
-0.011794891 0.023504702 -0.01060987 0.004684962 0.012131665 -0.00038213105 -0.008476601 -0.006931902
0.003413955 0.033947557 0.011494728 -0.012389526 -0.0023714234 -0.008318787 0.0083461655 0.013017712
0.14908236 0.00017387242 -0.003511454 -0.0008866181 -0.02081143 -0.0074838847 -0.0040750992 0.0106742615
-0.017860997 -0.009854716 0.006271009 0.0006265114 -6.305005e-05 -0.01179607 -1.3826726e-05 0.0063755955
0.00917865 0.01839753 -0.011108003 0.004666659 0.011068416 -0.0112824645 -0.014282504 -0.006879905
-0.01008949 0.017649874 -0.006849851 -0.014639293 -0.028119806 0.0042555104 0.06048292 -0.01078436
-0.0060575963 -0.06449112 -0.0010498116 -0.0073321164 -0.0111366715 -0.012128234 -0.0016689403 -0.008197995
-0.0022457251 -0.0008428325 0.023436528 0.004340868 -0.0014792657 -0.00284955 -0.0039554024 -0.009128522
-0.0032558788 0.012147692 -0.00039462655 0.012149724 -0.005512142 -0.015443489 0.0011437472 0.0046509723
0.06117401 0.007840179 0.0033347441 0.001719122 0.003116171 -0.027446479 -0.005452405 -0.0097527215
0.00036843563 0.0045674755 0.0055016056 -0.009667064 0.0027968015 0.0042456854 0.008375752 -0.0071885763
-0.00011497867 0.017898435 -0.0038768551 -0.00923421 0.005215931 0.00086155283 -0.012805885 -0.0053743813
-0.018243957 -0.008000216 -0.0029143337 0.0039624367 0.011071819 -0.033605505 0.0068835537 -0.014404069
0.007898603 -0.016384296 0.0064871474 -0.0019202544 0.023855353 0.01360693 -0.0022335676 -0.13092478
-0.0046150316 -0.0026273727 -0.007970035 -0.025414355 -0.007684939 -0.0043903845 0.0037064552 0.0033843915
-0.0128235435 -0.04376958 -0.0042336965 -0.036479544 0.020326369 0.0115590375 -0.009472536 0.011370859
-0.0049642036 -0.004014514 0.020648897 0.0035569507 -0.00032998977 -0.0030971298 -0.0049771364 0.0020987794
0.00046337716 -0.048729084 -0.007661817 0.0026793894 -0.0043109246 -0.011561967 -0.004774998 0.0150001515
-0.16602427 0.0065648397 -0.0040117577 -0.02498185 0.009267394 0.026564766 0.003967544 0.0055797226
0.0019313842 0.017602218 -0.00025745988 0.0033807997 -0.008023972 -0.0108535765 0.0036370268 0.0023431608
0.009100693 -2.5997979e-05 -0.0111073945 0.00833721 -0.009719898 -0.015788652 0.0058933618 0.005114921
0.005034691 0.0073377374 -0.01260422 -0.010633697 0.019303735 0.0028844294 -0.07268756 -0.0045011244
0.016569266 0.06631395 0.0027532699 0.013844284 -0.005955425 -0.0016552616 -0.0055607036 0.015738234
0.007057447 0.007778119 0.003035875 -0.02259943 -0.010787292 0.0025729404 -0.0075013298 0.0015058686
-0.003467788 -0.004663897 0.002243717 -0.006135199 0.012452636 0.016463606 -0.019171573 -0.016951272
-0.08386665 -0.015569981 9.122197e-05 -0.018115303 -0.0010949516 0.0021785847 -0.016513908 -0.010897714
-0.0039051587 0.01304857 0.008491512 -0.0034832763 0.001791886 -0.008561461 0.009131363 -0.0097147105
-0.0035611182 0.0031585793 0.0017235815 0.0039924458 0.006564629 0.0044738078 -0.012950375 0.007756519
0.0084845 0.0022207056 0.0023753017 0.006147417 0.010377534 0.0418104 0.005450766 0.01232247
-0.0035819823 -0.01463405 -0.01074253 0.007936544 0.013113541 0.0040082643 -0.00010002271 0.14523143

action_model._discrete_distribution.branches.1.bias f4 [2]
00000000: 0afb ed3b d2f8 edbb
0.007262592 -0.0072623277
