results/first/SpaceInvaders/SpaceInvaders-1996.pt (torch, 971833 bytes, 83 tensors)

discrete_act_size_vector f4 [1, 2]
0	0x40400000	3.0
1	0x40000000	2.0

network_body._body_endoder.seq_layers.0.weight f4 [128, 6]
0	0x3ec3089c	0.38092506
1	0x3e822b40	0.25423622
2	0xbefbe0fc	-0.49195087
3	0x3e914dfe	0.28379816
4	0x3ea6cc94	0.32577956
5	0x3e641a3d	0.22275634
6	0x3c7a23fc	0.015267368
7	0x3e93d5c3	0.28874025
8	0xbe904b76	-0.28182572
9	0xbe198cab	-0.14995067
10	0x3e6d0e69	0.23150028
11	0xbf255328	-0.6458001
12	0xbeabd4c9	-0.3356078
13	0xbd07f60d	-0.033193637
14	0xbe2c3148	-0.16815674
15	0xbe5c920b	-0.21540086
16	0xbd17746f	-0.036976274
17	0x3e26e69f	0.16298912
18	0x3e278500	0.16359329
19	0x3deb8a39	0.11500973
20	0xbdd688c7	-0.10475307
21	0x3b60ac01	0.003428221
22	0xbdbaf0b5	-0.091279425
23	0x3e91a766	0.28448027
24	0x3ecb75c1	0.39738277
25	0xbf3bfc71	-0.7343207
26	0xbe808858	-0.25104022
27	0x3eeeacde	0.46616262
28	0x3e74b806	0.23898324
29	0xbd841c54	-0.06450716
30	0x3ee716ac	0.45134485
31	0xbe8a11e8	-0.26966786
32	0xbe745293	-0.23859625
33	0x3f292ce6	0.66084135
34	0x3eb269cc	0.34846342
35	0x3e154f49	0.14581026
36	0x3cf9d947	0.030499114
37	0xbd030472	-0.03198666
38	0x3e935cf8	0.28781867
39	0x3e07e759	0.13271846
40	0xbdcaa10d	-0.09893999
41	0x3d7ba407	0.061435726
42	0xbe5a0994	-0.21292716
43	0xbcc708a6	-0.024296116
44	0xbf6c194c	-0.922261
45	0x3e2bd1c7	0.16779242
46	0x3db07c39	0.086174436
47	0x3d815214	0.06314483
48	0x3eb57474	0.3544041
49	0x3ed50e6a	0.4161256
50	0xbf05cf94	-0.52269864
51	0x3d024743	0.03180624
52	0x3f1c23e1	0.60992247
53	0xbce6adfa	-0.02815913
54	0xbdab89a9	-0.08375866
55	0xbd87c7d8	-0.06629914
56	0x3e80ae01	0.25132754
57	0x3eb00c1d	0.34384242
58	0x3e47150b	0.19441621
59	0xbf41cf88	-0.7570729
60	0xbc7a87a5	-0.015291129
61	0x3ee20621	0.441453
62	0xbf0c9274	-0.5491097
63	0xbcf9361b	-0.030421307
64	0xbf157a41	-0.5838967
65	0xbdf48974	-0.119402796
66	0x3f669ce8	0.9008317
67	0x3f25711c	0.64625716
68	0xbe132c17	-0.14372288
69	0xbd91cb15	-0.07118813
70	0x3f094074	0.5361397
71	0x3f860bc9	1.0472347
72	0x3e31deff	0.17370223
73	0xbe32a4eb	-0.17445724
74	0xbd9ecf25	-0.077543534
75	0xbe9277f1	-0.28607133
76	0x3db1b9a8	0.08677989
77	0xbe7c532f	-0.24641107
78	0xbe6f582d	-0.2337348
79	0xbf3d9d6f	-0.7406835
80	0xba3bb9a7	-0.0007161148
81	0xbe6d5f08	-0.23180783
82	0x3ebb2edf	0.36559197
83	0x3f5900b3	0.8476669
84	0xbe3656fe	-0.17806622
85	0x3eac271a	0.33623582
86	0xbf268f53	-0.65062445
87	0xbe61ddcf	-0.2205727
88	0xbefbc702	-0.49175268
89	0x3da37926	0.079820916
90	0xbeed2ed4	-0.4632479
91	0x3d00d209	0.031450305
92	0xbc71f448	-0.014767714
93	0x3d80e3bc	0.06293437
94	0xbec26cc4	-0.37973607
95	0xbe9cedc0	-0.3065014
96	0x3f26b655	0.65121967
97	0xbd58c28b	-0.052919906
98	0x3e3f9972	0.18710878
99	0x3ebaaa9e	0.36458296
100	0xbf1c4fbf	-0.6105918
101	0x3e8500fc	0.25977314
102	0x3e856898	0.2605636
103	0xbe8bd563	-0.2731124
104	0xbef093fa	-0.46987897
105	0x3ef19a43	0.47188005
106	0xbc40e104	-0.011772398
107	0xbd45257c	-0.04813145
108	0xbe352369	-0.17689289
109	0x3e4aeddb	0.19817297
110	0xbf9622ae	-1.1729333
111	0x3f50a0ad	0.8149517
112	0xbe0d61ed	-0.13806887
113	0x3edfa3db	0.436797
114	0xbe0ba57e	-0.13637349
115	0x3f541cc0	0.8285637
116	0x3d5af7ff	0.053459164
117	0xbe22f4bf	-0.15913676
118	0x3db33868	0.08750993
119	0xbf2c947f	-0.6741409
120	0x3ea6efb9	0.3260477
121	0xbde3ef84	-0.11129668
122	0xbd51d8f3	-0.05123229
123	0x3dda6068	0.10662919
124	0xbdf8b0d3	-0.121431015
125	0xbd5d2ae4	-0.05399598
126	0x3e9f546a	0.3111909
127	0x3de4f673	0.11179819
128	0x3f39171b	0.7230088
129	0xbde134fb	-0.10996433
130	0x3e2581e8	0.16162837
131	0x3ebb7db6	0.36619347
132	0x3f0a127b	0.5393445
133	0x3d872d66	0.06600456
134	0x3e78c427	0.24293576
135	0x3e850b28	0.25985074
136	0x3dd92cd3	0.10604253
137	0x3e858a48	0.26082063
138	0xbf0c0cb0	-0.5470686
139	0xbd7b5ac9	-0.061365876
140	0xbebb3e4e	-0.36570972
141	0x3e26b7b5	0.16281016
142	0xbee3febd	-0.44530287
143	0xbf4852f8	-0.782516
144	0xbcc16282	-0.023606542
145	0xbbeaf043	-0.0071697547
146	0xbf2b888f	-0.67005247
147	0xbf265726	-0.6497673
148	0x3ed40c6a	0.4141572
149	0xbe8de1c5	-0.2771131
150	0xbec1b336	-0.3783204
151	0xbf24bc29	-0.6434961
152	0xbeafe678	-0.3435552
153	0xbd578b76	-0.052623235
154	0xbf13c37e	-0.5772017
155	0xbee49b1a	-0.44649583
156	0xbecd228d	-0.40065423
157	0x3f0165ad	0.5054577
158	0xbfac79b2	-1.3474638
159	0xbe6d2ed7	-0.23162399
160	0x3dd222e9	0.10260565
161	0x3f01b7b0	0.5067091
162	0x3efdbde8	0.4955895
163	0xbe1fdf0e	-0.15612432
164	0xbedc2412	-0.4299627
165	0x3f5114db	0.8167245
166	0x3f08cf6b	0.53441495
167	0xbd63a3f1	-0.05557627
168	0xbf4db068	-0.803473
169	0x3e9e01ce	0.30860752
170	0x3e2ec5c3	0.17067628
171	0x3cd7be8c	0.026335977
172	0xbd1f8120	-0.038941503
173	0xbea4b4d4	-0.3216921
174	0xbe5b9b2b	-0.2144591
175	0xbec238a3	-0.37933835
176	0x3e4ca4de	0.19984767
177	0x3e1d2bc2	0.15348724
178	0xbe66d845	-0.22543438
179	0x3e193a90	0.14963746
180	0xbcbaf939	-0.022823917
181	0x3f0a86cb	0.5411193
182	0x3e0129d6	0.12613615
183	0x3f50f94d	0.816304
184	0xbf0f3ad1	-0.5594912
185	0xbed7711c	-0.42078483
186	0xbeda4d2d	-0.42637005
187	0x3e62dbc0	0.2215414
188	0xbe7c756f	-0.24654172
189	0x3f106d77	0.5641703
190	0xbdf18088	-0.117920935
191	0xbe2b828a	-0.16749015
192	0x3f2f5ebc	0.6850393
193	0x3f884baa	1.0648091
194	0xbe7bbd8b	-0.24584024
195	0x3f36bca1	0.71381575
196	0xbd15779d	-0.036491025
197	0x3e11756e	0.14204952
198	0xbee1173a	-0.43963033
199	0xbe82de69	-0.2556031
200	0xbe562801	-0.20913698
201	0xbe81140c	-0.25210607
202	0xbe113a9a	-0.14182511
203	0xbe9f4b7d	-0.3111228
204	0xbed66d71	-0.41880372
205	0xbeca5341	-0.39516643
206	0x3f15143b	0.58233994
207	0x3bc96e6d	0.006147197
208	0xbe3334a2	-0.17500547
209	0x3f9e2bec	1.2357154
210	0x3d8b7419	0.06809253
211	0x3db1df5f	0.08685183
212	0xbe83f36f	-0.25771663
213	0x3d714fe9	0.0589141
214	0xbed7fe43	-0.42186174
215	0x3eb1e2ab	0.34743246
216	0x3e8dbe8b	0.27684435
217	0xbf073966	-0.5282196
218	0xbda51ec0	-0.08062506
219	0x3ea9dac0	0.33174706
220	0x3e53cdcc	0.20683974
221	0x3ea187d3	0.31548938
222	0x3e8cfadd	0.27535143
223	0x3e8f38d3	0.2797304
224	0x3f1a8a33	0.60367125
225	0xbf4b9391	-0.79522043
226	0xbed32eba	-0.41246587
227	0xbe846bbf	-0.25863454
228	0x3eba9f77	0.36449787
229	0xbef08b0f	-0.46981093
230	0xbdf9128e	-0.12161742
231	0x3e2399c7	0.1597663
232	0xbf80c2f7	-1.0059499
233	0xbc9e8b76	-0.01935361
234	0xbc287fb1	-0.01028435
235	0x3e839ead	0.25706998
236	0x3df500e2	0.11963059
237	0x3ee7788f	0.45209166
238	0x3dc971a8	0.09836131
239	0xbf170f3c	-0.5900762
240	0xbf0665ba	-0.5249897
241	0xbe177b87	-0.14793216
242	0xbe1e1e72	-0.15441301
243	0x3f249b3d	0.64299375
244	0x3f1a809c	0.6035249
245	0xbe301df8	-0.17198932
246	0x3ea1aae6	0.31575698
247	0xbdb6deef	-0.0892924
248	0x3eadf0ba	0.33972722
249	0x3dca8cce	0.098901376
250	0xbf17b547	-0.5926098
251	0x3d3e82ab	0.046511333
252	0x3e79bbd0	0.24388051
253	0x3ea2ce00	0.3179779
254	0x3f7a1f84	0.9770434
255	0xbe79d6ee	-0.24398395

network_body._body_endoder.seq_layers.0.bias f4 [128]
0	0x3d085dbd	0.03329252
1	0x3e20981b	0.15683024
2	0xbe46d4d3	-0.19417123
3	0x3d3d1e05	0.046171207
4	0x3d6806a2	0.05664695
5	0xbd147474	-0.03624387
6	0xbe159651	-0.14608122
7	0xbe62b108	-0.22137845
8	0x3cd566da	0.02605002
9	0x3e69bded	0.22826357
10	0xbe1d27d0	-0.15347219
11	0x3cc85821	0.024456086
12	0x3e051f0f	0.13000129
13	0x3e67bc7d	0.22630496
14	0x3e73175f	0.23739384
15	0xbe585589	-0.21126379
16	0x3cd904d0	0.026491553
17	0x3d9d3f0d	0.076780416
18	0xbe42c7ac	-0.19021481
19	0xbe624e30	-0.22100139
20	0x3b9aa3fc	0.0047192555
21	0x3d9017c8	0.07035786
22	0xbb050880	-0.0020299256
23	0xbe2c60a4	-0.1683374
24	0x3e0c849c	0.13722461
25	0xbe6a1ce3	-0.22862582
26	0x3e81b21a	0.25331193
27	0x3bb1afbf	0.005422562
28	0xbe3882a1	-0.18018581
29	0x3e4816ca	0.19539943
30	0xbe757039	-0.23968591
31	0x3e747ff6	0.23876938
32	0x3cf825f4	0.030291535
33	0xbe4ce300	-0.20008469
34	0x3e5e4a65	0.21708067
35	0x3d7d7731	0.061881248
36	0x3d48c433	0.049015235
37	0x3af787f7	0.0018885125
38	0x3d5b9f10	0.05361849
39	0xbe3c7b7c	-0.1840648
40	0x3e83ed86	0.25767154
41	0x3d8243ac	0.06360564
42	0xbc97703a	-0.018486131
43	0x3e5ba488	0.21449482
44	0x3d0b34f9	0.033986066
45	0x3d26cca4	0.040722504
46	0x3d6fe9e7	0.058572676
47	0xbe3dc998	-0.18533933
48	0xbe0ab765	-0.13546522
49	0xbe5e80a6	-0.21728763
50	0x3d350de1	0.04420269
51	0xbe493820	-0.19650316
52	0x3d0fa427	0.035068657
53	0x3ca89160	0.020577133
54	0xbe5c3958	-0.2150625
55	0xbe416a79	-0.18888272
56	0xbe428aeb	-0.18998305
57	0xbe68f477	-0.22749506
58	0x3e4b94d2	0.19880989
59	0x3caf712f	0.021416275
60	0x3e2640bc	0.16235632
61	0x3c8c9e52	0.017165337
62	0xbe51c55a	-0.2048544
63	0x3d0c06c9	0.03418616
64	0xbe5e59a4	-0.21713883
65	0xbe7ec404	-0.24879462
66	0xbe59d195	-0.21271355
67	0xbe55f562	-0.20894387
68	0x3d0e9874	0.03481336
69	0x3d59f9b3	0.053216647
70	0x3e33a47e	0.17543218
71	0xbbce0b13	-0.0062879412
72	0xbe3efb3b	-0.18650524
73	0xbe38a006	-0.18029794
74	0xbe594f10	-0.21221566
75	0xbe5f9a2e	-0.21836159
76	0xbd3746fe	-0.044745438
77	0x3e773f89	0.2414533
78	0x3e63420a	0.2219316
79	0x3cdfc01f	0.02731329
80	0xbe305003	-0.17218022
81	0xbbd331fa	-0.0064451667
82	0xbe1da876	-0.15396294
83	0x3b97da21	0.0046341573
84	0xbe374a7b	-0.17899506
85	0x3d33bca4	0.043881074
86	0xbc5eef88	-0.013606913
87	0xbc81cc35	-0.015844444
88	0xbe5757b7	-0.21029554
89	0xbd7a8617	-0.061163034
90	0x3dc1c56e	0.09461485
91	0xbce4e570	-0.027941436
92	0x3ced8549	0.02899422
93	0x3b794070	0.0038032793
94	0xbe669bb6	-0.22520337
95	0xbe5dfbf2	-0.21678141
96	0x3e78f292	0.24311283
97	0xbc3bcd45	-0.011462514
98	0x3e22e2b6	0.15906796
99	0xbc01a5ed	-0.007913095
100	0x3caa9099	0.020820903
101	0xbc8ccbdc	-0.017187051
102	0x3d8feb60	0.07027316
103	0x3d9a0c3b	0.07521864
104	0x3d09052e	0.033452205
105	0xbe4703ce	-0.19435045
106	0xbdc22679	-0.09479994
107	0xbe4dbb0b	-0.20090882
108	0x3e284053	0.16430788
109	0xbe234372	-0.15943697
110	0x392a3aca	0.00016234364
111	0xbc126671	-0.008935557
112	0x3e614a1a	0.22000924
113	0xbe7583a8	-0.23976004
114	0xbe3d77a7	-0.18502675
115	0xbb485310	-0.0030567087
116	0xbb2c0c01	-0.0026252272
117	0x3e847da4	0.25877106
118	0x3e76abde	0.24089
119	0xbb3aa278	-0.0028478187
120	0xbe4f6e64	-0.20256954
121	0x3e74d465	0.23909147
122	0x3d568bcf	0.052379426
123	0xbe71d14c	-0.23614997
124	0xbc86a411	-0.016435655
125	0x3d8d56d3	0.06901326
126	0x3d1e1489	0.038593803
127	0xbb39d0b4	-0.0028353157

network_body._body_endoder.seq_layers.2.weight f4 [128, 128]
0	0x3d63383a	0.055473544
1	0xbd319a3e	-0.043359987
2	0x3d472762	0.048621543
3	0x3d50b0c9	0.050949845
4	0xbd29b81e	-0.041435353
5	0x3d9e524e	0.07730542
6	0x3e277bc5	0.16355808
7	0x3dd74d14	0.10512748
8	0x3d6293cb	0.055316728
9	0xbdfbf5e0	-0.12302756
10	0x3defa93e	0.11702202
11	0xbdedafb7	-0.116057806
12	0xbcaa2f17	-0.020774407
13	0xbe8d1711	-0.2755666
14	0xbe8ac07a	-0.27099973
15	0xba5956fa	-0.00082908536
16	0x3d47ca46	0.048776887
17	0x3c8d2224	0.017228194
18	0x3e4ca1a0	0.1998353
19	0xbc5808b4	-0.013185669
20	0xbcb97eb0	-0.022643417
21	0x3d0a2a4e	0.03373175
22	0x3db59d80	0.08867931
23	0xbd06db96	-0.032924257
24	0xbe121954	-0.14267474
25	0xbdbcd6bc	-0.09220645
26	0xbd769232	-0.060198016
27	0xbd323625	-0.043508667
28	0xbe0f63bc	-0.1400289
29	0xbe533e36	-0.206292
30	0xbd2701e2	-0.04077328
31	0xbddf1be9	-0.10893995
32	0xbcc58670	-0.024111956
33	0xbcaa120c	-0.020760559
34	0xbe67d26b	-0.22638862
35	0xbdc19df5	-0.09453956
36	0x3d0e2e8e	0.034712367
37	0xbc650bd9	-0.0139798755
38	0xbd9366ce	-0.07197343
39	0x3d7af593	0.061269354
40	0xbdd4c718	-0.103895366
41	0x3cdcc73d	0.026950473
42	0xbce1d80a	-0.027568836
43	0x3c912b0d	0.017720724
44	0xbe005025	-0.12530573
45	0x3d92e4e2	0.07172562
46	0xbd57a75f	-0.052649852
47	0x3db50084	0.08837989
48	0x3e1b829e	0.15186545
49	0x3e3460ca	0.17615047
50	0xbde33a48	-0.11095101
51	0x3d949b92	0.07256235
52	0xbd1696f3	-0.03676505
53	0x3c72f345	0.014828508
54	0x3e6dc104	0.23218161
55	0x3dfaad4d	0.12240086
56	0xbd5f0aa2	-0.0544535
57	0x3de4bbe0	0.11168647
58	0xbe09c847	-0.13455306
59	0x3dd11b36	0.10210268
60	0x3b42b2ac	0.0029708548
61	0x3d20a0af	0.03921574
62	0x3dcfbb19	0.10143108
63	0xbbb60395	-0.005554626
64	0xbdbf6889	-0.093461104
65	0x3d9320ec	0.07184014
66	0x3c8b7b25	0.017026493
67	0x3de992a4	0.114049226
68	0x3d55ff61	0.0522455
69	0xbd4fe9ec	-0.050760195
70	0xbe31d499	-0.17366256
71	0x3d46ea57	0.048563328
72	0x3de7a8c8	0.11311489
73	0x3dd2c476	0.10291378
74	0x3d321b89	0.04348329
75	0x3e975b86	0.29562014
76	0x3de11fc6	0.109923884
77	0xbe39770e	-0.18111822
78	0xbe3599cd	-0.17734452
79	0xbe168cd1	-0.14702155
80	0x3d9cbea8	0.07653552
81	0xbd561542	-0.052266367
82	0x3e1f472e	0.15554497
83	0xbd812c1d	-0.06307242
84	0x3e1cd57c	0.15315813
85	0xb9b58536	-0.0003462226
86	0x3ce9a39d	0.0285204
87	0x3cac728d	0.021050716
88	0x3b12a883	0.0022378273
89	0x3dad3ca6	0.084588334
90	0xbc75c218	-0.014999889
91	0xbd5bfd52	-0.053708382
92	0x3da161ce	0.07879983
93	0x3d0d7783	0.034537803
94	0xbda73683	-0.08164694
95	0x3e528fde	0.20562693
96	0xbe7094ab	-0.23494212
97	0x3e23cb88	0.1599561
98	0xbe500eeb	-0.20318191
99	0x3ce5e4e5	0.028063247
100	0xbcc918b0	-0.024547905
101	0xbdbb8a46	-0.09157233
102	0x3b7770f7	0.0037756541
103	0xbe194a84	-0.14969832
104	0xbcddb3fc	-0.027063362
105	0x3d656d4d	0.05601244
106	0x3e4dc170	0.20093322
107	0x3da6d75a	0.08146544
108	0xbe408414	-0.18800384
109	0x3e3a2846	0.18179426
110	0x3c7595dc	0.014989343
111	0xbd088e65	-0.033338923
112	0xbe223381	-0.1583996
113	0x3e12f293	0.14350347
114	0xbd7b21e8	-0.061311632
115	0xbdcf2426	-0.10114317
116	0x3d13ee43	0.036115896
117	0xbe2aa912	-0.16666058
118	0xbe24c00c	-0.16088885
119	0x3db259ff	0.08708572
120	0xbc75c086	-0.014999514
121	0xbde0a113	-0.109682225
122	0xbd472ba6	-0.04862561
123	0x3e46735f	0.19379948
124	0xbdcde60b	-0.10053643
125	0xbc7d799c	-0.015470888
126	0xbd22d7b2	-0.039756484
127	0x3dc472f0	0.09592235
128	0x3d8bc9bf	0.068255894
129	0xbdb4cd8a	-0.08828266
130	0x3caa2f2e	0.02077445
131	0xbe063fc8	-0.13110268
132	0x3e0c3efd	0.13695903
133	0x3dea4523	0.11438968
134	0xbd752770	-0.059852064
135	0xbd00dd6f	-0.031461176
136	0x3e33a873	0.17544727
137	0xbe1a4df8	-0.15068805
138	0x3d4a1dd2	0.049344845
139	0xbd8ab81b	-0.067733966
140	0xbdd3540f	-0.10318767
141	0xbe10e0e3	-0.14148287
142	0xbe317e62	-0.17333367
143	0xbdd91010	-0.10598767
144	0xbe00c512	-0.12575176
145	0x3dc58fba	0.09646554
146	0x3ca14ebf	0.01969087
147	0xbcb6f7bc	-0.022334926
148	0x3d2d88b8	0.042366713
149	0xbdd601ff	-0.104495995
150	0x3d8e7c91	0.06957353
151	0x3e3880d2	0.18017891
152	0xbd8d792f	-0.069078796
153	0x3d1cc730	0.038275898
154	0xbe969dd1	-0.2941728
155	0xbb3f9cb8	-0.0029237699
156	0xbe0b3f0b	-0.13598268
157	0xbe9e7d8d	-0.30955163
158	0x3da93ef6	0.08263962
159	0xbe680557	-0.22658287
160	0xbd6b899c	-0.05750428
161	0x3cb10a29	0.02161129
162	0xbdbf6628	-0.09345657
163	0x3dd223cb	0.10260733
164	0xbc804d54	-0.015661873
165	0x3d69adad	0.057050396
166	0xbe11f31e	-0.14252898
167	0xbd903c1b	-0.07042714
168	0xbde10f2a	-0.109892204
169	0x3dbfc368	0.09363443
170	0xbda81a81	-0.0820818
171	0xb96ee118	-0.00022781303
172	0xbd337add	-0.043818343
173	0xbe1aadac	-0.15105313
174	0xbe38b191	-0.18036486
175	0x3e5626de	0.20913264
176	0xbd3ae4db	-0.04562841
177	0x3dc1880c	0.09449777
178	0xbde33239	-0.110935636
179	0xbe1939c2	-0.14963439
180	0xbd3aabb5	-0.04557391
181	0xbbf7d5cf	-0.00756333
182	0x3d883194	0.06650081
183	0xbd5c43a0	-0.05377543
184	0xbdbae8db	-0.09126445
185	0xbe518251	-0.20459868
186	0xbdb8e425	-0.0902789
187	0xbdbc61e6	-0.0919836
188	0x3c3fd15f	0.011707633
189	0xbdd03641	-0.10166598
190	0xbce4290d	-0.027851606
191	0x3e25129b	0.16120379
192	0xbd692f82	-0.056930073
193	0x3d96cf2f	0.07363736
194	0xbd2dfff1	-0.042480413
195	0x3d798a9e	0.06092321
196	0xbc8d9bbf	-0.01728618
197	0x3ccfc509	0.025362508
198	0xbe800029	-0.25000122
199	0x3ca92523	0.020647591
200	0xbda1e474	-0.07904902
201	0xbc4d39bd	-0.012525973
202	0xbd3dd366	-0.046344183
203	0x3e53a209	0.2066728
204	0x3e1f7567	0.15572129
205	0xbe64dca6	-0.22349796
206	0xbe8db2c9	-0.27675465
207	0x3c58d5c3	0.0132345585
208	0xbdebdf9e	-0.11517261
209	0x3d973b7a	0.07384391
210	0x3e0e33fe	0.13887021
211	0xbd69ef1d	-0.0571128
212	0x3ded3164	0.11581686
213	0x3e066534	0.13124543
214	0xbca4810f	-0.020081071
215	0xbd965e49	-0.07342202
216	0xbcb40774	-0.02197621
217	0x3ddf2576	0.10895817
218	0xbdb287d5	-0.08717314
219	0xbc51be91	-0.012801782
220	0x3d2b5f89	0.041839156
221	0x3dc15068	0.094391644
222	0xbd9aa614	-0.07551208
223	0xbe7e3329	-0.24824204
224	0xbcbdbaaa	-0.023160297
225	0xbc98a291	-0.018632205
226	0xbe6c85dc	-0.23097938
227	0x3b963bcc	0.004584765
228	0xbb8f2504	-0.0043684263
229	0x3dd3fe7d	0.10351274
230	0x3b8e03d2	0.0043339515
231	0xbdf42e1f	-0.119228594
232	0x3d6d8202	0.057985313
233	0x3d2d1faf	0.042266544
234	0x3e4f29b8	0.20230758
235	0xbd209777	-0.039206948
236	0xbe1d6b13	-0.15372877
237	0x3ddff1e7	0.10934811
238	0x3da14ce3	0.07875993
239	0xbcc97450	-0.024591595
240	0xbddfedab	-0.109340034
241	0x3dfd24ce	0.123605356
242	0xbe42e9f6	-0.19034562
243	0xbe14d816	-0.14535555
244	0xbc5a330d	-0.0133178355
245	0xbe5bcd55	-0.21465047
246	0xbe069032	-0.13140944
247	0x3d17adce	0.037030987
248	0x3e6ddb02	0.23228076
249	0xbe9375bc	-0.28800762
250	0xbdd3a908	-0.103349745
251	0xbd139dbc	-0.0360391
252	0xbdbe804e	-0.09301816
253	0xbcd0381a	-0.025417376
254	0xbe528884	-0.20559889
255	0x3dee1e66	0.11626892

network_body._body_endoder.seq_layers.2.bias f4 [128]
0	0xbe1a5b9f	-0.15074013
1	0xbe0b55b0	-0.13606906
2	0xbe281e3e	-0.16417786
3	0x3d2ff0c5	0.042954225
4	0x3bc274b7	0.0059343236
5	0xbd011cc2	-0.031521566
6	0x3cc063e0	0.023485124
7	0xbe128c40	-0.14311314
8	0xbc3fa13a	-0.011696154
9	0xbd5008bc	-0.05078958
10	0xbd0d0c69	-0.034435663
11	0xbd4e770e	-0.05040651
12	0xbd3a1903	-0.04543401
13	0xbdca5748	-0.09879929
14	0xbce9f263	-0.028557962
15	0xbce8bfa0	-0.028411686
16	0x3ddc3be9	0.107536145
17	0xbd3fb4ba	-0.046803214
18	0xbe077307	-0.13227473
19	0xbe0c8603	-0.13722996
20	0xbd063ec9	-0.03277472
21	0xbe1c4e65	-0.1526428
22	0x3e182083	0.14856152
23	0xbdcdd9cd	-0.10051308
24	0xbdf4320d	-0.11923609
25	0x3c96b722	0.018397871
26	0x3e4aa30a	0.19788757
27	0xbd5a30c9	-0.05326918
28	0x3dd3c074	0.10339442
29	0xbe1fdb7d	-0.15611072
30	0xbcc048e2	-0.023472253
31	0xbc818017	-0.015808148
32	0x3dce95a1	0.10087133
33	0x3dc9390f	0.09825336
34	0xbe172372	-0.14759615
35	0xbe2217b4	-0.15829355
36	0x3d82e841	0.06391955
37	0xbe189499	-0.14900436
38	0xbd014cb7	-0.0315673
39	0x3d0bfd45	0.034177084
40	0xbc89cbb2	-0.016820762
41	0xbe1f9175	-0.15582831
42	0xbd721102	-0.05909825
43	0x3b0ee390	0.0021803118
44	0x3c0584b0	0.008149311
45	0x3db1e096	0.086854145
46	0xbe109493	-0.14119177
47	0x3cfe1242	0.031014565
48	0x3da1b3c3	0.07895615
49	0xbbb9db7f	-0.005671918
50	0xbdd86436	-0.10565989
51	0xbd753a8a	-0.05987028
52	0xbe1bcf8f	-0.15215896
53	0xbe3c1555	-0.18367513
54	0xbca6a664	-0.020343013
55	0xbe1403e6	-0.14454612
56	0x3d6bd99f	0.057580587
57	0xbd6bbede	-0.057555072
58	0x3c84287e	0.01613259
59	0xbd464e9c	-0.04841481
60	0xbd7143e6	-0.058902644
61	0xbe1192e7	-0.14216195
62	0x3cb1e87b	0.0217173
63	0xbe04ec69	-0.12980808
64	0x3d9015e1	0.07035423
65	0xbd81100d	-0.063018896
66	0xbc18273d	-0.009286699
67	0xbe16aae4	-0.14713627
68	0xbdcff7c6	-0.10154681
69	0xbe21b233	-0.15790634
70	0x3ded8dd3	0.115993164
71	0x3df2b5c5	0.11851076
72	0xbe1e1e3e	-0.15441224
73	0xbe15294a	-0.14566532
74	0xbd6bb246	-0.05754306
75	0x3d514de0	0.051099658
76	0xbc18a1f5	-0.009315957
77	0xbc2c935a	-0.010533178
78	0x3e524991	0.20535876
79	0xbd0f075f	-0.03491914
80	0xbdbba2bd	-0.09161899
81	0x3d190864	0.037361518
82	0xbe329a58	-0.1744169
83	0x3ab954d7	0.0014139664
84	0xbd042387	-0.032260444
85	0xbcdf3307	-0.027246011
86	0xbe12028b	-0.14258783
87	0xbcd323af	-0.025773851
88	0x3b55db6e	0.003263201
89	0xba32f627	-0.00068268407
90	0x3cca71dc	0.024712496
91	0x3c619294	0.013767857
92	0xbde83b8d	-0.113394834
93	0xbc9ec76f	-0.019382207
94	0x3d07a3d6	0.03311523
95	0xbe24b69c	-0.16085285
96	0xbe274898	-0.16336286
97	0xbe1e9b65	-0.15488966
98	0xbe265291	-0.16242434
99	0x3e2d5fdd	0.169311
100	0x3c41696b	0.011804919
101	0xbe2cca5e	-0.16874072
102	0x3d56e2bb	0.05246232
103	0x3c0fe3c1	0.008782328
104	0xbb1a433e	-0.0023538615
105	0x3af8aaa0	0.0018971749
106	0x3c744b43	0.014910522
107	0x3c1fc654	0.009751875
108	0x3c94228f	0.018082885
109	0xbc7ba5ca	-0.015359351
110	0xbd5cf388	-0.053943187
111	0x3e2861fb	0.16443627
112	0x3d9c5ee0	0.076352835
113	0xbd6a3fd1	-0.057189766
114	0xbe19f1c4	-0.15033633
115	0xbdd7a566	-0.10529594
116	0xbe1ff48d	-0.15620632
117	0xbe1dede1	-0.15422775
118	0xbb5062a3	-0.0031797073
119	0x3bf00df0	0.00732588
120	0xbd4fd1fe	-0.050737374
121	0xbdde259a	-0.10847016
122	0x3cc78002	0.024353031
123	0x3d4f43bb	0.050601702
124	0xbe239c39	-0.15977563
125	0xbcd87b03	-0.026425844
126	0xbe06b192	-0.13153675
127	0xbd95e590	-0.07319176

action_model._discrete_distribution.branches.0.weight f4 [3, 128]
0	0x3ccd63e2	0.025072042
1	0x3ce82e5d	0.02834242
2	0xbbf7d925	-0.0075637274
3	0x3ca6cc91	0.020361217
4	0xbc08737c	-0.008328315
5	0xbbe386be	-0.0069435528
6	0xbb9da49d	-0.004810883
7	0x3c0ae8e4	0.008478377
8	0xba7b9ae0	-0.00095979683
9	0xbaa1b7d0	-0.0012338106
10	0x3b06234f	0.0020467823
11	0xbc1e2bc2	-0.009653987
12	0xbc00712c	-0.007839482
13	0x3c9fd985	0.019512901
14	0x3b0599f5	0.0020385955
15	0xbc020147	-0.007934875
16	0xbcd97fbc	-0.026550166
17	0xbc0d3b3a	-0.008620078
18	0x3d14d92b	0.03633992
19	0xba21f893	-0.0006178703
20	0xbbcccbb1	-0.006249868
21	0xbb473c9c	-0.0030401116
22	0xbd78c2b0	-0.060732543
23	0xbc5530e3	-0.013012144
24	0x3c88fdf5	0.016722659
25	0x3c2382c1	0.009979905
26	0xbd8b3ab8	-0.06798309
27	0xbcaaac1c	-0.020834021
28	0x3c97197f	0.018444775
29	0x3c618903	0.013765576
30	0xbb7aa327	-0.003824422
31	0x3b63bf40	0.0034751445
32	0xbd62e8e9	-0.0553979
33	0xbc021ed5	-0.007941921
34	0xbbbfe627	-0.0058562937
35	0xbc016e27	-0.0078997975
36	0xbc93c54f	-0.01803842
37	0xbcf92b30	-0.030416101
38	0x3b7a6261	0.003820561
39	0x3aea3928	0.0017869817
40	0x3b19983d	0.0023436688
41	0x3c1a2368	0.009407856
42	0xbd58f640	-0.052969217
43	0x3c766c86	0.015040522
44	0xbc363fd2	-0.011123614
45	0xbcdbba7d	-0.026822323
46	0x3cd53166	0.026024532
47	0x3c01eabe	0.007929502
48	0xbbf85175	-0.00757807
49	0xba8c6085	-0.0010709917
50	0x3cbf5b0d	0.023358846
51	0x3bff2ab8	0.007787075
52	0x3c0c4c5e	0.008563129
53	0x3b3a019e	0.0028382312
54	0x3cc71d01	0.024305822
55	0x3ce9f83d	0.028560752
56	0x3b1f007c	0.0024261763
57	0x3c9d1a72	0.01917765
58	0xbc15dffe	-0.009147642
59	0x3c3d1e2a	0.011542836
60	0xbd00180f	-0.031272944
61	0x3be38dd4	0.0069443975
62	0x3ab142cf	0.0013523939
63	0xbc330d53	-0.01092847
64	0xbd7a51ba	-0.061113097
65	0xbc833556	-0.016016643
66	0x3aae4ac1	0.0013297425
67	0xbc2f3d4e	-0.0106957685
68	0xbb83c9f1	-0.004021876
69	0x3cad5695	0.02115945
70	0x3c55b733	0.013044166
71	0xbc2d6b60	-0.010584682
72	0xbc37aefe	-0.011211155
73	0xbb6efb1a	-0.0036465586
74	0x3c7637b0	0.015027925
75	0xbc1f8695	-0.009736677
76	0xbc2186e9	-0.009858825
77	0x3a900679	0.0010988257
78	0xbd7f810a	-0.06237892
79	0x396db97a	0.00022671177
80	0x3cfdc703	0.030978685
81	0xbcbf4520	-0.023348391
82	0xbbdfa631	-0.0068252315
83	0x3cae373a	0.021266568
84	0x3b53dab1	0.0032326395
85	0x3b104c34	0.0022018077
86	0x3c12c44c	0.008957934
87	0x3c915748	0.017741814
88	0xba2ed50a	-0.00066693185
89	0xb8d81666	-0.00010303855
90	0x3c7be260	0.015373796
91	0x3ac28818	0.0014841584
92	0x3c88568e	0.016642835
93	0x3c9899ea	0.01862808
94	0xbc929757	-0.01789443
95	0xbcc1075e	-0.023563083
96	0xbb16081c	-0.0022893017
97	0xbc242127	-0.01001767
98	0xbc82c599	-0.015963363
99	0x3ccd2b74	0.025045134
100	0xbc445fe2	-0.011985751
101	0xbcbb7b44	-0.022885926
102	0x3b9ccc61	0.004785106
103	0x3c8008eb	0.015629252
104	0x3ca352bd	0.019936914
105	0x3bd84439	0.0065999296
106	0xbb3deda3	-0.0028980754
107	0x3ba91fca	0.0051612603
108	0x3c3784c0	0.011201084
109	0x3bd4a7fd	0.0064897523
110	0xbc24df35	-0.010062982
111	0x3cdccb4e	0.026952412
112	0xbc94eebb	-0.018180242
113	0x3bcade4f	0.006191052
114	0xbaaaf4a0	-0.0013042875
115	0x3d1049fb	0.035226803
116	0xbca3c1f7	-0.01998995
117	0xbc8c94fe	-0.017160889
118	0xbbf2b0f3	-0.007406348
119	0xbc320b09	-0.010866889
120	0x3bf42d9f	0.0074517275
121	0xbc3c4b6d	-0.011492592
122	0x3cabdde2	0.020979825
123	0x3c92c4cc	0.017916106
124	0xb9c5f84b	-0.0003775976
125	0xbb42debf	-0.0029734818
126	0xbd3fb44e	-0.04680281
127	0xbc0e3471	-0.008679495
128	0x3dacbb15	0.084341206
129	0x3d851c9a	0.06499596
130	0x3dcf137a	0.10111137
131	0xbd2759d7	-0.040857162
132	0x3c134cd9	0.00899049
133	0x3c3a7334	0.011380006
134	0x3c6c9801	0.014440537
135	0x3db4393f	0.08799981
136	0x3c0a18c2	0.008428754
137	0x3c9aaa55	0.018880049
138	0x3c096a33	0.008387136
139	0x3c5e198e	0.013555897
140	0x3cbd7240	0.023125768
141	0x3ce1a5cb	0.027544877
142	0x3cabe34f	0.020982413
143	0xbb74ec61	-0.0037372338
144	0xbc37abf8	-0.011210434
145	0x3cde48e4	0.027134366
146	0x3dd200bd	0.10254047
147	0x3d307032	0.043075748
148	0x3c97f703	0.018550402
149	0x3e1547f7	0.14578234
150	0xbbfe8ecd	-0.007768488
151	0x3ca80c89	0.02051379
152	0x3d02843e	0.031864397
153	0x3ba06c07	0.0048956904
154	0xbd39058d	-0.04517131
155	0x3cfc2810	0.030780822
156	0xbdd912b0	-0.105992675
157	0x3df3ec24	0.119102746
158	0x3c833e7e	0.01602101
159	0x3bd5fcc6	0.006530377
160	0xbc86f11c	-0.016472392
161	0xbaacd3ed	-0.0013185717
162	0x3df1f6ed	0.118146755
163	0x3df8d742	0.12150432
164	0x3c699a77	0.014258019
165	0x3df9fa44	0.122059375
166	0x3c685ead	0.014182729
167	0x3be535c2	0.006994934
168	0x3cc3090a	0.023808021
169	0x3e06d55e	0.1316733
170	0x3cfe9670	0.031077594
171	0x3c12bb6b	0.008955817
172	0x3c8aada5	0.016928503
173	0xbb9e86ba	-0.004837838
174	0x3dbf550e	0.09342395
175	0xbc4563d7	-0.012047729
176	0x3addc0f6	0.0016918469
177	0x3c05afa9	0.008159556
178	0x3d443dd7	0.047910538
179	0x3cb84b6f	0.022496907
180	0x3e1505ba	0.14552966
181	0x3dced8d6	0.10099952
182	0xbb09eb09	-0.0021044633
183	0x3d85bfb9	0.06530709
184	0xbc5ec896	-0.013597628
185	0x3c913456	0.017725151
186	0x3c6e865a	0.014558399
187	0x3cbd4e74	0.023108698
188	0xbb041183	-0.002015204
189	0x3d861437	0.065468244
190	0xbb48d908	-0.0030646939
191	0x3d36a76d	0.044593263
192	0xbb32c0bc	-0.0027275523
193	0x3caa1e0c	0.02076628
194	0xbb471505	-0.003037752
195	0x3e07c076	0.13257012
196	0xbace7130	-0.0015750285
197	0x3d80302a	0.062591866
198	0xbd558c21	-0.05213559
199	0x3b1830a4	0.0023222351
200	0x3df4b2a2	0.11948134
201	0x3e14439a	0.14478913
202	0xbd92243f	-0.0713582
203	0x3af1adf6	0.0018438685
204	0x3b232910	0.0024896301
205	0x3c6cbefa	0.014449829
206	0xbd2661d9	-0.04062066
207	0x3bb05fc3	0.0053825094
208	0x3cf5c7f4	0.030002572
209	0xbc69f73f	-0.0142801395
210	0x3d8612ed	0.065465786
211	0x3c448b4e	0.011996103
212	0x3c25939a	0.010105992
213	0x3c81b932	0.015835378
214	0x3d2e9d1e	0.042630307
215	0x3baac0da	0.005210978
216	0xbb5d6296	-0.0033780686
217	0x3a40062f	0.000732514
218	0xbb1ab96f	-0.0023609062
219	0xba2c67b8	-0.00065767346
220	0x3d0245c9	0.031804834
221	0x3ca69d05	0.020338545
222	0x3be1edc8	0.006894801
223	0x3df6eccf	0.120568864
224	0x3d90043b	0.07032057
225	0x3e0c9eb6	0.13732418
226	0x3db25225	0.08707074
227	0xbe06dd4f	-0.1317036
228	0x392c2580	0.00016417168
229	0x3de73ca3	0.112908624
230	0xbd8d021f	-0.0688517
231	0xbbe23694	-0.006903479
232	0x3c0bd36d	0.008534295
233	0x3cdb707d	0.026787037
234	0xba8bb6a8	-0.0010659294
235	0xbafbc862	-0.0019209499
236	0x3c4eee87	0.012630112
237	0x3c22a47d	0.009926912
238	0x3cbc89a6	0.023014855
239	0xbe1a2db9	-0.15056504
240	0xbbb1c286	-0.0054248003
241	0x3cff76a3	0.0311845
242	0x3dcf0db4	0.101100355
243	0x3d9380c3	0.07202294
244	0x3d8e7d9a	0.0695755
245	0x3dfb02b0	0.12256372
246	0x3bb2eb21	0.0054601585
247	0x3c1957b1	0.009359286
248	0x3cede75e	0.029040989
249	0x3d2dbf75	0.042418916
250	0xbba46609	-0.0050170464
251	0xbca2cca7	-0.019872976
252	0x3e00ec61	0.12590171
253	0xbb6c04b4	-0.0036013545
254	0x3dc4063a	0.095715
255	0x3d1235c2	0.0356958

action_model._discrete_distribution.branches.0.bias f4 [3]
0	0xbba214e6	-0.004946339
1	0xbd886f33	-0.066618346
2	0x3da4cdbe	0.08047055

action_model._discrete_distribution.branches.1.weight f4 [2, 128]
0	0xbc2fd25e	-0.010731308
1	0xbcbedae1	-0.023297729
2	0x3c26d1c7	0.010181851
3	0x38debacf	0.00010620581
4	0xba8dd23d	-0.0010820102
5	0x3baca48d	0.0052686394
6	0xbb92f0b8	-0.0044842623
7	0xbb190a7a	-0.0023352192
8	0x3b3e68dd	0.0029054203
9	0xb9f3c686	-0.00046496483
10	0xbc81c865	-0.015842626
11	0x3c0b59d0	0.0085053
12	0x3ad04b86	0.0015891648
13	0xbb86ab02	-0.004109741
14	0x3c761b35	0.015021135
15	0x3b413dee	0.0029486376
16	0xbc5f267e	-0.013620017
17	0x3b0988f1	0.0020986164
18	0xbc11f4d7	-0.008908472
19	0xbcaafb7d	-0.020871872
20	0xbaaf1009	-0.0013356219
21	0xbd21b444	-0.039478555
22	0xbc5a701f	-0.013332396
23	0x3c43fd68	0.011962272
24	0x3b800f44	0.00390807
25	0x38c15650	9.219034e-05
26	0xbc9c45f9	-0.019076334
27	0x3c35b619	0.011090779
28	0xbc281421	-0.010258705
29	0xbab7d456	-0.0014025073
30	0xbb59d6be	-0.0033239569
31	0xbc5ea9d6	-0.013590297
32	0xbc3be801	-0.011468888
33	0xbba35a33	-0.004985118
34	0x3c229361	0.009922833
35	0x3be0a1d7	0.0068552303
36	0xbccb21db	-0.024796417
37	0xbcaa00ce	-0.020752337
38	0xbb23299c	-0.0024896627
39	0xbc3eb09f	-0.011638789
40	0xbc38fdd0	-0.011290982
41	0xbc8bf650	-0.017085224
42	0xbd07d9b8	-0.033166617
43	0xbb3508f1	-0.0027623738
44	0x3c1b5967	0.009481764
45	0xbc8009d7	-0.015629692
46	0xbc623e24	-0.013808761
47	0xbb2307ca	-0.0024876469
48	0xbc5e7d3e	-0.013579665
49	0x3b901f1a	0.004398239
50	0xbb79e472	-0.0038130549
51	0xbb52cd58	-0.0032165851
52	0xbc31f8c9	-0.010862538
53	0xbc2ef102	-0.010677578
54	0x3bb02c63	0.005376385
55	0x3b0cacab	0.0021465223
56	0x3cb2e21c	0.021836333
57	0xbabd6e36	-0.0014452401
58	0x3c038ba6	0.0080289
59	0xbc88cbb0	-0.016698688
60	0xbc84a4d0	-0.01619187
61	0xbc5811b4	-0.0131878145
62	0xbc059c5a	-0.008154953
63	0x3bda4a33	0.0066616773
64	0xbcf5efa7	-0.030021502
65	0xbc8c4fc1	-0.017127873
66	0xbbed9ff1	-0.0072517325
67	0xbbe84324	-0.007088082
68	0xbb6d8a25	-0.003624567
69	0xbb944f1a	-0.004526031
70	0xbc73f3ca	-0.014889667
71	0xbc220186	-0.0098880585
72	0xbc28c063	-0.010299775
73	0xbce5d8fc	-0.028057568
74	0xbc931ee2	-0.017959062
75	0xbcb7b091	-0.02242306
76	0x3c59596b	0.013265948
77	0x3c4240d6	0.011856278
78	0xbc327ff6	-0.010894766
79	0x3bf86b8b	0.0075811795
80	0xbca2fba9	-0.019895392
81	0xbca2c62b	-0.019869884
82	0xbc2089b8	-0.00979846
83	0xbb741f46	-0.0037250086
84	0x3a88283c	0.0010387967
85	0x3b1598af	0.0022826602
86	0xbc59002b	-0.013244669
87	0xbc746d46	-0.014918631
88	0xbb26e012	-0.0025463146
89	0xbb785028	-0.0037889574
90	0xbaa91226	-0.0012899085
91	0xbb8e0124	-0.004333632
92	0xbc175573	-0.009236681
93	0xbb0330ef	-0.002001818
94	0xbadd5eb7	-0.0016889189
95	0xbc28e87c	-0.010309335
96	0x3c18691b	0.009302403
97	0xbd061f9f	-0.032745
98	0xbb8fbfad	-0.004386863
99	0x3bb098bc	0.005389301
100	0x3c48b54c	0.012250256
101	0xbc2192fe	-0.009861706
102	0xbbdcbd24	-0.0067364145
103	0x3ab45eca	0.001376116
104	0xbc3211c0	-0.01086849
105	0x3be4d24c	0.006983077
106	0xbbff7586	-0.0077959923
107	0xbc85fca0	-0.016355813
108	0x3c3ca1e5	0.011513208
109	0x3b71451c	0.0036814874
110	0x3b447999	0.0029979704
111	0xbc65b951	-0.014021234
112	0xbc4929e0	-0.01227805
113	0xbc0da6aa	-0.008645693
114	0x3c031413	0.008000392
115	0xbcc75dba	-0.024336684
116	0xbab6f4b4	-0.0013958425
117	0xba398f32	-0.00070785277
118	0x3b530386	0.0032198145
119	0x3b551305	0.0032512557
120	0x3c91a1cf	0.017777352
121	0xbb6aec9a	-0.0035846592
122	0x3b87dc81	0.004146159
123	0xbbcad469	-0.006189872
124	0xbbd3838e	-0.0064548915
125	0x3be8becc	0.007102823
126	0x3ca0ad8c	0.019614004
127	0x3c2f96cc	0.010717105
128	0x3c142841	0.0090428
129	0x3bf245e4	0.0073935855
130	0x3c698750	0.014253452
131	0x3b58c1a3	0.00330744
132	0xbb416d45	-0.0029514593
133	0xbbb401eb	-0.0054933927
134	0xbb907794	-0.004408786
135	0x3d016a96	0.03159579
136	0xbc512288	-0.012764581
137	0xbc54c413	-0.012986201
138	0xbb7a429f	-0.0038186682
139	0x3b8e1295	0.0043357112
140	0x3c8a2835	0.016864875
141	0x3c8760f5	0.016525725
142	0x3b8a07d7	0.0042123604
143	0x3c92e741	0.017932536
144	0x3c2c827f	0.01052916
145	0xbb200fec	-0.0024423553
146	0x3ce96f13	0.028495347
147	0x3c831b79	0.01600431
148	0xbb90b30e	-0.004415876
149	0x3c1685fb	0.009187217
150	0x3c792c70	0.015208349
151	0x3b9828b6	0.004643525
152	0x3c7071ae	0.014675541
153	0xbb2158e6	-0.0024619638
154	0x3a03a3ba	0.00050216506
155	0x3c2e2ffe	0.010631559
156	0x3c00ff14	0.007873315
157	0x3ce28ea3	0.027655905
158	0xbc57c6bb	-0.01316994
159	0x3972e796	0.00023165191
160	0x3c31d4e8	0.010853983
161	0x3befe694	0.007321188
162	0x3c939143	0.018013602
163	0x3c7b0f9f	0.015323549
164	0x3cc300d8	0.023804113
165	0x3c0357d9	0.00801655
166	0x3ba980f1	0.0051728417
167	0xbb908ee7	-0.0044115665
168	0x3b868039	0.004104641
169	0xb9d7abdb	-0.00041136038
170	0x3caf97ec	0.021434747
171	0x3b2d3692	0.0026430232
172	0x3bc20cc3	0.0059219315
173	0x3c1fda52	0.009756641
174	0x3bd727b5	0.0065660127
175	0x3b71c07c	0.0036888411
176	0x3b16d9d5	0.0023018022
177	0xbbd2c1c4	-0.00643179
178	0x3ce3d87e	0.027813192
179	0x3a4f33d5	0.0007904147
180	0x3cb0709d	0.021538073
181	0x3cb7b1dd	0.022423679
182	0xbb9ff699	-0.0048816917
183	0x3c61250d	0.013741744
184	0xbb9c428a	-0.0047686743
185	0x3c4f93cf	0.012669518
186	0x3c8ba80c	0.017047904
187	0xbb1b9342	-0.0023738896
188	0xbb19a3d3	-0.0023443594
189	0xba4172c9	-0.000737947
190	0x3b2ca46f	0.0026343127
191	0x3be930a1	0.0071163927
192	0x3c5042cc	0.012711238
193	0x3c8504fe	0.016237732
194	0xbafc2d83	-0.0019239638
195	0x3c816cc7	0.01579894
196	0xbb86d9e2	-0.004115329
197	0x3c1161ab	0.0088733835
198	0x3bc1ab15	0.005910287
199	0x3cb7faa3	0.02245838
200	0x3c974ce4	0.018469281
201	0x3d1f02ae	0.038820915
202	0xbbbf8ad1	-0.0058454056
203	0x3c0addd6	0.008475741
204	0x3c120cf5	0.008914222
205	0x3b6b7bc9	0.0035931936
206	0x3b6a7407	0.0035774724
207	0xbab26288	-0.0013609687
208	0x3a722352	0.00092368305
209	0x3c01f8e7	0.007932878
210	0x3c75b3ce	0.014996482
211	0x3c995a07	0.018719686
212	0xbc1e54d9	-0.009663784
213	0xbb118589	-0.0022204837
214	0x3caa7ac9	0.020810502
215	0xbc251442	-0.010075631
216	0x3b459532	0.0030148742
217	0xbb3126bf	-0.002703115
218	0xbb48aa1b	-0.003061897
219	0xba8b7bf0	-0.0010641795
220	0x3c6da1c3	0.014503899
221	0x3c1b51f7	0.009479991
222	0x3a59b9cb	0.00083055784
223	0x3bcfbe99	0.0063398597
224	0xbb81b99c	-0.003958894
225	0x3c65bd76	0.014022222
226	0x3c7bed7d	0.015376446
227	0x3c229a29	0.00992445
228	0xbb64d14e	-0.0034914794
229	0x3c8edaf1	0.017438384
230	0x3c2c2c02	0.010508539
231	0x3c7b5939	0.015341097
232	0xbab56eea	-0.0013842259
233	0x3b1af053	0.002364178
234	0xbba7545b	-0.0051064915
235	0xba188b08	-0.0005819057
236	0x3c5b8689	0.013398775
237	0x3bc06b61	0.0058721756
238	0x3b2f56d9	0.0026754646
239	0xb9075431	-0.00012905967
240	0x3c0bf63f	0.008542596
241	0xbc1e956e	-0.0096791815
242	0x3c6c531d	0.014424113
243	0x3cb81c95	0.022474566
244	0x396d06a0	0.0002260455
245	0x3cc193a8	0.023629978
246	0xbb114966	-0.0022168993
247	0x3b50e0b5	0.0031872217
248	0x3c4d7cf2	0.012541996
249	0xba82e883	-0.0009987507
250	0x3c3fae00	0.0116992
251	0xbc0b63df	-0.008507698
252	0x38a2b174	7.757815e-05
253	0xbbe69353	-0.0070366054
254	0xbc1cf365	-0.009579514
255	0x3c442329	0.011971273

action_model._discrete_distribution.branches.1.bias f4 [2]
0	0x3c41c7d3	0.011827427
1	0xbc41c808	-0.011827476

q1_network.network_body._body_endoder.seq_layers.0.weight f4 [128, 6]
0	0x3f4679f4	0.77529836
1	0xbe44ebc1	-0.19230558
2	0xbe863b76	-0.2621724
3	0xbf514247	-0.81741756
4	0x3f10d187	0.56569713
5	0x3e2837ab	0.16427486
6	0xbf1f5fa7	-0.6225533
7	0xbe4529a4	-0.19254166
8	0xbe185e81	-0.148798
9	0xbefdc202	-0.4956208
10	0x3eee8800	0.46588135
11	0xbea41fa7	-0.320554
12	0x3eec99e1	0.4621115
13	0xbcfc12ae	-0.030770626
14	0x3f9739fc	1.181457
15	0x3e473949	0.19455446
16	0xbe167adb	-0.14695303
17	0xbd5f38b2	-0.05449743
18	0x3f35bb55	0.7098897
19	0x3ed9225e	0.42409033
20	0xbfb0f8dd	-1.3825947
21	0x3e98eff3	0.29870567
22	0x3efe2b99	0.49642637
23	0xbc91d012	-0.017799411
24	0x3eb1951a	0.34684068
25	0xbefd7756	-0.4950511
26	0x3eec6f35	0.46178594
27	0xbdc89bf1	-0.097953685
28	0xbf1d1ac1	-0.6136895
29	0x3e1b0f21	0.1514249
30	0xbe5321d8	-0.20618379
31	0x3edd01ef	0.43165538
32	0xbe679cf0	-0.2261846
33	0x3e141fde	0.14465281
34	0xbed84daa	-0.42246753
35	0xbe3ef19e	-0.18646857
36	0xbca90253	-0.020630991
37	0xbed75762	-0.42058855
38	0x3c049512	0.008092182
39	0x3f19f20c	0.6013496
40	0x3e721367	0.23640214
41	0xbfaabea6	-1.3339431
42	0xbdf158fe	-0.11784552
43	0x3f2396d4	0.6390202
44	0xbf454581	-0.7705918
45	0x3e940ce5	0.28916088
46	0x3d665a29	0.056238327
47	0xbc62a864	-0.013834093
48	0xbe0af27f	-0.13569067
49	0xbf17125e	-0.590124
50	0xbdf8d924	-0.12150791
51	0xbe8466c6	-0.2585966
52	0xbe8cd4b9	-0.27506045
53	0x3e9ac163	0.30225667
54	0x3e272834	0.1632393
55	0xbda222d1	-0.07916797
56	0xbf5f16ac	-0.8714397
57	0x3ec757a9	0.38934067
58	0x3d7faf53	0.06242306
59	0xbd2fd3c4	-0.042926565
60	0xbcd99952	-0.026562367
61	0x3d9bf3f7	0.07614892
62	0xbd0f0d5a	-0.034924842
63	0x3cdd56b9	0.027018892
64	0xbdadaedb	-0.08480617
65	0x3e557041	0.20843603
66	0xbf0411ba	-0.5158955
67	0x3eaa6dd4	0.33286917
68	0x3dcdb811	0.100448735
69	0xbe3f58e3	-0.18686251
70	0x3f677b01	0.90422064
71	0x3f0619ef	0.5238332
72	0xbe466dfb	-0.19377892
73	0x3f90ac6c	1.1302619
74	0xbecb8b10	-0.39754534
75	0x3ec29539	0.38004473
76	0x3ec624c6	0.3869993
77	0xbec9a314	-0.3938223
78	0xbdc89a7f	-0.09795093
79	0xbee85efc	-0.45384967
80	0xbed93332	-0.4242187
81	0xbd24ddc2	-0.040250547
82	0x3dc41932	0.09575118
83	0xbebfdb31	-0.37471917
84	0xbc9c7a22	-0.019101206
85	0x3f11d1f3	0.5696098
86	0xbe54b022	-0.20770314
87	0xbd2c4064	-0.042053595
88	0xbef9dd74	-0.48801768
89	0x3df9b925	0.12193517
90	0x3ee0dda7	0.43919107
91	0x3eb795e1	0.35856536
92	0xbe8e8c94	-0.27841628
93	0x3ebeeea0	0.3729143
94	0xbec9eef9	-0.39440134
95	0xbe01d6c7	-0.12679587
96	0x3eab8c78	0.33505607
97	0x3e66dfeb	0.22546355
98	0x3e624298	0.22095716
99	0x3f88500f	1.0649432
100	0x3f2bf921	0.67177016
101	0x3f8a4a87	1.0803994
102	0xbdf45a9d	-0.119313456
103	0x3efba2c7	0.49147627
104	0x3dae5836	0.08512919
105	0x3b05d4b4	0.002042097
106	0xbcb2a5aa	-0.02180751
107	0xbe0d5607	-0.13802348
108	0x3ee6ea86	0.45100802
109	0x3e859abd	0.26094618
110	0x3f7e3602	0.9930116
111	0x3eb81ed0	0.35961008
112	0x3e14e86e	0.1454179
113	0xbe3da796	-0.1852096
114	0xbf001511	-0.50032145
115	0xbe391654	-0.18074924
116	0x3e93f9b1	0.28901437
117	0x3cf263dc	0.029588632
118	0xbb5c2ad2	-0.0033594859
119	0x3e7f1346	0.24909696
120	0xbe275442	-0.16340736
121	0x3db2b4fc	0.08725926
122	0xbef74a5d	-0.48298922
123	0xbc669ae6	-0.014075017
124	0xbf19bfff	-0.6005859
125	0xbeb5692b	-0.354318
126	0xbdb2e60f	-0.087352864
127	0xbd85ec65	-0.06539229
128	0x3cd162ce	0.025559809
129	0xbed737dd	-0.42034808
130	0x3d7f829c	0.06238042
131	0x3d1eff22	0.038817532
132	0xbed1be76	-0.40965623
133	0x3ec6b382	0.3880883
134	0xbbf9d6ab	-0.0076244674
135	0xbdeac471	-0.114632495
136	0xbc5844e2	-0.013200017
137	0x3f1df5f3	0.61703414
138	0xbe92b0f9	-0.28650644
139	0xbf9aef56	-1.210429
140	0x3cd65900	0.026165485
141	0xbea8e4fb	-0.32987198
142	0xbe8b9c86	-0.27267855
143	0xbef0c6f6	-0.47026795
144	0xbe81ed8c	-0.25376546
145	0x3e7b64c8	0.24550164
146	0xbf1516fb	-0.5823819
147	0x3f63a9d2	0.88931
148	0x3f108b04	0.5646212
149	0xbf225f34	-0.6342652
150	0xbd129b89	-0.03579286
151	0xbc32e6b5	-0.010919263
152	0xbe1462fa	-0.14490882
153	0xbf09e432	-0.53863823
154	0xbec91624	-0.39274704
155	0x3df3ebd4	0.11910215
156	0xbf339e46	-0.7016338
157	0xbf95316b	-1.1655706
158	0x3e9a1555	0.300944
159	0xbdc785b1	-0.097422965
160	0x3f000f96	0.5002378
161	0xbe952fb5	-0.2913796
162	0xbdde46d0	-0.1085335
163	0xbebfae42	-0.37437636
164	0x3cac3eec	0.021026097
165	0xbeab28ae	-0.33429474
166	0x3dfd826e	0.12378393
167	0x3d8dbd81	0.069209106
168	0xbf0ab8a1	-0.5418797
169	0xbe9148f3	-0.28375968
170	0xbdebfc20	-0.115226984
171	0xbde63f6f	-0.11242568
172	0x3e33f4a2	0.17573789
173	0x3ea5e0ae	0.3239798
174	0xbe833869	-0.25628975
175	0x3eba80a4	0.3642627
176	0xbd0ebdf9	-0.03484914
177	0x3e8e5648	0.27800202
178	0xbf1edd85	-0.6205676
179	0x3d04f049	0.032455716
180	0xbded1efc	-0.115781754
181	0xbf00b68d	-0.5027855
182	0x3f099717	0.5374617
183	0xbe5d2397	-0.21595608
184	0x3efc5bf1	0.49288896
185	0xbe7e1b79	-0.24815167
186	0xbca7a52e	-0.020464506
187	0x3df97706	0.12180905
188	0xbef44f92	-0.47716957
189	0xbf87d5a3	-1.0612072
190	0xbe039b33	-0.12852173
191	0xbee1f552	-0.44132477
192	0xbe3c6626	-0.18398342
193	0x3e36926c	0.17829293
194	0xbf245ff7	-0.6420893
195	0x3cb43164	0.021996208
196	0x3ebc8550	0.3682046
197	0xbf5bdf46	-0.85887563
198	0x3e992aa5	0.29915348
199	0x3fc32f18	1.5248747
200	0xbef1094d	-0.47077408
201	0x3ee37f58	0.44433093
202	0x3e3fb4ea	0.18721357
203	0x3e3c8d19	0.184132
204	0xbea66f49	-0.3250678
205	0x3e952f5e	0.291377
206	0x3e9efce6	0.3105232
207	0x3cd17be1	0.025571765
208	0x3e811802	0.2521363
209	0xbdb922f5	-0.09039871
210	0xbf10fb6a	-0.5663363
211	0x3f0f464d	0.55966645
212	0xbd6dd05e	-0.058060043
213	0xbe85e78c	-0.2615322
214	0xbf8a6810	-1.0813007
215	0xbecc8da6	-0.3995182
216	0xbf0c2e6d	-0.5475834
217	0x3f243a38	0.64151335
218	0xbdc93156	-0.09823863
219	0xbd4ee52b	-0.05051152
220	0x3f1932d0	0.5984316
221	0xbe72b6a7	-0.23702489
222	0x3d9de586	0.07709794
223	0xbc9731ba	-0.018456329
224	0x3f6f4bb6	0.934749
225	0x3f85ab0e	1.0442827
226	0xbeab1be3	-0.33419713
227	0x3f1b18ac	0.6058452
228	0xbd885468	-0.06656724
229	0xbd501207	-0.050798442
230	0x3f4328e8	0.76234293
231	0x3ef3f6da	0.4764927
232	0x3e168a63	0.14701228
233	0xbee43b9b	-0.44576725
234	0xbf40eba7	-0.75359577
235	0x3ed48435	0.41507116
236	0xbdf36ca4	-0.11885956
237	0x3eb74f7d	0.35802832
238	0xbf3274b6	-0.69709337
239	0x3df7fedf	0.1210916
240	0xbf454677	-0.77060646
241	0xbf14874a	-0.58018935
242	0x3f21ecfa	0.6325222
243	0x3ea01288	0.31264138
244	0xbe38c9ec	-0.18045777
245	0x3ebe15a8	0.37125897
246	0x3ec36036	0.3815934
247	0x3f0a4b5c	0.5402124
248	0x3ee4df7a	0.4470175
249	0x3e0f1032	0.13971022
250	0x3f0c1859	0.5472465
251	0x3f2d003c	0.6757848
252	0xbe0784c3	-0.13234238
253	0xbebd7ec1	-0.37010768
254	0xbe976b38	-0.2957399
255	0xbe2455ef	-0.16048406

q1_network.network_body._body_endoder.seq_layers.0.bias f4 [128]
0	0xbd070ec4	-0.032973066
1	0xbe92a6c0	-0.28642845
2	0xbbe2ea60	-0.0069249123
3	0x3d7a3cf3	0.061093282
4	0x3c74aec8	0.014934249
5	0xbe8a3fe2	-0.27001864
6	0xbe1e780b	-0.1547548
7	0xbe85e419	-0.26150587
8	0xbe8b7ade	-0.27242178
9	0x3c8c4616	0.017123263
10	0xbd95eac9	-0.07320172
11	0x3e9fe7d6	0.31231564
12	0x3e7d7e3c	0.24755186
13	0xbe49551b	-0.19661371
14	0xbe48c8ac	-0.196078
15	0x3d3667be	0.04453253
16	0x3d0fc875	0.03510328
17	0x3e9bf147	0.30457518
18	0x3d2b5a04	0.041833892
19	0x3ecae327	0.39626428
20	0xbe89e1d5	-0.2693011
21	0xbe6d8d96	-0.23198542
22	0xbe827705	-0.2548143
23	0xbea6c4ba	-0.32571965
24	0xbe9d1e50	-0.3068719
25	0x3e7f1577	0.24910532
26	0xbe8d7c13	-0.27633724
27	0xbe89f710	-0.26946306
28	0x3e8d13ea	0.27554256
29	0xbe6eeece	-0.23333284
30	0xbe8f5859	-0.2799709
31	0xbccbfc64	-0.024900623
32	0xbe86eaef	-0.26351115
33	0xbd582d8c	-0.052777812
34	0xbe94466a	-0.28959972
35	0x3ea9909e	0.33118147
36	0x3eaaeb4c	0.33382642
37	0x3d31275f	0.043250438
38	0xbe5f91a9	-0.21832909
39	0xbe83ab59	-0.25716665
40	0x3e944464	0.28958428
41	0x3dd1c04a	0.10241754
42	0xbe95f6b0	-0.2928977
43	0x3e59a7a8	0.21255362
44	0xbe614a3e	-0.22000977
45	0xbce50a82	-0.027959112
46	0xbe8c694e	-0.2742409
47	0xbe815b2d	-0.25264874
48	0x3d30c0fa	0.043152787
49	0xbe923500	-0.2855606
50	0x3e861c54	0.26193488
51	0x3e97dbb4	0.29659808
52	0x3d7a7596	0.061147295
53	0x3d2066f2	0.039160676
54	0xbe880281	-0.2656441
55	0x3e973538	0.2953279
56	0xbea29a3d	-0.317583
57	0xbea41275	-0.32045332
58	0x3d058238	0.03259489
59	0xbe93704a	-0.28796607
60	0xbc1979c5	-0.009367411
61	0xbc5dd9f8	-0.013540737
62	0xbe9cbbf5	-0.3061215
63	0xbc042e7d	-0.008067724
64	0xbe74b7ed	-0.23898287
65	0x3d4854ab	0.04890887
66	0xbe9496d0	-0.2902131
67	0xbe6c6b7c	-0.23087877
68	0x3e5c765e	0.21529528
69	0xbe868216	-0.26271123
70	0xbb060a41	-0.002045289
71	0x3e8b5db6	0.27219933
72	0x3eac9fb3	0.3371559
73	0x3cd002d0	0.025391966
74	0xbde969bf	-0.113971226
75	0x3ddf0eba	0.10891481
76	0xbe5f2360	-0.21790838
77	0xbcea7a65	-0.028622815
78	0xbea01456	-0.31265515
79	0x3d72026a	0.059084333
80	0x3e042f2d	0.12908621
81	0x3d8f1b5c	0.0698764
82	0x3d1feff7	0.039047208
83	0xbe8e6a43	-0.27815446
84	0x3eacd7d3	0.3375841
85	0xbeb6a338	-0.356714
86	0x3e285869	0.16439976
87	0xbe6f3713	-0.23360853
88	0xbc22ad0b	-0.009928952
89	0xbe79bdf2	-0.24388865
90	0x3d1620b5	0.036652286
91	0x3e172bb0	0.14762759
92	0xbe9afb4b	-0.30269846
93	0x3d971da4	0.073787004
94	0xbcaa8a30	-0.020817846
95	0xbe6647e1	-0.22488357
96	0x3d1266bc	0.035742506
97	0x3d2151aa	0.03938452
98	0x3d4f9ef9	0.050688718
99	0x3d0491e3	0.03236569
100	0xbd0344aa	-0.032047905
101	0xbd472c1d	-0.048626054
102	0xbce0fbb9	-0.02746378
103	0xbd11bf12	-0.03558261
104	0x3e9290f7	0.28626224
105	0xbe8619fd	-0.26191702
106	0xbcdc7bae	-0.026914444
107	0xbe8e51c9	-0.27796772
108	0x3e6a4e31	0.2288139
109	0xbc8678fa	-0.016415108
110	0xbe8f3b62	-0.27974993
111	0xbd02701e	-0.031845205
112	0xbe8a1e98	-0.26976466
113	0xbe24ac86	-0.16081437
114	0xbc2cb77d	-0.010541794
115	0x3cd96088	0.026535287
116	0x3d0b8312	0.034060545
117	0xbe92fe0f	-0.28709456
118	0xbe8fbfe9	-0.28076103
119	0xbe5eebdd	-0.21769662
120	0xbcd07e9a	-0.025450993
121	0x3d33ec30	0.043926418
122	0xbca11b22	-0.019666258
123	0xbe6b3864	-0.2297073
124	0x3d7d287e	0.061806194
125	0x3caeeefb	0.02135419
126	0x3e9f462b	0.3110822
127	0x3d6d88fc	0.057991967
