results/first/SpaceInvaders/SpaceInvaders-5467.onnx (onnx, 77862 bytes, 9 tensors)

discrete_act_size_vector f4 [1, 2]
0	0x40400000	3.0
1	0x40000000	2.0

network_body._body_endoder.seq_layers.0.weight f4 [128, 3]
0	0xbf07f435	-0.53107005
1	0x3f32e667	0.69882816
2	0x3f922971	1.1418897
3	0xbe29d862	-0.1658645
4	0x3f78665a	0.97031176
5	0xbe65c787	-0.22439395
6	0xbe4b62b4	-0.19861871
7	0x3f3bcb8f	0.7335748
8	0x3f3b7e1d	0.7323931
9	0xbdb4d726	-0.08830099
10	0x3ed5d83f	0.41766545
11	0x3f95bb81	1.1697847
12	0xbe30c59b	-0.1726288
13	0x3e416b93	0.18888693
14	0xbe4fc439	-0.20289697
15	0xbebd7528	-0.37003446
16	0x3dd4c76b	0.103895985
17	0x3cbaea0f	0.022816686
18	0xbe97ccd3	-0.29648456
19	0xbd825ce6	-0.06365375
20	0xbe89ed1a	-0.26938707
21	0xbe7c30f5	-0.2462805
22	0x3dfd7ec2	0.12377693
23	0x3f3cfd12	0.73823655
24	0xbe35d3be	-0.17756554
25	0x3e7c1cc8	0.24620354
26	0xbe512336	-0.20423588
27	0xbe11187a	-0.14169493
28	0xbe4aa35c	-0.19788879
29	0xbe26b7f1	-0.16281106
30	0x3f665dec	0.89987063
31	0xbf33d736	-0.7025026
32	0x3ee23b5f	0.44185922
33	0x3ef65b8c	0.4811672
34	0xbf362395	-0.71148044
35	0x3e13b805	0.14425667
36	0xbda17ba3	-0.0788491
37	0xbf5512b1	-0.83231646
38	0xbf5e0eb6	-0.867412
39	0x3f402b69	0.7506624
40	0xbdcf6751	-0.10127128
41	0xbd1d05ce	-0.038335614
42	0x3f1ed22b	0.6203944
43	0xbea30893	-0.3184248
44	0xbf2b9740	-0.67027664
45	0x3f312de4	0.6921065
46	0x3e36c25e	0.17847583
47	0x3efe5096	0.49670857
48	0xbd803a0c	-0.062610716
49	0xbe21ac1f	-0.15788315
50	0x3f9ad15d	1.2095143
51	0x3d71da44	0.059046045
52	0xbf231901	-0.6371003
53	0xbd635bbb	-0.055507403
54	0xbea0789b	-0.31342015
55	0xbf2833f8	-0.657043
56	0xbe97586b	-0.29559645
57	0x3f113cc0	0.5673332
58	0xbee507e6	-0.4473259
59	0x3df15ee8	0.1178568
60	0x3e3d9f5d	0.18517824
61	0x3cced036	0.025245767
62	0xbfa920b6	-1.3213108
63	0xbe88cdcb	-0.26719508
64	0x3f7cd2cf	0.9875917
65	0xbea71ca1	-0.3263903
66	0xbf6cd545	-0.92512923
67	0xbe95acbc	-0.29233348
68	0x3dbfe111	0.093691
69	0x3df44249	0.119267054
70	0xbed97b9e	-0.42477125
71	0x3f770791	0.9649592
72	0xbe6ff2e2	-0.23432496
73	0x3f4c8505	0.7989047
74	0xbe8819d6	-0.2658221
75	0xbfb4b2a3	-1.4117016
76	0x3cbf700b	0.023368856
77	0x3e4fe480	0.2030201
78	0x3fb4dab0	1.4129238
79	0x3dc9a6a0	0.09846234
80	0xbe8b999c	-0.27265632
81	0xbe975551	-0.2955728
82	0xbef948e0	-0.48688412
83	0x3eb30a89	0.34968975
84	0xbed9b9d6	-0.42524594
85	0xbec7c274	-0.39015543
86	0xbed1bb9a	-0.4096344
87	0xbd9c0a57	-0.0761916
88	0xbe90778e	-0.28216213
89	0x3e845200	0.2584381
90	0x3e40824b	0.18799703
91	0x3e2dcde9	0.1697308
92	0x3e23e7e7	0.16006432
93	0xbed65885	-0.4186441
94	0xbf22900e	-0.6350106
95	0xbecba7b3	-0.39776382
96	0x3ed38f38	0.41320205
97	0xbf836967	-1.0266541
98	0x3eb97a1e	0.3622598
99	0xbe699997	-0.22812496
100	0x3d4bec1b	0.049785715
101	0x3eb66913	0.3562704
102	0x3e40343e	0.18769929
103	0x3b366382	0.0027830307
104	0x3eb34bdd	0.35018817
105	0x3e8a1aa9	0.26973465
106	0xbee4db83	-0.44698724
107	0x3eedfa03	0.46479806
108	0xbecf472f	-0.40483996
109	0x3f765276	0.96219575
110	0x3f33168e	0.6995629
111	0x3de5727d	0.112034775
112	0xbd94fad4	-0.07274404
113	0x3e95cf69	0.29259804
114	0xbe929c8c	-0.2863506
115	0x3e3f31ca	0.18671337
116	0xbe8dc760	-0.27691174
117	0x3ec66ec1	0.38756374
118	0xbee24b9e	-0.44198316
119	0xbe62a68c	-0.22133845
120	0x3d4bbad4	0.04973872
121	0xbf382528	-0.71931696
122	0x3e24563d	0.16048522
123	0x3eeca013	0.46215877
124	0xbec33775	-0.38128248
125	0x3ea7694a	0.32697517
126	0x3efdaa1e	0.49543852
127	0x3ed46eaf	0.41490695
128	0x3f108e58	0.564672
129	0xbed18673	-0.4092289
130	0x3ef20dec	0.47276247
131	0xbedd75e1	-0.43253997
132	0x3eabb7b1	0.33538583
133	0xbf27cbf9	-0.6554561
134	0x3eaad2a3	0.33363828
135	0x3ea54600	0.32279968
136	0xbddfc574	-0.10926333
137	0xbf024075	-0.50879604
138	0x3f535d86	0.8256458
139	0x3edbbd4d	0.42917863
140	0xbecd9239	-0.40150622
141	0xbe959e3d	-0.2922229
142	0x3eea99d9	0.458205
143	0x3f9d0b7a	1.2269127
144	0xbe1dea27	-0.15421353
145	0x3ecbd1ad	0.39808407
146	0xbe3ec89e	-0.18631217
147	0xbe3dcf76	-0.18536171
148	0x3ee0dc8e	0.4391827
149	0x3f3dd35f	0.7415065
150	0x3ea4090e	0.32038158
151	0xbef2abfb	-0.47396836
152	0x3c4230b8	0.011852436
153	0xbe5e6da4	-0.21721512
154	0xbf152ad0	-0.5826845
155	0xbe54a4dc	-0.20766014
156	0xbec3f2bc	-0.3827113
157	0x3f06a3fe	0.5259398
158	0xbc5abb61	-0.013350339
159	0xbe12d770	-0.14339995
160	0xbf02d49e	-0.5110568
161	0x3f2082ee	0.6269978
162	0xbd64608b	-0.055756133
163	0x3f3eb3a9	0.7449289
164	0x3f2a334d	0.6648453
165	0xbefe58f8	-0.49677253
166	0xbead4b32	-0.33846432
167	0x3f0b99e2	0.5453168
168	0x3f7a83f0	0.9785757
169	0xbf74b9fc	-0.9559629
170	0x3ece9848	0.40350556
171	0x3f10d034	0.5656769
172	0xbd7595f0	-0.059957445
173	0x3e06814e	0.13135263
174	0x3e37813d	0.17920394
175	0xbd0aa776	-0.03385111
176	0x3e9864f9	0.29764536
177	0x3d0c3685	0.03423168
178	0xbd8bbc0f	-0.06822979
179	0xbf50bbc4	-0.8153651
180	0xbee794a3	-0.45230588
181	0xbecbb520	-0.39786625
182	0xbedb44e2	-0.4282599
183	0xbe059ea6	-0.13048801
184	0xbec8dd18	-0.3923118
185	0xbe0f17c7	-0.13973914
186	0xbf65980c	-0.8968513
187	0xbf95ae46	-1.1693809
188	0x3d638a2c	0.055551693
189	0xbea3c033	-0.31982574
190	0xbe293da4	-0.1652742
191	0x3cdd38bf	0.027004598
192	0xbf2e2236	-0.6802095
193	0x3e9ab309	0.30214718
194	0x3e907767	0.28216097
195	0xbef321aa	-0.4748662
196	0xbebe37c6	-0.37151927
197	0x3f3f4a31	0.7472258
198	0xbf0d64f0	-0.55232143
199	0x3eafc26e	0.34328026
200	0xbd55bae0	-0.05218017
201	0x3efa15bc	0.48844707
202	0x3f2d0537	0.6758608
203	0xbde8ebda	-0.1137311
204	0x3e5f0960	0.2178092
205	0x3e738544	0.23781306
206	0xbeb102e1	-0.3457251
207	0x3e39dcae	0.18150589
208	0xbe0a6607	-0.13515483
209	0x3f29e0db	0.6635873
210	0x3ee41862	0.44549853
211	0xbefc6c6f	-0.49301478
212	0x3e17d045	0.14825542
213	0x3fc483b2	1.535269
214	0xbe9ebfa4	-0.31005585
215	0xbeb7890f	-0.35846755
216	0x3e688220	0.22705889
217	0xbe79dd09	-0.24400724
218	0x3cb73e8b	0.02236869
219	0x3d2ed5bd	0.042684305
220	0xbec34550	-0.3813882
221	0xbdb0cedb	-0.086332045
222	0x3ef6b455	0.48184457
223	0xbea216ff	-0.3165817
224	0xbe594c0e	-0.21220419
225	0xbe9926e2	-0.29912478
226	0x3f74856c	0.95516086
227	0xbea5e7b4	-0.32403338
228	0xbe521265	-0.2051483
229	0x3dc8d13b	0.098055325
230	0x3eec6535	0.46170965
231	0x3f47a0e4	0.77979875
232	0x3e913091	0.28357366
233	0xbf1dbdec	-0.6161792
234	0xbe45451b	-0.19264643
235	0xbe6792b0	-0.2261455
236	0xbe48f2a8	-0.19623816
237	0xbc81abe0	-0.015829027
238	0x3e98dc53	0.29855594
239	0x3ec657cd	0.38738862
240	0xbe8edd3f	-0.27903172
241	0xbe7b0872	-0.2451494
242	0x3f7319ce	0.9496125
243	0x3f11cb71	0.5695105
244	0x3e45c002	0.19311526
245	0xbfb1afb8	-1.388175
246	0xbec18ba2	-0.37801844
247	0xbea785c9	-0.32719257
248	0xbeb55bdd	-0.3542165
249	0xbf03ae76	-0.5143808
250	0xbea5872c	-0.3232969
251	0x3ec39641	0.38200572
252	0xbf186158	-0.59523535
253	0x3f043cd5	0.5165532
254	0xbf1f64b3	-0.6226303
255	0xbf1bf7e2	-0.60925114

network_body._body_endoder.seq_layers.0.bias f4 [128]
0	0x3cbca44a	0.023027558
1	0x3e19efa7	0.15032826
2	0x3c955b72	0.018232081
3	0xbc3f6834	-0.011682559
4	0x3e1e01aa	0.15430322
5	0x3d40c573	0.047063302
6	0x3dce9a92	0.10088076
7	0xbc967560	-0.018366516
8	0x3dd18bbc	0.1023173
9	0x3e01af51	0.12664534
10	0x3c8406af	0.016116468
11	0xbce21373	-0.027597165
12	0xbbb8085a	-0.00561623
13	0xbda65785	-0.08122162
14	0xbcbea9e0	-0.023274362
15	0xbc8325b3	-0.016009187
16	0xbd996359	-0.07489652
17	0xbcfdfc17	-0.031003995
18	0x3e235b73	0.15952854
19	0xbd54e4d4	-0.05197604
20	0x3502d09e	4.873235e-07
21	0x3e054a0c	0.13016528
22	0x3d0c4eb8	0.03425476
23	0xbbeae99e	-0.0071689626
24	0x3e389cc8	0.18028557
25	0x3c72e746	0.014825648
26	0x3c82e6f5	0.01597927
27	0x3bb2cc2e	0.005456469
28	0x3dacddf3	0.08440771
29	0xbc24e0f2	-0.010063397
30	0xbd85c79f	-0.06532215
31	0x3e558420	0.20851183
32	0xbd55e327	-0.052218582
33	0xbc4dd7cc	-0.012563657
34	0xbbc1b02a	-0.005910893
35	0x3bc3f1ce	0.005979753
36	0xbc715ef1	-0.014732108
37	0xbce63672	-0.028102133
38	0x3e5cbbb8	0.21555984
39	0x3d02fca2	0.03197921
40	0xbabb62c8	-0.0014296407
41	0xbbc2e368	-0.005947519
42	0xbcdb2b72	-0.026754115
43	0x3e6456f3	0.22298793
44	0xbd981270	-0.07425392
45	0x3d4a879d	0.049445737
46	0x3d79bdcf	0.06097203
47	0xbd00a8cd	-0.03141098
48	0x3db33693	0.087506436
49	0x3ca20160	0.019776046
50	0x3c0a25c3	0.008431855
51	0x3df450e4	0.11929491
52	0x3cd0d5a1	0.025492491
53	0xbd38f65a	-0.045156814
54	0xbbe4ed53	-0.006986299
55	0xbc8fa623	-0.017535275
56	0xbceab733	-0.02865181
57	0x3c1c4459	0.00953778
58	0xbd20cd20	-0.039258122
59	0xba9b20be	-0.001183532
60	0x3ddd8fdb	0.10818454
61	0x3d306779	0.04306743
62	0xbd8d5bad	-0.069022514
63	0xbcd51c12	-0.026014362
64	0xbb354016	-0.0027656606
65	0x3caad3ae	0.02085289
66	0x3da959cf	0.08269083
67	0xbba4424e	-0.005012787
68	0x3d64348a	0.055714168
69	0xbd3c1178	-0.045915097
70	0x3b018632	0.0019763825
71	0xbc260dfb	-0.010135169
72	0x3c883aaf	0.016629545
73	0x3dc01d01	0.09380532
74	0x3dd85b45	0.10564283
75	0x3e2a5fb6	0.16638073
76	0xbcb8ff98	-0.022582814
77	0x3d8652f6	0.06558792
78	0x3e1ab6d7	0.1510881
79	0xbcb150a8	-0.021644905
80	0xbc49ad2f	-0.012309357
81	0x39b5ee8e	0.00034700747
82	0x3d817e09	0.063228674
83	0xbd3aa6dd	-0.04556929
84	0x3e152e07	0.1456834
85	0xbd960aa1	-0.07326246
86	0x3cba10d5	0.022713104
87	0x3d455946	0.04818084
88	0x3de95821	0.113937624
89	0xbc818dab	-0.015814623
90	0xbc60acee	-0.013713105
91	0x3cdcf8c9	0.026974099
92	0x3b1e36fa	0.0024141655
93	0x3b41f74d	0.0029596866
94	0x3e423032	0.18963698
95	0x3d2a47bd	0.04157232
96	0x3c83cb00	0.016088009
97	0x3dc51849	0.09623773
98	0xbbe0c1d7	-0.006859045
99	0x3ade04cd	0.0016938687
100	0x3d4ea3c8	0.050449163
101	0xbc75ac9a	-0.014994765
102	0xbc8d6262	-0.017258827
103	0x3e1cd6a9	0.15316261
104	0xbd062fd9	-0.032760475
105	0x3e45f3ca	0.1933128
106	0x3d56622b	0.052339714
107	0xbd33aa7a	-0.04386375
108	0xbc9ba8aa	-0.019001324
109	0xbcea7a3d	-0.02862274
110	0xbcdf08c5	-0.027225861
111	0xbb41357f	-0.002948135
112	0x3dada5c5	0.08478884
113	0x3e182ac9	0.14860071
114	0x3e307ac0	0.17234325
115	0x3e4463a3	0.19178633
116	0x3e291fbf	0.16516016
117	0x3d386066	0.045013808
118	0xb7a8baf8	-2.0114225e-05
119	0xbcfeecba	-0.03111874
120	0x3d7318b8	0.059349746
121	0xbc7fda97	-0.015616081
122	0x3d87c967	0.06630211
123	0xbd0ec535	-0.03485604
124	0xbd2166ed	-0.0394048
125	0x3ca559b2	0.020184372
126	0x3c15a2c6	0.0091330465
127	0x3d4852dc	0.048907146

network_body._body_endoder.seq_layers.2.weight f4 [128, 128]
0	0xbe15a4d7	-0.14613663
1	0x3d91e7e4	0.07124308
2	0xbe0fc791	-0.14040972
3	0xbe060d27	-0.13090955
4	0x3d372e3f	0.044721838
5	0x3debcd65	0.11513785
6	0x3cab6aa8	0.020924881
7	0xbc5a4102	-0.013321163
8	0x3ca926ec	0.020648442
9	0xba5a4654	-0.000832652
10	0xbc17018f	-0.00921668
11	0x3da5a3bd	0.08087871
12	0xbe6a3dc7	-0.22875129
13	0x3d748f69	0.05970708
14	0x3e07efe1	0.132751
15	0xbc41ac01	-0.011820794
16	0x3dc08c07	0.09401708
17	0x3e03431d	0.1281857
18	0xbdde60bc	-0.10858294
19	0x3dee65f6	0.11640541
20	0xbc7d6333	-0.0154655455
21	0xbd596691	-0.05307633
22	0x3e833024	0.25622666
23	0x3dcf5a32	0.10124625
24	0x3dfbf8a5	0.123032846
25	0xbce50929	-0.02795847
26	0x3c57a812	0.01316263
27	0xbd9452bf	-0.07242345
28	0x3cb3936a	0.021920878
29	0xbd82ff3f	-0.063963406
30	0x3d21e0b1	0.039520923
31	0x3cd0db47	0.025495185
32	0x3e8521bf	0.2600231
33	0xbdc2def8	-0.09515184
34	0xbcbe4bc6	-0.023229491
35	0xb8045451	-3.154978e-05
36	0xbda72bb1	-0.0816263
37	0xbe0c4331	-0.13697506
38	0x3e344cdd	0.17607446
39	0xbdeb6a56	-0.11494891
40	0xbe5b6d35	-0.21428378
41	0xbcaea3fa	-0.021318424
42	0xbd92fb75	-0.07176868
43	0xbd2e495d	-0.042550433
44	0x3bb66905	0.0055667185
45	0x3e1f2441	0.15541174
46	0xbdb487d8	-0.08814973
47	0xbd63621e	-0.055513494
48	0x3dd03ffa	0.101684526
49	0xbd99318a	-0.07480152
50	0xbdc90a5f	-0.09816431
51	0x3dffea89	0.12495906
52	0x3de002fe	0.10938071
53	0xbd85d418	-0.06534594
54	0xbddabb03	-0.10680201
55	0x3a877142	0.0010333436
56	0x3dba8f6e	0.09109388
57	0x3e12a4f0	0.14320731
58	0xbd6b1ade	-0.05739867
59	0x3d4fcc31	0.05073184
60	0xbd949c28	-0.07256347
61	0x3ca68e8d	0.020331645
62	0x3dc6db7d	0.09709833
63	0x3e4b4178	0.19849193
64	0xbd4cda77	-0.05001303
65	0xbd5f3a07	-0.0544987
66	0xbe684c01	-0.22685243
67	0xbc147d72	-0.009063112
68	0x3e0891b9	0.13336839
69	0x3dd840b2	0.10559215
70	0xbc4142f7	-0.011795751
71	0x3d01e353	0.031710934
72	0xbd9ce643	-0.076611064
73	0x3e286489	0.16444601
74	0x3d279501	0.040913586
75	0xbd05e947	-0.032693174
76	0xbe203f35	-0.15649112
77	0xbe186968	-0.1488396
78	0x3c8884f9	0.016664969
79	0xbdbe5e40	-0.092953205
80	0xbe81d3bb	-0.2535685
81	0x3d7e8f09	0.062148128
82	0xbdc2a1f3	-0.095035456
83	0xbd20de86	-0.039274715
84	0x3cf772d4	0.030206122
85	0xbeb2241d	-0.34793177
86	0xbded87c2	-0.115981594
87	0x3c43988b	0.011938225
88	0x3e213a52	0.15744904
89	0xbde42b57	-0.11141079
90	0xbdb717ef	-0.08940112
91	0x3e0abbe7	0.13548242
92	0x3d4a3489	0.049366508
93	0x3d4311ea	0.047624506
94	0xbd8c3929	-0.0684684
95	0x3d64b3a7	0.055835392
96	0xbd60743e	-0.054798357
97	0xbda03801	-0.07823182
98	0xbd23e221	-0.040010575
99	0x3deb3cc4	0.114861995
100	0xbe01faf0	-0.12693381
101	0xbde2b8dc	-0.110704154
102	0x3ca6a2ae	0.020341244
103	0x3d0a00f8	0.03369233
104	0xbd6cd73f	-0.057822462
105	0x3d3f45f7	0.046697583
106	0xbe0b4ffe	-0.13604733
107	0x3b48762e	0.0030588019
108	0x3d3d7143	0.046250593
109	0xbdb8e3c6	-0.09027819
110	0x3e14cb3d	0.14530654
111	0x3d462c57	0.04838213
112	0x3c9faede	0.019492563
113	0x3e363831	0.17794873
114	0x3e2d6015	0.16931184
115	0xbdf82dd4	-0.12118116
116	0x3dea4fb7	0.11440986
117	0x3c8e8d29	0.017401295
118	0xbd2c8f53	-0.042128872
119	0xbc6b1f56	-0.014350733
120	0xbf17ec12	-0.5934459
121	0xbd7682e5	-0.060183425
122	0x3c35f2fd	0.011105296
123	0xbdf02bc2	-0.11727096
124	0x3decd7d4	0.115646034
125	0xbdbb3e2c	-0.09142718
126	0x3e6cdaab	0.2313029
127	0xbd873bda	-0.06603213
128	0xbe825297	-0.25453636
129	0xbdc923f7	-0.09821313
130	0x3d91da88	0.0712176
131	0xbbfd1353	-0.007723251
132	0x3e4742bd	0.19459052
133	0xbd19cf0c	-0.03755097
134	0xbe0b35fb	-0.1359481
135	0xbe1ff402	-0.15620425
136	0x3d1b840e	0.037967734
137	0xbdedd48c	-0.11612806
138	0xbd56d0d7	-0.05244526
139	0x3d7b2441	0.06131387
140	0xbdb60f36	-0.0888962
141	0xbc87d856	-0.01658265
142	0x3d9382da	0.07202692
143	0xbd5be2be	-0.053683035
144	0xbdd46392	-0.10370554
145	0xbe05be69	-0.13060917
146	0x3e4b3d8f	0.19847701
147	0x3d0647fc	0.032783493
148	0x3d3c3044	0.045944467
149	0xbc91948d	-0.01777103
150	0x3d074110	0.033021033
151	0xbce6b9a6	-0.028164696
152	0xbcf2025b	-0.029542139
153	0xbcf75336	-0.030191045
154	0xbe0e22e7	-0.13880502
155	0xbc269d56	-0.010169348
156	0x3d2ddfd7	0.0424498
157	0x3de20fdd	0.11038182
158	0x3ca4e2de	0.02012771
159	0x3e16453c	0.14674848
160	0xbda5d4cd	-0.08097229
161	0xbe0c676f	-0.13711332
162	0xbd8c457d	-0.06849191
163	0xbccf94b1	-0.025339456
164	0xbe0c8f2c	-0.1372649
165	0xbd14b520	-0.036305547
166	0x3da7b182	0.08188154
167	0x3c912934	0.017719842
168	0x3deefb34	0.11669007
169	0x3c043be2	0.008070918
170	0xbc1f5ff3	-0.009727466
171	0x3de350ed	0.1109942
172	0x3ddecc7b	0.10878845
173	0x3d051287	0.032488372
174	0x3d8a96e6	0.06767063
175	0xbde3fe76	-0.11132519
176	0x3e00a11f	0.12561463
177	0xbd79c688	-0.06098035
178	0xbe18977d	-0.14901538
179	0xbdf03da0	-0.11730504
180	0xbd896016	-0.0670778
181	0xbc920062	-0.017822448
182	0x3e198e68	0.1499573
183	0xbcb1f5b2	-0.021723602
184	0x3a8243ce	0.000993842
185	0x3df01a70	0.117237926
186	0xbd2e91d1	-0.04261953
187	0xbcb707f7	-0.022342665
188	0x3d6ee07b	0.05831955
189	0xbbf15b56	-0.0073656244
190	0x3da10e7d	0.078640915
191	0x3d00cb20	0.031443715
192	0x3ddec4e9	0.108774014
193	0xbcd0f8e1	-0.0255093
194	0x3d9abd37	0.07555621
195	0xbd3ac762	-0.045600303
196	0x3960879a	0.0002141282
197	0x3d9a8b70	0.07546127
198	0xbd9411ec	-0.07229981
199	0x3dd095fa	0.10184856
200	0xbd9b8e57	-0.075955085
201	0x3df9b111	0.12191976
202	0xbc7bdacd	-0.01537199
203	0xbdee506e	-0.116364345
204	0x3db9e2fc	0.09076497
205	0x3e03da5a	0.12876263
206	0x3dd67d2f	0.104730956
207	0xbd11e690	-0.035620272
208	0x3db980e8	0.0905779
209	0xbe0a3952	-0.13498428
210	0xbdf4813a	-0.119387105
211	0x3d5d98ec	0.054100916
212	0x3d3dc033	0.046325874
213	0x3ce731c5	0.028221974
214	0xbd138f70	-0.036025465
215	0x3dcfda54	0.10149065
216	0xbdf4f5ad	-0.119609214
217	0x3c8308f5	0.015995482
218	0x3e0a43e6	0.13502464
219	0xbd9e6538	-0.0773415
220	0x3e0f6a31	0.14005353
221	0x3deae026	0.11468534
222	0x3dc02dcd	0.09383736
223	0x3dbdb971	0.09263886
224	0x3e1a04c2	0.15040877
225	0x3a12179f	0.0005572978
226	0x3e2693dc	0.16267341
227	0x3d750622	0.0598203
228	0xbdaf6cc8	-0.0856567
229	0x3e035d18	0.12828481
230	0xbdb378d6	-0.08763282
231	0xbbc1b3fe	-0.0059113493
232	0xbdf48f43	-0.119413875
233	0x3c90801e	0.017639216
234	0x3d5c83ea	0.05383674
235	0x3d2d054d	0.042241383
236	0xbc83d898	-0.01609449
237	0x3daf4aa1	0.08559156
238	0xbc95ca5b	-0.018284967
239	0xbd9fc377	-0.07800954
240	0x3c038e83	0.008029583
241	0xbdbdb0f3	-0.09262266
242	0x3da1bccc	0.07897338
243	0x3c89a784	0.01680351
244	0x3d9b7e85	0.07592491
245	0xbd1f5537	-0.038899627
246	0x3d023134	0.031785205
247	0x3d037c5f	0.03210103
248	0xbdae1429	-0.08499939
249	0xbdc55d2f	-0.09636914
250	0xbd4da132	-0.050202556
251	0x3d299433	0.0414011
252	0xbd858f50	-0.06521475
253	0x3cb36e2b	0.021903118
254	0xbe1df480	-0.154253
255	0xbd4743c6	-0.04864862

network_body._body_endoder.seq_layers.2.bias f4 [128]
0	0xbcb935a6	-0.02260859
1	0xbc37d4d3	-0.011220175
2	0xb77a4860	-1.4918012e-05
3	0xbc2bcd3f	-0.010485946
4	0xbc512070	-0.012764081
5	0x3d247daf	0.040158924
6	0xbbabbcb3	-0.0052410006
7	0xbc02db23	-0.007986817
8	0xbc15aa8a	-0.009134898
9	0x3ad879d2	0.0016515797
10	0xbc02670d	-0.0079591395
11	0xbccd8886	-0.025089514
12	0xbc245932	-0.010031031
13	0xbc11a484	-0.008889321
14	0x3bd58e9f	0.006517246
15	0xbc555f18	-0.01302316
16	0xbc4b9544	-0.012425724
17	0x3b896ba1	0.0041937386
18	0x3be5cdca	0.0070130574
19	0x3cdd092a	0.026981909
20	0xbc479b82	-0.012183072
21	0xbce397bc	-0.027782314
22	0x39806951	0.0002449253
23	0x3c170c80	0.009219289
24	0xbbab3ac5	-0.0052255117
25	0xbad0ee2f	-0.0015940125
26	0xbc30b11e	-0.0107844155
27	0x3c39ad53	0.011332828
28	0xbbcd56a6	-0.006266433
29	0xbbf2dfbf	-0.0074119265
30	0xbc8687e4	-0.01642222
31	0xbc928315	-0.01788477
32	0xbc8848c6	-0.016636264
33	0x3a43f5ab	0.0007475267
34	0xbbef8fb9	-0.0073108342
35	0x3d57a86b	0.05265085
36	0xbc1f2d4c	-0.009715389
37	0x3cc0e541	0.023546817
38	0xbca1343b	-0.019678226
39	0x3a8d3160	0.0010772161
40	0x3c5e7c9b	0.013579513
41	0x3bde083e	0.006775885
42	0xbd86a055	-0.0657355
43	0x3cb212a3	0.021737402
44	0xbc6b99c7	-0.014379925
45	0xbc23ac53	-0.009989816
46	0xbc922b80	-0.017843008
47	0xbd28bd04	-0.041195884
48	0xba5f9f9b	-0.0008530558
49	0xbc829238	-0.015938863
50	0xbbccd64f	-0.0062511335
51	0xbbc14126	-0.005897659
52	0xbc3c785c	-0.011503305
53	0xbc079544	-0.008275334
54	0xbc279cfb	-0.010230298
55	0xba554cca	-0.00081367476
56	0xbd134cce	-0.03596192
57	0x3d29a917	0.041421022
58	0xbc4a5156	-0.012348494
59	0x3abb73e5	0.0014301507
60	0x3cd5a5a2	0.026079956
61	0xbcbc1116	-0.022957366
62	0x3b3622c8	0.0027791727
63	0xbcb03959	-0.02151172
64	0xbc49381f	-0.012281447
65	0xbc94899b	-0.018132022
66	0x3d4b721e	0.049669378
67	0xbbfea688	-0.007771317
68	0xbcc6bc41	-0.024259688
69	0x3841c452	4.6197623e-05
70	0xbc515384	-0.012776259
71	0xbbe6c85c	-0.0070429277
72	0xbad86359	-0.00165091
73	0x3c01fc13	0.007933634
74	0xbcca2cdf	-0.0246796
75	0xbcd2a4c8	-0.02571334
76	0xbba86b99	-0.0051397798
77	0xbc18bf23	-0.009322914
78	0xbc227259	-0.009914958
79	0x3a263901	0.00063408917
80	0xbc501e35	-0.012702514
81	0x3cadfe5d	0.021239454
82	0xbc25a013	-0.010108965
83	0xbc60a829	-0.0137119675
84	0x3d22e24d	0.0397666
85	0xbc8491ba	-0.01618277
86	0x3c9038e8	0.01760526
87	0x3cc8f036	0.024528604
88	0xbc8fe072	-0.017563079
89	0xbc2803fb	-0.010254855
90	0x3ba113ae	0.004915676
91	0x3cb8c0f9	0.022552954
92	0xbcc73757	-0.02431838
93	0xbd492491	-0.049107138
94	0xbcf4f68a	-0.029902715
95	0x3d270377	0.04077479
96	0x3a543d77	0.0008096317
97	0xbbccac4b	-0.006246125
98	0x3cce6d11	0.025198491
99	0xbcdc0e6b	-0.026862344
100	0x3c057ffb	0.008148189
101	0xbbe1d5a7	-0.0068919244
102	0x3c13781e	0.009000806
103	0x3d04ad93	0.032392096
104	0xbc5b9a0c	-0.013403427
105	0x3d18f3fc	0.037342057
106	0xbcf96e27	-0.030448033
107	0x3b4f933d	0.0031673454
108	0xbb8b93af	-0.0042595486
109	0xbc7b5851	-0.0153408805
110	0x3cc43a9d	0.02395373
111	0x3c5ee228	0.013603725
112	0xbc42fd69	-0.011901238
113	0xbc0234b6	-0.007947138
114	0xbd2c0c16	-0.042003714
115	0xbc9d6cf6	-0.019216996
116	0xbc1c3996	-0.009535214
117	0xbcbf1d0c	-0.02332928
118	0xbbf2e576	-0.007412608
119	0xbc6b715e	-0.014370291
120	0x3c89c90c	0.0168195
121	0xbc17e9c6	-0.0092720445
122	0xba89beab	-0.0010509094
123	0x3caf34a5	0.021387408
124	0xb9d33a95	-0.00040288703
125	0xbc801388	-0.015634313
126	0x3a8d67b5	0.0010788353
127	0x399e6135	0.00030208533

action_model._discrete_distribution.branches.0.weight f4 [3, 128]
0	0x3ddd3b88	0.1080237
1	0x3ce3da1d	0.027813965
2	0x3d5beb81	0.05369139
3	0xbca71f56	-0.020400684
4	0xbd020bcb	-0.031749528
5	0xbe6bb44d	-0.23017998
6	0xbc88903c	-0.016670339
7	0x3be50600	0.0069892406
8	0x3c127628	0.008939303
9	0x3c92c579	0.017916428
10	0x3a9e405a	0.0012073622
11	0x3b7dc6af	0.003872316
12	0xbb5f5b4a	-0.0034081512
13	0xbb14a81e	-0.0022683213
14	0x3c54ef6d	0.012996537
15	0x3b56bba1	0.0032765644
16	0xbaba2338	-0.001420117
17	0x3ae3fe2c	0.0017394475
18	0x3cd5e63f	0.026110766
19	0xbd829a42	-0.063770786
20	0x3c019db1	0.007911132
21	0x3be87780	0.0070943236
22	0xbc16b0be	-0.009197412
23	0x3df27e63	0.118405126
24	0x3c7d455f	0.015458434
25	0xbc8eda90	-0.017438203
26	0x3777de6b	1.4774133e-05
27	0x3d076279	0.033052895
28	0x3b5402ee	0.003235038
29	0x3c48004b	0.012207101
30	0x3c23af33	0.009990501
31	0x3cabf894	0.020992555
32	0xbb2b1d0b	-0.002610984
33	0xbcdd2607	-0.026995672
34	0x3b2538cc	0.0025210856
35	0x3cf5f14a	0.030022282
36	0xbbfb1491	-0.007662364
37	0x3ab9f8b3	0.0014188498
38	0x3ad90f54	0.0016560354
39	0xbb83ccad	-0.004022202
40	0x3cf8d51f	0.030375062
41	0x3bc288ee	0.0059367334
42	0x3bbb17e6	0.005709636
43	0x3e5687e1	0.20950271
44	0x3a20c461	0.00061327784
45	0x3d3c0c13	0.045909952
46	0xbd8b1635	-0.06791345
47	0x3a8d0dc5	0.001076155
48	0xbb82d6c0	-0.0039928854
49	0xbc6bb6fe	-0.01438689
50	0xbb596541	-0.0033171924
51	0xbc582a92	-0.013193743
52	0x3ca57f4d	0.020202303
53	0xbc30d3f3	-0.01079272
54	0xbc017190	-0.007900611
55	0xb9c40c7b	-0.00037393332
56	0xbb4ae6b7	-0.003096027
57	0xbc459cb8	-0.01206129
58	0x3c03f709	0.008054503
59	0x3a554339	0.0008135322
60	0x3b0d4778	0.0021557491
61	0x3ceb3ceb	0.028715571
62	0x3cf56a19	0.029957818
63	0xba36873d	-0.0006962901
64	0xbbacbb90	-0.0052713826
65	0x3ccd1e05	0.025038728
66	0xba84dc46	-0.0010136447
67	0xbc75939a	-0.014988804
68	0x3b098ca9	0.002098838
69	0xbc322a47	-0.0108743375
70	0x3c21a4a1	0.009865911
71	0xbbbba853	-0.005726853
72	0x3cc89a4d	0.024487639
73	0x3c5ae7f2	0.013360964
74	0xbbb05c71	-0.0053821136
75	0xbbc331a3	-0.005956845
76	0xbc120494	-0.008912224
77	0xbd26f9d2	-0.04076559
78	0x3c635ab1	0.013876603
79	0x3dbbd24f	0.091709726
80	0x3c144d35	0.009051611
81	0xbd9d768f	-0.07688629
82	0x3ab91828	0.0014121579
83	0xbb971f07	-0.004611853
84	0xbb570838	-0.0032811295
85	0x3c3a3bfd	0.011366841
86	0x3b3a4ff1	0.0028428996
87	0xbbae86d5	-0.005326132
88	0x3cc0b158	0.023522064
89	0xbcaf47c9	-0.021396535
90	0xbc9ab7b1	-0.018886419
91	0xbd81f6d4	-0.06345907
92	0x3c400389	0.011719593
93	0xbc0ea3b4	-0.008706022
94	0xbc3bc57e	-0.01146066
95	0xbc7d599b	-0.015463258
96	0x3c6f3711	0.014600531
97	0x3b122308	0.0022298712
98	0x3b8b40f3	0.004249686
99	0x3b0bf80e	0.002135757
100	0xbd0affed	-0.033935476
101	0xbc1ed6f8	-0.009694807
102	0x3e7e463f	0.24831484
103	0xbe8c9570	-0.27457762
104	0xbcac4c43	-0.021032458
105	0x3d35b876	0.04436537
106	0xbcb917d0	-0.022594362
107	0x3db05877	0.08610623
108	0x3cd86d38	0.026419267
109	0x3c41d6f0	0.01183103
110	0x3e489a1b	0.19590037
111	0x3b2ccfb5	0.002636892
112	0xbb9789c4	-0.0046245772
113	0xbc6dbdd6	-0.014510592
114	0xbc83c33f	-0.016084312
115	0xbc2643e2	-0.01014802
116	0xbd05094d	-0.032479573
117	0x3b7d6468	0.0038664583
118	0x3c16caf6	0.009203663
119	0xbcfac0b4	-0.030609466
120	0x3ca003f0	0.019533128
121	0xbc9a582c	-0.018840872
122	0xbb1fb036	-0.0024366505
123	0x3c98d0fe	0.018654343
124	0x3d72c614	0.059270933
125	0xbc2683db	-0.010163273
126	0xbbaa694e	-0.0052005416
127	0x3c9f3fc0	0.019439578
128	0xbee81c10	-0.4533391
129	0xbacb1c10	-0.0015496034
130	0xbb4ffaf6	-0.0031735278
131	0x3c6ad82e	0.014333768
132	0x3c571c9c	0.01312938
133	0xbe824ec3	-0.25450715
134	0x3c15ae59	0.009135806
135	0xbb32989a	-0.0027251602
136	0xba8aadb9	-0.0010580338
137	0x3ceab9e5	0.028653095
138	0x3c5f140e	0.013615621
139	0x3b61dbf1	0.003446337
140	0x3c0c3ff5	0.00856017
141	0x3c5b96a8	0.0134026185
142	0xbcf17a26	-0.02947719
143	0x3aac1fce	0.0013132037
144	0xb956282c	-0.00020423596
145	0xbc983bca	-0.018583197
146	0x3d3416fa	0.043967225
147	0x3d901f9b	0.07037278
148	0x3d0f15a7	0.03493276
149	0x3cd58c84	0.02606798
150	0x3b4c8341	0.0031206163
151	0x3e6ecb0a	0.23319641
152	0x3ca47bc0	0.02007854
153	0x3c8ab06b	0.016929826
154	0xbc277561	-0.010220856
155	0x3cae024f	0.021241335
156	0xbc6b4c35	-0.014361431
157	0xbcccdecc	-0.025008582
158	0x3cf2a838	0.029621229
159	0xbcfdf343	-0.030999785
160	0x3bec079b	0.007203055
161	0x3d243ce5	0.040097136
162	0x39ccafef	0.00039040993
163	0x3dd733aa	0.10507901
164	0x3d8b491d	0.068010546
165	0x38f26ec1	0.00011560089
166	0x3b3fe5dc	0.0029281294
167	0x3c7e5c24	0.015524898
168	0x3cb3927b	0.021920433
169	0x3a861eda	0.0010232583
170	0x3c61bda3	0.013778123
171	0xbd9b9a2d	-0.07597766
172	0x3bc0ed40	0.0058876574
173	0xba0c0817	-0.00053417817
174	0x3d45727e	0.04820489
175	0x3bd9058b	0.006622975
176	0xba759c23	-0.00093692745
177	0xbb8a9236	-0.0042288555
178	0xbd213409	-0.039356265
179	0xbce103b0	-0.027467579
180	0x3c8f69c0	0.01750648
181	0x3bbd48bd	0.0057764933
182	0xbb7acf91	-0.0038270692
183	0x3d1abdd4	0.03777869
184	0x3bbb5b50	0.0057176724
185	0x3d7dc808	0.061958343
186	0xbc47c687	-0.012193329
187	0x3aa800f2	0.0012817665
188	0xbcb41ae3	-0.021985477
189	0xbbe7ce3a	-0.0070741447
190	0x3cc2d008	0.023780838
191	0x3b270a5b	0.002548835
192	0x3c16f9ac	0.0092148
193	0x3c255d46	0.010093039
194	0xbce50959	-0.027958559
195	0x3b0ba602	0.0021308665
196	0x3c2b5547	0.010457343
197	0x3b381f85	0.002809496
198	0x3c55f8cf	0.013059809
199	0xbcc24b30	-0.023717493
200	0x3cb0da01	0.021588327
201	0x3cf3ce44	0.029761441
202	0x3b28f37b	0.0025779891
203	0xbd0830a0	-0.033249497
204	0xbbde5b65	-0.0067857974
205	0x3c32a3dc	0.010903325
206	0x3b325abe	0.002721473
207	0x3e7e4da5	0.24834307
208	0x3ca81d30	0.02052173
209	0xbe2cb182	-0.16864589
210	0x3b5162c0	0.0031949729
211	0xbb1648b9	-0.002293153
212	0x3db6a186	0.08917527
213	0x3bbfe602	0.0058562765
214	0xbcb0295e	-0.0215041
215	0xbcce8caf	-0.025213568
216	0x3d0e96c0	0.034811735
217	0x3c88d950	0.016705185
218	0xbc43765a	-0.011930073
219	0xbe276a36	-0.1634911
220	0xbc8ecb14	-0.01743082
221	0xbbae9ba5	-0.005328613
222	0x3cdef228	0.027215078
223	0xbcb76284	-0.022385843
224	0x3cd7d799	0.026347922
225	0xbc1a61e7	-0.009422756
226	0xbcaad1e9	-0.020852046
227	0x3cacb1c1	0.021080853
228	0x3d4a0a83	0.04932643
229	0xbbef464d	-0.0073020817
230	0x3d0c3e13	0.034238886
231	0xbc187506	-0.009305244
232	0xbcc3ebd8	-0.02391617
233	0x3d465ad0	0.04842645
234	0x3b22d7ec	0.0024847938
235	0xbe1d2f14	-0.1534999
236	0xb8b7627c	-8.744464e-05
237	0x39c10fa0	0.0003682347
238	0x3d3705d0	0.044683278
239	0xbcbe4de9	-0.02323051
240	0x3b9a476b	0.0047082207
241	0x3c5a6e1f	0.013331919
242	0x3cb24b28	0.021764353
243	0xb98a6973	-0.00026399977
244	0x3d1f1555	0.038838703
245	0xbc8a2e9b	-0.016867926
246	0xbc860850	-0.016361386
247	0x3e18965e	0.1490111
248	0xbd66a9ef	-0.056314405
249	0x3c034b05	0.0080134915
250	0x3c841926	0.016125273
251	0x3d1bdc53	0.038051914
252	0x3cb54845	0.022129187
253	0x3c967ab5	0.018369058
254	0xbc95ce5e	-0.01828688
255	0xbc36f238	-0.011166148

action_model._discrete_distribution.branches.0.bias f4 [3]
0	0xbc15a548	-0.009133644
1	0xbcaa2244	-0.020768292
2	0x3ce5abd6	0.02803604

action_model._discrete_distribution.branches.1.weight f4 [2, 128]
0	0xbb8fb6ee	-0.0043858206
1	0xbb870586	-0.0041205315
2	0x3b88e99c	0.004178239
3	0x3e1b615e	0.15173861
4	0xbb2dab9f	-0.00265
5	0x3dfc9eea	0.12334998
6	0x399a563b	0.00029437416
7	0x3bea51d5	0.0071508684
8	0xbca191eb	-0.0197229
9	0x3c03d22b	0.008045713
10	0xb9fe0ab7	-0.00048454638
11	0x3d1ab3b7	0.037769046
12	0xbc0b784c	-0.008512568
13	0x3bc5d5e7	0.006037462
14	0x3bd2aa07	0.0064289602
15	0xbbee2d75	-0.0072686025
16	0xbc06107f	-0.008182644
17	0x39e53cce	0.00043723587
18	0xbc07a1eb	-0.00827835
19	0x3e0b7835	0.13620074
20	0xbbda9805	-0.006670954
21	0xbbf7fa90	-0.007567711
22	0xbbef9bb9	-0.0073122648
23	0xbdea0b03	-0.114278816
24	0xbc0acf3c	-0.00847226
25	0x3c2b924d	0.010471893
26	0x3c2cd671	0.010549174
27	0x3c982595	0.018572608
28	0x3c0dc99d	0.008654025
29	0xbb48440a	-0.0030558133
30	0x3b7204e8	0.0036929194
31	0x3b831e8b	0.0040014437
32	0xbb03e63c	-0.0020126244
33	0xba9ebe45	-0.0012111148
34	0x3a9e4927	0.0012076244
35	0x3d194db8	0.037427634
36	0xbd1586b5	-0.03650542
37	0x3bbf1ca5	0.005832272
38	0x3b738471	0.0037157799
39	0xbc11236c	-0.008858543
40	0x3d4994e2	0.04921425
41	0x3bdf7723	0.006819622
42	0x3c0cdfc9	0.008598276
43	0x3dec3e6e	0.11535345
44	0xb9b88366	-0.00035193114
45	0x3d54b232	0.051927753
46	0x3e43a7f7	0.19107042
47	0xbbc0669c	-0.005871607
48	0xbb355d94	-0.0027674185
49	0xbb44d3a8	-0.0030033384
50	0xbc7177ba	-0.014738018
51	0x3c628f55	0.013828118
52	0x3ba707fc	0.0050973874
53	0x3c02b52d	0.007977766
54	0x3b4976d7	0.0030741
55	0x3c55f109	0.013057956
56	0xbc046d5a	-0.008082712
57	0x3d6f2d4f	0.05839282
58	0x398921a8	0.00026155752
59	0xbc6dad88	-0.014506705
60	0xbc3a0d11	-0.011355654
61	0x3ccfd611	0.02537063
62	0x3c4f3d9f	0.012648969
63	0x3bf6e506	0.007534626
64	0x3a8564db	0.0010177152
65	0xbc61d43b	-0.01378351
66	0xbb362af9	-0.002779661
67	0xbb3a8013	-0.0028457686
68	0x3b424841	0.0029645117
69	0x39f7cd3d	0.00047264426
70	0x3b859e39	0.0040776995
71	0xbb283a91	-0.0025669674
72	0x3c7ea4dc	0.015542235
73	0xbb0bd1b4	-0.002133471
74	0x3ba3c7ea	0.004998197
75	0x3de7d667	0.11320191
76	0x3ba1aace	0.0049336916
77	0x3d83e1f7	0.06439584
78	0xbb36ef28	-0.0027913544
79	0xbdbe030c	-0.09277925
80	0x3c193f18	0.009353422
81	0x3b2d1666	0.0026411056
82	0x3c3cbe63	0.011520001
83	0xbb9aa5e1	-0.0047194813
84	0x3c4ae07b	0.012382622
85	0x3bfe7934	0.0077659134
86	0x3c44910d	0.011997473
87	0x3c512acd	0.012766552
88	0xbba90d40	-0.00515905
89	0x3bcba2cd	0.0062144757
90	0xbc564f5f	-0.013080447
91	0xbbbadf37	-0.005702879
92	0x3d3e22b5	0.046419818
93	0xbc159144	-0.009128872
94	0xbc3cf4f6	-0.011533013
95	0xba8a84be	-0.0010568125
96	0x3d1ebe7e	0.038755886
97	0xbc19d5e6	-0.009389376
98	0xbb43c8c5	-0.0029874307
99	0x3c27be20	0.0102382
100	0x3d58fc06	0.052974723
101	0xbb8df593	-0.0043322532
102	0xbe39c6f8	-0.18142307
103	0x3e4431f3	0.19159679
104	0xbbdfb9a7	-0.0068275514
105	0x3cc1eedd	0.02367347
106	0xbc5ed7b2	-0.01360123
107	0xbc37f419	-0.011227631
108	0xb9f3814b	-0.00046444903
109	0x3b44ec99	0.003004825
110	0x3c675a1d	0.014120606
111	0x3b6e8f73	0.003640142
112	0x3b2c9bfa	0.0026338086
113	0xbb76b58d	-0.0037644834
114	0xbc21c9d6	-0.009874782
115	0xbc2cd00b	-0.010547648
116	0x3d582d4d	0.052777577
117	0xbb1ef1e2	-0.002425306
118	0xbbe58dca	-0.007005428
119	0xbdc546c6	-0.096326396
120	0x3c833739	0.016017543
121	0x3bf32a14	0.0074207876
122	0x3b203cf0	0.0024450384
123	0x3cfd6deb	0.030936202
124	0x3d52a409	0.051425967
125	0xbb908a00	-0.004410982
126	0x3bf370fa	0.0074292393
127	0xbc5a2c9d	-0.013316301
128	0x3bc8d58c	0.0061289724
129	0xbc072ddf	-0.008250683
130	0xbbd0823b	-0.006363181
131	0xbe13737f	-0.14399527
132	0x3ba6a674	0.0050857607
133	0xbe02228e	-0.12708494
134	0x3c2d06a1	0.0105606625
135	0x3b85957e	0.0040766587
136	0x3ca1c392	0.019746576
137	0xbb8baa74	-0.004262263
138	0xbb0f7e99	-0.0021895526
139	0xbd47c91e	-0.048775785
140	0xbc19afe2	-0.009380313
141	0x38f8e203	0.000118676595
142	0xbc917f42	-0.017760877
143	0x3b957173	0.0045606433
144	0xbc5919ef	-0.013250812
145	0xbad09963	-0.0015914853
146	0xbc8b95f2	-0.017039273
147	0xbdfba7b2	-0.12287845
148	0xbcbb21a4	-0.02284319
149	0xbbee7ee3	-0.0072783097
150	0x3b178e9a	0.0023125769
151	0x3dfb68d7	0.12275856
152	0xbc304b96	-0.010760209
153	0xbb98b4c5	-0.0046602213
154	0xbab6bbe5	-0.0013941495
155	0xbc58f2ff	-0.0132415285
156	0xbb9570a6	-0.004560548
157	0x3c318eec	0.010837298
158	0xbc525c9b	-0.012839462
159	0x3caf9056	0.02143113
160	0xbb570728	-0.0032810662
161	0x3c474c78	0.012164228
162	0x3aa3d4a1	0.0012499281
163	0xbd59de56	-0.05319055
164	0x3d6db44c	0.058033273
165	0xbb11439a	-0.0022165538
166	0x3ab91d18	0.001412305
167	0xbc487c2b	-0.012236635
168	0xbd375a24	-0.0447637
169	0x3c034d6a	0.008014062
170	0x3b14dd21	0.002271481
171	0xbdf3e49a	-0.11908837
172	0xba04fcaa	-0.000507305
173	0xbd6d1c90	-0.057888567
174	0xbe41dfa8	-0.18932974
175	0xbb2d0b3a	-0.0026404397
176	0xbb58c12e	-0.0033074128
177	0xbc5f34ef	-0.01362346
178	0x3bd7f52d	0.0065905065
179	0xbbec89a0	-0.0072185546
180	0xbb1730cf	-0.0023069864
181	0xbc00905c	-0.007846918
182	0x3b3777e5	0.0027995047
183	0xbcb7f5f0	-0.02245614
184	0xbc1039ed	-0.008802873
185	0xbd83f99d	-0.06444094
186	0xbb8ade24	-0.004237907
187	0xbc5a06fc	-0.013307329
188	0x3b9ec8aa	0.0048456984
189	0xbd193305	-0.03740217
190	0xbbdc17c0	-0.0067166984
191	0x3bf1cb8a	0.007379
192	0x3917c0ce	0.00014472308
193	0x3c5f6e6f	0.013637169
194	0x3bf7d35b	0.0075630373
195	0xbb97d396	-0.0046333773
196	0x3ab13f7f	0.0013522952
197	0x3bfd868b	0.007736986
198	0x3aa58979	0.0012629471
199	0x3cc45e13	0.02397064
200	0xbcbb303b	-0.022850147
201	0xbb0df976	-0.0021663583
202	0x3bf1c82b	0.007378598
203	0xbdea30b1	-0.114350684
204	0x3c81fdde	0.015868124
205	0xbd9d08c4	-0.076676875
206	0xbc6d27b1	-0.014474795
207	0x3dacdc6c	0.0844048
208	0x3b771d18	0.003770655
209	0x3bac4732	0.0052575106
210	0x3c357904	0.011076216
211	0xbb8c0deb	-0.00427412
212	0x38a1dcb8	7.71819e-05
213	0x3c050a06	0.008120066
214	0x3c21df81	0.009879948
215	0x3c71c78f	0.014757051
216	0xbbb25871	-0.005442672
217	0xbc46c232	-0.012131261
218	0x3bc62287	0.0060465964
219	0x3bf9ca45	0.0076229894
220	0xbd4a87ac	-0.049445793
221	0xbc134c39	-0.008990341
222	0xbb0c1130	-0.002137255
223	0x3beb7d31	0.007186555
224	0xbd6ac354	-0.057315186
225	0x3bef664b	0.0073058954
226	0xbb7b9c4c	-0.003839272
227	0x3c456e6c	0.012050252
228	0xbd36fb9b	-0.044673543
229	0x3c5a642d	0.013329548
230	0x3e396c84	0.18107802
231	0xbe4015c1	-0.18758298
232	0xbc1d3c1e	-0.009596853
233	0xbc708dd1	-0.014682249
234	0xbbd39948	-0.0064574815
235	0x3d093ac9	0.033503328
236	0x3ba43951	0.0050117155
237	0xb9230229	-0.00015545696
238	0x3b5a5ea1	0.0033320563
239	0xbad177ef	-0.0015981178
240	0x3c16d20d	0.009205353
241	0xbc0d06cc	-0.0086075775
242	0xbb104e71	-0.002201941
243	0xbc360238	-0.011108927
244	0xbcf8c96b	-0.030369481
245	0xbb664b0c	-0.0035139946
246	0x39530f11	0.00020128141
247	0x3db64b93	0.089011334
248	0xbd196a9b	-0.037455183
249	0xbc29cf67	-0.01036439
250	0x3a9a0d2e	0.0011753195
251	0xbd3025c5	-0.04300477
252	0xbd3f9cca	-0.046780385
253	0x3c80bcb9	0.01571499
254	0xbba2b28d	-0.0049651326
255	0x3ba19da8	0.004932124

action_model._discrete_distribution.branches.1.bias f4 [2]
0	0xbc123384	-0.008923415
1	0x3c1233d8	0.008923493
