results/first/SpaceInvaders/SpaceInvaders-12978.onnx (onnx, 79398 bytes, 9 tensors)

discrete_act_size_vector f4 [1, 2]
00000000: 0000 4040 0000 0040
3.0 2.0

network_body._body_endoder.seq_layers.0.weight f4 [128, 6]
00000000: 3821 f73d d2ea 9d3d 8ebd 9b3d cde6 df3d
00000010: 902f d2bd a37f 85bf 8851 cdbe c49b 82bf
00000020: f71d d8be 255d 6a3f 4229 5fbb 1228 f73e
00000030: 263c 3abc 9a19 05be 2c26 c3bb 8d68 a0bc
00000040: b47f 163e 82db ea3e 312f 373d de8f ce3d
00000050: b08b 17be 0abf 27bf 3818 da3c 15db 9c3d
00000060: e3c3 6c3f 902e e8bd 341a b53e fc0e 1bbf
00000070: 6573 313f 2441 3a3e f10f d7bd 419a c6be
00000080: 4c49 2c3f 5109 5cbe a253 633f eec9 d2be
00000090: 3265 703e ba3b 1abd 1961 683e f32e 83bf
000000a0: 0249 123f d36d 2fbd d605 713d ccfc 543d
000000b0: bbb1 89be ef85 35bd 6acd 643e 75ee 113f
000000c0: 80e0 f33e a089 9e3e d24a 313e 97a6 e0be
000000d0: 51a5 0e3d 0c21 4c3d e34f 833e ced9 abbe
000000e0: 3ea6 773e 4040 3cbe 9948 033f 1d9f 89bd
000000f0: cb0b 363e 3c85 5abe 4579 b73e 544b 29bf
00000100: db9c 0abe 107b 2f3e 6e50 903e 3bda 58be
00000110: da63 243e e165 f23e 68a5 67be 60f4 28bf
00000120: 596f 993e e918 bd3e e1b4 843e 02a1 31bf
00000130: f44d c2be 2326 2cbf 7940 b43d 383c c0bd
00000140: 3463 2cbf 99d2 03bf 6f76 24be 91da 07bf
00000150: 9c81 1bbe 4cfe 913e b98f 0b3d 477a ee3e
00000160: 2b99 db3d be29 093f d935 af3d e93c 8abd
00000170: 4c38 613e 1907 c03e 53da b43e e8ad e6bb
00000180: 36fb bc3e 3b8f 7ebd 7025 98be e73b be3e
00000190: 81e5 293e 24bd 003f 64aa 323e 33da c8be
000001a0: b74d 35be 4448 2a3f e239 51be 228e 9cbe
000001b0: aa80 8a3e 275e 8cbd c66f 90bd 236b 8dbd
000001c0: c6bc 803e 852b 41be 8f16 223e d6b1 26bc
000001d0: 7176 ce3e a41a a4be 19d5 1f3f e5ae 87be
000001e0: fea1 6ebe 1e21 c23c c67d 2dbc e736 f43e
000001f0: 78b3 cebd 4b02 b6bd 6f5f 463f 383b f43e
00000200: ede2 223e 0630 7bbe c158 3ebf 7fba e73e
00000210: 9519 26bf 4539 0f3e 9d1c 6d3e ad7d 1a3d
00000220: 3e8f 0bbb 45d6 e03e dc0a 543e 1895 78bb
00000230: 69bc b53c 3b9e e03c a588 553e a000 cabe
00000240: b693 393f 286d 38bf b326 b43e 2539 263e
00000250: 9343 5ebf cde4 8abe 86df 323f b44d ed3e
00000260: 9bc2 453e 742d a83d 971b a0be daee 033f
00000270: 33be 88be 7da0 e9be 2558 d83e 476f 093f
00000280: 7cf7 423f 83d1 eabe 7b4b 29be c82f 5fbe
00000290: 4242 d8be 75ec 1a3e 7adb e7bd c2ed f3be
000002a0: b98f 563d 9d56 f8bd cd56 2cbf 56e2 1cbd
000002b0: 34e1 d03d 38bf 95be c3b7 a3be 30fb 613e
000002c0: a9ca d1be d31f 80be 1187 893f 9035 873f
000002d0: f0b5 c5bd fbc2 633e a986 c2be b904 893d
000002e0: 32d3 bd3e 4d2a 503e b712 57bf f9b2 1cbf
000002f0: 77fc 83be 1285 ef3c 7b40 ddba 2883 57bd
00000300: 1823 cbbe 0246 0d3e 9498 e3bb 6906 1fbf
00000310: 15cf 6ebf 8f1d 11be 0c6a 3cbe 65d9 5dbe
00000320: e97d 5cbe cde3 8cbd d723 10bf e302 293d
00000330: 0f7a a6be 8b31 fb3e 6619 f63d a413 59be
00000340: 71fd cabc e1c9 323e 274f 70bf ffec 95be
00000350: 95c5 21bd f5c9 b43d ceb9 213e 4b6a adbd
00000360: 6903 363f b7e1 0abf 8917 163f 81b4 b53e
00000370: e38d 2abf 4daf 2abf 8dc3 333f 2265 c83e
00000380: 8790 133c f2e8 99be 637e 9a3e 8897 113e
00000390: f3a2 d2be 363f bbbc 86d0 8cbe d660 373e
000003a0: 2ede 98be a41f 82be 00b5 5fbe f96f 833e
000003b0: 2bbf 78bd 2b39 10bf 4891 c53d 7315 5f3e
000003c0: f98e 05bf 8787 07be 72c7 9a3e 3fad a53e
000003d0: f7e2 913e 3e64 1b3f a173 893d 07fc ce3e
000003e0: 37a1 01bf 04ee 2abe 5830 e4bc c4d8 ddbe
000003f0: 08b5 6e3f 8b89 52bf 4185 043f 1368 e63e
0.12066883 0.07710804 0.07604514 0.10932694 -0.10262978 -1.0429577 -0.40101266 -1.0203786
-0.4221036 0.9154838 -0.0034051691 0.4827276 -0.01136688 -0.12998047 -0.005955478 -0.019581104
0.14697152 0.45870596 0.04472274 0.10086034 -0.1479938 -0.6552588 0.026622877 0.07658974
0.924864 -0.11337006 0.35371554 -0.6056974 0.69316703 0.18188912 -0.105010875 -0.3878956
0.6729934 -0.21487929 0.8879949 -0.41169685 0.23476103 -0.037654616 0.2269329 -1.0248703
0.5714265 -0.042829346 0.058843456 0.0519989 -0.2689341 -0.044317182 0.22343984 0.5700448
0.47632217 0.30964375 0.17313698 -0.43877098 0.034825627 0.049836203 0.25646886 -0.3356461
0.2418451 -0.18383884 0.5128265 -0.067198016 0.17777936 -0.21339887 0.3583471 -0.66130567
-0.13536398 0.17136788 0.28186363 -0.21176998 0.16053715 0.47343352 -0.22621691 -0.65997887
0.29967764 0.36933067 0.2591925 -0.69386303 -0.379501 -0.6724569 0.0880136 -0.09386486
-0.6733887 -0.5149322 -0.16060804 -0.5306788 -0.15186161 0.28514326 0.03407261 0.46577665
0.10722574 0.5357932 0.085551925 -0.06749899 0.21994132 0.37505415 0.35322818 -0.007039774
0.3691041 -0.062148314 -0.29716063 0.37155077 0.16591455 0.50288606 0.17447811 -0.39228973
-0.17705427 0.6651652 -0.20432237 -0.3057719 0.27051288 -0.06853896 -0.07052569 -0.069052
0.25144023 -0.18864258 0.15828918 -0.010174235 0.4032474 -0.32051575 0.62434536 -0.2650062
-0.23303983 0.023697432 -0.010589069 0.47698137 -0.10092825 -0.08887156 0.7748937 0.4770143
0.15906878 -0.24530038 -0.7435418 0.45259473 -0.64882785 0.1398669 0.23155446 0.03771751
-0.0021295096 0.43913475 0.20707268 -0.0037930664 0.022184568 0.0274192 0.20852907 -0.39453602
0.72491014 -0.7204156 0.35185775 0.16232736 -0.8682186 -0.27127686 0.6987232 0.46348345
0.19312517 0.082117945 -0.3127105 0.51536334 -0.2670761 -0.45630255 0.4225475 0.5368542
0.7615888 -0.4586297 -0.165327 -0.21795571 -0.4223805 0.15129264 -0.11321159 -0.47642332
0.05238316 -0.12125895 -0.6731995 -0.03830179 0.10199204 -0.2924745 -0.31976137 0.22068477
-0.4097493 -0.2502428 1.0744344 1.0563221 -0.096538424 0.22242348 -0.37993363 0.06690354
0.37075192 0.20328636 -0.8401293 -0.6121059 -0.25778553 0.029238258 -0.0016880179 -0.052615315
-0.39675212 0.13796237 -0.006945679 -0.62119156 -0.9328473 -0.14171432 -0.18399829 -0.2166496
-0.21532406 -0.06879387 -0.5630469 0.04126252 -0.32514998 0.49061236 0.12016563 -0.21198899
-0.024779053 0.17459823 -0.93870777 -0.29282376 -0.03949507 0.08827583 0.15793535 -0.084675394
0.71098953 -0.54250664 0.5862966 0.35489276 -0.6662275 -0.6667374 0.7022026 0.39139658
0.009006626 -0.30060536 0.3017455 0.14217961 -0.41139945 -0.02285729 -0.2750284 0.17908034
-0.2985701 -0.25414765 -0.2184639 0.25671366 -0.060729187 -0.5633723 0.09646851 0.21785526
-0.52171284 -0.13235293 0.3023029 0.3235874 0.28493473 0.6069983 0.067115076 0.40426657
-0.5063662 -0.16692358 -0.027855083 -0.43329442 0.9324498 -0.82241124 0.5176583 0.45001277

network_body._body_endoder.seq_layers.0.bias f4 [128]
00000000: 5b76 bcbc 1ee2 9c3d af67 173e b5ce aebd
00000010: 04bb 103e 46c2 84bd 9b65 bb3c 3709 e0bc
00000020: 60e1 f1bd 8866 953b fe29 173e 5938 013d
00000030: 86d5 a0bd 25f9 083e e30f bfbd 7e99 3dbd
00000040: 8eae c73b e848 0f3d fa0e 033e 3ee7 d4bd
00000050: 1638 f6bc 993e 18bd e0b4 0cbe ebe2 46bd
00000060: 463f cf3c 97a4 42bc 9b9c 4fbd c608 973e
00000070: 471c 3e3e 9807 02bd f8a3 0cbc be6f bd3d
00000080: eb5e 853c 945b fb3d d234 a6bd cb15 58bc
00000090: 0658 67bc 8f9a 773d 6f22 26bd 6463 9dbc
000000a0: 0ddf a83b 9f7c e9bd 0b4e 813d c543 80bd
000000b0: 3c56 07bd e560 a43d e007 553e b1df b33d
000000c0: de4b ac3c 533a 0b3b 47f5 633e aa5a 0dbd
000000d0: 469b 93bd 56a7 fc3d 4ebc 953c 6290 99bd
000000e0: bcab 223c 86ef 61bb 6dac 10bc 0ca2 afbc
000000f0: a194 77bd 13a3 08be 91f0 afbc de39 2f3d
00000100: 3b5e 6d3c bf08 d13d c638 31bc 89cb 403e
00000110: bce0 2dbd 5c9b 9dbb 92be 943d 1223 2ebd
00000120: 0a8d 5dbd 30b1 80bd fe22 3ebd cedb 153e
00000130: 3d50 67bd ab6f 4ebb ec9b 37bc 2034 7ebd
00000140: 8de6 6c3e 0d74 3f3e a687 9dbb 867f d7bc
00000150: 3fa8 bd3d 349e 05be 68de 0d3e 7622 be3c
00000160: b1d6 263c dab0 dc3c a823 4f3c 1db7 75bc
00000170: a717 d4bd c10b e7bd 16ef cc3c 4edd 083c
00000180: 8c19 233e 6246 9fbd ea62 fcbc d49f 4c3b
00000190: 2e1f 86bd 9665 623d 3f9c 9c3e 6337 4e3c
000001a0: bae2 ba3d ad22 3a3d 5276 403c 71ed 3ebd
000001b0: d380 833c c588 e83c cc94 a2bd a708 edbb
000001c0: 8426 233e d4d6 323d 0f19 8f3c 7a9b 723d
000001d0: 5a81 b63d 51ac bcbd e5d3 c13c 783d 77bd
000001e0: 06a6 753e 0a66 51bb a3da 2bbd be00 b7bc
000001f0: dc23 65bd 4a03 843a e13f 18bd aef3 333d
-0.023005655 0.07660316 0.14785646 -0.0853552 0.14133841 -0.06482367 0.022875598 -0.027348144
-0.11810565 0.004559342 0.14762112 0.031547878 -0.07853226 0.13376291 -0.09329202 -0.04628896
0.0060938066 0.03498164 0.12798682 -0.103956684 -0.03005604 -0.037169073 -0.13740873 -0.04855625
0.025298726 -0.011880062 -0.05068646 0.2949888 0.18565474 -0.031745523 -0.008584015 0.09249829
0.016280612 0.122733265 -0.081155434 -0.01318879 -0.0141201075 0.060450133 -0.040560182 -0.019212432
0.005153543 -0.11400723 0.06313714 -0.06262926 -0.033041224 0.08026294 0.20803785 0.087829
0.02103227 0.002124448 0.22261535 -0.034510292 -0.072073504 0.12336604 0.018278267 -0.07498242
0.00992864 -0.0034475042 -0.008830172 -0.021439575 -0.060444478 -0.13343458 -0.021477016 0.042779796
0.014487798 0.10206746 -0.0108167585 0.18827643 -0.04245065 -0.00480978 0.07262911 -0.042513914
-0.054089583 -0.06283796 -0.04642009 0.1463463 -0.056473006 -0.0031499665 -0.011206608 -0.06206143
0.23134823 0.18696614 -0.0048074303 -0.026305925 0.09260606 -0.13048631 0.13854373 0.023209792
0.010183022 0.026939798 0.012642778 -0.014997271 -0.10356074 -0.11281539 0.025016349 0.008353544
0.15927714 -0.07777096 -0.030808885 0.0031223195 -0.06548916 0.05527266 0.30587956 0.012586447
0.09125276 0.045443226 0.01174696 -0.04661316 0.01605264 0.02838553 -0.07938537 -0.0072336975
0.15932661 0.043661907 0.017468004 0.059230305 0.089113906 -0.09212554 0.02366061 -0.060361356
0.23989114 -0.003195169 -0.041956555 -0.022339221 -0.0559424 0.0010071781 -0.037170295 0.043933563

network_body._body_endoder.seq_layers.2.weight f4 [128, 128]
00000000: dc8d 9a3d 9c1a 313e db0d 64bc 3102 ccbc
00000010: f729 b8be a33b 0d3c 3d18 abbd eef7 f9bd
00000020: a104 6d3d a52f 183d 1697 cdbd 0e4d 06be
00000030: cb46 79bd 5826 d6bd d751 a5bd 057f 3dbd
00000040: 798e 04be 6154 ffbd 4b31 5bbe 490e 503d
00000050: 9fa7 4ebe 7294 e03d 8fe5 1bbe de56 073e
00000060: 8511 cbbd 1538 a7bc 85b5 a93d 7dc7 26be
00000070: ff16 69be 725a ecbd 5b8e f5bd c8ee da3d
00000080: 1042 713d 87d7 92bd 5027 66ba fb08 7abd
00000090: bef4 8abe e72c 4e3c 7bf4 a0bd b2fc 04be
000000a0: 90bd 023d ff49 b8bc 3ef8 01be ecbe 24bd
000000b0: deee 01be 5400 403e 89db adbd 0e0d 4b3e
000000c0: 094f 2c3c eb4c 1abd 61c3 003e 8489 10be
000000d0: e4a0 c83d 3a4e 493e 64a4 cb3d da07 543d
000000e0: 85c4 89bc 26b6 c93d dc09 b3b8 60a0 86bb
000000f0: c92c ebbc 2f5f cebc c033 653d e616 893c
00000100: 57d9 7dbc dadc 233d a0b2 a1bd 75ba bdbd
00000110: 2bd4 323d 3e46 46be 0559 db3d 72e1 17be
00000120: fbb0 293d 1e90 1d3d 2289 9fbc d90a 5b3e
00000130: b7fc 9a3c 8a86 d13b a3f4 28bc 62fe a2bd
00000140: e05d 29be e8a9 953c f0c6 9dbd 5292 bebd
00000150: 6ecf 363d d90e 5fbd fe6f 063d 1c67 5cbe
00000160: 445f cabc a16f a33c 2984 bf3d 21f4 aa3b
00000170: f8df da3c b954 77bc d44c c73d fa19 e53d
00000180: 93fa 1c3e 3e74 1e3d 5359 a7bd 1efb d1bd
00000190: f914 69bd a1f8 583e b6ca fdbd dc3c 13be
000001a0: f975 f73c 6064 b0bd 74b0 c03d c610 3a3c
000001b0: 1252 bdbd dd42 d13d bcf1 83bd 67ee 883c
000001c0: 8fc1 c1bc 0689 b83d a5c4 e53d 0846 d6bd
000001d0: 4f42 8fbc 9854 9bbc 58f9 8e3c c6b7 e03d
000001e0: a577 c2bd 2a15 70bd aa13 d1bd c40e 923d
000001f0: cc22 f1bd 162a eb3d 6929 69bc cf69 0abd
00000200: 9e39 ea3d 9f91 0b3e 0562 32be 2964 7e3d
00000210: a4a3 1e3e 8659 bf3c 772a bcbd 14a6 553d
00000220: 811a 353d 9dee 373d e1bf d7bd 95cc 483d
00000230: 686a bcbd f3d8 86bd eb25 d13d 8992 2fbe
00000240: 7a1b 9e3b 4742 1ebe 5fce 153d a9dd 62bd
00000250: 2b3c 00be 1dad 1dbd 887a 76b9 0979 643d
00000260: 3416 96bc 01af a5bd 44c3 a63d da2f 11be
00000270: 34a9 06bd e582 76bd 737d e53c 865d 2d3e
00000280: f31e 7c3d 6177 75bd ac3c 2fbd 14df 783d
00000290: d5b4 ffbd 26f0 06be 82ed ad3d 0c23 853c
000002a0: 7359 833d 9ef5 9d3d d8e4 9ebc 9032 2cbd
000002b0: e02a b43c 8114 4e3d 31d4 7abd c577 ea3d
000002c0: 6deb 9bbd c8ba da3c 06c1 2cbe 4507 6fbd
000002d0: 0bee 4bbe 92e5 e03d f2f8 ffbd af4f 713d
000002e0: 1157 0ebe afc0 1b3e db98 b1bd c263 6b3e
000002f0: cf51 1c3e a283 1dbc ff45 d5bd 88d4 0a3e
00000300: a2b7 153d 3bf3 173d ccca 7f3c 472e ba3d
00000310: 5657 1ebd e631 14bb 2ca8 2f3e 3390 b83c
00000320: ad38 36bb 67e8 803d 5956 b9bd 151a e8bd
00000330: f4a0 86bd de9f fe3d eab8 80bd 6525 a53d
00000340: 32b1 92bd 87c3 53bd 0f0e 0dbd b202 ed3c
00000350: 58c6 d5bb 458b 263d 8379 c33d 3c08 873d
00000360: 40e7 2d3d 3a0b 5fbd a779 2e3e 967e afbc
00000370: ba30 633e 8bda f1bd 6bda 01be 6e95 61bd
00000380: ea0f 003e ff30 853d 8fa7 8ebd d68c 19be
00000390: fd4a 35be b468 463e 436d cfbe cf72 c13d
000003a0: 6fa8 153d 42fc 073e 7177 bbbd a5aa 78bd
000003b0: dfa5 9f3d 63fa 95bc 4680 8e3e 96fa 063d
000003c0: addf 93bd 41ea a9bd 934b fa3d 15ec 1ebe
000003d0: 7cd2 bcbd 1c56 153e 1efb 903d b98e 89bd
000003e0: f1fe 99be 1b1a 5f3d 7959 38bd cbe8 4abc
000003f0: ac68 243e 61d3 1a3e 121f 92bd 22b5 dc3d
0.07546589 0.17295307 -0.013919319 -0.024903389 -0.35969517 0.0086201755 -0.083542325 -0.12205492
0.057865743 0.037154812 -0.10038583 -0.13115332 -0.06085853 -0.10456532 -0.0807225 -0.046263713
-0.12944974 -0.12467266 -0.21405523 0.050794873 -0.2018113 0.10965814 -0.15224288 0.13216731
-0.09915451 -0.020412484 0.08286575 -0.16287036 -0.22762679 -0.115406886 -0.11990043 0.10690075
0.058900893 -0.07170015 -0.0008779662 -0.06104372 -0.27139848 0.012583948 -0.07859131 -0.1298702
0.031919062 -0.022496222 -0.12692353 -0.04022114 -0.12688777 0.18750125 -0.08489139 0.19829199
0.01051689 -0.03767101 0.12574531 -0.14114958 0.097963125 0.19658747 0.099434644 0.0517653
-0.01681734 0.09849195 -8.5372216e-05 -0.0041084737 -0.028707879 -0.025191871 0.055957556 0.016734552
-0.015493712 0.040005542 -0.07895398 -0.092640795 0.04365937 -0.19362733 0.107103385 -0.14832094
0.041428547 0.03846752 -0.01947457 0.21390857 0.018919332 0.006394212 -0.010312232 -0.07958676
-0.16539717 0.018269494 -0.0770396 -0.09305252 0.044631414 -0.05445752 0.032821648 -0.21523708
-0.02470363 0.01995069 0.093513794 0.0052170907 0.026718125 -0.015095883 0.09731451 0.11186595
0.15329961 0.038685076 -0.08171334 -0.10252975 -0.056904767 0.21188594 -0.1239218 -0.14378685
0.030207621 -0.08612895 0.09408656 0.011356538 -0.09244169 0.10217831 -0.064425915 0.016715242
-0.023651866 0.0901051 0.112191476 -0.10462576 -0.017487673 -0.018961236 0.01745288 0.10972552
-0.09495477 -0.058613934 -0.10208829 0.071317226 -0.11774215 0.11482637 -0.014231064 -0.033792313
0.11436771 0.13629769 -0.17420204 0.06210724 0.15492111 0.023358118 -0.09187787 0.052160338
0.04421473 0.044905294 -0.10534645 0.04902323 -0.09199983 -0.065843485 0.102123104 -0.17145742
0.004825053 -0.1545497 0.036573764 -0.055387173 -0.12522952 -0.03849517 -0.00023506035 0.05577949
-0.018321134 -0.0809002 0.08142713 -0.1417841 -0.03287621 -0.060183425 0.02801392 0.16930208
0.061552953 -0.0599283 -0.04278247 0.06075962 -0.12485663 -0.13177547 0.08492567 0.016252063
0.064135455 0.077128634 -0.01939623 -0.042040408 0.0219931 0.050312523 -0.061237518 0.114486255
-0.07613263 0.026700392 -0.16870508 -0.058356542 -0.19915025 0.10981287 -0.124986544 0.058913883
-0.139004 0.15210222 -0.08671733 0.22987273 0.15265583 -0.009613903 -0.10413741 0.13557637
0.03655208 0.037097197 0.015612315 0.09090858 -0.03865751 -0.002261275 0.17153996 0.022529697
-0.0027804777 0.06294327 -0.09049673 -0.113331 -0.06573668 0.12432836 -0.062852696 0.08063773
-0.071627036 -0.05170014 -0.034437235 0.02893195 -0.0065238886 0.04066016 0.09544661 0.065933675
0.042456865 -0.054454066 0.17038594 -0.021422666 0.22186556 -0.11809262 -0.12680976 -0.055074148
0.1250607 0.06503486 -0.06965553 -0.14995131 -0.17704387 0.19375879 -0.40513048 0.09445726
0.036537584 0.13279822 -0.09153641 -0.060709614 0.07795309 -0.01830787 0.2783224 0.03295382
-0.07220397 -0.082966335 0.12221446 -0.15519746 -0.09219834 0.1458363 0.07079147 -0.06716675
-0.30077317 0.054468255 -0.045007203 -0.012384604 0.16055554 0.15119697 -0.071348324 0.10776736

network_body._body_endoder.seq_layers.2.bias f4 [128]
00000000: 3d1c bdba 0403 8fbc 12be 163b c4bb 32bd
00000010: 5156 3bba cc58 3bbd b47b 9b3b c964 d9bb
00000020: 9343 97bc 7934 40bb b3dd 20bd 5dc8 91bc
00000030: 1e3e 05bd 61c3 ef3c 26ee 8c3c b44a bd3c
00000040: 850c c93b 026c 43bd de22 073c f87b 853c
00000050: 7155 313d d07f 033d fd3d a5bc 576a 323b
00000060: ae14 a13c 8b4e 0cbd 90e8 df3c 5284 2f3c
00000070: 8248 c33b 0af6 8fbd 3b90 73bd 2c3f 413d
00000080: 591c c0ba eb91 28bc 2100 75bc 67bf 843d
00000090: f749 f63a 1d7f fcbc 0541 8dbc 5185 b13d
000000a0: 7a85 a7bc beb0 9dbd 171b 4a3d 4e62 8d3c
000000b0: 62a7 73bd 212e 72bc 6018 b3bc 7280 51bc
000000c0: c314 29bd 24db 5b3d 355d f6bc ea33 333c
000000d0: aab3 60bc 8694 713c 0f0f 943c 8fb2 f1bc
000000e0: 1227 05bd dce1 c0bc ef16 3f3c c957 dc3b
000000f0: 4f30 ab3d 6950 46bc a14f adbc 4d27 983c
00000100: c1d7 fc3c f8d0 24bd 0116 19bd b219 9bbd
00000110: 1c52 713c d599 6ebd 8e92 d23b cd8b 753c
00000120: 275b 6e3b 4464 c7bc 92b1 053c d6c7 f2bc
00000130: 6276 19bd 6434 6aba 8574 07bd c7d2 bbbc
00000140: 2366 92ba 59b3 9dbc 8d56 203c e5b3 c5bb
00000150: c088 d63c ccc4 933b c1af 0bbd 146f b63c
00000160: b613 c0bc 1e43 003d d37a 523c 16f4 41bc
00000170: 69f2 55bd 3cc0 c93c 771a c6bc ca20 09bd
00000180: 8fbc 7ebc 6055 3f3c 956f 69bd dbeb 84ba
00000190: 5274 9c3d 7699 f03b 0fcb 94bc 3246 623d
000001a0: ad85 51bc f4ab a0bb 6d3e 9f3c 7b8b 0fbd
000001b0: 3d68 683d d72c 0b3c 9bdd 6ebc 6f79 a93c
000001c0: 0a51 85bc dc75 31bc eeca 8fbc d69f d63b
000001d0: fcbb d13c 97dc 3a3d ffe5 2a3d b56b 3fbc
000001e0: 44da 773d e593 853d a09d 02bb 7ec8 283d
000001f0: e0c3 11bd 915c 1ebd 3deb 36bd bc22 cd3c
-0.0014427971 -0.017457493 0.0023001474 -0.0436361 -0.0007146346 -0.04573898 0.004744971 -0.006634329
-0.01846484 -0.002932815 -0.03927393 -0.017795736 -0.032529943 0.029267969 0.017203402 0.02310691
0.0061355256 -0.047710426 0.008248059 0.016294464 0.043294374 0.032104313 -0.02017116 0.0027224028
0.019663181 -0.034254592 0.027332574 0.0107127 0.0059595713 -0.0702935 -0.05946372 0.047179386
-0.0014656886 -0.010288696 -0.014953644 0.064818196 0.0018790354 -0.030822331 -0.017242918 0.08668006
-0.020449389 -0.076997265 0.04934224 0.01725879 -0.0594858 -0.014781506 -0.021862209 -0.012786971
-0.041279566 0.053675786 -0.030073741 0.01093767 -0.01371471 0.014744883 0.018073587 -0.029504089
-0.032507963 -0.023545198 0.011663183 0.006724332 0.083588235 -0.012104132 -0.021156134 0.018573428
0.030864598 -0.04023835 -0.0373745 -0.0757326 0.014729049 -0.058252174 0.006426162 0.014986944
0.003637025 -0.024339803 0.008160012 -0.029636305 -0.037466414 -0.00089341984 -0.033070106 -0.022927655
-0.0011169355 -0.019250559 0.00978626 -0.006033408 0.026188254 0.004509544 -0.03410316 0.022269763
-0.023446899 0.031314008 0.012846666 -0.01183798 -0.052233133 0.024627797 -0.024182541 -0.033478536
-0.015547886 0.01167807 -0.05699118 -0.0010141091 0.07639374 0.0073425127 -0.018163232 0.055242725
-0.012788218 -0.004903311 0.019438947 -0.03504513 0.056740034 0.008494577 -0.014579202 0.020687787
-0.016273994 -0.0108313225 -0.01755282 0.0065498156 0.025602333 0.045620527 0.041723248 -0.011683394
0.06051089 0.06522349 -0.0019930378 0.04120683 -0.03558719 -0.038662497 -0.044657934 0.025040977

action_model._discrete_distribution.branches.0.weight f4 [3, 128]
00000000: 6c63 563c f30f 8b3c 5b48 c73b 213b 50bd
00000010: 2a8a 113e d90b 92bb 64a2 7e3d e64c 533c
00000020: 2d26 e1ba a1fe 04bc 6c22 8dbc 9d2e 3a3c
00000030: a2c4 d73a 9cc9 02be 0b4c fe3b b939 813d
00000040: 2981 cfbc 795b 4d3d 7ca8 ab3c 3809 4c3b
00000050: 72c9 123e b9f0 1abb a0ce eebb 2c57 3f3c
00000060: 68ad aabe ce30 a23c 96bd 58bc 0c37 de3b
00000070: 48b1 ffbd e799 43bc f429 213b 6ee5 6dbd
00000080: c4aa 913b d65f f23c 58b7 473d af66 5cbd
00000090: bab9 c93c ac3a bdbb 5f87 afbc e331 8a3c
000000a0: 7674 033c 47cf 843b 82af 19be 0671 db3c
000000b0: 55fc babc 5105 0a3d d317 0dba 3ce2 c8bd
000000c0: d8d3 9abc ba4d 793c 4a11 34bd 0052 353c
000000d0: 9ba2 cc3b 17cf 7c3c a4c6 503d 19e2 8439
000000e0: 85a1 ecbd c51a 06be 2324 5d3c fbb7 69bb
000000f0: d13a 9fbd d195 233c 082f 1bbd ead4 4dbd
00000100: fc00 183d 222b 6b3c 1437 c33c 89b6 2cbb
00000110: eec7 1bbe e1a0 59bb 75ce 96bc 3355 513c
00000120: 2edc 6b3b be85 073e 4017 0dbc b984 0ebc
00000130: 4133 7dbc 4edb 023c aea6 103d 0b2c 04bc
00000140: 718c 723b b7c1 613d 7671 463b 515c b43d
00000150: ccbe a1bc 0d14 45bc a7cb 88ba a95c 903d
00000160: b550 303d af58 4b3d 8fc4 4bbc e23c e93c
00000170: 626f 033c b856 5abd 3047 d2bc b650 2a3c
00000180: d58e b33b 3a4c 973c 29fa 8d3c a904 6e3c
00000190: 82f8 43bb a741 2ebd e392 1abc e6b0 3a3d
000001a0: 2dff d23b ab2e 8bbd f08d 36bc 06f8 053b
000001b0: d4b4 0ebb 4803 0abd 2846 2c3c baa4 a93c
000001c0: e69b d1b9 924b 94bb 449c 3c3c 2b11 6839
000001d0: 3366 8cbc 19bd bb3a fd18 cf3b a0d3 283d
000001e0: 6efd 0a3b 7a82 efbd 5478 52bb 4454 ad3a
000001f0: e25d b5bc d096 443c 583c 34bd a576 843c
00000200: 79f6 a33b a134 963b 1a02 633c 0a4a ce3d
00000210: eaec 84bd 9d4f 83bc 9619 f6bc f733 663c
00000220: fcdc 97bc baf2 183d 6dd5 39bc 8970 b63b
00000230: fe3a 7fbc ea17 b9bc b44a a03c 74b9 0cbd
00000240: 52dd 4a3d 71b0 63bd ba5a 6bbd 3996 a23d
00000250: 2e37 8fbe a40b b93c 40ec b83a df27 c33b
00000260: cdd3 393e e858 b4bc d2fd 8e3c 5fd5 1839
00000270: 1abb c43d 6a5a d6bd 1c00 91bd 1e1c 853d
00000280: e1be 033a 4abc ed3c 19a0 9a3a 8171 bf3e
00000290: 2615 d0bd e70b 50bc 9c1e e63b cec1 2a3d
000002a0: 97ee 01bc fa1b fcbd 5e08 183e 3eeb bc3c
000002b0: ab25 a7bd 7cb3 29bd 3d35 e4bb f03a 18bd
000002c0: f7fc b8bc 29a6 743c e56b f4bd 68e0 adbc
000002d0: 5ab1 06bc af55 4a3d 7d85 e13d 8038 273c
000002e0: f270 aa3d 2152 9a3d d856 363c bca0 8abc
000002f0: 72ec f13d be41 163b 3705 6dbd 466e ae3e
00000300: b96f 593c 89e5 733c 251e 02be 8689 c839
00000310: b647 cfbc 154e 96bd 3e3d cf3c 4c36 95bd
00000320: 79ca 5a3b 6f90 a3bd 108e 15bd 2ac3 023c
00000330: 6488 a5bb c13a 343b bc8c 623b ba78 7ebc
00000340: ea30 e1bb 47d7 2cbc 195e c63c 15aa 2dbc
00000350: df9e 8b3d ff2c b93d 686f 533c 45d6 c93b
00000360: 838f 73bd c68b aabd f6b2 d8bc e04a 44bc
00000370: 0c70 f0bd 7754 78bd ddd1 b53b 637e d2bb
00000380: 570c 89bc b150 a83b b30b 2e3d 1e54 a43b
00000390: d040 e23c ae65 303d 5e34 933c 59c8 eb3c
000003a0: c41d c1bc d3a7 f43c 8567 22bd fdde 99bd
000003b0: bc60 5e3d 6505 e0bc 6e7e 793c 3f7c e2bc
000003c0: eacd a83b 3a3a f6bb f589 05bd 5ace 0a3c
000003d0: 6009 c93b f000 5b3c 0ab1 bc3c 0bd2 febc
000003e0: b86a bf3c 3bae 943e 56c3 33bb 3e1f 8dbd
000003f0: 47cb 82bd 786c deb9 f8e2 c33b fdfc 6a3d
0.013085227 0.016975379 0.0060816235 -0.05083764 0.14212862 -0.0044569788 0.062166587 0.012896752
-0.0017177515 -0.008117349 -0.017228328 0.011363653 0.0016461799 -0.1277222 0.00776053 0.06309838
-0.025330143 0.050136063 0.020954363 0.0031133424 0.14334658 -0.0023642017 -0.007287815 0.011678498
-0.33335423 0.019798663 -0.013228795 0.0067814644 -0.124849856 -0.011938549 0.0024591656 -0.05808013
0.0044454057 0.029586714 0.048758835 -0.053808864 0.024624694 -0.0057748165 -0.021426855 0.016869491
0.008023372 0.0040530297 -0.15008357 0.026787292 -0.0228254 0.033696476 -0.0005382273 -0.09808776
-0.018899843 0.015216285 -0.0439618 0.011066914 0.00624497 0.015430233 0.05097069 0.00025345458
-0.11554245 -0.1309615 0.013497385 -0.003566264 -0.0777489 0.0099844495 -0.03788665 -0.05025188
0.037110314 0.014353545 0.023829974 -0.0026353917 -0.15212986 -0.0033207464 -0.018408993 0.012776661
0.0035989392 0.13234612 -0.0086115 -0.008698636 -0.015454114 0.007986857 0.035315208 -0.008067141
0.003700998 0.05511638 0.003028003 0.088066705 -0.0197443 -0.012028706 -0.001043667 0.070489235
0.04304572 0.049645122 -0.012437 0.028471414 0.008022161 -0.053305358 -0.02566871 0.01039522
0.0054796734 0.018468965 0.0173312 0.014527478 -0.002990276 -0.04254308 -0.009434435 0.04557886
0.0064391107 -0.067960106 -0.011142239 0.0020442023 -0.0021775262 -0.033694535 0.010514773 0.02070843
-0.0003997974 -0.0045256102 0.011511866 0.0002213164 -0.017138576 0.0014323323 0.0063201175 0.041217446
0.0021208185 -0.11694808 -0.0032115178 0.0013223966 -0.022139493 0.011998847 -0.04400286 0.016169855
0.005003747 0.0045839106 0.0138554815 0.100727156 -0.064905 -0.016029174 -0.030041497 0.014050475
-0.01853799 0.037340857 -0.011342389 0.0055676145 -0.01557803 -0.02259441 0.019566871 -0.03435655
0.049527474 -0.05558819 -0.05745957 0.07938809 -0.27971786 0.022588558 0.0014108494 0.0059556807
0.18147202 -0.02201505 0.017455015 0.00014575337 0.09605999 -0.10466464 -0.07080099 0.064995036
0.00050256966 0.029020447 0.001179698 0.37391284 -0.10160284 -0.01269815 0.007022692 0.041688733
-0.007930419 -0.123100236 0.14846942 0.023061391 -0.081614815 -0.041430935 -0.0069643543 -0.037165582
-0.02258156 0.014932194 -0.11934642 -0.02122517 -0.008220995 0.04939812 0.11011789 0.010206342
0.08322324 0.07535196 0.011129104 -0.016922347 0.118126765 0.002292737 -0.0578663 0.34068507
0.013271266 0.014886268 -0.12706812 0.00038249436 -0.02530275 -0.07339112 0.025297757 -0.07285747
0.0033384843 -0.07986533 -0.036512434 0.007981101 -0.0050516594 0.002750084 0.0034568748 -0.015531713
-0.006872286 -0.010549373 0.024214791 -0.010599633 0.06817412 0.090417854 0.012904979 0.006159576
-0.059463035 -0.08327441 -0.026452523 -0.011980742 -0.11740121 -0.060627427 0.0055486993 -0.006423758
-0.016729517 0.0051365723 0.042491626 0.0050149104 0.027618796 0.04306572 0.017969307 0.028782057
-0.023573764 0.029865181 -0.039649505 -0.07513235 0.05429147 -0.027346322 0.015227897 -0.027647136
0.0051515 -0.0075142654 -0.03260227 0.00847205 0.006135151 0.013366923 0.023033638 -0.031106016
0.023366317 0.29039177 -0.0027429662 -0.068907246 -0.06386428 -0.00042423955 0.0059779845 0.057370175

action_model._discrete_distribution.branches.0.bias f4 [3]
00000000: 789e 95bc 4e71 403d 615d 52bd
-0.01826404 0.046983056 -0.051358584

action_model._discrete_distribution.branches.1.weight f4 [2, 128]
00000000: 5f23 74bd def7 c73a ac03 ebbb c390 58ba
00000010: 157d 1f3d 86dd c6bb a567 7f3d 7e14 b5ba
00000020: 950a 6bba 7bcc 36bc 1031 8dbb 78da c139
00000030: 29d5 2f3b 3fd7 573e e3b8 3c3c 1528 913c
00000040: 5f0e a33c 1747 1f3e b714 473c 9f4d c33c
00000050: 79e9 413e a5d8 783b d6be a9bb e5d7 ccbb
00000060: cf6b 00bd 0633 d4bd 065d 18bb f593 12bc
00000070: 6c67 c7bc 7123 c83c 7981 763c 91e7 94bc
00000080: 8db6 663d d842 f93a 79d2 993c 6386 7bbc
00000090: dfda a43d 46ba 22bc cc1f e3bc a018 853b
000000a0: 9927 2fbd 17cd 113d cef6 7bbd 992b 8abb
000000b0: 05a5 ba3c 18ee 98bc cab0 423c 82c2 a33d
000000c0: bc5e f4bb 1288 8e3b 0775 3bbd 5c8a c33c
000000d0: 49c9 083c fbdd 9f3c a0b3 e3bc 9d79 14bc
000000e0: 2e94 0b3c 243a a63b 93d6 903c c185 56bd
000000f0: f57b 8c3a aadb 04bc fd70 42bc 30b7 ebbc
00000100: 0922 343d bcc6 c63c 165e bb3d 959b b13d
00000110: 5139 e3bd 4128 143c e495 113c 97fc 42bc
00000120: 30a3 2abb 967a 40bd d2cc cbbc b9c0 9bbb
00000130: b080 8cbc 5d11 523c 9c21 f2bc ad42 c839
00000140: 9575 913b 50ff 4c3c 088d e83a d579 553c
00000150: 430e bc3a bc32 6fbb 0c1d 4fbc f6c8 4c3b
00000160: 0e5d 91bb bc91 92ba a213 d639 97ce 5cbc
00000170: dd62 343c 64e2 d8bb b8d9 65bc eae0 173b
00000180: 6fad b33b f500 763c 1240 f1bc a57d 9e3b
00000190: bfae 5fbc b3be aab9 0acc b2bc 8c5e b23d
000001a0: 34b6 e1bb 9c74 0c3e 8828 ca3d 9197 4d3b
000001b0: 22a9 b1bb 1f65 b63b 4e52 89bb 7fa2 4fbc
000001c0: f809 aabb 4be3 893c 47ae 86bd eb0c 6fbb
000001d0: c874 73bc fe9b f1bb a02f a93b cf4b e73a
000001e0: 3b79 31bd ee11 b1bd cf9f abbb c553 373c
000001f0: e72d 5dbc e4a5 03bb 61d4 1cbe 3eef c1bb
00000200: 5916 1c3d b6f3 b73b c6ca 63bb bef1 cbba
00000210: fa06 4abd ffc3 f33b c2f8 80bd a15d 8cbb
00000220: b7fe 2cbb da13 1a3c 435d 3d3c a24b 163c
00000230: f048 b23b 1faf 58be 8ce5 8c3a d5e0 83bc
00000240: 4912 c8bc 056b 2cbe 5fa8 04bc 75e9 2abd
00000250: fc4d 3dbe 151e 303c 2c69 2e3c 6346 373b
00000260: 8232 863c 7060 db3d 01b0 36bb 1e7f 80bb
00000270: b375 c13c b192 98bc 704a 0ebd 1a6c d43c
00000280: 3f2e 80bd e0c4 9cba e86c a2bc fb00 b73c
00000290: 3023 8fbd 64df 3bbb 7046 d23c 9a4d 1a3a
000002a0: f756 203d f8d7 d6bc 445a 4e3d f2bb bcbb
000002b0: 1519 303b d2e3 4f3c 3ad8 633c 9909 a1bd
000002c0: a348 d23c d986 ec3b 7391 553d b354 81bc
000002d0: 9ce1 71bc 495c 013b a7af 9d3c 3f15 3abb
000002e0: c371 19ba 3669 9abc d071 eebc d0f0 513d
000002f0: bb26 c23b 4452 09bc 4a1d 423c 186e 233c
00000300: c8c4 d0bc ddb0 5dbb 46ef bfbd 54c7 bebd
00000310: 342e 043e a01b 0fbc e573 2fbc e9d1 2a3c
00000320: ebd4 34bb b5d2 4d3d a7dc b9b9 ff6f 7c3c
00000330: cce3 a23c b3ed 82ba d169 fc3a 818e ec3b
00000340: 536e b93b 0d40 d8bc 7dc8 0cbc 26f5 33bc
00000350: b319 0e3b e5f6 823c 7d29 2e3c 6d2a f4bb
00000360: a391 3a3b 47a4 b53b adf5 ae3b 354d 3ebb
00000370: 4409 d13b 3a5d 80bc d4ed 443c 52e7 63bb
00000380: cf41 bdbb de0a cdba 7833 093d 6fe7 cb3a
00000390: ed01 893b 95d6 a539 ea94 063d aa97 acbd
000003a0: 3b3f b1ba f68d 16be b5ea dbbd 8cd6 a8bc
000003b0: f1d8 093c e2d9 2038 2a76 48bc 6e7c a1bb
000003c0: 3d85 a63b 2d1f 96bc 751b 7e3d 0caa da3b
000003d0: d8eb 9938 946b 36bc c7b0 15bc 075b c3bc
000003e0: 2852 473d a80d d23d c6ed 14bc 8b3c b9bb
000003f0: 78fc c03c 89f8 40bb b322 1f3e 40e1 043a
-0.059604045 0.0015256365 -0.0071720686 -0.0008261317 0.038937647 -0.006068888 0.062354703 -0.0013815311
-0.00089661154 -0.01115715 -0.004308827 0.000369746 0.0026829934 0.21078204 0.01151869 0.017719308
0.019904314 0.15554462 0.012150935 0.023840724 0.18936719 0.0037970927 -0.00518022 -0.0062513226
-0.031352814 -0.103612944 -0.0023248806 -0.0089464085 -0.024341308 0.024430962 0.015045517 -0.018176826
0.056326438 0.0019017113 0.018777119 -0.0153518645 0.08049559 -0.009932106 -0.027725123 0.0040617734
-0.042762373 0.03559598 -0.06151467 -0.004216623 0.022783766 -0.01866822 0.01188297 0.07996084
-0.0074575823 0.004349717 -0.045765903 0.023869686 0.008348771 0.019515028 -0.027795613 -0.009062198
0.0085192155 0.005072849 0.017680442 -0.05237365 0.0010718094 -0.008109013 -0.011867759 -0.028773874
0.04397777 0.024264686 0.09148805 0.08672253 -0.110949166 0.0090428 0.008885834 -0.011901042
-0.0026037209 -0.046991907 -0.02487794 -0.004753199 -0.017151207 0.012821523 -0.029557042 0.0003819665
0.0044390657 0.012512043 0.0017742226 0.013029535 0.0014347512 -0.0036498746 -0.012641203 0.0031247712
-0.004436142 -0.0011182348 0.00040831888 -0.013476989 0.011009899 -0.0066187847 -0.014028959 0.002317483
0.0054833214 0.015014877 -0.029449496 0.0048367553 -0.013652503 -0.0003256701 -0.021825809 0.0870944
-0.0068881754 0.13716358 0.09871012 0.0031370858 -0.0054217735 0.005566254 -0.0041907197 -0.012673019
-0.0051891766 0.016832015 -0.065762095 -0.0036476206 -0.014859386 -0.007373332 0.005163148 0.0017646494
-0.043328505 -0.08645998 -0.0052375565 0.011189406 -0.0134997135 -0.0020087892 -0.15315391 -0.0059184125
0.03810725 0.0056137694 -0.0034758314 -0.0015559716 -0.04932306 0.007439136 -0.06297447 -0.0042836224
-0.002639694 0.009404147 0.01155788 0.009173306 0.0054408237 -0.21160553 0.0010749563 -0.01609842
-0.024422782 -0.168377 -0.008096783 -0.04172655 -0.1848678 0.01074936 0.010645192 0.0027965538
0.016381506 0.10711753 -0.0027875903 -0.0039214035 0.023615694 -0.018624635 -0.034738958 0.025930453
-0.06258821 -0.0011960529 -0.019827321 0.022339335 -0.06989133 -0.0028667087 0.025668353 0.00058861973
0.039145436 -0.026226029 0.050379053 -0.0057597095 0.0026870419 0.012688594 0.013906533 -0.07863159
0.025669402 0.0072182235 0.052140664 -0.015787458 -0.014763262 0.0019738844 0.019248797 -0.0028394011
-0.00058534386 -0.018848997 -0.029107004 0.051255047 0.005925027 -0.00838143 0.011847803 0.009974979
-0.025484458 -0.0033827343 -0.0937181 -0.093153626 0.1290825 -0.008734614 -0.010708784 0.010426023
-0.002759273 0.050249774 -0.00035450349 0.015407561 0.019884013 -0.0009989053 0.001925761 0.007219136
0.0056589036 -0.02639773 -0.008592722 -0.010983741 0.0021682798 0.01598687 0.010630009 -0.0074513466
0.0028468154 0.005543265 0.0053393454 -0.0029037718 0.0063792784 -0.015669454 0.012019593 -0.0034775329
-0.0057756673 -0.0015643497 0.03349635 0.0015556643 0.004181138 0.00031631129 0.03285686 -0.08427365
-0.0013522872 -0.14702591 -0.10738126 -0.020610116 0.008413539 3.8349892e-05 -0.012235204 -0.0049281633
0.005081801 -0.018325413 0.062037904 0.006673103 7.339538e-05 -0.011134047 -0.009136385 -0.023847116
0.048662335 0.10256511 -0.009089893 -0.0056529692 0.023557886 -0.0029445013 0.1554058 0.0005068965

action_model._discrete_distribution.branches.1.bias f4 [2]
00000000: 1be4 bf3a fa8e bfba
0.0014640124 -0.0014614754
