results/first/SpaceInvaders/SpaceInvaders-14143.pt (torch, 958647 bytes, 83 tensors)

discrete_act_size_vector f4 [1, 2]
3.0 2.0
00000000: 0000 4040 0000 0040

network_body._body_endoder.seq_layers.0.weight f4 [128, 4]
-0.29072222 -0.072091 -0.1820925 -1.1327248 -0.5020768 -0.14712337 0.056038696 -0.1005983
0.38028255 0.358083 -0.071949475 0.08415825 -0.39141315 -0.2659118 -0.478682 0.20788226
0.13375622 -0.09773127 -0.2144313 0.471711 -0.7126406 0.4151177 0.22666687 -0.06694153
0.11114185 0.30634534 -0.70819914 0.2700979 -0.5549952 0.47783047 -0.04371354 0.09623342
0.5887935 0.20751043 -0.19784164 -0.5209767 -0.23740436 -0.61417127 0.5705964 -0.7666641
-1.0220321 0.42675927 -0.10070955 -0.0868785 0.24590583 0.23976885 -0.048948817 0.10255872
-0.3559203 0.38995758 0.036636915 -0.3387869 -0.03306931 -0.12156184 -0.03912444 -0.4525501
-0.0876916 0.71882594 -0.66352355 0.9990877 -0.2855079 -0.1837088 -0.14259106 0.20245624
0.02228998 0.6441093 -0.7449936 0.3727583 0.13924238 -0.46124354 0.84092873 -0.57004654
0.20842105 -0.52509344 0.043509774 0.77225256 -0.009679671 0.21937343 0.55298764 -0.02153595
-0.39836538 0.3853815 -0.21292917 -0.32115194 0.05604884 -0.4960214 0.19311006 0.6737742
-0.5508722 -0.21073972 -0.61893487 0.7260049 -0.0124935 0.06707245 -0.21187632 -0.043064278
0.50950235 0.14258859 0.41188052 0.00016764161 0.30117473 0.4214242 -0.15043958 0.79945314
1.5730551 -0.29954466 0.3283252 0.24143371 0.64985913 -0.90425706 0.33199707 0.46487606
-0.10968517 -0.15432182 -0.0035183525 0.84236705 -0.08345321 -0.13950609 -0.05884386 -0.44653103
-0.2453467 -0.19634502 -0.09329568 0.01900497 -0.4611261 0.48794815 0.29360655 0.45804423
0.1642836 -0.043931324 0.1572788 -0.35508108 0.6280851 -0.47540042 -0.23760009 0.8432092
0.09362685 -0.064098 -0.36851457 -0.268208 -0.19609067 0.5322208 -0.3589284 -0.1746422
-0.010558128 0.09565331 0.31539616 0.19659682 -0.26010045 -0.18694103 -0.07389414 0.122557685
0.19375254 -0.012575954 -0.12945676 0.22119501 -0.8896415 0.43010575 -0.0031344565 0.49135715
0.019547982 -0.2854736 0.360535 -0.16741297 -0.016444148 -0.11191681 -1.0339108 -0.6211438
-0.60071456 -0.6147573 0.11421054 0.6676558 0.27312964 -0.00575612 -0.76384777 -0.24881044
0.15388587 0.15228279 -0.20544201 -0.2783388 -0.15475397 -0.6067885 0.3880178 -1.5027988
-0.15987103 0.38895655 1.0131618 0.7173207 -0.3837634 -0.2638141 -0.6973626 0.33679512
0.18684669 0.17872843 0.99423015 -0.14916705 -0.7358052 0.5436499 0.31292102 -0.58446646
0.22232926 -0.017138418 -0.0032331694 -0.24764915 -0.030508503 0.4009539 0.063571125 -0.38657382
0.13596882 -0.05142188 -0.39340112 0.18526347 0.310694 0.38620853 0.3567856 -0.05494254
0.88412756 0.53084785 0.15765674 0.2809683 0.20001476 0.15349048 -0.16701518 -0.11979511
0.6686424 -0.6653026 0.6041758 -0.18556002 -0.65107584 0.1962817 0.6927795 -0.0072741015
-0.1420101 0.566004 0.028043725 -0.11316803 -0.74600816 -0.54169 0.43394214 -0.78003657
-0.37339693 0.26497194 0.014816306 0.12401548 -0.7937897 -0.3170806 -1.2033538 -0.597493
0.588486 0.24849856 -0.20287773 -0.17521104 -0.21203089 -0.09384771 0.14849584 0.40946567
00000000: 8bd9 94be 72a4 93bd 7576 3abe 20fd 90bf
00000010: 1b88 00bf 82a7 16be d588 653d 7b06 cebd
00000020: 65b4 c23e a856 b73e 3f5a 93bd 295b ac3d
00000030: 4e67 c8be 9725 88be cf15 f5be 16df 543e
00000040: 64f7 083e 5527 c8bd e193 5bbe 1b84 f13e
00000050: 9d6f 36bf 4f8a d43e 5c1b 683e a418 89bd
00000060: 579e e33d 4cd9 9c3e 8a4c 35bf 464a 8a3e
00000070: 2a14 0ebf 32a6 f43e f80c 33bd 0716 c53d
00000080: 2cbb 163f 9d7d 543e 0097 4abe bb5e 05bf
00000090: 211a 73be 543a 1dbf 9b12 123f 1944 44bf
000000a0: f3d1 82bf 3180 da3e cf40 cebd 5bed b1bd
000000b0: bdce 7b3e f785 753e 8e7e 48bd 4e0a d23d
000000c0: 303b b6be 85a8 c73e 9710 163d 7a75 adbe
000000d0: af73 07bd 6af5 f8bd f340 20bd a6b4 e7be
000000e0: a797 b3bd fa04 383f aedc 29bf 36c4 7f3f
000000f0: 172e 92be 291e 3cbe 6403 12be b050 4f3e
00000100: 7a99 b63c 59e4 243f e7b7 3ebf 2dda be3e
00000110: 8e95 0e3e 1d28 ecbe 1b47 573f 92ee 11bf
00000120: 546c 553e 866c 06bf 4e37 323d 58b2 453f
00000130: 7c97 1ebc 6ea3 603e 9990 0d3f 296c b0bc
00000140: 8cf6 cbbe b950 c53e 1b0a 5abe 076e a4be
00000150: 7893 653d 84f6 fdbe a5be 453e 777c 2c3f
00000160: f605 0dbf 27cc 57be 8472 1ebf 75db 393f
00000170: 89b1 4cbc 485d 893d 1bf6 58be 2b64 30bd
00000180: bf6e 023f be02 123e 01e2 d23e f4c8 2f39
00000190: 9333 9a3e eac4 d73e d50c 1abe f6a8 4c3f
000001a0: df59 c93f eb5d 99be 3e1a a83e 663a 773e
000001b0: 2b5d 263f 647d 67bf 85fb a93e 3c04 ee3e
000001c0: 9ea2 e0bd 8a06 1ebe 2994 66bb 5ea5 573f
000001d0: 84e9 aabd afda 0ebe 4206 71bd b79f e4be
000001e0: 2a3c 7bbe ab0e 49be ce11 bfbd 50b0 9b3c
000001f0: b818 ecbe 57d4 f93e 9953 963e c684 ea3e
00000200: f639 283e 55f1 33bd b20d 213e 30cd b5be
00000210: 2fca 203f af67 f3be 704d 73be 8fdc 573f
00000220: 6fbf bf3d d045 83bd f1ad bcbe 8f52 89be
00000230: fecb 48be 9f3f 083f 77c5 b7be 68d5 32be
00000240: 00fc 2cbc e2e5 c33d 9b7b a13e ad50 493e
00000250: e32b 85be 786d 3fbe d055 97bd 86ff fa3d
00000260: 1167 463e 600b 4ebc 5090 04be f280 623e
00000270: 8cbf 63bf d236 dc3e 746b 4dbb 2a93 fb3e
00000280: 1723 a03c 9829 92be 0b98 b83e 4e6e 2bbe
00000290: e1b5 86bc a434 e5bd 3057 84bf 4803 1fbf
000002a0: 6ec8 19bf bc60 1dbf 37e7 e93d 7eeb 2a3f
000002b0: a6d7 8b3e d69d bcbb 878b 43bf 2ac8 7ebe
000002c0: 4294 1d3e 05f0 1b3e 645f 52be 6c82 8ebe
000002d0: d377 1ebe 7e56 1bbf 45aa c63e b65b c0bf
000002e0: 3bb5 23be 5025 c73e 49af 813f 54a2 373f
000002f0: a37c c4be a412 87be 5b86 32bf 6970 ac3e
00000300: bd54 3f3e 9604 373e de85 7e3f 3fbf 18be
00000310: bb5d 3cbf a42c 0b3f 2f37 a03e 989f 15bf
00000320: 48aa 633e de65 8cbc 95e3 53bb bd97 7dbe
00000330: f8ec f9bc d449 cd3e 9431 823d 01ed c5be
00000340: 693b 0b3e c09f 52bd df6b c9be b5b5 3d3e
00000350: 4913 9f3e 20bd c53e 9aac b63e 6e0b 61bd
00000360: 2f56 623f a5e5 073f c570 213e 14db 8f3e
00000370: abd0 4c3e 9c2c 1d3e 0706 2bbe 2357 f5bd
00000380: 262c 2b3f 4551 2abf 44ab 1a3f 7203 3ebe
00000390: e8ac 26bf 12fe 483e ff59 313f 965b eebb
000003a0: 186b 11be a3e5 103f f4bb e53c a4c4 e7bd
000003b0: 64fa 3ebf 32ac 0abf aa2d de3e 7ab0 47bf
000003c0: e22d bfbe 67aa 873e 17c0 723c d4fb fd3d
000003d0: cd35 4bbf 6358 a2be 7f07 9abf 4df5 18bf
000003e0: 05a7 163f 6876 7e3e 2ebf 4fbe 866a 33be
000003f0: a01e 59be 3a33 c0bd 4b0f 183e 7ca5 d13e

network_body._body_endoder.seq_layers.0.bias f4 [128]
0.007652974 0.05262209 -0.027297527 0.47645864 0.016674178 -0.03598114 -0.15321814 0.031057762
0.17828609 0.19011876 0.014109456 -0.060889903 -0.0057234853 0.5694609 0.05428885 -0.014553433
-0.0027961328 -0.02744474 -0.07405955 0.02402269 -0.09037257 -0.002742265 -0.11870078 -0.3093466
-0.029058374 -0.09059747 0.038412917 0.110865295 0.08062076 0.54037195 0.46257943 0.086756445
0.06514388 -0.091714 0.331049 0.014686262 -0.13199085 0.04713323 0.02406583 0.056368828
0.07377344 0.35727152 0.0021217677 0.19104564 -0.32633114 0.07335059 -0.08571873 0.41684616
0.06762617 0.016412072 0.3853898 -0.053665996 0.25776148 -0.1485114 -0.12294293 -0.20063995
0.032276493 0.04291216 -0.14578816 0.052068133 0.043201614 -0.21858656 -0.22997645 -0.0278457
0.042110812 0.23205537 0.6377985 -0.10783804 -0.14523946 0.05699772 0.011850545 -0.0879439
0.067914814 0.06773411 0.15213038 -0.08796986 -0.11431663 -0.14690071 0.12272144 -0.013739911
-0.0396949 -0.16326162 0.009107965 0.005937546 -0.016722472 -0.028086618 -0.02259488 -0.12775779
-0.21675529 0.12898536 0.20848003 0.047289867 -0.13353072 0.15806518 0.039684236 0.39061195
-0.16169517 -0.089429826 0.1452649 0.14827001 -0.10558508 -0.011853055 -0.18543245 0.026034793
-0.06874288 -0.11846298 -0.11490209 -0.06997997 0.011581999 -0.051404666 0.12329791 0.066967934
0.51930636 -0.07241933 0.0707746 -0.042493846 -0.14127864 0.09010953 0.0020328313 -0.053919964
0.20837323 -0.20463881 0.371046 -0.0070810523 0.11338211 -0.029009081 -0.059862647 0.084774196
00000000: cdc5 fa3b 438a 573d 109f dfbc 63f2 f33e
00000010: 4998 883c f660 13bd 37e5 1cbe d96c fe3c
00000020: a190 363e 7eae 423e 592b 673c b167 79bd
00000030: 138c bbbb 31c8 113f fc5d 5e3d 8671 6ebc
00000040: 533f 37bb cbd3 e0bc 89ac 97bd 3bcb c43c
00000050: 4115 b9bd 92b7 33bb 6519 f3bd ad62 9ebe
00000060: d40b eebc 2b8b b9bd dd56 1d3d 580d e33d
00000070: 7f1c a53d d155 0a3f 36d7 ec3e 5dad b13d
00000080: 286a 853d 8dd4 bbbd 417f a93e a69e 703c
00000090: 9c28 07be c60e 413d b425 c53c 00e3 663d
000000a0: 8816 973d 4bec b63e 5b0d 0b3b 78a1 433e
000000b0: e014 a7be d638 963d 4d8d afbd dc6c d53e
000000c0: 977f 8a3d 9c72 863c d051 c53e e0d0 5bbd
000000d0: 50f9 833e 5f13 18be 81c9 fbbd 8f74 4dbe
000000e0: 5b34 043d a9c4 2f3d 7e49 15be 6545 553d
000000f0: 2df4 303d 28d5 5fbe f27e 6bbe aa1c e4bc
00000100: 637c 2c3d ec9f 6d3e c346 233f 31da dcbd
00000110: a7b9 14be 7176 693d ca28 423c ee1b b4bd
00000120: ec16 8b3d 2eb8 8a3d 11c8 1b3e 8b29 b4bd
00000130: d61e eabd 246d 16be 6155 fb3d 5d1d 61bc
00000140: 1f97 22bd 0e2e 27be 9339 153c bf8f c23b
00000150: 91fd 88bc e815 e6bc e618 b9bc f0d2 02be
00000160: 19f5 5dbe bd14 043e ca7b 553e 05b3 413d
00000170: 47bc 08be d7db 213e f08b 223d 4afe c73e
00000180: 6b93 25be fc26 b7bd 52c0 143e 18d4 173e
00000190: fe3c d8bd 5133 42bc 01e2 3dbe eb46 d53c
000001a0: 11c9 8cbd b89c f2bd c951 ebbd a951 8fbd
000001b0: 6dc2 3d3c b38d 52bd 9d83 fc3d 7c26 893d
000001c0: 43f1 043f 9650 94bd 46f2 903d 070e 2ebd
000001d0: 59ab 10be 588b b83d 4039 053b 2edb 5cbd
000001e0: cb5f 553e d68c 51be bef9 bd3e 2c08 e8bb
000001f0: e134 e83d 74a4 edbc 8932 75bd 189e ad3d

network_body._body_endoder.seq_layers.2.weight f4 [128, 128]
0.1796734 0.1539225 -0.35708615 -0.030301003 0.22116116 0.07434494 0.021069083 0.1403341
0.27508348 -0.056217827 -0.07483779 -0.15498255 0.14779136 0.08872354 0.15473492 0.11440602
-0.033693142 -0.02337059 0.04716627 -0.10422598 0.014984603 -0.05656302 0.07482184 -0.15200236
0.042486735 -0.094812185 -0.063622996 -0.05940882 -0.10257223 -0.10053976 0.09037494 -0.10347907
0.12924476 -0.0077059767 0.0624495 0.064380534 0.0056824097 0.23327148 0.029394504 9.188709e-05
-0.14292876 -0.0442205 -0.14019504 0.17177166 -0.21530582 0.030679507 0.0018325241 -0.1034311
-0.21182701 -0.023643652 0.1965247 0.06147696 0.14306408 -0.34604695 0.031398717 -0.28066123
0.0945205 -0.07153985 -0.13573714 0.60126233 0.012495477 0.09940245 0.10785197 0.4018108
0.06627829 -0.430195 -0.1731917 0.041210044 -0.016477518 0.2701704 -0.011109844 -0.1366689
0.4636523 0.10271495 -0.014887068 0.004418255 -0.06348502 0.18592487 0.060920868 0.3618177
0.0863324 -0.04715601 -0.1463786 -0.01956606 0.14211641 -0.038444642 0.036818452 0.037300155
0.033548467 0.08111171 -0.1555079 -0.09954689 0.22735074 -0.049978647 0.14687678 0.040857494
-0.19060819 -0.17294885 0.16098985 0.20173492 0.2973325 -0.09515882 -0.059470195 0.030826071
-0.051927764 -0.12846483 0.10594807 0.07623418 -0.03092484 -0.23325308 -0.14981379 -0.11566571
0.044342138 0.025789943 -0.018963551 -0.12665704 0.0392322 -0.15849595 0.10569122 -0.08287895
-0.005318145 0.03870567 -0.052414447 0.07903505 -0.22908467 0.1428937 -0.09486359 0.064162105
-0.053756896 -0.07532762 0.059077807 -0.20601599 -0.16889147 -0.0038402525 -0.032033425 -0.048762117
0.058087498 0.082248546 -0.05334219 0.020962143 0.060669933 -0.23438604 -0.022052173 0.10191
-0.12778218 -0.12190053 -0.004969901 0.14786987 0.09598005 0.036516048 -0.0047107544 0.011919576
-0.016991904 0.08589533 0.002186522 0.027421145 0.04414149 -0.08071259 -0.117933914 -0.24128675
-0.03875029 -0.053643666 -0.1147552 -0.102337666 0.013897737 -0.1981142 -0.021985454 -0.0060276585
-0.1858791 -0.20362516 -0.024664685 -0.19499713 0.057475116 -0.021590054 0.062099203 -0.13260469
0.13629618 -0.15456672 0.017978933 0.027118294 -0.14657553 -0.020850573 -0.010433693 0.19366433
0.17579119 -0.07743263 -0.076187715 -0.16071278 0.15460591 0.129943 0.15763192 0.114310175
-0.096590966 -0.0274259 -0.2631351 0.06325618 -0.111203305 -0.09887638 -0.13318816 0.009011431
-0.076495774 -0.16506249 -0.084278606 -0.07288159 -0.06577019 0.14334463 -0.047646213 -0.08384338
-0.019076526 0.20320359 -0.028331492 0.0018439664 -0.11530348 -0.10246783 0.03629567 -0.06983671
-0.24209139 -0.041511588 0.1200288 -0.008233284 -0.10313845 0.15842032 -0.0101767685 0.011486374
-0.0555298 -0.0133568635 -0.017606894 0.016342998 -0.0009907823 0.079929255 -0.0018613354 0.062194213
-0.0077771973 -0.037653152 -0.062201988 0.011465476 0.016465424 0.11434562 0.025214994 0.05876624
-0.18083958 -0.10530288 0.113699004 -0.108914256 -0.16858569 0.014899369 0.08187468 -0.0015372249
0.020379957 -0.0111477235 -0.14873554 0.062476914 0.058818825 -0.018362822 -0.13840377 0.16578147
00000000: 4efc 373e dc9d 1d3e ffd3 b6be cf39 f8bc
00000010: 1278 623e 2942 983d 1299 ac3c beb3 0f3e
00000020: bed7 8c3e aa44 66bd 8e44 99bd bfb3 1ebe
00000030: 9e56 173e b0b4 b53d d572 1e3e b44d ea3d
00000040: d201 0abd ae73 bfbc 6b31 413d 6e74 d5bd
00000050: fb81 753c a0ae 67bd 313c 993d 82a6 1bbe
00000060: 9206 2e3d e42c c2bd c64c 82bd aa56 73bd
00000070: 6411 d2bd cae7 cdbd 7f16 b93d d6ec d3bd
00000080: bd58 043e 6b82 fcbb 0ccb 7f3d f1d9 833d
00000090: 8233 ba3b b8de 6e3e becc f03c 81b3 c038
000000a0: eb5b 12be 8e20 35bd 4a8f 0fbe e9e4 2f3e
000000b0: 2179 5cbe 9753 fb3c 4e31 f03a afd3 d3bd
000000c0: 2ee9 58be 55b0 c1bc c53d 493e 44cf 7b3d
000000d0: 647f 123e 112d b1be f19b 003d d4b2 8fbe
000000e0: f793 c13d 7c83 92bd adfe 0abe 54ec 193f
000000f0: d4b9 4c3c 8393 cb3d 7ee1 dc3d 25ba cd3e
00000100: e9bc 873d 8542 dcbe 2a59 31be ddcb 283d
00000110: dcfb 86bc c653 8a3e 1006 36bc eff2 0bbe
00000120: d663 ed3e 375c d23d e4e8 73bc 02c7 903b
00000130: 6f04 82bd 1763 3e3e 2988 793d 2b40 b93e
00000140: 0bcf b03d a926 41bd 46e4 15be 0049 a0bc
00000150: f786 113e 2178 1dbd f2ce 163d 0cc8 183d
00000160: 1e6a 093d e51d a63d 773d 1fbe 3ddf cbbd
00000170: a2ce 683e 69b6 4cbd de66 163e 305a 273d
00000180: cb2e 43be 8119 31be 86da 243e 9993 4e3e
00000190: f73b 983e a1e2 c2bd 0597 73bd f586 fc3c
000001a0: 35b2 54bd 498c 03be 4dfb d83d aa20 9c3d
000001b0: 1756 fdbc e5d9 6ebe c968 19be 25e2 ecbd
000001c0: 1aa0 353d 6e45 d33c 7359 9bbc 62b2 01be
000001d0: f1b1 203d c34c 22be a374 d83d 70bc a9bd
000001e0: d543 aebb d689 1e3d 88b0 56bd 21dd a13d
000001f0: 2c95 6abe ba52 123e d847 c2bd 6c67 833d
00000200: 3130 5cbd 5e45 9abd 92fb 713d dbf5 52be
00000210: e3f1 2cbe bfac 7bbb 7b35 03bd c9ba 47bd
00000220: 28ed 6d3d ed71 a83d 577d 5abd cdb8 ab3c
00000230: 0981 783d e502 70be c2a6 b4bc 31b6 d03d
00000240: 55d9 02be fca6 f9bd 8dda a2bb 336b 173e
00000250: 3091 c43d da91 153d ac5c 9abb 534a 433c
00000260: 9b32 8bbc e4e9 af3d c04b 0f3b 4fa2 e03c
00000270: b5cd 343d a44c a5bd 5687 f1bd e013 77be
00000280: a0b8 1ebd 76b9 5bbd c604 ebbd 6996 d1bd
00000290: 55b3 633c 73de 4abe d71a b4bc aa83 c5bb
000002a0: 1757 3ebe 1d83 50be 980d cabc 54ad 47be
000002b0: 076b 6b3d a0dd b0bc bc5b 7e3d 86c9 07be
000002c0: 3a91 0b3e bd46 1ebe 8e48 933c 2f27 de3c
000002d0: e517 16be d2ce aabc 15f2 2abc f14f 463e
000002e0: 9b02 343e 0095 9ebd 4e08 9cbd e491 24be
000002f0: 0351 1e3e c70f 053e 436a 213e 741b ea3d
00000300: 7cd1 c5bd 48ac e0bc a5b9 86be 758c 813d
00000310: 8fbe e3bd b37f cabd 7a62 08be aea4 133c
00000320: d1a9 9cbd 2406 29be 439a acbd f142 95bd
00000330: 85b2 86bd efc8 123e ad28 43bd 14b6 abbd
00000340: 6046 9cbc 9a14 503e 7217 e8bc 3fb1 f13a
00000350: 3b24 ecbd a7da d1bd c5aa 143d 8d06 8fbd
00000360: cee6 77be 0e08 2abd a9d1 f53d e5e4 06bc
00000370: 403a d3bd f038 223e 76bc 26bc 5831 3c3c
00000380: 3773 63bd bfd6 5abc 553c 90bc c0e1 853c
00000390: 23dd 81ba f3b1 a33d 0df8 f3ba 5cbf 7e3d
000003a0: dcd7 febb 313a 1abd 83c7 7ebd b1d9 3b3c
000003b0: 7fe2 863c 092e ea3d ad8f ce3c deb4 703d
000003c0: 032e 39be 09a9 d7bd 06db e83d 700e dfbd
000003d0: baa1 2cbe 7c1c 743c eaad a73d b57c c9ba
000003e0: def3 a63c f1a4 36bc 214e 18be cbe7 7f3d
000003f0: 02ec 703d a16d 96bc b8b9 0dbe 9ec2 293e

network_body._body_endoder.seq_layers.2.bias f4 [128]
-0.015186787 0.0064711766 -0.046019755 0.027149672 -0.015178339 0.037963923 0.11535167 0.057574924
-0.048507962 0.05316912 -0.033189755 0.05301298 -0.00079812604 -0.032681935 -0.0072279884 0.019891337
0.061390042 0.010158879 -0.087634616 0.016925389 0.20961201 -0.05132328 0.011975798 -0.23491515
-0.012519583 -0.104657665 0.013182295 -0.03941947 0.08510343 0.07788041 -0.07632837 0.06126478
0.009813421 0.021987345 0.0078014582 0.051866848 0.086203665 0.2574053 0.013915196 0.3595192
0.012641958 -0.03947062 0.07393354 -0.056095127 -0.030193519 0.09208582 -0.02240079 -0.022322476
0.006508274 0.028738398 0.028168889 -0.021599403 -0.0341292 -0.0069349534 -0.021093657 0.017462945
0.022185942 0.056597203 -0.0043636994 -0.020057064 -0.02957417 -0.031216836 -0.007844605 0.016937908
0.10549013 -0.017803114 -0.029691081 0.04623659 -0.033810746 0.005847066 -0.0010907671 -0.0009807987
0.14426716 0.010620961 -0.024657667 0.004031237 0.0011707115 0.018359227 -0.03618487 0.10941581
0.1925514 -0.07121738 0.010241166 0.12657073 0.21213469 0.018446557 0.08426077 -0.016518768
-0.020860849 0.020361803 -0.019896831 -0.011950343 0.032575704 0.13567553 -0.0099600535 0.12133211
-0.017918905 0.028114932 -0.05204216 0.22799067 -0.0059219794 -0.011124201 0.06011465 -0.030228008
-0.010800724 0.054259483 -0.02873618 -0.007492663 0.011077222 -0.010918897 0.00049831247 -0.10582134
-0.015100324 -0.0378082 -0.002803722 0.23257631 0.14761886 0.15076442 0.099127315 0.022563824
-0.016732663 0.0023994166 -0.24895966 0.07180132 -0.0020134212 -0.031036347 -0.10045234 -0.004353946
00000000: 00d2 78bc 2a0c d43b 367f 3cbd fd68 de3c
00000010: 91ae 78bc 0f80 1b3d 7f3d ec3d afd3 6b3d
00000020: 49b0 46bd ddc7 593d fbf1 07bd 2324 593d
00000030: 5539 51ba 7edd 05bd c3d8 ecbb 28f3 a23c
00000040: 2074 7b3d 6d71 263c c779 b3bd 1da7 8a3c
00000050: 88a4 563e 5c38 52bd 2336 443c 998d 70be
00000060: f01e 4dbc c256 d6bd 8dfa 573c 4f76 21bd
00000070: b54a ae3d c47f 9f3d 0c52 9cbd c7f0 7a3d
00000080: 79c8 203c ce1e b43c 60a3 ff3b 5572 543d
00000090: 8c8b b03d a1ca 833e 90fc 633c e712 b83e
000000a0: 3720 4f3c f2ab 21bd 786a 973d 01c4 65bd
000000b0: 6658 f7bc 7e97 bc3d dd81 b7bc a0dd b6bc
000000c0: 5c43 d53b ca6c eb3c 71c2 e63c 3bf1 b0bc
000000d0: 0fcb 0bbd 9b3e e3bb 9bcc acbc 730e 8f3c
000000e0: 4bbf b53c 78d2 673d 5dfd 8ebb b64e a4bc
000000f0: 8845 f2bc 73ba ffbc a886 00bc 5ec1 8a3c
00000100: 360b d83d d6d7 91bc b63a f3bc 9462 3d3d
00000110: 237d 0abd bf98 bf3b 12f8 8eba 258e 80ba
00000120: c5ba 133e 8a03 2e3c e0fe c9bc 7818 843b
00000130: 8f72 993a 1766 963c 9636 14bd 6515 e03d
00000140: 322c 453e 6bda 91bd 90ca 273c c29b 013e
00000150: d639 593e 3c1d 973c e990 ac3d 5e52 87bc
00000160: 5fe4 aabc cccd a63c aefe a2bc 5fcb 43bc
00000170: 1a6e 053d 87ee 0a3e 7e2f 23bc f87c f83d
00000180: abca 92bc 4951 e63c 292a 55bd 6376 693e
00000190: 2a0d c2bb 4842 36bc c73a 763d baa0 f7bc
000001a0: 85f5 30bc 313f 5e3d 2368 ebbc 0385 f5bb
000001b0: 3d7d 353c 2ce5 32bc 2fa1 023a dcb8 d8bd
000001c0: 5967 77bc c5dc 1abd a6be 37bb 7c28 6e3e
000001d0: 6629 173e fd61 1a3e 4303 cb3d c5d7 b83c
000001e0: f012 89bc 883f 1d3b 48ef 7ebe 920c 933d
000001f0: 9af3 03bb f03f febc f5b9 cdbd 8cab 8ebb

action_model._discrete_distribution.branches.0.weight f4 [3, 128]
0.07886775 0.057317447 -0.015600159 0.08378445 -0.041194748 0.10832583 0.24610119 -0.0035876955
0.014056188 -0.00015044557 0.0063535394 0.01650021 0.050754793 0.0069916593 -0.047877114 0.1010618
0.1746562 0.009436684 -0.0014087298 -0.04336412 -0.11417534 -0.03343984 0.037449256 0.03079269
-0.015074208 0.020728583 -0.012766679 0.020722207 0.12563366 0.14134562 0.016426863 0.09096952
0.055458523 0.054587647 -0.0022154911 0.06622574 -0.0069509353 -0.06602218 0.025605071 -0.31301424
-0.0045639547 0.027639078 -0.11904674 -0.0454721 -0.0028636984 0.12435078 0.057476312 0.010602287
0.0035640919 0.060106505 0.018683752 -0.035596903 -0.013362261 -0.00064915593 0.039764777 0.0127096865
0.0005276344 0.093951166 0.01892706 0.121996805 0.03094806 -0.0015538401 0.0046244576 0.03408322
-0.016759606 -0.02736537 -0.010866141 -0.0053910217 0.0013995084 -8.595045e-05 0.011320672 0.017431121
0.2882616 0.048857972 0.006454288 0.014858247 -0.0061380574 -0.017311007 0.0062190555 0.051376715
0.4491199 0.0012337286 0.046096217 0.2664395 0.40668216 0.087073475 0.15066442 0.015871542
-0.02042146 0.0067636017 0.045723036 0.051761188 0.05647251 0.2843526 0.0017254606 0.0125620365
-0.0017312518 -0.0128088575 0.0049525704 -0.06274709 0.01766852 0.02075542 0.15008923 0.004785443
0.0038246077 0.006542557 -0.0032611853 0.025996769 0.006954352 0.038810186 0.019778755 0.014043629
-0.0060959226 -0.010626591 0.0048620156 0.49138623 -0.026824592 0.33807284 -0.020468006 0.058483224
-0.01819797 -0.017271454 0.07412742 -0.0068056174 0.010915006 0.009207326 0.020615092 -0.04736893
-0.1194906 0.01612969 0.027975222 -0.040726885 0.0038275195 -0.017437106 -0.022867104 0.08960631
-0.00094043126 -0.025234547 -0.008278445 -0.042784493 -0.040999364 0.008787002 0.18872476 -0.032793842
-0.06808381 -0.0018515944 0.009638091 0.07268664 -0.12599099 0.055555474 -0.027828712 0.055902243
0.0011244017 0.02243062 0.030815504 0.014983841 0.03280541 -0.05006437 0.014526742 -0.028716965
-0.012637549 -0.06697589 0.19078667 -0.010830782 -0.04329357 -0.03206614 -0.02424053 -0.1273958
0.031412404 -0.076172695 -0.12926583 0.0921083 -0.00055904017 -0.011253285 -0.020056201 0.032751843
-0.00944043 0.007736888 0.035344604 -0.029070394 0.08078515 0.056090742 0.019124215 0.09498866
0.006639498 -0.021090759 0.016603997 -0.020027023 0.012305247 0.12947392 0.042923957 -0.028818969
0.0169844 0.085335895 0.035664465 0.033720993 -0.012072605 0.009737178 -0.0040139263 0.00031251268
-0.03490661 -0.019046087 0.08398142 -0.0040078163 0.04067298 0.053803496 -0.020015545 -0.27784798
0.021564057 0.02223387 -0.023318045 -0.009396308 0.03638872 -0.06820309 -0.0073510227 -0.009441856
0.08577102 0.048539136 -0.08274376 -0.07587078 -0.020309512 -0.03803812 0.0059262766 -0.07600169
0.014072098 -0.023599511 0.039656114 -0.029641906 -0.002860695 -0.058163133 -0.030777194 0.023073835
0.021216983 0.035637286 0.029930895 -0.012100662 -0.0157984 0.039945967 0.002512242 0.013153491
0.020480085 -0.00021335205 0.015898861 0.012808943 -0.014522424 -0.04452447 -0.0033600854 -0.038892537
0.0014043194 0.017942805 0.05685125 0.022063835 0.04489167 0.0049708057 0.019936629 0.0944285
00000000: 6a85 a13d b3c5 6a3d cf97 7fbc 2f97 ab3d
00000010: d3bb 28bd efd9 dd3d f301 7c3e 8b1f 6bbb
00000020: ed4b 663c edc0 1db9 5a31 d03b 732b 873c
00000030: 42e4 4f3d 4a1a e53b cb1a 44bd 7df9 ce3d
00000040: 13d9 323e 529c 1a3c 21a5 b8ba 939e 31bd
00000050: c3d4 e9bd 37f8 08bd 6464 193d f440 fc3c
00000060: d0f9 76bc fdce a93c 552b 51bc 9ec1 a93c
00000070: 1ca6 003e e8bc 103e a191 863c 3a4e ba3d
00000080: 7a28 633d 4c97 5f3d c631 11bb 5ca1 873d
00000090: acc4 e3bb a336 87bd bac1 d13c 6743 a0be
000000a0: 3a8d 95bb 596b e23c c7ce f3bd f440 3abd
000000b0: e3ac 3bbb 9fab fe3d 486c 6b3d 37b5 2d3c
000000c0: 8a93 693b 3d32 763d ab0e 993c 0fce 11bd
000000d0: 62ed 5abc 1e2c 2aba 64e0 223d 4a3c 503c
000000e0: f250 0a3a 7869 c03d ec0c 9b3c 76d9 f93d
000000f0: c986 fd3c 39aa cbba c388 973b d99a 0b3d
00000100: 714b 89bc 572d e0bc e607 32bc 2ba7 b0bb
00000110: b66f b73a 4c40 b4b8 577a 393c b6cb 8e3c
00000120: 0697 933e 4c1f 483d 7e7e d33b 0170 733c
00000130: c221 c9bb d0cf 8dbc 38c9 cb3b 6470 523d
00000140: 0bf3 e53e 10b5 a13a 63cf 3c3d c26a 883e
00000150: a538 d03e 9453 b23d c647 1a3e 0905 823c
00000160: e84a a7bc 34a1 dd3b 1448 3b3d 8a03 543d
00000170: b84f 673d aa96 913e da28 e23a 00d1 4d3c
00000180: 2ceb e2ba 3edc 51bc 2c49 a23b 8c81 80bd
00000190: 92bd 903c 4507 aa3c feb0 193e 35cf 9c3b
000001a0: 45a6 7a3b f262 d63b 9cb9 55bb 2df7 d43c
000001b0: 55e1 e33b 6ef7 1e3d 0e07 a23c 4017 663c
000001c0: 4ec0 c7bb 271b 2ebc 8b51 9f3b fa96 fb3e
000001d0: 3fbf dbbc e217 ad3e 85ac a7bc 1b8c 6f3d
000001e0: e913 95bc dd7c 8dbc 1ed0 973d a801 dfbb
000001f0: dad4 323c 53da 163c fbe0 a83c ec05 42bd
00000200: 7db7 f4bd 6922 843c 4b2c e53c 3cd1 26bd
00000210: 1fd7 7a3b 43d8 8ebc cb53 bbbc 8383 b73d
00000220: 4687 76ba aeb8 cebc 51a2 07bc cb3e 2fbd
00000230: f3ee 27bd 5cf7 0f3c 1041 413e d652 06bd
00000240: 866f 8bbd 33b1 f2ba 15e9 1d3c bcdc 943d
00000250: c803 01be 238e 633d 0af9 e3bc c0f9 643d
00000260: a960 933a 6bc0 b73c cc70 fc3c c97e 753c
00000270: f75e 063d 4c10 4dbd 9201 6e3c d73f ebbc
00000280: b90d 4fbc a82a 89bd 955d 433e 9873 31bc
00000290: 9954 31bd c957 03bd 1394 c6bc 0b74 02be
000002a0: 4baa 003d 6e00 9cbd 435e 04be 47a3 bc3d
000002b0: 8d8c 12ba b35f 38bc e74c a4bc cc26 063d
000002c0: 09ac 1abc b885 fd3b 81c5 103d 0925 eebc
000002d0: af72 a53d 68bf 653d 63aa 9c3c 6a89 c23d
000002e0: 2590 d93b 87c6 acbc 1b05 883c b60f a4bc
000002f0: f29b 493c d094 043e 08d1 2f3d c215 ecbc
00000300: de22 8b3c 96c4 ae3d e714 123d 061f 0a3d
00000310: 2dcc 45bc af88 1f3c 4187 83bb bed8 a339
00000320: 3cfa 0ebd 8a06 9cbc 73fe ab3d 0054 83bb
00000330: b698 263d 0e61 5c3d a4f7 a3bc 1742 8ebe
00000340: 1ba7 b03c ce23 b63c 7c05 bfbc f9f2 19bc
00000350: 570c 153d 10ae 8bbd d9e0 f0bb 04b2 1abc
00000360: b7a8 af3d f9d0 463d 8f75 a9bd 2462 9bbd
00000370: 2260 a6bc dccd 1bbd 3631 c23b c6a6 9bbd
00000380: a88e 663c c353 c1bc 736e 223d 95d3 f2bc
00000390: 7f7a 3bbb 773c 6ebd 7420 fcbc 5705 bd3c
000003a0: 3dcf ad3c 67f8 113d a331 f53c db41 46bc
000003b0: a56b 81bc 629e 233d 6da4 243b bd81 573c
000003c0: dac5 a73c 41b7 5fb9 543e 823c 9adc 513c
000003d0: 76ef 6dbc 4a5f 36bd e134 5cbb c84d 1fbd
000003e0: 2411 b83a cafc 923c dbdc 683d 37bf b43c
000003f0: 54e0 373d 24e2 a23b 2452 a33c bb63 c13d

action_model._discrete_distribution.branches.0.bias f4 [3]
-0.037664518 -0.012380016 0.06984502
00000000: 1c46 1abd 8dd5 4abc e80a 8f3d

action_model._discrete_distribution.branches.1.weight f4 [2, 128]
0.11228112 -0.024141273 6.4901105e-05 0.11624471 0.0043440918 0.4569907 0.059798554 0.027416205
-0.0052463026 0.009601098 0.0033308815 -0.018205652 0.039604127 0.0052159224 0.0042379736 0.054431546
0.04195842 -0.018004674 0.0037679689 -0.023048775 -0.04498984 0.0063170902 0.004578684 0.038652632
0.0013109647 -0.008476482 0.00037489133 -0.0020812855 0.071741864 0.08041468 0.008912484 0.024584213
0.01651592 0.047176376 -0.046535533 0.0077683413 0.008653663 -0.061966825 0.02085149 -0.07323721
0.0033314978 -0.005527943 -0.07929728 -0.0014024901 0.0051709944 0.08073589 0.014028833 -0.013900023
-0.009172274 0.019985864 0.0097231325 -0.082228094 -0.01724005 0.011221096 0.05486876 0.0018059588
-0.0035663522 0.029709864 0.0020399876 -0.056824837 0.002212392 0.023185432 0.004295543 0.010427969
-0.028933946 -0.020708857 -0.0066283992 -0.013800375 0.0029983083 -0.004497399 -0.001365839 0.012854977
0.1336884 0.040586494 0.01857631 -0.008798697 -0.010748136 -0.02655411 0.012435058 -0.12110032
0.20649584 0.004246581 -0.009517797 0.11647656 0.2062826 -0.0019557893 0.07383894 -0.0010864664
0.015851835 0.005086585 0.056264263 0.056324355 0.038524557 0.09369269 0.0028309454 0.0056839813
-0.0063632224 0.012409137 -0.0011126378 -0.06994576 -0.012354938 0.09561059 0.035233524 -0.0013822068
-0.003988053 -0.045350913 0.0064770905 -0.0063495114 6.0914954e-05 0.006276654 0.0017132328 -0.002257751
0.007231504 0.01328585 -0.005991584 0.21292156 -0.03692044 0.14927195 -0.0074179894 -0.0020850508
0.00743731 -0.024846898 0.019582031 -0.031141553 0.012634026 2.6712572e-05 -0.0020223623 0.008670032
-0.11558538 0.024558287 -0.01639856 -0.10073713 -0.02700271 -0.44945708 -0.05130494 -0.025901832
-0.008546204 0.024061564 -0.008717147 0.012350951 -0.031316195 -0.005772888 0.017229894 -0.043811683
-0.044099774 -0.020815894 -0.0025613492 0.014778554 0.05687712 -0.0010233929 -0.012952192 -0.042801037
0.013731775 -0.004209287 0.0074855858 -0.0063624294 -0.074447885 -0.06350925 0.0066991677 -0.020856543
-0.034239016 -0.049204536 0.0568595 -0.018146547 0.00077482697 0.07894952 -0.01988569 0.10223929
-0.0026266405 0.012248935 0.08386705 0.0048982804 -0.009517403 -0.042285345 -0.026033806 -0.0033684026
0.009529257 -0.030630236 -0.011581764 0.076162845 0.01822512 -0.0035299337 -0.042633466 -0.009004777
-0.003277916 -0.0330318 -0.018363556 0.02852156 -0.013772628 -0.0045921947 0.020465128 -0.000113615366
0.030609265 0.013179515 1.8405393e-05 0.018926619 -0.008745942 0.0063637877 0.01403693 -0.015388072
-0.12747408 -0.03468923 -0.008060306 -0.013058128 -0.003033852 0.018641293 0.014150353 0.1323825
-0.2302825 0.006604775 0.010308741 -0.104945 -0.19485764 0.0023259548 -0.06700498 -0.0077800774
-0.010658127 -0.003135266 -0.059909265 -0.041743696 -0.046202987 -0.07041007 0.004292758 0.005242257
0.0051151128 -0.0043415655 0.005356993 0.050982755 -0.011786911 -0.095869236 -0.03265756 0.0053490987
0.0016522659 0.040502783 0.004030255 0.014877023 -0.0067459047 0.0013790866 -0.0036445821 -0.0029912477
-0.010706217 -0.011889322 -0.016253125 -0.2289418 0.024958728 -0.16519777 0.013416764 -0.014339843
-0.0017249149 0.02824098 -0.055198435 0.018836692 -0.0068808678 -0.006378373 -0.007742185 -0.017448027
00000000: a5f3 e53d ebc3 c5bc 841b 8838 b511 ee3d
00000010: e258 8e3b affa e93e 54ef 743d f397 e03c
00000020: 2de9 abbb ec4d 1d3c eb4a 5a3b 0524 95bc
00000030: f037 223d 54ea aa3b b3de 8a3b 9df3 5e3d
00000040: 98dc 2b3d 8a7e 93bc 07f0 763b c9d0 bcbc
00000050: 4447 38bd 98ff ce3b c908 963b 3952 1e3d
00000060: add4 ab3a f1e0 0abc 108d c439 2d66 08bb
00000070: 66ed 923d 74b0 a43d ab05 123c d564 c93c
00000080: 654c 873c 043c 413d 0b9c 3ebd 928d fe3b
00000090: 18c8 0d3c edd0 7dbd bed0 aa3c 64fd 95bd
000000a0: 4255 5a3b bf23 b5bb 9d66 a2bd c2d3 b7ba
000000b0: 7271 a93b dc58 a53d 31d9 653c ecbc 63bc
000000c0: 4e47 16bc 65b9 a33c c64d 1f3c 3467 a8bd
000000d0: 013b 8dbc b0d8 373c 11be 603d ecb5 ec3a
000000e0: 76b9 69bb 1a62 f33c 50b1 053b 29c1 68bd
000000f0: c7fd 103b 60ef bd3c a0c1 8c3b 12da 2a3c
00000100: e206 edbc 9fa5 a9bc 0b33 d9bb f81a 62bc
00000110: 447f 443b eb5e 93bb f405 b3ba ae9d 523c
00000120: 9de5 083e 063e 263d 582d 983c 6928 10bc
00000130: f318 30bc 0188 d9bc 6abc 4b3c 7203 f8bd
00000140: a573 533e e726 8b3b 89f0 1bbc 438b ee3d
00000150: bf3b 533e b32c 00bb df38 973d c367 8eba
00000160: b5db 813c 5ead a63b 5b75 663d 5eb4 663d
00000170: edcb 1d3d f4e1 bf3d 6287 393b b140 ba3b
00000180: 9482 d0bb b14f 4b3c eed5 91ba b93f 8fbd
00000190: 5e6c 4abc 7ccf c33d 0751 103d 2a2b b5ba
000001a0: 37ae 82bb e1c1 39bd c63d d43b 900f d0bb
000001b0: ef7e 7f38 64ac cd3b 8e8e e03a c7f6 13bb
000001c0: 41f6 ec3b e5ac 593c 0d55 c4bb 1c08 5a3e
000001d0: e339 17bd bfda 183e 9b12 f3bb 59a5 08bb
000001e0: aeb4 f33b b98b cbbc 7f6a a03c 921c ffbc
000001f0: f2fe 4e3c d014 e037 9c89 04bb c00c 0e3c
00000200: 07b8 ecbd 762e c93c 4656 86bc 454f cebd
00000210: ca34 ddbc 3d1f e6be 2125 52bd 1430 d4bc
00000220: 6105 0cbc c21c c53c 5dd2 0ebc a55b 4a3c
00000230: 6945 00bd 7f2a bdbb b525 8d3c e173 33bd
00000240: f7a1 34bd 1886 aabc 4fdc 27bb c021 723c
00000250: fcf7 683d 5e23 86ba 6e35 54bc 2450 2fbd
00000260: 3dfb 603c 0fee 89bb a549 f53b ed7b d0bb
00000270: 2278 98bd 2311 82bd b184 db3b 57db aabc
00000280: 363e 0cbd b28a 49bd 82e5 683d 11a8 94bc
00000290: c21d 4b3a 49b0 a13d 51e7 a2bc d562 d13d
000002a0: b723 2cbb c2af 483c 7dc2 ab3d c181 a03b
000002b0: e2ee 1bbc 6633 2dbd d944 d5bc 6bc0 5cbb
000002c0: 9a20 1c3c 43ec fabc 70c1 3dbc 44fb 9b3d
000002d0: d94c 953c 7656 67bb 6ea0 2ebd c688 13bc
000002e0: 4ed2 56bb 5a4c 07bd 2b6f 96bc 0ca6 e93c
000002f0: 97a6 61bc 1f7a 96bb 7ca6 a73c c944 eeb8
00000300: 48c0 fa3c e4ee 573c 4865 9a37 ff0b 9b3c
00000310: 244b 0fbc 5287 d03b 27fb 653c 401e 7cbc
00000320: 9188 02be 4b16 0ebd 600f 04bc c2f1 55bc
00000330: 97d3 46bb a0b5 983c e2d6 673c 478f 073e
00000340: 2dcf 6bbe de6c d83b fee5 283c 67ed d6bd
00000350: c388 47be 0c6f 183b e839 89bd 05f0 febb
00000360: 6d9f 2ebc 0979 4dbb 6b63 75bd 70fb 2abd
00000370: 583f 3dbd 2833 90bd 44aa 8c3b 3dc7 ab3b
00000380: ad9c a73b b143 8ebb b789 af3b 4bd3 503d
00000390: e31d 41bc 1757 c4bd efc3 05bd 7e47 af3b
000003a0: d890 d83a 3fe6 253d 3b10 843b c2be 733c
000003b0: c00c ddbb 78c2 b43a f1d9 6ebb cf08 44bb
000003c0: 2169 2fbc 6ecb 42bc 4625 85bc b86f 6abe
000003d0: 3f76 cc3c 9b29 29be fdd1 5b3c a9f1 6abc
000003e0: 8a16 e2ba a159 e73c c117 62bd 684f 9a3c
000003f0: e778 e1bb ac01 d1bb 28b2 fdbb 2aef 8ebc

action_model._discrete_distribution.branches.1.bias f4 [2]
-0.017492428 0.017492516
00000000: 484c 8fbc 774c 8f3c

q1_network.network_body._body_endoder.seq_layers.0.weight f4 [128, 4]
0.27229708 -0.0067410856 0.31681114 0.14996198 0.33304015 1.1385772 -0.53847736 -1.193445
0.4636328 0.42712927 0.4449601 -0.3246739 0.03306065 -0.17758046 -1.0114783 0.388028
0.2691525 -0.23288359 0.048906315 0.2214487 0.25566003 1.1605468 1.1102661 -0.06350275
-0.8408506 -0.45020217 -0.6985241 -0.4668754 0.7599684 0.23225485 -0.50140446 0.3071426
0.21770804 -0.43490934 0.09628732 0.49455065 -0.19850932 -0.13589427 0.023691868 0.7733116
-0.04673354 -0.24039473 0.41312557 0.2454272 0.98879564 0.65767866 0.4095979 -0.12065063
0.15973684 -0.09557931 -1.0343113 0.20360309 -0.11168975 0.17042847 0.0953011 -0.69996595
0.1920448 -0.02843794 0.4576825 0.7504469 0.079361014 0.045062955 -0.12065558 0.0717069
0.3014831 -1.0201837 -0.45869398 -0.8366923 -0.7037248 0.3927216 -0.8529268 -0.2725084
0.4007042 0.42648378 -0.12495102 0.20948891 0.16967204 -0.20345634 0.22419262 0.7657751
0.22735056 -0.01855558 0.4054097 0.49389485 -0.42157415 0.11183453 -0.40624875 -0.2489077
0.3844708 1.2990587 0.24452165 0.21832442 0.17218682 -0.19464616 0.35059538 -0.40979928
0.43716222 1.2637564 -0.72972053 0.11167925 0.20086698 1.0064812 0.2912069 -0.034454837
-0.12413296 -0.46837088 0.28159493 -0.80052924 0.015628211 -0.14369538 0.18478787 0.041024283
-0.31523445 -0.21200767 -0.48281592 0.5244103 -0.5939386 -0.0174046 -0.20756854 -0.38374943
0.34144157 0.6429867 -0.40701663 -0.7464347 -0.12351735 0.60766244 -0.75050586 0.05271898
-0.16521898 -0.27758378 0.15072608 0.29013088 0.051125415 0.71210593 -0.32900184 0.7888857
-0.6471301 -0.1001134 0.094964415 -0.89298755 -0.0030866598 0.4203811 -0.34728247 -0.37867433
-0.5327512 -0.5896991 -0.23931682 0.62248933 -0.54834706 -0.2031868 -0.22162785 0.1296529
-0.8144659 -0.48120838 -0.5303333 0.2738024 -0.14543629 -0.23934595 -0.27406228 -0.15883023
-0.20911425 0.46192005 -0.22924723 -0.61919814 0.25622913 0.7843402 -0.34072545 0.2827309
-0.26551497 0.51017696 -0.5449737 0.015634606 0.33455426 0.8205067 -0.45516178 0.46963182
0.2176882 -0.057496708 0.11379707 -0.4497468 0.6877547 0.12332509 -1.1308628 0.3924053
-0.1750514 -0.26720035 -0.8491417 -0.4254766 -0.3591355 0.14211021 0.001783407 0.78501743
0.14427558 0.6399786 -0.78324306 0.07051664 0.41122872 -0.41337046 0.6623525 -0.104163446
0.120641485 0.5168613 -0.5730723 -0.1462045 0.30099392 -0.24250752 -0.51063293 0.22062786
-0.63142616 0.6643243 -0.5241035 0.17382738 -0.039386038 -0.38932106 0.4257061 -0.22023477
0.18401341 0.22077233 0.53131884 0.44067925 -0.046252575 -0.6222071 0.49304715 0.49556175
-0.20694384 -0.28090778 -0.8694562 0.2456082 0.4206336 0.18059343 -0.43881625 0.6560669
-0.18100846 -0.06316906 0.71835244 -0.49078986 -0.26456034 -0.5620252 0.2756536 0.4090003
0.97969335 0.35877207 -1.0354506 -0.3067645 -0.9003282 -0.0736162 -0.45507884 -0.56975615
0.64144987 -0.3735018 -0.076221906 0.14336202 -0.452222 0.35327503 -0.8356495 0.67864203
00000000: 866a 8b3e 53e4 dcbb 1235 a23e a28f 193e
00000010: 3d84 aa3e e6bc 913f a7d9 09bf cec2 98bf
00000020: 4761 ed3e b0b0 da3e cfd1 e33e a83b a6be
00000030: 9b6a 073d a7d7 35be 1f78 81bf 9bab c63e
00000040: 5bce 893e 0979 6ebe fd51 483d 73c3 623e
00000050: dfe5 823e cc8c 943f 331d 8e3f bb0d 82bd
00000060: fc41 57bf e680 e6be 7ad2 32bf 4b0a efbe
00000070: 4a8d 423f 37d4 6d3e 0b5c 00bf cb41 9d3e
00000080: dbee 5e3e 70ac debe 4932 c53d be35 fd3e
00000090: 0746 4bbe de27 0bbe 7315 c23c c0f7 453f
000000a0: ab6b 3fbd 092a 76be 3285 d33e 4551 7b3e
000000b0: b621 7d3f a15d 283f d1b6 d13e ad17 f7bd
000000c0: 0e92 233e 16bf c3bd 5064 84bf 547d 503e
000000d0: 98bd e4bd cd84 2e3e 392d c33d f830 33bf
000000e0: 64a7 443e aff6 e8bc 5c55 ea3e 4a1d 403f
000000f0: 0788 a23d ef93 383d 461a f7bd 11db 923d
00000100: fe5b 9a3e 6195 82bf f0d9 eabe 7731 56bf
00000110: 4f27 34bf ce12 c93e 6959 5abf 3986 8bbe
00000120: 1a29 cd3e 155c da3e 52e6 ffbd 4384 563e
00000130: 82be 2d3e dc56 50be c092 653e d609 443f
00000140: 96ce 683e df01 98bc dc91 cf3e c9df fc3e
00000150: 91d8 d7be 8109 e53d d6ff cfbe a9e1 7ebe
00000160: 5bd9 c43e 8e47 a63f e263 7a3e 7090 5f3e
00000170: be51 303e 5351 47be 3d81 b33e 36d1 d1be
00000180: bad3 df3e c5c2 a13f f7ce 3abf 17b8 e43d
00000190: 13b0 4d3e 60d4 803f 1219 953e 8420 0dbd
000001a0: 6c39 febd 4fce efbe 362d 903e 7cef 4cbf
000001b0: bc06 803c e224 13be 0839 3d3e 1409 283d
000001c0: 6966 a1be 8a18 59be a633 f7be c13f 063f
000001d0: 5c0c 18bf 1794 8ebc d98c 54be ce7a c4be
000001e0: 6ed1 ae3e c79a 243f 7c64 d0be 5816 3fbf
000001f0: aaf6 fcbd c48f 1b3f 2721 40bf dbef 573d
00000200: 2a2f 29be 761f 8ebe f057 1a3e 098c 943e
00000210: e268 513d 934c 363f ee72 a8be 6af4 493f
00000220: 51aa 25bf 4108 cdbd b47c c23d d59a 64bf
00000230: 8f49 4abb 313c d73e 02cf b1be 9ae1 c1be
00000240: 6262 08bf 85f6 16bf 780f 75be 765b 1f3f
00000250: 7960 0cbf 3310 50be 69f2 62be bbc3 043e
00000260: d680 50bf f260 f6be ecc3 07bf d42f 8c3e
00000270: 40ed 14be 1b17 75be e451 8cbe 64a4 22be
00000280: 0c22 56be c980 ec3e c9bf 6abe c583 1ebf
00000290: 7730 833e 85ca 483f 9173 aebe 1bc2 903e
000002a0: 94f1 87be f59a 023f 6583 0bbf 2514 803c
000002b0: b24a ab3e ba0c 523f f70a e9be 9573 f03e
000002c0: a8e9 5e3e ab81 6bbd 700e e93d 3645 e6be
000002d0: b110 303f dd91 fc3d 1dc0 90bf 59e9 c83e
000002e0: ad40 33be 7cce 88be 5a61 59bf 12d8 d9be
000002f0: 9ce0 b7be 5785 113e 35c1 e93a e7f6 483f
00000300: fabc 133e a3d5 233f 9e82 48bf 076b 903d
00000310: 928c d23e 4ba5 d3be ef8f 293f a553 d5bd
00000320: e212 f73d 0651 043f deb4 12bf a2b6 15be
00000330: e01b 9a3e e453 78be d7b8 02bf 45ec 613e
00000340: 25a5 21bf 2811 2a3f a62b 06bf ceff 313e
00000350: 4153 21bd 1755 c7be 26f6 d93e 3985 61be
00000360: 036e 3c3e 2412 623e 8304 083f b6a0 e13e
00000370: 5773 3dbd f748 1fbf ad70 fc3e 45ba fd3e
00000380: 16e9 53be 25d3 8fbe ae94 5ebf b780 7b3e
00000390: 4a5d d73e 7ced 383e 86ac e0be 00f4 273f
000003a0: 485a 39be c85e 81bd f2e5 373f cf48 fbbe
000003b0: 7474 87be e2e0 0fbf 7822 8d3e 7d68 d13e
000003c0: 2fcd 7a3f f9b0 b73e a589 84bf 3d10 9dbe
000003d0: e97b 66bf 17c4 96bd 1800 e9be 8adb 11bf
000003e0: 0f36 243f a13b bfbe 3b1a 9cbd 7ecd 123e
000003f0: a489 e7be 77e0 b43e 20ed 55bf 7cbb 2d3f

q1_network.network_body._body_endoder.seq_layers.0.bias f4 [128]
-0.0140941935 -0.060787246 -0.02485006 0.35283825 -0.017962674 -0.027756931 -0.051608 0.020756222
-0.013419848 -0.0027695461 0.041023675 0.009887762 0.12392231 -0.019258006 -0.039895803 0.073107645
-0.00027209905 -0.0030196572 -0.033421535 0.00088727364 0.010202043 -0.0019164452 0.014133469 0.0011520368
0.014079708 -0.02291881 0.31813285 -0.055904873 -0.012878729 -0.10798385 0.017139925 -0.051736243
0.0008848029 -0.039411068 -0.054411355 0.0034074844 0.05933 0.057209134 0.002978576 0.2105333
0.03981837 -0.025922066 -0.0214973 0.0025442769 0.09869797 -0.0026564258 0.2862619 0.016819289
-0.0014003873 -0.05900597 -0.057568572 0.17658928 -0.0029091323 -0.109952055 0.0158857 -0.008684324
0.12671262 0.00097375095 -0.033734493 -0.015508271 0.002061629 -0.052356813 -0.06213705 -0.021061318
-0.008844882 0.119001985 0.022168403 -0.0013183248 -0.03271617 0.030584017 -0.009157605 -0.013926029
-0.0012104277 -7.3695075e-05 0.08525025 -0.056565695 0.021941742 0.17880173 0.08015408 0.14210545
-0.021743262 -0.040693432 -0.0047623133 -0.014666753 0.005565326 0.02001223 0.005185421 0.06568138
-0.031731218 -0.0037761813 -0.02455746 0.037568998 -0.024398573 0.010545486 -0.024781296 0.010376599
0.053792402 -0.018313184 0.052669473 -0.02194406 -0.05002178 0.024172679 0.03186417 0.025313016
0.13910332 -0.010638496 0.011505654 -0.025115876 0.06237122 0.016212692 -0.053739958 -0.103939466
-0.03156436 -0.0090829255 0.040297225 0.022470744 -0.020603731 -0.012005111 -0.03041701 -0.008786376
0.02549667 -0.04326236 -0.034153022 -0.025548398 -0.05975857 -0.005118221 2.0277712e-06 -0.032058544
00000000: 55eb 66bc 0cfc 78bd 5a92 cbbc 37a7 b43e
00000010: 7526 93bc 8162 e3bc e962 53bd f408 aa3c
00000020: ecde 5bbc 4681 35bb 7108 283d 4800 223c
00000030: fbca fd3d f7c2 9dbc c869 23bd 76b9 953d
00000040: 84a8 8eb9 71e5 45bb 05e5 08bd ed97 683a
00000050: 7826 273c 3b31 fbba 1190 673c f1ff 963a
00000060: 93ae 663c 3ac0 bbbc 4fe2 a23e 82fc 64bd
00000070: 4e01 53bc a326 ddbd 0769 8c3c 62e9 53bd
00000080: 1ef2 673a 806d 21bd 71de 5ebd 1a50 5f3b
00000090: 0404 733d 2054 6a3d 3734 433b 0b96 573e
000000a0: 9618 233d 835a d4bc 1b1b b0bc e2bd 263b
000000b0: 2922 ca3d 6e17 2ebb eb90 923e 9bc8 893c
000000c0: 338d b7ba 3eb0 71bd 06cd 6bbd d2d3 343e
000000d0: 24a7 3ebb 8b2e e1bd ba22 823c b248 0ebc
000000e0: f4c0 013e 5243 7f3a 2e2d 0abd 6716 7ebc
000000f0: 651c 073b 1974 56bd 6b83 7ebd c988 acbc
00000100: 20ea 10bc 50b7 f33d 839a b53c a4cb acba
00000110: 6401 06bd 558b fa3c c709 16bc 002a 64bc
00000120: 37a7 9eba be8c 9ab8 af97 ae3d 6eb1 67bd
00000130: 2bbf b33c cd17 373e d327 a43d 1784 113e
00000140: ed1e b2bc 28ae 26bd 2e0d 9cbb d24c 70bc
00000150: 575d b63b b0f0 a33c 77ea a93b f683 863d
00000160: 98f8 01bd cf79 77bb ba2c c9bc f3e1 193d
00000170: 84df c7bc f9c6 2c3c 2502 cbbc 9c02 2a3c
00000180: 6c55 5c3d 8805 96bc f2bb 573d 08c4 b3bc
00000190: a3e3 4cbd c805 c63c 0184 023d 3e5d cf3c
000001a0: 1a71 0e3e 164d 2ebc 3682 3c3c cfbf cdbc
000001b0: f778 7f3d 7bd0 843c 6e1e 5cbd 37de d4bd
000001c0: a149 01bd 8dd0 14bc b40e 253d 9114 b83c
000001d0: 28c9 a8bc 16b1 44bc 182d f9bc bbf4 0fbc
000001e0: 64de d03c df33 31bd 0ae4 0bbd e04a d1bc
000001f0: 67c5 74bd c0b6 a7bb d814 0836 d24f 03bd

q1_network.network_body._body_endoder.seq_layers.2.weight f4 [128, 128]
-0.14922844 -0.10007683 0.12856361 0.079120934 -0.02965215 -0.1502438 -0.02048937 -0.038272236
-0.045025703 0.026848463 -0.11512468 -0.12142192 -0.003921514 0.021614276 0.055376537 0.069283865
-0.010442533 -0.085999735 -0.0044755433 0.05224571 0.10709275 0.05347399 0.16105394 0.16608085
-0.20997366 -0.10157544 0.20329964 0.050282244 0.045205586 -0.024491286 0.042066623 -0.09037288
-0.11533056 0.08986477 -0.09463871 -0.0018903402 -0.12369852 0.098166786 -0.1329889 0.011897066
0.032745264 -0.0076464107 0.030416034 -0.0028760168 0.006111058 -0.035257317 0.017404126 -0.034348566
-0.10129383 -0.005818524 -0.08590247 0.07947446 -0.11309324 -0.032735404 -0.08322841 -0.111695446
-0.0029641967 0.16212277 -0.0027967442 0.04461403 -0.11873086 -0.07895706 -0.072516635 -0.0060277744
0.03130967 -0.12341662 0.00045809714 -0.024097407 0.055766556 0.0638484 -0.03368186 -0.03968184
0.15945135 0.03906121 -0.07804998 -0.07786139 -0.0789391 -0.054883175 0.19420312 0.10732299
-0.18432948 0.043149997 -0.043636594 -0.11453299 0.017558068 0.0122513715 0.13697478 -0.14516647
0.037890516 -0.14662385 -0.10390821 0.19514193 0.063973255 0.11062375 -0.05345053 -0.003453289
-0.07164001 0.1188791 -0.027020648 0.15677123 -0.15591899 0.0136211915 0.056310613 -0.12826186
0.029669754 -0.011506443 0.09295846 -0.1485932 -0.096607655 0.03763627 0.091719516 0.15711349
-0.06669905 -0.069073536 0.03294621 -0.08090998 -0.004209519 -0.0070329597 0.053288415 -0.02600379
-0.0037752113 -0.052138727 -0.013605504 -0.044455647 -0.03981968 -0.08260307 0.079839125 -0.06726752
-0.08093698 0.08507395 0.08874079 -0.13324082 -0.17557156 -0.16510113 -0.0051625497 0.18332557
0.09934767 0.0458469 -0.122935995 -0.03107811 -0.15195802 0.10275316 0.15290467 0.08823419
-0.02254913 -0.008535565 0.089722514 -0.09414212 0.074451394 0.017163448 -0.0043923706 -0.24960124
-0.07898968 0.116263255 0.61719555 0.11139359 -0.11488122 0.10170292 0.051885024 -0.052465215
-0.051085945 0.04528399 -0.0054013184 0.034871314 0.14035554 -0.13461842 -0.040394403 -0.31634283
-0.063482486 -0.014937503 -0.0099943485 -0.10656803 0.029672327 -0.024497824 -0.17099859 0.1878457
0.05028333 0.10778119 -0.16814585 0.1749756 -0.06342615 -0.13642758 -0.0065531065 0.057793807
-0.08767922 0.06452221 -0.05349416 0.06549941 -0.004136908 -0.059008308 0.03131989 -0.07203124
-0.02173744 0.07668344 -0.075710244 0.022604633 -0.012965749 -0.06691245 -0.029311053 -0.0054070475
0.099714726 0.047777396 0.34446535 -0.069571264 0.06715602 0.002296908 0.043092974 0.21940036
0.1280281 -0.07178783 0.02134706 0.03158468 -0.10672365 -0.14265272 0.034408603 -0.042491753
0.098356664 0.08980348 0.09171897 0.048647013 -0.013494097 0.079695046 -0.03346577 0.064047806
0.19387814 0.14466313 -0.03136009 -0.014952404 0.05066203 -0.031138757 -0.12901196 0.046002526
0.26956692 0.029169137 0.17255901 0.06101078 -0.04153323 0.20002763 0.015604527 0.005283254
0.012765312 0.15853126 0.16449477 -0.14162979 0.045927987 -0.081857726 0.014617548 -0.07120265
-0.044202566 0.062238667 -0.004224362 -0.020363575 0.039838783 -0.092464365 0.080110185 -0.07363129
00000000: 57cf 18be 15f5 ccbd 2ea6 033e 280a a23d
00000010: 11e9 f2bc 83d9 19be 53d9 a7bc 59c3 1cbd
00000020: df6c 38bd 4ff1 db3c 7dc6 ebbd 0eac f8bd
00000030: 0b80 80bb 6c10 b13c 82d2 623d b3e4 8d3d
00000040: 2817 2bbc a120 b0bd 94a7 92bb 99ff 553d
00000050: 7253 db3d 8b07 5b3d 53eb 243e 1911 2a3e
00000060: 5603 57be c906 d0bd c82d 503e c1f4 4d3d
00000070: 7e29 393d f3a1 c8bc 0d4e 2c3d 6b15 b9bd
00000080: 6e32 ecbd 050b b83d f1d1 c1bd 4bc5 f7ba
00000090: a655 fdbd ab0b c93d 3e2e 08be e9eb 423c
000000a0: e61f 063d be8e fabb 0c2b f93c 8e7b 3cbb
000000b0: 453f c83b fa69 10bd 1993 8e3c 15b1 0cbd
000000c0: 2473 cfbd 51a9 bebb a2ed afbd 81c3 a23d
000000d0: 6e9d e7bd 8f15 06bd a873 aabd 95c0 e4bd
000000e0: f842 42bb 8303 263e 9549 37bb 33bd 363d
000000f0: 2a29 f3bd 3db4 a1bd 9a83 94bd a384 c5bb
00000100: 923e 003d dac1 fcbd c22c f039 ed67 c5bc
00000110: 796b 643d f3c2 823d fdf5 09bd 6d89 22bd
00000120: 3747 233e a6fe 1f3d abd8 9fbd cb75 9fbd
00000130: d3aa a1bd 2ecd 60bd 2fdd 463e 28cc db3d
00000140: dec0 3cbe 0dbe 303d 49bc 32bd 4690 eabd
00000150: f0d5 8f3c fab9 483c 1e43 0c3e 85a6 14be
00000160: 1633 1b3d 9024 16be d4cd d4bd 49d3 473e
00000170: 6904 833d b48e e23d f1ee 5abd 9350 62bb
00000180: ffb7 92bd e376 f33d 685a ddbc a388 203e
00000190: 3aa9 1fbe 6b2b 5f3c f5a5 663d 1457 03be
000001a0: fc0d f33c 8585 3cbc 0161 be3d d128 18be
000001b0: 3cda c5bd 7d28 1a3d 71d7 bb3d 5ce2 203e
000001c0: 8399 88bd 6d76 8dbd 9bf2 063d 22b4 a5bd
000001d0: 01f0 89bb be74 e6bb f444 5a3d e605 d5bc
000001e0: 8969 77bb 6b8f 55bd 9fe9 5ebc 2017 36bd
000001f0: f619 23bd cc2b a9bd b282 a33d 8ec3 89bd
00000200: 4ac2 a5bd 403b ae3d bbbd b53d 4870 08be
00000210: 08c9 33be 4510 29be 9b2a a9bb b3b9 3b3e
00000220: cb76 cb3d f6c9 3b3d dec5 fbbd 8597 febc
00000230: e29a 1bbe 4070 d23d 0b93 1c3e 21b4 b43d
00000240: f4b8 b8bc c1d8 0bbc 70c0 b73d 95cd c0bd
00000250: f979 983d 5c9a 8c3c e0ed 8fbb 7897 7fbe
00000260: 57c5 a1bd 6e1b ee3d 8700 1e3f 5322 e43d
00000270: d846 ebbd 9f49 d03d 6485 543d c4e5 56bd
00000280: 7f3f 51bd b57b 393d 8bfd b0bb 39d5 0e3d
00000290: 5db9 0f3e 69d9 09be 9a74 25bd b0f7 a1be
000002a0: 1b03 82bd 6ebc 74bc 56bf 23bc 5740 dabd
000002b0: 6113 f33c a9af c8bc 411a 2fbe a05a 403e
000002c0: e5f5 4d3d 62bc dc3d 6d2e 2cbe ce2c 333e
000002d0: 92e5 81bd acb3 0bbe 71bb d6bb 33b9 6c3d
000002e0: 2a91 b3bd 3824 843d b11c 5bbd 8e24 863d
000002f0: e68e 87bb b2b2 71bd 4949 003d 1d85 93bd
00000300: b712 b2bc 350c 9d3d f90d 9bbd 5a2d b93c
00000310: 4b6e 54bc 6509 89bd bc1d f0bc 9a2d b1bb
00000320: 3c37 cc3d 3bb2 433d c35d b03e 617b 8ebd
00000330: 1889 893d b987 163b 4282 303d 7daa 603e
00000340: cc19 033e 7f05 93bd 08e0 ae3c f05e 013d
00000350: ee91 dabd 8e13 12be 09f0 0c3d d50b 2ebd
00000360: 386f c93d e3ea b73d 28d7 bb3d 1742 473d
00000370: 5816 5dbc 2837 a33d 6713 09bd 7f2b 833d
00000380: fe87 463e 9222 143e 7073 00bd eefa 74bc
00000390: fd82 4f3d b516 ffbc b61b 04be 256d 3c3d
000003a0: ad04 8a3e 1df4 ee3c 4fb3 303e 71e6 793d
000003b0: c01e 2abd 0bd4 4c3e 21aa 7f3c 261f ad3b
000003c0: 9925 513c 0556 223e 5171 283e 6607 11be
000003d0: fc1e 3c3d 06a5 a7bd 717e 6f3c b2d2 91bd
000003e0: c00d 35bd f9ed 7e3d 846c 8abb 83d1 a6bc
000003f0: fe2d 233d f55d bdbd cf10 a43d 00cc 96bd
