results/first/SpaceInvaders/SpaceInvaders-953.pt (torch, 971707 bytes, 83 tensors)

discrete_act_size_vector f4 [1, 2]
3.0 2.0
00000000: 0000 4040 0000 0040

network_body._body_endoder.seq_layers.0.weight f4 [128, 6]
0.6185715 0.05805562 0.182537 -0.12605225 0.29231805 0.23054016 -0.57142174 -0.4275105
0.67606145 0.120021656 0.38680977 -0.38744515 0.01078413 0.39809522 0.13545501 0.13150124
0.35888743 0.26721922 0.28506932 0.37059554 -0.63978314 0.049423628 -0.3380008 -0.3388463
0.47673836 -0.7508367 -0.7812517 0.59437144 0.27791175 0.25781095 -0.57969606 -0.013913669
0.11364739 -0.37134314 0.5308869 0.25375178 0.095680475 -0.5213455 -0.044407204 0.014772956
0.38278455 -0.0025904346 -0.07171434 -0.36033428 -0.16438864 0.41196072 -0.2007299 0.36478847
0.47228792 0.35121638 0.39198655 -0.13020791 -0.035821963 0.37186033 -0.4029376 -0.018916875
0.29810515 -0.32499924 0.26724008 0.5190396 -0.7068197 0.5174974 1.1390561 0.34636757
-0.59985685 0.07080893 -0.08297953 0.042709675 -0.14039978 -0.13224086 -0.28751072 -0.47724828
-0.26998374 -0.36774716 0.26703092 0.17837755 0.23479842 -0.0314354 -0.32895085 0.26544306
0.096136756 -0.85516953 -0.104217425 -0.009236732 -1.1409193 0.14291285 -0.5140348 0.1095888
0.09697192 0.38358045 -0.06959394 -0.89103264 0.010490365 -0.36273158 0.2141482 -0.4637931
-0.0828047 0.6242718 0.83275616 -0.6211428 0.25411958 -0.07693359 -0.0015429223 -0.6460166
0.7164647 0.43936178 -0.30669087 0.15662488 0.111320235 -0.37655997 -0.29189163 -0.57183146
-0.97308034 0.31926197 -0.3503153 0.056929525 0.5475969 -0.11722635 1.0250847 -0.17379175
0.7714752 -0.015868673 0.83624935 0.2628483 0.5352315 -0.5284836 -0.2827145 -0.7718081
-0.3332582 0.1659526 -0.65042526 0.0007391138 0.522459 0.5824491 0.09248069 0.7979873
-0.15097617 -0.4843519 -0.11608614 -0.28832278 0.24084198 0.025942037 0.5644828 0.3039277
0.168971 0.77260756 -0.21688965 0.2615083 -0.0024575794 0.10095779 0.9184277 -0.39473262
0.2155789 -0.15563644 -0.42599857 -0.5098988 -0.25497806 -0.2340411 0.038135145 0.13144873
-0.06941589 0.538849 -0.25212404 -0.419724 0.33878 -0.5195043 0.68641645 0.41882855
-0.5557204 -0.2432016 -0.4701331 0.120668486 -0.056917474 0.1424922 -0.05619806 0.28386664
0.15594395 0.5772647 0.0019600394 -0.026144842 0.09484426 -0.023424888 0.48276365 0.2626124
-0.47695547 -0.07415371 0.9437185 0.1815418 0.40208262 -0.039820366 0.39233047 -0.3414444
0.11882265 -0.4285456 0.3916743 -0.39483902 0.2752226 0.5748562 -0.34509006 -0.24967553
-0.088829175 0.2371668 0.8487198 0.41931707 0.8142116 0.62456626 0.7652549 0.15634996
0.47231573 -0.6032837 0.7974252 -0.1873495 -0.24271865 0.4648277 0.6473451 0.55950886
-0.71117496 1.0399401 -0.41714448 -0.56006074 0.22320732 -1.0155088 -0.71966076 0.4229295
-0.646817 0.33200392 0.15913896 0.23936465 0.103306614 -0.47049928 0.07712876 0.26584423
-0.47091913 0.5119136 -0.03267307 0.11051773 0.17974332 -0.297555 1.0631161 -0.012455164
-0.13827494 0.6321224 0.32126254 -0.07208721 0.22395979 -0.19853392 0.08540781 -0.3891075
-0.1132848 -0.04818012 -0.111033656 0.11599923 0.61706483 0.26279935 0.36392245 0.121034674
00000000: b45a 1e3f bbcb 6d3d fbea 3a3e d713 01be
00000010: b6aa 953e b812 6c3e b248 12bf a8e2 dabe
00000020: 5d12 2d3f eacd f53d ee0b c63e 365f c6be
00000030: ebaf 303c 23d3 cb3e b8b4 0a3e 43a8 063e
00000040: 18c0 b73e f5d0 883e 9bf4 913e b3be bd3e
00000050: d4c8 23bf 6e70 4a3d 710e adbe 437d adbe
00000060: 0d17 f43e d536 40bf 1d00 48bf ba28 183f
00000070: 734a 8e3e ccff 833e f666 14bf 28f6 63bc
00000080: f6bf e83d b020 bebe 34e8 073f c1eb 813e
00000090: 20f4 c33d e676 05bf 54e4 35bd 450a 723c
000000a0: 56fc c33e 48c4 29bb f8de 92bd bc7d b8be
000000b0: 7f55 28be 84ec d23e 248c 4dbe 8ec5 ba3e
000000c0: b9cf f13e a2d2 b33e 76b2 c83e 3955 05be
000000d0: 0dba 12bd 7a64 be3e d64d cebe 90f7 9abc
000000e0: 3da1 983e 4d66 a6be b1d3 883e c7df 043f
000000f0: 23f2 34bf b67a 043f 97cc 913f 1757 b13e
00000100: 3890 19bf 4604 913d 2cf1 a9bd 57f0 2e3d
00000110: f6c4 0fbe 266a 07be 9b34 93be e359 f4be
00000120: 4f3b 8abe 5b49 bcbe 47b8 883e 9ba8 363e
00000130: ff6e 703e 68c2 00bd 3f6c a8be 27e8 873e
00000140: 59e3 c43d 64ec 5abf f26f d5bd a955 17bc
00000150: a509 92bf bf57 123e c997 03bf 1870 e03d
00000160: 3799 c63d a864 c43e 4587 8ebd b71a 64bf
00000170: c8df 2b3c f4b7 b9be aa49 5b3e 4a76 edbe
00000180: 8395 a9bd 47d0 1f3f 822f 553f 3703 1fbf
00000190: f61b 823e 5c8f 9dbd e23b caba 5861 25bf
000001a0: 3b6a 373f 07f4 e03e 9606 9dbe 4662 203e
000001b0: ddfb e33d 78cc c0be d272 95be 8c63 12bf
000001c0: cb1b 79bf 4e76 a33e 875c b3be ef2e 693d
000001d0: 4f2f 0c3f 5e14 f0bd fa35 833f 77f6 31be
000001e0: 667f 453f 05ff 81bc 7014 563f 0d94 863e
000001f0: ee04 093f b44a 07bf f4bf 90be 3795 45bf
00000200: d2a0 aabe 7aef 293e 4582 26bf 16c1 413a
00000210: dfbf 053f 621b 153f 8466 bd3d e548 4c3f
00000220: 7f99 1abe f9fc f7be 92be edbd 0b9f 93be
00000230: 489f 763e 6584 d43c f281 103f 699c 9b3e
00000240: bc06 2d3e 9cc9 453f 5218 5ebe 6ae4 853e
00000250: 570f 21bb f5c2 ce3d 141e 6b3f 651a cabe
00000260: b7c0 5c3e 295f 1fbe 7c1c dabe ba88 02bf
00000270: 7c8c 82be 78a8 6fbe 9933 1c3d 7f9a 063e
00000280: eb29 8ebd 02f2 093f 6716 81be 10e6 d6be
00000290: 9274 ad3e 3cfe 04bf fdb8 2f3f b270 d63e
000002a0: b143 0ebf d709 79be 49b5 f0be 0a21 f73d
000002b0: 4c22 69bd 7ae9 113e f02f 66bd f856 913e
000002c0: c5af 1f3e 9fc7 133f 0174 003b b52d d6bc
000002d0: b53d c23d 8de5 bfbc cc2c f73e 2275 863e
000002e0: 8233 f4be e6dd 97bd 8997 713f 18e6 393e
000002f0: c6dd cd3e ae1a 23bd 8adf c83e cdd1 aebe
00000300: 4a59 f33d 546a dbbe 8989 c83e 5728 cabe
00000310: fae9 8c3e c729 133f a5af b0be f1aa 7fbe
00000320: 12ec b5bd dbdb 723e b345 593f bab0 d63e
00000330: 2c70 503f 93e3 1f3f bfe7 433f 341a 203e
00000340: 5ed3 f13e cd70 1abf 0f24 4c3f 8cd8 3fbe
00000350: 3d8b 78be e5fd ed3e 69b8 253f f93b 0f3f
00000360: 900f 36bf c21c 853f f693 d5be 2460 0fbf
00000370: 7690 643e 31fc 81bf b03b 38bf 378a d83e
00000380: cd95 25bf 6bfc a93e 53f5 223e 021c 753e
00000390: 6b92 d33d 48e5 f0be aff5 9d3d bc1c 883e
000003a0: 501c f1be c50c 033f 32d4 05bd 1f57 e23d
000003b0: a20e 383e 2159 98be 3014 883f bf10 4cbc
000003c0: f297 0dbe c6d2 213f 867c a43e 76a2 93bd
000003d0: b755 653e 7a4c 4bbe 4aea ae3d 1939 c7be
000003e0: dc01 e8bd 8458 45bd 9d65 e3bd 0191 ed3d
000003f0: f6f7 1d3f a38d 863e 0b54 ba3e 07e1 f73d

network_body._body_endoder.seq_layers.0.bias f4 [128]
-0.04278144 -0.1587996 0.14325391 -0.017580884 0.059933994 -0.12991008 0.06867403 -0.12380822
0.008292518 0.16377465 -0.08305848 -0.1459683 -0.114689514 0.050064776 0.09293135 -0.12377035
0.120496675 0.14139187 0.08296966 0.07494803 -0.025045477 0.110068694 -0.041393176 0.1325803
0.06977979 0.010681402 0.11915622 -0.103615694 0.1326409 -0.06240507 -0.040336635 0.01390231
-0.05110795 0.17015615 0.0019718257 0.0295041 -0.14027819 -0.14661212 -0.03173252 -0.13094594
0.15691969 0.11016144 -0.022762358 0.021181047 0.11931511 0.023915559 -0.0057428745 -0.13866583
0.12476036 -0.03731419 -0.12435762 -0.088478416 -0.05776803 -0.019809274 0.08875687 0.036557283
0.12303394 0.07207533 -0.0097462395 -0.14345561 0.032334726 0.09760515 -0.12068177 -0.13254894
0.017022865 0.100006565 0.14162706 -0.061602276 0.14635144 0.011158943 0.12919368 0.12552992
0.053138036 0.10647576 0.14466226 0.09038459 -0.1222597 -0.1817909 0.07377471 -0.03133172
-0.122663625 -0.0880367 -0.05075061 -0.1395297 0.0002666914 0.1375464 -0.123214364 -0.012019442
0.07579606 0.15284407 -0.076196805 0.1052237 0.14587429 -0.16187015 0.032801613 -0.16732702
0.05286004 -0.07087135 -0.021877002 0.09701574 -0.16367799 0.15959877 -0.001744012 0.08401973
-0.0078440495 -0.1723406 0.1330835 -0.11361073 0.018331468 -0.012190584 0.127333 -0.108018056
0.124341145 0.09702578 -0.11560772 -0.057642873 0.05561547 -0.008050176 0.10206295 -0.0165532
0.026295148 -0.11626283 0.044846617 -0.11761564 -0.007704814 0.15402137 -0.0786103 -0.034787666
00000000: 973b 2fbd 5d9c 22be 27b1 123e c905 90bc
00000010: 597d 753d 2607 05be f8a4 8c3d 2a8f fdbd
00000020: 57dd 073c 8bb4 273e 901a aabd b778 15be
00000030: 56e2 eabd b910 4d3d cb52 be3d 4f7b fdbd
00000040: f6c6 f63d 08c9 103e ffeb a93d 5a7e 993d
00000050: 2c2c cdbc b26b e13d e48b 29bd 21c3 073e
00000060: b5e8 8e3d 0c01 2f3c 2d08 f43d 7734 d4bd
00000070: 04d3 073e 759c 7fbd 0738 25bd 84c6 633c
00000080: 9256 51bd 6a3d 2e3e bf39 013b 95b2 f13c
00000090: 16a5 0fbe 7d21 16be f5f9 01bd b116 06be
000000a0: 8eaf 203e 529c e13d 2078 babc e083 ad3c
000000b0: 7b5b f43d 90ea c33c b92e bcbb 6afe 0dbe
000000c0: 5c82 ff3d c4d6 18bd 35af febd 2c34 b5bd
000000d0: 2b9e 6cbd 0f47 a2bc 29c6 b53d 17bd 153d
000000e0: 38f9 fb3d 3b9c 933d b1ae 1fbc 07e6 12be
000000f0: 6b71 043d 35e5 c73d 0128 f7bd e9ba 07be
00000100: 8973 8b3c 3ed0 cc3d af06 113e ab52 7cbd
00000110: 27dd 153e 00d4 363c 594b 043e ea8a 003e
00000120: 45a7 593d f70f da3d 5822 143e 8e1b b93d
00000130: 4b63 fabd 6527 3abe 3217 973d b155 00bd
00000140: 1137 fbbd 964c b4bd dfdf 4fbd e0e0 0ebe
00000150: b7d2 8b39 f7d8 0c3e d057 fcbd 32ed 44bc
00000160: f73a 9b3d 2883 1c3e 120d 9cbd 867f d73d
00000170: 1260 153e 4ac1 25be fc5a 063d c657 2bbe
00000180: c583 583d 0025 91bd 6637 b3bc 30b0 c63d
00000190: 349b 27be dc6d 233e 5597 e4ba 8912 ac3d
000001a0: 5484 00bc 0e7a 30be 0b47 083e beac e8bd
000001b0: e02b 963c 04bb 47bc 9563 023e 9238 ddbd
000001c0: 92a6 fe3d 74b5 c63d bec3 ecbd ef1a 6cbd
000001d0: 0ccd 633d e3e4 03bc 6106 d13d 949a 87bc
000001e0: ec68 d73c 351b eebd 16b1 373d 78e0 f0bd
000001f0: aa78 fcbb c7b7 1d3e 70fe a0bd 837d 0ebd

network_body._body_endoder.seq_layers.2.weight f4 [128, 128]
0.012534858 0.15562357 -0.0584923 0.053239852 0.07274071 -0.04566865 0.027083775 -0.07586375
-0.15146692 0.049680293 0.016563786 -0.036418606 0.12812884 -0.035649333 -0.08777686 0.14951362
-0.14560944 -0.2597538 -0.10224512 0.121814385 0.122397 0.022166757 0.06323479 0.030981278
0.04002449 -0.12883708 0.12236485 0.08159964 -0.002360407 0.046135727 0.18000734 0.020989783
-0.03430338 -0.06259467 -0.03989553 -0.0812024 0.057697065 -0.078924574 -0.05864152 0.1159473
-0.058731362 -0.102595106 -0.17429413 -0.055186536 -0.039398424 -0.045738224 0.050610323 -0.19306532
-0.1328688 0.014753182 0.037389316 0.03737272 -0.04931942 -0.0090111075 0.12849504 -0.08141669
-0.014898437 -0.06136002 -0.01606637 0.08324128 -0.023924604 0.10461213 0.12557305 0.15961032
0.072437264 0.02661712 -0.19161174 0.05654103 -0.08293133 -0.23005944 -0.047380593 0.07108896
-0.036892593 0.0056175 -0.11365249 -0.15390702 0.095892034 -0.03179677 -0.028527047 0.02919687
0.060079724 0.07162594 -0.013222916 0.0071597537 0.08941346 0.07976129 0.18829541 0.052661765
0.04842138 -0.10143942 -0.012718465 -0.1384074 -0.024408655 0.11283775 -0.024750045 -0.12038729
0.15168712 0.010629113 0.004263685 -0.04254624 0.016026169 -0.0022510074 -0.005897045 0.112359
-0.016162304 0.018329076 -0.07033199 0.015309882 -0.082841314 0.19098717 -0.094159715 0.0071599744
-0.26256442 0.0322032 0.070073344 0.0150505295 0.023988655 0.17575327 0.023892753 -0.040423647
-0.18456127 0.09228921 0.06344664 0.12911126 -0.023479676 -0.061913393 0.06892588 -0.11825185
-0.042689007 0.021474872 -0.12021697 0.020375403 -0.0029880188 0.023584876 -0.075220376 0.0051067043
0.08104547 0.008879707 -0.005243638 0.100936994 -0.034431014 0.08651342 -0.091397844 -0.040207643
-0.07975762 -0.0824593 0.051988583 -0.09195268 0.08710746 0.104242496 0.033713564 0.14298148
0.12510082 -0.0108649 0.06456963 0.10348763 -0.07520983 0.079181544 -0.048306398 0.08995487
-0.04269222 -0.0026777533 -0.02437471 -0.0060398723 -0.027831405 -0.05744685 -0.06616795 0.17558575
0.054092616 0.08407136 -0.15491536 -0.015527232 -0.06631258 -0.0085762255 0.023089765 0.032252345
0.0067548663 -0.03397043 0.018588008 0.08223179 -0.00507582 -0.04520815 -0.030428821 -0.044362508
-0.020566441 0.06906249 -0.104725644 0.07203901 0.04340123 -0.014875775 0.062929064 0.031675436
0.08633274 -0.1468052 0.0196089 -0.18255544 -0.12080116 0.08850203 -0.06545372 0.09179579
0.05138432 0.1412248 0.014528486 -0.11741972 -0.0027185502 0.2075439 -0.1885854 0.012380037
0.18825777 -0.04980352 0.034413725 0.15741096 -0.016846355 0.03607042 0.095501386 -0.11108264
-0.075782716 -0.20824443 -0.058165375 -0.03969825 -0.10309387 0.10596406 0.047946937 -0.079303324
0.103889756 0.14209928 -0.14418352 -0.045788143 -0.010835164 -0.10641428 0.025572924 -0.035438713
-0.091123074 -0.022371955 -0.059656512 0.0421845 -0.11724709 0.0295692 -0.058562428 -0.08941428
0.01196518 0.038375806 -0.075211525 0.038673945 -0.050021652 0.09086539 -0.07003022 -0.006964207
0.044282015 0.019159108 0.011544889 0.183496 0.039163835 0.021532662 -0.10398512 -0.06478108
00000000: 015f 4d3c c95b 1f3e 9f95 6fbd 0812 5a3d
00000010: 15f9 943d 0d0f 3bbd cbde dd3c 745e 9bbd
00000020: 251a 1bbe 907d 4b3d c7b0 873c ad2b 15bd
00000030: 3534 033e 0905 12bd 5bc4 b3bd 191a 193e
00000040: a41a 15be 73fe 84be e465 d1bd d279 f93d
00000050: 47ab fa3d 0f97 b53c 3e81 813d 73cc fd3c
00000060: b8f0 233d deed 03be 6c9a fa3d b61d a73d
00000070: 0fb1 1abb d1f8 3c3d d853 383e c4f2 ab3c
00000080: b381 0cbd a231 80bd 7f69 23bd 724d a6bd
00000090: c253 6c3d 35a3 a1bd 1732 70bd c775 ed3d
000000a0: 4c90 70bd 621d d2bd 297a 32be 470b 62bd
000000b0: 3e60 21bd 0158 3bbd c54c 4f3d eab2 45be
000000c0: c20e 08be 55b7 713c 8a25 193d 2314 193d
000000d0: 2903 4abd 53a3 13bc 3494 033e cbbd a6bd
000000e0: 9318 74bc a554 7bbd 9f9d 83bc 677a aa3d
000000f0: 88fd c3bc e23e d63d 3996 003e e370 233e
00000100: fd59 943d 250c da3c de35 44be 9197 673d
00000110: e7d7 a9bd b494 6bbe 2712 42bd 1797 913d
00000120: b01c 17bd 0113 b83b a3c2 e8bd cd99 1dbe
00000130: 0b63 c43d 543d 02bd 8eb1 e9bc 462e ef3c
00000140: 2816 763d 9fb0 923d eea4 58bc 5e9c ea3b
00000150: 671e b73d e359 a33d 83d0 403e ddb3 573d
00000160: 7f55 463d 78bf cfbd 1c61 50bc abba 0dbe
00000170: a9f4 c7bc 7a17 e73d 9bc0 cabc 9d8d f6bd
00000180: de53 1b3e bb25 2e3c 62b6 8b3b f744 2ebd
00000190: 5049 833c a385 13bb 003c c1bb 7a1c e63d
000001a0: cf66 84bc dc26 963c 380a 90bd 4dd6 7a3c
000001b0: b5a8 a9bd 2492 433e cfd6 c0bd 389e ea3b
000001c0: d86e 86be 81e7 033d 9d82 8f3d 7f96 763c
000001d0: db83 c43c aaf8 333e bcba c33c 4493 25bd
000001e0: a1fd 3cbe 2002 bd3d 50f0 813d be35 043e
000001f0: 7358 c0bc e698 7dbd 0329 8d3d 072e f2bd
00000200: abda 2ebd 12ec af3c 5134 f6bd 51ea a63c
00000210: a3d2 43bb 1235 c13c 240d 9abd 2456 a73b
00000220: 2bfb a53d 317c 113c d3d2 abbb 0eb8 ce3d
00000230: 8907 0dbd f32d b13d cb2e bbbd c5b0 24bd
00000240: f757 a3bd 6ce0 a8bd fbf1 543d b051 bcbd
00000250: 6565 b23d 177d d53d 3c17 0a3d bd69 123e
00000260: 6e1a 003e b202 32bc 153d 843d 53f1 d33d
00000270: 9d07 9abd ef29 a23d eedc 45bd 423a b83d
00000280: 0ade 2ebd 3f7d 2fbb 79ad c7bc 1fea c5bb
00000290: b0fe e3bc 634d 6bbd 1083 87bd c0cc 333e
000002a0: 3890 5d3d 9b2d ac3d 22a2 1ebe ee65 7ebc
000002b0: e4ce 87bd 4c83 0cbc bf26 bd3c 091b 043d
000002c0: ed57 dd3b 9424 0bbd e145 983c 2469 a83d
000002d0: 1053 a6bb 2e2c 39bd dd45 f9bc 76b5 35bd
000002e0: f47a a8bc a270 8d3d 667a d6bd 3089 933d
000002f0: 7dc5 313d 86b9 73bc f4e0 803d 1abe 013d
00000300: 38cf b03d 1a54 16be d8a2 a03c d0ef 3abe
00000310: 9966 f7bd 8d40 b53d 9a0c 86bd 6eff bb3d
00000320: 5d78 523d 3c9d 103e e308 6e3c c079 f0bd
00000330: b429 32bb 6386 543e 881c 41be a4d5 4a3c
00000340: a5c6 403e c7fe 4bbd 68f5 0c3d 5730 213e
00000350: 5e01 8abc 94be 133d 3b96 c33d 4c7f e3bd
00000360: f833 9bbd 073e 55be d13e 6ebd a29a 22bd
00000370: e122 d3bd af03 d93d 0264 443d c869 a2bd
00000380: 27c4 d43d 7982 113e d8a4 13be 598c 3bbd
00000390: f985 31bc bbef d9bd 4f7e d13c 2f28 11bd
000003a0: bc9e babd 6445 b7bc 635a 74bd a7c9 2c3d
000003b0: 3e1f f0bd 1b3b f23c 28df 6fbd d61e b7bd
000003c0: 9a09 443c f32f 1d3d 8008 9abd 9268 1e3d
000003d0: 81e3 4cbd a217 ba3d 016c 8fbd 0134 e4bb
000003e0: 0f61 353d 90f3 9c3c c626 3d3c 60e6 3b3e
000003f0: 426a 203d 4465 b03c 27f6 d4bd f1ab 84bd

network_body._body_endoder.seq_layers.2.bias f4 [128]
-0.0829736 -0.07137091 -0.026615817 0.035100274 -0.023453549 0.037511602 -0.072481364 -0.06639834
-0.066193774 -0.07519044 0.11367618 -0.028638283 0.024076128 0.015927285 0.012695715 -0.0018992263
0.03601716 0.006514827 -0.10731956 0.068512075 0.023634765 0.06284575 0.14939575 0.08754018
-0.042243745 -0.1238368 -0.08361977 -0.028309241 -0.06705078 -0.007900992 -0.10338037 0.05961888
0.062153988 0.010213606 -0.03894329 0.012882926 0.08825387 -0.1188056 0.031487107 -0.017634766
-0.048501085 -0.060281195 0.114049315 0.08890061 0.065222576 0.08023245 0.03358146 -0.06439381
-0.08699637 0.09792035 0.032016147 -0.058969095 0.020827081 -0.0656502 -0.015396216 -0.051597856
-0.029902367 -0.114667214 -0.057830166 0.011734285 0.12334658 -0.0035509663 0.029059816 -0.0338246
-0.052281383 0.020540059 -0.0012857409 -0.024025064 0.12408858 0.009034342 0.024662845 -0.076759495
0.13197899 0.03426412 -0.046174813 0.12912479 0.10191187 -0.06059656 0.034015026 -0.06289986
-0.049172767 0.1403719 -0.03990744 -0.023578202 0.113154955 -0.0349072 -0.025854848 -0.059806883
0.036015183 0.11769382 0.10133428 -0.03872371 0.049198814 -0.0064995745 -0.092299856 0.10296954
0.10097168 -0.08781475 -0.09190857 0.03131613 0.023919037 0.009706314 0.06418514 -0.02297968
-0.09030846 -0.03426248 -0.070267856 0.115157954 -0.09827718 -0.11612646 0.14344156 -0.0021008532
-0.07762096 0.112625256 -0.0011102079 -0.08765893 -0.06000774 0.11257959 0.019543162 -0.12165948
0.007036531 -0.11857834 0.03480688 -0.06426109 0.000286585 -0.08218538 -0.054273054 -0.026813358
00000000: 10ee a9bd e92a 92bd 6a09 dabc 4ec5 0f3d
00000010: a821 c0bc c4a5 193d 1c71 94bd dafb 87bd
00000020: 9a90 87bd 72fd 99bd 0fcf e83d d59a eabc
00000030: 4d3b c53c f079 823c b001 503c 76ef f8ba
00000040: bb86 133d 547a d53b 5cca dbbd 0f50 8c3d
00000050: b29d c13c 46b5 803d 33fb 183e 4448 b33d
00000060: c707 2dbd 269e fdbd d840 abbd c8e8 e7bc
00000070: eb51 89bd 2a73 01bc 16b9 d3bd ed32 743d
00000080: 2e95 7e3d f856 273c 0083 1fbd e812 533c
00000090: 72be b43d 5a50 f3bd a0f8 003d c976 90bc
000000a0: 13a9 46bd 6ae9 76bd b092 e93d 8611 b63d
000000b0: 6a93 853d e950 a43d b78c 093d e7e0 83bd
000000c0: 272b b2bd 778a c83d 5d23 033d 9489 71bd
000000d0: 8e9d aa3c 9d73 86bd 6940 7cbc 4658 53bd
000000e0: cff5 f4bc a5d6 eabd 53df 6cbd 2941 403c
000000f0: 229d fc3d 54b7 68bb da0e ee3c aa8b 0abd
00000100: 0125 56bd a043 a83c 4e86 a8ba 36d0 c4bc
00000110: 2722 fe3d c704 143c bc09 ca3c 1534 9dbd
00000120: 8025 073e 8958 0c3d cd21 3dbd 4a39 043e
00000130: 2cb7 d03d 1934 78bd 5753 0b3d a4d1 80bd
00000140: 6269 49bd a7bd 0f3e fc75 23bd 1327 c1bc
00000150: c9bd e73d dafa 0ebd 8ccd d3bc 10f8 74bd
00000160: a884 133d 7509 f13d 5988 cf3d c19c 1ebd
00000170: b284 493d 62fa d4bb b507 bdbd b2e1 d23d
00000180: 3dca ce3d 38d8 b3bd 8f3a bcbd 5845 003d
00000190: dbf1 c33c 3b07 1f3c 8073 833d e23f bcbc
000001a0: a4f3 b8bd d056 0cbd 98e8 8fbd efd7 eb3d
000001b0: 8c45 c9bd b6d3 edbd 58e2 123e 78ae 09bb
000001c0: bdf7 9ebd 12a8 e63d 6584 91ba 8686 b3bd
000001d0: adca 75bd 2190 e63d fb18 a03c 9b28 f9bd
000001e0: b392 e63b 33d9 f2bd a991 0e3d 519b 83bd
000001f0: ca40 9639 cf50 a8bd 6c4d 5ebd b0a7 dbbc

action_model._discrete_distribution.branches.0.weight f4 [3, 128]
0.004548842 0.006869858 -0.0023493504 -0.0033933783 -0.0031224445 -0.0028963424 0.0154703865 0.005386717
0.0076213987 0.014589303 -0.0619112 -0.00046494292 0.005240746 0.0014928317 0.008979478 0.003650362
-0.014084685 0.010440453 0.013632233 0.0036723528 0.0091931075 0.0023606257 -0.009232521 -0.021304494
0.002183886 0.0019731082 0.0128750885 -0.018498266 0.010976042 -0.015976118 0.01545162 -0.0077603697
-0.008092431 0.002660971 0.0027978697 -0.005075359 -0.023009798 0.025766302 0.0024960637 -0.0063023637
0.0010448628 -0.0021170694 -0.03791939 -0.029171184 -0.00016711919 -0.010324241 -0.019209724 -0.0009271639
0.0018857073 -0.008638943 -0.008013391 0.004937223 -0.010635625 -0.017408824 0.0022386701 0.011590421
-0.007724001 0.015638877 -0.012547079 0.0148247285 -0.010844066 0.009190636 0.007955945 -0.0029216525
0.025359187 -0.0049407813 -0.004995463 -0.0022458867 -0.006520337 0.0017318334 0.0047182078 0.002233248
-0.050446037 -0.0019431663 0.006521643 -0.01482584 -0.023448996 0.016235057 -0.0009766455 0.0011581712
0.0015288886 -0.006149791 0.00998101 -0.0066111996 -0.025315607 0.027527228 -0.0032135544 0.007922452
0.0047491547 -0.0351445 -0.009378355 0.001019542 0.0015117911 -0.0048882742 0.004442906 -0.022860631
-0.008134453 0.00077501213 0.015090883 0.00090094196 0.002349761 -0.002142345 -0.005378842 -0.0046880366
0.017842969 0.010932966 0.01272728 -0.017625265 0.0032500245 0.00808563 -0.008737093 -0.0075943624
0.0012980084 0.0066367257 -0.008420619 0.030570935 0.015975036 0.0042741224 0.007577458 0.01353676
0.005652321 -0.003527701 -0.004215271 0.0037032783 0.0038043403 0.02469763 -0.0028775516 0.00536744
0.022024747 0.009113664 0.0007314689 -0.02213283 0.0004791828 -0.013265667 0.010558727 0.012696389
0.026516357 0.018520258 -0.017565452 -0.00700713 -0.019066932 -0.00279993 0.0064319363 0.011757763
-0.030116407 0.0039543184 0.0784142 -0.00525584 -0.023905065 -0.10381847 -0.074268885 -0.023823638
0.0022112948 0.06083372 0.0677316 0.026262846 0.016264193 0.0135795325 0.102298625 -0.012749754
-0.037694708 0.0028448785 0.05395702 0.0003155805 -0.01597475 0.09695634 0.009417049 -0.005714647
0.0062358184 0.05298915 -0.09027654 -0.013767221 -0.023591317 0.008553368 0.008473547 0.00468615
0.07149754 0.0033603306 -0.020676339 0.004571975 -0.016249128 0.04783785 0.0055920174 0.025951678
-0.010392603 0.0733936 0.0206776 -0.002080376 -0.016959174 -0.00079108676 -7.243462e-05 0.011497935
0.006767987 -0.007365077 -0.0006893239 1.2530174e-05 -0.10110061 0.0011875321 -0.00021492966 0.022980915
-0.063699335 -0.012200774 0.019061327 -0.06116589 -0.0033649493 0.030670447 -0.021154169 0.006361652
0.0079732565 -0.09133866 0.011477176 -0.0073145195 -0.050982907 -0.011815262 -0.029971283 0.027268399
-0.011370939 -0.057526913 -0.040535714 -0.002342332 -0.0013776643 -0.010238425 0.05876988 -0.02899678
-0.061446924 0.084562585 0.051425077 -0.013192299 -0.0021338444 -0.0021187346 -0.009280912 -0.0046110633
0.062496934 0.014177235 0.0363954 -0.010996737 0.035878554 0.07587557 -0.07703474 -0.0055714077
0.019908337 -0.058549162 -0.0060350164 0.030570948 0.045743935 -0.06388498 0.01205431 0.06623652
-0.008021298 0.06874411 -0.0132775 -0.0014928367 0.027316703 0.03278046 0.00691038 0.0010094072
00000000: 740e 953b 8c1c e13b 8ff7 19bb 7163 5ebb
00000010: eda1 4cbb 90d0 3dbb 8177 7d3c 0f83 b03b
00000020: edbc f93b f907 6f3c 9996 7dbd 95c3 f3b9
00000030: 90ba ab3b 1fab c33a a91e 133c e93a 6f3b
00000040: 73c3 66bc 6f0e 2b3c bb59 5f3c dbab 703b
00000050: b09e 163c bab4 1a3b 0044 17bc c386 aebc
00000060: 871f 0f3b 434f 013b 09f2 523c ad89 97bc
00000070: dbd4 333c 59e0 82bc cb28 7d3c b34a febb
00000080: 1e96 04bc af63 2e3b 775c 373b 324f a6bb
00000090: 0b7f bcbc da13 d33c 0095 233b 0f84 cebb
000000a0: c7f3 883a 88be 0abb 5d51 1bbd 68f8 eebc
000000b0: b73c 2fb9 0127 29bc b65d 9dbc eb0c 73ba
000000c0: d629 f73a 5a8a 0dbc 994a 03bc 6ec8 a13b
000000d0: 0b41 2ebc f39c 8ebc a7b6 123b c0e5 3d3c
000000e0: 9e19 fdbb 1a1d 803c 4392 4dbc 6be3 723c
000000f0: 4fab 31bc 5294 163c a759 023c 3279 3fbb
00000100: 12be cf3c 47e6 a1bb fbb0 a3bb ba2f 13bb
00000110: 8da8 d5bb b0fe e23a 329b 9a3b af5b 123b
00000120: 81a0 4ebd d7b1 feba 82b3 d53b 14e8 72bc
00000130: 1c18 c0bc 62ff 843c c902 80ba c7cd 973a
00000140: fd64 c83a 3084 c9bb 6487 233c c3a2 d8bb
00000150: ad62 cfbc c880 e13c 7f9a 52bb 2ccd 013c
00000160: cc9e 9b3b aef3 0fbd aca7 19bc 27a2 853a
00000170: 4b27 c63a d12d a0bb cc95 913b 3846 bbbc
00000180: 5e46 05bc 2f2a 4b3a c03f 773c 312d 6c3a
00000190: 73fe 193b 9666 0cbb ff40 b0bb 1a9e 99bb
000001a0: 6b2b 923c 2f20 333c 1586 503c dc62 90bc
000001b0: 5dfe 543b 9779 043c 0626 0fbc 21da f8bb
000001c0: ef21 aa3a e478 d93b a3f6 09bc e66f fa3c
000001d0: 14de 823c f00d 8c3b 534c f83b 49c9 5d3c
000001e0: 1b37 b93b 0031 67bb 4220 8abb b3b2 723b
000001f0: 3d52 793b af52 ca3c 4e95 3cbb 5ae1 af3b
00000200: 3e6d b43c 7a51 153c 0cc0 3f3a e94f b5bc
00000210: d43a fb39 3d58 59bc 83fe 2c3c 8404 503c
00000220: d538 d93c ccb7 973c 6ce5 8fbc 119c e5bb
00000230: 4132 9cbc 087f 37bb fec2 d23b a2a3 403c
00000240: afb6 f6bc 3a93 813b a097 a03d 2e39 acbb
00000250: 8ed4 c3bc c79e d4bd 491a 98bd ca29 c3bc
00000260: 5feb 103b c72c 793d ddb6 8a3d 2e25 d73c
00000270: 7c3c 853c b07c 5e3c f181 d13d 58e4 50bc
00000280: c465 1abd 2471 3a3b 0902 5d3d 7f74 a539
00000290: 7bdd 82bc 0c91 c63d f749 1a3c ef41 bbbb
000002a0: d655 cc3b 270b 593d e8e2 b8bd e98f 61bc
000002b0: 9442 c1bc 6d23 0c3c a2d4 0a3c 468e 993b
000002c0: 4d6d 923d fe38 5c3b 6d61 a9bc 82d0 953b
000002d0: e41c 85bc 9ff1 433d 3e3d b73b 9d98 d43c
000002e0: bd45 2abc 624f 963d 1264 a93c eb56 08bb
000002f0: f7ed 8abc ef60 4fba 0ae8 97b8 d661 3c3c
00000300: fdc5 dd3b be56 f1bb beb3 34ba b038 5237
00000310: d60d cfbd f7a6 9b3a be5e 61b9 7942 bc3c
00000320: cc74 82bd c1e5 47bc 8026 9c3c 1689 7abd
00000330: 7b86 5cbb 9740 fb3c 824b adbc 6875 d03b
00000340: 43a2 023c c30f bbbd c40a 3c3c a3ae efbb
00000350: 74d3 50bd cd94 41bc 5686 f5bc fa61 df3c
00000360: 2d4d 3abc 57a1 6bbd c708 26bd cf81 19bb
00000370: be92 b4ba 11bf 27bc b0b8 703d a88a edbc
00000380: c5af 7bbd 262f ad3d 1aa3 523d 8324 58bc
00000390: f8d7 0bbb 78da 0abb f70e 18bc 6718 97bb
000003a0: c9fc 7f3d a247 683c 5813 153d a82b 34bc
000003b0: 64f5 123d a764 9b3d 64c4 9dbd 5b90 b6bb
000003c0: cf16 a33c 3fd1 6fbd 63c1 c5bb ed6f fa3c
000003d0: fe5d 3b3d 21d6 82bd 717f 453c 03a7 873d
000003e0: c36b 03bc b6c9 8c3d df89 59bc 4aab c3ba
000003f0: 47c7 df3c ce44 063d 7870 e23b 164e 843a

action_model._discrete_distribution.branches.0.bias f4 [3]
-0.013498018 -0.07544424 0.048991572
00000000: ca26 5dbc 8282 9abd 63ab 483d

action_model._discrete_distribution.branches.1.weight f4 [2, 128]
0.006963488 -0.0049330927 -0.0013530316 -0.003219458 -0.00092793116 0.00076818716 0.011488483 -0.0004620085
-0.017567007 0.0014743321 0.004291583 0.0072772796 0.0039351424 -0.011937327 -0.009881653 -0.00052728323
0.0053772577 -0.012173943 0.008876509 0.0063594426 -0.0050402805 0.00016197389 -0.0036992987 -0.00096499134
-0.0006384435 -0.0032471681 -0.000909572 -0.0033062403 0.00374164 0.0009088331 -0.009513825 -0.012095799
-0.014108097 -0.0012104136 -0.010639389 0.0049037267 -0.009865214 0.00817082 -0.0027955116 0.003408166
-0.0047974326 0.014453789 0.0013547705 -0.012554536 -0.0013660587 0.007121443 0.0035488962 0.0012798858
0.009213702 -0.005534061 0.004338473 0.002369469 0.0006399988 0.006301444 -0.0045756423 0.008000151
-0.012810913 -0.0025254958 0.0043887533 -0.00073999393 0.011431121 0.00035009 0.014018358 -0.008597765
0.005119975 -0.0010909444 0.00084895524 -0.0014316507 -0.010342379 -0.0015395632 0.010048432 0.0056498162
-0.010092341 -0.0010743688 -0.021127243 0.0045531825 -0.015409685 -0.0055150194 -0.006466666 0.007848298
0.0011376378 0.009026057 0.009765434 0.0034160204 -0.014797924 -0.0006800864 -0.0057931454 -0.00581517
0.0021524087 0.002713709 -0.007337126 0.0005053727 -0.002589095 -0.008260027 0.016331628 0.00520914
-0.008283303 0.012354742 -0.012256279 0.013174789 0.010589893 -0.002270281 0.0005898915 0.012042568
-0.0014468334 0.0035432496 -0.0026576484 0.008816787 0.0004497621 -0.010837057 0.003482908 0.004564574
-0.019541936 0.002654597 -0.0007506643 -0.006189603 0.004504167 -0.012220092 -0.0051082876 0.0033192043
-0.0019258973 0.009860666 -0.0018327768 0.014409674 -0.0062884474 -0.006685215 -0.0085174795 0.0015690898
0.005024682 -0.0043423884 -0.00080870336 0.004390594 -0.004800161 -0.0061515532 0.005065518 -0.0028992167
0.014271918 -0.012289397 0.0045268107 -0.0038389452 -0.002142014 -0.0052559413 -0.008186043 -0.0007271148
-0.0019536759 -0.01220577 -0.017443392 0.010927037 -0.0038797155 -0.0055679986 -0.0031873812 -0.00993377
-0.011777506 0.0005143663 -0.0012404548 -0.008833397 -0.0001702336 0.0042444277 -0.0013710934 0.016597457
-0.0017722172 -0.0011566199 0.009286612 0.0033464823 0.00798352 0.010299025 0.0030310748 0.0028273724
-0.0076899524 0.00729144 0.0054583745 0.022333851 0.004214842 0.007848818 -0.0015591269 0.0051081777
-0.017260082 0.007521877 0.005967338 -0.011583505 0.0025246695 -0.008285513 -0.011527636 -0.010585471
-0.011563979 -0.0029021988 0.0022201038 -0.00281815 0.0026054892 -0.01072733 0.014301146 -0.008477685
-0.008396233 -0.00077746477 -0.0028070244 -0.006666565 -0.005615152 -0.00029060163 0.011513514 0.0014144012
-0.0043389085 -0.007970148 -0.002759519 -0.011391381 -0.01603788 -0.0051681963 -0.009400063 0.0048247995
0.0015426478 0.009012289 -0.004733741 0.004323016 -0.014539696 0.0051552844 -0.0036917897 -0.00092176197
0.003797305 0.0051954687 -0.00031968975 0.00087824324 0.0010924349 -0.018129984 -0.007142812 0.00344446
0.0037419682 -0.008207313 -0.0038095901 0.011411236 0.0097456565 0.0022761635 0.00091738545 -0.0034610243
-0.022056865 0.0003561479 -0.004636856 -0.013238216 0.007687129 -0.0070971963 0.0016110427 0.0041775843
-0.008205332 0.0073063583 -0.0061129024 -0.0051148445 0.0012774286 0.000608592 0.0048137577 0.00047434572
-0.0027852138 -0.011536774 0.0031761103 0.016144736 -0.003092784 -0.0038817106 -0.010894234 0.005874231
00000000: f92d e43b c8a5 a1bb 3558 b1ba 8bfd 52bb
00000010: 6840 73ba 2b60 493a 313a 3c3c bb39 f2b9
00000020: afe8 8fbc 603e c13a 68a0 8c3b 3f76 ee3b
00000030: 5ef2 803b c794 43bc a8e6 21bc 6139 0aba
00000040: b533 b03b 3875 47bc c76e 113c df62 d03b
00000050: f028 a5bb 89d7 2939 ef6f 72bb 79f7 7cba
00000060: 385d 27ba 71ce 54bb 5870 6eba 82ad 58bb
00000070: 4d36 753b c23e 6e3a e0df 1bbc 752d 46bc
00000080: a625 67bc bea6 9eba d550 2ebc 71af a03b
00000090: b5a1 21bc e7de 053c e734 37bb 8a5b 5f3b
000000a0: c833 9dbb 96cf 6c3c 8e92 b13a 8ab1 4dbc
000000b0: 530d b3ba fe5a e93b 9994 683b d7c1 a73a
000000c0: 11f5 163c 1257 b5bb c029 8e3b 1849 1b3b
000000d0: 98c5 273a 587c ce3b 45ef 95bb 1113 033c
000000e0: dde4 51bc ca82 25bb 88cf 8f3b 27fc 41ba
000000f0: 9949 3b3c 498c b739 41ad 653c a4dd 0cbc
00000100: 77c5 a73b 05fe 8eba 6c8c 5e3a 3aa6 bbba
00000110: 1573 29bc 2bcb c9ba 2ea2 243c 1822 b93b
00000120: 595a 25bc d6d1 8cba 0a13 adbc dd32 953b
00000130: e778 7cbc 56b7 b4bb 53e6 d3bb 2696 003c
00000140: ca1c 953a 07e2 133c 33ff 1f3c 50df 5f3b
00000150: fe72 72bc d347 32ba 6dd4 bdbb 2e8d bebb
00000160: 6d0f 0d3b 7bd8 313b 466c f0bb fd7a 043a
00000170: cead 29bb 1055 07bc e8c9 853c 6fb1 aa3b
00000180: b1b6 07bc 8b6b 4a3c 8fce 48bc 12db 573c
00000190: 3b81 2d3c ffc8 14bb f3a2 1a3a 314e 453c
000001a0: aca3 bdba dd35 683b f12b 2ebb 4974 103c
000001b0: 0cce eb39 e98d 31bc 8041 643b 6c92 953b
000001c0: 6916 a0bc bff8 2d3b 3ac8 44ba 27d2 cabb
000001d0: b197 933b c836 48bc 6c63 a7bb 0287 593b
000001e0: 646e fcba a18e 213c c939 f0ba 8e16 6c3c
000001f0: 520f cebb a60f dbbb e68c 0bbc eba9 cd3a
00000200: 16a6 a43b 984a 8ebb 2aff 53ba f9de 8f3b
00000210: ab4a 9dbb f892 c9bb a5fc a53b c900 3ebb
00000220: c3d4 693c 7859 49bc a455 943b d096 7bbb
00000230: 0861 0cbb 083a acbb c11e 06bc d99b 3eba
00000240: 3e09 00bb b6fa 47bc 72e5 8ebc 5107 333c
00000250: d342 7ebb c273 b6bb 62e3 50bb 40c1 22bc
00000260: 71f6 40bc 8ad6 063a c296 a2ba f4b9 10bc
00000270: bc80 32b9 d714 8b3b 43b6 b3ba 64f7 873c
00000280: be49 e8ba b999 97ba e026 183c a850 5b3b
00000290: 4fcd 023c 3ebd 283c ffa4 463b 704b 393b
000002a0: fffb fbbb 08ed ee3b 2adc b23b 7bf5 b63c
000002b0: a81c 8a3b 5498 003c 9e5b ccba 8062 a73b
000002c0: 0465 8dbc 147a f63b a989 c33b bec8 3dbc
000002d0: ed74 253b f6bf 07bc 69de 3cbc af6e 2dbc
000002e0: d876 3dbc d132 3ebb 297f 113b b6b0 38bb
000002f0: dbc0 2a3b afc1 2fbc 5b4f 6a3c fde5 0abc
00000300: 5b90 09bc c7ce 4bba 0ef6 37bb 3373 dabb
00000310: 4fff b7bb e45b 98b9 2ea3 3c3c 6e63 b93a
00000320: 672d 8ebb 3995 02bc 0cd9 34bb eaa2 3abc
00000330: df61 83bc f959 a9bb b902 1abc 5a19 9e3b
00000340: ac32 ca3a 48a8 133c 7f1d 9bbb 16a8 8d3b
00000350: e837 6ebc a9ed a83b f4f1 71bb 66a2 71ba
00000360: 35dc 783b c03e aa3b 089c a7b9 e839 663a
00000370: 0830 8f3a 5585 94bc 400e eabb 73bc 613b
00000380: cf3b 753b f777 06bc 51aa 79bb 31f6 3a3c
00000390: 3fac 1f3c b02b 153b b27c 703a 5ad2 62bb
000003a0: 99b0 b4bc 5db9 ba39 c4f0 97bb 1ae5 58bc
000003b0: 50e4 fb3b 998f e8bb 9f29 d33a 1ee4 883b
000003c0: a86f 06bc 2d6a ef3b be4e c8bb 6d9a a7bb
000003d0: 646f a73a eb89 1f3a babc 9d3b 9bb1 f839
000003e0: 2288 36bb bd04 3dbc 4a26 503b f741 843c
000003f0: 4eb0 4abb 4c64 7ebb bb7d 32bc 9f7c c03b

action_model._discrete_distribution.branches.1.bias f4 [2]
-0.004116235 0.0041162805
00000000: 7be1 86bb dde1 863b

q1_network.network_body._body_endoder.seq_layers.0.weight f4 [128, 6]
0.35169283 -0.026309311 -0.018212799 -0.12273203 -0.050313022 0.43104452 -0.2133995 0.3327492
-0.54808813 -0.110750094 -0.40187943 -0.039892253 -0.32888642 0.5977603 -0.3282403 -0.39314774
-0.5230752 -0.36433327 -1.1474738 0.17266819 0.17621036 -0.07931357 -0.15074511 0.68833774
-0.58622444 0.22473358 -0.34144652 -0.08883492 0.37204483 0.4988259 -0.31904063 0.2917554
-0.09355803 0.32103288 0.18470404 0.13685331 -0.16414014 -0.040786862 0.058408864 0.21931675
0.478151 -0.48937064 -0.42545006 -0.22641729 -0.12560914 0.041579183 0.6296824 0.3537381
0.28350595 -0.63057905 0.30363306 -0.057531003 -0.03499128 0.2236492 -0.21048109 0.08148755
-0.45897946 0.5567799 -0.7525497 -0.20128717 -0.23683602 -0.41888413 0.31652892 0.51585674
0.5405845 0.32820404 -0.36558348 -0.60423243 0.26206344 -0.73243874 -0.04573981 -0.1247949
-0.16448185 0.43699035 0.5921724 -0.053803153 -0.8163555 0.5182598 0.21612838 -0.121228024
0.15405133 0.24583451 0.63829064 -0.6995321 0.27729055 0.06700689 0.09702363 -0.09890872
-0.60389405 -0.26363128 0.05228911 -0.049430717 0.0596333 0.38265407 -0.08531397 0.2487761
-0.52411735 0.017438577 0.22723944 -0.31933096 0.008413145 0.36831343 0.66093993 -0.20307904
0.120593004 0.23995233 -0.25270355 0.29660535 -0.33023104 0.17306383 -0.49568707 -0.06246297
-0.2089254 0.36996448 -0.5943329 -0.30990842 0.06534554 0.13631998 -0.2484039 0.30440408
0.2623323 -0.30880323 0.031912267 -0.014080254 -0.42896396 0.069969855 -0.044140942 -0.112951756
-0.54831 0.8691841 0.1420723 -0.770085 -0.045532327 0.057256512 0.22834043 -0.40407354
0.38348645 0.4881979 0.75113696 0.07542091 0.2748758 -0.3208427 0.0051416946 0.2568736
0.32074168 -0.1521449 0.025638927 -0.098799 -0.77401173 -0.40270412 0.46395594 0.06328112
0.011324466 -0.4029842 0.7986293 0.2795619 0.38575727 0.12180478 0.2703865 -0.090371795
0.30692893 0.04147797 0.15095718 -0.38835526 -0.36482906 -0.7400342 -0.47725663 0.19625713
-0.206601 0.13678822 0.26163402 0.49849087 0.1328428 -0.10847683 -0.2507002 -0.4941673
0.14619091 0.3325551 -0.3234556 -0.3814812 0.70885456 0.3353156 0.579858 0.1385726
0.051846202 -0.19614917 0.09087897 -0.38980687 0.8160764 -0.13470952 0.33325198 0.17407714
0.121704035 -0.11570038 0.07690143 0.80292594 0.5411135 -0.28179502 0.19968876 0.13164881
0.3128547 -0.20570624 0.4843842 -0.3303839 -0.08167656 0.38475227 0.703463 0.9264392
0.76026726 0.5024243 0.40129554 -0.7122121 -0.5493783 0.030125165 -0.17569949 -0.16286953
-0.15303847 -0.08966431 0.42895013 0.95056134 0.044008974 0.45628193 0.5373485 0.10654763
-0.24747334 -0.5772568 0.17009373 0.29517588 0.2348069 -0.47372225 -0.06676461 0.035033066
-0.39094606 0.4086588 0.19957808 -0.4774293 -0.21449803 -0.291559 -0.027375465 0.54762834
-0.29022527 0.40000737 -1.1475977 0.019644998 0.0014781645 -0.104681745 0.37637052 0.407718
-0.17420855 0.016989918 -0.44824156 0.2569828 0.16286926 -0.07892577 0.29869124 -0.19687334
00000000: 1511 b43e a086 d7bc 0233 95bc ee5a fbbd
00000010: 0715 4ebd deb1 dc3e 6685 5abe 1a5e aa3e
00000020: 814f 0cbf f2d0 e2bd 24c3 cdbe 0f66 23bd
00000030: cd63 a8be d206 193f 1d0f a8be a94a c9be
00000040: 42e8 05bf e489 babe 6ce0 92bf eecf 303e
00000050: 7d70 343e 276f a2bd ed5c 1abe e736 303f
00000060: ce12 16bf 8f20 663e 14d2 aebe 15ef b5bd
00000070: a97c be3e 1c66 ff3e 4b59 a3be f760 953e
00000080: 5a9b bfbd 6c5e a43e 0e23 3d3e 4623 0c3e
00000090: 5a14 28be 2010 27bd 223e 6f3d 9294 603e
000000a0: 35d0 f43e ca8e fabe 97d4 d9be efd9 67be
000000b0: af9f 00be ef4e 2a3d de32 213f 291d b53e
000000c0: b127 913e a16d 21bf cb75 9b3e a1a5 6bbd
000000d0: 0453 0fbd 4c04 653e 5b88 57be f2e2 a63d
000000e0: 5bff eabe 2189 0e3f 19a7 40bf 391e 4ebe
000000f0: 2485 72be fb77 d6be 1410 a23e 300f 043f
00000100: bf63 0a3f 5c0a a83e c22d bbbe faae 1abf
00000110: 2e2d 863e 1b81 3bbf ab59 3bbd 7894 ffbd
00000120: ee6d 28be 33bd df3e 9c98 173f b260 5cbd
00000130: adfc 50bf adac 043f c250 5d3e 6646 f8bd
00000140: a2bf 1d3e 0bbc 7b3e 0467 233f 8914 33bf
00000150: 07f9 8d3e e93a 893d 53b4 c63d a890 cabd
00000160: cd98 1abf aefa 86be 1b2d 563d dd77 4abd
00000170: 0c42 743d 3ceb c33e 17b9 aebd 29bf 7e3e
00000180: 8e2c 06bf 59db 8e3c 75b1 683e 597f a3be
00000190: 4ad7 093c 9493 bc3e 5c33 293f f4f3 4fbe
000001a0: 77f9 f63d 10b6 753e 5c62 81be a8dc 973e
000001b0: 0b14 a9be a537 313e b2ca fdbe 2cd9 7fbd
000001c0: 8af0 55be fc6b bd3e 3326 18bf 51ac 9ebe
000001d0: e2d3 853d 7797 0b3e 985d 7ebe dada 9b3e
000001e0: 6b50 863e 751b 9ebe 70b6 023d deb0 66bc
000001f0: 2aa1 dbbe 5b4c 8f3d 22cd 34bd 4053 e7bd
00000200: 0b5e 0cbf d982 5e3f 677b 113e 4a24 45bf
00000210: 1b80 3abd ce85 6a3d 13d2 693e bae2 cebe
00000220: 5658 c43e 13f5 f93e 834a 403f 4776 9a3d
00000230: 85bc 8c3e 7f45 a4be a97b a83b f084 833e
00000240: 4138 a43e dfcb 1bbe ba08 d23c 2157 cabd
00000250: a225 46bf 3c2f cebe a28b ed3e 8899 813d
00000260: 418a 393c f253 cebe f872 4c3f bd22 8f3e
00000270: fa81 c53e c974 f93d 1970 8a3e d914 b9bd
00000280: ca25 9d3e cee4 293d 8594 1a3e 80d6 c6be
00000290: e0ca babe e272 3dbf fb5a f4be a1f7 483e
000002a0: 368f 53be 3612 0c3e e5f4 853e 323a ff3e
000002b0: f107 083e 1a29 debd c75b 80be 7f03 fdbe
000002c0: 12b3 153e a944 aa3e f99b a5be 8151 c3be
000002d0: 7e77 353f 7cae ab3e 9371 143f fae5 0d3e
000002e0: af5c 543d 54db 48be c11e ba3d c494 c7be
000002f0: 62ea 503f 4bf1 09be 01a0 aa3e 4741 323e
00000300: f73f f93d 52f4 ecbd 7f7e 9d3d 8e8c 4d3f
00000310: 6a86 0a3f 7047 90be 367b 4c3e f2ce 063e
00000320: 7e2e a03e a8a4 52be 3501 f83e 1428 a9be
00000330: 0a46 a7bd 40fe c43e 2716 343f 1f2b 6d3f
00000340: e0a0 423f e19e 003f 9c76 cd3e 8853 36bf
00000350: 0ea4 0cbf 0dc9 f63c 91ea 33be 45c7 26be
00000360: 1eb6 1cbe eca1 b7bd 5a9f db3e fd57 733f
00000370: c142 343d c99d e93e ac8f 093f a535 da3d
00000380: a769 7dbe 1ac7 13bf 0d2d 2e3e 4b21 973e
00000390: 3871 703e b98b f2be e2bb 88bd d57e 0f3d
000003a0: 152a c8be ba3b d13e 325e 4c3e 9d71 f4be
000003b0: 5fa5 5bbe 3947 95be 8342 e0bc 5f31 0c3f
000003c0: 6898 94be c4cd cc3e 7be4 92bf 8cee a03c
000003d0: f8be c13a 6263 d6bd a3b3 c03e 6ac0 d03e
000003e0: ba63 32be 712e 8b3c eb7f e5be 4093 833e
000003f0: 33c7 263e d6a3 a1bd 0fee 983e 2a99 49be

q1_network.network_body._body_endoder.seq_layers.0.bias f4 [128]
0.016670197 -0.13230886 -0.2542913 0.18633221 0.036024403 -0.16615225 -0.23079173 0.09779257
-0.0074887387 0.12897238 0.06870377 -0.21324895 0.0025022572 0.07342784 0.0607053 -0.14281116
0.14355211 0.06449649 0.11412965 -0.13147703 0.12541735 -0.14759019 -0.18951902 0.04183943
0.055101458 -0.035115667 0.015187842 0.008754785 0.148853 -0.18040347 0.057928015 0.08676766
0.124435425 0.14450602 0.054032627 -0.05577709 -0.159398 0.065263584 0.062247284 0.1208186
0.13443476 0.05883892 -0.10611056 0.19865264 0.12746014 0.17420873 0.051408615 -0.1558516
0.028957056 -0.10915284 -0.11331523 -0.20774736 -0.20293519 0.09086961 0.12530534 -0.19356994
0.049742773 -0.1356421 -0.13116574 0.18957934 0.03712574 -0.2031781 -0.22961299 -0.10601758
-0.054048058 -0.16266346 -0.17914385 0.17136225 0.3045534 -0.14129093 -0.07129246 -0.13569862
0.101105176 -0.23126894 -0.20764208 0.13132589 0.18613277 -0.21460766 0.055198163 -0.033821523
-0.12790865 -0.11614306 0.08786042 0.20398805 -0.17659444 0.15416567 0.07037882 -0.11520195
0.11499082 0.24931808 -0.09098081 0.056751307 -0.14762011 0.17372113 -0.0721275 -0.1681649
0.07759713 -0.18338275 -0.16199754 0.060327183 0.07106882 -0.1373721 -0.09186152 0.14437899
-0.16666454 0.0699604 0.14932199 -0.033375427 0.0688087 0.11441951 -0.1898686 -0.119760886
0.156545 -0.111927405 -0.056721617 -0.19679712 -0.15526499 -0.17791732 -0.13847326 -0.17315148
0.0042464845 0.12880601 -0.15009382 -0.0467216 -0.16231982 0.041686464 0.10557565 0.061209634
00000000: f08f 883c f97b 07be 7832 82be dfcd 3e3e
00000010: 538e 133d d123 2abe ab54 6cbe 7947 c83d
00000020: 1864 f5bb 5611 043e 90b4 8c3d ef5d 5abe
00000030: e9fc 233b 5661 963d 1fa6 783d 173d 12be
00000040: 53ff 123e bc16 843d cebc e93d eaa1 06be
00000050: 686d 003e e221 17be 4611 42be d25f 2b3d
00000060: 11b2 613d 72d5 0fbd 6dd6 783c 3b70 0f3c
00000070: ec6c 183e b0bb 38be ed45 6d3d 3eb3 b13d
00000080: 00d8 fe3d 63f9 133e 5151 5d3d 8576 64bd
00000090: 3b39 23be eaa8 853d 02f7 7e3d be6f f73d
000000a0: 44a9 093e 1401 713d 7e50 d9bd 996b 4b3e
000000b0: e984 023e c663 323e d791 523d 9097 1fbe
000000c0: 5937 ed3c 868b dfbd d111 e8bd b9bb 54be
000000d0: 3ece 4fbe d919 ba3d 0b50 003e 3337 46be
000000e0: 14bf 4b3d c3e5 0abe 5050 06be 1621 423e
000000f0: 2911 183d eb0d 50be ab1f 6bbe bf1f d9bd
00000100: 7f61 5dbd 4091 26be 7c71 37be 9679 2f3e
00000110: 6cee 9b3e 92ae 10be c801 92bd 94f4 0abe
00000120: 3b10 cf3d c4d1 6cbe 20a0 54be 4b7a 063e
00000130: 9799 3e3e 1cc2 5bbe 7817 623d 7088 0abd
00000140: 7cfa 02be 6adc edbd 2af0 b33d 3ee2 503e
00000150: 2cd5 34be 9bdd 1d3e c522 903d 00ef ebbd
00000160: 4f80 eb3d 3d4d 7f3e 2654 babd 0f74 683d
00000170: ba29 17be f4e3 313e 95b7 93bd 6b33 2cbe
00000180: 3eeb 9e3d b0c8 3bbe afe2 25be a319 773d
00000190: 888c 913d 46ab 0cbe e521 bcbd 16d8 133e
000001a0: 1caa 2abe 6647 8f3d dde7 183e acb4 08bd
000001b0: 93eb 8c3d c754 ea3d ea6c 42be 3245 f5bd
000001c0: 554d 203e 323a e5bd ed54 68bd 2f85 49be
000001d0: c9fd 1ebe f52f 36be efcb 0dbe 9f4e 31be
000001e0: 1826 8b3b b9e5 033e 32b2 19be 265f 3fbd
000001f0: 2b37 26be 6dbf 2a3d 0c38 d83d f4b6 7a3d

q1_network.network_body._body_endoder.seq_layers.2.weight f4 [128, 128]
0.04978378 0.05962546 -0.14325476 -0.010900346 0.060503583 -0.21471633 -0.053925384 -0.12567852
0.06631715 -0.040055636 -0.05500348 -0.20320709 0.00081551756 -0.04291756 -0.032102436 -0.11774565
0.046360873 0.08907838 -0.016035974 -0.18920267 0.12558046 -0.05176814 -0.13534322 -0.15795073
0.1342042 -0.140951 -0.084320314 0.045739926 0.035436135 -0.111046195 0.13499345 -0.05425415
0.20495376 -0.02768048 -0.038203098 0.088844605 -0.10562175 -0.11180478 0.058622275 0.13661376
-0.11471464 -0.09222483 0.08947474 0.12662403 0.073140055 -0.012797045 0.110699415 -0.024578104
-0.06532248 -0.09598749 0.039317053 -0.10731863 -0.22718838 -0.048224628 0.10859126 -0.123875305
-0.0016963857 0.018746268 -0.06761678 0.12650606 -0.048538037 -0.19016273 -0.06542591 -0.021800647
-0.07201847 -0.2628627 -0.13228418 0.0310734 -0.074388646 -0.16303302 -0.0278566 -0.031402122
0.048447274 -0.07860318 -0.027961582 0.05986919 0.2371616 -0.04350223 -0.003415584 -0.031775177
0.10877016 -0.06676086 -0.059702493 0.25491756 -0.053692926 0.06634541 0.11579507 -0.030793449
-0.100925855 -0.160901 -0.18020247 0.011453451 -0.13115652 0.14068049 -0.06947994 -0.10615251
-0.10672904 -0.07737477 -0.045227718 0.016143793 0.084982924 -0.03513763 -0.0037533196 0.09562276
-0.19235459 -0.010099346 0.08327832 0.054145668 -0.00090863823 0.07677235 -0.0076751257 -0.031898208
-0.14741933 -0.030945579 -0.10185305 -0.07265291 -0.06201187 0.07634797 -0.009871971 0.08364713
-0.15457782 0.027682237 -0.12040696 0.16741219 -0.030668458 0.07898243 0.009693956 0.080957934
0.10481644 0.08927758 0.19931878 -0.05668457 -0.12833358 -0.07155759 0.034334026 0.11588507
-0.016452083 0.07545058 0.007065541 0.09016452 0.05593368 0.09609688 -0.007124092 0.01339334
0.16690522 0.2460326 0.032570098 0.008654951 0.16688666 -0.054350384 -0.078401096 0.048174232
0.1744548 -0.06577008 -0.0678811 0.13216537 0.0027607547 0.01696595 -0.010731354 0.026039103
-0.10998461 -0.22622953 0.048395343 -0.0044663665 -0.12447058 0.09665193 -0.0108024515 -0.12539902
-0.032849625 0.13245258 0.04596601 0.04410801 0.11334435 0.0060275565 0.094803326 -0.0683722
0.16441348 -0.00060595816 -0.013674639 0.06718452 -0.091347605 -0.09981553 -0.028385853 -0.15305941
0.04462635 0.03719224 -0.1934472 0.18187422 -0.15473971 -0.09672139 -0.03891272 -0.046850648
-0.031799156 -0.098269634 -0.21356727 0.14192022 -0.17803417 0.008069897 -0.028287731 -0.27718714
0.09390664 0.23664175 -0.18671809 -0.1098796 0.15526073 -0.07229838 -0.025281135 0.22205439
-0.08208859 0.07414179 0.06602575 0.10279087 -0.08423057 0.040043455 0.012824297 0.041275993
0.009785431 0.09284426 0.067849495 -0.082896285 0.03775168 -0.1049119 -0.15546727 0.13609675
-0.0028903058 -0.1207285 -0.04914714 0.054900978 0.089593485 -0.14074902 -0.017627457 -0.007351856
-0.081392094 0.11907383 0.062137056 0.038573164 -0.09022603 0.03055854 -0.08645822 0.15963636
-0.04706775 0.1552019 -0.08189217 -0.08156304 0.03127354 0.023339322 -0.03582243 0.026872085
-0.038855072 0.0725125 -0.03671906 0.007811741 0.010881412 -0.034358826 0.007612337 0.14000623
00000000: 14ea 4b3d d439 743d 60b1 12be 5d97 32bc
00000010: 9bd2 773d 99de 5bbe dde0 5cbd dfb1 00be
00000020: 49d1 873d 6111 24bd 544b 61bd 8515 50be
00000030: 75c8 553a 53ca 2fbd d87d 03bd a224 f1bd
00000040: e6e4 3d3d ba6e b63d e05d 83bc 58be 41be
00000050: 2a98 003e d40a 54bd 6a97 0abe d6bd 21be
00000060: d36c 093e 7555 10be 21b0 acbd ca59 3b3d
00000070: 7b25 113d 306c e3bd b93b 0a3e 9939 5ebd
00000080: 66df 513e 2dc2 e2bc da7a 1cbd 29f4 b53d
00000090: 3750 d8bd e8f9 e4bd e91d 703d 7ae4 0b3e
000000a0: 82ef eabd 5fe0 bcbd 883e b73d bba9 013e
000000b0: 74ca 953d b2aa 51bc 60b6 e23d 0558 c9bc
000000c0: cbc7 85bd 1795 c4bd eb0a 213d dfc9 dbbd
000000d0: 12a4 68be 3087 45bd 1865 de3d 56b2 fdbd
000000e0: 4259 deba c691 993c ab7a 8abd ce8a 013e
000000f0: d2cf 46bd 05ba 42be 05fe 85bd 4597 b2bc
00000100: 6b7e 93bd f195 86be 8175 07be a58d fe3c
00000110: 1359 98bd 21f2 26be 8633 e4bc 839f 00bd
00000120: a670 463d b4fa a0bd b00f e5bc 6539 753d
00000130: 7eda 723e 652f 32bd fed7 5fbb b026 02bd
00000140: e4c2 de3d ebb9 88bd 9a8a 74bd 8e84 823e
00000150: 1ded 5bbd 1ae0 873d f725 ed3d 8b42 fcbc
00000160: 37b2 cebd 3bc3 24be ff86 38be 41a7 3b3c
00000170: e54d 06be 8c0e 103e 804b 8ebd 7d66 d9bd
00000180: c194 dabd aa76 9ebd b340 39bd fd3f 843c
00000190: 870b ae3d 7aec 0fbd 41fa 75bb ded5 c33d
000001a0: 9af8 44be ba77 25bc d38d aa3d d9c7 5d3d
000001b0: ae31 6eba d23a 9d3d 9f7f fbbb b2a7 02bd
000001c0: 18f5 16be 9581 fdbc 5598 d0bd 0dcb 94bd
000001d0: 2900 7ebd 535c 9c3d 0cbe 21bc 304f ab3d
000001e0: a649 1ebe dcc5 e23c ed97 f6bd 1a6e 2b3e
000001f0: 6b3c fbbc 8ac1 a13d 66d3 1e3c 46cd a53d
00000200: 00aa d63d 2ad7 b63d 391a 4c3e 142e 68bd
00000210: e169 03be c98c 92bd d6a1 0c3d 2755 ed3d
00000220: 85c6 86bc d585 9a3d 0e86 e73b 2da8 b83d
00000230: b71a 653d 71ce c43d 3771 e9bb bd6f 5b3c
00000240: 34e9 2a3e f8ef 7b3e 3968 053d 7fcd 0d3c
00000250: 56e4 2a3e 829e 5ebd c190 a0bd 5852 453d
00000260: 47a4 323e 77b2 86bd 3f05 8bbd 5c56 073e
00000270: c7ed 343b 2dfc 8a3c 90d2 2fbc f54f d53c
00000280: 9c3f e1bd b7a8 67be 323a 463d 995a 92bb
00000290: 6eea febd 72f1 c53d c4fc 30bc 9a68 00be
000002a0: 548d 06bd a6a1 073e db46 3c3d 9aaa 343d
000002b0: 1521 e83d cf82 c53b 3f28 c23d b906 8cbd
000002c0: 025c 283e 2ad9 1eba 980b 60bc 0a98 893d
000002d0: 7414 bbbd 166c ccbd 7389 e8bc 9bbb 1cbe
000002e0: 1fca 363d e456 183d 0617 46be 3c3d 3a3e
000002f0: 1674 1ebe dd15 c6bd f262 1fbd 77e6 3fbd
00000300: d53f 02bd 9741 c9bd 61b1 5abe 8953 113e
00000310: 974e 36be 9a37 043c acbb e7bc 79eb 8dbe
00000320: 2052 c03d 3752 723e 0733 3fbe 8e08 e1bd
00000330: abfc 1e3e 2c11 94bd 621a cfbc 3a62 633e
00000340: 101e a8bd a7d7 973d 8238 873d 0584 d23d
00000350: 1481 acbd 9b04 243d 001d 523c 0411 293d
00000360: 1353 203c 2225 be3d adf4 8a3d 87c5 a9bd
00000370: 81a1 1a3d 0ddc d6bd d032 1fbe f25c 0b3e
00000380: 496b 3dbb 8140 f7bd 834e 49bd d9df 603d
00000390: ca7c b73d 8320 10be 7567 90bc d7e7 f0bb
000003a0: e6b0 a6bd fbdc f33d 6d83 7e3d e5fe 1d3d
000003b0: 6dc8 b8bd e755 fa3c 0211 b1bd b777 233e
000003c0: 1dca 40bd 3fed 1e3e 15b7 a7bd 860a a7bd
000003d0: af18 003d 1b32 bf3c 8aba 12bd d922 dc3c
000003e0: 7f26 1fbd 6f81 943d ba66 16bd a2f9 ff3b
000003f0: f347 323c d7bb 0cbd e970 f93b cb5d 0f3e
