results/first/SpaceInvaders/SpaceInvaders-14982.pt (torch, 951991 bytes, 83 tensors)

discrete_act_size_vector f4 [1, 2]
3.0 2.0
00000000: 0000 4040 0000 0040

network_body._body_endoder.seq_layers.0.weight f4 [128, 3]
-0.09152134 -0.16594827 0.6355713 0.8707039 -1.5022482 -0.51178473 0.8717647 0.025346763
-0.82888347 -0.4418195 -0.045349773 0.41166437 -0.15672101 1.0162823 1.0376146 0.090667434
0.8451144 -0.18841346 0.43252644 0.3287677 -0.34456515 0.49899387 0.28210548 -0.40893504
-1.460379 -0.6152789 -0.12765086 -1.485211 -0.056241184 0.110918805 -0.015299966 -0.4179452
0.34218112 -1.3372215 -0.97775424 0.19689648 -1.4676569 0.2614814 -0.16841902 -0.90757406
0.575902 0.38098025 0.11084675 -0.19421831 0.27175808 -0.26433015 -0.55563587 0.27245983
0.08087538 -0.77065104 -1.139939 0.58820355 -0.539734 -0.5294745 0.47225797 0.76619065
-0.40430003 -0.17876674 1.511297 -0.043859366 0.33877188 0.115726955 0.06507817 -0.66125375
-1.0266014 0.4767154 -0.26239845 1.1989685 -1.1228893 -1.8667017 -0.005748264 -0.17960729
0.16813116 -0.29873887 -0.17103088 1.1204364 0.0313303 -0.32436883 -0.7186335 0.016476344
0.6376243 0.4273368 0.47054297 -0.36676642 0.2124518 -0.38242698 0.2953798 0.40424863
0.7363612 0.027999964 0.89040065 -0.11029154 -0.6133175 -1.0029577 0.33002156 0.6584358
-0.08202972 1.0027211 0.8206535 0.46150878 -0.53245693 0.1434804 0.9149798 0.7507665
0.051428508 0.30302784 -0.5910988 1.376906 0.46575356 0.25575343 0.5701605 0.021267377
0.33398992 0.96377975 -0.8910325 -0.26867315 0.41135705 0.6213355 0.033963848 0.4272313
0.6106066 -0.024354499 0.2523778 -0.6871231 0.18433093 -0.15115948 0.62310964 -0.510908
-0.40848735 -0.158899 0.6496317 0.14217417 -0.9391102 -1.0642186 0.15722834 0.45889306
-0.20201033 -0.33725217 -0.27295312 -0.2016742 -0.8959013 0.0244774 1.3036984 -0.1743714
-0.77551675 -1.302915 0.7894464 -0.04197806 -0.78027314 0.12311701 0.4662521 -0.10991886
0.6667333 0.09698044 -0.6706197 0.85952914 1.4115481 0.17159644 0.073843054 0.35209355
0.36010438 -0.30965552 0.7429531 -0.0038114253 -0.72615206 -0.6604426 0.86887234 0.2632779
0.64308923 -0.7773325 -0.40541738 0.9767361 -0.33686367 -0.25781137 0.109027356 -0.9867412
0.10490232 -0.074967794 0.5317863 -1.2499112 0.6009406 -0.2632218 0.2962294 0.6701243
-0.51674163 -0.62267447 -1.6563452 -0.03403506 -0.1564068 0.82793224 -0.22890405 0.05478023
0.17192122 0.49800012 0.52076346 -0.13728182 -0.44862142 -1.8549552 -0.35261703 -1.0278977
0.32254457 0.9384679 0.04460842 0.18534264 0.12641689 -0.36083025 -0.14399438 1.0498234
0.55047154 -1.0021336 -0.15949328 0.29981557 0.27291176 -0.20378979 -0.7524387 -1.1940113
0.38835847 -0.31486198 0.898042 -0.36910832 -0.047116622 0.3951301 0.051614817 -0.015104164
-0.12859134 -0.58372295 -0.01173698 -0.92875224 0.8158512 -1.118727 1.1779056 0.6688301
0.4854214 -0.4848425 0.758318 -1.011623 -0.68398184 -0.10988261 0.35200235 -0.13780598
0.8033111 0.0777324 -0.780191 -0.31402567 -0.106382914 0.31199116 0.10858465 -0.7030481
-0.07359644 0.5290766 -0.20699452 -0.3896163 -1.0357062 -0.19563702 0.09765182 0.12225584
00000000: 8a6f bbbd 58ee 29be cdb4 223f 73e6 5e3f
00000010: ab49 c0bf 5304 03bf f92b 5f3f 04a4 cf3c
00000020: b531 54bf 2a36 e2be afc0 39bd acc5 d23e
00000030: 797b 20be 8a15 823f 8ed0 843f d9af b93d
00000040: 6b59 583f 75ef 40be 1b74 dd3e 3d54 a83e
00000050: d86a b0be 207c ff3e 2170 903e ef5f d1be
00000060: b3ed babf eb82 1dbf e8b6 02be 651b bebf
00000070: 285d 66bd 6629 e33d b5ac 7abc eafc d5be
00000080: 5d32 af3e 132a abbf 1a4e 7abf 3b9f 493e
00000090: 2edc bbbf e4e0 853e 0976 2cbe c656 68bf
000000a0: 506e 133f d80f c33e 9f03 e33d 2ae1 46be
000000b0: e023 8b3e 4856 87be 273e 0ebf db7f 8b3e
000000c0: fea1 a53d 6349 45bf 85e9 91bf 8294 163f
000000d0: 022c 0abf a48b 07bf cccb f13e 1225 443f
000000e0: 6a00 cfbe a10e 37be 2e72 c13f e1a5 33bd
000000f0: 8273 ad3e 4102 ed3d b447 853d ed47 29bf
00000100: ad67 83bf 0a14 f43e 1759 86be cd77 993f
00000110: d6ba 8fbf 15f0 eebf ef5b bcbb f9ea 37be
00000120: 932a 2c3e 4df4 98be b822 2fbe 766a 8f3f
00000130: 3354 003d ac13 a6be 5df8 37bf 66f9 863c
00000140: 593b 233f e4cb da3e 02eb f03e cfc8 bbbe
00000150: f78c 593e 78cd c3be 053c 973e adf9 ce3e
00000160: 2b82 3c3f 2e60 e53c 4cf1 633f 88e0 e1bd
00000170: 6002 1dbf eb60 80bf 96f8 a83e 408f 283f
00000180: 33ff a7bd 2a59 803f 5916 523f e14a ec3e
00000190: 194f 08bf 87ec 123e 1e3c 6a3f 3c32 403f
000001a0: b3a6 523d 7726 9b3e 4052 17bf 753e b03f
000001b0: 4077 ee3e 1df2 823e 0af6 113f ec38 ae3c
000001c0: ba00 ab3e 45ba 763f b51a 64bf 878f 89be
000001d0: 649d d23e d80f 1f3f ad1d 0b3d 10be da3e
000001e0: b750 1c3f 1683 c7bc aa37 813e 4de7 2fbf
000001f0: 3fc1 3c3e 8dc9 1abe 1d84 1f3f deca 02bf
00000200: 4125 d1be 6bb6 22be 434e 263f 1b96 113e
00000210: 8769 70bf 5138 88bf 7700 213e 08f4 ea3e
00000220: ccdb 4ebe 51ac acbe 83c0 8bbe ae83 4ebe
00000230: ca59 65bf d484 c83c 97df a63f 6b8e 32be
00000240: 4488 46bf ebc5 a6bf 2919 4a3f 30f1 2bbd
00000250: fbbf 47bf c524 fc3d 98b8 ee3e 241d e1bd
00000260: 09af 2a3f ae9d c63d bcad 2bbf 1a0a 5c3f
00000270: 9cad b43f fab6 2f3e 073b 973d 9b45 b43e
00000280: 9a5f b83e 2b8b 9ebe 2d32 3e3f 1bc9 79bb
00000290: 1ae5 39bf c412 29bf 6b6e 5e3f 5ccc 863e
000002a0: 7fa1 243f 43ff 46bf de92 cfbe 610b 7a3f
000002b0: 6579 acbe daff 83be bc49 df3d 129b 7cbf
000002c0: 07d7 d63d b788 99bd 2623 083f 17fd 9fbf
000002d0: 3ed7 193f 02c5 86be 61ab 973e 448d 2b3f
000002e0: 2e49 04bf 9867 1fbf 1f03 d4bf 5968 0bbd
000002f0: 1b29 20be 5ef3 533f d365 6abe 3c61 603d
00000300: 1e0c 303e dff9 fe3e c150 053f 9b93 0cbe
00000310: b5b1 e5be 2c6f edbf 388a b4be 2792 83bf
00000320: 9024 a53e 6f3f 703f 52b7 363d 76ca 3d3e
00000330: 6e73 013e bebe b8be 4373 13be 9d60 863f
00000340: b4eb 0c3f ea45 80bf 3552 23be 6d81 993e
00000350: 17bb 8b3e 45ae 50be d39f 40bf 5dd5 98bf
00000360: ecd6 c63e 9735 a1be 15e6 653f c4fb bcbe
00000370: 5cfd 40bd 7e4e ca3e 0f6a 533d 7577 77bc
00000380: 73ad 03be de6e 15bf 764c 40bc b5c2 6dbf
00000390: a0db 503f 7232 8fbf 9cc5 963f 7338 2b3f
000003a0: 2789 f83e 473d f8be 2121 423f dd7c 81bf
000003b0: 6f19 2fbf 220a e1bd a739 b43e 031d 0dbe
000003c0: cca5 4d3f 2a32 9f3d 99ba 47bf f9c7 a0be
000003d0: 49df d9bd 4ebd 9f3e a161 de3d f6fa 33bf
000003e0: bbb9 96bd 9071 073f 5ff6 53be ca7b c7be
000003f0: 0592 84bf 1255 48be adfd c73d 4561 fa3d

network_body._body_endoder.seq_layers.0.bias f4 [128]
-0.05942135 -0.12839527 0.012251153 -0.0074167033 -0.02097091 0.48202312 0.12886502 0.13164987
0.14637394 0.2329449 -0.23212218 -0.0009139417 0.16472384 -0.018733539 -0.10322775 -0.19662306
-2.453044e-07 0.013922219 0.31563708 0.16316053 0.068392575 -0.058616787 1.2357091e-05 0.3977248
0.40704048 -0.110275745 -0.06651509 0.23497097 -0.05570865 -0.045729022 -0.13509254 -0.023972763
-0.05482755 -0.11087016 0.046428353 -0.15165985 -0.08150137 -0.17036046 -0.033040926 -0.03436907
-0.045977496 0.3999808 -0.092625745 -0.0035191597 0.18415377 0.119836785 -0.00047834124 0.29320425
-0.1213928 -0.21296726 -0.06528132 -0.11447959 0.025269536 0.36854163 0.06058609 -0.1128235
-0.16088241 0.03227442 -0.0051793 2.9839991e-06 -0.16357829 0.14305253 0.12708144 0.065496795
-0.0018106067 -4.6038295e-12 -0.07554159 0.0040771053 0.28879613 0.0203195 0.02963228 2.5079955e-06
-0.011048445 -0.14781219 0.32228777 0.0013345883 -0.11420454 -0.10503439 0.005629604 0.49165162
-0.023116741 0.0704438 -0.0337226 0.17778556 0.1031085 -0.20429528 0.20575675 -0.053046543
0.37009948 -5.0556382e-11 -0.10838611 0.16567352 0.4065985 -0.028751219 -0.16504979 0.2989705
-0.013005673 -0.052373882 -0.061474636 -0.09840338 0.0003607747 0.036949076 -2.297633e-06 0.0046406984
0.024248973 -0.10356981 -0.045478556 0.26982787 0.3808207 -0.011494837 0.01692555 0.0147064
0.03804215 0.011552735 0.08545506 0.01271694 0.05085677 0.18750852 0.13230942 0.18792398
-0.03233016 0.30739322 -0.0176571 0.3662161 -0.006542504 -0.13339305 -0.015132824 0.04099171
00000000: cd63 73bd 0d7a 03be 0fb9 483c d107 f3bb
00000010: 30cb abbc bccb f63e 31f5 033e 39cf 063e
00000020: 0de3 153e 1c89 6e3e 70b1 6dbe 9795 6fba
00000030: 5ead 283e 1477 99bc 1269 d3bd 8e57 49be
00000040: 61b2 83b4 051a 643c 2f9b a13e 8e13 273e
00000050: 6811 8c3d 2818 70bd 4d51 4f37 96a2 cb3e
00000060: 9c67 d03e 40d8 e1bd 1039 88bd 3b9c 703e
00000070: c12e 64bd 5b4e 3bbd b355 0abe 8762 c4bc
00000080: da92 60bd e50f e3bd a82b 3e3d b84c 1bbe
00000090: 31ea a6bd f972 2ebe ec55 07bd 95c6 0cbd
000000a0: e652 3cbd 49ca cc3e 91b2 bdbd b4a1 66bb
000000b0: ce92 3c3e fd6c f53d e0c9 fab9 de1e 963e
000000c0: ca9c f8bd 1714 5abe 36b2 85bd 4674 eabd
000000d0: 0f02 cf3c 7db1 bc3e 1f29 783d 0210 e7bd
000000e0: 5cbe 24be 2f32 043d 1eb7 a9bb b740 4836
000000f0: 1181 27be 5d7c 123e a321 023e 2f23 863d
00000100: e151 edba 9cfb a1ac 8db5 9abd 3d99 853b
00000110: 16dd 933e 1475 a63c 65bf f23c 094f 2836
00000120: 8904 35bc 145c 17be e702 a53e 5aed ae3a
00000130: 12e4 e9bd 451c d7bd 8b78 b83b c3b9 fb3e
00000140: 525f bdbc d744 903d b620 0abd 6b0d 363e
00000150: 8d2a d33d c832 51be e6b1 523e 5547 59bd
00000160: ae7d bd3e 6d59 5eae 89f9 ddbd 52a6 293e
00000170: ae2d d03e ad87 ebbc d002 29be a912 993e
00000180: bf15 55bc ff85 56bd d4cc 7bbd b687 c9bd
00000190: 5c26 bd39 ea57 173d 0931 1ab6 0011 983b
000001a0: c8a5 c63c 691c d4bd b947 3abd e126 8a3e
000001b0: eefa c23e d754 3cbc 73a7 8a3c 1df3 703c
000001c0: 16d2 1b3d af47 3d3c 1003 af3d b65a 503c
000001d0: 304f 503d 3c02 403e 1f7c 073e 256f 403e
000001e0: a16c 04bd a562 9d3e 9fa5 90bc ad80 bb3e
000001f0: 8062 d6bb 3098 08be aaef 77bc ece6 273d

network_body._body_endoder.seq_layers.2.weight f4 [128, 128]
0.027535796 0.11994103 -0.10146564 -0.030453272 0.08324906 -0.34336284 -0.111828215 -0.10656855
-0.4256115 0.3166037 -0.12426221 0.34283778 -0.36034983 0.040089216 -0.050654568 0.0030035335
0.083508044 -0.14414522 -0.21463838 0.21856126 -0.07196099 0.018586313 -0.06336681 -0.64893585
-0.2346428 0.045879837 0.13622887 -0.21090145 0.028848354 -0.07942711 0.084867105 0.0022543215
-0.056253124 -0.07267685 -0.24750464 -0.14856632 -0.11029333 -0.028092058 0.08384193 -0.11141972
0.019172778 -0.12912501 -0.034887113 0.062103964 0.077139065 -0.06111616 -0.029196292 -0.02779647
0.17112565 0.027332332 0.036441535 -0.0067644697 -0.25300768 -0.17180128 0.01762504 0.0074895467
-0.09864397 0.102371365 -0.10770675 -0.0014488897 -0.030629832 -0.015257858 -0.16480745 -0.39835417
0.084162235 0.161373 0.04131644 0.009007357 -0.07033558 -0.22511673 -0.0026130043 0.08163182
-0.032254532 0.06342296 0.17947035 -0.10066493 -0.07151524 -0.20802423 -0.06879664 -0.29501507
-0.074627295 -0.039744396 -0.11474173 -0.12041289 0.14938323 0.062184393 -0.23341806 -0.14520133
-0.34324452 0.046021614 0.12664153 0.009559688 -0.19751321 0.11732354 -0.08567702 -0.17401199
0.018572921 -0.13662882 0.087676406 0.09927363 -0.07031182 0.074463606 -0.14918417 -0.17406192
0.14505248 -0.15923946 0.16650943 -0.16394876 -0.39517015 0.071214534 0.012970836 -0.049838275
0.043498673 0.060437035 0.042064864 -0.038539197 -0.1315791 0.11731474 -0.062422153 -0.1747386
-0.060870565 -0.3432867 -0.0049244193 -0.13109647 -0.008150649 -0.10351305 -0.10082544 0.14619973
-0.085227154 0.012069024 -0.024337074 0.031159671 0.026666969 -0.24608675 0.03834044 -0.022442158
0.011046549 -0.02194183 0.13898286 0.08736311 0.20121992 0.029855743 0.11614714 -0.023618693
-0.04251058 0.0071156225 -0.011443621 -0.046330698 0.010843528 -0.066491865 -0.06402032 0.048778553
0.005467125 0.04218755 -0.056212507 0.023809185 0.0047151996 -0.1244786 0.08965916 -0.287664
0.08325176 0.09192697 -0.016637938 -0.025400216 -0.17031364 0.012650353 0.060247038 -0.026781091
-0.22679906 0.10444084 0.13956665 -0.18874492 -0.0030092017 -0.0818765 -0.04094826 0.049471993
-0.02444222 0.02123563 0.04393984 -0.10057136 0.10218405 0.015161188 -0.01635189 -0.024593461
-0.02859486 0.10542177 0.014047392 -0.041758772 -0.11256364 -0.017372053 0.049759556 -0.027006343
0.078929394 -0.0061577735 0.09114861 -0.0040691365 -0.048125844 -0.093087114 0.11635124 0.010932357
-0.038928065 -0.067271255 -0.06828165 -0.04233667 -0.21922663 0.002850612 -0.06355281 0.012754849
0.2672211 0.03271591 -0.053221937 0.09149542 0.050658662 -0.08578257 -0.003672142 0.111249395
-0.084929936 0.0680345 0.105183266 -0.11718083 0.046017077 -0.004173466 -0.099749394 -0.06313114
0.040249493 -0.17421587 0.04522908 -0.12916097 -0.094146915 -0.12642978 -0.020483539 0.015360433
-0.020174794 -0.0057533225 0.0019488939 -0.0008260854 -0.034086496 -0.037676957 -0.10865269 -0.04437242
-0.00609541 0.1001196 0.04985748 0.03731176 -0.00525186 0.07698548 0.14523749 0.10612042
-0.12251383 -0.021406341 -0.0933331 -0.07976018 -0.09528182 -0.06342854 -0.076111905 0.038036514
00000000: c092 e13c a5a3 f53d 38cd cfbd 2479 f9bc
00000010: 7c7e aa3d 41cd afbe 3106 e5bd 9d40 dabd
00000020: c0e9 d9be e119 a23e 307d febd 6f88 af3e
00000030: c67f b8be 9734 243d 2a7b 4fbd eed6 443b
00000040: 4406 ab3d ce9a 13be 2aca 5bbe 86ce 5f3e
00000050: 4960 93bd 5342 983c 75c6 81bd a920 26bf
00000060: 3446 70be 7fec 3b3d 957f 0b3e 8df6 57be
00000070: 6253 ec3c aeaa a2bd cece ad3d 3dbd 133b
00000080: ad69 66bd 9ad7 94bd db71 7dbe c521 18be
00000090: 78e1 e1bd 5121 e6bc 51b5 ab3d 0630 e4bd
000000a0: 3b10 9d3c 5939 04be cae5 0ebd ba60 7e3d
000000b0: 16fb 9d3d f054 7abd 102d efbc 6cb5 e3bc
000000c0: 903b 2f3e 0ee8 df3c b843 153d 7ca8 ddbb
000000d0: 398a 81be adec 2fbe 6362 903c df6a f53b
000000e0: da05 cabd 14a8 d13d 5b95 dcbd ace8 bdba
000000f0: 6aeb fabc 18fc 79bc 49c3 28be 14f5 cbbe
00000100: 405d ac3d f73e 253e 6d3b 293d 9893 133c
00000110: 1a0c 90bd 0085 66be f03e 2bbb 952e a73d
00000120: 541d 04bd e6e3 813d 13c7 373e 6a29 cebd
00000130: 9576 92bd 4e04 55be 41e5 8cbd 370c 97be
00000140: 32d6 98bd 05cb 22bd b6fd eabd 099b f6bd
00000150: ebf7 183e 10b5 7e3d 2505 6fbe a8af 14be
00000160: bfbd afbe 2981 3c3d 51ae 013e 3da0 1c3c
00000170: e740 4abe 5347 f03d 6f77 afbd 3330 32be
00000180: 3d26 983c 6de8 0bbe b08f b33d f94f cb3d
00000190: a5ff 8fbd 6080 983d bcc3 18be 4a3d 32be
000001a0: a388 143e ab0f 23be 7381 2a3e 2fe2 27be
000001b0: be53 cabe edd8 913d a183 543c 3823 4cbd
000001c0: aa2b 323d d38c 773d 354c 2c3d 47db 1dbd
000001d0: acbc 06be b642 f03d 5fae 7fbd adee 32be
000001e0: 6a53 79bd 46c3 afbe 065d a1bb 273e 06be
000001f0: 4d8a 05bc a6fe d3bd 917d cebd 62b5 153e
00000200: 938b aebd 28bd 453c 8b5e c7bc 9142 ff3c
00000210: b074 da3c 2afe 7bbe dd0a 1d3d 9ed8 b7bc
00000220: 96fc 343c 5abf b3bc 8651 0e3e 6eeb b23d
00000230: 980c 4e3e 0894 f43c 8dde ed3d fd7b c1bc
00000240: 931f 2ebd 2b2a e93b 067e 3bbc 42c5 3dbd
00000250: 0ea9 313c e32c 88bd 161d 83bd 05cc 473d
00000260: 9225 b33b dacc 2c3d 163f 66bd 7b0b c33c
00000270: f681 9a3b a3ee febd 399f b73d b248 93be
00000280: e67f aa3d 3544 bc3d 494c 88bc 1d14 d0bc
00000290: b366 2ebe 6d43 4f3c 99c5 763d 0564 dbbc
000002a0: 033e 68be 14e5 d53d 8fea 0e3e 5946 41be
000002b0: 0736 45bb deae a7bd 5db9 27bd 25a3 4a3d
000002c0: 0d3b c8bc 58f6 ad3c 43fa 333d 5bf8 cdbd
000002d0: df45 d13d a266 783c 66f4 85bc 3a78 c9bc
000002e0: c53f eabc 5ee7 d73d 0827 663c 3f0b 2bbd
000002f0: c487 e6bd d64f 8ebc add0 4b3d 683c ddbc
00000300: bca5 a13d 26c7 c9bb 1fac ba3d 6456 85bb
00000310: 9b1f 45bd 75a4 bebd 8f49 ee3d a11d 333c
00000320: 0973 1fbd 83c5 89bd 40d7 8bbd 3769 2dbd
00000330: f27c 60be 55d1 3a3b fa27 82bd b7f9 503c
00000340: 34d1 883e 1e01 063d 3fff 59bd f361 bb3d
00000350: 757f 4f3d c6ae afbd 52a8 70bb b9d6 e33d
00000360: bfef adbd ac55 8b3d 536a d73d 81fc efbd
00000370: 677c 3c3d 92c1 88bb 6949 ccbd e64a 81bd
00000380: a7dc 243d a565 32be 2142 393d c642 04be
00000390: 19d0 c0bd cf76 01be 18cd a7bc 53aa 7b3c
000003a0: 9c45 a5bc 5e86 bcbb 0772 ff3a a78d 58ba
000003b0: 489e 0bbd 2753 1abd 4d85 debd dbbf 35bd
000003c0: 01bc c7bb 810b cd3d 5b37 4c3d 37d4 183d
000003d0: cb17 acbb 90aa 9d3d 23b9 143e aa55 d93d
000003e0: 88e8 fabd 5a5c afbc 6d25 bfbd 4e59 a3bd
000003f0: 1d23 c3bd d3e6 81bd 8fe0 9bbd 2dcc 1b3d

network_body._body_endoder.seq_layers.2.bias f4 [128]
0.025040017 -0.011432845 0.011414209 0.00082563114 0.049331594 -0.015985059 0.006951396 -0.020380562
0.05553273 -0.023682803 -0.017227966 -0.027404083 -0.023761634 0.071859196 0.07358341 0.0002928864
0.0097882915 0.054571893 0.077957086 0.11669443 0.1270377 0.037762895 0.018031802 -0.033550408
0.029115586 0.038025223 0.024726454 0.08867806 0.002395727 0.011323697 0.008617011 0.026606143
-0.014402292 -0.011465875 0.0026897604 -0.014317253 -0.010958481 -0.0006432326 0.133131 -0.032458887
0.047700148 -0.01155995 -0.036664892 0.064441584 0.06652382 0.09945011 0.0065944376 0.011007335
-0.004809355 0.05840116 0.16618419 0.051947337 0.015237 0.079318844 0.06846962 -0.046513088
-0.027439613 0.020745583 0.055955853 0.027668122 -0.018025361 0.021131184 0.06564679 -0.024952538
-0.027035715 -0.02592371 -0.016201707 0.021823017 -0.061193272 0.048612304 -0.035345823 -0.018902002
0.087948576 0.20363589 -0.02727272 -0.019585712 0.18427628 -0.021686701 0.012071403 0.042658318
-0.008168636 0.019979168 -0.012278343 0.02049324 0.030424425 -3.367597e-05 -0.0050627473 -0.0060315924
0.042596597 -0.03459001 -0.007018456 0.041927446 0.037479904 -0.006984688 -0.020352593 -0.009445586
0.0152478395 -0.030122409 0.1464457 0.0022866735 -0.0021060011 -0.013854103 -0.0114931725 0.030970268
-0.029008951 0.031106655 -0.0032415139 0.0139949415 0.0016557197 0.03389721 -8.009071e-05 -0.031229759
0.02018156 -0.0152754355 0.047650136 0.029458093 0.0022640973 0.056327928 0.031007115 0.020038184
0.016911803 0.09230924 0.009236425 0.0125612365 -0.033693764 0.0026082564 0.020056382 -0.014419209
00000000: b920 cd3c d450 3bbc aa02 3b3c 2b6f 583a
00000010: ed0f 4a3d 19f3 82bc 89c8 e33b 23f5 a6bc
00000020: 4a76 633d 7002 c2bc aa21 8dbc 877e e0bc
00000030: c2a7 c2bc ea2a 933d e6b2 963d 8c8e 9939
00000040: 125f 203c c786 5f3d f7a7 9f3d 7dfd ee3d
00000050: 2c16 023e 44ad 1a3d 6eb7 933c 276c 09bd
00000060: cf83 ee3c 56c0 1b3d 228f ca3c d89c b53d
00000070: a101 1d3b 0787 393c 5d2e 0d3c 20f5 d93c
00000080: 97f7 6bbc 5edb 3bbc b146 303b e992 6abc
00000090: 338b 33bc 9c9e 28ba 7e53 083e 9cf3 04bd
000000a0: 3b61 433d f265 3dbc ed2d 16bd f3f9 833d
000000b0: a43d 883d 80ac cb3d 2716 d83b 1c58 343c
000000c0: cb97 9dbb 0e36 6f3d 302c 2a3e bbc6 543d
000000d0: 9ca4 793c eb71 a23d cd39 8c3d 8284 3ebd
000000e0: 0ac9 e0bc a4f2 a93c f731 653d 42a8 e23c
000000f0: eca9 93bc 4e1b ad3c d371 863d 4469 ccbc
00000100: 017a ddbc f65d d4bc 71b9 84bc 2fc6 b23c
00000110: cca5 7abd b21d 473d c8c6 10bd 5fd8 9abc
00000120: 621e b43d ed85 503e 0a6b dfbc 3772 a0bc
00000130: ecb2 3c3e 4fa8 b1bc 22c7 453c 7dba 2e3d
00000140: bed5 05bc 5aab a33c 1a2b 49bc 70e1 a73c
00000150: a53c f93c 4c3f 0db8 67e5 a5bb aaa4 c5bb
00000160: c579 2e3d 41ae 0dbd 13fb e5bb 1dbc 2b3d
00000170: 8784 193d cfdf e4bb 7bba a6bc a9c1 1abc
00000180: 13d2 793c 45c3 f6bc ddf5 153e 04dc 153b
00000190: d604 0abb 52fc 62bc dc4d 3cbc 5cb5 fd3c
000001a0: 2ea4 edbc 62d3 fe3c 946f 54bb 0a4b 653c
000001b0: bc04 d93a cdd7 0a3d 5ff6 a7b8 8dd5 ffbc
000001c0: cd53 a53c d245 7abc ca2c 433d 1952 f13c
000001d0: 4061 143b 1db8 663d a202 fe3c 1e27 a43c
000001e0: 9f8a 8a3c a00c bd3d 6054 173c a5cd 4d3c
000001f0: 7902 0abd 48ef 2a3b 484d a43c 8c3e 6cbc

action_model._discrete_distribution.branches.0.weight f4 [3, 128]
-0.027397498 -0.029619293 -0.028329598 -0.009409034 0.068606436 0.08023776 0.0071637975 -0.02124326
0.0058174306 0.038305886 -0.023518974 -0.01146567 -0.23705819 -0.0056237914 -0.0027966069 0.03044527
0.0027796696 0.011087063 0.011204673 -0.040408634 -0.08897622 -0.0016584917 0.015526696 -0.007429869
0.023832422 -0.0063028773 -3.3074495e-05 -0.016521644 0.009081358 -0.01431257 0.017175628 -0.026090885
0.007633779 0.014246591 -0.008913065 -0.0031885921 -0.07310605 -0.0070887585 -0.02401302 -0.046277035
-0.012756144 -0.0015428262 -0.017238794 -0.0013462388 -0.007833499 0.001423391 0.00032167527 -0.003502122
-0.0003445185 0.056801822 -0.046181545 -0.025445994 0.03327319 0.0018142705 -0.004122185 -0.001008881
-0.07867264 -0.035729367 0.0194024 0.024577018 -0.0034203904 0.002214745 0.016990807 0.054767247
0.054156315 -0.0032996307 0.004112451 0.017156664 -0.08972366 0.00078008446 -0.023105789 0.01093904
0.014949159 0.032157462 0.0027970434 0.08325896 -0.050737504 0.0017949608 -0.005910156 0.018210977
0.028435497 0.005277098 0.01711799 0.0015941518 0.07361241 0.0045066616 0.00988351 0.011655075
0.020947225 -0.027500907 0.00994356 0.07384057 -0.0027849213 0.011726949 0.0016621234 -0.029042885
0.0027269826 -0.0039086943 -0.057406195 -0.055653755 -0.013159387 0.0033302833 -0.079477884 0.046866897
0.09299308 0.039588403 0.0035607119 -0.0024090582 0.0188002 0.019519396 -0.02899043 -0.08716647
0.007962723 -0.0467148 0.015463324 0.053436413 0.0070418236 0.061705276 -0.008982883 0.018093046
0.017548652 -0.020860849 0.006301146 0.03169928 0.22104035 0.007634059 0.012542915 0.03285078
-0.075892255 0.057097133 -0.04590428 -0.018374758 0.10586782 0.0040157023 -0.015684225 0.005488102
-0.022720886 -0.03070289 0.024343273 0.014096788 0.18169153 0.045773536 0.054796465 0.06403173
-0.041200686 -0.010620254 0.25647107 -0.09556845 -0.28435737 -0.026062515 0.06367788 0.05842429
0.060213383 0.061893422 -0.034968484 0.06871444 -0.015146975 0.07616637 0.03543788 -0.05808192
0.0003951592 0.0015620937 0.035969466 0.0050577354 0.042747866 -0.012731326 -0.04363722 0.04133246
0.05704291 -0.010065235 0.017111128 0.055441804 0.06053115 -0.014963585 -0.014789274 -0.0004259863
-0.011636078 0.15297183 -0.13644233 0.0733729 -0.025774863 -0.014467297 -0.03223342 0.010839248
0.07291754 -0.07373201 0.030910006 -0.061640624 -0.027638406 -0.022268008 0.02111302 -0.039710242
-0.18990694 -0.01362215 -0.0055674766 -0.030806929 0.24462883 0.027221162 0.031282183 -0.0068808747
-0.021042727 -0.2352431 -0.0072059254 -0.053209476 -0.11531705 -0.06210957 -0.010808189 -0.09436602
0.007281437 -0.008584623 -0.045803614 0.057152256 0.088992156 -0.014253598 -0.000941316 -0.001094236
0.065980144 0.06908581 -0.0077168765 0.080143966 -0.021492584 -0.011533747 0.020789873 0.0052894307
-0.008266603 -0.007305146 -0.15760203 0.057521876 -0.013230532 -0.004943878 0.05055926 0.063715965
-0.41253373 0.068561986 0.004779432 -0.010402674 -0.02403701 0.068099745 -0.035482343 0.11117297
-0.10408456 0.021823457 0.01876059 0.06750521 -0.008404896 0.20574632 -0.032176528 0.051538106
0.063499406 -0.04356639 0.052954074 0.036625024 -0.40735668 -0.017123869 0.016524153 0.15185638
00000000: b870 e0bc 29a4 f2bc 7913 e8bc 5928 1abc
00000010: 8881 8c3d b253 a43d 4abe ea3b 5806 aebc
00000020: 25a0 be3b a2e6 1c3d ddaa c0bc 81da 3bbc
00000030: 62bf 72be c847 b8bb 4747 37bb 5c68 f93c
00000040: 1e2b 363b 83a6 353c ce93 373c 8683 25bd
00000050: 2a39 b6bd bf61 d9ba af63 7e3c 4276 f3bb
00000060: 363c c33c 5e88 cebb 78b9 0ab8 6658 87bc
00000070: fac9 143c 457f 6abc e7b3 8c3c 8dbc d5bc
00000080: c824 fa3b 896a 693c 1b08 12bc b3f7 50bb
00000090: a0b8 95bd d148 e8bb f4b6 c4bc fd8c 3dbd
000000a0: 25ff 50bc a838 caba 5f38 8dbc 4774 b0ba
000000b0: 1458 00bc 1491 ba3a 86a6 a839 db83 65bb
000000c0: 7ea0 b4b9 07a9 683d dc28 3dbd 1e74 d0bc
000000d0: 7849 083d d1cc ed3a 6513 87bb 6e3c 84ba
000000e0: 1f1f a1bd f558 12bd c8f1 9e3c be55 c93c
000000f0: a128 60bb 4125 113b 4e30 8b3c 9f53 603d
00000100: 03d3 5d3d 9e3e 58bb bdc1 863b 228c 8c3c
00000110: 0ac1 b7bd 957e 4c3a 5a48 bdbc a939 333c
00000120: 51ed 743c 8bb7 033d 9a4e 373b ac83 aa3d
00000130: 21d2 4fbd e444 eb3a fba9 c1bb 302f 953c
00000140: 8ff1 e83c 82eb ac3b 073b 8c3c dcf2 d03a
00000150: 1ac2 963d 9eac 933b 72ee 213c edf4 3e3c
00000160: 8499 ab3c 9549 e1bc 50ea 223c ba39 973d
00000170: 3a83 36bb 6422 403c 9bdb d93a 58eb edbc
00000180: 2db7 323b 8114 80bb c222 6bbd 31f5 63bd
00000190: 789a 57bc e240 5a3b 4dc5 a2bd 81f7 3f3d
000001a0: 2873 be3d 7327 223d d55a 693b 4ae1 1dbb
000001b0: e102 9a3c 24e7 9f3c 577d edbc 5684 b2bd
000001c0: 1576 023c 0558 3fbd e259 7d3c 24e0 5a3d
000001d0: 19bf e63b acbe 7c3d f12c 13bc de37 943c
000001e0: 31c2 8f3c 5fe4 aabc d879 ce3b 1bd7 013d
000001f0: 6758 623e 2127 fa3b cc80 4d3c 8a8e 063d
00000200: 666d 9bbd afde 693d 2006 3cbd a986 96bc
00000210: 3ad1 d83d 2796 833b 347c 80bc 89d5 b33b
00000220: 2721 babc a184 fbbc 8b6b c73c 37f6 663c
00000230: 580d 3a3e 087d 3b3d 4272 603d 1123 833d
00000240: 0dc2 28bd 9300 2ebc 2d50 833e 64b9 c3bd
00000250: 4a97 91be 0e81 d5bc 8c69 823d 4f4e 6f3d
00000260: 4fa2 763d f583 7d3d 1d3b 0fbd 28ba 8c3d
00000270: 052b 78bc 1dfd 9b3d 4f27 113d 4fe7 6dbd
00000280: 5f2d cf39 2bbf cc3a b854 133d 5cbb a53b
00000290: 6318 2f3d 0d97 50bc f1bc 32bd 3a4c 293d
000002a0: d4a5 693d a8e8 24bc a32c 8c3c f216 633d
000002b0: 83ef 773d d329 75bc b64e 72bc ea56 dfb9
000002c0: 40a5 3ebc a6a4 1c3e 8ab7 0bbe 8844 963d
000002d0: ce25 d3bc 3e08 6dbc 3107 04bd 1a97 313c
000002e0: cb55 953d cf00 97bd fb36 fd3c e17a 7cbd
000002f0: f069 e2bc 666b b6bc 36f5 ac3c 35a7 22bd
00000300: f776 42be 702f 5fbc 616f b6bb d05e fcbc
00000310: fb7f 7a3e eafe de3c bf21 003d f678 e1bb
00000320: cc61 acbc 91e3 70be af1f ecbb 2ef2 59bd
00000330: 582b ecbd 9b66 7ebd d514 31bc f942 c1bd
00000340: 1f99 ee3b 85a6 0cbc 929c 3bbd 7c18 6a3d
00000350: 8541 b63d ec87 69bc a6c2 76ba 786c 8fba
00000360: 9920 873d dc7c 8d3d dadd fcbb 8522 a43d
00000370: 3711 b0bc 0bf8 3cbc 864f aa3c f652 ad3b
00000380: a570 07bc 0260 efbb 6d62 21be 0f9c 6b3d
00000390: e0c4 58bc 4100 a2bb 3a17 4f3d 847d 823d
000003a0: 9f37 d3be 3a6a 8c3d c89c 9c3b fa6f 2abc
000003b0: 43e9 c4bc e177 8b3d ef55 11bd a7ae e33d
000003c0: 492a d5bd 1bc7 b23c cfaf 993c 2c40 8a3d
000003d0: b0b4 09bc 2aaf 523e 89cb 03bd 9f19 533d
000003e0: fa0b 823d ac72 32bd 5fe6 583d 1f04 163d
000003f0: 0e91 d0be 5b47 8cbc a95d 873c 3d80 1b3e

action_model._discrete_distribution.branches.0.bias f4 [3]
0.0014731392 0.014143122 -0.028410682
00000000: 5916 c13a 8eb8 673c 85bd e8bc

action_model._discrete_distribution.branches.1.weight f4 [2, 128]
-0.00946633 0.00528142 -0.026536593 -0.005452437 0.02561315 -0.043428455 -0.0030171562 0.0043142433
-0.017890856 -0.034836236 0.008140709 0.00721807 0.10263982 -0.0039921547 0.006346702 -0.001771956
1.9915751e-07 -0.024274545 0.07428022 -0.061186265 -0.08243901 -0.0045695994 0.011543356 0.017335413
0.0015221789 0.0028596066 -0.00800263 0.010552102 0.00017618027 -0.011493645 0.020331467 -0.009103383
0.01120607 0.0019184777 0.03575169 0.00855349 0.025318315 -0.00849029 -0.059798907 0.044850834
-0.009351677 0.008351962 0.027063182 0.019532312 -0.0028351906 -0.018840976 -0.0041280333 0.006316933
-0.0056217625 0.051562037 -0.083821684 0.0038899693 0.0059971795 -0.030154841 -0.016970698 0.022765134
0.06507758 -0.014121034 0.035331685 -0.0036368836 0.007185793 -0.015089215 0.015428773 0.014204184
-0.0126084555 -0.0010121542 0.0005918459 -0.0065526306 0.14725573 0.015797256 0.030557914 0.0027534612
-0.017820725 0.017005797 -0.00081272644 0.016973278 -0.09853243 -0.0028391192 0.012751804 -0.05893766
0.020910185 0.031140907 0.0045872265 0.054668814 0.0023164407 0.014509908 0.002834433 0.008841695
0.014304737 0.07779763 0.0010183038 0.078934774 -0.0053516543 0.0023176484 0.009948069 -0.0018809636
0.007137061 -0.006984215 -0.097062685 0.006294443 0.015700638 0.003276424 0.040653087 0.03786512
-0.07660529 0.012488339 0.00039453246 0.03723926 -0.0062929317 0.018918239 -0.02824832 0.089243814
0.0042012115 0.020845588 0.019379094 0.015301037 0.005429403 0.022330174 -0.0014883849 0.012007932
-0.0034773098 -0.03898582 0.05489522 0.011405623 -0.08947258 0.009896028 0.025148923 -0.1505038
0.012613836 -0.012018489 0.022254627 0.0055608754 -0.044892564 0.047822494 0.0054198187 0.008679597
0.0144623695 0.028895838 -0.0010505798 -0.005081016 -0.09836737 -0.007855072 -0.018846316 0.008835669
-0.0049309856 0.0036320928 -0.083780564 0.06282371 0.095121674 0.009515338 -0.009683288 -0.031231213
-0.013492794 -0.003446445 0.0077216835 0.010347893 -0.0024555894 0.008398428 -0.034890745 0.013767571
-0.002249695 -0.008498818 -0.04523549 0.013850074 -0.03265683 0.0043943296 0.07013527 -0.05576033
-0.012397494 -0.0064756577 -0.02611038 0.0018560598 0.0055952226 0.015277572 -0.0046145036 -0.0010944812
0.008091635 -0.050056595 0.09563419 -0.0018190144 0.009647246 0.019081572 0.020134605 -0.0073748003
-0.051440343 0.0042291875 -0.039481945 0.014971227 -0.0029255808 -0.0024868269 -0.033277575 -0.01669372
0.019036043 -0.0026299977 -0.0069008186 0.003621836 -0.13885 -0.017423334 -0.017976873 0.009780865
0.020977415 -0.031221792 -0.00034758705 0.014992245 0.111057244 0.0016682012 -0.007511056 0.05811242
-0.013007454 -0.01863684 -0.010758599 -0.04288344 0.012176542 0.01013415 0.0030199434 -0.0064310036
-0.029440058 -0.06468521 -0.0031654462 -0.075041555 0.0038730404 0.001212365 0.0021188282 0.021712743
-0.008832849 -0.0101354895 0.09908142 -0.013210202 -0.03821384 -0.013051189 -0.054530736 -0.061051752
0.04785992 -0.012901322 0.001125227 -0.01295519 0.0014053421 -0.028699255 0.01247952 -0.083511844
-0.009885854 -0.021855481 -0.0061175465 -0.043982677 -0.00964054 -0.01820512 0.009454351 -0.016476903
0.016482044 0.03538648 -0.064724535 -0.0054569696 0.08372079 -0.00047590805 -0.033566613 0.12434252
00000000: aa18 1bbc c30f ad3b 4563 d9bc 5baa b2bb
00000010: abd2 d13c 09e2 31bd 7bbb 45bb 7f5e 8d3b
00000020: d88f 92bc 71b0 0ebd 9c60 053c 8f85 ec3b
00000030: d334 d23d 9fd0 82bb fff7 cf3b fa40 e8ba
00000040: 00d8 5534 69db c6bc 3a20 983d 739e 7abd
00000050: c9d5 a8bd 94bc 95bb 5820 3d3c ff02 8e3c
00000060: d983 c73a 3d68 3b3b 771d 03bc b9e2 2c3c
00000070: 08bd 3839 d74f 3cbc 2d8e a63c 5b26 15bc
00000080: aa99 373c 6e75 fb3a 5d70 123d f023 0c3c
00000090: 5b68 cf3c db1a 0bbc b3ef 74bd 82b5 373d
000000a0: c737 19bc abd6 083c 9bb3 dd3c 3a02 a03c
000000b0: 9bce 39bb 6458 9abc 7444 87bb 46fe ce3b
000000c0: c336 b8bb b732 533d b4aa abbd dbee 7e3b
000000d0: fd83 c43b 4907 f7bc 2206 8bbc f27d ba3c
000000e0: 6547 853d e95b 67bc f5b7 103d c858 6ebb
000000f0: cd76 eb3b c138 77bc f7c8 7c3c aab8 683c
00000100: b293 4ebc 42aa 84ba 1b26 1b3a 73b7 d6bb
00000110: 35ca 163e 3f69 813c 9754 fa3c 6a73 343b
00000120: c5fc 91bc be4f 8b3c 260d 55ba 8b0b 8b3c
00000130: 5fcb c9bd 8410 3abb f1ec 503c 9e68 71bd
00000140: d64b ab3c 371b ff3c 7250 963b 68ec 5f3d
00000150: 6dcf 173b f7ba 6d3c e5c1 393b c2dc 103c
00000160: 6a5e 6a3c 5d54 9f3d 9b78 853a 8ea8 a13d
00000170: ee5c afbb b0e3 173b 3afd 223c aa8a f6ba
00000180: 02de e93b d8db e4bb cdc8 c6bd 9d41 ce3b
00000190: a09e 803c 46b9 563b da83 263d 7518 1b3d
000001a0: 3ce3 9cbd e49b 4c3c 40d9 ce39 3288 183d
000001b0: f034 cebb 6cfa 9a3c 0569 e7bc 76c5 b63d
000001c0: 51aa 893b 5ec4 aa3c e8c0 9e3c 33b1 7a3c
000001d0: 22e9 b13b c5ed b63c e915 c3ba ebbc 443c
000001e0: 94e3 63bb 98af 1fbd cfd9 603d a6de 3a3c
000001f0: 663d b7bd f322 223c 1d05 ce3c ab1d 1abe
00000200: 43aa 4e3c 32e9 44bc 564f b63c 0138 b63b
00000210: 44e1 37bd 85e1 433d bc98 b13b de34 0e3c
00000220: 93f3 6c3c f7b6 ec3c 9cb3 89ba a77e a6bb
00000230: d574 c9bd 8fb2 00bc 9763 9abc 7bc3 103c
00000240: 1b94 a1bb 6808 6e3b 2595 abbd b8a9 803d
00000250: 27cf c23d 38e6 1b3c a7a6 1ebc 9ad8 ffbc
00000260: e110 5dbc c1dd 61bb 2d06 fd3b 368a 293c
00000270: f4ed 20bb 8f99 093c 99e9 0ebd 6191 613c
00000280: 9e6f 13bb a03e 0bbc d948 39bd 6ceb 623c
00000290: 2bc3 05bd 4ffe 8f3b 15a3 8f3d f264 64bd
000002a0: dc1e 4bbc c131 d4bb 70e5 d5bc 0847 f33a
000002b0: 2158 b73b c84e 7a3c 4335 97bb b274 8fba
000002c0: c792 043c 2508 4dbd dcdb c33d ff6b eeba
000002d0: 7c0f 1e3c f550 9c3c 54f1 a43c 4fa8 f1bb
000002e0: 1cb3 52bd ff94 8a3b d2b7 21bd e149 753c
000002f0: 1abb 3fbb 08fa 22bb 114e 08bd 45c1 88bc
00000300: 7af1 9b3c 0a5c 2cbb 4320 e2bb 535c 6d3b
00000310: b22e 0ebe 61bb 8ebc 3c44 93bc ec3f 203c
00000320: d4d8 ab3c d8c4 ffbc 583c b6b9 08a2 753c
00000330: fb71 e33d 8ba7 da3a 4e1f f6bb 4a07 6e3d
00000340: 371d 55bc 49ac 98bc d644 30bc 8ca6 2fbd
00000350: 1e80 473c b509 263c 3eea 453b 2bbb d2bb
00000360: 472c f1bc ae79 84bd 6073 4fbb 63af 99bd
00000370: d6d2 7d3b 38e8 9e3a 0adc 0a3b ecde b13c
00000380: a7b7 10bc 530f 26bc 33eb ca3d 9a6f 58bc
00000390: 1e86 1cbd a7d4 55bc 9f5b 5fbd 6711 7abd
000003a0: c308 443d 1160 53bc 5a7c 933a 0142 54bc
000003b0: 7533 b83a b31a ebbc e776 4c3c 4208 abbd
000003c0: 47f8 21bc 440a b3bc b375 c8bb 2e27 34bd
000003d0: 5bf3 1dbc e722 95bc 6ce6 1a3c 92fa 86bc
000003e0: 5a05 873c 6af1 103d 4c8e 84bd 61d0 b2bb
000003f0: ce75 ab3d 4c83 f9b9 257d 09bd 4ba7 fe3d

action_model._discrete_distribution.branches.1.bias f4 [2]
0.0040327595 -0.004032101
00000000: 3d25 843b b71f 84bb

q1_network.network_body._body_endoder.seq_layers.0.weight f4 [128, 3]
-0.00022983369 -0.6039503 -0.10428559 -0.30313867 -0.5987305 0.031044545 -0.6555585 0.27120134
-0.46669203 -0.7157788 -0.16384722 0.7211765 -0.043923557 0.038207166 -0.14742339 0.39616463
-0.2680941 0.3485311 0.25619358 -0.44948667 0.28159994 -1.7859795 0.3588915 -0.5031383
-0.7760085 -0.8872291 0.5768422 0.3612712 -0.13707179 0.536857 0.17537782 -0.44806892
0.12098939 -0.46457648 0.2502886 -0.4364904 0.0673423 0.532821 -0.18183817 -0.60577226
-1.2135829 0.26570994 -0.9677849 -0.44175544 0.38932484 0.48942193 0.5455315 -0.44432023
-0.44391218 -0.49545413 0.6736146 1.6349747 -1.1096976 0.019301893 -0.56151575 0.24161041
0.9951153 -0.533491 -0.081354596 -0.1809872 0.08625948 0.49143702 0.6458584 -0.0013348872
0.16960944 0.34256676 0.5512466 0.3697466 0.49269313 0.65506554 1.2694734 -0.64247906
0.18835491 1.1384236 1.1264813 -0.051457863 0.11804259 0.5622342 0.5734355 0.4227274
-0.22628511 -0.23441392 0.29687163 -1.2124487 -0.11665443 0.19824834 0.09603175 -0.63391197
-0.48734164 -0.17477752 -0.2732866 -0.8976771 0.58757895 -0.1986247 0.18923938 -0.44254717
-0.6517994 0.31626534 0.7385701 0.020494591 0.34065044 -0.14379126 -0.52782565 -0.38956606
0.6123095 -0.22403766 -0.91668093 -0.05873042 -0.24453756 0.4920672 -0.12397241 -0.41769552
-0.03357873 -0.2649728 -0.6976521 -0.075705394 0.3416394 -0.9409407 0.68669784 -0.24978323
0.123222396 -0.83883476 0.49311218 -0.31994253 -0.64536524 -0.047194652 0.7283658 -0.48577315
-0.32978886 -0.14549917 0.4471871 0.7216593 -0.5361231 0.69413775 0.2626569 0.58226836
0.11802839 0.24324314 -0.5252048 0.29762122 -0.32805005 -0.1289191 0.60917985 0.3855611
0.5500079 0.22434656 0.05311936 0.5785122 0.31137845 -0.46273044 0.21925962 -0.22955373
-0.9389221 -0.47609013 -0.040094975 0.26531324 -0.8989158 -0.3960309 0.43357173 0.45165595
-0.20157771 0.7708513 0.5226525 0.590475 -0.0942207 0.47946256 -0.91029644 -0.41419676
-0.17877701 -0.13606648 0.017047422 0.3103489 0.21514685 -0.25399607 -0.58108324 0.03807473
1.1328443 -0.42288223 0.6081126 -0.079736024 0.40141055 1.4550228 0.2690249 0.1117941
0.17185031 -0.162002 0.11008019 0.5258466 -0.18668976 -1.3055317 -0.4712206 -0.18070298
-0.38639224 -0.03178676 -0.47337794 0.052124336 0.2880736 -0.044537716 -1.1446582 0.793616
-0.2204817 -1.1342055 0.3385627 -0.34099355 -1.2457104 1.3604391 -0.32921764 0.44736788
0.60158074 0.01028633 -0.4567005 0.61820716 0.3185286 0.18044041 0.37688574 -0.22160007
-1.1244597 -0.3722656 0.10543741 -0.5393669 0.058460545 -0.33273023 -0.18704346 0.95043385
0.13761471 -0.12459793 -1.0984268 -0.047803048 1.3022915 0.62489146 -1.0403273 0.49719682
-0.08670193 1.2078409 0.6275474 1.3252687 0.18208319 0.8862858 0.30731457 0.6173611
-0.36706436 -1.259013 -0.038192887 0.50442207 -0.18833898 -1.1324219 -0.23419006 -0.22461598
-0.11629175 0.24738954 -0.9253526 0.19568267 -0.6869113 -1.4922608 -0.26360175 -0.21073894
00000000: 83ff 70b9 7d9c 1abf af93 d5bd fe34 9bbe
00000010: 6746 19bf 2151 fe3c afd2 27bf e7da 8a3e
00000020: 42f2 eebe 483d 37bf 91c7 27be 069f 383f
00000030: 30e9 33bd 1e7f 1c3d 28f6 16be 17d6 ca3e
00000040: a143 89be ab72 b23e ce2b 833e 1e23 e6be
00000050: de2d 903e fa9a e4bf a0c0 b73e accd 00bf
00000060: 7ea8 46bf 7221 63bf eeab 133f 8af8 b83e
00000070: 8c5c 0cbe 766f 093f 3e96 333e 4a69 e5be
00000080: 49c9 f73d f8dc edbe d425 803e ab7b dfbe
00000090: c3ea 893d f566 083f c933 3abe e413 1bbf
000000a0: af56 9bbf 220b 883e c0c0 77bf c52d e2be
000000b0: 9655 c73e 8395 fa3e f4a7 0b3f f17d e3be
000000c0: 7548 e3be 2aac fdbe 0272 2c3f da46 d13f
000000d0: 920a 8ebf 011f 9e3c 7fbf 0fbf b868 773e
000000e0: e0bf 7e3f de92 08bf 3d9d a6bd b554 39be
000000f0: cfa8 b03d a29d fb3e fa56 253f 62f7 aeba
00000100: 19ae 2d3e e964 af3e 7f1e 0d3f 6d4f bd3e
00000110: 4642 fc3e 60b2 273f 1b7e a23f 8279 24bf
00000120: 1ce0 403e ddb7 913f 8a30 903f 7bc5 52bd
00000130: 50c0 f13d 95ee 0f3f abcc 123f ba6f d83e
00000140: 49b7 67be 340a 70be 8fff 973e 8531 9bbf
00000150: 85e8 eebd 9d01 4b3e 4bac c43d 0e48 22bf
00000160: d884 f9be e1f8 32be 39ec 8bbe 2bce 65bf
00000170: 936b 163f 4664 4bbe f8c7 413e 8b95 e2be
00000180: 53dc 26bf 88ed a13e ee12 3d3f 46e4 a73c
00000190: bc69 ae3e 043e 13be 951f 07bf 3475 c7be
000001a0: 51c0 1c3f 216a 65be 9aab 6abf 4f8f 70bd
000001b0: 0e68 7abe 3bf0 fb3e 3fe5 fdbd 30dc d5be
000001c0: da89 09bd 84aa 87be 5499 32bf 6e0b 9bbd
000001d0: 5ceb ae3e 7de1 70bf 6ecb 2f3f 2dc7 7fbe
000001e0: 065c fc3d e0bd 56bf 3379 fc3e 82cf a3be
000001f0: a836 25bf 2e4f 41bd 2e76 3a3f 42b7 f8be
00000200: 16da a8be bcfd 14be b5f5 e43e aabe 383f
00000210: 5d3f 09bf 03b3 313f f77a 863e 8a0f 153f
00000220: deb8 f13d bb14 793e d273 06bf cf61 983e
00000230: 2df6 a7be 5e03 04be 36f3 1b3f 4468 c53e
00000240: 51cd 0c3f 1bbb 653e b093 593d 6019 143f
00000250: ff6c 9f3e 01eb ecbe 9885 603e 2210 6bbe
00000260: 335d 70bf 16c2 f3be a13a 24bd 23d7 873e
00000270: 591f 66bf 90c4 cabe 1dfd dd3e 733f e73e
00000280: 636a 4ebe 8356 453f 8ecc 053f 5f29 173f
00000290: c8f6 c0bd 1e7c f53e 3009 69bf 9911 d4be
000002a0: 5211 37be 0355 0bbe 09a7 8b3c 0de6 9e3e
000002b0: 754f 5c3e c60b 82be dfc1 14bf 40f4 1b3d
000002c0: 0b01 913f 0584 d8be 44ad 1b3f a44c a3bd
000002d0: af85 cd3e 303e ba3f a2bd 893e 4ef4 e43d
000002e0: 87f9 2f3e dae3 25be b971 e13d e29d 063f
000002f0: 9a2b 3fbe aa1b a7bf d443 f1be 340a 39be
00000300: 34d5 c5be d532 02bd 985e f2be 5480 553d
00000310: 627e 933e 2e6d 36bd 2984 92bf 6b2a 4b3f
00000320: f4c5 61be a52d 91bf 1758 ad3e b596 aebe
00000330: 7073 9fbf de22 ae3f 378f a8be 670d e53e
00000340: 3201 1a3f ff87 283c a6d4 e9be d342 1e3f
00000350: 2e16 a33e 5fc5 383e 2bf7 c03e 21eb 62be
00000360: 4cee 8fbf 9999 bebe 92ef d73d f313 0abf
00000370: 5374 6f3d 9e5b aabe 5288 3fbe a24f 733f
00000380: dfea 0c3e 332d ffbd 4099 8cbf 21cd 43bd
00000390: 7db1 a63f e3f8 1f3f 7229 85bf 9590 fe3e
000003a0: c890 b1bd 889a 9a3f f2a6 203f 68a2 a93f
000003b0: 0474 3a3e a0e3 623f 5658 9d3e 610b 1e3f
000003c0: dcef bbbe 5727 a1bf 2570 1cbd ce21 013f
000003d0: efdb 40be 33f3 90bf 85cf 6fbe bb01 66be
000003e0: 5e2a eebd af53 7d3e e8e3 6cbf 0a61 483e
000003f0: 6bd9 2fbf 6702 bfbf cff6 86be f3cb 57be

q1_network.network_body._body_endoder.seq_layers.0.bias f4 [128]
0.16744448 -0.0011822957 0.24787678 -0.047475163 0.07795043 -0.013325228 0.0026019209 0.106951736
-0.008517608 -0.018092416 -0.042440973 0.23909384 0.09429263 0.0098482305 0.016952027 0.15732157
-0.015373278 -0.053043235 -0.008805581 0.006324108 -0.008055101 0.0065581365 -0.021077702 0.29804957
-0.028925361 -0.018491052 -0.03871303 3.070365e-05 -0.020279061 0.34438547 -0.017180352 0.20073038
-0.027127614 0.07507339 -0.013728375 0.03136305 0.0073146783 0.13758062 0.033839054 0.479147
-0.0045207976 0.022417255 -0.14000523 -0.024347482 -0.0149918785 -0.019881666 0.20077386 -0.032140464
0.00658379 0.25302613 -0.00055156805 0.0075436733 -0.017304245 -0.027833253 -0.050599873 0.3411144
-0.01606482 0.05730881 -0.038808413 0.100520484 -0.036500003 -0.012834897 0.48139074 0.027018066
0.21279423 0.006526636 0.10745598 0.07671414 0.16446732 -0.031240169 -0.0037208248 0.12841938
0.04754135 0.18790324 -0.020212213 0.06832758 -0.044901557 -0.035170767 -0.012577533 -0.006488983
0.009722987 -0.0008135565 0.055625577 -0.0067950976 0.36039078 -0.049355563 2.5842013e-05 -0.05681269
0.44172415 -0.026010336 -0.007879791 -0.029012324 -0.012507328 -0.0104437955 0.085590705 0.1718464
-0.040075634 1.3361471e-06 1.39750895e-08 0.26492956 0.3270655 0.21221724 0.15628725 -0.034706715
-0.019295234 0.00020326929 0.2035999 0.368629 0.09669775 0.13214958 -0.0049091573 0.24754283
-0.19286236 0.0119275125 0.19038902 0.24017328 -0.043228436 -0.04753447 -0.013152745 0.1139106
0.004010355 0.19710228 0.09311057 0.15631501 0.20756233 -0.06374621 0.023617882 -0.025584927
00000000: 9176 2b3e 43f7 9aba 69d3 7d3e 5175 42bd
00000010: 7aa4 9f3d 0f52 5abc fd84 2a3b 8309 db3d
00000020: 708d 0bbc 8c36 94bc 96d6 2dbd 04d5 743e
00000030: 7f1c c13d 795a 213c fade 8a3c e818 213e
00000040: 34e0 7bbc dd43 59bd 4945 10bc 773a cf3b
00000050: 8bf9 03bc a3e5 d63b 25ab acbc f499 983e
00000060: e1f4 ecbc 8c7a 97bc 8e91 1ebd cbc7 0038
00000070: 4620 a6bc 4b53 b03e cfbd 8cbc 448c 4d3e
00000080: bb3a debc 14c0 993d faec 60bc 8b76 003d
00000090: f8af ef3b efe1 0c3e d29a 0a3d c152 f53e
000000a0: 3323 94bb 64a4 b73c 885d 0fbe 5f74 c7bc
000000b0: 7fa0 75bc e0de a2bc aa97 4d3e b8a5 03bd
000000c0: d5bc d73b a48c 813e 1b97 10ba eb30 f73b
000000d0: a2c1 8dbc 9002 e4bc d041 4fbd 8ca6 ae3e
000000e0: 5f9a 83bc a5bc 6a3d 92f5 1ebd afdd cd3d
000000f0: 0781 15bd 7649 52bc d978 f63e fe54 dd3c
00000100: bbe6 593e 64dd d53b e111 dc3d 4e1c 9d3d
00000110: 1f6a 283e 62eb ffbc 15d9 73bb 5f80 033e
00000120: b8ba 423d b569 403e 1594 a5bc 55ef 8b3d
00000130: b2ea 37bd 390f 10bd ff11 4ebc 89a1 d4bb
00000140: 2a4d 1f3c da44 55ba a5d7 633d 69a9 debb
00000150: 2485 b83e 0f29 4abd 4dc7 d837 6cb4 68bd
00000160: ab29 e23e a113 d5bc 3d1a 01bc 41ab edbc
00000170: 89eb 4cbc 741c 2bbc 2e4a af3d 81f8 2f3e
00000180: 5926 24bd aa55 b335 1817 7032 d9a4 873e
00000190: 2175 a73e 7a4f 593e c409 203e a128 0ebd
000001a0: 0a11 9ebc af24 5539 7e7c 503e f1bc bc3e
000001b0: 7809 c63d 3852 073e ffdc a0bb de7b 7d3e
000001c0: b67d 45be 9d6b 433c 57f5 423e fcef 753e
000001d0: 4d10 31bd 81b3 42bd 9c7e 57bc f649 e93d
000001e0: 4c69 833b 2ed5 493e c1b0 be3d 0b11 203e
000001f0: 388b 543e 5f8d 82bd 4a7a c13c 7b97 d1bc

q1_network.network_body._body_endoder.seq_layers.2.weight f4 [128, 128]
0.08520341 -0.0303472 0.05502318 -0.05006084 -0.02222702 0.11455697 -0.09447293 0.12017716
0.006388922 -0.1271075 0.060859706 0.046588395 0.027366536 -0.0717852 -0.08981351 0.19864628
0.14061174 2.1951777e-05 0.045963846 0.039308622 -0.061167274 0.09928628 -0.014468068 0.2379358
-0.06496533 -0.030844666 0.0593933 0.03548511 -0.03427329 0.089858755 -0.13308775 0.04341394
0.03760079 0.017735276 0.018412134 -0.021632059 -0.1256725 -0.028645447 0.07310485 0.18647733
-0.01171762 -0.08837433 0.039855786 0.09172409 -0.05952022 0.075731985 0.07415861 0.0026829392
-0.14645438 0.56567353 0.12188505 0.074862055 -0.21743917 -0.00122326 0.008578539 0.17695321
0.015443703 -0.08248522 -0.124186754 0.014260101 -0.06856173 -0.10438891 0.014508567 0.25598195
0.030977197 -0.065907516 0.18197428 0.10528396 0.06439419 0.15609074 -0.08891538 -0.16271424
-0.12562022 0.016905382 0.05686474 -0.020664776 0.39947134 -0.012343067 -0.08593327 0.053627107
0.011456778 0.07857552 0.0644658 0.109742 0.15567647 0.038401436 -0.08539561 -0.06345483
-0.17209752 -0.03667434 0.028012242 0.0046473066 0.023677107 -0.04196729 -0.0059171966 0.050339703
0.12842081 -0.11712726 0.1142981 0.2732794 0.22676083 0.23231314 0.06336134 0.052340828
0.07324596 0.019673033 0.043747395 0.099536166 -0.11843943 0.056830663 0.0009977532 0.111116245
0.21426943 -0.013509099 0.19617645 0.32386443 -0.12135692 0.023478799 0.0019337198 0.006552569
0.5240293 0.24588889 0.3027611 0.20993516 0.124665454 0.0019537122 0.009668473 0.016051779
0.30505505 0.0768547 -0.027565442 -0.19956972 0.4056841 0.12252445 -0.1577727 0.029156266
0.055512317 -0.08660671 -0.05886934 -0.013683417 0.07746786 0.14150299 0.016889663 0.35063085
0.08700331 0.18665364 -0.034959055 0.046343043 -0.014138128 -0.12308903 0.04987426 0.016715799
-0.12960015 0.16414462 -0.038251627 0.02865691 -0.07549872 -0.10636057 0.10806199 -0.025967235
-0.10898234 0.09697984 -0.013423911 0.22911714 0.18168533 -0.09751476 -0.050115734 -0.17562065
-0.09637219 0.138669 0.0969291 -0.073295355 0.014228706 0.11886231 -0.05274777 0.11246489
-0.032252863 0.06175148 -0.017321464 0.07461316 0.112952 0.13349518 0.024205262 0.0265863
-0.03642556 0.17139924 -0.17504953 -0.1347359 -0.054261282 0.14693959 0.19950104 0.0055044326
-0.08286323 -0.13648656 -0.038495943 -0.020215238 -0.19612063 -0.08024824 -0.10766045 0.06429129
0.06579783 -0.03658165 0.0103414925 0.13785453 0.009462668 -0.029671574 0.13674022 -0.0009807543
-0.016102113 0.09211844 0.1353967 0.01014789 -0.11183894 0.16580904 -0.049670313 0.048077438
0.14324711 -0.027927868 -0.12197607 0.12609047 0.18539682 0.20562059 -0.044446077 0.053418763
0.024537394 0.17220196 -0.071031235 0.17878947 -0.11354755 -0.10249638 -0.19684929 -0.01951237
-0.0036177235 0.06405025 0.0815274 0.21835476 -0.13957652 -0.025391491 -0.08079244 -0.07384345
0.23224188 0.025213959 -0.03771087 0.28455672 0.04696038 0.029469913 -0.053882774 0.16319373
-0.10733553 -0.07427698 0.100258335 -0.14739011 0.07738385 -0.09856051 0.29248625 -0.11870216
00000000: 207f ae3d b19a f8bc fc5f 613d 980c 4dbd
00000010: 7015 b6bc d89c ea3d 067b c1bd 711f f63d
00000020: 2a5a d13b 7828 02be 0748 793d 79d3 3e3d
00000030: c92f e03c 1e04 93bd 25f0 b7bd ee69 4b3e
00000040: 86fc 0f3e 1525 b837 9644 3c3d 1402 213d
00000050: 898a 7abd 9b56 cb3d 7a0b 6dbc 71a5 733e
00000060: 8b0c 85bd f4ad fcbc 6446 733d d658 113d
00000070: 2662 0cbd de07 b83d 2848 08be d1d2 313d
00000080: 4903 1a3d 9249 913c 0bd5 963c b735 b1bc
00000090: 4bb0 00be dba9 eabc ffb7 953d eaf3 3e3e
000000a0: 43fb 3fbc 9afd b4bd d23f 233d d7d9 bb3d
000000b0: 79cb 73bd 5f19 9b3d 78e0 973d 40d4 2f3b
000000c0: 23f8 15be fbcf 103f de9e f93d 4751 993d
000000d0: 60a8 5ebe cb55 a0ba 008d 0c3c 3933 353e
000000e0: 9607 7d3c 03ee a8bd a055 febd 33a3 693c
000000f0: 186a 8cbd dac9 d5bd 57b5 6d3c 1110 833e
00000100: e4c3 fd3c 85fa 86bd 7757 3a3e 1e9f d73d
00000110: 1ae1 833d 40d6 1f3e 4419 b6bd 909e 26be
00000120: 96a2 00be 287d 8a3c 00eb 683d 2d49 a9bc
00000130: 8287 cc3e 933a 4abc c8fd afbd 19a8 5b3d
00000140: 36b5 3b3c 34ec a03d a506 843d 6ac0 e03d
00000150: a769 1f3e d34a 1d3d e5e3 aebd 9bf4 81bd
00000160: 553a 30be d537 16bd ee79 e53c 6f48 983b
00000170: 7ef6 c13c e5e5 2bbd 0be5 c1bb 0131 4e3d
00000180: bf80 033e 6be0 efbd 1f15 ea3d 47eb 8b3e
00000190: fe33 683e 7fe3 6d3e 97c3 813d 5663 563d
000001a0: fa01 963d 5729 a13c 7830 333d 9ed9 cb3d
000001b0: 5f90 f2bd 45c7 683d 0bc7 823a ea90 e33d
000001c0: 7269 5b3e 4555 5dbc 7be2 483e 8fd1 a53e
000001d0: fa89 f8bd 9c56 c03c df74 fd3a efb6 d63b
000001e0: c926 063f 4cca 7b3e 8103 9b3e 3ef9 563e
000001f0: 9a50 ff3d da09 003b 8468 1e3c 057f 833c
00000200: 2d30 9c3e ff65 9d3d ecd0 e1bc 015c 4cbe
00000210: d4b5 cf3e 19ee fa3d 2b8f 21be 1fd9 ee3c
00000220: e260 633d dc5e b1bd fa20 71bd 6930 60bc
00000230: 78a7 9e3d 29e6 103e 315c 8a3c e385 b33e
00000240: cb2e b23d 2222 3f3e 3a31 0fbd 34d2 3d3d
00000250: 9ba3 67bc 1a16 fcbd f448 4c3d 92ef 883c
00000260: e7b5 04be 8715 283e bdad 1cbd e5c1 ea3c
00000270: 139f 9abd 92d3 d9bd 9b4f dd3d 3db9 d4bc
00000280: 2232 dfbd 5e9d c63d f7ef 5bbc af9d 6a3e
00000290: b80b 3a3e d2b5 c7bd 2846 4dbd e6d5 33be
000002a0: c85e c5bd 3fff 0d3e c482 c63d e01b 96bd
000002b0: 851f 693c 156e f33d 0c0e 58bd fe53 e63d
000002c0: 941b 04bd 1fef 7c3d bee5 8dbc c9ce 983d
000002d0: 6153 e73d f6b2 083e 1d4a c63c 83cb d93c
000002e0: f832 15bd 4883 2f3e 2f40 33be 35f8 09be
000002f0: 1441 5ebd 5577 163e 004a 4c3e 875e b43b
00000300: 32b4 a9bd 22c3 0bbe ecad 1dbd 6d9a a5bc
00000310: d9d3 48be 3059 a4bd 157d dcbd 27ab 833d
00000320: 03c1 863d a4d6 15bd 5d6f 293c bd29 0d3e
00000330: 4e09 1b3c cd11 f3bc a105 0c3e a78c 80ba
00000340: 94e8 83bc 98a8 bc3d 6fa5 0a3e 5643 263c
00000350: d00b e5bd d8c9 293e 1973 4bbd d9ec 443d
00000360: 5faf 123e fcc8 e4bc 97ce f9bd dc1d 013e
00000370: aad8 3d3e 348e 523e 170d 36bd a2cd 5a3d
00000380: a502 c93c b655 303e d378 91bd 9614 373e
00000390: 9e8b e8bd 9fe9 d1bd dc92 49be 68d8 9fbc
000003a0: 5417 6dbb c72c 833d d6f7 a63d 6498 5f3e
000003b0: 26ed 0ebe d101 d0bc 8276 a5bd 3c3b 97bd
000003c0: d1d0 6d3e 818d ce3c b776 1abd 6bb1 913e
000003d0: 8759 403d e36a f13c 2fb4 5cbd 421c 273e
000003e0: bbd2 dbbd 871e 98bd 3e54 cd3d 6fed 16be
000003f0: 6d7b 9e3d 18da c9bd c2c0 953e 1e1a f3bd
