results/first/SpaceInvaders/SpaceInvaders-9957.pt (torch, 951865 bytes, 83 tensors)

discrete_act_size_vector f4 [1, 2]
0	0x40400000	3.0
1	0x40000000	2.0

network_body._body_endoder.seq_layers.0.weight f4 [128, 3]
0	0xbd66d390	-0.056354105
1	0xbe03310d	-0.1281168
2	0x3f2bdac9	0.67130715
3	0x3f617fe1	0.8808575
4	0xbfbbcf1a	-1.4672577
5	0xbef9d014	-0.48791564
6	0x3f5b0d39	0.8556705
7	0x3d175d6d	0.036954332
8	0xbf54ec17	-0.83172745
9	0xbee0f2d5	-0.43935266
10	0xbcdb028c	-0.026734613
11	0x3eda65ac	0.42655694
12	0xbe0766b5	-0.13222773
13	0x3f86af40	1.0522232
14	0x3f878ef5	1.0590502
15	0x3e279c40	0.16368198
16	0x3f38db3e	0.7220954
17	0xbe6f8712	-0.23391369
18	0x3ed7a706	0.42119616
19	0x3eac757c	0.33683383
20	0xbeaf338a	-0.3421901
21	0x3ef994ef	0.4874644
22	0x3e4505bc	0.19240469
23	0xbef1931d	-0.4718255
24	0xbf9d77b5	-1.2302157
25	0xbf24ede1	-0.64425474
26	0xbe1145ef	-0.14186834
27	0xbfa29713	-1.2702354
28	0xbd581fa8	-0.052764565
29	0x3de240fb	0.1104755
30	0x38d6555d	0.00010220215
31	0xbea36ba5	-0.31918064
32	0x3ec32c20	0.38119602
33	0xbf96ae74	-1.1771989
34	0xbf78bfde	-0.97167766
35	0x3e48cffd	0.19610591
36	0xbfa05678	-1.2526388
37	0x3e65f81f	0.22457932
38	0xbe41a7b0	-0.18911624
39	0xbf685f4e	-0.90770423
40	0x3f13ffd7	0.57812256
41	0x3eccaf4b	0.39977488
42	0x3e2775ae	0.16353485
43	0xbe2ca7a1	-0.1686082
44	0x3e971512	0.29508263
45	0xbe6bdf99	-0.23034514
46	0xbf000a3e	-0.5001563
47	0x3e9463f1	0.289825
48	0x3da5a37c	0.08087823
49	0xbf454963	-0.77065104
50	0xbf91e720	-1.1398659
51	0x3f108e9e	0.56467617
52	0xbf0cb859	-0.5496879
53	0xbf0d12f1	-0.5510703
54	0x3ee9b523	0.4564601
55	0x3f43fc8e	0.7655724
56	0xbed3f1ed	-0.41395512
57	0xbe0f7b00	-0.14011765
58	0x3fbacb1c	1.4593234
59	0xbd421df8	-0.04739186
60	0x3eac4402	0.33645636
61	0x3de5f376	0.11228077
62	0x3dc46dce	0.09591256
63	0xbf294326	-0.66118085
64	0xbf791518	-0.9729781
65	0x3ef3b7a3	0.4760104
66	0xbe86592c	-0.26239908
67	0x3f9977cd	1.1989685
68	0xbf8fc3e1	-1.1231652
69	0xbfdd2826	-1.7277877
70	0xbd444a65	-0.04792251
71	0xbe562d92	-0.20915821
72	0x3e3fb655	0.18721898
73	0xbec837f4	-0.3910519
74	0xbe474718	-0.19460714
75	0x3f90b0bd	1.1303936
76	0x389adc12	7.3842835e-05
77	0xbe8bdbd1	-0.27316144
78	0xbf37dad6	-0.7181829
79	0x3d9722d3	0.07379689
80	0x3f28b52f	0.65901464
81	0x3edb5f64	0.42846215
82	0x3ecc0757	0.3984935
83	0xbed354e1	-0.41275695
84	0x3e81b970	0.2533679
85	0xbeaff093	-0.3436323
86	0x3ea05016	0.313111
87	0x3eca2c66	0.39486998
88	0x3f386605	0.7203067
89	0x3d74892a	0.059701122
90	0x3f62ad9c	0.88546157
91	0xbdb6d9bd	-0.08928249
92	0xbf1b613b	-0.60695237
93	0xbf83fdd3	-1.0311836
94	0x3ea99fe2	0.33129793
95	0x3f2db5d6	0.67855585
96	0xbda845d5	-0.082164444
97	0x3f845888	1.0339518
98	0x3f553246	0.83279836
99	0x3ee8c243	0.4546071
100	0xbeff7107	-0.4989092
101	0x3e184872	0.14871386
102	0x3f60adba	0.87765086
103	0x3f3cd88d	0.7376793
104	0x3d42b8b3	0.047539424
105	0x3eb04aae	0.34431976
106	0xbf07ff0b	-0.5312354
107	0x3fb6221c	1.4229159
108	0x3eeb1f22	0.4592219
109	0x3e94ec4c	0.2908653
110	0x3f13ee33	0.5778534
111	0x3d875d36	0.066095755
112	0x3ed644c1	0.4184933
113	0x3f7ef8e7	0.99598545
114	0xbf68658a	-0.90779936
115	0xbe76ce05	-0.24102028
116	0x3ecb9b98	0.39767146
117	0x3f258022	0.6464864
118	0x3d456c9e	0.04819929
119	0x3eed7669	0.46379402
120	0x3f30b336	0.69023454
121	0xb9b2d042	-0.0003410597
122	0x3e98103b	0.29699883
123	0xbf27c947	-0.655415
124	0x3db9f089	0.090790816
125	0xbe47bd56	-0.1950582
126	0x3f1e5553	0.61848944
127	0xbefb5673	-0.49089393
128	0xbecbf49b	-0.39835057
129	0xbe0f97a0	-0.14022684
130	0x3f19decb	0.6010558
131	0x3e1d5692	0.15365055
132	0xbf577000	-0.84155273
133	0xbf87d9ad	-1.0613304
134	0x3e153b9b	0.14573519
135	0x3ee5483d	0.44781676
136	0xbe468cda	-0.19389668
137	0xbeaab911	-0.3334432
138	0xbe8bbdf9	-0.27293375
139	0xbe4e75f3	-0.20162182
140	0xbf651304	-0.8948214
141	0x3cada962	0.021198932
142	0x3f9e97c4	1.2390065
143	0xbe31bffd	-0.17358394
144	0xbf3dfba0	-0.74212074
145	0xbf9e7637	-1.2379826
146	0x3f529ae4	0.82267594
147	0xbd092110	-0.033478796
148	0xbf2e45a6	-0.68075025
149	0x3df31b38	0.11870426
150	0x3eede9ac	0.4646734
151	0xbde9ea97	-0.114216976
152	0x3f2de1a3	0.6792242
153	0x3e0227eb	0.1271054
154	0xbf236dcf	-0.6383943
155	0x3f6002c9	0.8750425
156	0x3fb159d7	1.3855542
157	0x3e16bc8d	0.14720364
158	0x3d81500f	0.06314098
159	0x3eaff2df	0.34364983
160	0x3eb8389f	0.35980698
161	0xbe9ed8fe	-0.31024927
162	0x3f3a9706	0.72886693
163	0x3c220aca	0.009890268
164	0xbf3a0e21	-0.7267781
165	0xbf2da7e4	-0.67834306
166	0x3f715d8b	0.9428336
167	0x3e8a42e0	0.27004147
168	0x3f241290	0.64090824
169	0xbf413cf7	-0.7548365
170	0xbec9245e	-0.39285558
171	0x3f796f8b	0.97435826
172	0xbebc42e2	-0.36769778
173	0xbe5ccf0e	-0.2156336
174	0x3df2a8c0	0.11848593
175	0xbf7166cf	-0.942975
176	0x3deb3809	0.11485297
177	0xbd99894a	-0.07496889
178	0x3f082326	0.5317863
179	0xbf9ffd17	-1.2499112
180	0x3f1f6a6f	0.6227178
181	0xbe3cf230	-0.18451762
182	0x3ea4d31b	0.3219231
183	0x3f271608	0.6526799
184	0xbf0344a0	-0.5127659
185	0xbf21c9e4	-0.63198686
186	0xbfb8aa7c	-1.4427028
187	0xbd7e7aad	-0.06212871
188	0xbe31f2f5	-0.17377837
189	0x3f4f4c14	0.8097546
190	0xbe7ac12c	-0.24487752
191	0x3d118519	0.035527322
192	0x3e286d4f	0.16447948
193	0x3f011ab4	0.5043137
194	0x3f07becb	0.530255
195	0xbe0c939b	-0.13728182
196	0xbee5b1b5	-0.44862142
197	0xbfed6f2c	-1.8549552
198	0xbeb6145c	-0.35562408
199	0xbf7e75fc	-0.9939878
200	0x3ea2efaa	0.31823474
201	0x3f6b4219	0.9189773
202	0x3d2d41d0	0.04229909
203	0x3e46be30	0.19408488
204	0x3e31e9a8	0.17374289
205	0xbef32e4e	-0.47496265
206	0xbe2d0a18	-0.16898382
207	0x3f841ea0	1.0321846
208	0x3f0f76e0	0.56040764
209	0xbf80d378	-1.0064535
210	0xbe125579	-0.14290418
211	0x3e8fbe43	0.28074846
212	0x3e959992	0.29218727
213	0xbe50ae45	-0.20378979
214	0xbf409fd3	-0.7524387
215	0xbf98d55d	-1.1940113
216	0x3ecb10b5	0.39661184
217	0xbe9a0834	-0.30084383
218	0x3f6b2e0e	0.9186715
219	0xbea86d6a	-0.32895976
220	0xbcb3633f	-0.02189791
221	0x3edeab85	0.43490234
222	0x3dc4cd64	0.09609488
223	0xbe013407	-0.12617503
224	0xbe12ec0b	-0.14347856
225	0xbf154c81	-0.5831986
226	0xbc47c43c	-0.012192782
227	0xbf700b8a	-0.9376761
228	0x3f51f9c3	0.8202173
229	0xbf865ea3	-1.0497631
230	0x3f9ddac8	1.2332392
231	0x3f29f788	0.6639333
232	0x3f018b38	0.50603056
233	0xbef41a8c	-0.47676504
234	0x3f3dfabd	0.7421072
235	0xbf7fe65f	-0.99960893
236	0xbf2fd62b	-0.6868617
237	0xbead2540	-0.33817482
238	0xbdc7eb6a	-0.097616985
239	0xbf07557e	-0.52864826
240	0x3f49ef7b	0.78881043
241	0x3dbc4bef	0.09194171
242	0xbf47cbb7	-0.7804522
243	0xbe9fe3de	-0.31228536
244	0xbe04d941	-0.12973501
245	0x3ea4fe6a	0.32225353
246	0x3de17366	0.11008339
247	0xbf2a1417	-0.66436905
248	0xbd328eb6	-0.04359313
249	0x3f045c77	0.5170359
250	0xbe4b3a13	-0.19846372
251	0xbec6b4ac	-0.38809717
252	0xbf5ac96f	-0.85463613
253	0xbe494ccb	-0.196582
254	0x3db6550f	0.089029424
255	0x3e257b33	0.16160278

network_body._body_endoder.seq_layers.0.bias f4 [128]
0	0xbcb0deaf	-0.021590559
1	0xbdbf4d18	-0.09340876
2	0x3cc37387	0.023858799
3	0x3c37794c	0.011198353
4	0x3c753c42	0.01496798
5	0x3eb7cf4e	0.35900348
6	0x3e0c378c	0.13693064
7	0x3d2bd275	0.041948754
8	0x3df06d4b	0.11739596
9	0x3e721885	0.23642166
10	0xbe088ec0	-0.13335705
11	0x3ba93aec	0.0051644947
12	0x3e02e39a	0.12782136
13	0xbc874449	-0.016512053
14	0xbd9ef60f	-0.07761776
15	0xbe1087d6	-0.14114317
16	0x36a4b247	4.908335e-06
17	0x3b81fcf7	0.0039669233
18	0x3ea14a14	0.3150183
19	0x3de3b65d	0.111187674
20	0x3d8502a7	0.064946465
21	0xbba3b7ea	-0.0049962895
22	0xb588202d	-1.0142154e-06
23	0x3eb60abd	0.35555068
24	0x3ea123f5	0.31472746
25	0xbe10edca	-0.1415321
26	0xbc16a4b2	-0.00919454
27	0x3e26d500	0.1629219
28	0xbc8a9135	-0.016914943
29	0xbd7d0ee1	-0.061781768
30	0xbde9a4cf	-0.11408388
31	0xbcb9ed5f	-0.022696195
32	0xbcc14465	-0.023592183
33	0xbd9e5b61	-0.07732273
34	0x3d0894b2	0.033344932
35	0xbdbc0069	-0.09179766
36	0xbd3e02fd	-0.04638957
37	0xbdafd5cd	-0.08585701
38	0xbbb08a94	-0.0053876135
39	0xbca4eed1	-0.020133408
40	0xbcb3ee20	-0.021964133
41	0x3e9ce5bd	0.30644026
42	0xbd94b47e	-0.07260989
43	0xbd55636c	-0.05209677
44	0x3e3f889e	0.18704459
45	0x3e03054c	0.1279499
46	0xb9df97da	-0.00042647013
47	0x3e6a009c	0.22851795
48	0xbd674204	-0.05645944
49	0xbde8549b	-0.11344262
50	0xbd8e7f94	-0.06957927
51	0xbda87526	-0.08225469
52	0x3a65d6ac	0.00087676453
53	0x3ebc8a83	0.36824426
54	0x3d982434	0.0742878
55	0xbd1f2d1c	-0.03886138
56	0xbe0db4ab	-0.1383845
57	0x3abcd03b	0.0014405319
58	0x3d1e0c87	0.038586166
59	0x35a7f69e	1.2514245e-06
60	0xbdadd28a	-0.08487423
61	0x3e168de7	0.14702569
62	0x3dcaba20	0.09898782
63	0x3d4ad913	0.049523424
64	0x3b93828b	0.004501646
65	0xac275800	-2.3780977e-12
66	0xbd2a865d	-0.041632045
67	0x3ae7b515	0.0017677868
68	0x3e32dafb	0.17466347
69	0x3cf7dc3c	0.030256383
70	0x3c2d1b0b	0.01056553
71	0x36129396	2.1841602e-06
72	0x3b42ab4f	0.0029704159
73	0xbdfb127e	-0.122593865
74	0x3e5848f1	0.21121575
75	0x3a665c3f	0.00087875495
76	0xbd394e49	-0.045240674
77	0xbdace725	-0.08442525
78	0x3c908977	0.017643673
79	0x3d2c2a5c	0.042032585
80	0xbc11f1ce	-0.008907748
81	0x3d40e373	0.047091912
82	0x3ba282b4	0.0049594287
83	0x3e3ec9b7	0.18631636
84	0x3dd13b16	0.10216348
85	0xbde8e011	-0.11370862
86	0x3d9be76f	0.07612502
87	0xbcf48909	-0.0298505
88	0x3eae307f	0.34021375
89	0xae20c3af	-3.655359e-11
90	0xbd995577	-0.07487004
91	0x3da49c89	0.08037669
92	0x3ea22f4a	0.31676704
93	0xbc5b940f	-0.013401999
94	0xbd4d3d9c	-0.050107583
95	0x3e4c1115	0.19928391
96	0xbb31491d	-0.0027051636
97	0xbd2b85e4	-0.041875735
98	0xbd576e4d	-0.052595425
99	0xbd4f7125	-0.050645012
100	0x393843c0	0.00017572846
101	0xbbf6f14a	-0.007536088
102	0xb64dee77	-3.0686185e-06
103	0xba843541	-0.0010086672
104	0x3c9c8fe9	0.01911159
105	0xbd64d4c5	-0.055866975
106	0xbd28df79	-0.041228745
107	0x3e2b77b2	0.16744879
108	0x3eb2aa17	0.34895393
109	0xbc16abf4	-0.00919627
110	0x3b8a37af	0.004218064
111	0xbc2809c2	-0.010256233
112	0x3c4d1abd	0.012518582
113	0x3c84dc1f	0.016218243
114	0x3dbbe0fe	0.09173773
115	0x3c8e5a93	0.017377174
116	0x3cf0250a	0.029314537
117	0x3ddc4b38	0.10756534
118	0x3d4b5c3c	0.04964851
119	0x3e26f726	0.16305217
120	0xbd30287a	-0.04300735
121	0x3e8cd0b6	0.27502984
122	0xbc8da4fc	-0.017290585
123	0x3e84cd70	0.25937986
124	0x3b1cdd11	0.0023935477
125	0xbd332172	-0.043733068
126	0xb9388a94	-0.00017599232
127	0x3d3f8970	0.04676193

network_body._body_endoder.seq_layers.2.weight f4 [128, 128]
0	0x3cdfc86a	0.027317245
1	0x3e1e41d0	0.15454793
2	0xbdcb2cd9	-0.099206634
3	0xbd0dd9e2	-0.034631617
4	0x3da677de	0.081283316
5	0xbe728170	-0.23682189
6	0x3ce6e188	0.028183714
7	0x3db443e1	0.088020094
8	0xbe965d9f	-0.29368302
9	0x3e93794c	0.2880348
10	0xbdfc7539	-0.12327046
11	0x3ea8cac7	0.32967207
12	0xbe5ad682	-0.2137089
13	0x3d054570	0.032536924
14	0xbd4221c6	-0.04739549
15	0x3b2d0941	0.002640322
16	0x3dab078c	0.08351049
17	0xbc2a57d0	-0.010396913
18	0xbd3ed042	-0.04658533
19	0x3e082c8c	0.13298243
20	0xbd690da1	-0.056897763
21	0x3c825554	0.015909828
22	0xbd819ebf	-0.063291065
23	0xbeeb7698	-0.45988917
24	0xbe0ed5d0	-0.1394875
25	0x3dddd9dc	0.10832569
26	0x3e0760b2	0.1322048
27	0xbd0aa23e	-0.033846132
28	0x3d030c4a	0.03199414
29	0xbd8d42b9	-0.06897492
30	0x3dd86223	0.10565593
31	0xbb4113c5	-0.0029461246
32	0xbd706671	-0.058691446
33	0xbd4af7e5	-0.049552817
34	0xbe56c29c	-0.20972675
35	0xbe176a6c	-0.1478669
36	0xbddff0f9	-0.10934634
37	0xbceae9d7	-0.028675957
38	0x3d9f65c7	0.07783084
39	0xbddb24e1	-0.107003935
40	0x3ce30d40	0.027716279
41	0xbca2b23a	-0.019860376
42	0x3dcf4f5e	0.1012256
43	0x3d69c39b	0.05707131
44	0x3d891811	0.066940434
45	0x3d9bbb77	0.076041155
46	0xbce24f71	-0.027625771
47	0x3d36a340	0.04458928
48	0x3e2dbd4f	0.16966747
49	0x3d4562d2	0.048189946
50	0x3d1c00f0	0.03808683
51	0xbbbbf317	-0.0057357657
52	0xbe1ea0a8	-0.15490973
53	0xbd1c2552	-0.03812153
54	0x3d0ec853	0.034859013
55	0xbaeb83a8	-0.0017968314
56	0x3ce844dd	0.02835315
57	0x3e24b771	0.16085602
58	0xbda23290	-0.079198
59	0xbabd8630	-0.0014459547
60	0xbcbf6b3f	-0.023366569
61	0x3d3f13a6	0.046649598
62	0xbc4f66bf	-0.012658774
63	0xbe7a3533	-0.24434356
64	0x3daa4d5b	0.08315536
65	0x3e253ef7	0.161373
66	0x3d271436	0.04079076
67	0x3cdad77c	0.02671408
68	0x3c755a21	0.014975102
69	0xbe66656a	-0.22499624
70	0xbb9fbd52	-0.0048748637
71	0x3da72e95	0.08163182
72	0xbcfebd36	-0.031096082
73	0x3d7a7218	0.061143965
74	0x3e806876	0.25079697
75	0xbdcbadd8	-0.099452674
76	0xbd8d293b	-0.0689263
77	0xbd85252d	-0.06501231
78	0xbd61f54c	-0.055165574
79	0xbdb5c1ca	-0.08874853
80	0xbd8c5586	-0.0685225
81	0xbd2ffe97	-0.042967405
82	0xbd9f06f5	-0.07764999
83	0x3cf74413	0.030183828
84	0x3e014fbf	0.12628077
85	0x3d8225fc	0.06354901
86	0xbe0b8b98	-0.1362747
87	0xbe119c79	-0.14219846
88	0xbe3c7907	-0.18405543
89	0x3d3c8129	0.046021614
90	0x3e0516eb	0.12997024
91	0x3d95199f	0.072802775
92	0xbd8deec9	-0.0693031
93	0x3e01fccd	0.12694092
94	0xbd772be6	-0.0603446
95	0xbddc2720	-0.1074965
96	0x3c729fee	0.014808638
97	0xbded1a48	-0.115772784
98	0x3dae51a3	0.08511665
99	0x3dd01b83	0.101614974
100	0xbd8eeb38	-0.06978458
101	0x3d9901e2	0.07471062
102	0xbe18c3bc	-0.14918417
103	0xbe0e3ffc	-0.13891596
104	0x3e0b0445	0.13575847
105	0xbe256e92	-0.1615546
106	0x3e1e6b8c	0.15470713
107	0xbdc47df5	-0.09594337
108	0xbe6caeb8	-0.23113525
109	0x3d9154b0	0.07096231
110	0x3cac0370	0.020997733
111	0xbd4cf55a	-0.050038673
112	0x3d2a6785	0.04160263
113	0x3cfc9cc9	0.03083648
114	0x3e20a8b4	0.15689355
115	0xbd40b10e	-0.047043853
116	0xbc8b8a42	-0.0170337
117	0x3e28a9a9	0.1647097
118	0x3b8a6a23	0.0042240783
119	0xbe128ec7	-0.14312278
120	0x3c72da6e	0.0148225855
121	0xbe378913	-0.17923383
122	0xbc156123	-0.0091173975
123	0xbcb79a26	-0.02241237
124	0x3dc4d97e	0.09611796
125	0xbda825a3	-0.08210304
126	0x3d186a29	0.037210617
127	0x3dde17a5	0.108443536
128	0xbdaca06a	-0.08429034
129	0x3c45b93d	0.01206809
130	0xbcc75e8b	-0.024337074
131	0x3d02ca4c	0.031931207
132	0x3ce1d378	0.027566656
133	0xbe7c7ba2	-0.24656537
134	0x3d1cbfed	0.038268972
135	0xbcb7ed17	-0.02245192
136	0x3c33e767	0.010980464
137	0xbcb834c7	-0.022486104
138	0x3e0f4a6c	0.13993233
139	0x3db28559	0.0871684
140	0x3e4dfad9	0.20115222
141	0x3cf95d8b	0.030440113
142	0x3df00d03	0.11721232
143	0xbcba98e2	-0.022777978
144	0xbd2e1f93	-0.04251058
145	0x3be9240a	0.007114892
146	0xbc3c27e2	-0.011484118
147	0xbd3a8fa4	-0.045547143
148	0x3c47ff55	0.012206872
149	0xbd86ae15	-0.06576172
150	0xbd831d16	-0.06402032
151	0x3d47b1a5	0.0487534
152	0x3ba77ef0	0.0051115677
153	0x3d2b8079	0.041870568
154	0xbd631293	-0.055437636
155	0x3cc2b672	0.023768637
156	0x3bbe9ae5	0.0058168047
157	0xbdfc4793	-0.12318339
158	0x3db79f32	0.08965911
159	0xbe92eefd	-0.2869796
160	0x3dac55fc	0.08414838
161	0x3dbfa016	0.09356706
162	0xbc5f0473	-0.013611901
163	0xbcc85318	-0.024453685
164	0xbe2d4b6c	-0.16923302
165	0x3c5e8013	0.01358034
166	0x3d795bb6	0.060878478
167	0xbcd18211	-0.025574716
168	0xbe66e0b8	-0.22546661
169	0x3dd51fe7	0.104064755
170	0x3e0ee7a8	0.13955557
171	0xbe40573c	-0.18783277
172	0xbb46e228	-0.0030347202
173	0xbda7ca9a	-0.0819294
174	0xbd27b95d	-0.04094826
175	0x3d47c460	0.048771262
176	0xbcc2200e	-0.023696925
177	0x3cb52fca	0.022117514
178	0x3d3852cc	0.045000836
179	0xbdcc07bb	-0.09962412
180	0x3dda62fe	0.106634125
181	0x3c762b97	0.015025041
182	0xbc85f466	-0.01635189
183	0xbcc3b223	-0.023888653
184	0xbcea550b	-0.028605005
185	0x3dd6fc63	0.10497358
186	0x3c75fd5b	0.015014018
187	0xbd2b0b3f	-0.041758772
188	0xbde3df6f	-0.11126601
189	0xbc8e4fd6	-0.017372053
190	0x3d4ba4ef	0.04971784
191	0xbcb9a133	-0.022659874
192	0x3da3ae87	0.07992273
193	0xbbc9c726	-0.0061577735
194	0x3dbc5171	0.09195221
195	0xbb13362e	-0.0022462714
196	0xbd46d928	-0.04854694
197	0xbdbea475	-0.093087114
198	0x3df0282f	0.117264144
199	0x3c331da1	0.010932357
200	0xbd1b5ec7	-0.037932184
201	0xbd881af9	-0.066457696
202	0xbd8d2057	-0.06890934
203	0xbd2d6937	-0.04233667
204	0xbe5f71e2	-0.21820787
205	0x3b3a5510	0.002843205
206	0xbd8227fa	-0.06355281
207	0x3c4b5f5e	0.012412874
208	0x3e88d134	0.2672211
209	0x3d095771	0.033530656
210	0xbd5d011f	-0.053956147
211	0x3dbb560c	0.091472715
212	0x3d4e447b	0.050358277
213	0xbdadae35	-0.08480493
214	0xbb8569be	-0.0040714433
215	0x3de65308	0.11246306
216	0xbdae038f	-0.084967725
217	0x3d8b55ac	0.0680345
218	0x3dd99dd5	0.10625807
219	0xbdf19c75	-0.1179742
220	0x3d3b1ac4	0.045679823
221	0xbb5a98cb	-0.0033355232
222	0xbdc93f7b	-0.09826561
223	0xbd82b259	-0.06381673
224	0x3d26fecd	0.04077034
225	0xbe305e0f	-0.1722338
226	0x3d3c5e91	0.045988623
227	0xbe0323f3	-0.12806682
228	0xbdc0d019	-0.094146915
229	0xbe007da4	-0.12547928
230	0xbca7cd18	-0.020483539
231	0x3c900a08	0.017582908
232	0xbc9e4a44	-0.019322522
233	0xbba1a7d9	-0.004933339
234	0x3b08f776	0.0020899451
235	0xbadae099	-0.0016699015
236	0xbd0bc124	-0.03411974
237	0xbd159c90	-0.036526263
238	0xbddef32c	-0.10886225
239	0xbd31c16b	-0.04339735
240	0xbba80f38	-0.0051287673
241	0x3dcbb758	0.099470794
242	0x3d4b9732	0.049704738
243	0x3d1b967f	0.03798532
244	0xbbaf42fc	-0.0053485613
245	0x3d9c33ce	0.076270685
246	0x3e13f2e4	0.14448124
247	0x3dd7ca0c	0.10536584
248	0xbdfc13bd	-0.12308452
249	0xbcaf9c64	-0.021436878
250	0xbdbd83f7	-0.09253686
251	0xbda44400	-0.080207825
252	0xbdc3a1a4	-0.09552315
253	0xbd7f9e42	-0.062406786
254	0xbd9bf140	-0.07614374
255	0x3d1bbf89	0.03802446

network_body._body_endoder.seq_layers.2.bias f4 [128]
0	0xba9541c4	-0.0011387398
1	0xbc299b0b	-0.0103519065
2	0xbaa012e1	-0.0012212658
3	0xbc8c9b29	-0.01716383
4	0x3ccdb3fe	0.025110241
5	0xbc716c64	-0.014735315
6	0xba9f73fd	-0.0012165305
7	0xbc7d8973	-0.015474665
8	0x3c884e11	0.016638787
9	0xbccba828	-0.024860457
10	0xbc83a4f4	-0.016069867
11	0xbcc19fb8	-0.02363573
12	0xbc85d6cc	-0.016337775
13	0x3d83e746	0.06440596
14	0x3d1adc26	0.037807606
15	0xbc2fbae7	-0.010725713
16	0xbc3df272	-0.011593448
17	0xba1f41e3	-0.00060751865
18	0x3d25eacc	0.040507123
19	0x3d5f3ba0	0.054500222
20	0x3d98a0ec	0.074525684
21	0x3c1e17c3	0.00964922
22	0xbaf3c9a1	-0.0018599519
23	0xbd0141af	-0.03155678
24	0x3ca0b10a	0.019615669
25	0x3c665fa3	0.0140608875
26	0xbbad26ac	-0.005284151
27	0x3d4ba174	0.04971452
28	0x3be61f17	0.007022749
29	0x3c3c33de	0.0114869755
30	0x3be4e97c	0.0069858413
31	0xbaaad049	-0.0013032045
32	0xbc56e8ef	-0.013117059
33	0xbbe31ab0	-0.0069306716
34	0x3b4839c8	0.0030552018
35	0xbca9ec83	-0.02074266
36	0xbb86676a	-0.0041016834
37	0xbc84efbb	-0.016227594
38	0x3d4d2d56	0.050092064
39	0xbcad8017	-0.021179242
40	0x3c984147	0.018585814
41	0xbc2ba5ff	-0.010476588
42	0xbccf3dd2	-0.025298033
43	0x3ce62d0c	0.028097652
44	0x3d2a0aed	0.041514326
45	0x3d0f775d	0.035025943
46	0x3c82d355	0.015969912
47	0xbbb190c9	-0.005418871
48	0xbcd30f22	-0.025764052
49	0x3d014401	0.031558994
50	0x3dcce511	0.100046284
51	0x3cb159d9	0.021649288
52	0xbbf5c2d5	-0.0075000324
53	0x3c67fd68	0.014159538
54	0x3cc15be5	0.023603389
55	0xbd07f1b9	-0.03318951
56	0xbc83eafe	-0.016103264
57	0xbc10a108	-0.008827455
58	0x3cae073a	0.02124368
59	0x3badfd96	0.005309771
60	0xbc8d4a2a	-0.017247278
61	0x3a60b844	0.00085723796
62	0x3d0b4350	0.03399974
63	0xbcbbc26b	-0.022919854
64	0xbc974ab9	-0.018468248
65	0xbca2553f	-0.01981604
66	0xbc1fddb3	-0.009757447
67	0x3b53f406	0.0032341494
68	0xbd49e2d0	-0.04928857
69	0x3c6908ff	0.014223336
70	0xbce91673	-0.028453087
71	0xbc99e61c	-0.018786483
72	0x3ce9bd13	0.02853254
73	0x3e24300d	0.16033955
74	0xbcdd2af8	-0.026998028
75	0xbc68102d	-0.014164013
76	0x3db44ac0	0.0880332
77	0xbc6f40e7	-0.014602876
78	0x3c6b0160	0.01434359
79	0x3c9fe991	0.019520553
80	0xbabc68e0	-0.0014374517
81	0x3c383cbf	0.011244952
82	0xbc205206	-0.009785181
83	0x3c3e890f	0.011629357
84	0x3ccd4af5	0.025060156
85	0x3b5febfb	0.0034167755
86	0xbcdcbed3	-0.02694646
87	0xbbb180b2	-0.005416953
88	0x3c9b305c	0.018943958
89	0xbcbf930f	-0.023385553
90	0xbb9bce78	-0.0047548376
91	0x3cc1bbd3	0.023649132
92	0x3bdb2c15	0.0066886046
93	0xbba95560	-0.005167648
94	0xbcb41a25	-0.021985123
95	0xbc0d3423	-0.008618387
96	0x3c66058e	0.01403941
97	0xbccab23b	-0.02474319
98	0x3da8c22c	0.0824016
99	0x3adfc2db	0.0017071621
100	0xbab090df	-0.0013470909
101	0xbc4dd4ce	-0.012562944
102	0xbbb592e1	-0.005541191
103	0x3cadbe9d	0.021209056
104	0xbcaa9bc1	-0.020826222
105	0x3c81f4da	0.015863825
106	0xbc1bb34c	-0.009503197
107	0xbc3eddd4	-0.011649568
108	0xbc132f29	-0.008983412
109	0x3c5dfe0b	0.013549338
110	0xb9c1ffc7	-0.00037002398
111	0xbc7f282f	-0.015573545
112	0x3cc1d808	0.023662582
113	0xbbbd3dc5	-0.005775186
114	0x3c9c1528	0.019053057
115	0x3ce68761	0.028140726
116	0x3a7809b1	0.00094618934
117	0x3cfce8c6	0.030872714
118	0x3b958b91	0.0045637568
119	0xbc45a2ae	-0.012062712
120	0x3bd1857a	0.0063940855
121	0x3d070c68	0.032970816
122	0x3bc63167	0.0060483697
123	0x3c99e2e1	0.018784942
124	0xbcc07d47	-0.023497237
125	0x3aea5e4a	0.0017880884
126	0x3cbe71ac	0.023247562
127	0xbbb6fb98	-0.0055841915

action_model._discrete_distribution.branches.0.weight f4 [3, 128]
0	0xbcd7dbdb	-0.026349952
1	0xbd0eafb3	-0.03483553
2	0xbd10dea3	-0.035368573
3	0xbc242f49	-0.010021039
4	0x3d45bdf6	0.048276864
5	0x3da37467	0.07981186
6	0xbaa5a22f	-0.0012636835
7	0xbcb5d19e	-0.02219468
8	0x3b3262e7	0.0027219595
9	0x3d1c03c1	0.038089518
10	0xbccacf3a	-0.024757016
11	0xbc083309	-0.008312949
12	0xbe1752e2	-0.14777711
13	0xba6d6e1b	-0.00090572395
14	0x3ca479aa	0.020077545
15	0x3c2bf1cf	0.010494663
16	0xbc31776c	-0.010831695
17	0x3bf06d77	0.007337268
18	0xbd3c8e9a	-0.046034433
19	0xbbe3a632	-0.0069473023
20	0xbd1a74b6	-0.03770896
21	0x3c1ff836	0.009763768
22	0xbc8bd240	-0.017068028
23	0xbbf59611	-0.007494696
24	0x3cae443f	0.021272777
25	0x3bb8dac7	0.0056413147
26	0xbbb9e6d0	-0.005673267
27	0xbaf2e590	-0.001853155
28	0x3b50a6d0	0.003183771
29	0xbc8b325c	-0.016991787
30	0xbbad2196	-0.005283545
31	0xbcde3b3c	-0.027127855
32	0x3b2dde4c	0.0026530204
33	0x3b967f24	0.004592793
34	0x3c92bd03	0.017912393
35	0xbb471a2a	-0.0030380585
36	0xbd2502a1	-0.04028571
37	0xbc0a12c4	-0.008427326
38	0xbad54e72	-0.0016273989
39	0xbc99751a	-0.018732596
40	0x3b8b9a75	0.004260356
41	0xbbfd8756	-0.0077370806
42	0xbc2bb712	-0.010480659
43	0x3b980fbc	0.0046405476
44	0xbb9e3fc6	-0.0048293797
45	0x3b4fe999	0.0031724928
46	0xbb7a3161	-0.0038176405
47	0xbc16d027	-0.009204901
48	0xbb84be3b	-0.0040509976
49	0x3bb7f6df	0.005614146
50	0xbc4089f7	-0.011751643
51	0xbb7bf66e	-0.0038446444
52	0x3cd10603	0.025515562
53	0x3b38e0de	0.0028210203
54	0xbb734148	-0.0037117768
55	0xbb5f995b	-0.0034118507
56	0xbc8a2d8d	-0.016867423
57	0xbcbffbc5	-0.023435483
58	0x3bce29c3	0.0062915995
59	0x3a9aced0	0.0011810903
60	0xbbe4df01	-0.006984592
61	0x3b87d261	0.004144952
62	0x3b501665	0.003175163
63	0x3ccda9c3	0.025105363
64	0x3d3d3927	0.046197083
65	0xbc0652b8	-0.008198433
66	0xbbcc7ede	-0.0062407097
67	0x3b922c48	0.004460845
68	0xbc90850a	-0.017641563
69	0x3ba55161	0.0050451015
70	0xbc370a51	-0.011171893
71	0x3b21dfce	0.0024700048
72	0x3c3d49e4	0.011553261
73	0x3d06814c	0.03283815
74	0xbb6a73de	-0.0035774629
75	0x3d3f9702	0.04677487
76	0xbbea7e08	-0.0071561374
77	0xbccbfb10	-0.02489999
78	0xbc0514c5	-0.008122628
79	0xbc7f3924	-0.015577588
80	0x3bf4f0b0	0.0074749812
81	0xb9ed55b5	-0.0004526802
82	0xbc12d1a3	-0.008961114
83	0xbbdfe989	-0.0068332595
84	0x3cc77409	0.024347322
85	0xbb81b2a8	-0.003958065
86	0xbb7b0b52	-0.0038306308
87	0x3b7812b3	0.0037852942
88	0x3b582bc8	0.003298508
89	0x3b6a0e81	0.0035714211
90	0x3c30741e	0.010769872
91	0x3d777567	0.060414698
92	0x3bd67130	0.0065442547
93	0x3a29c673	0.00064764096
94	0xbc486bdc	-0.012232747
95	0xbd1a82a5	-0.03772225
96	0xbb322de9	-0.002718801
97	0xbbcd592b	-0.006266733
98	0xbc54e7a9	-0.012994685
99	0xbd961b39	-0.07329411
100	0x3b789d06	0.003793539
101	0xbb31c66d	-0.0027126328
102	0xbccd129c	-0.025033288
103	0x3d163cd3	0.0366791
104	0x3d4845cf	0.0488947
105	0x3d27a2e2	0.04092682
106	0x3ba0c2c4	0.0049060304
107	0xbce459a1	-0.02787477
108	0x3bbca87f	0.005757391
109	0xbca6f8d9	-0.020382332
110	0xbd1b5de6	-0.037931345
111	0xbccb4880	-0.024814844
112	0x39d99756	0.0004150222
113	0xbcd8a96d	-0.026447976
114	0x3bf6fa67	0.0075371745
115	0x3d5a4a8f	0.05329376
116	0x3a93b9af	0.0011270548
117	0x3be69380	0.0070366263
118	0xbb08857b	-0.0020831514
119	0xb99afac3	-0.0002956
120	0x3b1ce8a3	0.0023942373
121	0xb894bf37	-7.0928065e-05
122	0xbba9810d	-0.0051728548
123	0x3d0f766a	0.035025038
124	0x3e2ce048	0.16882432
125	0xbb2a3956	-0.0025974116
126	0x3c2a4710	0.010392919
127	0xbd602527	-0.05472293
128	0xbb7abed0	-0.0038260706
129	0x3d61d800	0.055137634
130	0xbd0305ca	-0.031987943
131	0xbc7448a2	-0.014909895
132	0x3cf5fe29	0.03002842
133	0x3c1abfba	0.009445125
134	0xbbe59170	-0.007005863
135	0x3bc706a1	0.0060737883
136	0xbc2254fc	-0.009907957
137	0xbcf10f75	-0.029426316
138	0x3ccd07d0	0.02502814
139	0x3b8bb466	0.0042634485
140	0x3e23d91b	0.16000788
141	0x3cfb8168	0.030701354
142	0x3cf9d935	0.03049908
143	0x3d352f02	0.044234283
144	0xbca8228b	-0.020524284
145	0xbb8687e8	-0.0041055568
146	0x3e0d54e2	0.13801911
147	0xbca78e72	-0.020453665
148	0xbdc5d00e	-0.09658824
149	0xbc0d0edc	-0.0086095
150	0x3d22f97f	0.03978872
151	0x3d72a05d	0.059234966
152	0x3d40bfe4	0.047058
153	0x3d2ee4f4	0.042698815
154	0xbbeaa2d1	-0.0071605225
155	0x3d0e7689	0.034781013
156	0xbc75ca51	-0.015001849
157	0x3d979412	0.07401289
158	0x3d2c7f09	0.042113338
159	0xbc46682e	-0.012109799
160	0x38888b5e	6.5109445e-05
161	0xbc2a69ca	-0.010401199
162	0x3d20ec31	0.03928775
163	0x3b587816	0.0033030561
164	0x3ca9358d	0.020655418
165	0xbc1d2b50	-0.009592846
166	0xbce49d98	-0.027907178
167	0x3ccb115f	0.024788557
168	0x3d061903	0.032738697
169	0xbc396054	-0.01131447
170	0x3c14c380	0.009079814
171	0x3cd6dd70	0.026228637
172	0x3d0ec058	0.034851402
173	0xbc2dac4f	-0.010600164
174	0xbc628a1a	-0.013826871
175	0x3b23004b	0.0024872
176	0xbbab9ffb	-0.005237577
177	0x3db390b3	0.087678336
178	0xbd582225	-0.052766938
179	0x3d260fd3	0.040542435
180	0xbc2649f3	-0.010149467
181	0xbbd65ebb	-0.0065420545
182	0xbccbae16	-0.024863284
183	0x39ea3ad9	0.00044675803
184	0x3d63788d	0.055534888
185	0xbc85d49d	-0.016336733
186	0x3ced083b	0.028934589
187	0xbcaef836	-0.02135859
188	0xbce21d7a	-0.027601946
189	0xbc424eae	-0.011859579
190	0x3cee8725	0.029117176
191	0xbcb775c9	-0.022395032
192	0xbe12efb5	-0.14349253
193	0xbc2398f6	-0.009985199
194	0xbc365c15	-0.0111303525
195	0xbc0f7f3e	-0.008758364
196	0x3e3c09ec	0.1836316
197	0x3c4da16a	0.012550691
198	0x3c9e5424	0.01932723
199	0x3bbf4c4c	0.0058379527
200	0xbc3820ec	-0.011238318
201	0xbe33e80b	-0.17568986
202	0xbaa2bb52	-0.0012415445
203	0xbd40e5eb	-0.047094267
204	0xbd57914d	-0.052628804
205	0xbcaed8f2	-0.021343682
206	0xbc56c508	-0.013108499
207	0xbd2e0074	-0.0424809
208	0x3cbbe43b	0.022935977
209	0xbbe53407	-0.0069947275
210	0xbb8338ea	-0.0040045874
211	0x3d895a71	0.067067035
212	0x3d8c35d1	0.06846202
213	0xbb5d85da	-0.0033801706
214	0x3b1a5161	0.002354704
215	0xbac4b6fe	-0.0015008149
216	0x3d0d863c	0.034551844
217	0x3d4de322	0.05026544
218	0xbb08854f	-0.0020831411
219	0x3d86584f	0.06559812
220	0xbbeac004	-0.0071640033
221	0x3b766d6c	0.0037601842
222	0x3bbcfe43	0.005767615
223	0x3c098370	0.008393154
224	0xbc5d9f39	-0.013526731
225	0xbbbfbeb9	-0.0058515933
226	0xbd3faad4	-0.046793774
227	0x3d39f41b	0.045398813
228	0xbc3bfa19	-0.011473202
229	0xbba0da59	-0.0049088416
230	0x3d2bd689	0.041952644
231	0x3d8b95db	0.06815692
232	0xbe924185	-0.28565612
233	0x3ce1c832	0.02756128
234	0x3bb82d74	0.005620653
235	0x3b9ae39f	0.0047268416
236	0xbb129a0e	-0.0022369656
237	0x3d3c1fd1	0.04592878
238	0xbd053b0f	-0.032527026
239	0x3da31160	0.079622984
240	0xbd9d6e30	-0.07687032
241	0x3bf3ec8f	0.0074439715
242	0x3c6f2c20	0.014597923
243	0x3d8800f7	0.06640809
244	0xbc33ff8d	-0.010986221
245	0x3de36586	0.111033484
246	0xbc8c6c63	-0.017141527
247	0x3b866e4f	0.0041025053
248	0x3d622f37	0.05522081
249	0xbc636031	-0.013877914
250	0x3d844e49	0.06460244
251	0x3d2a198a	0.041528262
252	0xbe9d7e7d	-0.30760565
253	0xbc707d32	-0.014678286
254	0x3cd73e62	0.026274864
255	0x3debb8b3	0.11509838

action_model._discrete_distribution.branches.0.bias f4 [3]
0	0x3b5b5e6a	0.0033473023
1	0x3aa2929a	0.001240331
2	0xbc61bbab	-0.013777654

action_model._discrete_distribution.branches.1.weight f4 [2, 128]
0	0xbbc5fdc3	-0.0060422136
1	0x3b33ec83	0.0027454204
2	0xbc2e9448	-0.01065547
3	0xbac21ca7	-0.0014809564
4	0x3cbc3c6a	0.022978026
5	0xbd35c94e	-0.044381432
6	0xba315cf4	-0.0006765865
7	0x3b330003	0.002731324
8	0xbbedb343	-0.0072540357
9	0xbd0f534a	-0.03499154
10	0x3be8e95d	0.007107897
11	0x3b980cfc	0.0046402197
12	0x3d8d3c30	0.068962455
13	0xbc3a3e9a	-0.011367464
14	0xbbf7dbf5	-0.0075640627
15	0x3ca96a1c	0.02068048
16	0xbac846d7	-0.0015279901
17	0xbc6d806f	-0.014495953
18	0x3cac8860	0.021061122
19	0xbbff3e34	-0.0077893976
20	0xbcf89796	-0.03034572
21	0x3b98d9e5	0.004664647
22	0x3c13dd9d	0.009025005
23	0x3c8dee53	0.017325556
24	0xbb32d737	-0.0027288923
25	0x3b9c6f07	0.0047739777
26	0xbaac5580	-0.001314804
27	0x3c1a505f	0.009418576
28	0x3ae667e3	0.0017578568
29	0xbc9d3570	-0.01919052
30	0x3bcc60d3	0.0062371283
31	0xbb8d3cdc	-0.0043102335
32	0x3c3d052b	0.011536877
33	0xbb6b2f5e	-0.0035886387
34	0xbc1725de	-0.009225337
35	0x3c510346	0.012757128
36	0x3c68bf05	0.014205699
37	0xbba2404d	-0.004951513
38	0xbc374e2c	-0.011188071
39	0x3c8ab3f4	0.016931511
40	0xbc10049c	-0.008790161
41	0x3c135558	0.0089925155
42	0x3c2b1492	0.010441916
43	0x3c1ef930	0.009702966
44	0xbc1f7bc9	-0.0097341025
45	0xbbb16929	-0.0054141474
46	0xbc05f4da	-0.008176053
47	0x3c0d2181	0.008613945
48	0xba3c24e5	-0.00071771286
49	0x3d0a10aa	0.0337073
50	0xbcd0004f	-0.025390772
51	0x3bc093bf	0.0058769877
52	0x3ab17135	0.0013537767
53	0xbc4b717a	-0.012417192
54	0xbb4d0fa4	-0.003128984
55	0x3c42d644	0.011891905
56	0x3d1fe714	0.039038733
57	0xbc0f9466	-0.008763408
58	0x3b3e2d92	0.0029018861
59	0x3b711d58	0.0036791172
60	0x3b69d8e0	0.0035682246
61	0xbc21afc3	-0.009868565
62	0xbc142901	-0.009042979
63	0x3b6b3968	0.003589237
64	0xbc07c65b	-0.008287038
65	0xba1406f1	-0.00056467863
66	0xbaff8bc8	-0.0019496614
67	0xba99bf9e	-0.001173008
68	0x3d7d10e0	0.06178367
69	0x3a757ae3	0.000936432
70	0x3c84eab6	0.0162252
71	0x3c1ec797	0.009691141
72	0xbb458d6d	-0.003014411
73	0xbc1e3030	-0.0096550435
74	0x3bb43a13	0.005500087
75	0x3bb8095d	0.0056163506
76	0xbcd486e1	-0.025943222
77	0x3c4131ca	0.011791656
78	0x3b8e4e62	0.00434284
79	0xbbe7c111	-0.007072576
80	0x3cfc8fd4	0.030830301
81	0x3c7d0ae3	0.01544449
82	0xbb8d4e7a	-0.0043123337
83	0x3d61f1d1	0.055162255
84	0x3cdb361b	0.026759198
85	0x3c4b77a0	0.012418658
86	0x3ba560fa	0.005046961
87	0x3c18b246	0.009319847
88	0x3ab7714e	0.001399556
89	0x3d23b575	0.039967973
90	0xb9ca4958	-0.00038583088
91	0x3d7c972d	0.06166761
92	0xba7f2b9b	-0.0009733976
93	0x3a901219	0.0010991722
94	0x3c2fecf6	0.010737648
95	0xbba19131	-0.0049306382
96	0xba8a2bf0	-0.0010541659
97	0xbbe01b6c	-0.0068392064
98	0xbcf836b1	-0.030299516
99	0xbb1aebe5	-0.002363914
100	0x3bf30110	0.007415898
101	0x3b725e8f	0.003698263
102	0x3ca46e3e	0.020072099
103	0x3cb048d6	0.021519106
104	0xbd6b3db5	-0.057431895
105	0x3b89f22e	0.0042097783
106	0x3b54d006	0.0032472624
107	0x3c2a577f	0.010396837
108	0xbbe779a1	-0.00706406
109	0x3cb4685f	0.022022424
110	0xbce1232e	-0.027482595
111	0x3d62ec89	0.05540136
112	0xbb8b09b3	-0.0042430996
113	0x3c1421a9	0.009041228
114	0x3bdf92f1	0.0068229367
115	0x3c752f4e	0.014964892
116	0xb9f91a18	-0.00047512422
117	0x3c6149e3	0.013750526
118	0x3b65953e	0.0035031582
119	0x3c68bbb6	0.01420491
120	0x3cc418c3	0.023937589
121	0xbc151ff2	-0.009101855
122	0x3d596031	0.05307025
123	0x3c0e893d	0.008699712
124	0xbd975242	-0.07388736
125	0x3c14c8c6	0.009081071
126	0x3cdf0d89	0.027228134
127	0xbd1a06eb	-0.037604254
128	0x3c168eb1	0.009189294
129	0xbc1b5c73	-0.009482491
130	0x3bd0d7e7	0.006373394
131	0x3ad0524a	0.0015893665
132	0xbd2d1633	-0.0422575
133	0x3d47c8d5	0.048775513
134	0x3b49ce38	0.0030793082
135	0x3c2823fc	0.010262486
136	0x3b7ab158	0.0038252678
137	0x3cedfc7c	0.029051058
138	0xb7950c13	-1.7767807e-05
139	0xbb240ec8	-0.0025033224
140	0xbd847cbb	-0.06469103
141	0xb9fba193	-0.00047994833
142	0xbba1bdd3	-0.004935959
143	0xbc5f197e	-0.013616918
144	0xbb5effb6	-0.0034026927
145	0xbbc96969	-0.006146599
146	0xbcfa5bf0	-0.030561417
147	0x3c1a6f7c	0.009425994
148	0x3d303dd5	0.043027718
149	0x39936113	0.0002811035
150	0xbbeac888	-0.0071650185
151	0xbcffc3e5	-0.03122134
152	0xbc176bf1	-0.009242044
153	0xbbafad5c	-0.005361242
154	0x3a8781e2	0.0010338391
155	0x3c3c1a70	0.011480913
156	0xbb844ac0	-0.004037231
157	0x3c83da3c	0.016095273
158	0xbcaa5cf1	-0.020796271
159	0x3c130798	0.008973978
160	0xbb291dbe	-0.0025805081
161	0xbb440ffd	-0.0029916756
162	0xb98796d5	-0.00025861585
163	0x3c1e0ba7	0.009646333
164	0xbcb07edd	-0.021544868
165	0x3a6048ee	0.0008555789
166	0x3cb05343	0.021524077
167	0xbce414ae	-0.027841892
168	0xbc5453a7	-0.012959397
169	0xbbe92f38	-0.0071162246
170	0xbc1b7a9c	-0.009489682
171	0x3c3f7262	0.011684986
172	0x3c4cb2b2	0.012493776
173	0x3af28e4c	0.0018505543
174	0xba148193	-0.000566506
175	0xbb5e44f1	-0.0033915604
176	0x3b50e35f	0.0031873805
177	0xbd03e5d7	-0.032201614
178	0x3d1861d2	0.037202664
179	0xbb7976df	-0.0038065237
180	0x3c6a21da	0.014290297
181	0x3ab01a39	0.0013435549
182	0x3bce3225	0.006292599
183	0x3b65440d	0.0034983188
184	0xbcd0189a	-0.025402356
185	0xba93f631	-0.0011288581
186	0xbbe71bfa	-0.0070528956
187	0x3bfad99f	0.007655337
188	0x3a356586	0.000691973
189	0xbbfc8f44	-0.0077075083
190	0xbc104830	-0.008806273
191	0xbbc72ebf	-0.0060785706
192	0x3c711649	0.014714786
193	0xbb49ad99	-0.0030773638
194	0xbb8ed847	-0.0043592784
195	0xbae662b1	-0.001757702
196	0xbd5aa37c	-0.053378567
197	0xbb27f729	-0.0025629497
198	0xbb6edb57	-0.0036446655
199	0x3b3a55f6	0.0028432584
200	0x3bca3483	0.0061708107
201	0xbb957a77	-0.004561718
202	0xbbda40e5	-0.006660568
203	0x3cd7db23	0.02634961
204	0x3d1d901d	0.038467515
205	0xbc5460d5	-0.01296254
206	0x3a6b5e5f	0.0008978601
207	0x3bccb68f	0.0062473486
208	0xbcbbd28e	-0.022927549
209	0xbb40b31c	-0.0029403633
210	0xbaf3b0f7	-0.0018592168
211	0xbd31ac07	-0.04337695
212	0xbc48f782	-0.012266042
213	0x3c484d5b	0.012225474
214	0x3a5394d4	0.00080711883
215	0xbbe2662c	-0.0069091525
216	0xbc877402	-0.016534809
217	0xbcdc01a6	-0.026856255
218	0xbae6da99	-0.0017612755
219	0xbd6ca486	-0.05777409
220	0xba046cf1	-0.0005051634
221	0x3b1f4f1c	0.0024308627
222	0x3aae31d6	0.0013289999
223	0x3ccada8f	0.02476242
224	0xba2832aa	-0.0006416241
225	0xbc286f2d	-0.010280413
226	0x3d045f48	0.03231743
227	0xbb9527cf	-0.0045518647
228	0xbcf52db8	-0.029929027
229	0xbc5cbdf1	-0.01347302
230	0xbd0b0f9d	-0.033950437
231	0xbd371d30	-0.04470557
232	0x3ceb0304	0.028687961
233	0xbb977b7d	-0.0046228752
234	0xbae2719b	-0.0017276289
235	0x3c6384c1	0.0138866315
236	0x3b0ea50c	0.0021765856
237	0xbd024424	-0.031803265
238	0x3c3feb09	0.011713752
239	0xbd4b734c	-0.049670503
240	0xbabcf8a3	-0.0014417361
241	0xbc24b016	-0.010051748
242	0x3bd2f7ea	0.006438245
243	0xbd32c6b9	-0.043646548
244	0xbb74d6d7	-0.00373595
245	0xbc1db30f	-0.00962521
246	0x3b923ce7	0.0044628265
247	0xbc98fa54	-0.018674053
248	0xbc331efb	-0.010932679
249	0x3bb44b0d	0.005502111
250	0xbd80d177	-0.06289952
251	0xbb3449da	-0.002750984
252	0x3d8b8b8d	0.068137266
253	0x39b1c301	0.0003390536
254	0xbd12015f	-0.03564584
255	0x3c3b7a73	0.011442768

action_model._discrete_distribution.branches.1.bias f4 [2]
0	0xb9e2a9b1	-0.0004323251
1	0x39e2e289	0.0004327486

q1_network.network_body._body_endoder.seq_layers.0.weight f4 [128, 3]
0	0xbc67985e	-0.014135448
1	0xbf1fa769	-0.6236482
2	0xbddc98b9	-0.10771317
3	0xbead5002	-0.33850104
4	0xbf192e0c	-0.59835887
5	0x3d003fc6	0.03131082
6	0xbf286330	-0.6577635
7	0x3e2b197f	0.16708945
8	0xbf0f8883	-0.56067675
9	0xbf353105	-0.7077792
10	0xbe20a61d	-0.15688367
11	0x3f3a72c3	0.7283136
12	0xbdd458ad	-0.10368476
13	0x3bf4e590	0.007473655
14	0xbe294de1	-0.16533615
15	0x3ecc9659	0.39958456
16	0xbe83b763	-0.2572585
17	0x3eb57b73	0.35445747
18	0x3e8617f9	0.26190165
19	0xbee09d22	-0.43869883
20	0x3e9345b4	0.28764117
21	0xbfeae6e2	-1.835171
22	0x3ea9364f	0.33049247
23	0xbf041f93	-0.5161068
24	0xbf4846a7	-0.78232807
25	0xbf62b8bb	-0.88563126
26	0x3f13bf9e	0.5771426
27	0x3ebb6647	0.3660147
28	0xbdfe62b6	-0.12421171
29	0x3f0b0b39	0.54314
30	0x3e3d727c	0.18500704
31	0xbedfe53b	-0.43729576
32	0x3e051220	0.12995195
33	0xbefcf438	-0.49405074
34	0x3e1fe7d1	0.15615775
35	0xbf0537d9	-0.5203834
36	0x3d9352f2	0.07193555
37	0x3f0a3d10	0.53999424
38	0xbe2dc541	-0.16969778
39	0xbf2004b1	-0.6250716
40	0xbf9aa3f7	-1.2081288
41	0x3e87abf2	0.2649837
42	0xbf7f8b8c	-0.99822307
43	0xbee070bf	-0.43836018
44	0x3ec6d708	0.3883593
45	0x3efc0749	0.49224308
46	0x3f09ce74	0.5383065
47	0xbee052b8	-0.4381311
48	0xbee1228b	-0.43971667
49	0xbefd901a	-0.49524003
50	0x3f2e0849	0.6798139
51	0x3fd262b8	1.6436377
52	0xbf8f4f26	-1.1196029
53	0x3c8f3615	0.017481843
54	0xbf0e478c	-0.5557792
55	0x3e7da7b0	0.24770999
56	0x3f8032a2	1.0015452
57	0xbf04c365	-0.5186065
58	0xbd9aee2b	-0.07564958
59	0xbe32a937	-0.17447363
60	0x3db9e1fa	0.09076305
61	0x3efd4972	0.49470097
62	0x3f26fda2	0.6523076
63	0xb9b316e0	-0.00034158584
64	0x3e275dcc	0.16344374
65	0x3eafb985	0.34321228
66	0x3f0f6db1	0.5602675
67	0x3ec25b8b	0.37960467
68	0x3effbd1b	0.49948964
69	0x3f1b33a3	0.60625666
70	0x3f998e9d	1.1996647
71	0xbf33459b	-0.70028085
72	0x3e40d574	0.18831426
73	0x3f918341	1.136818
74	0x3f90ced2	1.1313117
75	0xbd372cee	-0.044720583
76	0x3e057c3a	0.1303567
77	0x3f116a8c	0.568032
78	0x3f14fcba	0.5819813
79	0x3edfab94	0.4368559
80	0xbe5bb3e2	-0.21455339
81	0xbe700cd5	-0.23442395
82	0x3e97ff70	0.2968707
83	0xbf9b3652	-1.2125952
84	0xbdd99d38	-0.1062569
85	0x3e547ac1	0.20749952
86	0x3dd90b1d	0.10597823
87	0xbf185d0d	-0.59516984
88	0xbef14776	-0.47124833
89	0xbe2765f0	-0.1634748
90	0xbe89c7de	-0.269103
91	0xbf62c949	-0.88588387
92	0x3f18337b	0.5945355
93	0xbeab42c0	-0.33449364
94	0x3d686792	0.056739397
95	0xbf0fd02f	-0.5617704
96	0xbf265b75	-0.649833
97	0x3ea2705c	0.31726348
98	0x3f3ecabb	0.7452809
99	0x3ce2b818	0.027675673
100	0x3eb38b80	0.35067368
101	0xbe03fd74	-0.12889653
102	0xbf0515d7	-0.5198645
103	0xbec281de	-0.37989706
104	0x3f1e67ab	0.61876935
105	0xbe7836e1	-0.24239685
106	0xbf6c9f2b	-0.9243037
107	0xbd7679f2	-0.06017489
108	0xbe8ab2d8	-0.27089572
109	0x3ef70ee2	0.48253542
110	0xbdfd77fb	-0.123764
111	0xbeec6b05	-0.461754
112	0xbd7bf682	-0.061514385
113	0xbe91c859	-0.28473166
114	0xbf369c71	-0.7133246
115	0xbd8be118	-0.068300426
116	0x3eaf811c	0.3427819
117	0xbf6aac77	-0.9166941
118	0x3f32f595	0.6990598
119	0xbe76dd39	-0.24107827
120	0x3e007303	0.12543873
121	0xbf5608b5	-0.83607036
122	0x3f00273e	0.5005988
123	0xbeb6f1ef	-0.35731456
124	0xbf270ad7	-0.65250915
125	0xbd435c35	-0.047695357
126	0x3f411c51	0.7543383
127	0xbee666dd	-0.45000353
128	0xbe996775	-0.29961744
129	0xbe02fffc	-0.12792963
130	0x3eeca782	0.46221548
131	0x3f3b8c80	0.7326126
132	0xbf0a1fcc	-0.5395477
133	0x3f346439	0.7046543
134	0x3e88178c	0.26580465
135	0x3f170974	0.589988
136	0x3dfa742e	0.12229191
137	0x3e7e05b7	0.24806868
138	0xbf073f07	-0.5283055
139	0x3e98b75e	0.29827398
140	0xbea6e0a9	-0.32593277
141	0xbdfd102f	-0.123566024
142	0x3f20cbb9	0.62810856
143	0x3ecc0937	0.3985078
144	0x3f0dfd87	0.5546498
145	0x3e6cb715	0.23116715
146	0x3d82514c	0.063631624
147	0x3f0d4ff7	0.5520014
148	0x3e957187	0.29188177
149	0xbef8c86f	-0.4859042
150	0x3e53c251	0.20679595
151	0xbe6c4eb5	-0.230769
152	0xbf73f0ac	-0.9528911
153	0xbeefcfdc	-0.46838272
154	0xbcffd4fe	-0.031229492
155	0x3e8bde6a	0.27318126
156	0xbf6629c5	-0.89907485
157	0xbec26ea7	-0.37975046
158	0x3ee30244	0.44337666
159	0x3eeac6a2	0.4585467
160	0xbe45dc41	-0.19322301
161	0x3f48113b	0.7815129
162	0x3f0be076	0.54639375
163	0x3f1e890f	0.61927885
164	0xbd849009	-0.06472785
165	0x3eec69e2	0.46174532
166	0xbf71f808	-0.9451909
167	0xbedebd24	-0.43503678
168	0xbe386d0e	-0.18010351
169	0xbe0268fb	-0.1273536
170	0x3cc7572e	0.024333563
171	0x3ea0bbf2	0.3139339
172	0x3e641554	0.22273761
173	0xbe76793a	-0.24069682
174	0xbf141f32	-0.578601
175	0x3d4c51b4	0.049882606
176	0x3f9288a8	1.1447954
177	0xbee3cc2d	-0.4449171
178	0x3f1c5292	0.6106349
179	0xbd8fe8d9	-0.07026834
180	0x3ed28501	0.411171
181	0x3fbb056f	1.4611033
182	0x3e8f0f2b	0.2794126
183	0x3e05d411	0.13069178
184	0x3e43f0c4	0.19134814
185	0xbe0fcdcc	-0.14043349
186	0x3df89981	0.121386535
187	0x3f09c735	0.5381959
188	0xbe346ba0	-0.1761918
189	0xbf96e4bc	-1.1788554
190	0xbefb93ca	-0.49136192
191	0xbe50d3ec	-0.20393342
192	0xbeee69c1	-0.4656506
193	0xbe25ee76	-0.16204247
194	0xbf17fa18	-0.5936599
195	0x3d813392	0.063086644
196	0x3e94db5c	0.29073608
197	0xbd1bae72	-0.03800816
198	0xbf93d24c	-1.1548553
199	0x3f4b2f0b	0.79368657
200	0xbe60a80c	-0.21939105
201	0xbf92dd57	-1.1473798
202	0x3ea228d0	0.31671762
203	0xbeb53174	-0.35389292
204	0xbfa133e9	-1.2593967
205	0x3fa92b2f	1.3216304
206	0xbeb6b4eb	-0.35684904
207	0x3eec8ed8	0.4620273
208	0x3f1b75d2	0.60726655
209	0x3c8e6d8a	0.017386217
210	0xbeea27c6	-0.4573347
211	0x3f202def	0.6257009
212	0x3ea59c0b	0.32345614
213	0x3e4d988e	0.20077726
214	0x3ecd2b9a	0.40072328
215	0xbe490c48	-0.19633591
216	0xbf91c464	-1.1388059
217	0xbec1ddfd	-0.37864676
218	0x3dcd9f98	0.10040206
219	0xbf0ffba7	-0.56243366
220	0x3b83ecea	0.004026045
221	0xbec0e345	-0.37673393
222	0xbe3a8604	-0.18215185
223	0x3f7342c7	0.9502377
224	0x3e138f41	0.14410116
225	0xbe0548aa	-0.13016
226	0xbf8c4b6e	-1.0960519
227	0xbd3d4e32	-0.04621715
228	0x3fa51ada	1.289882
229	0x3f2102b3	0.62894744
230	0xbf8602db	-1.0469621
231	0x3f00ddf0	0.5033865
232	0xbd93c030	-0.07214391
233	0x3f9b750f	1.2145098
234	0x3f228387	0.63481945
235	0x3faa7163	1.3315853
236	0x3e3f3ce4	0.18675572
237	0x3f63e51a	0.89021456
238	0x3ea32f3d	0.31871977
239	0x3f1f1746	0.6214489
240	0xbecf0f88	-0.40441537
241	0xbfa0b7be	-1.2556074
242	0xbcfb6724	-0.03068883
243	0x3ef74d93	0.48301372
244	0xbe43d0d0	-0.19122624
245	0xbf946bdd	-1.1595417
246	0xbe92dcbc	-0.28684032
247	0xbe7437c9	-0.23849405
248	0xbdf94555	-0.12171427
249	0x3e816413	0.25271663
250	0xbf6a067c	-0.91416144
251	0x3e4f1246	0.20221815
252	0xbf29646a	-0.66168845
253	0xbfbbd5f3	-1.4674667
254	0xbe7a1caf	-0.24425004
255	0xbe5b0be9	-0.21391262

q1_network.network_body._body_endoder.seq_layers.0.bias f4 [128]
0	0x3e174b1c	0.14774746
1	0xba53ea29	-0.0008083904
2	0x3e133735	0.14376529
3	0xbd25efb7	-0.040511813
4	0x3d416658	0.047216743
5	0xbb2337e4	-0.002490514
6	0x3c5b5eb6	0.01338928
7	0x3da0e028	0.078552544
8	0xbbe2af71	-0.006917887
9	0xbbab7226	-0.0052321134
10	0xbd01b4a8	-0.031666428
11	0x3e14712d	0.14496298
12	0x3dcfcdcf	0.10146677
13	0x3c7aaab1	0.015299485
14	0x3ca6b023	0.02034766
15	0x3e19b339	0.15009774
16	0xbc785c63	-0.015158745
17	0xbd80ebee	-0.06295
18	0xbb315b24	-0.002706238
19	0x3c4515a9	0.01202909
20	0xbb9cff31	-0.0047911634
21	0x39cdb159	0.0003923278
22	0xbc37d3a4	-0.011219893
23	0x3e69b74c	0.22823828
24	0xbcfa19d6	-0.030529898
25	0xbbca6b48	-0.0061773397
26	0xbcc9640e	-0.024583843
27	0x37c400a7	2.3365325e-05
28	0xbc34af54	-0.01102813
29	0x3eb890ac	0.36047876
30	0xbbb09859	-0.005389255
31	0x3d8bbc66	0.068230435
32	0xbcd60dba	-0.026129592
33	0x3dae4712	0.08509649
34	0xbb8500f4	-0.0040589515
35	0x3cc27b73	0.023740506
36	0xbb1142c8	-0.002216505
37	0x3de08d80	0.10964489
38	0x3d28efb6	0.04124423
39	0x3efba6f8	0.49150825
40	0xbae65bc4	-0.0017574956
41	0x3c7a3b4b	0.015272926
42	0xbdd579a8	-0.10423595
43	0xbc18aee2	-0.009319039
44	0xbb92a92c	-0.0044757333
45	0xbc7fe2b7	-0.015618018
46	0x3e4e4283	0.2014256
47	0xbc587bcc	-0.013213109
48	0x3c5ba0e7	0.013405061
49	0x3e6f224b	0.23352925
50	0xbae78967	-0.001766485
51	0x3c866c67	0.016409112
52	0xba863f62	-0.0010242278
53	0xbc9f9133	-0.019478416
54	0xbcb28b1e	-0.021794852
55	0x3e9cc8fb	0.30622086
56	0xbbf0e327	-0.0073512974
57	0x3d84ea21	0.06489969
58	0xbcdd3029	-0.027000504
59	0x3dd309fe	0.1030464
60	0xbcf92eaf	-0.030417768
61	0x3bda5115	0.0066624978
62	0x3efccb6a	0.49373943
63	0x3be14b4b	0.0068754307
64	0x3da909b7	0.08253806
65	0x3c168bb4	0.009188581
66	0x3ddc3611	0.107525
67	0x3d60be1a	0.054868795
68	0x3e00abd8	0.12565553
69	0xbcd15490	-0.025553018
70	0x3b773b85	0.0037724685
71	0x3e1be950	0.1522572
72	0x3d2897b4	0.0411603
73	0x3e08ac12	0.1334689
74	0xbca73243	-0.020409709
75	0x3d90cc4f	0.07070219
76	0xbd274ca8	-0.04084459
77	0xbca8dba0	-0.020612538
78	0xbbcd3fbf	-0.0062637026
79	0x3ba116ac	0.004916033
80	0x3c571545	0.01312763
81	0xbb728cd0	-0.00370102
82	0x3d2aff6e	0.041747503
83	0x3b9007e5	0.0043954724
84	0x3ec53712	0.38518578
85	0xbd272897	-0.040810194
86	0x38017bd3	3.0871317e-05
87	0xbd106613	-0.035253596
88	0x3ed5fcf7	0.4179456
89	0xbcbba8bb	-0.022907605
90	0xbc629208	-0.013828762
91	0xbd5f576d	-0.054526735
92	0xba9c56a7	-0.001192768
93	0xbbf1e6aa	-0.0073822336
94	0x3d80a628	0.06281692
95	0x3db8bcc3	0.090203784
96	0xbcaa0e73	-0.020758843
97	0x34fac97a	4.6712722e-07
98	0xb164db89	-3.3303158e-09
99	0x3e8ee7e5	0.27911296
100	0x3e8ac3f3	0.27102622
101	0x3e34d78b	0.17660348
102	0x3dfe6e14	0.124233395
103	0xbcef0c8e	-0.029180791
104	0xbbe73e8a	-0.007057016
105	0x397a1dee	0.00023853008
106	0x3e3c6a09	0.18399824
107	0x3ec23e8e	0.3793835
108	0x3d60ff37	0.05493089
109	0x3de46818	0.11152667
110	0xbc1b8e21	-0.009494335
111	0x3e62d835	0.22152789
112	0xbe304ae2	-0.17216066
113	0x3c7eafd5	0.015544851
114	0x3e3209cb	0.17386548
115	0x3e790ddf	0.24321698
116	0xbd3258b3	-0.04354162
117	0xbd16e62b	-0.0368406
118	0xb9a5fd94	-0.00031660183
119	0x3dc25bb4	0.09490147
120	0xbcb6e4f2	-0.022325967
121	0x3e249827	0.16073667
122	0x3d1882cf	0.037234124
123	0x3dfed17f	0.12442302
124	0x3e3b18c1	0.18271162
125	0xbd70265e	-0.05863034
126	0x3cff15fe	0.031138416
127	0xbc3fac82	-0.011698844
