results/first/SpaceInvaders/SpaceInvaders-1337.onnx (onnx, 79398 bytes, 9 tensors)

discrete_act_size_vector f4 [1, 2]
3.0 2.0
00000000: 0000 4040 0000 0040

network_body._body_endoder.seq_layers.0.weight f4 [128, 6]
0.60725427 0.05805562 0.182537 -0.12605225 0.29231805 0.23054016 -0.5674352 -0.4275105
0.67606145 0.120021656 0.38680977 -0.38744515 0.009606836 0.39809522 0.13545501 0.13150124
0.35888743 0.26721922 0.27691826 0.37059554 -0.63978314 0.049423628 -0.3380008 -0.3388463
0.48682457 -0.7508367 -0.7812517 0.59437144 0.27791175 0.25781095 -0.5785233 -0.013913669
0.11364739 -0.37134314 0.5308869 0.25375178 0.09370158 -0.5213455 -0.044407204 0.014772956
0.38278455 -0.0025904346 -0.06996014 -0.36033428 -0.16438864 0.41196072 -0.2007299 0.36478847
0.47174886 0.35121638 0.39198655 -0.13020791 -0.035821963 0.37186033 -0.39792427 -0.018916875
0.29810515 -0.32499924 0.26724008 0.5190396 -0.69823396 0.5174974 1.1390561 0.34636757
-0.59985685 0.07080893 -0.08078795 0.042709675 -0.14039978 -0.13224086 -0.28751072 -0.47724828
-0.26277804 -0.36774716 0.26703092 0.17837755 0.23479842 -0.0314354 -0.3315719 0.26544306
0.096136756 -0.85516953 -0.104217425 -0.009236732 -1.1536839 0.14291285 -0.5140348 0.1095888
0.09697192 0.38358045 -0.070739955 -0.89103264 0.010490365 -0.36273158 0.2141482 -0.4637931
-0.08284486 0.6242718 0.83275616 -0.6211428 0.25411958 -0.07693359 -0.003544561 -0.6460166
0.7164647 0.43936178 -0.30669087 0.15662488 0.109358355 -0.37655997 -0.29189163 -0.57183146
-0.97308034 0.31926197 -0.33624884 0.056929525 0.5475969 -0.11722635 1.0250847 -0.17379175
0.76335984 -0.015868673 0.83624935 0.2628483 0.5352315 -0.5284836 -0.28023908 -0.7718081
-0.3332582 0.1659526 -0.65042526 0.0007391138 0.5161975 0.5824491 0.09248069 0.7979873
-0.15097617 -0.4843519 -0.11999891 -0.28832278 0.24084198 0.025942037 0.5644828 0.3039277
0.16080888 0.77260756 -0.21688965 0.2615083 -0.0024575794 0.10095779 0.9301323 -0.39473262
0.2155789 -0.15563644 -0.42599857 -0.5098988 -0.25287881 -0.2340411 0.038135145 0.13144873
-0.06941589 0.538849 -0.25263765 -0.419724 0.33878 -0.5195043 0.68641645 0.41882855
-0.5644258 -0.2432016 -0.4701331 0.120668486 -0.056917474 0.1424922 -0.04972504 0.28386664
0.15594395 0.5772647 0.0019600394 -0.026144842 0.08908868 -0.023424888 0.48276365 0.2626124
-0.47695547 -0.07415371 0.9350082 0.1815418 0.40208262 -0.039820366 0.39233047 -0.3414444
0.1227905 -0.4285456 0.3916743 -0.39483902 0.2752226 0.5748562 -0.34503162 -0.24967553
-0.088829175 0.2371668 0.8487198 0.41931707 0.8011131 0.62456626 0.7652549 0.15634996
0.47231573 -0.6032837 0.7962103 -0.1873495 -0.24271865 0.4648277 0.6473451 0.55950886
-0.7136388 1.0399401 -0.41714448 -0.56006074 0.22320732 -1.0155088 -0.72793895 0.4229295
-0.646817 0.33200392 0.15913896 0.23936465 0.096041545 -0.47049928 0.07712876 0.26584423
-0.47091913 0.5119136 -0.033846032 0.11051773 0.17974332 -0.297555 1.0631161 -0.012455164
-0.13760416 0.6321224 0.32126254 -0.07208721 0.22395979 -0.19853392 0.092191234 -0.3891075
-0.1132848 -0.04818012 -0.111033656 0.11599923 0.60089177 0.26279935 0.36392245 0.121034674
00000000: 0475 1b3f bbcb 6d3d fbea 3a3e d713 01be
00000010: b6aa 953e b812 6c3e 6f43 11bf a8e2 dabe
00000020: 5d12 2d3f eacd f53d ee0b c63e 365f c6be
00000030: fe65 1d3c 23d3 cb3e b8b4 0a3e 43a8 063e
00000040: 18c0 b73e f5d0 883e 3bc8 8d3e b3be bd3e
00000050: d4c8 23bf 6e70 4a3d 710e adbe 437d adbe
00000060: 1241 f93e d536 40bf 1d00 48bf ba28 183f
00000070: 734a 8e3e ccff 833e 1a1a 14bf 28f6 63bc
00000080: f6bf e83d b020 bebe 34e8 073f c1eb 813e
00000090: 9de6 bf3d e676 05bf 54e4 35bd 450a 723c
000000a0: 56fc c33e 48c4 29bb 4347 8fbd bc7d b8be
000000b0: 7f55 28be 84ec d23e 248c 4dbe 8ec5 ba3e
000000c0: 1189 f13e a2d2 b33e 76b2 c83e 3955 05be
000000d0: 0dba 12bd 7a64 be3e bbbc cbbe 90f7 9abc
000000e0: 3da1 983e 4d66 a6be b1d3 883e c7df 043f
000000f0: 76bf 32bf b67a 043f 97cc 913f 1757 b13e
00000100: 3890 19bf 4604 913d 2774 a5bd 57f0 2e3d
00000110: f6c4 0fbe 266a 07be 9b34 93be e359 f4be
00000120: d88a 86be 5b49 bcbe 47b8 883e 9ba8 363e
00000130: ff6e 703e 68c2 00bd cbc3 a9be 27e8 873e
00000140: 59e3 c43d 64ec 5abf f26f d5bd a955 17bc
00000150: eaab 93bf bf57 123e c997 03bf 1870 e03d
00000160: 3799 c63d a864 c43e 1ce0 90bd b71a 64bf
00000170: c8df 2b3c f4b7 b9be aa49 5b3e 4a76 edbe
00000180: 91aa a9bd 47d0 1f3f 822f 553f 3703 1fbf
00000190: f61b 823e 5c8f 9dbd de4b 68bb 5861 25bf
000001a0: 3b6a 373f 07f4 e03e 9606 9dbe 4662 203e
000001b0: 46f7 df3d 78cc c0be d272 95be 8c63 12bf
000001c0: cb1b 79bf 4e76 a33e cf28 acbe ef2e 693d
000001d0: 4f2f 0c3f 5e14 f0bd fa35 833f 77f6 31be
000001e0: 8d6b 433f 05ff 81bc 7014 563f 0d94 863e
000001f0: ee04 093f b44a 07bf 7f7b 8fbe 3795 45bf
00000200: d2a0 aabe 7aef 293e 4582 26bf 16c1 413a
00000210: 8525 043f 621b 153f 8466 bd3d e548 4c3f
00000220: 7f99 1abe f9fc f7be fdc1 f5bd 0b9f 93be
00000230: 489f 763e 6584 d43c f281 103f 699c 9b3e
00000240: 15ab 243e 9cc9 453f 5218 5ebe 6ae4 853e
00000250: 570f 21bb f5c2 ce3d 271d 6e3f 651a cabe
00000260: b7c0 5c3e 295f 1fbe 7c1c dabe ba88 02bf
00000270: 5579 81be 78a8 6fbe 9933 1c3d 7f9a 063e
00000280: eb29 8ebd 02f2 093f b959 81be 10e6 d6be
00000290: 9274 ad3e 3cfe 04bf fdb8 2f3f b270 d63e
000002a0: 367e 10bf d709 79be 49b5 f0be 0a21 f73d
000002b0: 4c22 69bd 7ae9 113e 7cac 4bbd f856 913e
000002c0: c5af 1f3e 9fc7 133f 0174 003b b52d d6bc
000002d0: 2074 b63d 8de5 bfbc cc2c f73e 2275 863e
000002e0: 8233 f4be e6dd 97bd b35c 6f3f 18e6 393e
000002f0: c6dd cd3e ae1a 23bd 8adf c83e cdd1 aebe
00000300: 9679 fb3d 546a dbbe 8989 c83e 5728 cabe
00000310: fae9 8c3e c729 133f fca7 b0be f1aa 7fbe
00000320: 12ec b5bd dbdb 723e b345 593f bab0 d63e
00000330: c015 4d3f 93e3 1f3f bfe7 433f 341a 203e
00000340: 5ed3 f13e cd70 1abf 70d4 4b3f 8cd8 3fbe
00000350: 3d8b 78be e5fd ed3e 69b8 253f f93b 0f3f
00000360: 08b1 36bf c21c 853f f693 d5be 2460 0fbf
00000370: 7690 643e 31fc 81bf 355a 3abf 378a d83e
00000380: cd95 25bf 6bfc a93e 53f5 223e 021c 753e
00000390: 6eb1 c43d 48e5 f0be aff5 9d3d bc1c 883e
000003a0: 501c f1be c50c 033f 23a2 0abd 1f57 e23d
000003b0: a20e 383e 2159 98be 3014 883f bf10 4cbc
000003c0: 1be8 0cbe c6d2 213f 867c a43e 76a2 93bd
000003d0: b755 653e 7a4c 4bbe c2ce bc3d 1939 c7be
000003e0: dc01 e8bd 8458 45bd 9d65 e3bd 0191 ed3d
000003f0: 0bd4 193f a38d 863e 0b54 ba3e 07e1 f73d

network_body._body_endoder.seq_layers.0.bias f4 [128]
-0.050021358 -0.19670217 0.15499645 -0.021216655 0.07322773 -0.15323178 0.07368737 -0.1464893
0.002738898 0.18414922 -0.13751264 -0.16052008 -0.1513523 0.050443597 0.07518063 -0.14017457
0.13437396 0.15152189 0.090551615 0.08023267 -0.03181693 0.120537974 -0.046317216 0.14687079
0.07257466 0.01260286 0.13301331 -0.12568338 0.15498446 -0.07447836 -0.05511122 0.011025417
-0.056138456 0.18893771 -0.0117294025 0.02710194 -0.18018195 -0.20405343 -0.04267195 -0.14682549
0.17269568 0.124651015 -0.03638202 0.016961535 0.13760094 0.018987734 -0.008343987 -0.16774854
0.13388656 -0.03821442 -0.13756803 -0.089581504 -0.06423361 -0.022750191 0.07104904 0.036296166
0.13586013 0.08215489 -0.023200886 -0.19369455 0.03256885 0.110781685 -0.13758929 -0.17170942
-0.02045014 0.090725295 0.15598884 -0.071544155 0.16980055 0.0056446455 0.14695248 0.1321147
0.05947753 0.12680218 0.15713917 0.09975967 -0.15799884 -0.24454322 0.06870941 -0.03932824
-0.13566008 -0.10103511 -0.1053475 -0.157261 -0.00031767596 0.15001765 -0.138729 -0.013730567
0.08179862 0.16259676 -0.09792741 0.12165652 0.16514854 -0.1912339 0.030257773 -0.21912809
0.048515424 -0.07986242 -0.027676027 0.103069805 -0.18976763 0.17617671 -0.0037017409 0.08709189
-0.014717778 -0.21027584 0.14709526 -0.1297761 -0.0040561627 -0.018403854 0.14133383 -0.17547272
0.13555649 0.108918674 -0.1299444 -0.06026918 0.061370168 -0.009550066 0.11901873 -0.018655812
0.029920239 -0.15069175 0.042744063 -0.13530074 -0.016410608 0.16971837 -0.11123883 -0.040903307
00000000: 32e3 4cbd 4b6c 49be 64b7 1e3e 8dce adbc
00000010: 6cf8 953d cbe8 1cbe 67e9 963d 4b01 16be
00000020: 157f 333b 9d91 3c3e 1dd0 0cbe 605f 24be
00000030: 19fc 1abe f29d 4e3d 4df8 993d ec89 0fbe
00000040: 5499 093e 8e28 1b3e 2073 b93d 0751 a43d
00000050: 7852 02bd 9ddc f63d 1fb7 3dbd 4c65 163e
00000060: 06a2 943d 3a7c 4e3c a434 083e 25b3 00be
00000070: 3fb4 1e3e 1c88 98bd 4dbc 61bd f3a3 343c
00000080: 70f1 65bd e378 413e ae2c 40bc e304 de3c
00000090: 9e81 38be 62f3 50be c8c8 2ebd 6c59 16be
000000a0: 23d7 303e 0849 ff3d 5005 15bd ebf2 8a3c
000000b0: 43e7 0c3e 2a8c 9b3c 38b5 08bc 46c6 2bbe
000000c0: 8f19 093e b986 1cbd a2de 0cbe 8276 b7bd
000000d0: e98c 83bd 9c5e babc 2982 913d 4aab 143d
000000e0: eb1e 0b3e d340 a83d c90f bebc dd57 46be
000000f0: ea66 053d 82e1 e23d 35e4 0cbe 98d4 2fbe
00000100: 0d87 a7bc 2fce b93d 8abb 1f3e be85 92bd
00000110: 32e0 2d3e b8f6 b83b b67a 163e 1349 073e
00000120: b69e 733d 6ed8 013e 17e9 203e cc4e cc3d
00000130: 73ca 21be 8a69 7abe 85b7 8c3d a616 21bd
00000140: 7aea 0abe 7feb cebd 6ec0 d7bd 0709 21be
00000150: bf8d a6b9 3a9e 193e fa0e 0ebe 2cf6 60bc
00000160: 0986 a73d c47f 263e 2a8e c8bd 0e27 f93d
00000170: b31c 293e d2d2 43be 26df f73c 1d63 60be
00000180: 1cb8 463d e98e a3bd d6b8 e2bc 4316 d33d
00000190: 7252 42be ab67 343e e898 72bb 3c5d b23d
000001a0: d622 71bc 8d52 57be 24a0 163e 07e4 04be
000001b0: 8fe9 84bb aec3 96bc d1b9 103e 1faf 33be
000001c0: 52cf 0a3e c110 df3d 2510 05be d1dc 76bd
000001d0: 495f 7b3d e177 1cbc 18c0 f33d 13d4 98bc
000001e0: 4a1b f53c f04e 1abe 6614 2f3d 478c 0abe
000001f0: 8a6f 86bc a7ca 2d3e 2fd1 e3bd 3a8a 27bd

network_body._body_endoder.seq_layers.2.weight f4 [128, 128]
0.0066222106 0.157891 -0.066419564 0.047060158 0.06662083 -0.043839227 0.020279247 -0.069900624
-0.15748768 0.04827031 0.017965715 -0.03051153 0.13128869 -0.03492422 -0.08909879 0.15567759
-0.14499235 -0.2678173 -0.108968794 0.122051686 0.11655239 0.02216992 0.057244215 0.03140406
0.0335079 -0.13465518 0.12236875 0.084592745 -0.0039727394 0.052064437 0.17390858 0.0152090965
-0.040447257 -0.06392065 -0.045739792 -0.0870512 0.059522722 -0.07687868 -0.06464484 0.12317332
-0.05899033 -0.109512515 -0.1801898 -0.06131229 -0.03848548 -0.05180642 0.04445081 -0.19017941
-0.13493674 0.0084729 0.04451544 0.03124268 -0.055524945 -0.015140031 0.12715508 -0.087373875
-0.015918171 -0.06761665 -0.021781228 0.08538604 -0.030008636 0.10537631 0.13341689 0.16153845
0.07225065 0.02526846 -0.19254576 0.051030017 -0.0828058 -0.23624383 -0.047387242 0.06898835
-0.043042872 0.007111337 -0.118808374 -0.15310727 0.097963676 -0.029011812 -0.034502663 0.02315314
0.054946057 0.06648708 -0.012288286 0.011128637 0.08310128 0.07854955 0.19361642 0.046685755
0.049774237 -0.10983387 -0.007652505 -0.14538828 -0.02591212 0.115749195 -0.030572731 -0.11813376
0.14594029 0.004541882 -0.0018511986 -0.048904024 0.019240124 -0.0037165903 -0.012147999 0.10596801
-0.02203913 0.021248639 -0.07037184 0.0121901855 -0.08290115 0.18466438 -0.09353177 0.008957889
-0.2707512 0.025435459 0.077324435 0.008835383 0.01798221 0.16978161 0.01672824 -0.046602182
-0.18174285 0.09421839 0.05715789 0.13656133 -0.029783124 -0.062178914 0.07082095 -0.12407202
-0.04174777 0.015305521 -0.116543844 0.02069953 -0.00205393 0.017327808 -0.07417915 0.0014725812
0.0819617 0.0019854521 -0.011430318 0.097063415 -0.040377304 0.080062985 -0.097263046 -0.04392287
-0.081619225 -0.07755525 0.052742872 -0.09847831 0.08821139 0.09798954 0.0345674 0.13957027
0.12551188 -0.009629934 0.058574416 0.0975989 -0.08232507 0.07598603 -0.04799199 0.091163374
-0.042584613 -0.009383036 -0.023214137 -0.004834658 -0.033855263 -0.063326694 -0.066163056 0.17201687
0.05036004 0.08536462 -0.15392813 -0.014888126 -0.0689091 -0.007820714 0.023325657 0.026104867
-0.00035247824 -0.033924587 0.015293346 0.08211404 -0.0048521366 -0.04486702 -0.036650226 -0.04333094
-0.02757104 0.06976395 -0.10484626 0.06594781 0.04426763 -0.020187123 0.05910482 0.025490513
0.08015655 -0.15375896 0.01863004 -0.18335706 -0.12338094 0.08861996 -0.07111204 0.08496343
0.052215572 0.13904174 0.022217778 -0.12297026 -0.009076361 0.20147139 -0.18743443 0.013164213
0.18762907 -0.05037239 0.028272733 0.15211242 -0.01660764 0.02908779 0.091347754 -0.11012013
-0.08083409 -0.20288835 -0.062347073 -0.038427223 -0.1034028 0.09978774 0.049099054 -0.08442221
0.105195224 0.14212787 -0.14385773 -0.044989783 -0.016885124 -0.11340922 0.025435422 -0.03486825
-0.09003786 -0.028544802 -0.06140724 0.040176436 -0.12388319 0.029408416 -0.06250385 -0.09553803
0.019882135 0.039459296 -0.07871467 0.03898261 -0.049001046 0.09176687 -0.06880248 -0.0066671763
0.039711833 0.012848103 0.012150186 0.1744651 0.03953757 0.018452255 -0.11037654 -0.06369977
00000000: 21ff d83b 2eae 213e fb06 88bd 27c2 403d
00000010: 8070 883d c390 33bd aa20 a63c 0f28 8fbd
00000020: 7344 21be 17b7 453d d62c 933c 51f3 f9bc
00000030: 8b70 063e b30c 0fbd 6d79 b6bd f269 1f3e
00000040: e078 14be 591f 89be 082b dfbd 3cf6 f93d
00000050: 05b3 ee3d b19d b53c e978 6a3d 8ba1 003d
00000060: 943f 093d 0ce3 09be 789c fa3d f63e ad3d
00000070: c12d 82bb 8541 553d 1715 323e 932f 793c
00000080: 06ac 25bd d4e8 82bd a659 3bbd e647 b2bd
00000090: 19ce 733d 9272 9dbd 8464 84bd 4b42 fc3d
000000a0: d89f 71bd 1948 e0bd ad83 38be 9922 7bbd
000000b0: f3a2 1dbd f832 54bd 0d12 363d 64be 42be
000000c0: db2c 0abe ebd1 0a3c d255 363d a6f0 ff3c
000000d0: 206e 63bd e50d 78bc f134 023e 13f1 b2bd
000000e0: d366 82bc 997a 8abd 8c6e b2bc e0de ae3d
000000f0: acd4 f5bc 89cf d73d 709e 083e 566a 253e
00000100: 26f8 933d cdff ce3c b72a 45be da04 513d
00000110: 1696 a9bd e7e9 71be 2019 42bd c449 8d3d
00000120: b94d 30bd 3806 e93b ce51 f3bd 27c8 1cbe
00000130: 2ea1 c83d 2eaa edbc aa52 0dbd a7ab bd3c
00000140: 1e0f 613d 612a 883d cf54 49bc e354 363c
00000150: 0131 aa3d 96de a03d 6243 463e 9039 3f3d
00000160: 12e0 4b3d 94f0 e0bd ddc1 fabb aae0 14be
00000170: a745 d4bc ea0d ed3d aa73 fabc 1df0 f1bd
00000180: 5f71 153e 11d4 943b eba3 f2ba 964f 48bd
00000190: 779d 9d3c 0a92 73bb 6708 47bc c205 d93d
000001a0: 688b b4bc a011 ae3c 1c1f 90bd 58b9 473c
000001b0: 14c8 a9bd a918 3d3e 968d bfbd 1cc4 123c
000001c0: e79f 8abe 065e d03c 465c 9e3d 48c2 103c
000001d0: 6d4f 933c 3bdb 2d3e a909 893c eee1 3ebd
000001e0: cc1a 3abe 92f5 c03d 641e 6a3d bcd6 0b3e
000001f0: bdfb f3bc 51af 7ebd 930a 913d 7919 febd
00000200: b6ff 2abd 02c4 7a3c 8aae eebd 1092 a93c
00000210: 3a9b 06bb 0cf3 8d3c 3deb 97bd a003 c13a
00000220: 89db a73d 5c1e 023b 3a46 3bbc 2fc9 c63d
00000230: ac62 25bd 10f8 a33d d931 c7bd 78e8 33bd
00000240: fb27 a7bd 49d5 9ebd e908 583d ffae c9bd
00000250: 2ca8 b43d bdae c83d 8c96 0d3d 82eb 0e3e
00000260: 3086 003e dfc6 1dbc baeb 6f3d efe1 c73d
00000270: 0c9a a8bd 909e 9b3d 4093 44bd ddb3 ba3d
00000280: 346d 2ebd 4ebb 19bc 932b bebc 0d6c 9ebb
00000290: d1ab 0abd 6db1 81bd 7f80 87bd 3125 303e
000002a0: 5446 4e3d a5d3 ae3d 569f 1dbe 54ed 73bc
000002b0: 3720 8dbd 7422 00bc 7315 bf3c e0d9 d53c
000002c0: d4cc b8b9 82f4 0abd f190 7a3c 682b a83d
000002d0: acfe 9ebb 7bc6 37bd 8c1e 16bd c97b 31bd
000002e0: a9dc e1bc 67e0 8e3d a3b9 d6bd a50f 873d
000002f0: f951 353d 775f a5bc e517 723d 7bd1 d03c
00000300: 1e29 a43d fd72 1dbe 079e 983c f4c1 3bbe
00000310: 25af fcbd 627e b53d 30a3 91bd 4f01 ae3d
00000320: ffdf 553d f560 0e3e 0f02 b63c d5d7 fbbd
00000330: 04b5 14bc 844e 4e3e d0ee 3fbe b6ae 573c
00000340: d621 403e 4753 4ebd 389c e73c 5cc3 1b3e
00000350: bf0c 88bc 8449 ee3c 8814 bb3d aa86 e1bd
00000360: 588c a5bd f7c1 4fbe a55f 7fbd dd65 1dbd
00000370: d9c4 d3bd 845d cc3d 171c 493d 8de5 acbd
00000380: 9870 d73d f889 113e 714f 13be 3547 38bd
00000390: ac52 8abc 1843 e8bd f25d d03c 03d2 0ebd
000003a0: c565 b8bd cad6 e9bc 2886 7bbd 0c90 243d
000003b0: 78b6 fdbd ebe9 f03c 0502 80bd 71a9 c3bd
000003c0: dcdf a23c 12a0 213d 2835 a1bd 3bac 1f3d
000003d0: 52b5 48bd 45f0 bb3d 51e8 8cbd 5478 dabb
000003e0: e0a8 223d da80 523c 9311 473c fba6 323e
000003f0: 26f2 213d 2f29 973c 180d e2bd 0675 82bd

network_body._body_endoder.seq_layers.2.bias f4 [128]
-0.08992812 -0.06742644 -0.028666962 0.03622723 -0.018840974 0.036001917 -0.07013776 -0.06454746
-0.076914035 -0.082374394 0.11794051 -0.02903825 0.03349063 0.016176833 0.0118151335 -0.0020349242
0.03312665 0.008394314 -0.11691181 0.06604783 0.02721428 0.07714165 0.16307034 0.093753025
-0.039981466 -0.14172682 -0.09174666 -0.05063537 -0.059691593 -0.016835278 -0.114285074 0.061705794
0.07071113 0.015798757 -0.058638714 0.016827583 0.0942485 -0.12773012 0.038618267 -0.01630279
-0.049501292 -0.06642427 0.124141276 0.09178461 0.070425935 0.08345066 0.02926514 -0.05712482
-0.1039461 0.10257377 0.034276307 -0.050683938 0.022162754 -0.0901936 -0.01436565 -0.051669333
-0.028368546 -0.12363699 -0.06728326 0.010115523 0.1348259 -0.0034452807 0.03070947 -0.032455005
-0.056440312 0.021367801 -0.011593251 -0.017683173 0.13692111 0.009005718 0.026956825 -0.07629323
0.14062929 0.032691628 -0.048842188 0.14283521 0.10484623 -0.062127836 0.031508006 -0.06639696
-0.051932976 0.1549023 -0.046609025 -0.019492129 0.12396593 -0.033472184 -0.021717068 -0.07718555
0.033274677 0.12732866 0.11623177 -0.037195824 0.05132038 -0.0068048243 -0.10448132 0.110155545
0.11061294 -0.11208607 -0.09761691 0.026832718 0.025546402 0.010466472 0.065718524 -0.029387783
-0.09964467 -0.034786392 -0.07379969 0.124469094 -0.11391111 -0.13074498 0.15769161 -0.0003265741
-0.080932885 0.12930629 -0.005628792 -0.089028984 -0.06317487 0.12702692 0.02350192 -0.12884037
0.008296404 -0.13310495 0.031493958 -0.059197973 -9.0867805e-05 -0.091170035 -0.051149305 -0.027057687
00000000: 3c2c b8bd e016 8abd fad6 eabc 0163 143d
00000010: 6358 9abc bf76 133d 63a4 8fbd 7531 84bd
00000020: 1b85 9dbd e8b3 a8bd cb8a f13d a0e1 edbc
00000030: 792d 093d 4785 843c 4394 413c 5d5c 05bb
00000040: cfaf 073d 4e88 093c 766f efbd 1644 873d
00000050: 7bf0 de3c 71fc 9d3d e9fb 263e 9601 c03d
00000060: 9bc3 23bd d620 11be ace5 bbbd 0967 4fbd
00000070: 2c7f 74bd 23ea 89bc 4b0e eabd 37bf 7c3d
00000080: ffd0 903d 656c 813c 262f 70bd 00da 893c
00000090: 5c05 c13d afcb 02be 302e 1e3d 6e8d 85bc
000000a0: dec1 4abd 7309 88bd c83d fe3d 92f9 bb3d
000000b0: 793b 903d 2ee8 aa3d 72bd ef3c b7fb 69bd
000000c0: b1e1 d4bd 3212 d23d 5065 0c3d f699 4fbd
000000d0: aa8e b53c 6cb7 b8bd e75d 6bbc 39a3 53bd
000000e0: 2765 e8bc 6435 fdbd cecb 89bd 94bb 253c
000000f0: cd0f 0a3e 38ca 61bb 6d92 fb3c 8aef 04bd
00000100: f52d 67bd 870b af3c 9ef1 3dbc 4ddc 90bc
00000110: 0c35 0c3e b88c 133c 8fd4 dc3c a03f 9cbd
00000120: 2001 103e a8e7 053d bf0e 48bd 6543 123e
00000130: 9fb9 d63d c279 7ebd 8a0e 013d 21fb 87bd
00000140: acb7 54bd b59e 1e3e 1be9 3ebd f5ad 9fbc
00000150: d9e1 fd3d 211a 09bd fee7 b1bc 7513 9ebd
00000160: 074b 083d 7262 023e ec0a ee3d a65a 18bd
00000170: 5235 523d 01fb debb 4dfa d5bd 3b99 e13d
00000180: 0989 e23d 628d e5bd 60eb c7bd 4ad0 db3c
00000190: b046 d13c 917b 2b3c 6f97 863d a6be f0bc
000001a0: 8112 ccbd 2d7c 0ebd 4b24 97bd a7e9 fe3d
000001b0: 3a4a e9bd 03e2 05be e979 213e 0938 abb9
000001c0: 24c0 a5bd de68 043e bb71 b8bb d454 b6bd
000001d0: d461 81bd 5813 023e 1987 c03c bbee 03be
000001e0: a4ed 073c aa4c 08be cfff 003d 9379 72bd
000001f0: 4890 beb8 5bb7 babd ef81 51bd 15a8 ddbc

action_model._discrete_distribution.branches.0.weight f4 [3, 128]
0.0054593086 0.0033584223 0.011101004 -0.006252438 -0.0016763303 0.0063717477 0.009654162 0.006362564
0.006974094 0.0121790925 -0.05801678 -0.0034840114 0.009792243 1.7713028e-06 0.00989433 0.011975913
-0.0063744998 0.009079669 0.012522039 0.011195854 -0.0035059263 0.0068037473 -0.010770253 -0.014494433
0.0014513758 0.0018213062 0.011865736 -0.013587318 0.009182389 -0.0064494684 0.01484155 -0.006650871
-0.0024603973 0.012864075 0.003521124 0.0017410683 -0.017296739 0.024450501 0.0136548085 -0.0036103888
-0.0020948988 -0.0016899067 -0.035571028 -0.02756931 -0.0037682538 -0.005149929 -0.008469271 -0.0005752625
0.0016310952 -0.004143673 -0.009083647 0.0066144657 -0.011895736 -0.016888017 0.0030544545 0.0105010485
-0.009066178 0.014398919 -0.008510153 0.0111298645 -0.004930102 0.001436051 0.017157292 -0.0013957586
0.022604348 -0.005213951 0.0008935591 -0.009854572 -0.008039346 0.0017626939 0.0036484173 0.0034121184
-0.048181687 -0.0020412079 0.0068376856 -0.012203325 -0.01802382 0.016202062 0.009565019 0.0023325332
0.0053839334 -0.0068027196 0.0105826715 -0.0073073404 -0.021871444 0.025108214 -0.010486998 0.0078115813
0.0042853705 -0.032379467 -0.0030476132 6.612174e-05 0.0031386537 -0.005704704 0.0040327506 -0.01565187
-0.004596773 0.0020195965 0.014974566 0.004284228 0.01002883 0.00026418365 -0.008490656 -0.0005327709
0.016439613 0.009225686 0.012739884 -0.014280081 0.0031864927 0.0081357 -0.009243247 -0.004074326
0.0012119467 0.009424156 -0.0059700236 0.030550208 0.016669251 0.007148484 0.0029924647 0.012585586
0.003069988 -0.003861421 0.007913607 -0.0027883342 0.0058115134 0.02340145 0.00084354694 0.0032150592
0.02425016 0.0075221923 -0.006903446 -0.009002288 -0.003542184 -0.00774561 0.014137437 0.0068983333
0.032620568 0.02341627 -0.02086648 -0.0046866434 -0.015653275 0.00234634 0.010265717 -0.0057502803
-0.029278815 0.008423367 0.08471153 -0.0011730101 0.0003978118 -0.105419226 -0.07374609 -0.025049837
-4.798316e-05 0.07154282 0.070588976 0.024857022 0.016422823 0.0021690696 0.112018704 -0.009116652
-0.03592541 -0.009048025 0.061465926 -0.0055260328 -0.017942274 0.10770035 -5.4065473e-05 -0.009507555
0.0024150484 0.056646883 -0.09273223 -0.013964413 -0.008792265 0.006748567 0.0065486887 -0.00046635864
0.075879164 0.0015705881 -0.009835023 0.005174325 -0.010838994 0.051941287 0.003225572 0.027812837
-0.0048869136 0.07771136 0.012250868 0.0043949923 -0.019609237 0.0044445815 0.0010366881 0.011523909
0.010782353 -0.004900992 -0.0065588504 0.009573585 -0.10254783 0.0053850343 0.00473626 0.023468638
-0.06646298 -0.002549756 0.02229828 -0.064633526 -0.006006923 0.03370595 -0.028420763 0.0045991694
0.0026425484 -0.09280007 0.0074271145 -0.0019908992 -0.051906243 -0.0063733496 -0.012934983 0.03555284
-0.00573512 -0.059458908 -0.042128697 -0.0005590223 0.0017109241 -0.0070895953 0.06530633 -0.032137122
-0.062459175 0.09231287 0.05583492 -0.012163404 -0.0036041632 -0.0009318187 -0.0012463663 -0.009386125
0.06820104 0.0074009174 0.038477138 -0.012915828 0.04481217 0.086571746 -0.07751481 -0.009351447
0.024702173 -0.058550287 -0.0068603517 0.035917755 0.048035115 -0.0658509 0.0076968153 0.07152673
0.004077776 0.07595185 -0.011781276 -0.0008172234 0.025493061 0.03828126 -0.003065804 0.0026445088
00000000: 00e4 b23b fa18 5c3b fce0 353c 40e1 ccbb
00000010: 50b8 dbba 18ca d03b 7e2c 1e3c 0e7d d03b
00000020: f186 e43b d18a 473c 01a3 6dbd 0354 64bb
00000030: a56f 203c 80bd ed35 d41b 223c 9f36 443c
00000040: 2ee1 d0bb e4c2 143c 3d29 4d3c d16e 373c
00000050: afc3 65bb f8f1 de3b b775 30bc 0f7a 6dbc
00000060: 173c be3a e5b8 ee3a 8168 423c 589d 5ebc
00000070: bb71 163c 1056 d3bb f929 733c 8def d9bb
00000080: 9e3e 21bb d7c3 523c a8c2 663b 8f34 e43a
00000090: e4b1 8dbc 6b4c c83c 6bb8 5f3c 469c 6cbb
000000a0: 924a 09bb dc7f ddba edb2 11bd 09d9 e1bc
000000b0: cff4 76bb bcc0 a8bb b2c2 0abc 36cd 16ba
000000c0: 79ca d53a a6c7 87bb 94d3 14bc 29be d83b
000000d0: 55e6 42bc bd58 8abc 3e2d 483b 970c 2c3c
000000e0: 4f8a 14bc 72e9 6b3c 2b6e 0bbc 095a 363c
000000f0: b18c a1bb e039 bc3a 738d 8c3c e3f1 b6ba
00000100: c12c b93c cbd9 aabb bc3d 6a3a 1275 21bc
00000110: 76b7 03bc 310a e73a 491a 6f3b d99d 5f3b
00000120: 295a 45bd c9c5 05bb aa0e e03b 74f0 47bc
00000130: b1a6 93bc 30ba 843c 99b6 1c3c 6add 183b
00000140: b56b b03b 59e9 debb f162 2d3c 6a72 efbb
00000150: be2b b3bc beaf cd3c a8d1 2bbc 4bf8 ff3b
00000160: 4b6c 8c3b 55a0 04bd 77ba 47bb d7aa 8a38
00000170: dfb1 4d3b 87ee babb 2a25 843b 5a38 80bc
00000180: 87a0 96bb 355b 043b e257 753c b662 8c3b
00000190: f64f 243c 2182 8a39 641c 0bbc a6a9 0bba
000001a0: 5eac 863c 5527 173c f2ba 503c 00f7 69bc
000001b0: 7ad4 503b 994b 053c fd70 17bc ec81 85bb
000001c0: 2fda 9e3a c667 1a3c 30a0 c3bb 6e44 fa3c
000001d0: f48d 883c d43d ea3b 3a1d 443b c633 4e3c
000001e0: da31 493b e50f 7dbb 13a8 013c 7cbc 36bb
000001f0: 826e be3b 66b4 bf3c 7a21 5d3a beb3 523b
00000200: 46a8 c63c b97c f63b 4d36 e2bb 557e 13bc
00000210: fc23 68bb e3ce fdbb b5a0 673c 6a0b e23b
00000220: 259d 053d 7ad3 bf3c 2ef0 aabc 6a92 99bb
00000230: 4c3b 80bc 0ec5 193b 8a31 283c d96c bcbb
00000240: 20da efbc 2902 0a3c 3d7d ad3d b0bf 99ba
00000250: 6591 d039 09e6 d7bd 3108 97bd 5135 cdbc
00000260: 8741 49b8 0b85 923d f490 903d f4a0 cb3c
00000270: 2889 863c f326 0e3b 106a e53d 035e 15bc
00000280: 8626 13bd 2b3e 14bc b2c3 7b3d b913 b5bb
00000290: adfb 92bc 0092 dc3d 5cc4 62b8 93c5 1bbc
000002a0: ca45 1e3b 9006 683d 65ea bdbd feca 64bc
000002b0: 6f0d 10bc 1523 dd3b 6296 d63b 9981 f4b9
000002c0: 8966 9b3d 31dc cd3a 1423 21bc 628d a93b
000002d0: 0996 31bc 63c0 543d 1e64 533b bfd7 e33c
000002e0: 6722 a0bb 2227 9f3d ddb7 483c de03 903b
000002f0: 8da3 a0bc daa3 913b 7be1 873a c7ce 3c3c
00000300: 77a8 303c 8098 a0bb a0eb d6bb 87da 1c3c
00000310: 9904 d2bd f174 b03b a132 9b3b 4d41 c03c
00000320: be1d 88bd cf19 27bb e2aa b63c 955e 84bd
00000330: b9d5 c4bb 400f 0a3d a9d2 e8bc a1b4 963b
00000340: 9b2e 2d3b f70d bebd 275f f33b bf79 02bb
00000350: a49b 54bd 88d7 d0bb 40ed 53bc db9f 113d
00000360: aced bbbb 2f8b 73bd 248f 2cbd 5a8b 12ba
00000370: 1641 e03a d64f e8bb 53bf 853d 37a2 03bd
00000380: 31d5 7fbd 880e bd3d 28b3 643d 0449 47bc
00000390: d333 6cbb 4b45 74ba 1d5d a3ba 43c8 19bc
000003a0: fdac 8b3d 6583 f23b 349a 1d3d e99c 53bc
000003b0: f78c 373d 874c b13d 16c0 9ebd d036 19bc
000003c0: 365c ca3c 6dd2 6fbd cdcc e0bb 7f1e 133d
000003d0: 78c0 443d d6dc 86bd 9135 fc3b 9b7c 923d
000003e0: dd9e 853b a58c 9b3d 4106 41bc ef3a 56ba
000003f0: d3d6 d03c cfcc 1c3d a8eb 48bb 7f4f 2d3b

action_model._discrete_distribution.branches.0.bias f4 [3]
-0.012487738 -0.08234428 0.053226355
00000000: 5f99 4cbc 1ea4 a8bd e103 5a3d

action_model._discrete_distribution.branches.1.weight f4 [2, 128]
0.00492205 -0.0030289718 -0.004899957 -0.00093890005 -0.0024727546 -0.0043134782 0.011182305 -0.00096577435
-0.020158615 -0.0010087475 0.0038138856 0.002958796 -0.0021472413 -0.008834841 -0.008389277 -0.0006703389
0.0012858933 -0.011774875 0.010197339 0.006284048 -0.0045980443 -0.0016899946 -0.005356312 -0.005251124
-0.006868763 -0.0034947025 -0.003184815 -0.0065705823 0.001712926 0.0027265337 -0.010948553 -0.010420579
-0.016902069 -0.002013474 -0.011735698 0.0048906333 -0.011230737 0.006379883 -0.003331789 0.0041486146
-0.0052231373 0.011677521 0.00022575037 -0.012013253 -0.0029466227 0.005365041 -0.0009140232 0.0024823835
0.009759427 -0.006289462 0.0042350125 -0.0012491865 0.0022914698 0.0074797072 -0.007951468 0.002324004
-0.0102397725 -0.0044184355 0.0070706657 -0.0018683521 0.008827257 -0.004099395 0.01448687 -0.010136824
0.0017837606 -0.0010336075 0.0005040142 -0.0020416752 -0.011780248 0.0014059969 0.011044274 0.0040979586
-0.011096075 -0.004771984 -0.022459533 0.0032496974 -0.017195677 -0.007562203 -0.007416052 0.007297813
0.0007544616 0.007287364 0.00778415 0.006948748 -0.016435068 -0.0014826084 -0.00654796 -0.0072310115
0.0016060136 0.0013208693 -0.008933024 0.00038380455 -0.0012745421 -0.013993508 0.016534925 0.0020805758
-0.00901597 0.018341573 -0.014512336 0.01143361 0.010128085 -9.5572e-05 0.001555858 0.008810556
-0.0028838345 0.0014388679 -0.0049666003 0.007479219 -0.0010895879 -0.012398098 0.0018136348 0.00579308
-0.022024238 0.0006148352 -0.002591308 -0.009173585 0.0022543666 -0.013657709 -0.0005033587 0.0012854054
-0.0002592145 0.013896704 -0.0027277495 0.016748618 -0.0071794866 -0.009555981 -0.010027035 0.0030554659
0.007066138 -0.006246502 0.002738216 0.0021100296 -0.0032553186 -0.0010698754 0.005371706 -0.002395445
0.016863568 -0.0098063 0.0050045424 0.00047953677 0.003940364 -0.008358418 -0.009678423 -0.00058406376
0.0021376968 -0.012604844 -0.018764189 0.011002433 -0.004321962 -0.003716007 -0.0015303362 -0.005647632
-0.0055471747 0.00076191797 0.0010348014 -0.0055690384 0.001858501 0.0024267228 6.364195e-05 0.014922241
0.0010217538 -0.0003535677 0.010382953 0.0033595893 0.009349047 0.012089982 0.0035673536 0.0020869283
-0.0072642593 0.010067718 0.006587427 0.021792589 0.005795396 0.009605238 0.0029038098 0.0039056905
-0.017805783 0.008277308 0.0060708085 -0.007964828 0.00087319734 -0.0094637545 -0.00815178 -0.0049093263
-0.014135143 -0.001009243 -0.0004618051 -0.0016897928 0.0052093756 -0.0062778573 0.013832644 -0.0069386195
-0.0050599896 -0.00083480316 -0.00246208 -0.006056534 -0.00417725 -0.003236163 0.010517672 0.002966273
-0.0033351376 -0.00427253 -0.0014272335 -0.010087866 -0.01425184 -0.0031210007 -0.008450668 0.00537529
0.0019258029 0.010751022 -0.0027524473 0.0007902673 -0.012902532 0.0059578177 -0.0029369807 0.00049408997
0.004343697 0.0065883393 0.0012762246 0.000999821 -0.00022212186 -0.012396502 -0.0073461006 0.0065730447
0.004474656 -0.014194119 -0.0015535154 0.01315241 0.010207469 0.00010145696 -4.8586702e-05 -0.00022901078
-0.020619836 0.0024605135 -0.0023278953 -0.01190061 0.009226493 -0.0055361334 0.0032803484 0.0029490853
-0.0057230243 0.009346143 -0.004272263 -0.0021308484 0.0035272364 0.0020462314 0.00020884366 0.002508161
-0.0044519086 -0.015572784 0.0040710764 0.013805816 -0.0022017388 -0.0010109108 -0.009384649 0.004387859
00000000: 2649 a13b b781 46bb d28f a0bb 8420 76ba
00000010: f00d 22bb 1458 8dbb fd35 373c 052c 7dba
00000020: ae23 a5bc f337 84ba 62f2 793b 5ce8 413b
00000030: bbb8 0cbb 02c0 10bc 2e73 09bc afb9 2fba
00000040: 6b8b a83a 68eb 40bc bd12 273c 6aea cd3b
00000050: 31ab 96bb cf82 ddba 0084 afbb 9f11 acbb
00000060: 5c13 e1bb 6107 65bb 54b8 50bb 0a4e d7bb
00000070: 4284 e03a a5af 323b 8f61 33bc 14bb 2abc
00000080: 3576 8abc 7df4 03bb 1647 40bc 9b41 a03b
00000090: 2001 38bc 560e d13b 255a 5abb 1af1 873b
000000a0: da26 abbb 1353 3f3c 67b7 6c39 3cd3 44bc
000000b0: 201c 41bb 3acd af3b 0f9b 6fba 7caf 223b
000000c0: 01e6 1f3c d517 cebb dcc5 8a3b bebb a3ba
000000d0: 7c2c 163b 5518 f53b e046 02bc 514e 183b
000000e0: b8c4 27bc 86c8 90bb 0bb1 e73b 7ee3 f4ba
000000f0: 33a0 103c 3854 86bb 565a 6d3c ec14 26bc
00000100: 13cd e93a 1d7a 87ba d21f 043a a0cd 05bb
00000110: f101 41bc 6d49 b83a 0bf3 343c 2b48 863b
00000120: 50cc 35bc 4e5e 9cbb 0efd b7bc e0f8 543b
00000130: f3dd 8cbc 5bcc f7bb 5a02 f3bb 7e22 ef3b
00000140: 10c7 453a d7ca ee3b 2f12 ff3b 53b2 e33b
00000150: d6a2 86bc 1554 c2ba 4590 d6bb 1ff2 ecbb
00000160: e080 d23a 0521 ad3a d15b 12bc 6039 c939
00000170: 890e a7ba 0745 65bc 4074 873c 455a 083b
00000180: b8b7 13bc 1141 963c 26c5 6dbc 0954 3b3c
00000190: 44f0 253c d46d c8b8 eeed cb3a 265a 103c
000001a0: b7fe 3cbb 6598 bc3a ddbe a2bb 3d14 f53b
000001b0: 81d0 8eba 6421 4bbc 7cb7 ed3a e1d3 bd3b
000001c0: 2d6c b4bc e42c 213a efd2 29bb ce4c 16bc
000001d0: ffbd 133b 95c4 5fbc d5f3 03ba 0c7b a83a
000001e0: 2ee7 87b9 00af 633c 0bc4 32bb 6634 893c
000001f0: e641 ebbb b090 1cbc 6f48 24bc 363e 483b
00000200: 108b e73b 75af ccbb a473 333b 6c48 0a3b
00000210: 2f57 55bb 103b 8cba 2305 b03b e6fc 1cbb
00000220: 7725 8a3c 9aaa 20bc 25fd a33b 566a fb39
00000230: 2b1e 813b bff1 08bc 4092 1ebc db1b 19ba
00000240: 9a18 0c3b 8c84 4ebc 5bb7 99bc 8c43 343c
00000250: 3f9f 8dbb 4188 73bb 9095 c8ba c50f b9bb
00000260: 13c5 b5bb 73bb 473a 2ca2 873a 7b7c b6bb
00000270: f298 f33a a709 1f3b 8377 8538 6a7c 743c
00000280: 5eec 853a 0e5f b9b9 431d 2a3c 8e2c 5c3b
00000290: bf2c 193c 0f15 463c 43ca 693b d9c4 083b
000002a0: 0609 eebb 12f3 243c 58db d73b 5f86 b23c
000002b0: 4ee7 bd3b 4a5f 1d3c d84d 3e3b 9df6 7f3b
000002c0: 6fdd 91bc 8c9d 073c a2ed c63b e97e 02bc
000002d0: 48e7 643a dd0d 1bbc 0b8f 05bc 6ade a0bb
000002e0: 1697 67bc 9348 84ba 6e1e f2b9 0a7c ddba
000002f0: 69b3 aa3b 7cb6 cdbb 50a2 623c 5c5d e3bb
00000300: 45ce a5bb b1d6 5aba d95a 21bb e475 c6bb
00000310: 50e1 88bb ce15 54bb 5052 2c3c ce65 423b
00000320: 5392 5abb 9400 8cbb 0212 bbba 9447 25bc
00000330: 8d80 69bc b489 4cbb ac74 0abc 3323 b03b
00000340: 396b fc3a 0e25 303c 6762 34bb f129 4f3a
00000350: 2465 53bc cc39 c33b 5c7a 40bb d185 013a
00000360: 9255 8e3b ffe2 d73b fe46 a73a 6d0c 833a
00000370: 62e9 68b9 b31a 4bbc 8fb7 f0bb b262 d73b
00000380: 23a0 923b 738e 68bc 549f cbba 357d 573c
00000390: 3a3d 273c 4ac5 d438 93c9 4bb8 9d22 70b9
000003a0: eeea a8bc 9140 213b 9a8f 18bb c7fa 42bc
000003b0: b72a 173c 7468 b5bb 1dfb 563b 7145 413b
000003c0: 3588 bbbb 9120 193c 57fe 8bbb b4a5 0bbb
000003d0: 3529 673b 111a 063b 0bfd 5a39 f55f 243b
000003e0: 51e1 91bb fd24 7fbc aa66 853b ca31 623c
000003f0: 0c4b 10bb 8a80 84ba 12c2 19bc 07c8 8f3b

action_model._discrete_distribution.branches.1.bias f4 [2]
-0.0011122805 0.0011123095
00000000: f1c9 91ba eaca 913a
