results/first/SpaceInvaders/SpaceInvaders-7973.pt (torch, 978489 bytes, 83 tensors)

discrete_act_size_vector f4 [1, 2]
00000000: 0000 4040 0000 0040
3.0 2.0

network_body._body_endoder.seq_layers.0.weight f4 [128, 7]
00000000: ef8e 29be dac1 90bd 066e 99bd c768 a9be
00000010: 07c8 3cbe b130 0abe d19b d83e 2aed 40be
00000020: 4e20 b0be de64 003e 7b36 303e 4f3c 57ba
00000030: 484d 473f a70f 4d3d dea0 f33e 494d 6abf
00000040: ba33 47bc c1be 1c3f ea86 03be 7704 633e
00000050: 7974 1bbf 8eb8 b0bd 58bc 0f3d f43b 39be
00000060: a952 4abf c3ec 9abc a0e2 123e c0d1 8bbe
00000070: ff15 053e b576 04be 284d 0d3e 341a a5be
00000080: 22e3 213f 03bb c7be 4beb 89bd 0e1a 8a3e
00000090: 7508 903d fe75 913e 8e1f 12bf 4aa6 b73e
000000a0: 2734 c2be bbdf 3e3d 5a7c c23d 8bc5 7ebd
000000b0: f7da fb3e 32c6 353e bbc0 d1bd aa9e 8c3e
000000c0: 8b51 45bf fa9a 93bd 65b6 cb3e fff2 3d3f
000000d0: 2360 8bbb e86d 0ebf ebac ca3d 6326 b8be
000000e0: 6150 d2be 1b18 553f 6082 943e 5d40 35bf
000000f0: cdae 393e 874b dd3d b0c2 4b3e bc6b c7be
00000100: e482 623d 936b cabd 8dab b4bd 6b1b 253e
00000110: 6c62 29bf 712e ba3e f6e4 a93e 234a f83e
00000120: 3d29 c3be e3e1 b93d 71dc a7bd 198d 59bf
00000130: 7db3 7a3d 862b f1be a652 12be 3eaa 22be
00000140: 7820 363f 83e8 3bbe 961a f63e 6a5e 2a3e
00000150: 12b3 0a3e 52c9 4a3e 9213 173e c702 cb3e
00000160: 99c5 b1be b2ec a93d 8131 873d b6bd 07bf
00000170: 3663 a7be 1e5b debd 4d96 28bf 1d48 fa3e
00000180: 356f 1fbe b185 d7bd 3850 dcbe 0227 b0bd
00000190: faf2 5e3e f04f 873e 7110 23bf 3735 17bf
000001a0: 2d99 e2bd d9f7 c63d 0f30 91be 803b ff3e
000001b0: 7059 b6be b88b 243e 05ba c93e 6951 863d
000001c0: 0794 e0bd 9712 6b3d bd11 483f 6487 2fbe
000001d0: 0fbc 61be 3b26 333e be54 23bf cd8d b53d
000001e0: 9aa7 de3e dcc3 85bd bb87 81bc c3ad 19be
000001f0: 2735 edbd dc24 cfbe 5b63 bbbe e32b c7be
00000200: 3525 063f b385 05bf c391 c43e 55b9 f73e
00000210: 46b0 93bf 0d36 d73e 7a04 4b3f 1378 4b3e
00000220: 0b4a 813e 5773 15be 4d2a 9bbe cea9 1e3e
00000230: c5f4 bcbe 0743 bebe d63d d9be b642 a6be
00000240: d293 fcbe 0c28 8abe abbd dfbb 806e c7be
00000250: 9981 08be d2a8 aabd 79e2 aebd 1e59 46bd
00000260: 5f68 21bf 488d 5bbf 873f 1a3f 8c3d 0a3f
00000270: c907 b13e 59e2 8b3f 9f33 e3be 44bb 3e3e
00000280: c9e4 f0be 7ca0 083f 6e04 fe3d 239c 01be
00000290: c248 2cbe 266c 263e c0f7 62be 64ae f93e
000002a0: b9d5 12bd 6c26 f0be 4d73 cebd 0c35 0ebc
000002b0: 6554 d6be 402b 153f ec49 d9be 1fbd c6bd
000002c0: e3cb 023f 3793 a13e d796 afbd 5204 c63d
000002d0: 9b32 9d3e 2d59 923e 812b e23d c1c1 1d3f
000002e0: 32a6 4b3e 5eeb 0f3e 0c30 dfbe f5ec 163e
000002f0: 578b f23d 91df aabe e350 c83e 8331 edbe
00000300: 5220 783e 6ba8 563e 0a47 29be b0d1 d03e
00000310: e937 983e 1597 3c3e 57a9 47be 6f21 243f
00000320: eb3d fd3e 453f eabe d4cb bc3e 14a3 f4be
00000330: 5132 e53e f3bc acbe 8c75 79bd 5d31 81be
00000340: 0c4a 0fbf c62d 843c e675 603f 16b7 c4be
00000350: dc8a 2cbf c8d1 98bd 1f9b 583e 1615 3a3f
00000360: d900 6ebe a32e b53e 4dc0 643e 7c74 263f
00000370: 941f 9a3e e540 08be b090 8c3f 997c 86be
00000380: 1f0d 383d 4d83 fb3d b7e5 c3bd 40e4 be3b
00000390: 192a a3be 750b b53d 0953 d2be d107 8c3f
000003a0: 851e 31be c1ef 06bd eb16 b8bd fea5 a43e
000003b0: ac00 b1be d084 a13e ea5e f8be bcb1 9abe
000003c0: 9341 8b3e bde3 c4bd c62e b43e 7d70 3fbe
000003d0: dae9 12bf 4efe f03d 5905 933d 813c babe
000003e0: 0e6f f03e f717 fe3e c40d 93bd 6806 41bf
000003f0: e239 8fbd b012 8b3f a24a 52be 29d7 b1be
-0.16558431 -0.07068224 -0.074916884 -0.3308775 -0.1843568 -0.13495137 0.42306378 -0.18840471
-0.34399647 0.12538478 0.17208283 -0.0008210586 0.77852297 0.050063755 0.4758367 -0.9152418
-0.012158329 0.6122857 -0.12844434 0.22169672 -0.607246 -0.08628951 0.035091728 -0.18089277
-0.7903238 -0.018911725 0.14344263 -0.27308464 0.12996672 -0.12935908 0.13798964 -0.32246554
0.632372 -0.39009866 -0.06734332 0.26973003 0.07032863 0.28410333 -0.570794 0.35869056
-0.37930414 0.046600085 0.094963744 -0.06220011 0.49190494 0.17751387 -0.102418385 0.274648
-0.7707755 -0.07207294 0.39787593 0.7419891 -0.0042534037 -0.55636454 0.09896263 -0.35966787
-0.4107695 0.8323991 0.29005718 -0.70801336 0.18133087 0.10805421 0.19898486 -0.38949382
0.05530061 -0.098837994 -0.08821783 0.1612374 -0.66165805 0.36363557 0.33182496 0.48494062
-0.381174 0.090762876 -0.08196343 -0.8498092 0.06120633 -0.47103518 -0.1428934 -0.15885255
0.71143293 -0.18350415 0.48067158 0.16637579 0.13544872 0.1980336 0.14753559 0.39650556
-0.34721068 0.08297099 0.06601239 -0.5302385 -0.3269288 -0.10857223 -0.6585434 0.48883143
-0.15569766 -0.105235465 -0.43029952 -0.0860119 0.21772376 0.26428175 -0.6369696 -0.59065574
-0.11064372 0.09715242 -0.28356978 0.49850082 -0.3561511 0.16068923 0.39399734 0.065584965
-0.10965734 0.057390776 0.78152066 -0.17141491 -0.22044395 0.17495053 -0.6380118 0.08864937
0.43487245 -0.06531498 -0.015811792 -0.15007691 -0.11582404 -0.4045781 -0.3659924 -0.3890067
0.52400523 -0.52157134 0.38392457 0.48383585 -1.1538169 0.42033425 0.79303706 0.19870023
0.25251803 -0.1459478 -0.3030571 0.15494463 -0.36905494 -0.37160513 -0.4242999 -0.3247277
-0.49331528 -0.26983678 -0.00682803 -0.38951492 -0.13330688 -0.08332981 -0.0853929 -0.048424833
-0.6304988 -0.85762453 0.60253185 0.54000163 0.34576252 1.0928451 -0.4437532 0.18626124
-0.4704955 0.5336988 0.12403189 -0.12657218 -0.1682463 0.16252193 -0.22164822 0.48765862
-0.035848353 -0.46904314 -0.10080586 -0.00867964 -0.41861263 0.5826912 -0.4243921 -0.09704041
0.51092356 0.3155763 -0.08573692 0.09668793 0.3070267 0.2858366 0.11043454 0.6162377
0.19887617 0.14054629 -0.43591344 0.1473883 0.11842983 -0.33373693 0.39124212 -0.46326837
0.24231079 0.20962684 -0.16531006 0.4078498 0.29730156 0.18417008 -0.19498192 0.64113516
0.49461302 -0.45751396 0.3687426 -0.4778067 0.4476495 -0.33737907 -0.060903117 -0.25232974
-0.5597236 0.016135108 0.876799 -0.38420933 -0.6739938 -0.074618876 0.21152924 0.72688425
-0.23242511 0.35387143 0.22338982 0.6502149 0.30102217 -0.13306005 1.0981655 -0.26266935
0.04493439 0.12280903 -0.09565299 0.0058255494 -0.31868055 0.08840076 -0.41078976 1.0939885
-0.17296799 -0.03294349 -0.08988746 0.32157892 -0.34570825 0.3154664 -0.48509914 -0.30213726
0.27198467 -0.0961375 0.35191935 -0.18695255 -0.5738808 0.11767255 0.07178754 -0.36374286
0.46959728 0.4962766 -0.0718036 -0.754004 -0.06993462 1.0865078 -0.20536283 -0.34734467

network_body._body_endoder.seq_layers.0.bias f4 [128]
00000000: bb8e e23c 7200 edbd 9832 0cbe c990 b33e
00000010: d85b 99bb bc91 473d 220e cabc 3e3b 60bd
00000020: 1029 c3bd 61f4 15bc cdfd 843d 2320 9bbc
00000030: 8120 633d 1988 bfbd 0653 0fbe 0b9e 12bd
00000040: be32 66bd 9aab 2b3d bd37 58bd 6db7 9c3d
00000050: a369 3b3e 1101 9dbc 7904 a33c e9e4 813c
00000060: 29b3 963e 7e5d 0ebd 3f1f 753c 6a9d 953b
00000070: fda7 5cbd 7977 883d 48ed 4e3d 1247 5aba
00000080: 0cbc 863e 7679 c93d 2b4f c0bc c302 83bc
00000090: 68e4 693e 8f8d 56bd 0917 3e3b b35f 61ba
000000a0: f38a c0bd 2c1d fb3b 6c07 a5bc d09c 24bd
000000b0: 21a4 8a3d 7e28 a5bd c0c4 553e 3ee1 873e
000000c0: c3df 293d 1c6c acbd 7a0b acbd 2424 36bd
000000d0: 1675 bf3a b9bb 9d3e ea7a 7bbd 8f87 73bd
000000e0: 64d4 5a3d 75f7 3c3d 556c f93b af97 e03c
000000f0: e885 54bc c8f0 a7bd 5cc4 76bd cc73 c23b
00000100: aa59 89bc 9473 93bd f5d3 55bd bfed 503d
00000110: 8853 013c 0567 9f3d 131f a8bd e610 073c
00000120: 2ae9 8ebc 5a53 17bd 5c39 31bd 37d0 89bc
00000130: e794 5ebd a206 29bc f353 1bbd 4020 8dbd
00000140: 5530 6b3c 3d41 1ab9 fe31 3dbd 57ab 663d
00000150: ca35 c1bc a232 24bb 0e0a d23d e3b7 7e3c
00000160: 2b6e 103e bcbd 923d 156f 5fbc 0c32 e6bc
00000170: 880a e53c bbcd d7bd a892 7abd d7bf 04bc
00000180: 0adb a43d 5cab b13b 0200 53bd a566 153d
00000190: af99 b5bc b563 39bb cd62 ab3d c5e5 88bc
000001a0: dd2e faba 85af 92bd 8806 633e ccf2 723c
000001b0: bd25 8ebc d6ad 07bc 9d3f 523b d5f7 303d
000001c0: a437 09bd ae07 b63d acb6 e4bc 263c e73b
000001d0: ae1d 5abd 4256 20ba 28dd 103e c7cf 4e3d
000001e0: 9c43 193d 51c0 a23d 89d9 37bc 5a41 2d3e
000001f0: bacc a23d b8db 1dbd 1ce1 ec3c 76c9 9cbd
0.02765595 -0.115723506 -0.13691175 0.350714 -0.004680138 0.048722968 -0.024664942 -0.054743998
-0.095293164 -0.009152503 0.06493721 -0.018936222 0.05545092 -0.093521304 -0.13996515 -0.035795253
-0.056200735 0.0419117 -0.05278753 0.07652173 0.18302016 -0.019165548 0.019899594 0.015856223
0.29433563 -0.03475713 0.014961063 0.0045658844 -0.053871144 0.066634126 0.050519258 -0.00083266303
0.26315343 0.0983762 -0.02347525 -0.015992528 0.22841036 -0.052381095 0.002900543 -0.0008597329
-0.094015025 0.0076633897 -0.02014514 -0.04018861 0.06769586 -0.08064364 0.20875835 0.26539034
0.04147316 -0.08419058 -0.084006265 -0.04446806 0.0014607038 0.30807284 -0.061396517 -0.05945545
0.053425208 0.04613443 0.007611791 0.027416078 -0.012971379 -0.08200222 -0.060245857 0.005934214
-0.016766388 -0.07199779 -0.05220409 0.051007982 0.007893451 0.07783321 -0.08209052 0.008243775
-0.017445166 -0.036944725 -0.043267593 -0.016822917 -0.054341223 -0.010316523 -0.037921857 -0.06890917
0.014354785 -0.00014710888 -0.046190254 0.056315746 -0.023585219 -0.0025054594 0.10255824 0.015546772
0.14104526 0.07165095 -0.013637324 -0.028100036 0.027959123 -0.10537287 -0.06117502 -0.008102379
0.08049591 0.005422039 -0.05151368 0.036474843 -0.022168009 -0.002828819 0.08368454 -0.016711125
-0.0019087453 -0.07162384 0.2217046 0.014828395 -0.01735198 -0.008281192 0.0032081374 0.0432051
-0.03350033 0.088881835 -0.027919136 0.007056731 -0.05325096 -0.0006116369 0.14146864 0.05049112
0.037417993 0.07946838 -0.011221298 0.16919461 0.07949205 -0.03853962 0.028915934 -0.07655613

network_body._body_endoder.seq_layers.2.weight f4 [128, 128]
00000000: 29ad aabd c134 b83c afb0 a3bd 562e 25be
00000010: 1524 28bc 6a7b 1a3e 2ae3 bc3c 6867 5b3e
00000020: 1999 f4bd da65 60bd e9b6 403e c9ff 47bd
00000030: 9b39 68bd e9d4 8d3d f6b7 913d 2d2e 413b
00000040: 72cd fe3b 52a4 56bd 8333 9dbc 9167 023d
00000050: 7422 0a3d 0dc0 4f3d 75e4 67bc 6f3e fdbd
00000060: 45ab abbd 5ce1 09be 1c1e 79bd 0dae 583d
00000070: ba6f 823d fedf c13e 5f9f afbb fc1b a1bd
00000080: 2fb3 183d 74a2 603d a25e 8d3d 70a6 20be
00000090: ad2a 8d3c 8232 8b3d 1de4 b83d 459a f03d
000000a0: 545d 0bbd 0593 b9bd 617c e13d b97c 99bd
000000b0: 8f2d 0c3e 75ac 053e 6dfe 883d 1ec8 32bd
000000c0: 830d a0bd 72e9 4ebd a270 84bd 94c3 4e3d
000000d0: 1bc4 46be d910 443a 734e c0bb d6c8 bebc
000000e0: ab25 35bd c998 4dbd de8f eabd 85c8 a5bd
000000f0: 676a 0e3e 2972 e2bb 90a0 c3bd ad51 a73d
00000100: 1908 363e 9be0 acbb 2063 d2bd 0ff2 0e3d
00000110: e365 83bd f337 7abc 8818 96bd 4441 d1bd
00000120: 5ef4 4a3d 9b3f 573d 7845 3fbd 1ff0 d93d
00000130: c5fe 09bd e124 073d b467 4ebe d910 163e
00000140: ba45 42b9 e466 a83d 2d44 06be 5230 4fbe
00000150: ea79 43bd 11cc e9bd f03d 39bd a292 fbbd
00000160: 9c08 83bd ec64 a33e 5658 903d f620 1ebe
00000170: e084 103e 1233 55be 5d6a d03d b1cc 793d
00000180: 706b 323d b3be 9c3d de38 af3d 23fe 01bd
00000190: 53d9 cdbd ec6e 783d 1f1a c8bd ce1e 57be
000001a0: 719a 253c fb71 2abd f6f7 27be 08b2 0ebd
000001b0: 7511 68bc 8175 cd3c 2aba 133e 9b39 b93c
000001c0: e70b 283d 085a b63c b332 1d3d aa13 0d3e
000001d0: caed 1cbe dec8 d6bd 15b3 95bd 1e45 113e
000001e0: a0de 1bbd 2d11 493d 446f 89bd 026d 86bd
000001f0: 684f cbbd 323e 25be 982c 833d 010a 16be
00000200: 4b28 5d3e a25d bbbd 85da bdbc 6769 e83d
00000210: 4ce6 28bd e4c0 78be 2ebd 6e3d 269e 72be
00000220: deb2 613d d8b2 6b3e b85d bb3d 1b98 673d
00000230: 74fa 7fbd 6d82 e7bd 2d34 b0bd a473 8fbd
00000240: 965c 693a 6fcd eabb 930a bd3c f0fc 243b
00000250: 87dc 66be 0404 26bd 7910 e5bd 0bab 03bd
00000260: b7e9 803d 904d 693e 8441 2d3d f1d7 403e
00000270: ce92 32bd 338e 843e 7b27 fc3d adc0 8abd
00000280: 6e81 293e 47da 84be ef1c 20bd cb34 fcba
00000290: 8414 1cbd 56be a8bd c720 09be 16a0 3fbe
000002a0: eb84 2fbc 23b2 03be 8247 31bd 125d 013c
000002b0: 55bc d7ba d01c 17be 8edc 1d3d 227f f63c
000002c0: e563 94bd fe6a 193e c75e 41bc f347 84bd
000002d0: 7a66 01bd 94ca 02be 4fd6 2fbc a637 683d
000002e0: 7cc3 01be 4fe4 cbbd 5a38 e63d 66d5 c6bd
000002f0: 911f 843e a8c4 933d 99c2 cdbd 6727 12be
00000300: b2ee cbbd 136b cf3c 8c6b 293d 6b4b 04be
00000310: f91d 88be d7b5 24be 1319 c5bd c4dd e83d
00000320: 9922 3fbe b6bc 3fbd 12e1 b8bb a14d 47be
00000330: c376 b03a eafd 933d d0d4 603d 177a edbc
00000340: ae07 c23d 0bc6 57bd 6170 6d3d 31f5 e9bc
00000350: ec5b 29bd 2c14 243c 9cb1 4fbb 8852 c43c
00000360: 63f3 24be 4d20 d43e fe33 803d 4cf2 b3bd
00000370: 61ee a83d 5e48 7f3d ed9e babd f37d c33d
00000380: 3af0 643d 7ca7 633e be06 9e3d 6a66 d9be
00000390: 777e e6bd 75d8 d33e 86e9 b3bd 40a3 983c
000003a0: e157 29bd beda 15bd 7722 733d 6b15 38bd
000003b0: 4b7b 343d 7516 f33c a900 8c3c 62ad 6ebe
000003c0: 2a69 483d 9d59 5b3d a306 373e be32 8a3d
000003d0: 546a 513d 4ccd 27be 9820 6a3d 4b03 7bbe
000003e0: 2934 9abe e1c1 fcbd 03fe 18be 3c4c 963d
000003f0: dc2c 003e 58ba 443d d1c4 353d 294b 2f3d
-0.08333809 0.022486093 -0.07992684 -0.16130957 -0.010262509 0.15086141 0.023057539 0.21426165
-0.119432636 -0.054784633 0.18819775 -0.04882792 -0.05669556 0.06925375 0.07115166 0.0029476986
0.007775956 -0.0524028 -0.019189602 0.03183705 0.033724263 0.050720263 -0.0141535895 -0.12365424
-0.083822764 -0.13464874 -0.06081973 0.052900363 0.063689664 0.37866205 -0.0053595747 -0.07866666
0.037280258 0.054842427 0.069028154 -0.15688491 0.017232263 0.06796743 0.09027884 0.117481746
-0.03402455 -0.09061245 0.110100515 -0.07494492 0.13689254 0.13054068 0.06689153 -0.043647878
-0.07815077 -0.0505156 -0.064667955 0.050479487 -0.19410746 0.0007479317 -0.005868727 -0.023289125
-0.044225376 -0.050194535 -0.11453222 -0.08094887 0.13907777 -0.0069105816 -0.09552109 0.08169875
0.17776527 -0.0052757985 -0.10272813 0.034898814 -0.06415918 -0.015272128 -0.07328898 -0.102175266
0.049549453 0.052550893 -0.04669711 0.106415026 -0.033690233 0.032994155 -0.20156747 0.14654864
-0.00018527257 0.0822275 -0.13111944 -0.20233276 -0.04772369 -0.11415876 -0.045225084 -0.12283827
-0.063981265 0.31912935 0.07048099 -0.15442261 0.14113188 -0.20820263 0.10176537 0.060986225
0.04355949 0.076535605 0.085557684 -0.031736504 -0.10051217 0.06065266 -0.09770607 -0.21007845
0.0101076225 -0.041612606 -0.16403183 -0.034837753 -0.014164318 0.025080444 0.14426485 0.022610476
0.041026976 0.022259727 0.03837843 0.13777032 -0.15325084 -0.10487531 -0.07309548 0.14186522
-0.03805411 0.049088646 -0.06710675 -0.0656376 -0.09927255 -0.16137007 0.0640499 -0.14652254
0.21597402 -0.091487184 -0.023175487 0.11348229 -0.041235253 -0.24292332 0.058285885 -0.23693141
0.05510222 0.23017442 0.09148735 0.056541543 -0.06249471 -0.113041736 -0.08603702 -0.070044786
0.0008902041 -0.007165603 0.023076331 0.0025175177 -0.22545062 -0.040531173 -0.111847825 -0.03214554
0.062945776 0.22783494 0.04229881 0.18832375 -0.043597035 0.2588974 0.12312218 -0.06775031
0.1655328 -0.25947782 -0.039090093 -0.0019241808 -0.038105503 -0.08239429 -0.1339141 -0.18713412
-0.010712842 -0.12860923 -0.043281086 0.007895725 -0.0016459326 -0.14757085 0.038540415 0.030089919
-0.07245616 0.1498222 -0.011802382 -0.06459036 -0.03159187 -0.1277259 -0.0107322475 0.056693695
-0.12672228 -0.09955656 0.11241217 -0.09708671 0.25805333 0.072152436 -0.10046882 -0.14272843
-0.09957637 0.025319612 0.04136233 -0.12919395 -0.26585367 -0.16084991 -0.09623923 0.113704234
-0.18665542 -0.04681083 -0.005642065 -0.19463207 0.0013463128 0.07226165 0.054890454 -0.028988881
0.09474121 -0.052679103 0.0579685 -0.0285593 -0.04134743 0.010014575 -0.0031691557 0.023965135
-0.1610847 0.41430894 0.06259917 -0.08786449 0.08248592 0.062324874 -0.09112344 0.09545507
0.05589316 0.22231859 0.0771613 -0.42460948 -0.1125459 0.4137608 -0.087847754 0.018632531
-0.041343573 -0.036585562 0.05935904 -0.0449423 0.044062894 0.029673794 0.017090159 -0.23308328
0.048928417 0.05355226 0.17873625 0.067479596 0.051126793 -0.16386908 0.05715999 -0.24512975
-0.3011792 -0.12341667 -0.14940648 0.07338759 0.12517112 0.048029274 0.044377152 0.042796288

network_body._body_endoder.seq_layers.2.bias f4 [128]
00000000: fc32 b53a 1867 7abc 5569 18bc a2e9 62bb
00000010: f755 5bbc c5f6 af3c f4cd 52bc 56aa 98bc
00000020: 8a27 483b b43d 8abc b7e9 51bc b71c 453d
00000030: da4a 6abc 37a5 1cbc 1440 223d f71d d1b9
00000040: 76f0 07bc b808 ac3b c536 c4bb ad64 35bc
00000050: b639 b73d 5fa6 33bc 2e03 9dbb 1c11 b8bc
00000060: ad43 0ebd 8245 95bc e401 2d3d 7c6a 21bd
00000070: 0a20 6ebc f870 4cbc f176 da3d 32b1 c0bd
00000080: 3174 e53c b3e6 96bd ed77 903c 2b15 2fbc
00000090: 07e6 373b 1a61 0b3c 240d 8abb 4da9 b83c
000000a0: 9962 333d 544b 273d 4e1d 3abc 9103 4fbd
000000b0: 2c79 383c 0831 53bd 8c9c d3bc 664a bd38
000000c0: 583a 173c 0cca 5b3c c8fc 193c 7969 73bd
000000d0: dd14 3d3c 0856 393c 83e8 55bb c4fe 3e3c
000000e0: e74b 7cbc 31e9 6dbc a820 87bb 3a3f f7bb
000000f0: 922b efba 4879 bcbc cf1b eeba d789 27bb
00000100: 952b 7f39 2be8 873d 2020 e1bc ef77 173b
00000110: a638 993c 68d3 623c 4833 85bd 48df 9b3c
00000120: c974 91bb 943c 843d 7118 c8bc eb0a e03b
00000130: a14c 3d3c e9d7 9d3d 7706 16bd c7ba e8bc
00000140: a499 9abd b10b 0abd c023 57bd bb2b 75bb
00000150: 5233 12bd b4ba 3b3d 3184 bb3d 53c0 4cbc
00000160: e9bf 43bb 0d14 03bc 561b 85bc 1620 d23b
00000170: f089 1dbc 7395 bcba c0f7 5aba 6c63 e9bb
00000180: 0471 3d3d 186d 56bc f833 cebc 20e4 2ebc
00000190: 4d60 e6bb 196a 34bc 9dba e439 76a9 06bd
000001a0: 22a4 7fbc 05bb 6dbc 1412 aebc 8013 44bc
000001b0: 797c 57bc 7100 083c b4e8 71bd 4417 4a3c
000001c0: b0a7 80bc ad1b cb3b 576c 08bc a008 a0bd
000001d0: a79e 61bc ff90 b9bc d51b d3b8 5e0a 513c
000001e0: 3845 a1ba 8496 d0bc 80ed 9b3c cbfb 51bc
000001f0: 1956 a43d 7142 ddbc 1b98 173c e1e6 b73c
0.0013824399 -0.0152833685 -0.009302457 -0.003462412 -0.013387195 0.021479974 -0.012866486 -0.01863591
0.0030541145 -0.016875125 -0.01281207 0.048123088 -0.014300073 -0.009560875 0.03961189 -0.00039885912
-0.008297076 0.005250063 -0.0059879743 -0.011071366 0.08946554 -0.010964959 -0.004791639 -0.022469096
-0.03473251 -0.01822162 0.04223813 -0.039408192 -0.014534006 -0.012478106 0.106672175 -0.09408797
0.028009506 -0.07368221 0.01763531 -0.010686199 0.002806069 0.008507038 -0.0042129923 0.022541666
0.043795202 0.040843323 -0.011359526 -0.05054051 0.011259358 -0.05156043 -0.025831483 9.02608e-05
0.009230219 0.013414871 0.009398647 -0.05942676 0.011540619 0.011312015 -0.0032639808 0.011657421
-0.015398956 -0.014520929 -0.004123766 -0.007545379 -0.0018247238 -0.02300705 -0.0018166247 -0.0025564337
0.0002433493 0.066360794 -0.027481139 0.0023112257 0.01870377 0.0138443485 -0.06503922 0.019027367
-0.0044389707 0.06456867 -0.024425717 0.006837239 0.011553914 0.07707197 -0.03662726 -0.028409375
-0.07548836 -0.033702556 -0.05252433 -0.0037410099 -0.035693474 0.04583235 0.09156073 -0.012497026
-0.0029869026 -0.008000386 -0.016248386 0.0064125163 -0.009615406 -0.0014387801 -0.00083529577 -0.0071224477
0.04625036 -0.013087533 -0.025171265 -0.010674506 -0.007030523 -0.011011624 0.00043626587 -0.032876454
-0.015603097 -0.014509921 -0.021248855 -0.01196754 -0.013152235 0.0083008865 -0.059059814 0.0123346485
-0.01570496 0.0061983676 -0.0083266115 -0.07814145 -0.013770736 -0.022652147 -0.00010066448 0.012758819
-0.0012303954 -0.025462396 0.019034147 -0.01281638 0.08024234 -0.02700922 0.009252573 0.022448959

action_model._discrete_distribution.branches.0.weight f4 [3, 128]
00000000: 5ace 923c 2980 48bd 3618 0fbd 13e5 0e3e
00000010: c011 2bbb 1aac 8f3b b67d efbb 3941 8f3c
00000020: 2354 9537 7a7a 913d c3f8 2f3c ddd1 14be
00000030: 179c ae3c 8e80 993c c211 803c 1f34 f4bd
00000040: 2169 243c f24e 463c d171 21bd 833f 093c
00000050: 34d1 5b3d e2cb 1b3c c3b1 c7b9 6b60 f1bb
00000060: ae9a 0c3b fa81 76bb 43a6 3fbb f320 203b
00000070: 888e 91bb a737 49bd a883 d3ba b390 a73c
00000080: 51d9 11be f79e 6eb9 f69a 013c c0a6 4f3c
00000090: 20ee 39bd 32aa 243d d253 00be b819 fbbb
000000a0: d33e e6bc 77f8 a43c c4a2 5bbd fdb4 aaba
000000b0: 8d75 2f3c 1939 18bc 2f42 ca3c d7a9 363c
000000c0: 1b64 383c b1a8 753c f2d7 cfba 82f0 423c
000000d0: 4f79 693c 9bab 2a3c 6c22 a53b e133 cd3c
000000e0: 180a 8e3b e92e 6fbc e295 093c 862c 3b3d
000000f0: 8508 c8bb 9233 ed3b 9f79 1c3d 0c0a 523d
00000100: becd a0bc cd5e 663b a596 433c fa78 633d
00000110: f431 13bb ab8d 2c3d 3482 e73c e69c 7bbc
00000120: 25b0 98ba 2547 2f3c 8064 0f3d 4966 053d
00000130: 8511 833c 8a51 833c b9a7 c2bb 861a 47bc
00000140: 651e 91bb bbd5 85bc 11d0 973c 7bd6 3abd
00000150: 20a7 f8bb 2b5c b5bc 4897 bf3c 85ac 333d
00000160: bdfd 8bbd b548 2a3c 5c13 8bbc 4ddd c63c
00000170: 1ced 10bc 8447 bebd c9a2 1c3d d851 25bd
00000180: 8ee1 093d 10ba 85bc e23a 05bc 6ce9 7f3a
00000190: b967 5e3c 1f12 8b3c 3b49 443c d745 033c
000001a0: 5a98 833b d96f 6b3b e951 9c3b a124 813c
000001b0: 88ac a63c 2a4d 5cbd 66b9 973b 7066 c93c
000001c0: 0b27 3ebc 841f f2bb 675f 42bc 4f76 24bc
000001d0: 7510 393a d4cf 373d 2a59 3c3c 2b7a 803c
000001e0: dee4 cebd 4ba6 8e3b 6405 c13d 5b4f 77bc
000001f0: eebe d43c da3d 983a 80b6 213c 7947 693e
00000200: df57 ee3a 4e35 343c 7906 3b3c 2ba4 a0bd
00000210: 8e0a c1b9 6334 043c 9170 41bc bc60 84ba
00000220: 5be2 f0bb a6e6 bfbc 44e1 edbb df7a 553e
00000230: bb33 0b3d 0336 88bc 7d3f 03bd 3b3b a23d
00000240: a996 8f3c 7e5b 8c3c e016 4a3d 55fc 0abc
00000250: a72b 61bd bf9b 273d f7bc 413b b6ab b7bb
00000260: 9a55 903c 67fd 243e 717e 33bc 9520 373c
00000270: d7db dd3c 6762 883c cbd6 6dbd 1aa7 1a3d
00000280: 569a 363e 2714 3c3d ffa6 423c 88ee acbc
00000290: 950e 26bd bd30 493d 87e7 4f3d ef08 39bc
000002a0: 01e2 563d 0282 843d 2d1a a63c 0c5c b03b
000002b0: 13c3 223d 6b0d 883a a992 3cbc 2d49 bd3c
000002c0: 5668 3cbc 9a91 09be b544 83bc fa56 7a3c
000002d0: ef81 8fbc 6b8c 89bb 0a54 f33b 457e d33c
000002e0: 107d 033c e6b7 103a d7bc aabb 6ced a63c
000002f0: 1067 ab3c 9e47 fe3b 234c 903d 4cf2 c8bd
00000300: c9d8 183d ff2a 553e 2ffa bd3b e89d 5fbe
00000310: 7f91 8c3c 013c 65bc 7943 0d3d 0d13 0b3d
00000320: e986 8f3c 8edf 16bd 449e 903c 5600 bb3c
00000330: 138f f1bc f400 38bd 6ec5 2a3a da77 fa3b
00000340: 8910 a63b 8244 9c3d fceb 693d 1b04 ea3c
00000350: aa58 7eba c7c6 c73d ea16 67bd 9629 11bd
00000360: fbf6 163e 8e51 ef3c c2b7 c13c fe60 ae3c
00000370: 6c37 e43b 69a6 5d3b 6760 953c 4282 933c
00000380: c7b1 bf3d dfae 473b 3146 03bc bf05 843b
00000390: 3c58 123d 8313 3f3c 37b3 5fbc 27d3 a23c
000003a0: 0651 79bc 156a 263c b399 16bc 6be5 463c
000003b0: 4bba 00bc 4a59 883d 2476 c33b 8294 013c
000003c0: 6399 433d 534e d23c 5949 8a3c bbf6 cf3b
000003d0: 4485 8b3d 2384 48bd b9fa 753c 859f a23d
000003e0: da2c ca3d 803b 0a3c 15b0 5abd 4fe5 c7bc
000003f0: a643 88bd 505e 6c3a d95c 26bc 5b76 a3bd
0.017920662 -0.048950348 -0.0349352 0.13954572 -0.002610311 0.00438453 -0.007308687 0.017487155
1.7801363e-05 0.07103439 0.010740462 -0.14533181 0.021314664 0.018738057 0.015633468 -0.11924004
0.01003483 0.012103783 -0.039415184 0.008376959 0.05366631 0.009509059 -0.0003808868 -0.0073662302
0.00214545 -0.0037614093 -0.0029243387 0.0024433702 -0.00444204 -0.04912534 -0.0016137259 0.02045474
-0.14243056 -0.00022756668 0.007910481 0.012674034 -0.04539311 0.040201373 -0.12531975 -0.007662978
-0.028106129 0.020138009 -0.053622022 -0.0013023909 0.010709179 -0.009290957 0.024689762 0.011148891
0.011254336 0.014993832 -0.0015857203 0.011898162 0.014250114 0.0104168905 0.005039504 0.025049152
0.0043346994 -0.014598587 0.008397551 0.045696758 -0.006104531 0.0072388137 0.038201924 0.051279113
-0.019629356 0.003515172 0.011937772 0.055535294 -0.0022460194 0.042127293 0.028260328 -0.015357232
-0.0011649175 0.0106981145 0.035007954 0.03256825 0.015999565 0.016030092 -0.0059404043 -0.01215232
-0.004428672 -0.016337266 0.018531831 -0.0456147 -0.007588282 -0.022138676 0.023387566 0.0438657
-0.06835506 0.010393311 -0.016977005 0.024275446 -0.008845594 -0.09290984 0.03824118 -0.040361255
0.03366237 -0.016324073 -0.008131715 0.00097622606 0.013574534 0.016976414 0.01198035 0.008012257
0.0040159645 0.003592482 0.0047705066 0.015764536 0.020345941 -0.053784527 0.0046302555 0.024584979
-0.011605988 -0.007389011 -0.011863566 -0.010037973 0.0007059642 0.044875935 0.011495868 0.015683254
-0.10102247 0.0043533198 0.09424856 -0.015094603 0.025969949 0.0011615113 0.009870172 0.22781171
0.0018184147 0.010999037 0.011415117 -0.078438126 -0.00036819692 0.008069131 -0.011806623 -0.001009963
-0.0073512024 -0.023425411 -0.00725952 0.20847653 0.03398488 -0.016627317 -0.03204297 0.079214536
0.017527895 0.01713347 0.04933822 -0.008483012 -0.05497327 0.040920015 0.0029562095 -0.0056051863
0.017618943 0.1611229 -0.010955439 0.011177202 0.027082367 0.016648484 -0.05806617 0.037757017
0.17832312 0.045917656 0.011880635 -0.021109834 -0.04054125 0.049118746 0.05075791 -0.011293634
0.052461628 0.064701095 0.020276153 0.0053820666 0.03973682 0.0010379975 -0.011509576 0.023106182
-0.011499485 -0.13434449 -0.016023973 0.015279526 -0.017518012 -0.0041976473 0.0074257897 0.025817046
0.008025423 0.0005520567 -0.0052104997 0.020376883 0.020923167 0.0077600023 0.07045772 -0.098118395
0.037316117 0.20817183 0.0057976465 -0.2183758 0.017159222 -0.013991357 0.034488175 0.033953715
0.017520385 -0.036834292 0.017653592 0.022827309 -0.029487168 -0.044922784 0.00065144047 0.007643682
0.005067889 0.07630254 0.057109818 0.02856641 -0.0009702543 0.09754711 -0.056418337 -0.03544005
0.14742653 0.029213693 0.023647193 0.021286484 0.0069646146 0.0033821112 0.018234445 0.018006448
0.0936008 0.0030469222 -0.00801234 0.0040290053 0.035728678 0.011662367 -0.013653568 0.019876076
-0.015217071 0.010157128 -0.009191918 0.012139658 -0.007856916 0.066576555 0.005965011 0.007908942
0.047753703 0.025672114 0.016880678 0.0063465512 0.06812528 -0.04895414 0.01501339 0.07940582
0.09871836 0.0084370375 -0.05339058 -0.024401335 -0.06653528 0.0009016739 -0.010153973 -0.07981559

action_model._discrete_distribution.branches.0.bias f4 [3]
00000000: 8859 69bc ba08 abbc 4c64 2f3d
-0.014242537 -0.020878185 0.04282026

action_model._discrete_distribution.branches.1.weight f4 [2, 128]
00000000: 907c d9ba 9834 07bc 8cfb 9c3b 34f2 b03c
00000010: e395 e9bb 1fde 2abc 635f 233c 7eb0 dc3b
00000020: 25cb 4fbc eb71 b13c 4169 5bbb 324a 163d
00000030: e1a6 8abc d352 863c 5be0 3c3c fc42 e0bc
00000040: df85 023b 1ae0 b43c de67 5ebc 1331 8b3b
00000050: c61f ac3c 8b59 d0b9 e4ee 0fbc 89e8 d4bb
00000060: 877a 763b de59 533d 802f 0a3c e8ca 4cbc
00000070: 89e6 a5bb ef7c 09bc 3384 203c 623e 4c3c
00000080: 063a 3c3e 7313 c6b9 95bb b9b9 ec78 02bb
00000090: 6404 c8bc 8eba 2cbc 91a5 9e3b 45be 273c
000000a0: ef56 9ebc 278a 3fbc 7324 893c 998d 653a
000000b0: be88 12b8 aeb0 3cbc 663b e73a 101e c43b
000000c0: dca9 0d3c 63b3 2f3b 7b35 4fbc 4edf a43b
000000d0: 023c 3b3c 681b 27bc 900b 65bc 9711 19bc
000000e0: 3b89 21bc 472e 833c a575 f0bb 90b8 7bbc
000000f0: ba9a 23bd dcc9 013c ba7a 713d 3309 a5bc
00000100: 0dc0 3bbc 3e11 43bd cc6b 6aba 5397 b3bc
00000110: 9ad2 07bc 0e85 44bc 0119 dd3a 4032 8fbc
00000120: fac8 ba39 e298 e1b7 fcfe 933c abd5 5dbc
00000130: 739c 1fbb 3a89 d139 2d16 a5bb 7516 0abc
00000140: a0af 8dbb 1bdf 2e3c b439 333b f617 b33c
00000150: f610 8ebb 39d8 9dbc 8cf8 0c3c 7d15 40bc
00000160: 0cd5 ab3d f84e 433c ef28 863b f89d 063c
00000170: 122a 063c ed88 97bc 5307 17bc aaa1 10bc
00000180: c8e5 53bb 208d 823b 1183 cb3b 458b 21bc
00000190: faa7 b83b 3dc0 773c 09f3 fe3b 0ec7 15bc
000001a0: 5c57 9eba 15bf 9d3c 81ed 85bb 3f10 71bb
000001b0: e241 a43b 5a0e bd3b 4ef1 63bc ea9a b2bb
000001c0: 01ed 5cbc 2ba5 1dbc 72c6 81bb 0d29 953b
000001d0: 3da7 663c 3b66 19bd d297 e33b 9a2b a5bb
000001e0: a45f 2e3c bcdf 89bc 4dbe 043d de24 07bb
000001f0: a38e fe3c 4b6a 4a3c c7d7 05bb 81b2 0ebe
00000200: 966d 99bb eec4 72bb 15f6 e7bb a517 bdbc
00000210: f4c1 fcbb 5719 96bb 74be 873b 92e4 4a3b
00000220: 06bd 39bc 587c 53bd ce6c 76bb df21 46bd
00000230: 4862 a83c c8b5 403c 4a45 bfbc 215a a63c
00000240: f79a 99bc 64b1 29bb 5471 c13c 0be1 823b
00000250: dde3 16bc 24f9 49bb 3dfc 98bb 1f25 da3a
00000260: 2429 f438 c4f2 87bd d7c5 96bb f8cf 363b
00000270: d843 d4ba ff3c 3cbc 1503 ccbb 6dcd 7e3c
00000280: 4f93 4dbe e131 e93b 92e9 eabb 1c9b c3bc
00000290: 97e5 523c d9ac f23c 3c2c a2bb dd1f c53b
000002a0: 61c1 5e3b c33c 9f3c 35c2 2fbc 363c 4d3b
000002b0: 0bed 03bc c266 36bc 8bab f33a 5c29 333b
000002c0: 39d3 1d3c c789 803c a1c4 1cbc af9e 023c
000002d0: 1524 25bc 7336 8abc ed31 b73b 3d4d f83b
000002e0: f06f 9d3b 2409 133c 7481 46bc 095a 22bc
000002f0: eafc fe3c 67ee 4cba 17bc 91bd b645 9f3b
00000300: 9afc b33c a388 4a3d 293e 2a3b bff0 e83c
00000310: eb36 10bc d978 eaba 2616 12bc 4df7 cc3c
00000320: 39ff 913b 1323 e43b 1abb 093c 69a0 9abb
00000330: 9c12 21bc 3246 31ba dd53 d2bb 312f 533a
00000340: 7644 1dbb ca06 51bb 0624 68ba a9d2 81bc
00000350: 44bf 383c 9433 a63c 642b dabc 721e 17ba
00000360: 9a4e dabd 2ffa a0bc 4d2c 2fba 5fa0 c9bc
00000370: 2919 cabb 6bd6 ddbb 26de 50bc 95b4 41bc
00000380: b818 9fb9 be58 5f3c b503 ff3b 11a5 57bb
00000390: a929 89ba 403b 9fbc 9e5c 1f3c e254 febb
000003a0: 10bf 21bb a80a ec3a 247a fd3a f4ec ccba
000003b0: a9c4 dd3b 4aa6 e3b9 340c 42bc e654 003c
000003c0: aa1a 743b bbd1 7b3b 6139 603b eb1e b63b
000003d0: e38c f13b b601 3b3d 2894 b03b 11ea 413b
000003e0: 3b4d cfbb ea74 68bc 752c 16bd 5e5b 043c
000003f0: ca2a c13b c762 ac3b 17bc 98b9 ea58 1d3e
-0.0016592909 -0.008252285 0.004790729 0.021599866 -0.0071284636 -0.010428934 0.009971472 0.0067349067
-0.012682711 0.021660766 -0.0033479484 0.036691852 -0.016925277 0.016396916 0.0115281 -0.02737569
0.001991622 0.022079516 -0.013574569 0.0042477935 0.021011245 -0.00039739566 -0.008784983 -0.006497447
0.0037609653 0.051599376 0.008434176 -0.0124995485 -0.0050628823 -0.008391603 0.009797144 0.012466045
0.18381509 -0.00037779994 -0.0003542571 -0.00199085 -0.024416156 -0.010542525 0.0048415144 0.010238235
-0.019328563 -0.011690653 0.016741013 0.00087567564 -3.4936464e-05 -0.011516733 0.0017641603 0.005985029
0.008646455 0.0026809804 -0.012647028 0.005031503 0.011427881 -0.010199405 -0.0139798075 -0.009342573
-0.009859378 0.016013278 -0.007338243 -0.015363827 -0.03994248 0.007921662 0.05895493 -0.020145988
-0.011459363 -0.047623865 -0.00089424546 -0.021922743 -0.008289957 -0.011994613 0.0016868414 -0.017480016
0.00035626424 -2.6893282e-05 0.018065922 -0.013539712 -0.0024354726 0.00039965828 -0.005038044 -0.008428206
-0.0043239146 0.01067331 0.0027347626 0.021862011 -0.004335518 -0.019268142 0.00860418 -0.011723873
0.08390245 0.011920683 0.004094235 0.008216374 0.008188741 -0.018497908 -0.009218055 -0.008827606
-0.0032333005 0.0039841086 0.0062106927 -0.009859865 0.0056352587 0.015121517 0.007780437 -0.009141697
-0.0012080478 0.019256154 -0.0040871506 -0.0036783365 0.0050127367 0.005769533 -0.013912512 -0.005450596
-0.0134842405 -0.009621899 -0.003960424 0.004552013 0.014077959 -0.03745101 0.0069455886 -0.005040598
0.01064292 -0.016830318 0.032408047 -0.002062134 0.031073874 0.012354444 -0.0020422803 -0.13935281
-0.004682253 -0.0037043649 -0.007078896 -0.023082564 -0.0077135507 -0.0045806575 0.004142577 0.0030958992
-0.011336571 -0.051632255 -0.0037601474 -0.048372146 0.020554677 0.01176209 -0.02334847 0.020306649
-0.01875065 -0.0025893087 0.02361361 0.0039941124 -0.0092096 -0.0030818665 -0.004668741 0.0016643143
0.0001164249 -0.06638101 -0.004601221 0.0027894955 -0.0016194535 -0.011489152 -0.0062259533 0.015551907
-0.20075725 0.0071165417 -0.007168957 -0.023877673 0.012872121 0.029623436 -0.004949121 0.0060157613
0.0033989775 0.019438153 -0.010727455 0.0031316406 -0.008052121 -0.011132898 0.0018590552 0.0027337885
0.009632879 0.015690697 -0.009568364 0.007972403 -0.010079403 -0.016871667 0.0055906684 0.007577567
0.0048046038 0.008974347 -0.012115825 -0.009909161 0.031126458 -0.0007817507 -0.071159534 0.004860605
0.021971036 0.049446713 0.0025976992 0.02843511 -0.008802156 -0.0017888799 -0.008916413 0.025020266
0.0044554737 0.006962189 0.008406425 -0.0047188294 -0.009831097 -0.0006762474 -0.0064186887 0.00080560433
-0.0023997105 -0.0031894916 -0.00088554656 -0.01584752 0.01127607 0.020288266 -0.026632018 -0.00057647296
-0.10659523 -0.019650547 -0.00066823215 -0.024612604 -0.00616755 -0.0067699454 -0.012748277 -0.011822839
-0.0003034526 0.013631998 0.0077824243 -0.0032904784 -0.0010464686 -0.019437432 0.0097266715 -0.0077615837
-0.0024680533 0.0018008547 0.0019338769 -0.0015634582 0.0067678285 -0.0004342071 -0.01184373 0.007832741
0.0037247338 0.003842457 0.0034213888 0.005557885 0.0073715313 0.04565593 0.0053887554 0.0029588977
-0.0063263453 -0.014188031 -0.03666349 0.008078424 0.0058949934 0.0052607986 -0.00029131837 0.1536595

action_model._discrete_distribution.branches.1.bias f4 [2]
00000000: d989 083c 5c88 08bc
0.008333647 -0.008333292

q1_network.network_body._body_endoder.seq_layers.0.weight f4 [128, 7]
00000000: 9ab5 393e 1a27 7a3e 4af7 5dbe fda4 f73c
00000010: a4dd 843e 525d 69be b84b 063f 2f60 05be
00000020: fd67 e73d 92ca a93e f6a0 9abe 6a3a 31bc
00000030: 1efe 3d3e f489 bfbe d487 21be 8ab7 28bf
00000040: bf4a 74bd 41ec 20bf 23a3 0abe 587f 5cbe
00000050: 123e 90be 3ad8 313f 6e45 df3e 11cc 653e
00000060: e45b 43be 3a68 b5be 3af0 21bd 1834 433e
00000070: 91a5 153e 9d87 623f 2f18 943e dfbc 743e
00000080: 7193 b53e d440 13be 9ebd 35bf 1807 fe3d
00000090: 916e 84be 6eac 81bc b053 253f 8cd3 9e3e
000000a0: fe82 9c3d 38ee e83d f758 0b3e 53f9 7ebe
000000b0: 3ac7 c5bb 40ef 02be 29c5 07be b0c7 0dbe
000000c0: 2c5e 3c3e 27f5 003e 90d9 b8be 42cf d4be
000000d0: b513 7b3e 9f57 6f3e 59bd f53c ff54 a33d
000000e0: b397 6e3e 48dc 823f 262d d93e 8a4f 02bf
000000f0: 426b 42bf a31d ad3d bc2c 2fbe 534e c4be
00000100: c133 0fbb d7fe a3be 54ff cabd 1570 8fbd
00000110: e77d 86bd b0b2 b53e cf1f 023f 6598 2f3e
00000120: a17b 0abf 5a37 2dbf 8e3f 1d3e 6b49 143f
00000130: 5cfa 2c3f b888 0c3e 1a75 16bf 54c1 dc3e
00000140: 44d6 913d 7725 abbd 6f0e 8c3e d93e e3be
00000150: c34c a1bd 587e 5bbe f513 6cbe c8a9 853e
00000160: c51f 9abe 39e2 923e b55f 343d 52f0 a13e
00000170: a81b 133e 258b fe3d 04b6 433c d4e6 f8bd
00000180: a6a2 f4be bfad 2d3e 9340 ca3e c1bf 40be
00000190: b2e9 4f3f d84d 0dbe 943d 34be b4bf 5ebd
000001a0: 1153 463e 0e46 623e 0f82 cabd 52d5 803c
000001b0: e34c d4bd 518e a5be 6fe9 74be 7041 a53e
000001c0: 460a 013d 4e96 cfbd 6259 0f3e 808e 6d3e
000001d0: 2f7a 273f 6006 bebe 3b94 543c 9506 863e
000001e0: 1d13 b8be ea82 35bd 8e5b 2f3f 33f7 4a3e
000001f0: af57 fbbd cb7f 02bf e076 a73c aac4 803e
00000200: 4fe8 9e3e 2a17 383e ade0 83be 74e6 e93e
00000210: 8082 acbe e197 28bd 7a10 5bbd 9839 71be
00000220: f521 3fbf ad08 313e 8303 4c3e 2526 a23c
00000230: 035f c4be e8f3 b1bd a72e 70be 5756 27bf
00000240: 657e 4b3f 901d f7bd fa91 89bd 8b27 ebbe
00000250: d426 8d3e a83c a1be d627 49bd 95b3 223f
00000260: 4a99 a1be 6a42 2cbf 5446 32bf 4c75 5dbd
00000270: 45d2 42bf 6b8d 9abd e1b8 e3bd 6131 a73e
00000280: 38bc 523f bcc1 eb3e 0d3a 3abb ef9f 8c3d
00000290: 3900 14bd ea9d 82be c44e babd 0d6c 043f
000002a0: 79a0 3a3c 8b4f 86be f928 bebc d9d8 023d
000002b0: 756a a93e d824 973e 0788 4abe 95e9 a2be
000002c0: 661d 03bf 9111 02bf 8a73 dabe 03d8 b3be
000002d0: 0510 c73d d783 49bf bade a93e 00a2 55bc
000002e0: e3c3 d0bd 5df3 19be ecde 94bd da93 4bbe
000002f0: 9dc2 413e d92e 15bc 793a 82be d6f4 93bd
00000300: 4b93 40bf 7165 56bf 174a 253f 7b3b 12be
00000310: 8fcc 5ebe 509f 0a3f e3c4 913e 981a 263d
00000320: ba3c a03d 0a5a 01bf 58ec 49be 8464 fabe
00000330: f723 d2be 9745 bebe b747 62be c990 7abe
00000340: 0ae0 e83e 904e a8bc fdf6 71bd 6220 d23e
00000350: 2b87 e3be 0d0a 523e e185 1dbd e231 bfbe
00000360: 7b6f 86bc 39dc 9c3e 4917 003f 91ca 103f
00000370: d795 183f 31dc 3b3e 08cd 14bd 041e a9bd
00000380: d117 02bf adba 83bd 8a92 8d3e 5ac8 6a3e
00000390: 2c2e eb3e 86f1 bd3c bda9 72be a7bc a93e
000003a0: e255 02bf 67cb 56be cad1 223e c334 633e
000003b0: a5f3 0ebf 23b5 51be e1af c8be 7e59 eebe
000003c0: a9d6 4ebf 1bdf a53e 56de 59bf 6018 2cbe
000003d0: 3bbc c3bc 3844 a73e 386e c33e e6e4 083f
000003e0: 8d31 633e a3c1 c7bc 12c1 6fbf 65d8 19be
000003f0: f995 bebe a484 f3be bc19 1ebf 34c9 e6be
0.18135682 0.24428979 -0.21676365 0.03023004 0.25950348 -0.22789505 0.5245929 -0.13024972
0.11299131 0.3316236 -0.30200928 -0.01081715 0.1855397 -0.37409937 -0.1577447 -0.6590506
-0.059641596 -0.62860495 -0.13538794 -0.21532953 -0.28172356 0.6947056 0.43607658 0.22441126
-0.19078022 -0.3543108 -0.03953574 0.19062841 0.1461394 0.8848818 0.289247 0.23900174
0.3546405 -0.14380199 -0.7099246 0.12403697 -0.25865605 -0.015829291 0.6458082 0.31020772
0.07642172 0.113735616 0.13608156 -0.24899797 -0.0060357125 -0.12786579 -0.13258804 -0.13845706
0.18395299 0.12593518 -0.36103487 -0.41564375 0.24519236 0.23373269 0.029997515 0.07975196
0.23300056 1.0223475 0.42417258 -0.50902617 -0.7594491 0.084529184 -0.17106909 -0.38341007
-0.0021850916 -0.32030365 -0.09911981 -0.070038 -0.06566983 0.3548789 0.50829786 0.17147978
-0.5409489 -0.67662585 0.15356275 0.57924527 0.6756952 0.13724029 -0.5877243 0.43116248
0.07120946 -0.08356755 0.27354762 -0.44383886 -0.07875969 -0.21434915 -0.23054488 0.26106095
-0.30102363 0.2868822 0.044036586 0.31628662 0.14366019 0.124288835 0.011945251 -0.12153402
-0.4778034 0.1696081 0.3950239 -0.18823148 0.81215966 -0.13799226 -0.17601615 -0.05438204
0.19367625 0.22097036 -0.09888088 0.015726719 -0.103662275 -0.3233514 -0.23917173 0.32276487
0.03150394 -0.1013609 0.1399894 0.2319889 0.6542081 -0.3711424 0.012974794 0.26176897
-0.35952082 -0.044314303 0.68499076 0.19820862 -0.12272584 -0.50976247 0.020442426 0.25150043
0.31036612 0.17977586 -0.25757352 0.45683634 -0.33693314 -0.041160468 -0.05348251 -0.23557127
-0.7466119 0.17288466 0.19923215 0.01979358 -0.38353738 -0.086890996 -0.23455296 -0.6536612
0.7948974 -0.120661855 -0.06717296 -0.45928606 0.27568686 -0.3149159 -0.049110256 0.6355527
-0.31562263 -0.6728884 -0.6963856 -0.05406694 -0.76102096 -0.075465046 -0.11119247 0.3265486
0.8231845 0.46046245 -0.0028415949 0.068664424 -0.036133025 -0.25511104 -0.090970546 0.5172737
0.011390799 -0.2623256 -0.023212897 0.031945083 0.33089033 0.29520297 -0.19778453 -0.31818834
-0.51216733 -0.50808054 -0.42666274 -0.3512574 0.09719852 -0.78716797 0.3317774 -0.013039112
-0.101936124 -0.15034242 -0.072690815 -0.1988062 0.18921895 -0.009105408 -0.25435236 -0.07224433
-0.7522475 -0.8374854 0.6456618 -0.14280502 -0.2175772 0.5414934 0.28470525 0.040552706
0.07824083 -0.50528014 -0.19719064 -0.48904812 -0.41043064 -0.37162468 -0.2209767 -0.24469294
0.45483428 -0.020545274 -0.059073437 0.4104033 -0.44439062 0.20511647 -0.038457755 -0.37342745
-0.01641058 0.30636767 0.5003553 0.5655909 0.5960364 0.18345715 -0.036328346 -0.08257678
-0.5081759 -0.0643209 0.27650863 0.2292799 0.45933664 0.023186456 -0.23697563 0.33151743
-0.50912297 -0.2097603 0.1590034 0.22188096 -0.5584052 -0.20479254 -0.39196685 -0.46552652
-0.80796295 0.32396778 -0.8510488 -0.16806173 -0.023893466 0.32669234 0.38170028 0.5347427
0.22186871 -0.024384325 -0.93653977 -0.15023954 -0.37223795 -0.47562134 -0.6175802 -0.4507538

q1_network.network_body._body_endoder.seq_layers.0.bias f4 [128]
00000000: da8b 4e3c 0038 513b 5d8a bebb f09b aebc
00000010: d867 4aba 4c52 93bb 8462 ad3d f9e7 af3a
00000020: 635b 8f3c 8f11 973d 3b08 0bbc 0f15 5d3a
00000030: 767e 05bc fb99 1c3d 150a d5bc bce3 283e
00000040: a649 11bc b264 0fbb d900 e7b9 1fe9 553e
00000050: 80b4 cc3c e5ac 1c3b de03 12bb 0a81 4539
00000060: 55f2 3d3c 38da 573d 9ad6 5c3e 9260 613e
00000070: 253f aebc 2606 dc3c d625 503e 3d99 4fbc
00000080: f5dd 32bc 5469 41bc 9c78 003e 8d30 d43b
00000090: 0c93 433d f990 e5ba fd7c e1bb 49bb dabb
000000a0: 5370 5a3d e5b3 a13c 4d6d 06bb e7b4 d4bc
000000b0: c1c2 0db9 5ff0 c23c 27d3 723d 8bc8 bb3c
000000c0: 8b90 81ba 43c5 173d be32 0f3a bd69 bebc
000000d0: 9c24 023d c05f 98bc 4f12 e6bc 0667 9bbc
000000e0: e5d2 a33c 5112 133d f150 c639 3bd5 b6bc
000000f0: 2aea 57bb 4803 5a3e 61ca 373c 371f dc3c
00000100: a5e2 db3b 871f 533c a541 863d 7f28 223c
00000110: f6f5 773c 61e9 f03b 71f6 2bbb 50e9 85bc
00000120: a453 003d f4b2 8d3d d399 933b 1871 6bbb
00000130: fd1c 043d 4ffc f13c 8e32 9f3c d680 4fbc
00000140: 4c3f 7d3b b5b4 8dbc 1631 4dbc 825b e6bc
00000150: 55e9 163e 92a0 dabc 4ec3 17bc 05a1 bdba
00000160: 95d1 cfbc 6611 923a 783c 26bc dae7 233b
00000170: fa15 3f3b 187a b83d 70af 17bc ba74 523c
00000180: 9721 80bc feaa eabc 4e9d 863c a045 9abc
00000190: dc97 3c3c b3e5 8bbd 67e2 b03b a069 bd3c
000001a0: cee0 783d 7122 183d 53a5 7f3c 3cb8 1f3d
000001b0: 95ed 3bbc 7061 97bc 37c4 8fbc 86b9 8dba
000001c0: f28c 72bc b5c9 20bd 957b f13b c6e1 55bc
000001d0: 16a9 1ebd b104 76bd bd19 13bc ea72 8fbc
000001e0: 27be da3d 86d8 7e3d c4fb 873c 61f3 b43c
000001f0: cd01 33bb 6208 2ebd b7f2 173c ea59 1a3c
0.012606585 0.0031924248 -0.005814834 -0.021314591 -0.00077211624 -0.0044958945 0.08466056 0.0013420574
0.017499631 0.07376396 -0.008485849 0.0008433619 -0.008147826 0.038232785 -0.026005784 0.16493124
-0.008867657 -0.0021880087 -0.00044060385 0.2088971 0.024988413 0.0023906764 -0.0022280137 0.00018835455
0.011593421 0.052698344 0.21566239 0.22009495 -0.021270344 0.0268584 0.20326933 -0.012670812
-0.0109171765 -0.011804897 0.12546009 0.0064755143 0.047747657 -0.0017514519 -0.006881355 -0.006675158
0.053329777 0.0197391 -0.0020511926 -0.025965167 -0.0001351936 0.023796258 0.0592834 0.022922775
-0.0009884996 0.037053358 0.0005462578 -0.02324378 0.031773195 -0.018600345 -0.028084902 -0.018970024
0.019998023 0.03590614 0.0003782581 -0.022318473 -0.003294597 0.21290314 0.0112176845 0.026870353
0.0067103677 0.012885935 0.065554895 0.00989735 0.015134325 0.0073520397 -0.002623942 -0.016346604
0.031329766 0.06918898 0.0045044213 -0.0035925563 0.032254208 0.029539255 0.019433286 -0.012664994
0.0038642464 -0.017298082 -0.01252391 -0.028119806 0.14737447 -0.026687894 -0.009262873 -0.0014467543
-0.025368491 0.0011144101 -0.010146253 0.002501002 0.0029157386 0.090076625 -0.009258136 0.012845213
-0.015641017 -0.028645989 0.01643243 -0.018832028 0.0115108155 -0.06830921 0.005398083 0.023121655
0.060761265 0.03714222 0.015603381 0.03899406 -0.011470218 -0.018479079 -0.017549617 -0.0010812737
-0.014804112 -0.039254863 0.0073694685 -0.013054317 -0.03873547 -0.060063068 -0.008978304 -0.01751085
0.106808 0.06221821 0.016599543 0.022088708 -0.0027314306 -0.042488463 0.009274176 0.009420851

q1_network.network_body._body_endoder.seq_layers.2.weight f4 [128, 128]
00000000: a80a d23d a429 843d 7015 35bd 5663 cdbc
00000010: e156 3dbd 067c b4bc d689 34be 1517 a7bd
00000020: 81fb 0f3e 909f c4be 5a27 d73d c2a9 153b
00000030: c9cd cfbd 19d8 d43d 9cb7 783c 3735 e93c
00000040: 0b54 163d e9a4 e83d 6de2 d53d b452 28be
00000050: d070 6fbc e1c0 143e 3393 b83c 2811 0c3e
00000060: 42bd 89bd 48a6 db3c e50f 023e c825 febd
00000070: db74 25bd 0e1c c73d 931c c3bd 31c8 9fbc
00000080: 01ae 60bd 4059 413e 2ae9 a4bd 2817 83bc
00000090: 15e0 2b3d 04d0 2ebd d3f6 45be 9330 c53d
000000a0: f80b 5abd 5dbc 4a3d 8208 bd3d 42eb f53d
000000b0: 0afa 8d3d 347b 48be f8b3 0d3d d513 213d
000000c0: ff6b 973d 5360 423e cf11 413d d529 4cbe
000000d0: 95e2 6dbe 4599 783d 8e9c b93d dee9 fb3d
000000e0: 54e0 8b3d 1f91 c93d 547a 41bd 74ce a5bd
000000f0: eaca 22bd 9503 73be 94a3 ecbc c8b7 a73d
00000100: 4cad 98bd a49a 3f3b de4a ac3d f21c a0be
00000110: bdb1 bebd c896 16be 2ce7 b53c 8891 fdbd
00000120: 34cc 6cbd 023a df3d 965f 54bb 1a6b 513c
00000130: ce3c 8d3d b444 453e cefe a9bc 16a6 8e3d
00000140: a2f7 adbd 758c c7bb 95b3 9e3d f72f ccbd
00000150: 36ca 1c3e 4772 f5bd 267f e03c ae5d 313e
00000160: 1b4c b3bc dcf3 fcbc 225e 35bd 82e9 933c
00000170: c7f0 31be 2e2a debd 8bd1 e33c 9781 0a3e
00000180: cf97 8dbd 78db e1bc fcf3 a13c 8fad 403e
00000190: b58c 563d 271f 4bbd 540e e2bc 0edf ebbc
000001a0: df7c 123d 7e98 83bd 429f efbd 7c3e bdbd
000001b0: 0107 d7bd 0404 c73d 8d1e 42bd a3f4 06bd
000001c0: 64a6 b93d 5855 c23d 6142 443d ac14 043d
000001d0: 6a5a d13d db75 813d ee2f 873d 69cc 1e3d
000001e0: b190 d5bd e38b 87be d660 95bd b216 1e3b
000001f0: a08b 223d 2d20 913d d044 82bd 5429 a1bb
00000200: 1134 cd3b 482c e43a 2046 f6bd 4c73 1bbd
00000210: e46d ac3d 5869 5ebc 8d28 76bd 8d91 bdbd
00000220: 4bb8 9bbd 9dd7 0ebe 9463 cd3d cf93 ea3d
00000230: 1dfd 4d3c 7084 bbbd be3b d8bc cc40 543d
00000240: c688 0bbe a763 86bd 6456 793d c34b 44be
00000250: 4613 10bd 54d9 4b3b efff b63d ca0e 00bd
00000260: 193a 0f3d b493 ccbc bbad 563d 3d99 c6bd
00000270: fb5c 023d 7f38 b93a 6be6 a1bd 806d f83d
00000280: 5df8 4ebd 2b90 dfbc 8fbe 1ebe 1259 1c3d
00000290: 7485 993d 09ad 4a3e d95b 6c3b aec2 0abe
000002a0: 4399 e7bc b64d b03d caa0 47bd a6b3 12bd
000002b0: 29c0 2fbe 8dcd ba3d 0b60 81bc 2021 64bd
000002c0: 08c6 a5bd 6027 3cbc 9330 3c3d ee60 123b
000002d0: 758c 03bd 7419 84bd 5d61 c7bd fd4f 773c
000002e0: 1764 e2bc 4a6e 57be db01 2bbd ec00 a1bd
000002f0: bbb7 ec3d ac9d 2bbe 2971 503d e4ec 903d
00000300: a7eb de3d 3df3 90bb cc2e 79bd ac08 0f3e
00000310: 5b63 99bd 8076 6d3e 21ee 1c3d 4655 d0bd
00000320: 2c3d e8bd c970 603d 0db8 39bd 5be3 99bd
00000330: d213 243c d027 0cbe 5bb7 df3d be3e b43d
00000340: 2a67 a4bd d2fe 40bd cb00 893c 7463 083d
00000350: a4eb dc3d f32d 0b3e 8ac3 223e ada3 c9b8
00000360: 08cd febb 0f17 9a3c 3577 f53c e43a 993d
00000370: e951 1b3e f4b0 253e 875b ca3c ea4b 383c
00000380: 5d2e dd3d d3dc 2cbc 9657 2e3d a2cb c1bd
00000390: 7bed 1a3d e1e0 b53c 069a e03d 427b eabd
000003a0: 5e67 063e 78a1 813c 6973 b73d c340 293d
000003b0: 1568 debd 73c4 9f3d 3c82 a83d 9d40 c33d
000003c0: 5714 d33c 7783 cebd 2fdc 6dbd 7b13 9f3d
000003d0: 0d66 06bd a106 9ebd 3fa1 373c 5bc8 82bd
000003e0: 21c4 44be 8a97 ab3d b7c0 75bd ef6f 5abd
000003f0: 4daa e3bc c22e 0d3e 62f2 383d d768 86bd
0.10255939 0.06453255 -0.044209898 -0.025071781 -0.046225432 -0.022031795 -0.17630705 -0.081586994
0.14060785 -0.38402987 0.105055526 0.002283678 -0.10146672 0.1039278 0.015180495 0.028467758
0.036701243 0.11359579 0.10443578 -0.16437799 -0.014614299 0.14526702 0.022531128 0.1367842
-0.06725551 0.026812688 0.12701376 -0.1240955 -0.040394645 0.09722148 -0.095269345 -0.019504638
-0.054853443 0.18881702 -0.08052285 -0.016002253 0.04196175 -0.042678848 -0.19332437 0.096284054
-0.05323407 0.049496043 0.09230138 0.120077625 0.06932457 -0.19578248 0.03459546 0.039325554
0.073936455 0.18982057 0.047136124 -0.19937833 -0.23230965 0.060693044 0.090630636 0.12300466
0.068298966 0.09842133 -0.0472358 -0.080960184 -0.039744295 -0.23731835 -0.028886594 0.0818935
-0.07454929 0.002923646 0.08412717 -0.31272084 -0.09311245 -0.14705956 0.022204958 -0.123812735
-0.05781193 0.10899736 -0.0032405606 0.012781883 0.06896363 0.1926449 -0.020751383 0.06965272
-0.08494498 -0.006089742 0.07749096 -0.09970086 0.15311512 -0.11984687 0.02740438 0.17320892
-0.021886876 -0.030878 -0.044279225 0.018055681 -0.17377006 -0.10847889 0.027809879 0.13525997
-0.06913721 -0.027570471 0.019769661 0.18816207 0.052380282 -0.049590256 -0.027594723 -0.028792884
0.035763618 -0.0642557 -0.11700298 -0.092404336 -0.10499383 0.09717563 -0.047392417 -0.032948148
0.090649396 0.09488934 0.047914866 0.032246277 0.10222323 0.06321307 0.06600939 0.03876916
-0.10427988 -0.26473913 -0.072938606 0.0024122414 0.039683938 0.07086215 -0.06360781 -0.004918257
0.0062623103 0.0017408216 -0.12025094 -0.037951753 0.084193975 -0.013574921 -0.060097266 -0.09256277
-0.076035105 -0.13949437 0.10028759 0.114539735 0.012572554 -0.0915612 -0.026395675 0.051819608
-0.13626394 -0.06561976 0.060873404 -0.19169526 -0.03517463 0.003110488 0.08935534 -0.031264104
0.034967516 -0.024972774 0.052411776 -0.09697197 0.031826954 0.0014131217 -0.07905277 0.121302605
-0.050529826 -0.027290424 -0.1550238 0.03817088 0.07496157 0.1979257 0.0036065488 -0.13550827
-0.028271323 0.08608572 -0.048737325 -0.035815857 -0.17163147 0.09121237 -0.015792867 -0.055695653
-0.08094412 -0.011483997 0.04594476 0.0022335607 -0.032116372 -0.06450167 -0.097353674 0.015094754
-0.027635617 -0.21038166 -0.041749816 -0.07861504 0.11558481 -0.16759366 0.050889168 0.07076433
0.10884791 -0.0044235275 -0.060835645 0.13968152 -0.07489654 0.23189735 0.038313035 -0.101725146
-0.113397926 0.05479506 -0.04534154 -0.07514068 0.010014491 -0.13687062 0.10923644 0.088010296
-0.080274895 -0.047118016 0.01672401 0.03329797 0.107871324 0.13591747 0.15894905 -9.614914e-05
-0.0077759065 0.018809823 0.029964069 0.074819356 0.15167965 0.16180784 0.024701847 0.011248568
0.10799859 -0.0105506955 0.042563997 -0.09462668 0.037824135 0.022201957 0.10966878 -0.11449291
0.13125369 0.015824065 0.089575596 0.041321527 -0.10859696 0.078011416 0.08227965 0.095338084
0.025766535 -0.10083669 -0.05807131 0.077673875 -0.032812167 -0.07716108 0.011207878 -0.06385871
-0.19215442 0.08378513 -0.05999824 -0.053329404 -0.027791167 0.13787368 0.04515303 -0.06562965
