results/first/SpaceInvaders/SpaceInvaders-54966.pt (torch, 951991 bytes, 83 tensors)

discrete_act_size_vector f4 [1, 2]
000000 00 00 40 40 00 00 00 40
       3.0 2.0

network_body._body_endoder.seq_layers.0.weight f4 [128, 3]
000000 41 15 80 bf 2f 4a ab bf 03 84 2f 3f 79 94 b4 be
       -1.0006486 -1.3382014 0.6856081 -0.35269526
000010 6b 3a 38 be 2e ce a4 3d b9 60 43 bf a6 b7 01 be
       -0.17991035 0.08047138 -0.7631946 -0.12667713
000020 5e 77 83 bf b0 fd 14 bf cf 2c 70 3f 8a 8c c5 3e
       -1.0270803 -0.58199596 0.9381837 0.38583785
000030 f1 0e 15 3f d3 d7 01 be b7 63 cb 3c 40 02 7f 3d
       0.58225924 -0.12679987 0.024827821 0.062258005
000040 85 e2 91 3f 8a 80 7e be 3b f2 68 bc 6a d2 60 3f
       1.1397253 -0.24853721 -0.0142179085 0.87821066
000050 76 d8 5d be 33 d8 f6 3f 21 b7 f2 3e 61 7d cc bd
       -0.21664605 1.9284729 0.4740534 -0.09984852
000060 ae 75 b4 3f 2d 76 81 3f 62 0d 0b 3e 57 31 2c 3f
       1.4098413 1.0114189 0.13579324 0.67262787
000070 9a 64 32 bf fa 36 20 3f 3f 9a ee 3f 92 39 a4 bd
       -0.69684756 0.6258389 1.8640822 -0.08018793
000080 99 64 8b bd 74 1b 48 3f 94 a8 3a bf 8c a0 29 3f
       -0.06806297 0.7816689 -0.7291348 0.662606
000090 66 24 91 3f 3c 02 a9 bd 87 2b 86 be 85 57 2b 3f
       1.1339233 -0.08252379 -0.26205084 0.6693042
0000a0 06 2a 02 3f 33 4d e4 3e ce 10 9a be a4 9f a6 be
       0.5084537 0.44590148 -0.30090946 -0.3254367
0000b0 d9 f0 69 be 86 13 6b 3f 04 f8 29 3f 96 86 00 be
       -0.22845782 0.91826665 0.66394067 -0.1255134
0000c0 56 80 d3 3e c9 5c c2 3e a7 f8 4b 3e 56 a8 08 3f
       0.4130885 0.37961414 0.19919072 0.5338186
0000d0 d7 bb fe be 4f d6 13 3f 87 77 6d be 04 8b c0 be
       -0.49752685 0.57748884 -0.23190127 -0.3760606
0000e0 21 a4 c8 bf 53 f3 04 3f 35 c3 75 3f cd f1 94 bf
       -1.5675088 0.51933783 0.9600099 -1.1636292
0000f0 38 06 1f 3f ce 10 e9 be 3d 7e b7 bf c0 c6 f7 be
       0.62118864 -0.45520633 -1.43354 -0.48393822
000100 e4 e5 91 3e a2 f8 98 be b1 d8 a9 bd 6d 4d cc be
       0.28495705 -0.29877192 -0.08293284 -0.3990282
000110 21 39 71 3d 01 62 55 3f 82 7d 8e be e3 cb d1 3e
       0.058892373 0.8335267 -0.2783013 0.40975866
000120 db a2 b4 be 14 33 8f be 5f 13 7c 3f 58 4f 5e 3f
       -0.352805 -0.27968657 0.9846706 0.8683982
000130 fc 62 b2 be e2 14 32 3f 95 ab 58 be dd 32 11 be
       -0.34841144 0.69563115 -0.21159203 -0.14179559
000140 6d f0 2f 3f bb 44 ff 3d cd 0d 86 bf 68 2b 40 3e
       0.68726236 0.12464281 -1.0472962 0.18766558
000150 5e e0 41 3f ba bc 84 be ed de a8 bf d5 e1 a5 3c
       0.7573298 -0.25925237 -1.3193032 0.020249287
000160 5b 6d 99 be e1 c0 29 be d2 01 2b be a4 9f 7a 3f
       -0.29966244 -0.16577484 -0.16699913 0.9789984
000170 42 3f a6 3f 57 d2 ab bf 40 7f b2 3e 60 a3 90 3e
       1.2988055 -1.3423566 0.3486271 0.28249645
000180 c6 fe 14 3f 9f 48 75 3f d1 c4 24 bd ca 35 3b bf
       0.58201253 0.95813936 -0.04022676 -0.7312895
000190 cc b6 c2 3e a9 f4 a7 3e 4c 79 2b bf db bc f0 3f
       0.38030088 0.32803848 -0.6698196 1.8807634
0001a0 ed 58 19 bf 3d 31 a3 be d1 7d 08 bf e7 95 62 3d
       -0.59901315 -0.31873503 -0.5331698 0.05531874
0001b0 7e 11 3a be 81 94 7e 3f 6f 52 58 bd bf 0e 92 be
       -0.18170735 0.9944535 -0.05281299 -0.28526875
0001c0 46 96 75 bf d4 e1 0a 3f 42 e8 1a 3e 36 ee 1a 3d
       -0.95932424 0.54250836 0.15127662 0.037824832
0001d0 e2 30 63 3f 56 57 9f 3f 88 ae 6d 3e 85 2a 9a be
       0.88746464 1.2448528 0.2321111 -0.30110565
0001e0 a2 27 0e be 0c 45 18 3f 75 e1 cf 3d 77 ee 1c bf
       -0.13882306 0.5948036 0.101504244 -0.6130137
0001f0 f2 1a 86 3c 25 13 63 3d 6a 1f 28 3f 29 9f 3e bf
       0.01637027 0.05543818 0.65672934 -0.7446161
000200 25 57 24 3f a7 20 c2 3d de a0 8e 3e 25 cd 51 bb
       0.6419547 0.09478884 0.27857107 -0.0032013145
000210 92 8a 67 be d1 e1 8d bf ee 03 92 3d 0b 6c 13 bf
       -0.22611454 -1.1084539 0.07129656 -0.57586735
000220 ba 98 a8 bf 39 7b 54 bf 5b fe 9f 3f 6d c9 04 bf
       -1.3171608 -0.8300052 1.2499498 -0.5186985
000230 21 70 8e be 97 d0 2d 3f a6 0f a0 3e 2d 18 17 3f
       -0.27819923 0.6789641 0.3126194 0.59021264
000240 88 cc 38 bd 58 27 21 be 7a 96 38 3f b1 5e a5 3e
       -0.04511693 -0.15737665 0.7210461 0.32298806
000250 4a 18 8d 3e 44 26 03 3e 62 07 e2 3e 2d 29 33 3f
       0.27557594 0.12807566 0.44146258 0.69984704
000260 95 ac 91 3e db 4c 1a 3f 8c 7c 34 3f 47 39 9c 3e
       0.28451982 0.6027352 0.70502543 0.3051245
000270 3b cc 7a bf a5 80 00 bf 3c 16 d4 be 21 00 d6 bd
       -0.9796788 -0.50196296 -0.41423213 -0.10449243
000280 1e ca d6 3f 55 05 9c bd 21 60 a5 3f 07 16 46 3e
       1.6780431 -0.076182045 1.2919961 0.1934434
000290 18 e0 78 3f 90 e1 70 3e 46 00 51 3f cf fe f4 3d
       0.9721694 0.23523545 0.8164104 0.119626634
0002a0 df 27 09 3f e2 5a 52 bf d0 29 d0 3e db f8 f4 3f
       0.53576463 -0.82169926 0.406569 1.9138445
0002b0 0b 35 0e bf 8b de 0a 3e 31 a1 2f be b4 ba 48 bf
       -0.5554969 0.13561456 -0.17151333 -0.78409886
0002c0 00 b5 bd 3d 75 00 82 3f 99 97 fd 3e 53 c5 7e be
       0.09263039 1.015639 0.49529722 -0.2487996
0002d0 99 13 0f 3f 79 74 25 3f ce 88 93 3e 9f 68 be be
       0.5588928 0.6463085 0.2881531 -0.37189195
0002e0 5d cb f7 bc 2f 01 a0 3e c2 30 36 3c 18 74 ba bf
       -0.030248338 0.31250903 0.011120023 -1.4566679
0002f0 14 53 66 3f d5 e3 27 bf a2 13 0d 3f 62 04 05 3e
       0.8997052 -0.6558202 0.5510808 0.12989953
000300 27 0b 5e 3f fe 63 d2 3c 8c 34 c8 bd 4b 89 3f bf
       0.8673577 0.025682446 -0.097756475 -0.7481887
000310 42 c5 1a bf f5 23 1a 3f d3 08 f4 3e d3 9a f1 bd
       -0.6045724 0.60211116 0.47662982 -0.117971085
000320 84 05 68 3e 9e 12 11 3e d3 45 80 3f 22 0c 59 be
       0.22658354 0.14167258 1.0021309 -0.21196035
000330 65 16 2d 3e 22 bc 33 bf ac 85 b2 3e 5c 74 b3 be
       0.16903074 -0.7020894 0.3486761 -0.35049713
000340 68 87 22 bf ec f0 83 3e ea cd 98 3f 05 fc 13 bf
       -0.63487864 0.25769746 1.193784 -0.57806426
000350 dc 48 8f be d8 3a 00 bf e5 47 20 bf 30 1c 70 3e
       -0.27985275 -0.5008979 -0.626097 0.23448253
000360 8e 75 4f be e7 27 09 bf d6 40 3c be 06 b7 ad be
       -0.20259687 -0.5357651 -0.18384108 -0.33928698
000370 3d 9d 57 3f b9 6e 9f bd 34 1e 24 bf 86 75 f3 3d
       0.842243 -0.077847905 -0.64108586 0.1188765
000380 cb b2 b2 be b2 02 99 3f bc f0 a1 bf f8 f8 59 be
       -0.34902033 1.1953948 -1.2651591 -0.2128638
000390 b2 3d 8b 3f d2 95 de 3e 2b 6e 92 be bd 56 91 3e
       1.0878203 0.4347368 -0.28599676 0.2838649
0003a0 57 1b 63 bd 7b 3e b9 3d f5 db 28 bf bd 61 c6 3d
       -0.055445995 0.0904512 -0.6596063 0.09686611
0003b0 2f 0d 50 bd 70 07 d5 3d 97 6d e4 be ef b2 17 3e
       -0.050793823 0.10401809 -0.4461486 0.14814351
0003c0 bc 62 d7 bc 57 b5 7a bf 2f 4c 17 3e 39 c4 9a be
       -0.026292197 -0.9793295 0.14775155 -0.3022783
0003d0 62 ac e5 3e d5 8f 6b be 92 2f 03 40 ee c7 31 bd
       0.4485808 -0.23004086 2.0497785 -0.04340356
0003e0 86 9a 02 3e ec 36 b6 bd c8 f1 11 bf f8 5e 36 3f
       0.12754259 -0.08897194 -0.57009554 0.7123866
0003f0 c2 91 3f be de e8 8e 3d 9a 9f cc bf 3a 8d f4 3f
       -0.18707946 0.0697801 -1.5986207 1.9105599

network_body._body_endoder.seq_layers.0.bias f4 [128]
000000 28 54 c5 be 76 cd d9 be d1 d9 8a 3e 16 ae e3 3d
       -0.3854077 -0.42539567 0.27119306 0.11117189
000010 80 72 32 3f ab 87 94 3e a5 d9 e0 3e b2 b1 3d 3e
       0.69705963 0.29009756 0.4391605 0.18524817
000020 2a 6a 4f 3e 6a 78 b3 be 4f 31 24 bd 43 b1 13 be
       0.20255342 -0.35052806 -0.040086087 -0.14423089
000030 4f 24 41 3e 90 d7 39 3d a1 e6 f5 3e f4 46 26 3f
       0.18861507 0.045371592 0.48027518 0.64952016
000040 b9 bb 07 3e 2c de e6 be ab 24 56 34 e7 67 d2 b7
       0.13255204 -0.4509138 1.9943643e-07 -2.5082334e-05
000050 7e fd 51 34 94 bf 44 3f 91 4d 59 be a1 ee ce bd
       1.9556862e-07 0.76854825 -0.21220995 -0.101041086
000060 0a e2 73 be ec 53 57 be ac 21 9c be 3f ba a6 be
       -0.23816696 -0.21028107 -0.3049444 -0.3256397
000070 00 6c 8c b6 1b f3 ba 3e 5b 13 98 3d 32 b9 33 be
       -4.184898e-06 0.365136 0.07425567 -0.17551115
000080 10 0e bc 3e 7b eb 50 bd 45 58 c9 3e 15 0c b7 bd
       0.3672948 -0.05100582 0.39325157 -0.08937851
000090 63 f7 e9 3e e7 9e 26 be e6 c6 2a 3d 14 7c ff 3d
       0.45696554 -0.16271554 0.04169359 0.12474838
0000a0 15 0c ac 3d 92 a2 51 bd 81 75 98 bd df 73 f6 3d
       0.08400742 -0.05118043 -0.07444287 0.120338194
0000b0 08 07 d2 bd a4 84 42 3d 1d 06 df 3e be 5d 57 be
       -0.10255247 0.047489777 0.43559352 -0.21031854
0000c0 ed 6b 87 be c3 4b ec 3d 22 0a d4 3d 15 36 22 3d
       -0.26449528 0.11537888 0.10353495 0.039602358
0000d0 3e 8b 72 3e 4e 91 07 3f ce 25 45 3e 02 61 2d 3d
       0.23685929 0.5295609 0.19252703 0.042328842
0000e0 ab 71 ed be 0e 24 4c bb d4 0c e0 bd 8f a7 9e 3e
       -0.46375784 -0.003114942 -0.10939947 0.30987212
0000f0 05 37 42 3d 60 22 6c bd 12 cc ed be 5e ef 4e be
       0.047415752 -0.05764997 -0.46444756 -0.20208499
000100 85 c1 20 3f 9e c2 e5 be c1 16 b1 bd ed 23 ba 3e
       0.6279529 -0.44875044 -0.08646918 0.36355534
000110 bc c7 c2 be a4 ba a3 be 9f 12 bb bb bb 93 9b be
       -0.3804301 -0.31978333 -0.005709007 -0.30386147
000120 0f ba 2f 3f b6 8f 17 3f 96 19 99 bd 6c 2a 55 3e
       0.6864328 0.5920366 -0.07475583 0.20816964
000130 f9 c3 8f 3e 9e 39 38 be f6 64 2e 3d 58 78 96 be
       0.28079203 -0.17990729 0.042576753 -0.2938869
000140 1a e9 0a bf 5a 69 0a 3f 58 73 ab 3d e8 1b df be
       -0.54261935 0.54067004 0.083716094 -0.43575978
000150 5d b6 38 b3 ea 7b 37 bd 0b ec f5 be 48 3f 85 bd
       -4.3006697e-08 -0.044795908 -0.4803165 -0.065062106
000160 3d 0c 9e 3e 62 0e 12 be bd 09 80 bc f6 d9 27 3f
       0.30868712 -0.14263299 -0.015629644 0.65566957
000170 a0 e3 68 be 4a c2 d1 3e 50 7b ba be e8 77 36 be
       -0.22743082 0.40968543 -0.36422205 -0.17819178
000180 e8 05 94 bd 94 92 af be 4c b2 a1 3e 89 95 77 be
       -0.07227689 -0.34291518 0.31581342 -0.24178137
000190 c5 04 59 3f 0a 33 59 bd be 1c e1 be 5f fe ba be
       0.847729 -0.05302719 -0.4396724 -0.36522195
0001a0 c8 1e bf 3e 17 ce a0 bc 6b c9 68 3e f1 f3 34 be
       0.37328172 -0.019629521 0.22733085 -0.17671181
0001b0 e2 0e d7 be d6 ce 8c bc 1e 27 a8 be aa 7f da 3e
       -0.42003542 -0.01718847 -0.32842344 0.42675525
0001c0 a6 c4 6d 3e 09 a5 32 bd 27 e6 b0 bc 43 14 b6 be
       0.23219547 -0.04361442 -0.02159412 -0.35562333
0001d0 e1 0b 7e be 2a f9 2f 3f 77 fc 0b be ee ed 99 be
       -0.24809219 0.6873957 -0.13670526 -0.30064338
0001e0 3b 4f 1a 3b 1a 5c 11 be ab ac 17 3f f7 3b b4 be
       0.002354576 -0.1419529 0.59247845 -0.35202
0001f0 59 2d 64 3f ac 7c 4c bd 5d d3 6e 3f d0 32 c7 3d
       0.89131695 -0.049923584 0.93291265 0.097264886

network_body._body_endoder.seq_layers.2.weight f4 [128, 128]
000000 a4 c6 e8 bd a0 db be bd 78 6d 57 be 7f b3 b9 3d
       -0.11366013 -0.09319234 -0.21037853 0.09067439
000010 2e 1a 82 3e 86 a0 9d bd 96 99 ea be b8 9b a6 3e
       0.254106 -0.07696633 -0.45820302 0.3254068
000020 a9 42 ea 3d 87 34 17 bc ba 45 9d 3e a9 6e 96 3d
       0.11438496 -0.009228832 0.3071726 0.073453255
000030 e2 84 ce be f2 83 d3 3c 4f 26 91 be 41 a6 d1 bd
       -0.40335757 0.025819752 -0.2834954 -0.102367885
000040 49 66 0f bd f2 fa 0d bd ad 50 36 be 14 4c 5f bd
       -0.035009656 -0.03466315 -0.17804213 -0.054515913
000050 a8 d8 37 3d fd 40 01 bf 74 d0 93 be 0e ed 1f bc
       0.044884354 -0.5048979 -0.28869975 -0.009761108
000060 30 c4 de bd 64 53 00 be 24 b2 2f 39 a5 7b db bd
       -0.108772635 -0.12531811 0.00016755663 -0.10716943
000070 3a 5a 28 be 0d 9f c6 be 36 bf f1 bd 88 25 01 bd
       -0.16440669 -0.3879322 -0.11804049 -0.031529933
000080 20 c8 8e bd 49 32 3c 3d 6e 27 9b be 9e 5c 98 bc
       -0.069717646 0.045946393 -0.3030352 -0.01859885
000090 76 89 ef bd 20 8f 27 be 20 d9 11 3d 03 07 d7 be
       -0.116961405 -0.16363192 0.035607457 -0.41997537
0000a0 e3 57 ad 3d a1 d4 5d be a6 f9 5d bd e7 fe 96 bd
       0.08464029 -0.21663143 -0.05419316 -0.073728375
0000b0 3d 82 69 be ef b2 b7 3d e2 42 b3 be 81 00 72 3c
       -0.22803588 0.08969676 -0.35011965 0.014770628
0000c0 d7 a1 2c be df 92 5a 3d 5d 63 be bd 5a 06 c2 3d
       -0.16858612 0.053362723 -0.09296296 0.09473868
0000d0 e9 a7 b2 be fd f0 e1 3d c6 cb 51 3e 83 bd 9a 3d
       -0.3489373 0.11032293 0.2048789 0.07555678
0000e0 66 21 5c bc c2 41 be 3d 31 6f 4f be 3f fa 23 bf
       -0.013435697 0.09289886 -0.2025726 -0.6405372
0000f0 e6 5e 85 3d 94 f7 8e bd 17 09 d8 bd 78 5c 98 3d
       0.06512241 -0.069808155 -0.10548609 0.07439512
000100 fc 32 25 be 9f 3f ea bd 8a 6b b0 3d 15 1d 6b be
       -0.1613273 -0.11437916 0.086142614 -0.22960313
000110 a6 d5 40 bd 4e 7f 95 3d 6e ce b7 3e 68 db 11 be
       -0.04707875 0.07299672 0.3589968 -0.14243853
000120 47 84 04 bf 99 2d b7 bc 55 a6 6c be 2a 76 a4 be
       -0.5176434 -0.02236061 -0.23110326 -0.32121402
000130 6f 69 31 bf 44 49 00 3d b8 54 72 bd ed a2 51 bd
       -0.69301504 0.03131987 -0.059162825 -0.05118077
000140 63 ba 76 be 94 bc c1 be 2b 89 56 3c e9 16 8b 3d
       -0.24094538 -0.37839186 0.013094227 0.06791479
000150 29 20 b2 3d c9 10 9f 3d cd 51 7e bd b2 ba 37 3e
       0.0869754 0.077668734 -0.06208973 0.17942312
000160 5c 12 cc be 06 c1 1c be 93 47 79 3d 9e 94 5f be
       -0.39857757 -0.15308008 0.060859274 -0.21834037
000170 4c b5 2b 3e 1b c6 3a be b3 1f 0f be 66 82 5f 3d
       0.16768378 -0.18239634 -0.13976936 0.054567717
000180 9d b9 47 3d 12 81 14 bd b1 c9 af be 50 e6 8e be
       0.048761 -0.036255904 -0.34333566 -0.2791009
000190 f7 6e a0 be 4a dd 2d 3c 5c 57 9f 3c 38 5f 7e 3b
       -0.3133466 0.010611841 0.019450836 0.003881408
0001a0 19 51 ab be 4d 0c 85 be d9 77 4f be 17 ab a1 bd
       -0.3346031 -0.25985947 -0.20260562 -0.07893961
0001b0 eb 3d f7 bc 77 f0 2c 3d e2 42 b1 3d 76 57 26 be
       -0.030180892 0.042221513 0.08655335 -0.16244301
0001c0 97 b1 41 3e 88 17 98 be 61 95 ad 3c c7 d0 75 bd
       0.18915401 -0.29705453 0.021189393 -0.06001356
0001d0 df d6 51 bd d5 f7 e1 3c 53 10 3a 3d 3a f2 7f bd
       -0.051230308 0.027583996 0.045425724 -0.062486865
0001e0 dd 8c 1f 3e a8 2c d4 b7 a2 e1 a7 3d 1d 6b 9c bc
       0.15581079 -2.5293164e-05 0.08197333 -0.019094044
0001f0 6e 27 87 be 4c 62 33 bd c7 9e f8 be 13 12 9d bd
       -0.2639727 -0.043794915 -0.48558637 -0.07669463
000200 d7 87 ef bd 66 9e ef bc ec 73 34 3e 58 e9 05 be
       -0.11695831 -0.029250335 0.17622346 -0.13077295
000210 f6 b8 86 3d 65 b2 95 3d 76 7e 86 3d 90 a6 6d 3e
       0.06578247 0.07309417 0.06567089 0.2320807
000220 34 08 21 3d ad b6 cb 3c 51 c8 42 3e f6 86 d7 bc
       0.039314464 0.02486738 0.19021727 -0.026309472
000230 57 db 94 be 08 44 71 bd 57 f9 28 be 2f d0 ae 3d
       -0.29073593 -0.05890277 -0.16501366 0.085358016
000240 7f 49 1d 3e 0a 71 92 3b c5 2f 38 bd 4c b0 bb 3c
       0.15360068 0.0044690417 -0.04496743 0.022911213
000250 53 84 43 bd b6 37 81 bd a6 f7 ae 3d c2 54 66 bd
       -0.047733616 -0.06309454 0.08543329 -0.056233175
000260 02 fa 17 be a3 51 8d 3d 86 dd 9e bd d3 e5 82 3b
       -0.14841464 0.069003366 -0.07757096 0.0039946823
000270 e0 0f 8b bd 7b 6d 3d be a0 2e 22 bd e9 6e 70 be
       -0.06790137 -0.18498795 -0.039595246 -0.23479809
000280 60 e0 1f 3c 94 9c e0 3c bd 83 af 3d 39 a2 db be
       0.009758085 0.027418412 0.08570049 -0.42897204
000290 a9 9c 7f 3c 4d 88 e5 3c 6a 1b 3b be c0 bb 81 be
       0.015601316 0.028019095 -0.18272176 -0.25338554
0002a0 a6 d6 9f bc cb 61 05 3d 57 7a 06 3e 08 40 07 be
       -0.019511532 0.032563966 0.13132606 -0.1320802
0002b0 33 75 13 be ec 77 bb 3d 51 f2 20 be 09 58 bf bc
       -0.14400177 0.09153733 -0.15717436 -0.023357408
0002c0 47 7d 97 bd 9c 3a e0 3d 70 68 7e bc 0e 0e 69 3d
       -0.07396942 0.10948679 -0.0155278295 0.05689817
0002d0 7d 9d 88 3d fe 02 80 3d d4 63 d7 3d 3e f5 a1 3d
       0.066706635 0.06250571 0.105170876 0.07908104
0002e0 b2 44 c3 3d 11 ab 07 3e de 8c a0 be 54 93 c9 be
       0.09534587 0.1324885 -0.31357473 -0.39370215
0002f0 ee 22 88 3d f1 3a 05 bc b3 0b 83 3c 14 f7 4e be
       0.06647287 -0.0081317285 0.01599679 -0.2021144
000300 56 78 24 3e a5 4e 3b 3d f3 a1 72 3e 86 dc 88 be
       0.1606153 0.0457293 0.23694591 -0.26730746
000310 fd cd 62 bd ea 90 07 3d da 80 97 be 52 27 fb 3c
       -0.055372227 0.033097185 -0.29590493 0.030658398
000320 7b 97 94 bd 49 94 03 be 74 9a 6c be bb 40 2b be
       -0.07255455 -0.12849535 -0.23105794 -0.16723911
000330 6c 3d 8a be a8 53 00 bd 6a 93 11 be c4 a0 80 3d
       -0.26999986 -0.03132978 -0.1421639 0.062806636
000340 e3 76 b3 3a 34 ae 10 be a6 93 19 be 42 7e 1b be
       0.0013692047 -0.14128953 -0.1499773 -0.15184882
000350 61 1b 30 bd 72 e9 ae 3d 68 aa 40 bd b3 cb 8b bd
       -0.04299486 0.0854062 -0.047037512 -0.06825962
000360 79 10 59 bd 74 67 eb bd c5 25 c7 bd ea 8a 34 be
       -0.052994225 -0.114943415 -0.09724001 -0.17631117
000370 66 61 86 bd e9 37 4d 3d 3d 87 db bd 80 56 cd bc
       -0.06561546 0.05010215 -0.10719154 -0.02506566
000380 03 6b c6 bd ea 91 d0 3d 49 eb 9a bd 29 56 b1 be
       -0.096883796 0.10184081 -0.07564408 -0.34636047
000390 80 a6 a2 be 62 2a 8a bc 5b fa e9 bd 9d 48 bb bd
       -0.31767654 -0.016865913 -0.11424705 -0.09144709
0003a0 f5 8f ac be 89 36 51 be 05 65 65 bd f3 12 07 bd
       -0.3370358 -0.2043096 -0.056004543 -0.032977056
0003b0 31 2f 16 3e 4c 6c b1 bc 79 75 a7 bd 58 e7 d8 bc
       0.1466644 -0.021658085 -0.08176703 -0.0264775
0003c0 f4 a6 ed bd cd c9 5a bd d5 7c 1f be 78 13 28 3e
       -0.116041094 -0.05341511 -0.15574963 0.16413677
0003d0 8c f6 01 3d 07 75 69 3d 63 fc 5c bd e9 27 88 bc
       0.031729266 0.05699637 -0.053951632 -0.016620593
0003e0 8f 50 f1 bd b2 95 6a 3d 6f f6 32 3b 63 66 18 bc
       -0.117829435 0.057271667 0.002730753 -0.009301755
0003f0 d2 24 78 be d5 86 2e be b0 26 da bd 36 68 fc bd
       -0.24232796 -0.17043622 -0.1065191 -0.12324564

network_body._body_endoder.seq_layers.2.bias f4 [128]
000000 b5 34 82 3d cd 7c cc 3c cf b2 6e 3e 49 01 18 bd
       0.06357709 0.024961853 0.23310398 -0.0371106
000010 99 8b 4a be b5 d8 ef 3d 59 d0 48 3c 94 9a af 3d
       -0.19779815 0.117112555 0.012256705 0.08574405
000020 f6 04 2b 3e 9a 0f 91 3e 5c a7 84 3e 5e ca 68 3e
       0.16701111 0.28332216 0.25908935 0.22733447
000030 2d b7 fa bb 12 8c 37 be 3c 80 28 be 65 0b 46 bc
       -0.007651231 -0.17924526 -0.16455168 -0.012087678
000040 95 6e 11 3c 44 4a 97 3d 24 4b 69 3d 00 24 8e bd
       0.0088764625 0.07387212 0.056956425 -0.0694046
000050 9f 8e 75 3d 84 bd 54 3d 6f 39 a5 3d ad 30 4d bb
       0.059950467 0.05193855 0.08067595 -0.003130953
000060 42 17 1c bd 73 85 51 3e 8a 0b 3d bd ab 84 dc bd
       -0.038108118 0.20461063 -0.046153583 -0.10767492
000070 23 7c 88 3d 6c f6 12 3e b2 5f 40 be ea 89 73 bc
       0.06664302 0.14351815 -0.18786505 -0.014864424
000080 19 8a f1 bc 67 65 bd 3d 69 1d d4 3b 81 a5 d8 3d
       -0.029484795 0.092478566 0.0064732325 0.10578442
000090 80 0a 40 3d 41 f6 74 bd e6 6f 55 be a7 05 ee bc
       0.046885014 -0.05980516 -0.20843467 -0.02905543
0000a0 d3 b2 91 3d b8 e7 ba 3c 9d 97 28 3e 2b 2f 98 bd
       0.07114186 0.02281557 0.16464086 -0.074308716
0000b0 11 fe 22 3d d4 78 6d be 2a 85 b3 3c 68 02 46 3d
       0.039793078 -0.23190624 0.021914084 0.04834214
0000c0 01 70 0e 3e e3 44 ce bd dd 6d fe 3c 1e 82 9e 3c
       0.13909914 -0.10071733 0.031058246 0.019349154
0000d0 9d 9b 56 3d f1 6a 62 bd 38 02 01 3c 84 d1 4f 3d
       0.0523945 -0.05527777 0.007874064 0.05073692
0000e0 4d 20 68 3d 88 7b 43 3e ee 37 fe 3c 77 3b 5e be
       0.05667143 0.19090092 0.031032529 -0.21702372
0000f0 6d 60 22 3e ba e8 14 3e 81 e1 01 be c6 8b 98 bc
       0.15857096 0.14541903 -0.12683679 -0.018621337
000100 4d ae d9 3d c9 9c 8a 3c 0d d5 9c 3e 1a 2a bb 3d
       0.10628948 0.016920464 0.30631295 0.091388896
000110 9d a2 15 3c 2c 56 36 bc c1 83 d8 3d 7c 6b a9 bc
       0.009133008 -0.011128943 0.10572005 -0.020681135
000120 ba 02 cc 3d 59 d5 dc 3d c3 f2 ff bc a3 19 5d bc
       0.099614576 0.1078288 -0.031243687 -0.013494882
000130 64 42 65 be 41 b9 93 3d 87 8c fc bc d9 be 9e 3e
       -0.22388607 0.07213069 -0.030828727 0.3100498
000140 b6 a7 f7 3c cc 46 91 bd fe d9 a2 3d fd c0 52 3c
       0.030231338 -0.070935816 0.07951735 0.012863395
000150 4d e6 a2 3b 5d 72 6a 3d 7a 74 76 3e 8e b4 1a 3e
       0.0049713016 0.05723797 0.2406787 0.15107939
000160 cf 3d 3a be b5 00 0b bd 91 6d ac 3e 94 b6 b8 3c
       -0.1818764 -0.03393622 0.33677343 0.022547998
000170 f8 3f 19 bd e8 56 ac bd 48 a8 ce bd c4 5b 5c 3e
       -0.03741452 -0.084150136 -0.10090691 0.21519381
000180 c6 da 0d 3e 8b b8 16 bc e9 38 66 be b0 22 a6 3d
       0.13852987 -0.009199272 -0.22482647 0.08112085
000190 ad 86 af 3c 58 68 cb bc 40 7d 69 be 1d 46 28 bb
       0.021426523 -0.024830028 -0.22801685 -0.0025676556
0001a0 e2 fa 92 3e e1 85 01 be d0 b7 b4 3c 30 1d 7f 3e
       0.28707033 -0.12648727 0.022060305 0.24913478
0001b0 eb eb 90 bb f3 3c 23 3e de 8c aa 3d fe b0 88 3d
       -0.004422655 0.15941219 0.083276495 0.066743836
0001c0 95 64 c0 3d 27 a7 e0 3c a3 6d c8 3d 24 8a 8b 3e
       0.093941845 0.027423454 0.097865365 0.2725383
0001d0 ce 59 4f bd 5e 80 a9 3d e0 66 f4 3d 35 17 07 3e
       -0.050622754 0.08276437 0.11933684 0.13192447
0001e0 7b 1a d7 3c 44 d4 b8 3d 63 5e aa 3d cf 22 7b 3c
       0.026257744 0.090248615 0.08318784 0.015328123
0001f0 03 05 83 3c 00 17 94 bb 55 65 1a 3e 3a 1e b2 bc
       0.0159936 -0.0045193434 0.15077718 -0.021742929

action_model._discrete_distribution.branches.0.weight f4 [3, 128]
000000 67 65 50 3e 1b 82 db 3d 45 02 dd 3d 52 fe 0f be
       0.20351182 0.10718175 0.107914485 -0.14061859
000010 f0 0f 85 bc 16 ed 58 bd af 44 e4 3e dc 0e 9a 3d
       -0.016242951 -0.052960478 0.4458365 0.075223655
000020 c6 d4 00 bd 67 bf 71 bd 25 cb 9c 3b e2 9a f8 ba
       -0.031452917 -0.059020426 0.004784959 -0.0018967057
000030 54 cc 55 bd aa 0c 3e bd 7f b9 65 bd f5 71 f5 3d
       -0.052196816 -0.046398796 -0.056085106 0.11984626
000040 33 a3 b5 3e a9 92 b7 3b f2 cd 74 3d 05 72 13 3e
       0.35476074 0.0056022 0.059766717 0.14398964
000050 62 b6 91 3e 34 09 8f be c5 13 a2 bd 30 01 c1 bd
       0.2845946 -0.2793671 -0.07913927 -0.094240546
000060 c8 79 26 3e a9 50 39 bd e6 90 64 3e ec eb 11 3c
       0.16257393 -0.04524294 0.223209 0.008906346
000070 ab d5 e0 bd 1a 6c 02 3e 66 e2 64 3d f7 9f 47 bd
       -0.10978254 0.1273655 0.055879973 -0.04873654
000080 e5 aa f3 3c 9c fb 35 3d 34 ae 8d bd e4 66 a0 3e
       0.029744575 0.044429407 -0.06917992 0.313285
000090 6b 64 df bd 4f 7e 9e 3c 0a 11 63 bd 1d 11 68 3d
       -0.10907825 0.019347338 -0.05543617 0.056656945
0000a0 08 eb 48 3e 10 ce 84 3d 43 b4 e4 3d 48 3c 86 bd
       0.19620907 0.06484616 0.11167195 -0.065544665
0000b0 f7 60 e6 bd 3b 16 70 bd a0 e2 9d 3d 22 fc 57 3e
       -0.11248963 -0.05861495 0.07709241 0.21092275
0000c0 07 f7 07 3e d1 ce cb 3d 1b fd 8e 3d 44 0b 26 bd
       0.13277827 0.099515565 0.0698187 -0.040538087
0000d0 2e ef a9 3d 6a 17 50 3d 2f 18 f2 3c 93 3a a7 3b
       0.08297573 0.05080358 0.029552547 0.005103418
0000e0 cf 6e 3b 3e de e1 a1 bd 85 37 f4 bd 91 d7 62 bd
       0.18303989 -0.07904409 -0.11924652 -0.05538136
0000f0 84 5a 8e 3d de db 55 3c e1 c9 8e 3a 35 0e 26 3e
       0.06950858 0.013052909 0.0010893905 0.16216357
000100 92 34 11 bd 1f 20 f9 3d b8 2d 2d 3e a7 a9 27 3e
       -0.035450526 0.1216433 0.16911972 0.16373311
000110 52 e3 18 3e a7 cc b0 bd f2 e2 8c ba e4 49 80 3e
       0.14930466 -0.08632784 -0.0010748787 0.25056374
000120 db f9 60 3e 6a 90 38 be 0d 79 62 be 42 5a 43 bd
       0.21970312 -0.1802384 -0.2211649 -0.0476935
000130 16 86 d3 3d 7b 70 b3 3d 96 90 be 3d ed 89 5f bd
       0.10328309 0.08761688 0.09304921 -0.054574896
000140 23 3f e1 be 79 28 26 3e 31 18 bd 3d a4 85 cc bd
       -0.43993482 0.16226377 0.0923313 -0.099864274
000150 61 01 41 be 8f 6a a9 3c d9 62 9a bd f1 89 26 3e
       -0.18848182 0.020680694 -0.07538385 0.16263558
000160 30 f0 a8 bc 6a 6a b5 3e f9 e9 f1 3d ca 38 e9 3b
       -0.020622343 0.3543275 0.11812205 0.0071173655
000170 43 bd 71 be b8 ee d1 bd 67 ae 23 bd c3 3a 3d bd
       -0.23607354 -0.1025061 -0.039961245 -0.046198618
000180 77 16 8c bc 06 62 47 be e8 91 4a 3d 6d 69 88 3d
       -0.017100556 -0.19470987 0.049455553 0.06660733
000190 75 f5 5a 3d 43 ff 82 3d 97 0d 5c bd 58 9b db bd
       0.053456742 0.063963436 -0.053723898 -0.10722989
0001a0 c5 d0 15 3e 59 db c3 bc 2b 97 5c 3d c4 78 ac bd
       0.1463042 -0.023908304 0.053855103 -0.08421472
0001b0 c2 cf 28 3e cd 03 cc 3c 46 eb 24 be a0 29 a9 bc
       0.16485503 0.024904156 -0.16105375 -0.020649731
0001c0 9a fe da 3d db 23 7e 3e bb f3 fd bc 98 9d 94 be
       0.10693093 0.24818365 -0.031000009 -0.29026484
0001d0 f7 32 56 bd f9 78 9a 3d ef d1 1a bd 16 3b e9 bd
       -0.052294698 0.07542605 -0.037797865 -0.11388223
0001e0 53 cb 93 bc 53 bb e9 3d d9 e3 8b 3d f2 bc d4 3c
       -0.018041288 0.114126824 0.06830568 0.025969002
0001f0 03 49 af 3c 8a 7b f7 bc 39 9b ac 3d 55 6b 9b bc
       0.02139712 -0.030210275 0.08428044 -0.018972078
000200 d4 12 89 be 1e ce 05 be 05 b8 bb be ba 88 1e 3d
       -0.26772177 -0.13066909 -0.36663833 0.03870461
000210 aa 27 e9 3b 1e 69 c1 bc 14 66 b0 be 54 74 19 be
       0.007115324 -0.023609694 -0.3445288 -0.14985782
000220 f4 b5 f0 3e c2 0a 5a be 73 27 3b 3f 9d 23 92 bd
       0.4701382 -0.21293166 0.7310707 -0.07135699
000230 44 1e b1 3c 86 ae 15 3c 6f fb 96 3c 5f 9b 9c bd
       0.021620877 0.009135848 0.01843044 -0.07646822
000240 dc 63 a4 be c5 9d 75 bc 6c d2 8e be 8f 27 a0 bb
       -0.32107437 -0.0149912285 -0.27894914 -0.0048875283
000250 22 28 a5 be f8 04 d4 bc 55 4f 95 bd 13 11 2b 3d
       -0.3225718 -0.025881276 -0.07290522 0.04176433
000260 ef 91 7c 3e a5 09 51 bc 58 56 ae 3e 97 55 fc 3b
       0.24665044 -0.012758647 0.3405025 0.007700633
000270 f5 f2 ce bd 71 f5 21 be bb 52 a8 bd 84 f2 b7 3d
       -0.10104934 -0.15816285 -0.082189046 0.08981803
000280 61 11 a2 bd 85 bf 31 be 6d a9 fd bd ff 86 c0 be
       -0.07913471 -0.17358215 -0.12385831 -0.37602994
000290 49 dc 01 3f 2c b9 2c 3d 36 4b 03 3e cc fc 97 bd
       0.50726753 0.04216878 0.1282166 -0.07421264
0002a0 5c b7 e9 3d b7 07 4c be 58 67 d0 3d 54 33 c1 3d
       0.11411926 -0.19924818 0.10175961 0.09433618
0002b0 e5 a4 82 3d 61 c3 34 3e a6 83 c9 3e 8a 70 21 3d
       0.063791074 0.17652656 0.39358252 0.039413966
0002c0 0c 7e 9a bd 6f 4b b2 3d b0 e3 a9 be da cb 93 3c
       -0.07543573 0.08705794 -0.33181524 0.01804154
0002d0 ab bc 51 3d 29 40 91 bd 76 6e 15 bd 46 59 cf 3e
       0.05120532 -0.07092316 -0.036482297 0.40497798
0002e0 84 f8 1f 3e b3 43 15 3f 35 0c c2 bc e4 dd b9 3d
       0.15622145 0.58306426 -0.023687461 0.090755254
0002f0 30 cd 86 be 7f 9c d8 3b de 54 a1 3d f9 50 35 bc
       -0.2632842 0.0066104527 0.07877515 -0.011066669
000300 e1 36 1a 3c c3 ee 87 be 6d 1a 1f bf a8 e2 d5 3e
       0.009412498 -0.26549348 -0.621497 0.41774487
000310 ea c8 02 be 91 0e 4a 3d 4a a5 cb bc 18 12 7e 3d
       -0.12771955 0.049330298 -0.02485909 0.062028974
000320 74 be 09 bf 8d 45 22 3f eb df 3f 3d b1 28 8b 3d
       -0.53806233 0.63387376 0.046844404 0.06794871
000330 29 ac a2 bd 5a 3a 8d 3d 38 23 2c be a6 01 98 be
       -0.07942993 0.06895895 -0.1681031 -0.29688758
000340 75 dc 2d 3e bd 43 2a 3e 77 5a f4 bd 9e 84 08 bc
       0.16978629 0.16627403 -0.11931317 -0.0083324
000350 e9 cd 0a 3e b3 f1 61 3d 59 27 85 3f d4 41 6e be
       0.13555111 0.055162143 1.0402633 -0.23267299
000360 75 45 16 3c f6 68 65 3e 66 61 5e bf 6a 75 e7 3d
       0.009171833 0.2240332 -0.8686737 0.11301692
000370 fe d0 3a 3e cd 71 c8 bd 11 8b 4e be b1 d5 25 3f
       0.18243787 -0.09787331 -0.20170237 0.6477919
000380 4e e0 73 3e ce b9 45 3e 9a b2 56 bd 7f 5b 29 be
       0.23816034 0.1930916 -0.05241642 -0.16538809
000390 dd 7a dd bd b5 90 58 bd af 25 f9 3d 51 3b fd bd
       -0.1081445 -0.05287238 0.12165391 -0.12364829
0003a0 c6 98 1d bf 74 1a 67 be 36 13 94 bd 9b d5 3d 3f
       -0.6156124 -0.22568685 -0.07230227 0.7415406
0003b0 d5 4b d4 bc 82 63 8e 3e 5f a1 18 3f b8 ae 96 3e
       -0.025915066 0.27810293 0.5962123 0.29430175
0003c0 d2 e8 c0 bd b1 cc 10 3c f0 6a a7 3e df 59 9d 3f
       -0.09419407 0.008837865 0.32698774 1.2293051
0003d0 74 9f 68 bd da a9 0c 3e b6 3e 4d 3d 52 4e a7 3e
       -0.05679269 0.13736668 0.050108634 0.3267694
0003e0 f5 a4 4b bd a8 8c 14 be 72 8e 7b 3e 20 75 52 be
       -0.049717862 -0.14506781 0.24566057 -0.20552492
0003f0 1b a4 6f be ea ce c5 bc d5 72 f2 bd f0 62 49 3c
       -0.23402445 -0.024146516 -0.11838309 0.012291655

action_model._discrete_distribution.branches.0.bias f4 [3]
000000 4e 31 59 3c 43 39 98 bd b3 93 b8 3d
       0.013256384 -0.07432797 0.090125464

action_model._discrete_distribution.branches.1.weight f4 [2, 128]
000000 a2 59 c8 3d 23 2d 14 3e 60 b7 34 3e 87 77 43 be
       0.09782721 0.14470343 0.17648077 -0.19088565
000010 ac 03 14 3c e9 4c d3 3d 5d 4c 88 3d 38 c8 16 3d
       0.009034079 0.10317404 0.0665519 0.036812037
000020 8f 5a b8 3e 0b ae 96 bd 8d ec 83 3e 05 7d 60 bc
       0.3600659 -0.07357415 0.2576641 -0.013701682
000030 b0 b8 d1 3d 1c 01 ab 3c da 44 c7 3b e3 5d 9f bd
       0.102403045 0.020874552 0.006081206 -0.07781579
000040 be 9b 7f 3d e9 b9 03 3e 57 89 0d 3e 5e af 80 bd
       0.062404387 0.12863888 0.13821922 -0.06283449
000050 b7 1b dd 3d 9a 80 4f be e8 f9 70 3e b5 9a 85 3d
       0.10796302 -0.20263901 0.23532832 0.06523649
000060 fb 14 65 3e 32 2a 4f bd 51 5f a1 3d 10 31 a9 3d
       0.22371285 -0.05057735 0.07879508 0.08261311
000070 9d dc 1a 3d 2e 3d 0c 3d 89 30 6f 3d 85 ed 75 3c
       0.03780805 0.034238033 0.058395896 0.015010242
000080 41 d7 6d be 54 1a 07 bd 13 e8 60 3e 94 33 49 3e
       -0.23226644 -0.032984093 0.2196353 0.19648582
000090 86 64 cf 3e f8 86 f4 bb c9 96 a1 3d b8 62 ec 3e
       0.4050638 -0.0074623786 0.07890088 0.46169066
0000a0 5a 05 0e 3d d8 a4 c5 3d 62 c5 84 bd 09 1e 01 3e
       0.034673072 0.09650582 -0.0648296 0.12609114
0000b0 ac 78 91 3d bf c7 1b 3e 89 8f d1 3e 83 b3 15 be
       0.071030945 0.15212916 0.4092982 -0.1461926
0000c0 aa 90 7a bd 91 6a a3 3d 55 e9 44 3e a3 de db bd
       -0.06117312 0.0797931 0.19229634 -0.10735824
0000d0 05 fc fa 3c cc 88 d4 3d 1f b7 95 3e 56 34 12 3f
       0.03063775 0.103776544 0.29241273 0.5711111
0000e0 45 ee 02 3f d5 04 43 3e 37 50 a2 3e 63 e7 01 3e
       0.5114482 0.19044812 0.31701824 0.12685923
0000f0 76 41 34 bb 61 d1 1e 3e 7d 0e 53 3c 47 8c 8f 3e
       -0.0027504838 0.15509559 0.012881872 0.2803671
000100 c5 f5 de 3d 75 78 89 3c 67 85 0b 3c af 5f fc 3d
       0.108867206 0.016781071 0.008515692 0.12322938
000110 5d 5a 1c bc a4 0f ce 3d a5 33 53 3e 59 79 d2 bd
       -0.009543029 0.10061577 0.2062517 -0.102770515
000120 a2 3d 36 3e 94 31 01 3f 9e 33 46 be d2 ff 5b 3d
       0.17796949 0.50466275 -0.19355628 0.053710766
000130 f8 15 a1 3d e3 3e 44 3e 3a 8c f1 3d 67 58 0b be
       0.07865518 0.19164614 0.11794324 -0.13607942
000140 61 8a 0f bf f9 3a be bc b2 d1 60 3d 6b 07 d9 3d
       -0.56070524 -0.02322148 0.05488748 0.10597118
000150 93 46 ff 3e 93 60 ec 3e 33 47 bb 3e cf 05 2c bd
       0.4985853 0.4616743 0.36577758 -0.041997727
000160 2e c0 ef 3c f9 c5 08 be 85 02 31 bc 21 73 b6 3e
       0.029266443 -0.1335677 -0.010803823 0.3563471
000170 e9 e2 2a 3e 6f a0 93 bd be e0 b0 bd d7 99 2a 3e
       0.16688122 -0.07208335 -0.08636616 0.16660248
000180 b9 d6 12 bd 10 dc 94 3e 78 9f 59 3d 02 04 05 3f
       -0.035849307 0.29074144 0.053130597 0.5195924
000190 87 3e af 3e bc 46 be 3d 33 a4 9f 3d 3d 32 6a bd
       0.34227392 0.09290835 0.077949904 -0.057176817
0001a0 ec 46 0a 3e 2b 76 b4 bd 92 72 61 bc 8c c5 63 3e
       0.13503617 -0.08811601 -0.013760226 0.22243327
0001b0 c2 96 0b 3f 83 2a 98 3e 00 f2 f3 3e cf 8a b3 3e
       0.54526913 0.29719934 0.4764557 0.3506684
0001c0 a0 d8 04 3e 0d 8c 01 3e a0 69 33 3d 73 b9 ce 3e
       0.12973261 0.12651081 0.043801904 0.40375862
0001d0 0a f7 07 be ca 1c 75 be e9 cb 17 be b5 46 b8 3e
       -0.13277832 -0.23936763 -0.1482388 0.35991445
0001e0 d5 84 b7 3d 7b 21 6d 3d 74 61 af 3e 59 4a 7a 3d
       0.089608826 0.057893258 0.34254038 0.06110606
0001f0 d0 4e db bb f4 e5 87 3d 0d 50 cf bc c1 bf 96 3d
       -0.006692745 0.06635657 -0.025306726 0.07360793
000200 5d 9d bf bd 15 4f 1a be fd 14 43 be a1 09 3f 3e
       -0.093561865 -0.1506923 -0.19050975 0.18656017
000210 a8 7b 88 bc 7a b4 a3 bd 03 cb b9 bd f9 77 84 bc
       -0.016660526 -0.079934075 -0.090719245 -0.016170489
000220 f3 2c b4 be aa 87 b8 3d ed c5 85 be 63 37 88 ba
       -0.35190544 0.09010251 -0.26127568 -0.0010392483
000230 bc e5 a5 bd 9c 01 ed bc 25 af 12 bd 40 8b 83 3d
       -0.08100459 -0.028931431 -0.035811562 0.06423044
000240 79 73 63 bd 49 b8 0d be 11 25 1f be 62 65 a5 3d
       -0.055530045 -0.1383983 -0.15541483 0.08075978
000250 f3 e4 04 be fb 82 53 3e b1 62 5d be 0e af 05 bd
       -0.12977962 0.20655434 -0.21619679 -0.03263765
000260 df 66 55 be b3 52 29 3d 34 54 ca bd 33 9a b1 bd
       -0.20840023 0.041338634 -0.09879342 -0.08671989
000270 30 ae 84 bc 6d 5e 1c bd 44 0b e8 bc c1 22 9a bb
       -0.01619634 -0.03817599 -0.028325684 -0.00470385
000280 81 36 75 3e f5 87 0a 3d 36 25 58 be 43 42 42 be
       0.23946573 0.033821065 -0.21107945 -0.1897059
000290 d0 04 d3 be a2 99 02 3d 50 c8 b0 bd f7 35 f7 be
       -0.4121461 0.031884797 -0.086319566 -0.4828336
0002a0 2f 87 41 bc 01 0a ba bd 8c d1 a3 3d ee 4b df bd
       -0.011812015 -0.09083939 0.07998952 -0.10903154
0002b0 4b 71 9a bd e6 eb 17 be 79 e2 c8 be 94 05 0d 3e
       -0.0754114 -0.14836082 -0.39235285 0.13771659
0002c0 04 99 98 3d 68 9c 9c bd 60 4a 37 be 4b 06 fd 3d
       0.074510604 -0.076470196 -0.17899466 0.12354716
0002d0 41 4c 79 bc 84 e9 a3 bd 7c 04 94 be 25 08 10 bf
       -0.015215934 -0.08003524 -0.2890967 -0.5626243
0002e0 f4 89 04 bf 65 ca 48 be 3f 71 97 be 9c 5a ec bd
       -0.51773 -0.19608457 -0.29578587 -0.1154072
0002f0 9d dc 11 bc 1c 10 0f be 34 1d d1 ba 8f bc 91 be
       -0.008902696 -0.13970989 -0.0015954138 -0.2846417
000300 96 39 de bd 7a 67 f4 bc 0c d5 f5 bc 5a a8 e2 bd
       -0.108508274 -0.029834498 -0.030008815 -0.11067267
000310 04 ec aa bb 96 9e ae bd 17 a3 51 be ec bc ad 3d
       -0.0052161235 -0.085263416 -0.2047237 0.084832996
000320 0f 1a 4c be e9 24 05 bf c7 8b 42 3e 2a 78 57 bd
       -0.19931816 -0.52009445 0.18998633 -0.05260483
000330 29 b1 c0 bd f1 79 4d be af f1 ea bd 32 24 1d 3e
       -0.094087906 -0.20066048 -0.11471879 0.15345839
000340 98 9c 08 3f eb ce a6 3c a8 11 2b bd 4d 9a cc bd
       0.53363943 0.020362338 -0.041764885 -0.09990368
000350 86 5b fa be 16 af ea be 26 f1 b9 be f1 4d 57 3d
       -0.48897952 -0.45836705 -0.36316794 0.052564565
000360 50 af 9d bc 69 20 04 3e f4 b8 7e 3b 3a 2c bc be
       -0.019248635 0.12902988 0.0038867565 -0.36752492
000370 0c 04 32 be 1e 49 57 3d 77 a6 9c 3d e7 bd 31 be
       -0.17384356 0.052559964 0.07648938 -0.17357598
000380 9a ee 59 3d 1f fa 9a be 47 1b 6e bd 9b 73 03 bf
       0.053206064 -0.30268952 -0.058131482 -0.51348275
000390 36 2a aa be 05 96 c4 bd 5a 4a aa bd 8f 74 94 3d
       -0.3323533 -0.095989265 -0.08314963 0.07248794
0003a0 5e 65 10 be 4c e7 8f 3d cb 08 e0 3c cf 89 6c be
       -0.14101169 0.07026538 0.027347943 -0.23099445
0003b0 5f a4 0b bf 02 3c 9f be b4 52 f6 be 77 a9 b5 be
       -0.54547685 -0.3110047 -0.48109972 -0.35480854
0003c0 1d a8 01 be f3 8b fe bd e3 c7 2e bd b8 ac dc be
       -0.12661786 -0.12429037 -0.042671096 -0.43100524
0003d0 c1 18 0c 3e 81 b1 84 3e 24 18 1c 3e ca 9b bb be
       0.13681318 0.25916675 0.15243584 -0.36642295
0003e0 f7 83 b8 bd ef fb 40 bd 1e 19 a8 be 30 a3 8f bd
       -0.09009545 -0.047115263 -0.32831663 -0.070135474
0003f0 51 94 b8 3c 3d 18 8f bd 30 32 8e 3c b4 49 a3 bd
       0.02253166 -0.06987045 0.017357916 -0.07973042

action_model._discrete_distribution.branches.1.bias f4 [2]
000000 c5 e1 5c bd 24 e4 5c 3d
       -0.053926248 0.05392851

q1_network.network_body._body_endoder.seq_layers.0.weight f4 [128, 3]
000000 64 99 79 bc 72 bb 3a bf 56 a6 16 3e 1a 1a 5e bf
       -0.015234325 -0.7294227 0.1471189 -0.8675858
000010 cd 3c 39 be 78 89 04 be 1a cb a2 bd 89 84 7b 3f
       -0.180896 -0.12943065 -0.07948895 0.9824911
000020 b5 e1 3c be 08 1d 84 bc e4 4e 08 3f d7 4a a8 3f
       -0.18445475 -0.016127124 0.5324538 1.3147839
000030 7c 82 57 bd a6 49 1a 3e ba 4f 5b 3e fe ce 80 bf
       -0.052614674 0.15067157 0.21417132 -1.0063169
000040 01 0a 22 bf c5 86 0d 3f 65 0b 1f be a1 e2 41 bf
       -0.63296515 0.55283767 -0.1553169 -0.75736433
000050 02 bc 39 be c2 4e 6f 3f 02 45 5b bf 20 5f 4d be
       -0.18138126 0.9347955 -0.8565217 -0.20055819
000060 5b 7e 8b 3f 6d 3e 83 3e 2e 06 b7 be 0e 14 43 3f
       1.0897936 0.25633565 -0.35746902 0.76202476
000070 71 c3 8d be 2a 01 93 bf 95 43 00 3f 22 86 43 3f
       -0.27688172 -1.148473 0.5010312 0.76376545
000080 36 53 5b 3e a9 86 3e bf c8 26 0d 3f 31 e5 db 3e
       0.21418461 -0.74424225 0.551373 0.42948297
000090 39 bd aa 3d 72 a2 30 bf ef f9 85 3f 8c a6 88 3e
       0.083368726 -0.6899787 1.0466899 0.26689565
0000a0 a4 b0 01 bf a8 13 24 bd 9b 64 3b 3f 2c 4d 1b 3e
       -0.5066016 -0.04005781 0.73200387 0.15166157
0000b0 73 79 95 bd fb 9a 67 3f 09 97 ad be 2c b0 8a be
       -0.07298555 0.90470856 -0.33904293 -0.27087533
0000c0 3e 04 7c bf 66 78 63 3e 94 d2 0f bf 51 1f 74 bd
       -0.98443973 0.22213897 -0.5618069 -0.05960018
0000d0 69 9c 19 3f 2b 3d cd be 94 aa db 3e a2 3b 0d bd
       0.6000429 -0.4008573 0.42903578 -0.0344807
0000e0 f6 37 c3 3e 0d 5f 5f 3f 49 55 df 3e 7f af d0 3e
       0.38128632 0.8725441 0.43619755 0.40758893
0000f0 7f 97 9c 3f 4b 33 0f bd 1a aa 94 bf 45 25 39 3e
       1.2233733 -0.034961026 -1.1614411 0.18080623
000100 23 9c 5d bf 37 86 08 bd 73 9b 9a bf 6e a6 d6 be
       -0.8656637 -0.033331122 -1.2078689 -0.4192385
000110 6c 71 06 bd 8c 8e 8c bc 8b 29 79 3f e2 b4 ee bc
       -0.03282301 -0.017157815 0.97329015 -0.029138986
000120 4b ce 34 bf db 22 43 3d fc db 88 3f 03 f1 6b 3e
       -0.7062728 0.047640663 1.0692134 0.23041157
000130 d2 18 32 be a0 6c 19 3f 2f c0 06 bf dd b9 35 bf
       -0.1739228 0.59931374 -0.52637 -0.7098673
000140 fa 42 82 be 98 8f 42 bf 60 38 0e 3e 87 43 91 3c
       -0.25441724 -0.76000357 0.13888693 0.017732395
000150 6b b6 22 bf 3d ef 36 bf 91 ab 98 3e 97 74 f5 3d
       -0.635596 -0.714588 0.29818395 0.119851284
000160 30 1b 95 3f 4f d0 41 be e0 0e 01 3f c3 18 b6 bf
       1.1648922 -0.1892712 0.5041332 -1.4226307
000170 47 73 0b 3f e2 73 70 3f 96 a2 d8 be 70 eb eb 3e
       0.54472774 0.93926823 -0.42311543 0.46078062
000180 f3 6b df 3e 54 b5 94 be d8 d7 7d 3d cd e8 1d bf
       0.43637046 -0.29044592 0.061973423 -0.6168335
000190 c6 62 b9 bf ec 38 e2 be 31 ca 80 be f6 be 41 3f
       -1.4483268 -0.44184053 -0.2515426 0.7568201
0001a0 6b 30 0f be 21 8f b9 bd f0 2b 93 bc 6b ef 0d be
       -0.13983314 -0.09060503 -0.017965287 -0.13860862
0001b0 90 79 02 bf 19 6a 9c 3f 09 7d ca be cc d4 26 3f
       -0.5096674 1.2219878 -0.3954852 0.6516845
0001c0 6c 7f 0d 3d 94 c1 aa be d6 4c ac be 06 13 25 3f
       0.034545347 -0.33350813 -0.3365237 0.6448215
0001d0 f6 9f cb be 42 e9 a9 bf c8 12 83 3f ae 86 7a bf
       -0.39770478 -1.327431 1.0240107 -0.97861755
0001e0 07 b7 cc be 9b 77 69 3f 29 d8 d0 be 3f 19 9e bc
       -0.3998339 0.9119813 -0.40789917 -0.019299148
0001f0 5e 7c 5c be 82 25 50 ba 92 c8 8a 3f d9 20 29 3f
       -0.21531817 -0.00079401594 1.0842459 0.66065747
000200 6f ae 2d 3d 09 a5 32 3f 12 9a f0 bd a9 b3 ee be
       0.04240268 0.69783074 -0.117481366 -0.46621445
000210 1d 7f a8 be 7c 83 03 bf 1f b9 8c 3e f2 d1 69 be
       -0.3290948 -0.51372504 0.27484986 -0.22833994
000220 ee 7e f0 3e bc 19 ca be 8b 6f 01 3f 5b 18 50 3f
       0.4697184 -0.3947276 0.50560826 0.81287163
000230 e3 ce 9b 3e ca 30 2f be a1 65 32 be e7 d0 84 be
       0.3043128 -0.17108455 -0.17421581 -0.2594063
000240 33 f1 88 bb a7 92 72 bf 82 8f e1 3e 46 f7 73 3f
       -0.004179144 -0.94755024 0.440548 0.95299184
000250 e4 66 04 3e 92 d5 01 3e 0a 22 f4 be c2 37 b3 3e
       0.12929875 0.12679127 -0.4768222 0.35003477
000260 70 42 bc be 77 3f 4a 3f 70 4c 73 3e 84 ff 44 3f
       -0.36769438 0.7900309 0.23759627 0.76952386
000270 1c e9 7f bf dc 3d 73 3f e2 df 92 bb ac 12 c1 bc
       -0.9996507 0.95016265 -0.0044822553 -0.023568474
000280 98 3e 83 3e 34 43 9c 3e a2 db 63 3f 9d 65 41 3f
       0.25633693 0.30520022 0.8900701 0.75545675
000290 3c 49 2d bf e1 bf d3 bd 04 3f cc 3f cf 4a 61 be
       -0.6768987 -0.10339332 1.5956731 -0.22001193
0002a0 a3 51 a9 3e bc e0 2a bd 3b 03 47 bd 66 6e 30 bf
       0.33070096 -0.04171823 -0.048587065 -0.68918455
0002b0 f8 ea d8 3e 9a 16 36 bf 0e c3 b7 be 72 ca 15 3f
       0.42366767 -0.7112824 -0.35891002 0.5851203
0002c0 51 db 0b 3f 92 94 55 3f a3 68 50 3f 83 6a 87 be
       0.54631525 0.83429825 0.8140966 -0.2644845
0002d0 3d 5e 59 3d a6 5a 17 3e 79 74 ac 3e a9 05 51 3e
       0.05306839 0.14780673 0.33682612 0.20412315
0002e0 32 08 9c be 14 d0 81 bd 0f 91 cc 3d 23 05 6b 3f
       -0.30475003 -0.06338516 0.09988605 0.91804713
0002f0 df d5 68 3b 9c f8 2b bf e7 f5 c9 be 26 a9 21 bf
       0.0035527868 -0.6717622 -0.3944542 -0.63148725
000300 ad ba b7 be f0 7b 6d bf 69 e6 28 3f 2d 68 57 be
       -0.3588461 -0.9276724 0.6597658 -0.21035834
000310 2b 48 df be 88 3a 15 3f 46 ad 81 3f 0a c7 6d be
       -0.43609747 0.58292437 1.0131004 -0.23220459
000320 0b 84 b4 be 39 2a 9a 3f 38 6c c1 be 3d a2 2b 3f
       -0.3525699 1.2044135 -0.37777877 0.6704443
000330 8f b3 05 be f3 71 85 3f d3 b3 17 3c 5a 80 8a bf
       -0.13056777 1.04254 0.009259182 -1.082042
000340 2a 4b 11 bf 8b 8e cc 3e ec 9b c5 3e f0 90 47 bd
       -0.56755316 0.39952502 0.3859552 -0.048722208
000350 13 5f 52 bd c3 61 bb bc 0d 8f 6c 3d 3e 6e a4 bd
       -0.0513602 -0.022873765 0.05775361 -0.080288395
000360 24 58 fe 3e a2 e5 94 3f dd 41 c7 bd 55 ed 24 be
       0.4967662 1.1632578 -0.09729359 -0.1610616
000370 17 d0 12 be 0c f4 ad 3e 93 46 cd bf 04 93 fa 3e
       -0.14337192 0.33975255 -1.6037163 0.4894029
000380 13 bb b5 3e 97 3e c7 be 1e 7e a0 bf b8 5c 70 be
       0.3549429 -0.3891494 -1.2538488 -0.2347287
000390 7f 09 a7 bc bf 35 a7 3f 05 a2 b3 be fd c7 66 bc
       -0.02039027 1.3063277 -0.3508455 -0.014085767
0003a0 d2 7a 14 be 22 a5 e7 3b 8e dd e8 3f 8c 1e 3e 3f
       -0.14499977 0.007069246 1.8192613 0.7426536
0003b0 9c 9d d5 3e c3 5e bf be ec 21 3c bd 4f 2d f7 3e
       0.4172181 -0.37376985 -0.045930788 0.48276755
0003c0 67 df 03 bf e8 16 38 3f 1c 8c 9f 3e 40 7d a3 3e
       -0.5151276 0.7190995 0.31161582 0.31931496
0003d0 3d 34 00 be 7f 36 87 bf dd 4c c8 be 9e 38 d2 3d
       -0.12519927 -1.0563506 -0.39121142 0.10264705
0003e0 84 b1 20 3f d5 85 63 3f 2b da 6a 3e 91 f4 8b be
       0.6277087 0.88876086 0.22934787 -0.27335027
0003f0 9c ec fb 3e 94 02 80 3f 86 f9 90 bf c7 12 08 bf
       0.49203956 1.0000787 -1.1326149 -0.5315365

q1_network.network_body._body_endoder.seq_layers.0.bias f4 [128]
000000 84 4d 09 be fd a5 50 3c 98 4a a2 3e 6d 48 58 bd
       -0.13408476 0.012734887 0.31697536 -0.052803446
000010 70 a2 01 bd ef f3 9d bd ab b2 5a 3e b6 1d df bb
       -0.031649053 -0.07712542 0.21357219 -0.0068089617
000020 09 a8 9e 3e d9 65 0d ba 5d 82 41 bd 51 83 0a bd
       0.30987576 -0.00053938996 -0.047243465 -0.03381664
000030 1c 0f 8e bd d8 c3 fa 3b be f2 44 bd af 20 9f 3e
       -0.06936476 0.007652741 -0.04808306 0.31079623
000040 38 69 bf 3d 9c 9d e0 3e a8 00 c1 bd 15 93 93 bd
       0.09346241 0.43870246 -0.09423953 -0.07205788
000050 23 dc 27 bb ae f9 fa 3d f6 d8 3e bd 75 cb 8d 3b
       -0.002561339 0.12254654 -0.04659363 0.0043272325
000060 f2 06 93 bd d5 7d ca bd 71 ce 6e bd c9 04 a0 bd
       -0.07179059 -0.09887282 -0.058302347 -0.07813413
000070 26 25 4e bd 8d 14 53 3e 0d 33 7c be 7c 13 c5 bd
       -0.050328396 0.20613308 -0.2462885 -0.09622857
000080 c6 a0 e8 bc 87 39 e6 3c ad 2c 09 3e 36 4c 9f 3e
       -0.028396975 0.028103603 0.13395949 0.31112832
000090 af 2d c1 3e b2 e0 de 3e 48 a3 5b 3e 6d 5d 1f 3e
       0.37730166 0.43530804 0.21449006 0.15562983
0000a0 fd de 65 3e 8b f9 36 bd 7b ef af bc 4a c7 95 3e
       0.22448345 -0.044671576 -0.021476498 0.29253608
0000b0 b5 6b 90 bb f0 d8 ec 3e 4d 0f 23 bd 01 38 02 3f
       -0.004407371 0.4625926 -0.039809514 0.50866705
0000c0 17 b6 80 bd 7b 8c 86 bd f0 84 f8 3e ca 47 29 bd
       -0.06284731 -0.06569763 0.48538923 -0.04132823
0000d0 3f 07 08 bc 98 98 7b bc f4 0d 5d 3e 55 06 ec 3e
       -0.008302509 -0.015356205 0.21587354 0.4609858
0000e0 58 d7 d8 3c cf 4f 46 bd 36 88 31 bd 29 66 b2 3d
       0.026469871 -0.048415955 -0.04334279 0.08710892
0000f0 94 9b d4 bb 3d 36 3b bd a8 84 14 3e 76 96 d1 3e
       -0.006488273 -0.045706023 0.1450373 0.40935105
000100 89 67 9c bd 67 36 2a bd 01 b3 bf 3e 9a a3 08 be
       -0.07636935 -0.04155579 0.37441257 -0.13343659
000110 82 3f 9d 3b e2 fe 9e bd 2a d7 68 3d 52 de 1b 3c
       0.0047988305 -0.07763459 0.05684582 0.0095134545
000120 6d 38 bf bd e9 44 0c be a5 83 bb bc b7 e9 b1 bd
       -0.09336934 -0.13698162 -0.022889921 -0.08687156
000130 0b b9 f4 3e 6b 36 85 bb e5 91 16 3c a8 39 14 bd
       0.47797427 -0.004065325 0.009190057 -0.036187798
000140 dc c1 67 bd 83 c4 05 ba 6f ab 75 bd e0 3e 78 3e
       -0.056581363 -0.000510283 -0.059977945 0.24242735
000150 88 8f ac bb d3 7e 88 bb 93 76 83 3e b6 a9 fc bc
       -0.0052661337 -0.0041655093 0.25676402 -0.030842643
000160 4b 0a 0a bd 0e 9d 36 bb 6e fb 6f bd c4 a6 f0 3e
       -0.033701222 -0.0027864608 -0.05858939 0.47002232
000170 db ab 16 be 58 c5 26 bd 89 0b ce 3e 03 9a 8a bd
       -0.14713995 -0.040715545 0.40243176 -0.06767657
000180 75 19 c5 3d d9 95 88 bd 95 8f dc bb 9c 92 f7 bd
       0.09623996 -0.06669206 -0.0067309835 -0.120885104
000190 d0 40 83 bd 0c ad 01 be 67 b0 1f be 7a 4a 9a 3d
       -0.064088464 -0.12663668 -0.15594636 0.075337365
0001a0 6b 8c e7 3e 86 c9 22 bd 0a 21 ad bc 1d 91 90 3d
       0.45224318 -0.03974297 -0.021133918 0.07058928
0001b0 28 c3 1a 3f c7 34 1e bc c8 f4 59 bd 62 74 b2 bd
       0.60454035 -0.009656138 -0.053211957 -0.087136045
0001c0 6f dc 69 3e b7 50 61 bd 4f cb 43 be 58 a4 30 bc
       0.22837995 -0.055008616 -0.19120525 -0.01078137
0001d0 88 c6 98 bd c7 68 4b 3e f7 80 ed 38 ea 05 32 3d
       -0.07459742 0.19864188 0.00011325062 0.04346267
0001e0 30 8f 8c bd 25 ec 17 bd c1 1e 42 3d cc 1c 46 3d
       -0.06863248 -0.03709044 0.04739261 0.048367307
0001f0 2b 36 62 bd de 2c cb 3c 41 c3 08 3f 9e a0 bb bd
       -0.05522744 0.024801668 0.53422934 -0.09161495
