results/first/SpaceInvaders/SpaceInvaders-14977.onnx (onnx, 80422 bytes, 9 tensors)

discrete_act_size_vector f4 [1, 2]
00000000: 0000 4040 0000 0040
3.0 2.0

network_body._body_endoder.seq_layers.0.weight f4 [128, 8]
00000000: 480b 3dbe 483b e8be 6668 353e 056d cd3d
00000010: fdf9 573d c67a 3c3e 31d4 e03e 7d37 fc3d
00000020: 365e dabe 3345 1abe f431 de3d 76a5 f83d
00000030: 615c 3a3f b70f d5bd 803e d5bd 75c0 9bbe
00000040: 41a3 c8be 466c 723e 367c 81be a2a8 e03d
00000050: e623 6cbe b972 663e dbc3 a33e a8fa e8be
00000060: 261d dd3d 5e98 ff3c 12d0 16bf dd3a 6fbd
00000070: 0f43 6b3e d97f d03e ffdd 01be 80eb ba3e
00000080: 6cec 54be 3e47 95bd 08d2 babd a0d8 c6be
00000090: ae70 e63e fed1 3c3e 935c 243e 0716 d0be
000000a0: f65a 853c e50e 55be 1156 893e 5dda e8bd
000000b0: ec36 28bd 800c c4bc af24 9fbe c224 863e
000000c0: 838a a93e 9295 9c3d 9754 083f 0097 eebe
000000d0: 9193 b93d dbf7 44bf 06a5 3dbe 1897 73be
000000e0: fc1d 4e3d a614 a7bd 2a4e 1abf c86c 9d3d
000000f0: d0c5 bbbd b694 8d3d 5bae 5e3e fdfc 07bf
00000100: cfe2 6e3f 886b d63e f825 b1be f1d7 15bf
00000110: 96b6 7d3e b2cd 05be 55a4 3dbe 62ec efbe
00000120: 59c5 483e 3f2e f53e 6345 093f bf1b 673e
00000130: b4e1 c83e b711 28bd bab8 be3e dcff 00bf
00000140: 7671 0ebf 4cfd a4be 7a27 aebe cf4b 8abe
00000150: 2b4a 09bf 5c76 8a3d 13a1 513e 32e1 5d3e
00000160: 19ec 3d3e 8d0d 7abc 2b74 9abe bc70 6cbe
00000170: 49bf bd3d 7589 ca3e 2aa9 25bf 852f 47bd
00000180: 82da ce3e 74d5 053e 1648 a13e e4e9 0f3f
00000190: f3f5 453e 5101 a63c e931 e7be 51d3 d2be
000001a0: d81f 13bf dedb 9cbe 66f8 083f 254a 52be
000001b0: 7fb9 51be bc88 bf3e dcc2 ae3e dc33 81bd
000001c0: 0902 b83e fb51 f2be 7007 12bf b568 a43e
000001d0: 81c1 babc 2553 823f 4b38 3bbf 0233 5a3f
000001e0: ae31 8dbd 44d1 223e 4575 1c3f 277f 1d3f
000001f0: 350a cebd e9c4 12be d0e0 9dbe aa7b 153e
00000200: 7317 88be db0c 86be f583 10be d5d8 ac3c
00000210: 4964 2fbf 9adb 4d3d ff90 b7be c0f2 91be
00000220: 9612 b03e 1749 42bb 735c c13e b71f 3dbf
00000230: 7a39 ab3e 91d2 cf3e 2928 c43c 8cdc b9be
00000240: 5038 43be fe94 923e d629 7ebe eedd 70bc
00000250: d5ef 093f 94d2 5e3e caa7 883e ea12 ba3d
00000260: 665c 433e 88fb 3a3e c584 99be 772c 913e
00000270: 9003 173e 9b86 5dbe f13f 94be ccba 4c3e
00000280: 4e9b 59be a4e1 9d3d c22e 1f3f 9532 a3be
00000290: b6de 07be c051 bfbe f90e a23e e629 bdbe
000002a0: 5a7a 8d3e 3f42 3c3d 237a 14bf 3e3d 71be
000002b0: fddc 063f 5d0b 493e 1da6 a33e 7b4b 8fbd
000002c0: 2351 ba3d 8ca2 193e 7b79 e53d 5532 3fbe
000002d0: cc39 03be 70de 763d 163e 1f3f 7fd4 e0be
000002e0: 41c4 95be 5e28 0cbf 577f d03e 8e42 fd3d
000002f0: 1777 8f3d 2cfa 16bc b7ad ca3b 523b fb3e
00000300: 6d37 e63e cdde a0be 8945 633e a6b0 b43d
00000310: 5cdc 01bf 30e9 2dbf 1cf2 833b 5e4c eebe
00000320: c2b0 093e 585c 9f3e 9480 f5be 16f7 b2bd
00000330: 7061 ab3e 3710 e2be 0469 3bbe f236 17bf
00000340: 1fd1 29be 004d dd3e 0db1 1e3e 794d a33e
00000350: 2c8a b83e 4796 bb3e 9e1b 413e 43c5 b6bd
00000360: c69d c7be 142c eebe 550a eb3c 3f76 6d3e
00000370: a78d 013e a997 a13d d4d5 293d 0539 48be
00000380: 5f38 d93b 2132 d5bd c9a4 c4bc 43d5 81bf
00000390: 3320 56bd 87f2 093f b0b6 bb3d 56be d5be
000003a0: 3d26 2e3f f6ac 493d a7e0 723e 9937 28bd
000003b0: d1ab 113e cbad df3d dd21 02be fc2e 9a3e
000003c0: f986 9b3e a69b 083f 1fd5 b9be 690a 63be
000003d0: 0841 7d3d 1d46 e8be 55cd b83e 6412 b4be
000003e0: 16f1 ef3e 8c1a 9c3e c297 5abe 7520 7b3d
000003f0: eb82 9c3c c592 05be dc01 89be c78c 283e
-0.18461335 -0.45357728 0.17715606 0.100305595 0.05272864 0.1840621 0.4391189 0.12315271
-0.42650002 -0.1506546 0.108493716 0.12140934 0.7279721 -0.10403388 -0.104123116 -0.3042027
-0.39187053 0.23674116 -0.25290078 0.10969664 -0.23060569 0.225047 0.31985363 -0.45503736
0.10796575 0.031200584 -0.5891124 -0.058405746 0.229748 0.4072254 -0.12682341 0.36507797
-0.20793313 -0.07288979 -0.091220915 -0.38837147 0.45007843 0.1843948 0.1605094 -0.40641806
0.016278725 -0.20806463 0.26823476 -0.113697745 -0.041068003 -0.023931742 -0.31082675 0.2619992
0.3311349 0.07645716 0.53254074 -0.4659958 0.09061349 -0.769407 -0.18519983 -0.23788106
0.050321564 -0.08158235 -0.6027552 0.07686764 -0.09168589 0.0691313 0.21746199 -0.53120404
0.9331483 0.41878915 -0.3459928 -0.58532625 0.24776682 -0.13066748 -0.18519719 -0.46860033
0.19606532 0.47886845 0.536215 0.22569178 0.39234698 -0.04103252 0.3725031 -0.5039041
-0.5564188 -0.322245 -0.34014493 -0.27010962 -0.53628796 0.067608565 0.20471601 0.21667936
0.18547095 -0.01526202 -0.30166754 -0.2308988 0.092650004 0.39557996 -0.6471125 -0.048629303
0.40401083 0.13069707 0.3150031 0.56216264 0.19332103 0.0202643 -0.45155266 -0.41176847
-0.57470465 -0.30636495 0.53504026 -0.20536096 -0.20480917 0.37409008 0.3413304 -0.063087195
0.35939053 -0.4732817 -0.570426 0.32111135 -0.022797348 1.0181624 -0.7313277 0.8523408
-0.06894241 0.15900141 0.6111644 0.61522144 -0.100605406 -0.14332928 -0.3083558 0.14597955
-0.2658039 -0.26181683 -0.14112838 0.021099487 -0.685124 0.050258256 -0.3585281 -0.28505516
0.3438918 -0.0029645616 0.37765846 -0.7387652 0.3344229 0.40590337 0.023944931 -0.36301076
-0.1906445 0.28629297 -0.24820647 -0.01470135 0.5388158 0.21760017 0.26690513 0.09085639
0.19078216 0.18260014 -0.29984108 0.28354236 0.14747453 -0.21633379 -0.28955033 0.19993132
-0.2125065 0.07709053 0.6218072 -0.3187453 -0.13268551 -0.37367058 0.31652048 -0.36946028
0.2763241 0.045961615 -0.57998866 -0.23558518 0.5268095 0.19633241 0.31962672 -0.06996819
0.09097507 0.15003413 0.11204811 -0.18671544 -0.12815017 0.060270727 0.6220411 -0.43912122
-0.29251292 -0.54749095 0.40722153 0.1236621 0.070051365 -0.009214919 0.006185259 0.49068695
0.44964162 -0.31419984 0.22194494 0.088227555 -0.50726867 -0.6793394 0.0040266644 -0.4654264
0.13446334 0.3112514 -0.4794966 -0.08738534 0.33472776 -0.44152996 -0.18301779 -0.59068215
-0.1658368 0.4322281 0.15497227 0.31895044 0.36042917 0.3663809 0.18858191 -0.089243434
-0.3898756 -0.46518004 0.02869145 0.23189639 0.12651692 0.07890255 0.041463688 -0.19553001
0.0066290344 -0.10409952 -0.024004357 -1.0143207 -0.0522768 0.5388569 0.09165704 -0.41746777
0.68027097 0.049237214 0.2371851 -0.041068647 0.14225699 0.1092182 -0.1270823 0.3011397
0.30376413 0.533625 -0.3629541 -0.2217194 0.061829597 -0.45365992 0.36094156 -0.3517028
0.4686362 0.30489004 -0.21346954 0.06131025 0.019105395 -0.1304427 -0.2675923 0.16459952

network_body._body_endoder.seq_layers.0.bias f4 [128]
00000000: 8eb5 3a3e 50a1 aebd bfbe dcbc 2941 03bd
00000010: d295 483d 13b2 1f3d b572 573d ab54 ce3e
00000020: e71c fa3e 99af 97bc 68b2 19bd 6164 de3e
00000030: d88e c3bd 3f59 36bd c02a 20bd 6b68 1ebd
00000040: ed73 d63e 039f 8a3d 718b 083d fda9 85bd
00000050: bc0a 78bd 3e10 cc3e 2564 1fbe 07cb 75bd
00000060: 4544 453d 7bfa 9dbd 0195 9bbc 5eb3 19bd
00000070: da00 ff3e a959 56bc 0be2 adbd 2baa e8bd
00000080: 3b32 5cbd 765d b53e 976e ccbd 0056 aa3b
00000090: 2649 b0be 7474 80bd dff0 21ba c035 48bd
000000a0: 34be b8bd c8d1 0cbd d050 c0bd 41d0 433e
000000b0: 7579 133f da0b 1c3e 6b5a a0bd fe27 1a3c
000000c0: 7711 b43d 422d ff3e 13d9 c43e d7ec 18bb
000000d0: c097 1fbe 631b 803b 71ae 7c3d fb1e 22bd
000000e0: aca5 6c37 051d afbe 9865 983d 35d7 313f
000000f0: f13a 83be f74d b7bd c358 07bc 5a2e 713c
00000100: 803d 643d 8cae 3abc 206d 6dba e8d2 d7bc
00000110: 6569 59bd 93f6 cabd 9de5 31be ad34 02be
00000120: 408e 703d 2e32 3abe 8269 d63d c077 b73e
00000130: 6bb5 08bd 8da6 c23d 8732 193e a6f4 04be
00000140: fd29 943b b7b8 b53e a251 44be c252 6e3e
00000150: 29ec 0bbd 9b07 adbc dd84 0ebe c66a 3a3e
00000160: b3d5 2e3d ba41 8ebe 7445 db3c 402b e7bc
00000170: 03fc 89bd 63ae edbc 0db1 7dbe 1363 003f
00000180: 55d1 67bd 725c 81bd 4f7f 89bd a45d 58bd
00000190: 8835 dcbc bdf3 d2be d08f cd3e 8800 ab3e
000001a0: abef 9fbe 37eb d4be b03b b3bc c428 6abd
000001b0: ed55 5fbd fd5b a5bc 678d 813e b69d 543d
000001c0: e8f1 293d bc7e 75be d0e1 503e 3f25 d8bc
000001d0: 84bf d9bd 54d4 12be fe85 863d b75f f33d
000001e0: 7873 243d 5f69 1abe ecc7 1ebe 9e2b e8bc
000001f0: 34a4 4a3d cd52 5ebe 7cc5 2fbd 6a19 403a
0.1823332 -0.08526862 -0.026946424 -0.032044563 0.048971005 0.038988184 0.052599628 0.40298972
0.48850176 -0.018516349 -0.037523657 0.43435958 -0.0954873 -0.044518705 -0.03910327 -0.0386738
0.4188532 0.0676861 0.033336107 -0.06526563 -0.060557112 0.39856142 -0.15565546 -0.060008075
0.04816081 -0.07713791 -0.018991949 -0.037524574 0.49805337 -0.0130829 -0.0849038 -0.11360582
-0.05375884 0.35422868 -0.09982031 0.0051982403 -0.34430808 -0.06272212 -0.0006177555 -0.048879385
-0.09020653 -0.03437975 -0.09390414 0.19122411 0.57607204 0.15238896 -0.07829746 0.009408949
0.08792394 0.49839216 0.38446864 -0.0023334527 -0.15585232 0.0039095148 0.061689798 -0.039580327
1.410527e-05 -0.34201828 0.074412525 0.69469005 -0.25630906 -0.089504175 -0.008260909 0.014720524
0.055722713 -0.011394154 -0.00090570934 -0.026345685 -0.053079028 -0.099103115 -0.17372747 -0.12715407
0.05872941 -0.18183205 0.10469343 0.3583355 -0.03337614 0.09504423 0.14960681 -0.12983951
0.004521607 0.3549249 -0.19171765 0.23273757 -0.034160767 -0.02112179 -0.13917871 0.18204793
0.04268427 -0.2778452 0.026766516 -0.028218865 -0.067375205 -0.029013818 -0.24774571 0.50151175
-0.05659612 -0.06316461 -0.06713735 -0.052823678 -0.026880994 -0.41201583 0.40148783 0.33398843
-0.3123754 -0.41585705 -0.021879047 -0.057167783 -0.054525305 -0.020185465 0.25303194 0.051908217
0.041490465 -0.23974127 0.2039864 -0.026384948 -0.10632232 -0.14338809 0.06568526 0.118834905
0.040149182 -0.15079258 -0.15505952 -0.02834111 0.049473003 -0.21711273 -0.042912945 0.0007328006

network_body._body_endoder.seq_layers.2.weight f4 [128, 128]
00000000: 84d7 25be 5386 7dbd fa4a b73d 5260 87bc
00000010: b049 2a3d c839 42bd 3766 67bd 3b85 e33d
00000020: 1d9a 7bbd e2a9 3bbd d6ec 3e3e 38a0 e8bb
00000030: 2a33 a2be dfa7 65bd 5a25 153e 3dd8 0c3c
00000040: 8d32 7f3d 61b7 263e 83b6 ecbd 4e7d 4abc
00000050: 888e fd3a 5601 2bbe f827 8a3d 0913 9abd
00000060: 7552 073e 0575 2c3e cc34 05be 1411 4cbe
00000070: 9716 23be 0288 76bd 7efc 0bbc 3f11 383d
00000080: d977 c8bd 2e09 633d 35c8 103d 690c a73d
00000090: 237a e5bd cab5 9e3d 8396 013e 1538 fe3c
000000a0: 538f a1bd 7901 36be a8ff d23c bd9c 7a3d
000000b0: 41a2 b1bd 24b7 9ebc 6f91 163e d28a f13b
000000c0: 38d5 33bc 95df 26bd fc4e cf3b 57eb c63d
000000d0: a3ae 3dbd 5d01 9e3d 452b db3d 8997 653e
000000e0: fa7f 403d feaa 1abe e6e6 c8bd a59a f03d
000000f0: eb31 6dbd f2a0 bdbd 09bc df3c 8ba1 aa3d
00000100: 1652 863d 0da0 4cbd 1a00 fb3d da82 5abd
00000110: fbd3 e93d 84bd 75bd 93c1 1cbd cf2c 17bd
00000120: a664 2cbe 10cc 18be 0908 643d 3107 053e
00000130: 93cd d93c 8f37 553d df48 bf3d 361e 083e
00000140: 4b96 b3bc bb52 25bd 02b2 6c3c a117 0b3e
00000150: eb85 50bd e865 8ebd df25 8aba 2d73 ef3d
00000160: 19b2 203d ede5 ec3d 1ff9 ddbd c0db 043d
00000170: 733b d43c 10f6 663e 31aa f6bd 0c1b 0abe
00000180: 7b1e 82bc 79cc 34bd b7df 58bd cf59 a03d
00000190: e4b8 38be c189 8b3c f2c7 56be 5c41 06be
000001a0: c73b 6abd 53ef 023d 43ff 923c da26 93bc
000001b0: 3606 b2bd c7ea 1fbe 7546 bd3e 4a92 b7bd
000001c0: 8415 76bd d055 483d d6d3 9bbd 92e1 ea3c
000001d0: 46ff 31bd ae52 123d 1fbc efbd 8a39 823d
000001e0: c861 5d3c 35d4 cfbd ba0e 4d3d a7d2 8dbd
000001f0: cf84 27bc 3ab2 7ebd 7863 40bc bac2 833c
00000200: 4457 dfbd 9e08 333c 341c 9abd 739a 8d3d
00000210: 374f b9bd a84f 1b3e 673f 8dbc 35e1 3ebe
00000220: 3788 163d b4d5 b13d d9f1 0bbe ea7d debe
00000230: 6668 003e 4893 4cbd 0767 fabd 8ea0 00bd
00000240: c7c0 9abe ce6a ddbd 8eee 51bd fe9b 5b3e
00000250: eef7 fcbc b738 87be 8961 55bd 1972 a2bd
00000260: 7062 fd3c 1948 3b3d 64f2 13be 8ac8 87bd
00000270: 154c d6be 1084 09be 6d91 373d c35b 113d
00000280: cf8a 9d3d 1b9b 0fbe 04e4 0db8 9be3 2d3c
00000290: ab84 993d fe7a 533b c698 3bbe 126b fa3d
000002a0: fcfb afbd cef3 c33d 1624 d93d 5070 7cbe
000002b0: 6169 0cbd d2aa 6dbe bb0f 1bbd aedd f9bd
000002c0: 6ebf 103e 0aae 88be 24bc 8fbe 3106 853d
000002d0: 750c 843c fe8f 853d f5cf 80bc b267 b23d
000002e0: 4903 b2bd 0a6e 233d f8a8 2c3e b9dd c2be
000002f0: 8fac 913d 81bd 58bc e51b 0c3e 2c81 a33e
00000300: 5c71 b33d 8c21 c33d acbb 01be c329 52bd
00000310: 729a 60be efee 0ebe 9869 5e3d 40b6 06bd
00000320: 1100 1abe 0763 15be 6498 68be 367d acbe
00000330: 6ec8 8b3c 3006 1ebe fee9 09bd 59cd 063e
00000340: 6d44 1abe eb38 12be 2aef 963d fb8c 15bf
00000350: 0884 e13d c0af 13be 8c11 7b3a 4490 cbbc
00000360: eeb5 da3d a54a 6b3d 6670 3ebc 4d8d 8c3d
00000370: 40eb cabd 3f32 ecbd 50c2 20bd ddb9 643d
00000380: e10a 28be afcb 843d 189b 96bc a4b7 9d3c
00000390: b6e0 87be cea8 293d 1f08 893d 4558 c9bd
000003a0: df78 c83c bc45 dcbd 063f 9abd a45d e7bc
000003b0: 9c66 e83d 9803 e43d 21c9 2fbe 4f4a 813c
000003c0: 2ecb 89bc 54fc 3d3c e16e a6bd d250 1c3d
000003d0: 0f46 883d a075 4b3d 538d eebd 689e 923c
000003e0: b961 b2bd 966c e33d 7418 84bb 6688 b73c
000003f0: a34c 83bd 6986 dcbc 74be 70bd e749 31bd
-0.16195494 -0.06189568 0.089498475 -0.016525421 0.04157418 -0.047418386 -0.056493964 0.11109396
-0.06142627 -0.04581631 0.18645033 -0.0070991777 -0.3167966 -0.056068297 0.1456503 0.008596477
0.06230407 0.16280891 -0.11558249 -0.0123589765 0.0019344846 -0.16699728 0.06745905 -0.07523162
0.13215049 0.16841514 -0.13008422 -0.1992839 -0.15926586 -0.0601883 -0.008544086 0.044938322
-0.09788484 0.055428676 0.035347182 0.08156664 -0.11204936 0.07749517 0.12655072 0.031032601
-0.07888665 -0.17774 0.025756672 0.061184634 -0.086735256 -0.019374438 0.14703916 0.007371285
-0.010976128 -0.04074057 0.0063265543 0.09712856 -0.046309125 0.07715104 0.107016124 0.22421087
0.046997048 -0.15104291 -0.098096654 0.11748246 -0.057908934 -0.092592135 0.027311342 0.08331593
0.065586254 -0.049957324 0.12255879 -0.053347446 0.11417385 -0.05999519 -0.038270544 -0.036907967
-0.1683527 -0.14921594 0.055671725 0.12991025 0.026587283 0.052054938 0.09340071 0.13292775
-0.021922251 -0.0403621 0.014446737 0.13583232 -0.050908964 -0.06953031 -0.0010539851 0.1169189
0.039232347 0.11567292 -0.10838532 0.032436132 0.025907254 0.22554803 -0.1204418 -0.1348688
-0.015883675 -0.044140313 -0.052947726 0.0782963 -0.1803928 0.01703346 -0.2097471 -0.1311087
-0.057185914 0.03196652 0.017943984 -0.017962862 -0.08692591 -0.15616904 0.36967817 -0.08963449
-0.060079113 0.048909962 -0.07608764 0.028672013 -0.04345634 0.03572338 -0.11705803 0.06358631
0.013512082 -0.10147897 0.050062872 -0.06924944 -0.010224535 -0.06218169 -0.011742465 0.016084064
-0.109053165 0.0109273475 -0.075249106 0.069142245 -0.09048312 0.15167105 -0.017242147 -0.18640597
0.036751 0.08683339 -0.13666476 -0.4345544 0.12539825 -0.049945146 -0.12226682 -0.031403117
-0.30225202 -0.10811387 -0.051252894 0.21446225 -0.03087994 -0.26410457 -0.05209497 -0.07931919
0.030930728 0.045723055 -0.14447933 -0.06630047 -0.4185492 -0.13429284 0.044816423 0.0354879
0.07692491 -0.14024012 -3.3829376e-05 0.010613347 0.074960075 0.0032269354 -0.18319997 0.12227453
-0.08592984 0.095679864 0.10602586 -0.24652219 -0.034280185 -0.23209694 -0.0378568 -0.12200485
0.14135525 -0.2669528 -0.28073227 0.064953215 0.016119221 0.06521605 -0.015724162 0.087111846
-0.08692033 0.039899863 0.16861331 -0.38059786 0.07112991 -0.013228775 0.13682516 0.31934488
0.08761856 0.09527883 -0.12669247 -0.05130936 -0.21933916 -0.13958333 0.05429992 -0.03288865
-0.15039088 -0.14588557 -0.22714382 -0.33689278 0.017063346 -0.15432048 -0.033670418 0.13164271
-0.15065165 -0.14279525 0.07369836 -0.58418244 0.11011511 -0.14422512 0.0009577505 -0.024849065
0.106792316 0.057444233 -0.011623478 0.068628885 -0.099081516 -0.11533021 -0.03924781 0.055841316
-0.164104 0.06484162 -0.018384501 0.019252606 -0.26538628 0.04142075 0.06691002 -0.09831289
0.024471698 -0.10755488 -0.07531552 -0.028242894 0.11347696 0.11133498 -0.17166568 0.015782503
-0.016820516 0.011595804 -0.08126617 0.038163014 0.066539876 0.049672723 -0.11648049 0.0178978
-0.08710045 0.111046955 -0.0040312354 0.022403907 -0.06411102 -0.02691956 -0.05877538 -0.04328337

network_body._body_endoder.seq_layers.2.bias f4 [128]
00000000: 1908 d8bb e3d6 623c 1c98 2dbe 8f93 caba
00000010: 6129 9bbb 0ba0 8bbc aeb6 153d eee3 ffbc
00000020: 6ed1 fbbd 3020 c13c c39c 8bba 2923 dcbc
00000030: 29e5 e1bd 8334 45bb 6f30 1ebd cd96 303e
00000040: 4681 9b3d a134 923d 9f35 dc3d a284 333d
00000050: 3241 ad3c 4299 babb d227 d53c 111f 57bb
00000060: 4c8f 0e3c 0b58 c63d 7e77 01be 8b29 c13c
00000070: 233f 0a3d 9be4 46be 7ccd 043e 2393 0abe
00000080: 3540 3e3d 68ca d2bd 7052 103d 17b9 b6bd
00000090: 3f0c 5f3d def7 3abe 75f7 b7bc e8cb 2c3c
000000a0: e8df 493d a894 ee3b 2889 9c3c a7e6 97bc
000000b0: 9d87 9b3d 02f8 203d 93c5 033e 37ed 8ebd
000000c0: e98f 5c3d 58d3 9cbd bbf4 f23c 4e06 e9bb
000000d0: f638 65bc 8953 073e c33d 6b3e d250 1b3e
000000e0: ab0a bf3b 41e3 29bd a7d9 4f3e 4ee5 db3c
000000f0: 2c84 043e aa5b 0f3e e555 ffbb 411b cabd
00000100: e948 b8bd 3a43 9c3b b43f 2cbd 2aa9 4c3d
00000110: cc50 663d e075 d63c 7448 aa3c 46ae 87bd
00000120: eac7 aabd d80c 263d 1d82 833d e851 c7bb
00000130: 8070 22bc 331c 5c3d 77e1 b83d e019 2dbd
00000140: 8648 d83c 976a 2d3d 64dd ee3c b487 763d
00000150: 1345 99be 421b c4bc 899d b43e b69e 743e
00000160: ce1e 093e cb07 c33c 3d1d 2bbc 069e ba3b
00000170: 75a6 c33b b929 f73d 877d 3e3d 3d0d 51be
00000180: 0306 98bc 987d e93c 1bdd e139 6e5b c6bd
00000190: d5f0 973d 2d4e d03d c0f9 483e 93e8 5b3b
000001a0: a3ec 2e3e 1d02 3abd 8b6f c73a 76f2 0cbd
000001b0: e221 863d 996d 923c ffa3 303e 3cb0 523e
000001c0: 8709 88bd bb1c c43d 196f 1fbd 9696 973c
000001d0: d753 b3bd 8a25 c1bd 4c31 423e 395e b73d
000001e0: a909 79bd f172 53bc e943 e5bd 81ea a5bd
000001f0: b7c1 ddbc 2ebb d63d 9837 3f3c 4988 a03d
-0.006592762 0.013845178 -0.16952556 -0.0015455353 -0.0047351574 -0.017044088 0.03655117 -0.031236615
-0.12295805 0.023574919 -0.0010651577 -0.026872234 -0.11030037 -0.0030091114 -0.03862041 0.17245026
0.07593016 0.071389444 0.10752415 0.04382766 0.021149252 -0.0056945393 0.026019964 -0.0032824914
0.008701157 0.096847616 -0.12643239 0.02357938 0.033751618 -0.19423144 0.12969011 -0.1353269
0.04644795 -0.10292512 0.03523487 -0.08922022 0.05445504 -0.18258616 -0.022456864 0.010546662
0.0492858 0.007280905 0.01910837 -0.0185426 0.075942256 0.03929902 0.12868337 -0.06978839
0.05384818 -0.07657498 0.029657712 -0.0071113473 -0.013990631 0.1321546 0.22972779 0.15167549
0.005830129 -0.04147649 0.20297872 0.02684274 0.12941045 0.13999811 -0.007792222 -0.098684795
-0.089982815 0.004768756 -0.04205294 0.049966015 0.056229398 0.026179254 0.020786501 -0.06625037
-0.08338912 0.040539593 0.064213015 -0.006082762 -0.009914517 0.05373783 0.09027379 -0.042261004
0.02640177 0.04233798 0.029158302 0.06018801 -0.29935512 -0.023938779 0.3527644 0.23888668
0.13390657 0.023807427 -0.010443983 0.0056951074 0.005970771 0.12068505 0.04650643 -0.20415206
-0.018557554 0.02850227 0.0004308008 -0.096854076 0.07418982 0.10171161 0.19626522 0.0033555373
0.17082457 -0.04541217 0.0015215738 -0.034410916 0.065494314 0.017874526 0.1725006 0.2057504
-0.06642442 0.095757924 -0.03892431 0.018504422 -0.087562256 -0.09430988 0.18964118 0.089535184
-0.06080023 -0.012905822 -0.111945935 -0.08101369 -0.02706991 0.104849204 0.011670969 0.07838494

action_model._discrete_distribution.branches.0.weight f4 [3, 128]
00000000: f371 c63c 3fc0 c7bc 55e4 843c ff92 bb3c
00000010: c912 053c b544 bebb 8d65 403d 1e77 0e3d
00000020: 8779 4c3d 748a 7ebc 2da0 1f3d b6ff 4cbb
00000030: a375 94bb 03d4 44bd 9696 76bc 68b2 a93d
00000040: 274b 5e3e 0e7c 823d 8610 1bbd b568 f93c
00000050: e8a2 c33b c89e c03d 98d0 463e 3400 febc
00000060: d1f9 b83c 0d26 ef3c 0c09 203c a3cb 2b3d
00000070: cccf 36bd 7231 2c3c 8a21 753b 464f 323c
00000080: 778e 523b f501 9f3c a3d1 093e 3586 743c
00000090: b53f cabb d28f 2c3c dbad f13c 4070 5c3e
000000a0: e1a6 2a3c 679b 8dbd 3f14 4a3d 2cc8 20bc
000000b0: 95cd bf3c 5c3e 563d ad3c 9c3c 5710 413d
000000c0: 629a d03d 941b 9a3d 0c22 d3bc 189f 90bd
000000d0: bb69 df3c 346e d83e 7d55 753d 53d1 f23d
000000e0: 7039 8a3d 0037 11bb ec69 893b fda5 963d
000000f0: bdf6 bbbd d2d8 ed3b 68bd bcbc 7fac 28bc
00000100: f34f 013d bf39 523b 039e 133c 528b 22bc
00000110: 5c7e 24bd c573 5abc 4481 113e 8114 d23c
00000120: d126 2e3d 841a 723d d06c 40bb 126e 923d
00000130: afc9 cd3b 7a11 0ebd 9322 da3c 9909 ddbb
00000140: 100a 493b 0fa9 963a f437 12b9 6fd1 f33d
00000150: 644d 62bc 46c7 2b3d cfc2 3dbd 32c4 70bc
00000160: 351b a23c e365 5a3d 77e9 8f3c 2f8c 48bc
00000170: 4f22 0ebd 6f1c f1bc 25c1 80bb 7d7f a83c
00000180: f95c 59bd 30a0 2a3d 71c3 9b3d 84f5 843d
00000190: 6a43 3bbe 30b7 a93d 4f8d 9e3d 067e 3ebc
000001a0: 1dcd 20bc ae1d 59bc e2ec 163c 09c7 b03c
000001b0: 3253 7d3d b31b c9bc c95a c7bc 8389 22bc
000001c0: 63d4 193c 1ecf 9d3e 2587 883b da36 9fbc
000001d0: 169f 3c3c 2729 ae3b e420 fdba 0dd9 283c
000001e0: 6c6c 1dbc 8ac5 d1bb 44d3 3dbc 7890 53be
000001f0: 1bb8 ee3b 5fba 23bc 6126 223c 65fa 233f
00000200: d6cc 153c 19d9 833d 7562 903c 2036 c43a
00000210: 9496 d23c 0619 76bc 7580 a2bc 7da6 333c
00000220: a443 2dbd eeb4 a43c ac99 a0bc 286c b0bb
00000230: 55f0 3b3d 25be aa3d 3689 0a3d 19a0 bb3e
00000240: 1f8d 48be 3d1b d03c f192 8c3d 0f79 333a
00000250: 14dd 20bc 6db1 853d 6873 03be 84eb 873d
00000260: 16de 9e3d 046a 5b3e feef 523c 0575 1a3c
00000270: 750b eb3d 8f3c 9a3c 2338 913e 5958 f13c
00000280: 6f95 973c 2abb 303c 5ab1 0bbe bb76 2f3d
00000290: 39e8 58bc 1362 183b 5d4f 17bd 9fac 70be
000002a0: d112 1c3c 0f82 9e3b eb77 87bb f87c 76bc
000002b0: 5c12 31bd 5c0c ef3c a439 f1bc f430 d6bc
000002c0: 901d cfbd ef2c ccbd a301 1fbd 8cf4 cb3d
000002d0: 8066 45bd 596d fabe 3d8b de3e 86cb 86bc
000002e0: 853c 6bbd 6c78 e63c f9d6 92bd c9f0 c2bd
000002f0: 1e64 cd3e ebde 013e cce5 32bc 1787 673c
00000300: 692f 1abc 48da 823b 1118 9bbc e352 da3c
00000310: 33c8 463e 95c0 393c 921a e6bd 86c3 bfbb
00000320: 4b6b 55bd b6fe 16bc d187 1bbc 9516 64bd
00000330: 8bbf 173c 16a3 94bb ffd9 103e f876 13bc
00000340: 6845 bd3b a429 063d e972 b83d 4bd8 a7bd
00000350: d983 a83d aeb5 b83c a934 1dbe f5ec acbd
00000360: 41fd 78bd 5aa0 dfbc fd91 043c c2f1 fa3c
00000370: 5d0f 523d f13d 023e 5c8d 843d ca1e 993c
00000380: 8e66 9a3d 9141 52bb b741 29bd 28f8 d4bd
00000390: 1900 1f3e 989c 1b3b d438 c33e 1c54 bf3c
000003a0: b981 77bd a68f 413c 0141 b83c 08c4 03bc
000003b0: e69f 83bc 93f8 303d 8eb8 cf3e c8b7 07bd
000003c0: 1ca5 4b3c 3bda acbe 41fa 973c 69ad 2c3d
000003d0: 63fe ae3b f757 c13c b1b7 cf3e f23a 2f3e
000003e0: 83ef d83c c40b f5bc e962 b33c c179 d03d
000003f0: a0c6 f0bb 12ee 013e 50a2 09bd 7cfc 25bf
0.024224257 -0.024383662 0.016222158 0.022897242 0.0081221545 -0.0058065304 0.046971846 0.034781568
0.049920585 -0.0155359395 0.038971115 -0.0031280345 -0.004530625 -0.048053753 -0.015050551 0.082859814
0.21708356 0.06371318 -0.037857555 0.030445436 0.0059703477 0.09405285 0.1941551 -0.031005956
0.02258006 0.029192949 0.009767782 0.04194225 -0.044631764 0.010509836 0.0037404024 0.010883158
0.0032128373 0.019410113 0.13458876 0.014924576 -0.0061721453 0.010532336 0.029501846 0.21527195
0.010415764 -0.06914406 0.049335714 -0.00981335 0.023413459 0.052305564 0.019071901 0.047134724
0.10185696 0.07524791 -0.02577307 -0.07061595 0.027272096 0.42271578 0.05989598 0.11856332
0.067492366 -0.0022158027 0.004193535 0.073558785 -0.09177921 0.007258513 -0.023039535 -0.0102950325
0.031570386 0.0032077876 0.009009841 -0.009920912 -0.04015957 -0.013333266 0.14209467 0.025644543
0.042517487 0.05910732 -0.0029361732 0.071499005 0.006280146 -0.034684636 0.026627814 -0.006745529
0.0030676164 0.0011494475 -0.00013944489 0.11905181 -0.013812397 0.04193809 -0.046328362 -0.014695214
0.019788364 0.053319823 0.01756738 -0.012240454 -0.034700688 -0.029432504 -0.0039292746 0.020568604
-0.05306718 0.041656673 0.07605637 0.06492141 -0.18287435 0.08286893 0.07741796 -0.011626726
-0.009814528 -0.013251705 0.009211751 0.021579282 0.06184692 -0.02454934 -0.024335282 -0.009920481
0.009389016 0.3082208 0.004166501 -0.019435335 0.011512538 0.0053149643 -0.001931217 0.010305655
-0.009608369 -0.0064017223 -0.011586014 -0.20660579 0.0072851307 -0.009993165 0.009896846 0.64053947
0.009143075 0.064378925 0.017625073 0.0014969744 0.025706567 -0.0150206145 -0.019836644 0.010964987
-0.042300835 0.020105805 -0.019604526 -0.005383987 0.045883495 0.083370484 0.03382226 0.36645582
-0.19585083 0.025403613 0.06863964 0.0006846347 -0.009818334 0.06527982 -0.12836993 0.06636718
0.07757203 0.2142716 0.012874601 0.009427314 0.11476795 0.018827705 0.2836314 0.029461073
0.018503873 0.010786811 -0.13641873 0.04283784 -0.01323896 0.0023251816 -0.03694092 -0.2350335
0.009525971 0.0048372815 -0.0041341684 -0.015044443 -0.0432304 0.029180698 -0.02944643 -0.02614639
-0.101130605 -0.09969508 -0.03881992 0.09958753 -0.048193455 -0.4891155 0.43465605 -0.01645447
-0.057430763 0.028133593 -0.07169909 -0.095185824 0.40115446 0.12682693 -0.010919046 0.014131329
-0.0094107175 0.0039933063 -0.018932374 0.026650852 0.19412307 0.011337419 -0.11235537 -0.0058521656
-0.052104276 -0.009216001 -0.00949283 -0.0556856 0.009261976 -0.004536043 0.14145659 -0.009000532
0.005776096 0.032754555 0.090062924 -0.081955515 0.08228273 0.02254757 -0.1535212 -0.084436335
-0.060788397 -0.027298141 0.008091447 0.030632857 0.051284183 0.12718941 0.06472275 0.01869144
0.07539092 -0.0032082538 -0.041322436 -0.103988945 0.15527381 0.002374446 0.38129294 0.023355536
-0.060426448 0.011814034 0.022491934 -0.008042343 -0.016067456 0.04320581 0.40570492 -0.03313425
0.012429502 -0.33760247 0.018551948 0.042157564 0.005340384 0.023601515 0.40569833 0.1711233
0.026481396 -0.029912837 0.02189775 0.10179473 -0.0073478967 0.12688473 -0.03360206 -0.64838386

action_model._discrete_distribution.branches.0.bias f4 [3]
00000000: 1c57 95bd f14a 193d fe58 e73d
-0.072920054 0.037424985 0.11296271

action_model._discrete_distribution.branches.1.weight f4 [2, 128]
00000000: d177 3dbd 64ef bc3a 7b5e 00bc 240c 9cbb
00000010: 2ed1 f9bb 3ac6 3ebc f76a a2bc a2b9 c93b
00000020: e664 fcb9 5a86 9d3c 09aa 9b3d c92a 9f3d
00000030: 6830 61bd a7c8 cb3b 88ec aa38 1e20 3ebe
00000040: efa8 b2bd 4170 9cbd aba8 ae3c 5f0e 713d
00000050: 9341 473c 0be1 f43c 15bd 963c 950d 5dbc
00000060: a8eb 33bc 6027 f9bd 1bf8 13bc d923 b93d
00000070: 4105 2f3e 1b8b d1ba 5ece 11be af20 52bc
00000080: 9241 c23b 131f 2cbb 9154 a9bc 286b 40bb
00000090: c104 d2bb e38b c93b 932f 0f3d 65a3 2f3c
000000a0: 3730 eabc 62e8 7abd 5b81 a5bc 4c70 443c
000000b0: 7948 d7bc d3f1 3ebd 4cfb fa3b 28d9 92b7
000000c0: 442a 2ebc 9792 e8bc d220 caba fbcc 86bd
000000d0: 5428 763c 5a3e 69be ac43 4bbe 5efb 98bd
000000e0: d936 3bbd 0400 9f3c 2a87 0d3d ecdc 5fbe
000000f0: fb16 d9bd 6ce0 67bd 8f13 f93c 5ea2 e8bb
00000100: 0b3b 34bc 1a1a 3d3c b646 ab3b 3dce f8bc
00000110: 8bdb fbbd fa36 3d3d d9da 7bbc 64aa 0fbd
00000120: 76e4 0cbb c040 a23c 7bb5 bdbc 3acd b23c
00000130: db3d 7cbb 6baf a13c 97bb a9bd 8e7b 81bb
00000140: f060 90bc 36de 6abd 6419 a8bc cc30 d9bc
00000150: e8a0 9cbc c4bc e5bc e710 933d bbdc eb3c
00000160: 8a0a 53bc f3ff 28bd 586c ac3d 7c9e edbb
00000170: 1738 6c3d 510f 90bd ce8e 76bc a1f9 81bb
00000180: bf75 9bbc 29a9 79bd e465 4bbc d5bf aebd
00000190: 63dd 803d 20ec c5bd 0d2c 55be 7508 92ba
000001a0: 018b 0d3d a707 c0bc 0c6a a03d 27ea 103b
000001b0: e45f edbc cd11 603e fb39 f9bd 7564 253d
000001c0: 87db ab3b 6fdb 24be abe6 b3bd 75d3 4a3b
000001d0: 303a af3a 86ab c3bc 78a3 0dbe 4d84 8ebd
000001e0: 5575 1e3b c56d 783d 651f 22bc 42f2 e2bd
000001f0: 74f0 853c 662b 96bc ad9d 6a3c f73d ecbd
00000200: 6815 873d c977 b73b 1b7a 2cbc cd1d b53c
00000210: 932d f4b8 b780 dd3b 3db3 f3bb daf2 8a3b
00000220: dead 513c c492 e6ba fe21 81bd 538e a1bd
00000230: 7760 333d 7e24 0abd cd81 353b 30bd 3f3e
00000240: 13f0 983d b8a8 a93d c5f6 aebc f6ad 8cbd
00000250: 4957 92bb 1f91 82bc 998d c5bc 875e 6b3c
00000260: d217 f3bb 3e95 d73d 3e9b e4bb 8069 bfbd
00000270: 1a5b 46be c885 543b 53f1 0b3e 18dc 52bb
00000280: fe01 603c 2e81 e83a e82b da3c acff c03b
00000290: 704a e4ba 736f 463c 47bd 45bc d28f 1fbb
000002a0: cd31 93ba f788 7a3d 8576 173d 000b 01bc
000002b0: cde6 c73c f675 f53c 0a76 143c 802a 24bc
000002c0: cedb d3ba 81e4 db3c e3ea b4bb 23d2 863d
000002d0: de74 7f3c 94cf 5e3e 2c47 5a3e 4cad cb3d
000002e0: 4054 2c3d ce57 13bc b5ec 00bd e31a 653e
000002f0: 6641 c03d 1ea0 743d e358 06bd af31 123c
00000300: 1dd3 c6bb 36cf 933b 18a3 08bc 10b4 ec3c
00000310: 53cc 103e 6744 80bd 162f ae3c 0db6 053d
00000320: b14f 383c 100e cdbb 67c5 6c3b 02df b9bc
00000330: 617f ac3b 6a5a d2bb eb24 aa3d 7118 603b
00000340: 40e7 c73b 4108 323d 4c4d a63c 39f3 0a3d
00000350: 2b02 c83c 0ff6 733c 1f1a 75bd 61fb 44bd
00000360: 6ed3 46ba 1a08 2a3d d22b 98bd 6330 e9bb
00000370: 0263 48bd c8d2 983d 9975 dd3b 6303 a83a
00000380: 8bbc 773b c495 913d 9151 393d b0ea bf3d
00000390: c0da 59bd 1a8d be3d 0b59 3c3e 3987 bf3b
000003a0: 2df4 2bbd 4b23 2abc 4d77 a1bd f113 ddbb
000003b0: b325 473d d5e0 5fbe b06d ef3d 3ace 05bd
000003c0: f27f c93b 5d91 3e3e 3ce6 ae3d b8c2 4ebc
000003d0: 7a31 523b 9961 db3c d1f7 093e db02 9e3d
000003e0: 9a5e 24bb c752 67bd 7d59 a63c 0916 e93d
000003f0: affa 01bd 9a94 2c3c 45f8 6abc 85da ce3d
-0.046256844 0.0014414606 -0.007835026 -0.0047621895 -0.007623813 -0.011643941 -0.019826395 0.0061561624
-0.0004814036 0.019229103 0.07600791 0.077718325 -0.054977804 0.006218988 8.150289e-05 -0.18566939
-0.08723628 -0.07638598 0.021320662 0.058851596 0.01216163 0.029892465 0.018400708 -0.013492008
-0.010981478 -0.12165713 -0.009031321 0.090400405 0.17091848 -0.0015986891 -0.14238879 -0.012825175
0.0059282267 -0.002626364 -0.020670207 -0.0029360745 -0.006409258 0.006150709 0.03495748 0.010720109
-0.028587444 -0.061256774 -0.020203283 0.011989664 -0.026279675 -0.04661734 0.0076593515 -1.7505678e-05
-0.010630194 -0.028390212 -0.0015421158 -0.06582066 0.015024263 -0.22777691 -0.19850034 -0.074698195
-0.045706604 0.019409187 0.03455273 -0.21861619 -0.10600086 -0.05661051 0.030404834 -0.007099434
-0.011000405 0.011541868 0.0052269353 -0.03037178 -0.12297734 0.046195008 -0.015372002 -0.035074607
-0.0021498478 0.019806266 -0.023157826 0.021826375 -0.0038489017 0.019736966 -0.08287733 -0.0039514964
-0.017624348 -0.057340823 -0.02051992 -0.026512526 -0.019119695 -0.028044112 0.07180958 0.028791776
-0.012880931 -0.041259717 0.084191024 -0.007251559 0.05767068 -0.070341714 -0.015048696 -0.0039665257
-0.018977044 -0.06095234 -0.012414429 -0.08532683 0.06292226 -0.09664178 -0.20817585 -0.0011141436
0.034556393 -0.023441149 0.07832727 0.0022112222 -0.028976388 0.2188179 -0.12169262 0.040379006
0.0052446756 -0.16099332 -0.08784231 0.0030948792 0.0013368782 -0.0238855 -0.1383189 -0.06958828
0.0024178822 0.06065156 -0.00989518 -0.11081363 0.016350009 -0.01833124 0.014319819 -0.11535256
0.0659588 0.0055989963 -0.010527159 0.022108937 -0.000116433155 0.006759729 -0.0074371384 0.004240376
0.012797801 -0.0017591347 -0.063053116 -0.07888474 0.043793168 -0.033726208 0.0027695775 0.18724513
0.074676655 0.08284134 -0.021357903 -0.06869118 -0.0044659716 -0.01593834 -0.02411537 0.014365799
-0.007418611 0.105265126 -0.006976514 -0.093462944 -0.1937069 0.0032428373 0.13666277 -0.0032174643
0.01367235 0.0017738694 0.026632264 0.0058898535 -0.0017417204 0.0121115325 -0.012069053 -0.0024347198
-0.0011230052 0.061165776 0.036978263 -0.007876158 0.024402047 0.029963475 0.009061346 -0.010019898
-0.0016163529 0.026842358 -0.0055211647 0.06583049 0.015591828 0.21758872 0.21316212 0.09945163
0.042072535 -0.008993102 -0.03147574 0.22373538 0.09387474 0.059723012 -0.032799613 0.008922978
-0.006067647 0.0045107855 -0.008339666 0.028894454 0.14140444 -0.06263047 0.021262687 0.03264432
0.011249469 -0.00625778 0.0036128403 -0.022689346 0.005264208 -0.0064194696 0.08307823 0.0034194256
0.006100565 0.043464903 0.02030053 0.03392336 0.024415096 0.014890208 -0.059839364 -0.048091296
-0.0007584606 0.041511633 -0.07430233 -0.007116364 -0.048922546 0.07462078 0.0067584035 0.0012818392
0.003780159 0.07108644 0.045243803 0.09370935 -0.053187132 0.09304257 0.18393342 0.005844977
-0.04198091 -0.010384391 -0.07884083 -0.006746762 0.048619937 -0.2186311 0.11690843 -0.032667376
0.0061492855 0.18610139 0.085400075 -0.012619667 0.0032072947 0.026779937 0.1347344 0.077153884
-0.00250808 -0.056475427 0.020306343 0.11381156 -0.03173321 0.010533476 -0.014341419 0.10100273

action_model._discrete_distribution.branches.1.bias f4 [2]
00000000: 6236 793d 5d36 79bd
0.06084288 -0.06084286
