results/first/SpaceInvaders/SpaceInvaders-60537.pt (torch, 951991 bytes, 83 tensors)

discrete_act_size_vector f4 [1, 2]
00000000: 0000 4040 0000 0040
3.0 2.0

network_body._body_endoder.seq_layers.0.weight f4 [128, 3]
00000000: b01c 7cbf 723f b1bf 1ef3 2a3f d7f7 9bbe
00000010: 79d9 72be 566e a33d b980 45bf f148 00be
00000020: 1940 82bf c786 1abf c582 6a3f 3ae7 c23e
00000030: 0982 123f 7bd9 19be 009b 29bb 63c2 df3d
00000040: e2c6 9f3f c545 3dbe 5b7c a9bc 8c5e 613f
00000050: db4e 5ebe 3de2 f43f 26e8 f63e 25cb ccbd
00000060: 8d25 b03f 0039 7e3f e929 f53d 8fa0 263f
00000070: 6675 31bf a313 1c3f c937 f03f 8de2 dfbd
00000080: 160e 8bbd a11b 413f efe9 41bf c426 243f
00000090: 9800 923f 4662 493c a05d 60be ada2 233f
000000a0: 77d6 f53e cc37 ce3e 319d 9abe 7346 93be
000000b0: 03d5 4bbe bf07 6b3f 2d9d 223f c742 10be
000000c0: a226 ec3e fee8 c93e adae 443e 6c90 013f
000000d0: 8959 f6be 1e1f 0f3f 8777 6dbe 048b c0be
000000e0: 21a4 c8bf b0fb 043f d5cb 753f b495 94bf
000000f0: 3806 1f3f ce10 e9be 3d7e b7bf e95f ecbe
00000100: bab2 da3e 7376 41be 1f8f 07bd 0b0c d5be
00000110: 4ea9 883d 5385 5d3f 89de 86be 9885 cd3e
00000120: a9ab abbe fbd6 a4be 72f1 793f 312d 583f
00000130: be3b b0be cd2a 313f 1157 86be 7bc0 11be
00000140: 3601 2c3f 1888 e83d 3e80 8abf f8b2 2d3e
00000150: 4ae0 413f babc 84be 2edf a8bf e0bb adba
00000160: 209b 94be 527b 25be df00 f0bd b68b 703f
00000170: 3291 a53f 5889 a9bf e0ec 993e 4282 8d3e
00000180: eb11 183f dfcc 6d3f cfed 5dbd 4ab9 39bf
00000190: 752e b43e 5447 a43e b874 2abf 19b1 0440
000001a0: ef9c d2be d0d0 91be a558 14bf 419b 743d
000001b0: e6e6 4bbe 7fc6 853f 933b 08bd 3cfb 88be
000001c0: 208e 80bf 7730 073f d6bd 3a3e 6776 073c
000001d0: 3a46 613f b064 a13f 1eb1 ab3e 15d0 80be
000001e0: 991a 33be 3bd4 0c3f 9a46 923d b5dc 2dbf
000001f0: 9749 ae3c 17a9 3a3d c70b 1e3f 3466 3dbf
00000200: bc26 233f 976f 9d3d c8cd 813e d9b1 b1bc
00000210: d2c5 14be 2e21 8fbf 000b b73d 39bc 16bf
00000220: 5228 a9bf d00d 5cbf e624 a13f 80a1 d7be
00000230: 9aed 6cbe eda4 253f 1e6b a33e 3f61 143f
00000240: 0171 5abd b8ba 12be 42ab 353f 76af a63e
00000250: 3ff7 933e 907a fc3d 0927 ee3e 4acf 263f
00000260: c0fb 8b3e b486 1a3f 17b2 373f 313f 973e
00000270: 115c 82bf 649d 07bf 3c7e e0be 2d23 0fbe
00000280: 9cef dd3f b2bd 63bd ecbd a43f 64ef 4e3e
00000290: b53e 773f 96aa 443e 9e68 453f 704f d33d
000002a0: 44cc 033f 5b84 53bf 6834 ca3e 2c87 f23f
000002b0: accd 14bf c783 013e 2e71 f8bd 5d8d 4dbf
000002c0: 3cbc c43d f1c0 7f3f 4602 123f fd92 63be
000002d0: 7fe3 153f 5536 253f bbff 903e 7ba0 b7be
000002e0: 81d3 82bd e589 9d3e 3c85 303d 7d0b b9bf
000002f0: fd24 643f f2ff 1ebf 2c28 083f 00ea fe3d
00000300: 6b55 663f 9e6f b5bb 99dc babd a3f8 3abf
00000310: c8d2 26bf 0a63 143f a1a4 fc3e d4d8 ccbd
00000320: 406a 513e 6e26 7d3d 1d69 743f f932 80be
00000330: 9472 073e 5ba8 38bf 64b4 aa3e c780 a5be
00000340: e8cc 1ebf 6dec 7b3e 7a39 963f 0071 17bf
00000350: e599 93be 99ed 02bf d0e0 2ebf 6635 533e
00000360: 586b 50be 4677 08bf 616e 3bbe 8f8d bcbe
00000370: 48af 5e3f 0fad 87bd 82e4 fbbe 6083 d03e
00000380: 1381 05be a3e8 983f ae01 97bf 17a3 33be
00000390: 702c 8d3f dd4a 093f f0a7 6fbe f58e 9e3e
000003a0: 43fc fabd a9db 933d ac26 38bf 18e8 b83d
000003b0: 575e b4bd 4742 e63d 4a19 f5be a84a 0e3e
000003c0: 1d1b 893c 57f5 82bf b3f7 173e e30a 97be
000003d0: 7dc8 023f 9283 3cbe f935 fe3f 457d 83bd
000003e0: 5e6c de3d 77f6 b1bd a682 1fbf 668c 323f
000003f0: c291 3fbe dee8 8e3d 9a9f ccbf ca12 f53f
-0.98481274 -1.3847487 0.6677722 -0.30462524 -0.23715772 0.07980029 -0.7714954 -0.12527825
-1.0175811 -0.60361904 0.9160579 0.38067037 0.5722967 -0.15024368 -0.002587974 0.10925748
1.2482569 -0.18483646 -0.02068918 0.8803489 -0.21709768 1.9131542 0.4822399 -0.09999684
1.376146 0.99305725 0.11970884 0.6508874 -0.6931976 0.60967463 1.8767024 -0.10931883
-0.06789796 0.75432783 -0.7574758 0.6412165 1.1406431 0.012291497 -0.21910715 0.639201
0.48015186 0.40276945 -0.30198053 -0.28764686 -0.19905476 0.91808695 0.6352108 -0.14087974
0.46123224 0.3943557 0.19207259 0.50610995 -0.48115185 0.55906856 -0.23190127 -0.3760606
-1.5675088 0.51946545 0.9601415 -1.1608186 0.62118864 -0.45520633 -1.43354 -0.46166924
0.42714483 -0.18892841 -0.033095475 -0.4161075 0.06672917 0.8653156 -0.26341656 0.40140986
-0.33529404 -0.32195267 0.9763404 0.84443957 -0.3442058 0.69205934 -0.262383 -0.14233582
0.6718935 0.11354083 -1.0820386 0.16962802 0.7573286 -0.25925237 -1.3193109 -0.0013254844
-0.290246 -0.16160324 -0.11718916 0.9396318 1.2934935 -1.3245039 0.30063534 0.2763844
0.5940234 0.92890733 -0.05418187 -0.72548354 0.35191694 0.3208567 -0.6658435 2.0733092
-0.41135356 -0.28479624 -0.5794776 0.059718374 -0.199123 1.0451201 -0.03325994 -0.26754177
-1.0043373 0.52808326 0.18236479 0.008267975 0.8799778 1.2608852 0.33533567 -0.25158754
-0.17490615 0.5501134 0.071423724 -0.679149 0.021275325 0.045571413 0.6173672 -0.73984075
0.6373098 0.076873 0.2535231 -0.02169125 -0.14528587 -1.1182001 0.08937645 -0.58880955
-1.321543 -0.85958576 1.2589386 -0.42115402 -0.23137513 0.6470478 0.3191766 0.57960886
-0.053330425 -0.1432904 0.70964444 0.3255574 0.2889957 0.123280644 0.46514156 0.6516005
0.27340508 0.6036179 0.7175612 0.295404 -1.0184346 -0.52974534 -0.4384631 -0.13978262
1.7338748 -0.05560083 1.287046 0.20208508 0.9658006 0.19205698 0.7711276 0.10317886
0.5148356 -0.82623833 0.39493108 1.8947501 -0.5812633 0.12647925 -0.12130962 -0.8029383
0.09606215 0.9990378 0.5703472 -0.2222404 0.58550256 0.6453603 0.28320107 -0.35864624
-0.063879974 0.30769268 0.043095812 -1.4456631 0.8911894 -0.6210929 0.531863 0.12446976
0.8997409 -0.0055369874 -0.09124107 -0.7303564 -0.65165377 0.5796362 0.49344352 -0.10002294
0.20450687 0.061804228 0.9547289 -0.2503889 0.13227302 -0.7213189 0.33340752 -0.32324812
-0.6203141 0.24601908 1.173629 -0.591568 -0.2882835 -0.51143795 -0.68311787 0.20625839
-0.20353448 -0.53306997 -0.18303825 -0.3682675 0.8698621 -0.06624805 -0.49197775 0.4072523
-0.13037519 1.1945995 -1.1797388 -0.17542683 1.1029186 0.5362986 -0.23403907 0.30968443
-0.12255146 0.07219631 -0.7193401 0.09028643 -0.088070564 0.1124311 -0.47870857 0.13895667
0.016736561 -1.0231122 0.14840584 -0.29500493 0.5108717 -0.18409565 1.9860221 -0.06420378
0.10860513 -0.086895876 -0.6230873 0.6974548 -0.18707946 0.0697801 -1.5986207 1.9146359

network_body._body_endoder.seq_layers.0.bias f4 [128]
00000000: 4429 ddbe 301d f7be 3a91 8b3e a35d b63d
00000010: 1d72 2c3f f918 cc3e 1ff2 e13e f613 463e
00000020: be9c 3c3e 189a b1be 92c1 8dbd dcb6 30be
00000030: be1d 913e a6d2 8b3c e89f 043f 1dec 1e3f
00000040: 21d4 163e de7b debe a95a 5e34 1750 ef38
00000050: 130e 3e34 1e26 693f f7ca 6abe 8073 b0bd
00000060: df94 8fbe 8605 53be 8968 9cbe 7f84 b8be
00000070: 25cf a9b6 56c5 bf3e dfe7 0e3d e3dd 64be
00000080: 6716 ad3e 0897 a2bd 47f7 153f 8af1 0abe
00000090: 1bf4 013f 79b6 54be 42d9 463c 1272 693e
000000a0: 120c 213d 3b8b 3dbd ccae 8ebd 2227 c33d
000000b0: 50fc e5bd 4a90 303d ce7b 083f 01a7 50be
000000c0: a835 80be b9e3 033e bb76 623d 408d 553d
000000d0: bc18 563e 89dc 153f 2bff 4d3e 00cd 41bb
000000e0: ccc4 efbe 7099 ecbc c351 03be 5c14 c53e
000000f0: f153 3e3d b9f1 babd a729 e8be 229d 62be
00000100: 81c3 183f e5dd fdbe c554 8cbd 81de a13e
00000110: 53a0 ccbe 1046 9cbe cd63 9dbc b8c5 b8be
00000120: b16a 303f c1a1 1e3f 24bf 5a3e 5451 963e
00000130: d6c3 c33e ccf0 7cbe 8771 133d 0a24 a7be
00000140: 7d1e 16bf a85b 1a3f 3eda 803d 6d3d fabe
00000150: 2c2e 4db3 bfb9 9cbd 34a0 fabe 01ce d0bd
00000160: 09d1 a23e 9d53 16be 2118 a23c 912b 403f
00000170: 4962 82be cc91 3b3f 9037 bebe 11d5 40be
00000180: 760b 16be f2a7 c1be dd8e 963e 868d 89be
00000190: 5394 733f 04ef b3bd b6ea efbe 1652 d3be
000001a0: d72b f53e 9e84 ea3d 9e35 4f3e 2a70 2abe
000001b0: f639 dfbe 529c 16bd 5956 bbbe a566 d23e
000001c0: 989e 7f3e 3058 a1bd acad 283e 41ec bdbe
000001d0: 03b6 68be fd5c 213f f3f4 22be 1d76 98be
000001e0: f41f 85bc 637e 3cbe 3971 1c3f 439b b3be
000001f0: c622 643f 7332 6ebd 129f 7e3f 20f9 343d
-0.43195546 -0.48264456 0.27259237 0.089045785 0.67361623 0.39862803 0.44130036 0.19343552
0.18419167 -0.34687877 -0.06921686 -0.17257255 0.28343004 0.017068218 0.518065 0.6207903
0.14729358 -0.43453878 2.0708343e-07 0.00011411326 1.7700249e-07 0.9107379 -0.22928987 -0.0861578
-0.28043267 -0.20607576 -0.30548504 -0.36038586 -5.0607073e-06 0.37455243 0.0348891 -0.22350268
0.33806154 -0.07938963 0.5858044 -0.13568702 0.507631 -0.20772733 0.012136759 0.2279742
0.03931815 -0.04627536 -0.069669336 0.09528948 -0.112297654 0.043106355 0.5331391 -0.20376207
-0.25040936 0.12879838 0.05528901 0.05213666 0.20907873 0.58539635 0.2011687 -0.0029571652
-0.46829832 -0.028881758 -0.12824158 0.38492095 0.04646677 -0.09128136 -0.45344278 -0.22130254
0.59673315 -0.49583355 -0.06852106 0.3161507 -0.39966068 -0.30522203 -0.019212628 -0.36088347
0.689128 0.61965567 0.21361977 0.29358923 0.38235348 -0.24701232 0.03599694 -0.32644683
-0.5864027 0.60296106 0.062916264 -0.4887499 -4.7772275e-08 -0.07652616 -0.4895035 -0.10195542
0.31800106 -0.14680333 0.019786896 0.7506648 -0.2546561 0.73269343 -0.37151766 -0.18831278
-0.1465281 -0.37823445 0.2940587 -0.26865786 0.951482 -0.08785823 -0.46858758 -0.41273564
0.4788501 0.11451076 0.20235297 -0.1664435 -0.43598908 -0.036770172 -0.36589316 0.41093937
0.24962842 -0.078781486 0.164725 -0.3709431 -0.22725682 0.63032514 -0.15913753 -0.29777613
-0.016250588 -0.18407588 0.61110264 -0.35079393 0.8911556 -0.05815358 0.9946147 0.044182897

network_body._body_endoder.seq_layers.2.weight f4 [128, 128]
00000000: c3af b7bd 91ec c93b e08c 57be abe1 f83d
00000010: b63e 423e 92e7 5bbe 7056 20bf e4e6 183e
00000020: afb0 a53d 309c 46bc 8ae5 d33d b9c5 903d
00000030: ae7e cebe e059 cf3c ce99 07bf 6d55 afbe
00000040: 382f 21bd 6f7f 13bd ad50 36be c262 5fbd
00000050: a8d8 373d afba 51bf 9554 99be 6c76 9ebc
00000060: 2564 c2bd 727e 02be 06ff 613c 903c 0cbe
00000070: 3a5a 28be df6d 07bf 88b0 d5bd 4ad7 533d
00000080: 1d27 12be 6ce9 ac3d 2aef 44bf 740b 223e
00000090: 9bd1 a13e 5f35 1abe c87f 393d 1a43 d2be
000000a0: 38b5 f23d eaa0 fa3d 3de6 62bd 2e05 c4bd
000000b0: 8373 84be d401 b63d 4efc a7be bbd4 813c
000000c0: 3cf8 21be 9dec 2e3d 0cde b8bd ca0d bf3d
000000d0: 9686 3abf c3bd aa3e 2576 513e 5a64 a23d
000000e0: 50a3 b5bc ffc9 833c 84fd 4ebe 322b 2fbf
000000f0: 889f 823d c7ec 3ebd dd13 cbbd 0ebb 223e
00000100: f24d f4be ca95 bcbd a9db 943d 7a15 bdbe
00000110: 991e 42bd b125 b83d 7dde d23e 003c dfbd
00000120: f0ea 35bf 17fc f23d 6c3a 0cbf 8d42 91be
00000130: b9dc 37bf 5ca2 46bc e9b4 35be 9bfc 8dbd
00000140: 1cc2 8fbe 67ef 1cbf 7d12 65bd 7d41 9f3d
00000150: 2920 b23d 00f6 97bd 4b78 9abd 14bc 433e
00000160: d593 0abf 714e 14be b73c 8b3c 6263 15bf
00000170: 91f3 2f3e 8dc6 26bf e8ec 13be fa5d a13d
00000180: 2190 7abc 97d9 22bd 462d f4be ff3a 9bbe
00000190: 871d 2bbf ae08 a73c e1a8 093d 353e 6ebb
000001a0: 8851 aabe 0a46 02bf 9107 a6be dfb2 69be
000001b0: 2c05 14bb 6b6c 223d 091e d93d 79b8 8cbe
000001c0: 8138 2a3e 2019 ccbe 780b a6be 014d c8bd
000001d0: 5826 40bd 9273 acbd 60a4 c53d 6035 62bd
000001e0: a9a7 893d 9d28 843c 7316 87bd c98f c3bc
000001f0: 56c1 8bbe 687f 1bbe ba0d 9fbd a8b3 aebd
00000200: bcd3 e7bd 9336 86bd ec73 343e 7fe7 f0bd
00000210: e53d 993d 8f88 53bd a98d a4bd 7940 863e
00000220: 2109 4f3d 51c5 ee3c 8eb3 593e 4889 b0bc
00000230: 8975 d0be 249d 52bd b072 a1be a73f 533e
00000240: 2763 263e cbdc 123c c52f 38bd 9daa bb3c
00000250: 5384 43bd d89c 70be 24c8 5b3d 2250 50bd
00000260: 8ec7 10be 034b 993d c7d7 90bd d5ed 76bc
00000270: e00f 8bbd 59e0 9ebe d2f8 fabc 38fa 62be
00000280: aca1 213d e7a6 1f3d 20bf bbbc bb6a 13bf
00000290: 4e99 693e 6b8f 033d 9127 33be 860c c3be
000002a0: e466 eabb e3db dfbd 0ca9 0b3e b7a7 b8bd
000002b0: c3cd b5be 2371 bb3d 739d 8fbe dadd 82bc
000002c0: fe12 8abd 6756 ee3d 0bc8 b8bb 3e1b 883d
000002d0: 9ee9 043d 240f 643e 348f e63d 3145 b83d
000002e0: c768 c73d cb4b 0b3e 3129 b3be 031e f9be
000002f0: 07ce 9b3d edd7 5cba 5a95 a33c 0326 40be
00000300: 1ed6 8f3e f613 513d 5689 763e 89e7 d0be
00000310: 8ecb 5bbd 00bc f33c a6ef d5be 915e ba3c
00000320: 67cc 54be 6e0d 2bbe 11b3 c7be 9ce3 8ebe
00000330: 10fa c1be 81d2 25bd 368b 67be 961c 5a3d
00000340: 03b1 1abd b27f 96be fd95 13be ce35 16be
00000350: 611b 30bd 634d c23d 51fd 84bd d526 6fbd
00000360: 4669 37be a3db dfbd 3fcd c8bd b73b afbe
00000370: 41c8 6ebd 5c3e a0bd 7fee d7bd d856 97bc
00000380: c27c 30be 3dc3 d23d 987f 4bbe c709 cabe
00000390: dd6f fdbe 8516 24bc 0227 e3bd 1ea3 b6bd
000003a0: 6fdf e7be 7535 b0be fabc 30be 8f47 00be
000003b0: 8e1f 1c3e c4be b1bc 2cb0 a6bd ac83 14bd
000003c0: c741 d7bd a1ca 09be 4a8e 9abe f0ac 0d3e
000003d0: 4215 173d bb01 333d 52b5 e9bd d3a7 59bc
000003e0: 2ff0 4fbe ffb0 823d 0766 13be 2736 b4bb
000003f0: f5f8 aabe 2045 83be 5382 843d dbdd 48be
-0.08969071 0.006162234 -0.21049833 0.12152418 0.18969235 -0.21475056 -0.62631893 0.14931828
0.0809034 -0.012122199 0.103465155 0.070689626 -0.40331024 0.02531141 -0.5296906 -0.34244862
-0.039351672 -0.036010202 -0.17804213 -0.054537542 0.044884354 -0.8192548 -0.29947343 -0.019343577
-0.09491757 -0.12743548 0.0137937125 -0.13694978 -0.16440669 -0.52902025 -0.10434061 0.051718988
-0.14272733 0.08442959 -0.76927435 0.15824682 0.3160523 -0.15059422 0.045287877 -0.4106682
0.11850971 0.12237723 -0.055395354 -0.095713004 -0.25869378 0.088870674 -0.3280968 0.015848508
-0.1581735 0.04270612 -0.09026727 0.09328802 -0.7286161 0.33347902 0.20455225 0.07929297
-0.0221726 0.01608753 -0.20213896 -0.68425286 0.063780844 -0.046612527 -0.09915898 0.15891668
-0.47715718 -0.092082575 0.07268459 -0.36930448 -0.04739246 0.08991564 0.4118537 -0.10900116
-0.7106161 0.118644886 -0.54776645 -0.28371087 -0.7182117 -0.01212367 -0.17744793 -0.06932946
-0.2807778 -0.613028 -0.055925835 0.07776163 0.0869754 -0.07419968 -0.07542475 0.19114715
-0.54131824 -0.14483048 0.016996725 -0.5835477 0.17182757 -0.65146714 -0.14445841 0.07879253
-0.015293152 -0.03975829 -0.4769079 -0.30318448 -0.6684193 0.020389881 0.03360832 -0.0036352996
-0.33265328 -0.5088812 -0.32427648 -0.2282214 -0.002258609 0.039654177 0.10601432 -0.2748449
0.16623117 -0.3986292 -0.32430625 -0.09780312 -0.046911567 -0.08420481 0.09650493 -0.055226684
0.06721432 0.016132647 -0.06596079 -0.023872273 -0.2729594 -0.1518532 -0.0776629 -0.085303605
-0.11319682 -0.06553378 0.17622346 -0.117629044 0.074825086 -0.051643904 -0.08034832 0.26221064
0.050545815 0.029146822 0.21259901 -0.021549836 -0.40714672 -0.051419392 -0.31532812 0.2062975
0.16248761 0.008963774 -0.04496743 0.022908503 -0.047733616 -0.23497331 0.053657666 -0.05085767
-0.14138624 0.074850105 -0.07072406 -0.015071352 -0.06790137 -0.3103054 -0.030636225 -0.22165763
0.039460823 0.03897753 -0.022918284 -0.5758473 0.22812387 0.032119196 -0.17495562 -0.38095492
-0.007153379 -0.10930612 0.13638705 -0.09016364 -0.35508546 0.091524385 -0.28049812 -0.015974928
-0.06741904 0.11637574 -0.0056390814 0.06645821 0.032449357 0.222714 0.112577826 0.08997572
0.097367816 0.13603131 -0.34992364 -0.4865571 0.07607656 -0.00084245094 0.019968677 -0.187645
0.28093046 0.051044427 0.24075827 -0.40801647 -0.05366092 0.029752731 -0.417844 0.02275017
-0.20781098 -0.16704342 -0.39003804 -0.27908027 -0.37886095 -0.040483955 -0.22611699 0.053249918
-0.037766468 -0.293943 -0.14412685 -0.14668962 -0.04299486 0.094874166 -0.06493629 -0.058386642
-0.17911252 -0.10930564 -0.098047726 -0.34225246 -0.058296446 -0.07824394 -0.105435364 -0.018474028
-0.17235091 0.10291145 -0.19872892 -0.39460585 -0.49499407 -0.010015135 -0.110914245 -0.08917831
-0.45287654 -0.34415784 -0.17259589 -0.12527297 0.15246412 -0.02169741 -0.08139071 -0.036258385
-0.10510593 -0.13456203 -0.30186683 0.13835502 0.036885507 0.043702822 -0.11411537 -0.013284641
-0.20306467 0.063814156 -0.14394389 -0.0054996195 -0.33393064 -0.25638676 0.0647017 -0.19615881

network_body._body_endoder.seq_layers.2.bias f4 [128]
00000000: a382 ea3d 8577 8a3d 153c 743e 95eb 21bd
00000010: 0786 15be 9902 023e 645a aa3c 7a0b 293d
00000020: 320e 253e 6788 803e f65c 813e 4c85 803e
00000030: 87fd 0f3c cb52 47be c7f6 38be 4d5d 8dbc
00000040: 7c2d b43c 7586 fc3d 86bd dc3d 99c5 32bd
00000050: d002 da3d d8a8 543d 821a 083e 65fb 97bb
00000060: 8817 41bd 29b4 3c3e 6a2b 50bd 1899 e4bd
00000070: 3ea9 cb3d f812 4d3e e907 25be 39b0 08bd
00000080: 4da8 29bd 1bc6 093e f110 433d b0ac 183e
00000090: fc6a 233d 621b 80bd 1f02 6bbe 5604 03bd
000000a0: 34a3 953d 68f2 6d3d 94e0 443e 9a07 a9bd
000000b0: 509b 0e3d 27bb 72be a693 6b3c 336e 2b3d
000000c0: 0dc2 333e fcbb debd d8ed af3d 7145 0e3c
000000d0: 5a74 503d b387 30bc bfe2 a7bb 886d 383d
000000e0: d1d4 523d 9517 3f3e cb1d a73d 6969 74be
000000f0: c82f 573e b35f 273e 5ee9 01be 86ff c1bc
00000100: b458 ee3d d8e3 9a3d aa48 9c3e 4c1c a83d
00000110: 3f7f 273d 8df9 813c d3eb d23d aa79 f0bb
00000120: dfec 193e 5c01 d13d dcc2 4cbd 619d 55bc
00000130: 0493 52be 02cf a53d b78e 9f3b 9fca 8e3e
00000140: b6a7 f73c 0bbe 92bd 447e c23d b341 f43c
00000150: 129d 053d 6bfc 5b3d 33ed 713e 7bce 4b3e
00000160: 0165 37be 9c27 16bd 5861 ac3e 34cd a03c
00000170: f031 22bd fab8 66bd ce5d d0bd 0861 573e
00000180: 11d7 313e 663a 393b 9351 56be c5ce 993d
00000190: 6600 7f3c 720e d4bc 9521 7ebe e21d 1fbc
000001a0: 79dd a23e 2b24 03be db44 d73b f141 7b3e
000001b0: 5ab0 04bc b1a0 1d3e 05c6 9d3d b304 773d
000001c0: 3b1c 0c3e e7be e03c 3bdf 163e 075b 893e
000001d0: c5b3 8dbd 30bf d73d 3d28 0a3e f407 223e
000001e0: cc65 d33c 568c 143e 5818 9e3d 9de7 6b3d
000001f0: 5480 093d e4ea 99bb 2333 423e 3763 363c
0.11450698 0.06761078 0.23851044 -0.03953131 -0.14601909 0.12696303 0.020795055 0.04127071
0.16118696 0.25104067 0.25266236 0.25101697 0.008788473 -0.19465177 -0.18062888 -0.017256403
0.021994345 0.12330333 0.10778336 -0.043645475 0.10645068 0.051918834 0.13291362 -0.004638123
-0.04714158 0.184281 -0.050822653 -0.11162013 0.0994439 0.20026767 -0.16116299 -0.033371184
-0.04142027 0.13454477 0.04762358 0.14909625 0.03989695 -0.06255223 -0.22950028 -0.031986557
0.07306519 0.058092505 0.19226295 -0.08253403 0.034816086 -0.23704205 0.014378464 0.04185314
0.17554493 -0.10875699 0.08590287 0.008683548 0.05089221 -0.010774541 -0.005123466 0.045026332
0.05147249 0.1866134 0.081599794 -0.23868336 0.21014321 0.163451 -0.12686679 -0.023681413
0.116380125 0.07562989 0.30524188 0.08208522 0.040892836 0.015866065 0.10298886 -0.0073387222
0.15031765 0.102053374 -0.04999052 -0.01303801 -0.20563895 0.08096124 0.004869308 0.27888963
0.030231338 -0.07165154 0.094967395 0.029816484 0.032620497 0.05370752 0.2362564 0.19902985
-0.17909624 -0.03665887 0.33668017 0.019629098 -0.039598405 -0.05632875 -0.10174142 0.21033108
0.17367198 0.0028263568 -0.20929556 0.07510141 0.01556406 -0.025885794 -0.24817498 -0.009711714
0.31809595 -0.12806766 0.0065694875 0.24536873 -0.008098686 0.1539333 0.07703785 0.060307216
0.13682644 0.02743478 0.14733593 0.2682726 -0.06919054 0.10534513 0.13491912 0.15823346
0.025805376 0.14506659 0.07719487 0.05759393 0.03356965 -0.0046971906 0.1896482 0.011132053

action_model._discrete_distribution.branches.0.weight f4 [3, 128]
00000000: 433f 7d3e f60a 4f3e 8d32 de3d d8af 0ebe
00000010: 1efa f3ba 1428 7dbd 09e4 083f 9959 973d
00000020: a4e3 ecbc 4b0d 44bd 9454 153c d867 62bc
00000030: da00 c2bd 022a b7bc 4d9e 23bd ff4d f23d
00000040: a621 dc3e 285d 2c3e 1c95 ce3d e555 a63e
00000050: 0194 a73e e00b 8fbe 71ef 113e f650 b9bd
00000060: a331 8c3e c6c3 12bd ca60 b53e c0ed 433c
00000070: 6a31 d2bb 7e2f 103e f301 183e 14a3 e3bc
00000080: 52f5 f63c 9b78 5b3d 8f66 183d 9a0b b33e
00000090: 8226 5fbe 0217 a6bc 4a5e 12be f73b 773d
000000a0: 4e6e ab3e 20ca a13d 7c2f a93d 834e 69bd
000000b0: 457d fabd 56e1 3dbe 496d aa3d cd24 843e
000000c0: 017c 353e 65f9 d43d cad2 1f3e 455f 34bd
000000d0: c8d8 eb3d 2420 823e ba9c 133d 71bc 013c
000000e0: 490a 833d 6940 99bd 7920 1c3e 320d 09be
000000f0: a32e 8b3d 0469 853d 7a00 6a3a c875 2d3e
00000100: cbfe a4bd 0c46 523e c5a3 2b3e 7344 7d3e
00000110: e72a 313e e6f4 0bbe 9ac6 4ebb d3ee b23e
00000120: 3e69 883e 9a20 92be ec9d 57be 7b2e 2dbd
00000130: 5f7a 3b3e 9ad0 af3d 6534 503e 069b 47bd
00000140: 233f e1be aec8 393e b75d 143e f395 3ebc
00000150: babd 243e c15b fdbd f3ab 95bd 3a48 033e
00000160: e08f 863a cac6 f63e a3a4 f13d d4f1 06be
00000170: 7a33 6dbe 7ed8 24be ffa7 5bbd aaf7 2bbd
00000180: 1b7a 2abc c205 afbd aa24 843d 7b3e f83c
00000190: 8f5d 6e3d 694d 98bd 2b85 18be 538d d8bd
000001a0: 4907 493e 2af3 18bd b20f fc3c dae8 a8bd
000001b0: ab90 2c3e e983 e33c d6f2 86be 3e38 a2bc
000001c0: 453c 813e 3323 7e3e 15fa 0ebe 60ea 93be
000001d0: 2775 c2bd 8df9 843d 5469 11bd b92b 30be
000001e0: e53e f9bc 6916 273e 273a 8d3d ce0e e83d
000001f0: 5e2d 9d3d 884d e6bc bb0c 823d 2f14 c33d
00000200: 3655 04bf feff 94be 328f babe 7088 143d
00000210: 0873 ed3c 5297 1ebc 0a98 00bf 79ef 05be
00000220: 6f63 ee3e be7c 46be 99a8 393f fa56 1bbe
00000230: 1c5d ae3c 5e6c 0ebd 70f8 17bc 84f4 c9bd
00000240: 7951 f0be 0281 abbe 225a f0be bbf1 93be
00000250: 7a19 13bf 0cc1 d3bc 89d7 d4be c8ce 0a3d
00000260: d44b 153e e1de 84bb c1e0 313e 9dc1 3e3b
00000270: fac9 57be d655 9ebe e342 71be 2e14 b23d
00000280: 3201 d0bd 90f1 80be 8682 90be 80d6 1ebf
00000290: b770 273f 21ef 873d 99f7 8a3e ab1b a9bd
000002a0: 47d8 24be 9049 8bbe e9e6 e33d 7f25 993d
000002b0: 03ba 6e3d f0af c53e 1a77 c53e 9461 95bd
000002c0: 35a5 7ebe 0aa6 993d 4e6c 13bf 4e67 7e3b
000002d0: 4480 83bb 63ec a6be 1207 20bd 873c cd3e
000002e0: c623 a03e 6a4b 143f d91e d0be e70d 3a3e
000002f0: 01d7 bbbe b4fa 37be 5632 a13d d04b c9bc
00000300: 341b 2a3d ed79 f2be 18b0 1ebf f7d6 9e3e
00000310: 8776 57be 5be8 bb3d cc72 f3bb 861f 1abe
00000320: 668e 43bf bac9 553f 2270 3c3d d91c 5d3d
00000330: fa35 78be c1fb 933d 7a97 cebe 3453 8dbe
00000340: 75dc 2d3e aeb8 043e 8d2f 27be a657 33be
00000350: 2e30 46be 2514 8b3e 49d0 843f 9211 9bbe
00000360: d02c 8fbc e8b8 8c3d 815a 5ebf b597 b43e
00000370: 9327 323e 23ed 07bd b81f 4dbe fba8 243f
00000380: 6660 6e3e b330 54bd afdb 03be 849a 01be
00000390: b099 d2bd 5305 803e 4b6c 8b3e 995a 01be
000003a0: 6913 24bf 7e1a 66be 8095 a8bd 3bbf 3c3f
000003b0: db73 06bd 16cf 8b3e 7122 483f e79c 953e
000003c0: 7111 e9be 9efb 103c 9d4e cb3e b8e8 9c3f
000003d0: 69ad 9cbc 6e5c 2b3e 41ac a73d c358 b53e
000003e0: 523b 91bd f544 c8be 5b53 7a3e f862 96be
000003f0: bdb4 8ebe 3fa7 e3bc d077 26be 7f92 14be
0.24731164 0.20219025 0.108494855 -0.13934267 -0.001861397 -0.0618058 0.53472954 0.07390136
-0.028917141 -0.04786424 0.009114403 -0.013818704 -0.09472819 -0.022358898 -0.03994589 0.11831283
0.42994422 0.16832411 0.10087034 0.32487407 0.32730106 -0.27938747 0.14251496 -0.09048645
0.2738162 -0.035831235 0.35425407 0.0119585395 -0.006414582 0.14080617 0.14844494 -0.027787723
0.030146275 0.053581815 0.037207182 0.3496979 -0.21792033 -0.020274643 -0.14293781 0.06035992
0.33482593 0.078998804 0.0826101 -0.05695964 -0.122309245 -0.1854299 0.08321626 0.25809327
0.17723085 0.10399131 0.15607753 -0.04403617 0.11515957 0.25415146 0.036038138 0.007918463
0.06398446 -0.074829884 0.15246762 -0.1338394 0.067960046 0.06514171 0.00089264626 0.16939461
-0.080564104 0.20534533 0.16761692 0.24733143 0.17301522 -0.1366764 -0.0031551481 0.34947833
0.26642793 -0.28540498 -0.21056336 -0.042280655 0.183084 0.085847095 0.20332487 -0.048731826
-0.43993482 0.1814296 0.14488874 -0.01163243 0.16088 -0.12371016 -0.07308187 0.12820521
0.0010266267 0.4819854 0.1179898 -0.13178188 -0.23164168 -0.1609821 -0.05362701 -0.041984238
-0.010405089 -0.0854602 0.064523056 0.03030323 0.058194693 -0.0743664 -0.1489455 -0.105738305
0.19631685 -0.037341274 0.030769203 -0.08247538 0.16852061 0.02777286 -0.26357144 -0.019802209
0.25241295 0.24818115 -0.13962586 -0.2888975 -0.09495001 0.064929105 -0.03550084 -0.17204179
-0.030425498 0.16317143 0.06895857 0.11330949 0.07674669 -0.028113142 0.063500844 0.09525334
-0.5169252 -0.29101557 -0.36437374 0.03626293 0.028985515 -0.009679632 -0.50231993 -0.13079633
0.46560237 -0.19383523 0.72522885 -0.15169898 0.021284632 -0.034771316 -0.009275541 -0.09861091
-0.4693716 -0.33496863 -0.46943766 -0.28895363 -0.5746075 -0.025848888 -0.4157069 0.03388861
0.14579707 -0.0040548895 0.17370893 0.0029107102 -0.21073142 -0.30924863 -0.23560672 0.08695255
-0.10156478 -0.25184298 -0.2822458 -0.6204605 0.65406364 0.06637407 0.27142027 -0.0825723
-0.16098128 -0.2720456 0.11128027 0.07477855 0.058282863 0.38610792 0.3856743 -0.07294002
-0.24867709 0.075023726 -0.57587135 0.0038818899 -0.004013093 -0.32602224 -0.039069243 0.4008524
0.31277293 0.5792757 -0.40648535 0.18169366 -0.36687472 -0.1796673 0.07870929 -0.024572283
0.04152985 -0.47358647 -0.6198745 0.3102338 -0.21041308 0.09175178 -0.0074294563 -0.15051088
-0.7638916 0.83510935 0.046005376 0.05398259 -0.2423934 0.072257526 -0.40349942 -0.2760254
0.16978629 0.12961075 -0.16326733 -0.17513904 -0.19354317 0.27163807 1.0376064 -0.30286843
-0.017477423 0.068712056 -0.8685685 0.35271993 0.17397909 -0.033185136 -0.20031631 0.64320344
0.2327896 -0.051804256 -0.12876771 -0.126566 -0.1028322 0.25004062 0.27231058 -0.12632217
-0.6409212 -0.22471043 -0.0823164 0.73729295 -0.032825332 0.27306432 0.78177553 0.2922127
-0.4552112 0.008849053 0.39708415 1.225852 -0.019125657 0.16734478 0.08187152 0.35419282
-0.070913926 -0.3911511 0.2444586 -0.29372382 -0.27872267 -0.02778971 -0.16256642 -0.14509009

action_model._discrete_distribution.branches.0.bias f4 [3]
00000000: 50c8 143c e8a4 10bd 6306 813d
0.009080961 -0.035313517 0.06300046

action_model._discrete_distribution.branches.1.weight f4 [2, 128]
00000000: f073 043e 3589 e33d 0c3c 433e 53e8 40be
00000010: 5f2c 4ebd 4783 973d 59ac 0a3e e5fe ee3c
00000020: b5c6 b73e d816 83bd c525 823e 9e70 e4bc
00000030: f90c b03d dd72 883c 59ae 883b 0aef 72bd
00000040: f537 033e 85d7 183e 4586 1d3e 1745 c1bd
00000050: 3071 143e 0466 4fbe 655f 863e 2ffc ac3d
00000060: 18a1 3e3e 2d99 34bd a4a7 c83c 1912 9b3d
00000070: dbc3 2e3d 367f 6c3d 006f cd3d c71f 773c
00000080: f864 67be 5e6f c2bc 609f 3a3e eca7 643e
00000090: f3cc 123f a515 bb3d 8621 403e b3a4 ea3e
000000a0: 5601 943a 23f8 dd3d c2b5 42bd d07d 083e
000000b0: dbb9 823d 1d75 ae3e 54cc ce3e be6e 1bbe
000000c0: 5be6 8cbd 8214 a53d 981e 5b3e f273 c9bd
000000d0: 7e40 a03c 1d56 043e dc5c 943e 1aba 113f
000000e0: d53d 2d3f c064 3d3e d229 b23e ea75 533e
000000f0: 98ff 0fbb 1087 233e 41a3 643c 2cb9 8b3e
00000100: 6981 a63d ede6 bf3d 87fd 5e3c 9bd5 ae3d
00000110: 7a33 d7bb 3299 a93d c446 353e 71de 2dbe
00000120: 29c6 573e a894 3b3f 4c32 3ebe c8f0 8f3d
00000130: 22e8 ce3d b44a 2f3e a90c 3f3e 9355 03be
00000140: 618a 0fbf 7080 98bc a1c4 973d ea59 c33d
00000150: 9090 173f 5f86 283f 6810 ba3e c07f 58bc
00000160: e963 ab3b fb0d 19be 6d99 26bc ead5 0a3f
00000170: 1d87 403e 27a2 3dbc 5da4 aebd 3ffe 253e
00000180: 9b7c 09bd d01b a73e ae34 473d f361 363f
00000190: 27fb a63e cdc8 903e 03a8 413e 726a 85bd
000001a0: 9ca1 663e af32 b2bd 2bac 3a3d 665e 633e
000001b0: e8a7 0a3f 798b 973e 30db 323f a536 b33e
000001c0: dd5c 3f3e 8648 023e 3187 c43c 73a9 ce3e
000001d0: ea8e f1bd f29b 63be d566 07be 8615 a63e
000001e0: 71e3 ac3d dad9 d63d 8613 af3e c49a 4d3d
000001f0: a9ff 743d b2b1 843d 0e5b babb 7651 933d
00000200: d915 00be 36cd efbd aa99 51be 6b7a 3c3e
00000210: 84f0 2e3d 7bd5 4fbd be6b 23be 3fcb 0bbc
00000220: 1999 b3be a7f0 a43d 25ff 83be d85c 573c
00000230: ea39 84bd 9173 cabc 65dc 0abd 8049 3b3d
00000240: cd5b f8bd efd5 22be 1622 2fbe e5fa e53d
00000250: 68c8 2abe 6568 533e 6327 79be 1172 54bd
00000260: 0bf3 2ebe f8c1 0e3d d03d 36bd 497b a3bd
00000270: 0b7d acbc aea0 7cbd c8d9 8fbd 3a87 9cbb
00000280: 2ec4 6e3e d549 c93c 92dc 31be b6b6 5dbe
00000290: 129d 14bf 6711 89bd 55ba 47be f277 f5be
000002a0: 6a06 b23c 7a5d d2bd 2d67 803d 610b eebd
000002b0: 6eb0 8bbd 3b87 acbe 441f c6be c5c0 123e
000002c0: db36 a83d 5946 9ebd d17f 4dbe 969b ea3d
000002d0: 73aa 87bb 640d d8bd 3aaa 92be e98d 0fbf
000002e0: 87d9 2ebf 512a 43be df4a a7be fbbb 47be
000002f0: 12ee 1abc e0c5 13be 85e1 2ebb 75e9 8dbe
00000300: 0cc5 a5bd f1a2 dabd 93c8 0fbd 521e 95bd
00000310: d436 06bc fc27 8abd 23b6 33be 2180 1b3e
00000320: c3a2 6dbe 0088 3fbf 778a 3a3e ebac 8dbd
00000330: 7483 eebd ac85 38be 6abf 3bbe 7121 153e
00000340: 989c 083f 5f14 813c 2dc9 79bd c9ec b6bd
00000350: 0b1b 15bf a3ad 27bf 5bba b8be b6cf c23c
00000360: c8e0 9c3b 5a68 143e 1e15 553b 7cb2 0dbf
00000370: 43a8 47be c23d 02bc 316a 9a3d 4f22 2dbe
00000380: cf94 503d eb39 adbe 55b0 5bbd 8cd1 34bf
00000390: c5e6 a1be a05c 92be 1cfb 46be 04c6 a43d
000003a0: 11c0 6cbe daa3 8d3d 4e04 03bd ab22 6cbe
000003b0: 85b5 0abf f89c 9ebe 880b 34bf 4d55 b5be
000003c0: 7c2c 3cbe ef02 00be 2743 bbbc b89c dcbe
000003d0: 6cd2 f93d 66e2 773e 23b3 0b3e 976a a9be
000003e0: a1e2 adbd 53c7 c0bd 30cb a7be e796 72bd
000003f0: 8c1f 34bd fce3 8bbd a63c 14bb 8fdb 9fbd
0.12934852 0.111101545 0.19065875 -0.18838625 -0.050335284 0.07398086 0.13542308 0.029174278
0.3589379 -0.064008415 0.2541944 -0.027885731 0.08596224 0.016656334 0.0041711745 -0.059309997
0.12814315 0.14925964 0.15383251 -0.09437006 0.14496303 -0.2025376 0.26244655 0.08446538
0.1861614 -0.044091392 0.024494 0.07571811 0.04266725 0.057738505 0.10030937 0.01508326
-0.2259711 -0.023734745 0.18224859 0.22329682 0.5734398 0.09134988 0.18762788 0.4582878
0.0011291902 0.10838344 -0.04753662 0.13329244 0.06383105 0.34073725 0.40390265 -0.15178964
-0.06879874 0.08060552 0.2139839 -0.09836568 0.019562002 0.12923475 0.28977096 0.56924593
0.67672473 0.18495464 0.3479753 0.2065045 -0.0021972414 0.15969491 0.013954938 0.27289712
0.08130152 0.093702175 0.01361025 0.08536836 -0.006567416 0.08281173 0.17702776 -0.16979386
0.21071686 0.73273706 -0.18573874 0.07028347 0.101028696 0.1711834 0.18657173 -0.12825613
-0.56070524 -0.018615931 0.07410551 0.09538634 0.5920496 0.65830034 0.36340642 -0.013214052
0.005230416 -0.1494674 -0.0101684155 0.54232657 0.18801542 -0.011574305 -0.085274436 0.16210268
-0.0335661 0.32638407 0.048634224 0.7124321 0.3261349 0.282782 0.18911748 -0.065144435
0.22522587 -0.087010734 0.04557435 0.22203979 0.54162455 0.29598597 0.69865704 0.35002628
0.18687768 0.12722978 0.023990246 0.40363654 -0.11794837 -0.22227457 -0.13222821 0.32438296
0.084418185 0.10490771 0.34194583 0.050196424 0.05981413 0.06479205 -0.005687124 0.07193272
-0.12508334 -0.11709063 -0.20468774 0.18406074 0.042709842 -0.0507407 -0.15959069 -0.008532344
-0.35077742 0.08053713 -0.25780597 0.013144694 -0.06456359 -0.02471331 -0.03390159 0.045724392
-0.121268846 -0.15901922 -0.17102847 0.11229495 -0.16678011 0.20645292 -0.24331431 -0.051866595
-0.17084901 0.03485295 -0.044492543 -0.07982499 -0.021055719 -0.061676674 -0.0702396 -0.0047768624
0.23317024 0.024571339 -0.17369297 -0.2165173 -0.5805217 -0.06692772 -0.19504674 -0.47943074
0.021731574 -0.102717355 0.06269679 -0.11623264 -0.06820761 -0.33696923 -0.3869573 0.14331348
0.08213588 -0.077282615 -0.2006829 0.11455457 -0.004140192 -0.10549429 -0.28645498 -0.5607591
-0.6830067 -0.19059111 -0.3267431 -0.19505303 -0.009456174 -0.14430952 -0.0026684713 -0.27717176
-0.08094224 -0.1067561 -0.03510339 -0.07281174 -0.008191783 -0.06745908 -0.17549948 0.15185596
-0.2320662 -0.74816895 0.18216883 -0.06917747 -0.116461664 -0.18019742 -0.18334737 0.14563538
0.53363943 0.015756784 -0.06098287 -0.08931882 -0.5824439 -0.65499324 -0.36079678 0.023780685
0.004787538 0.14492932 0.0032513808 -0.5535047 -0.1949778 -0.0079492945 0.07539786 -0.16907619
0.050923165 -0.3383325 -0.05363496 -0.70632243 -0.31621376 -0.28586292 -0.19431728 0.08045581
-0.23120143 0.06916018 -0.031986527 -0.230601 -0.54183227 -0.30979133 -0.70330095 -0.35416642
-0.18376344 -0.12501119 -0.02285917 -0.43088317 0.12198338 0.24207458 0.13642554 -0.33089134
-0.08490492 -0.09413018 -0.32772207 -0.059225943 -0.043975398 -0.06830594 -0.0022619157 -0.07805549

action_model._discrete_distribution.branches.1.bias f4 [2]
00000000: 5b58 65bd 295b 653d
-0.055992465 0.05599514

q1_network.network_body._body_endoder.seq_layers.0.weight f4 [128, 3]
00000000: 4459 c0bc 9a1b 3bbf 9625 113e 7674 59bf
00000010: ba0a 2fbe fe67 fbbd 4751 bdbd 69d2 7c3f
00000020: a0cc 3fbe 6f8a 1bbd f58d 033f d8e3 a53f
00000030: b754 54bd 14cf 0e3e 172f 573e 609d 7ebf
00000040: 1300 24bf 33b9 0c3f bacd 03be 424b 3ebf
00000050: b345 39be bb23 663f c7eb 5abf b10f 57be
00000060: 2ff2 863f a21a 843e c961 bcbe fc0d 4d3f
00000070: 16c9 73be 3646 8ebf 2aa4 fa3e 5279 403f
00000080: 3458 533e 7c19 41bf d15e 0b3f d492 da3e
00000090: f1bb a03d 9867 33bf 760f 853f f287 893e
000000a0: 658f 09bf dd8f 3cbd 3798 313f 88c9 123e
000000b0: f03a b1bd 161a 5e3f 4778 acbe b306 90be
000000c0: 1143 7ebf 36c5 6b3e 83ef 0dbf 2322 67bc
000000d0: 5735 2d3f 7076 adbe e16a d73e 8965 44bd
000000e0: 3f0e c03e 80e8 5f3f ca01 da3e 50db ce3e
000000f0: f6f9 9a3f 38cc 69bd 4238 96bf 6589 263e
00000100: 4c20 65bf 575e 12bd 2710 97bf 7b39 d5be
00000110: d190 0bbd eb5f b2bc 4312 7a3f ab52 03bd
00000120: 3852 33bf 2b14 4b3d 6bb1 883f 8955 613e
00000130: 2906 3ebe 5a64 173f 6fa1 fabe 5cf4 31bf
00000140: edf8 7fbe f1ff 41bf d437 003e 7c0f 213c
00000150: 24e4 1ebf 6f95 35bf 74ec 963e 052e 0c3e
00000160: 501e 953f ead7 4bbe ac11 fe3e 002b b8bf
00000170: a30d 073f 32fb 6e3f 48e0 debe f6b0 e83e
00000180: 74cd d73e 4885 94be 3e48 673d 6a70 18bf
00000190: 1e02 b2bf 2c33 cabe ec84 84be f268 413f
000001a0: 1097 16be 485e d6bd 0d6d 39bc 9ae0 0ebe
000001b0: 3fcd f1be b7c0 a33f 8b07 b2be f7f1 213f
000001c0: 5a0e 403d 3978 acbe 8e78 8abe 72a0 373f
000001d0: 790a adbe 0c13 aabf 8c6b 833f 8edc 79bf
000001e0: a496 b0be bc7e 7b3f 3af0 b2be 5468 94bc
000001f0: d8e1 59be 8abd 243b 8750 893f 286f 293f
00000200: a243 113d 8404 3c3f 1f6e 5cbd 84e2 d4be
00000210: da77 9dbe 5259 04bf ccf0 8d3e 1268 2abe
00000220: 446a 0b3f e59c aabe be66 003f 2126 4e3f
00000230: 6437 993e df37 12be 2a4a 0abe 74d3 6cbe
00000240: 4605 1abc 86ba 74bf b307 df3e 1238 753f
00000250: a6db e63d 3f54 f43d b61f e5be 2307 ce3e
00000260: 6fea a5be 04fe 4a3f e3c0 683e d91e 433f
00000270: b4cc 82bf 7af2 733f 4402 c03b 7b99 a2bc
00000280: 2aaa 853e e989 9b3e 861d 773f 89a5 5e3f
00000290: bbea 13bf 21ec 01be 8f0d cd3f 27e6 61be
000002a0: af14 9a3e 67eb 96bd 6bd2 8fbd b8ef 35bf
000002b0: 5b81 fd3e 66b2 24bf 35b6 b9be dd6e 123f
000002c0: 7795 0a3f a518 4c3f 4d3a 523f 9076 8abe
000002d0: e7cf 5d3d 520c 113e f766 aa3e 8d23 4a3e
000002e0: 467a b0be 123e b4bd 9cab db3d ad36 6a3f
000002f0: c925 193b 986f 2fbf 9985 b7be 10f3 18bf
00000300: cd1a b8be 97b2 70bf 2be9 273f d098 4fbe
00000310: bed4 e3be 3cb9 133f d1ee 793f c889 6ebe
00000320: 947d bbbe ed16 973f a46e ccbe 2c7d 263f
00000330: 0dc1 ccbd 24e5 843f f92f 233c d3f1 88bf
00000340: e751 0fbf d80f cc3e a5a3 b43e 0a14 96bd
00000350: c9bd 91bd 4049 02bd 7091 4b3d 7240 9ebd
00000360: c996 fc3e 9582 913f e704 ebbd 3be8 22be
00000370: 57b0 17be 7667 ab3e d9e1 cdbf 1291 fc3e
00000380: f1bd b43e 6a2b b7be beec 9ebf 63e4 6ebe
00000390: 1f84 9f3b 3d4a ae3f df6b 9ebe 47c0 abbb
000003a0: 8691 17be f19b c33b f8f4 e63f 1f55 3f3f
000003b0: dd0f d43e 3e26 bdbe 526b 23bd 8e3d f73e
000003c0: 3a39 03bf 8079 353f f020 9e3e 939d b13e
000003d0: aacb f7bd 4652 83bf 1012 c6be 18d0 c13d
000003e0: 73c3 1e3f ee00 5a3f 9823 6d3e 93f9 90be
000003f0: bf26 083f ec27 823f 2909 8dbf 3441 05bf
-0.023480065 -0.7308899 0.14174494 -0.8494333 -0.17093936 -0.12275694 -0.09244018 0.9875856
-0.18730402 -0.037973817 0.51388484 1.2960157 -0.051838603 0.13946182 0.21014057 -0.99458885
-0.64062613 0.5497009 -0.12871447 -0.74333584 -0.18092994 0.8989827 -0.8551602 -0.2100208
1.0542659 0.2580157 -0.36793354 0.80099463 -0.23807177 -1.1115177 0.48953372 0.7518512
0.20639116 -0.7542951 0.54441553 0.42690146 0.07848347 -0.70079947 1.0395343 0.2686153
-0.5373443 -0.046035636 0.69372886 0.1433469 -0.086538196 0.86758554 -0.33685514 -0.2813011
-0.99321085 0.23024449 -0.5544359 -0.01410726 0.67659515 -0.33879423 0.4207373 -0.047948394
0.3751087 0.8746414 0.4257949 0.40401697 1.2107532 -0.057079524 -1.1735919 0.1626335
-0.89502406 -0.0357345 -1.1801804 -0.41645417 -0.034073655 -0.021774253 0.97684115 -0.03206126
-0.7004733 0.04957978 1.0679144 0.22005285 -0.18557037 0.591375 -0.4895129 -0.6951349
-0.24997301 -0.7578116 0.12521297 0.009830352 -0.62066865 -0.7093114 0.29477274 0.1368943
1.1649876 -0.19906583 0.49622858 -1.4388123 0.52755183 0.93352044 -0.43530488 0.4544751
0.42148936 -0.29007936 0.05646538 -0.5954653 -1.3906896 -0.39492166 -0.2588266 0.7555076
-0.14706063 -0.104672015 -0.011317504 -0.13952866 -0.47226903 1.2793187 -0.3477138 0.63259834
0.046888687 -0.33685473 -0.270451 0.71729195 -0.33797053 -1.3287063 1.0267196 -0.97602165
-0.3448993 0.98240256 -0.34948903 -0.018116154 -0.21277559 0.0025137388 1.07277 0.66185236
0.03546489 0.7344439 -0.053815957 -0.41579068 -0.30755502 -0.5169879 0.27722776 -0.16641262
0.54459023 -0.33322826 0.5015677 0.8052693 0.29925072 -0.14279126 -0.13504854 -0.23127538
-0.009400671 -0.9559711 0.43560562 0.9578868 0.11272363 0.11930131 -0.44750756 0.4023982
-0.3240542 0.7929385 0.2272983 0.76218945 -1.021872 0.95291865 0.005859645 -0.019848576
0.26106387 0.30378655 0.96529424 0.86971337 -0.57780045 -0.12687732 1.6019763 -0.22060452
0.30093905 -0.07369118 -0.07022556 -0.71068907 0.49512753 -0.64334714 -0.36271825 0.57200414
0.54134315 0.79725105 0.8212021 -0.2704358 0.05415335 0.14164856 0.3328168 0.19740124
-0.34468287 -0.088009015 0.10726091 0.9148968 0.002336847 -0.68529654 -0.35844114 -0.59745884
-0.35957947 -0.94022506 0.6559016 -0.20273137 -0.44498247 0.5770452 0.9763003 -0.23294747
-0.36619246 1.1803871 -0.39928162 0.6503475 -0.09997759 1.0382428 0.009960168 -1.0698799
-0.5598435 0.39855838 0.352811 -0.07328041 -0.07116277 -0.031808138 0.049699247 -0.07727136
0.4933379 1.1367975 -0.114755444 -0.15908901 -0.14813362 0.33477372 -1.6084548 0.4932943
0.35301164 -0.3577531 -1.2415998 -0.2332931 0.004868045 1.3616406 -0.30941674 -0.005241427
-0.14801607 0.0059695174 1.8043509 0.7473926 0.41418353 -0.3694324 -0.03989727 0.4828915
-0.51259196 0.7088852 0.30884504 0.34690532 -0.12099393 -1.0259483 -0.38685656 0.09463519
0.6201698 0.8515767 0.23158109 -0.2831541 0.5318412 1.0168433 -1.101842 -0.5205262

q1_network.network_body._body_endoder.seq_layers.0.bias f4 [128]
00000000: 2cce 0abe a8e2 b93c 87e6 a43e 502c 92bd
00000010: 838c 2fbd ada5 adbd 8310 693e aa78 b2bb
00000020: 3e84 9f3e a8c0 1c3d b44b 72bd ab03 27bd
00000030: a138 a4bd 7e22 bdbc 9a01 67bd 713f a03e
00000040: af02 d03d d3e7 033f 8c95 dcbd 21e1 a8bd
00000050: 582d cabc 21d8 be3d 2571 33bd 9220 013c
00000060: 450e 8fbd 4558 e2bd d974 32bd 1606 bcbd
00000070: e987 38bd a52d 533e a362 86be fe09 debd
00000080: 589f e5bc aa9a af3d 8cd4 073e 8bb3 a23e
00000090: 3b88 de3e 9a32 e53e 51ec 923e b522 223e
000000a0: f0fd 963e 928f 2cbd 6f2a a6bc 0d60 b63e
000000b0: 8b5b fbbb 4997 093f c631 42bd d23e 0c3f
000000c0: 58f5 91bd 887e a8bd 3caa 093f b675 53bd
000000d0: 81bd b5bb b32a 2ebc a806 a93e ca40 ef3e
000000e0: 6c53 b4bb bbc5 bc3c 3e42 67bd 0ef3 c03d
000000f0: 7b33 4fbc d563 afbd d24a 113e c306 e43e
00000100: be1c b6bd af9a 4ebd b351 bf3e 19a8 1ebe
00000110: c1c0 013a cb33 8fbd fc3f 043d 1541 bf3a
00000120: 7268 f5bd 2725 11be 91a3 9bbc c7d0 98bd
00000130: 9d85 083f 7a10 e8bb a62d 643c 1f06 f7bc
00000140: b9cb 88bd 3226 723b 493e 8bbd 4b88 7a3e
00000150: d566 3c3c 0ae9 45bc 8d55 863e 359a 05bd
00000160: 06a1 f8bc 6436 753d 8dba 6cbd ad48 003f
00000170: 97d0 14be d8c8 4cbd b346 cc3e 17ea a0bd
00000180: 23af a73d 4cd1 9abd 2491 583b 6b6b f2bd
00000190: ac7a 9ebd e04c 1ebe 4ff7 2dbe edbc a13d
000001a0: cc29 e93e 1193 4dbd 77ba 11bd 7f53 093e
000001b0: 65c4 1d3f 68bb e5bc 6f9f 63bd e163 c9bd
000001c0: d724 7d3e a299 61bd 98f0 45be e9c8 dcbb
000001d0: 53bb babd 4a3b 4b3e 31fc 113c dfc1 3e3d
000001e0: c665 a4bd fa49 86bd 68bc 6c3d 4fc4 203d
000001f0: 5f71 69bd b62d c53c 04be 143f 0352 d2bd
-0.13555211 0.022691086 0.32207128 -0.07137358 -0.04285861 -0.08478866 0.22760205 -0.005446513
0.3115558 0.03826967 -0.059154227 -0.040774982 -0.080186136 -0.023087736 -0.05639801 0.31298402
0.10156762 0.5152561 -0.10770711 -0.08246065 -0.024679825 0.09318567 -0.043809075 0.0078813005
-0.069851436 -0.11051992 -0.043568466 -0.09180848 -0.04505149 0.20622881 -0.2624713 -0.108417496
-0.028030083 0.08574422 0.13264674 0.31777605 0.4346331 0.44765168 0.2869592 0.15833552
0.29490614 -0.042129107 -0.020283906 0.35620156 -0.007670825 0.5374647 -0.04741075 0.54783356
-0.07126874 -0.08227259 0.5377538 -0.05162593 -0.0055462723 -0.0106302975 0.3301289 0.46729118
-0.0055031087 0.023043504 -0.056459658 0.09421359 -0.012646551 -0.08563963 0.14188698 0.4453641
-0.08892201 -0.050440487 0.3736702 -0.15493812 0.0004949682 -0.069923006 0.032287583 0.001459154
-0.11982812 -0.14174329 -0.018998893 -0.07461696 0.5332888 -0.0070820423 0.013926899 -0.030154286
-0.06679482 0.0036949036 -0.06798989 0.24466054 0.011499126 -0.012079487 0.26237145 -0.032617766
-0.03035022 0.059866324 -0.057795096 0.50110894 -0.14532696 -0.049996227 0.3989769 -0.07857149
0.081877016 -0.075594515 0.0033045495 -0.118368946 -0.077382416 -0.15459013 -0.16988872 0.07897363
0.455397 -0.05018908 -0.035578217 0.13410757 0.616278 -0.028043464 -0.05557197 -0.098335035
0.24721085 -0.055078156 -0.1933006 -0.0067378175 -0.091177605 0.19846836 0.008910225 0.04657161
-0.08027224 -0.06557079 0.057796866 0.039249714 -0.056992885 0.024069648 0.5810244 -0.10269549

q1_network.network_body._body_endoder.seq_layers.2.weight f4 [128, 128]
00000000: a610 0abe 4e91 ab3c 40ba 8cbd 8098 cb3d
00000010: b51f 343e 5933 23be f176 2abe 9f3f c9be
00000020: b4cb 05bf 75ff 943d fb6e 23be d401 1abd
00000030: 0b71 343c ac6c 163e f5e7 093f 1ec8 dabe
00000040: 1b1d e1bd e9c4 99be bfc9 a4bc a8ce 373d
00000050: dae6 54bd 2ecb e93d ab6c 90bd 8625 dc3d
00000060: 8030 10be ecd6 023e eb51 033b 35b3 03bd
00000070: 1d3b bbbb 8285 f5bd 3994 74bd e2a0 babc
00000080: 23e6 a13d 8461 cabd fc7c fdbd 1056 1ebe
00000090: cfa2 6e3d ea83 edbd 03cb 893d fd4e b2bd
000000a0: 7868 dcbc a268 8cbd 312a 1b3e e3c4 58be
000000b0: 11a5 29be 8098 8bbd 89d2 893d 71ab ddbd
000000c0: e8fa 013d a5fd 833d 235f 53bb b969 45bd
000000d0: b808 ab3d 27c0 88bd f11a 833d e8ff 06bd
000000e0: 6228 693e c4e4 2d3e 2774 4dbe 834b 81be
000000f0: 210a e4bc ec00 d73d 6931 553e 85d7 dc3d
00000100: 78cf c6bd 8357 32bd 8f1e fdbe 906d 0bbc
00000110: 66c8 84bd abe3 e93b ca1d b73e c276 12be
00000120: 4112 873e fe3e 7dbd 5160 cabc 08fb d43b
00000130: 779f 3dbe 9487 7d3b 0c42 5bb8 897a b03a
00000140: 6b50 43be 4b86 313d e4e0 923b 92b8 9bbe
00000150: 2caf 2d3e ee7b bfbd 5540 03bf dbb6 e73b
00000160: 5030 47be 1b37 28be 6436 7ebe 86ec 7abd
00000170: fbb6 213d 7fb0 533d 08e1 d6be 1351 41bd
00000180: 9dac 9a3d 2259 db3d e290 483d e854 5eba
00000190: e69f 4f3c c1d1 5abe b5b9 19be 7b4e b5bd
000001a0: addc 14be 9740 32be 865e 623c 8f33 83bd
000001b0: ce56 743d c025 8cbd 294d 63bd 4810 3abe
000001c0: 044a 4b3c d687 8cbc ab91 51be ca23 73be
000001d0: 89fa 4d3d 9cef 28bf eec3 983d 6b84 463e
000001e0: 984e 263c 353d 33bd 5517 b43a 8998 20bd
000001f0: ddc1 b5bc 2511 713e 2206 2dbd 1d5b 2bbe
00000200: b23c 59be 1bc3 0f3d c622 d3be 26b3 ea3c
00000210: ee22 73bd 02e9 443e c8b8 a6be 4c84 4fbd
00000220: 7961 83bd 5a5b a9bd 95ff 36bd 1a74 c83d
00000230: e06c 90bd 8ab2 d7bd 803c f4be 73e4 6bbe
00000240: c0ee 69be 6095 12bf 25dd 71be 3af7 f83c
00000250: 56f6 f1bc b669 81be 4a5d 34bd a836 3f3e
00000260: 5789 6b3d dfc2 36bd e36b 81be f5d8 f1bc
00000270: 2cbc bfba a8ac c2be 0c57 85be 10c8 c33d
00000280: 0777 1bbe 36dc 33be c365 e5bc ce1e cbbe
00000290: 49c5 b2be c5de 92be 5ab4 bcbe f38a 48be
000002a0: 5f03 dfbe d746 f5bd 50ef 0f3e 70e5 eebe
000002b0: 2bc1 1f3d a3ae e2be 78b7 c23d 4f60 a8be
000002c0: ce3b 15be d34b 9cbc c74d ebbe fa14 02bd
000002d0: b3bc 1a3d 214f a63d 34fa 29be 3236 e2be
000002e0: 0319 c0be 3067 1dbe 6d12 2e3d 516b 25be
000002f0: 8a0a 893d 4ea9 863c 2ffe edbc 4d7b 06bf
00000300: 753b abbd f52f 5dbd a5fb 2fbe 0a83 bbbc
00000310: aff4 863e d247 66bd fb83 f1be 78f2 d33d
00000320: 7d13 a6be aec4 7bbc 1989 1ebc 63c1 9cbe
00000330: bd0e c4be 1ac6 c0bd a788 c93e f76f 3ebd
00000340: a109 843d 19a5 6fbc bb74 1b3d 34fd 70be
00000350: a5e3 d1bb 1e28 34be 732b 61be 992b 5b3e
00000360: 9d36 60bd 7bd3 b1be 2602 6ebe dbdc fcbe
00000370: e40d 67bd d58e 9f3d 1d1b 0bbd f8ac 23bc
00000380: 227c 803e e1b8 26bd 0435 3a3d 693f 633d
00000390: ce64 87bd 20fb 50be bfb5 19be 7111 3dbe
000003a0: 5b11 80be 5b1e 09bc 3431 b43e e7c3 83be
000003b0: 6fd3 22bf 2595 e33d 7f09 823d e4ec c6bd
000003c0: bcb9 2fbe 6e37 e3bd 6b29 a23d 2d8d 70be
000003d0: fdb4 d23c 3eeb 8bbe 3913 ffbd daf1 f939
000003e0: 4a3a 15be f471 9bbe dfeb 2abc 0c93 61bd
000003f0: 45b0 bfbd be2a 48be 63a8 dfbe df51 7cbd
-0.13482913 0.02094331 -0.06871462 0.099411964 0.1759022 -0.15937556 -0.16646935 -0.39306352
-0.5226395 0.07275287 -0.15960304 -0.0375994 0.01101328 0.14689893 0.53869563 -0.42730802
-0.109918796 -0.30033043 -0.020115731 0.044874817 -0.05197797 0.114157066 -0.07051977 0.107493445
-0.14081001 0.12777299 0.002003784 -0.032153327 -0.005713834 -0.11988355 -0.05971167 -0.022781793
0.07905223 -0.09881881 -0.123773545 -0.15462518 0.058260735 -0.11597426 0.067281745 -0.08706472
-0.026905283 -0.068558946 0.15152813 -0.21168856 -0.16566874 -0.068161964 0.067296095 -0.108237155
0.031733423 0.06444863 -0.003225275 -0.048196528 0.08351272 -0.06677275 0.06401623 -0.032958895
0.22769311 0.16981798 -0.2006384 -0.25252923 -0.027836861 0.10498223 0.2081963 0.107832946
-0.0970754 -0.04354049 -0.49437377 -0.008510008 -0.064835355 0.007137736 0.35764915 -0.14303115
0.26381114 -0.061827652 -0.02470413 0.006499652 -0.18517862 0.0038685547 -5.227518e-05 0.0013464253
-0.19073646 0.043340962 0.0044823755 -0.30414253 0.16961354 -0.093498096 -0.5127004 0.0070713586
-0.19452024 -0.16427271 -0.24825436 -0.061260723 0.039481144 0.05168199 -0.4196856 -0.04719646
0.075524546 0.1071036 0.048966296 -0.000848128 0.0126724 -0.21369077 -0.15012248 -0.088528596
-0.14537306 -0.17407452 0.013816481 -0.064063184 0.059653096 -0.06843138 -0.055493508 -0.18170273
0.012407783 -0.017154615 -0.20465724 -0.23744121 0.050287757 -0.65990615 0.074592456 0.19386451
0.010150574 -0.043759543 0.0013739864 -0.03920797 -0.022187168 0.23541696 -0.042242177 -0.16733976
-0.2121456 0.035098176 -0.41237468 0.028649878 -0.059359483 0.1922951 -0.32562852 -0.050663278
-0.06415076 -0.08269377 -0.044677336 0.097877696 -0.07052016 -0.105321005 -0.47702408 -0.23036365
-0.22844982 -0.5725918 -0.23619516 0.030391324 -0.029536407 -0.25275964 -0.04403428 0.18673193
0.057504024 -0.044619437 -0.25277624 -0.029522398 -0.0014628223 -0.3802235 -0.26042974 0.09559643
-0.15182124 -0.17564473 -0.028002625 -0.3967194 -0.34916142 -0.28685585 -0.36856347 -0.19584255
-0.4355726 -0.11976402 0.14056134 -0.46659422 0.03900258 -0.44273862 0.0950765 -0.32885978
-0.14573595 -0.019079125 -0.45957777 -0.031758286 0.037777614 0.081205614 -0.16599351 -0.44181973
-0.37519082 -0.15371394 0.04249804 -0.16154219 0.06691463 0.016438153 -0.029051868 -0.5253189
-0.0836095 -0.054000814 -0.17185839 -0.022889633 0.26358554 -0.056220837 -0.47171006 0.103489816
-0.32436743 -0.015366716 -0.009676241 -0.30616292 -0.38292494 -0.09412785 0.3936207 -0.046493497
0.06447149 -0.014626765 0.03795312 -0.2353409 -0.006405311 -0.17593428 -0.21989231 0.2140335
-0.054739583 -0.3473166 -0.23243007 -0.4938725 -0.05640973 0.07790915 -0.033961404 -0.009989969
0.25094706 -0.040703658 0.045460716 0.055480395 -0.06611024 -0.20408297 -0.15010737 -0.18463685
-0.2501324 -0.008369054 0.3519379 -0.257354 -0.6360387 0.111124314 0.063494675 -0.09713152
-0.17160696 -0.11094557 0.07918056 -0.23491354 0.025721068 -0.27327913 -0.12454838 0.00047673174
-0.14573017 -0.30360377 -0.010432213 -0.055071875 -0.093597926 -0.19547555 -0.43683156 -0.061601516

q1_network.network_body._body_endoder.seq_layers.2.bias f4 [128]
00000000: 778a 8bbb 8165 a83d 53b2 be3a d345 153e
00000010: 9a31 74bc a296 f43b 5d28 5c3e 141f 9c3b
00000020: fe5a 88bb fd48 3b3e 1713 a9bc 7c92 9f3c
00000030: 2c63 e83c 9849 7dbc 41f4 433c ed28 b23c
00000040: b1b6 97bd 0ecc 053e 1acc a1bd fc2e a83b
00000050: 4d09 93ba 234a 1b3d 16b3 8abc 7a65 08bd
00000060: 4d2b d4bb 6f57 10bb 1d4e 06bd bd75 1cbd
00000070: bff9 26bc 5c60 c83b 2cd6 15bc b923 94bc
00000080: 1149 a1bb 9756 1f3e 9482 943d a147 cc3d
00000090: 7984 0c3e a9df 283b 38a2 073d 6dd5 933d
000000a0: da31 f3b9 93ac cdbc 3bad cdbc 7ffd e73d
000000b0: 60b8 a7bc 295f a93c c474 a1bb f7da c43d
000000c0: b55d 5cbd 0bf3 b73c d718 89bb c745 c23c
000000d0: c52f 063e dfe7 68bb 06b7 8c3d 1c3c b9bc
000000e0: 5f14 063e 1d0e efbb b09a 973d e173 2dbd
000000f0: 88b8 2d3e ac7d 5fbc 0c9c 093e 05de fabc
00000100: 5e9f e9bc a2e0 e93b 8514 00bd e178 a33d
00000110: 9dec 903d 6965 fe3d fbf1 1dbd 5407 c5bd
00000120: 9f54 89bd 292d 16bd cf32 4cbd 291a 343e
00000130: 5d1f 65bc 78bf ccbc cfef 0c3b 2c89 c5bc
00000140: 96f0 b93c 9cf9 ebbc 5de8 98bc b49c a2bb
00000150: f4a6 c63d 1953 413a 87fc c4ba f4b6 0b3e
00000160: 1f08 9d3c 5747 ebbc 183e 46bc 26be 3abc
00000170: a4aa c2bc 9017 283c f9f9 c1bc 1c5c a83d
00000180: 01eb 0f3c 9cbd cdb9 60ed be3a bd71 cabc
00000190: b369 53bd 17c2 fabc 495c 0a3c 5122 d63b
000001a0: 12d8 0cbc f722 b2bc 9d71 d4bb 55e6 d9bc
000001b0: 2d73 a6bb c659 f439 cbce ebba cb8f 3a3d
000001c0: 8658 9b3b c133 bcbc 0899 14bd 4414 1e3e
000001d0: c4a8 b13c 80de f53d 64ce 63bd 1d30 203b
000001e0: e64e fb3d 7545 20bc 43df c33d 819a 0a3e
000001f0: 7cda a7bc 12bb 5f39 f21d d03b 0205 f33d
-0.0042584497 0.08222485 0.0014548994 0.14577417 -0.014904404 0.007464246 0.21499772 0.004764447
-0.0041612377 0.18289562 -0.020638986 0.019479029 0.028367601 -0.015459441 0.01196009 0.02174803
-0.074078925 0.13066122 -0.079002574 0.005132554 -0.0011217982 0.0379125 -0.016931098 -0.0332999
-0.0064748884 -0.002202477 -0.03278934 -0.03819822 -0.01019138 0.0061150026 -0.009145301 -0.01808344
-0.0049220403 0.15560375 0.07251468 0.099746 0.1372241 0.0025768077 0.03311369 0.07218442
-0.00046385714 -0.025106704 -0.025107017 0.113276474 -0.020473659 0.020675259 -0.0049272496 0.09612077
-0.053800303 0.02245476 -0.0041838693 0.023714913 0.1310416 -0.0035538597 0.068708465 -0.02261167
0.13093708 -0.0072953836 0.07402551 -0.04234684 0.16964924 -0.013640802 0.13438433 -0.030623445
-0.028518375 0.007137374 -0.03126957 0.0798204 0.070763804 0.12421686 -0.03856085 -0.09620538
-0.06705593 -0.03666416 -0.049853142 0.17588104 -0.013984528 -0.024993643 0.0021505242 -0.02411326
0.022697728 -0.028805546 -0.018665487 -0.004962528 0.096998125 0.0007374748 -0.0015028872 0.1364401
0.019168912 -0.02872054 -0.012099765 -0.011397874 -0.023763008 0.010259524 -0.023678767 0.082206935
0.008784057 -0.00039241917 0.0014566593 -0.024712438 -0.051614475 -0.030610127 0.008444854 0.0065348526
-0.008596437 -0.021745188 -0.0064832703 -0.026599089 -0.005079648 0.00046606193 -0.0017990706 0.045547288
0.0047407774 -0.022973897 -0.036278754 0.15437418 0.021686919 0.12005329 -0.05561675 0.002444274
0.12270908 -0.009782185 0.09564068 0.13535501 -0.020489924 0.00021336626 0.006351226 0.118661895
