results/first/SpaceInvaders/SpaceInvaders-4416.pt (torch, 951865 bytes, 83 tensors)

discrete_act_size_vector f4 [1, 2]
3.0 2.0
00000000: 0000 4040 0000 0040

network_body._body_endoder.seq_layers.0.weight f4 [128, 3]
-0.050100427 0.9757282 0.40747395 -0.2518922 0.093800396 -0.94539696 -0.4023197 -1.3073078
-0.2089574 -0.065966345 0.35565907 -0.41445312 0.47813645 0.67778355 0.6712539 0.5727262
-0.6554866 0.5309509 -0.65959924 0.690633 0.40093446 1.2284646 0.2727191 0.37907878
-0.30009124 0.44917077 0.67000437 0.707919 0.92607844 -0.8091346 -0.7139864 -0.5166399
-0.24734011 -0.72733957 -0.9728505 0.77439946 0.9464175 0.9610488 -0.5051517 0.53151935
-0.37311617 -0.32451442 0.99505395 -0.62584615 0.4246413 -1.0041785 -0.5007435 -0.31127712
0.67148435 -0.05157781 -0.36628777 0.84913623 0.7072004 0.101563215 0.92786396 -0.37093654
-0.052030787 -0.37611306 -1.0092528 0.3825066 0.22414869 -0.10556858 0.27890754 0.7213604
-0.26015574 0.17183265 0.5384457 -0.6107453 -0.31299838 -0.49613613 0.26349455 -1.2669696
0.39681843 0.5847166 -0.98716867 -0.043465264 0.029537113 -0.2710651 0.49235025 0.33966273
-0.2095922 -1.0576401 -0.6084457 -0.6528646 -0.9975432 -0.015952097 1.186904 -1.4710418
-0.5505351 0.46465644 -0.80373114 -0.20260581 -0.63332945 -0.046063043 -0.28483918 0.37443432
-0.56568205 -0.26486376 -0.10932524 -0.020681301 -0.96634424 -0.5120197 0.5852383 -0.39468873
-0.3237743 -0.96003884 -0.6355686 -0.032087635 0.16258378 0.062331043 0.37111166 -0.20508064
-0.76911527 0.8137393 -0.4079029 0.44298798 -0.33092344 -0.9657644 0.07653613 0.16786176
-0.4406446 -0.3786323 -0.03612816 -0.77596164 0.9248492 -0.79577345 0.21846719 0.55080706
0.31482223 0.41110978 0.56968445 -0.3057607 -0.230941 0.3757373 1.1613858 0.65200824
0.038342275 0.49629512 -0.8990993 0.37972623 -0.19666016 -0.40595382 0.15771325 -0.15526082
1.1734316 -0.5797013 0.26266897 -0.46551296 -0.026542561 0.38918146 -0.66550785 -0.8399905
1.0917661 0.47221336 0.28423268 0.7815455 -0.17126076 0.30023536 0.43198463 0.7839889
-0.36345118 -0.47846815 -0.1827543 0.23024999 0.42477685 -1.3886297 -0.42381346 -0.2864404
-0.62972766 0.4188247 0.62534404 0.017398277 -1.2684889 -0.8594015 -0.26188055 -1.3890374
0.14141156 0.8143537 0.15308228 0.3890115 -0.060179126 0.47153994 -0.084040925 -0.31988677
-0.29421237 0.29363814 0.2651342 -0.20943996 -0.08405893 0.4525717 -0.020173399 0.9504688
-0.33482257 0.0794622 -1.0183649 -0.047999058 1.422323 -0.24767606 1.0120159 -0.08646965
0.6245085 -0.7573583 0.3789335 0.20536122 -0.51761854 -0.3250923 0.12946196 -0.21876347
0.9199536 -0.19946235 -1.1742775 0.070092544 -0.19665362 -0.5496767 -0.23017795 -1.3328573
0.62276435 0.42112875 -0.2196075 -0.4836673 -0.4060964 -1.7741601 -0.7985146 0.1486128
0.057785124 0.23116824 0.75223565 -0.108351134 0.07291877 -0.31187358 0.6361351 -0.12279775
0.7650131 0.4655853 1.1371926 -0.17867187 -0.34410408 -0.13770385 -0.07023988 -0.5654838
-0.9217169 -0.7274346 -0.6534062 -0.08279174 -0.15157752 -0.5032071 -0.12901495 1.4618468
0.45220846 -0.50805026 -0.132195 0.55594796 -0.5650468 0.09566617 -1.07288 -0.74314713
00000000: 1b36 4dbd 53c9 793f 6da0 d03e 04f8 80be
00000010: 6c1a c03d 8905 72bf d9fc cdbe dd55 a7bf
00000020: eef8 55be 5d19 87bd f218 b63e 3333 d4be
00000030: 4dce f43e 3983 2d3f 4cd7 2b3f 2f9e 123f
00000040: f8cd 27bf 66ec 073f 7fdb 28bf 53cd 303f
00000050: 4847 cd3e 543e 9d3f d6a1 8b3e 9d16 c23e
00000060: 8fa5 99be b6f9 e53e 6885 2b3f 2e3a 353f
00000070: 7a13 6d3f 7223 4fbf d0c7 36bf 8342 04bf
00000080: ba46 7dbe ed32 3abf bb0c 79bf 0b3f 463f
00000090: 6b48 723f 4b07 763f 9f51 01bf a711 083f
000000a0: 1509 bfbe c126 a6be dbbb 7e3f 7437 20bf
000000b0: 966a d93e ec88 80bf ba30 00bf b75f 9fbe
000000c0: 66e6 2b3f 4143 53bd 128a bbbe fe60 593f
000000d0: 160b 353f 6000 d03d 7e88 6d3f 65eb bdbe
000000e0: 3c1e 55bd e491 c0be 322f 81bf e8d7 c33e
000000f0: 3c87 653e 5734 d8bd f8cc 8e3e 13ab 383f
00000100: 2233 85be e6f4 2f3e 94d7 093f ce59 1cbf
00000110: 5341 a0be 8e05 febe c2e8 863e 0f2c a2bf
00000120: c92b cb3e fdaf 153f 16b7 7cbf a208 32bd
00000130: d1f7 f13c 0bc9 8abe 5515 fc3e 46e8 ad3e
00000140: 569f 56be c060 87bf 19c3 1bbf 2222 27bf
00000150: fe5e 7fbf f9ad 82bc 78ec 973f 194b bcbf
00000160: deef 0cbf 73e7 ed3e 53c1 4dbf e677 4fbe
00000170: e121 22bf 9aac 3cbd 71d6 91be dbb5 bf3e
00000180: 8ad0 10bf 399c 87be e9e5 dfbd d56b a9bc
00000190: 5662 77bf b913 03bf 2dd2 153f a414 cabe
000001a0: bfc5 a5be 1bc5 75bf a0b4 22bf 536e 03bd
000001b0: 5d7c 263e d64e 7f3d 5902 be3e a900 52be
000001c0: bde4 44bf 3851 503f a6d8 d0be 52cf e23e
000001d0: cc6e a9be 563c 77bf f9be 9c3d f4e3 2b3e
000001e0: 2b9c e1be 18dc c1be 1ffb 13bd 6ca5 46bf
000001f0: ebc2 6c3f cfb7 4bbf ddb5 5f3e b101 0d3f
00000200: 6130 a13e fb7c d23e d7d6 113f ab8c 9cbe
00000210: cc7b 6cbe a460 c03e 4aa8 943f 03ea 263f
00000220: ca0c 1d3d 651a fe3e 5f2b 66bf 7a6b c23e
00000230: 4861 49be 2ed9 cfbe 957f 213e b1fc 1ebe
00000240: 0233 963f 4e67 14bf 8c7c 863e b757 eebe
00000250: c96f d9bc cb42 c73e b95e 2abf 9e09 57bf
00000260: febe 8b3f f3c5 f13e f286 913e 5e13 483f
00000270: fb5e 2fbe 73b8 993e 172d dd3e 7fb3 483f
00000280: 4616 babe c7f9 f4be f123 3bbe a7c6 6b3e
00000290: 5a7c d93e 9ebe b1bf 14fe d8be 51a8 92be
000002a0: d535 21bf 3170 d63e 8c16 203f d586 8e3c
000002b0: d85d a2bf bd01 5cbf 3515 86be facb b1bf
000002c0: 31ce 103e 7c79 503f 9ac1 1c3e 842c c73e
000002d0: 637e 76bd af6d f13e a61d acbd 33c8 a3be
000002e0: 01a3 96be bd57 963e abbf 873e 6e77 56be
000002f0: 1727 acbd 7ab7 e73e af42 a5bc ec51 733f
00000300: dd6d abbe 14bd a23d c859 82bf a99a 44bd
00000310: ae0e b63f cb9e 7dbe bd89 813f 0017 b1bd
00000320: cadf 1f3f 3ce2 41bf 9203 c23e 364a 523e
00000330: a682 04bf 7f72 a6be ad91 043e 8803 60be
00000340: 1482 6b3f dc3f 4cbe ba4e 96bf ae8c 8f3d
00000350: 915f 49be 9db7 0cbf c5b3 6bbe 119b aabf
00000360: 7c6d 1f3f 309e d73e cae0 60be 3ea3 f7be
00000370: deeb cfbe ae17 e3bf 746b 4cbf f42d 183e
00000380: 18b0 6c3d 5eb7 6c3e 8492 403f 33e7 ddbd
00000390: 7056 953d e5ad 9fbe c0d9 223f 637d fbbd
000003a0: e6d7 433f 3261 ee3e 878f 913f c2f5 36be
000003b0: 692e b0be 3d02 0dbe edd9 8fbd 8cc3 10bf
000003c0: a4f5 6bbf 2739 3abf a145 27bf b78e a9bd
000003d0: 2337 1bbe 2ed2 00bf 7f1c 04be cc1d bb3f
000003e0: de87 e73e 950f 02bf 205e 07be 9b52 0e3f
000003f0: e8a6 10bf a0ec c33d 2254 89bf e43e 3ebf

network_body._body_endoder.seq_layers.0.bias f4 [128]
0.0027518573 -0.08377435 7.230541e-05 0.04541697 0.027054356 0.21857336 0.007683434 -0.016217822
0.08049045 -0.0920527 0.14199255 -0.0067320312 0.040134277 0.22290252 0.21696326 0.1038842
0.080592245 -0.07703559 0.06815945 0.00377287 0.044773 0.05408397 0.054533876 0.019046947
-0.08140671 -0.028860485 -0.02815326 0.03521405 -0.006091869 -0.16372097 0.22867171 0.011149643
-0.087079085 -0.00024049982 0.13436571 0.017732253 0.00641491 -0.0039289375 -0.006122545 -0.052580245
0.29903275 -0.08124832 -0.09756969 -0.046622034 -0.05621059 0.03094861 -0.0012307214 -0.015281429
0.094523914 0.078464404 -0.010984988 0.0022820465 -0.028276557 0.049337212 0.009529228 0.035135534
-0.05383699 -1.797003e-06 9.472682e-06 -0.03636752 -0.056298256 0.092228234 0.093784794 0.0036566362
0.026162975 -0.045054816 -0.038514256 -0.042425625 -0.07899723 -0.022907056 -0.07591317 -0.076522574
0.052755885 0.27504954 -0.10909492 -0.009492473 -0.04122517 0.045874882 0.24919228 -0.08362405
0.1689604 0.2010179 -0.03053797 -0.10091744 0.041197624 0.06149617 0.071535416 -0.017702851
0.10438806 -0.023609573 -0.0035249053 -0.14234813 0.03193726 0.3079284 0.036619745 -0.010992538
0.10928639 -0.002065186 0.071657225 -0.041258946 0.020432202 0.01513465 0.038642287 0.04969698
-0.04715082 0.08465683 0.18290763 -0.022749703 0.026302585 0.0901543 -0.0035008541 -0.014967845
-0.041152142 -0.056316763 0.058646593 0.04531379 -0.064223774 0.020349115 -0.011133087 0.020152787
0.0017793739 -0.071257725 -0.054983202 0.08421419 -0.0013368189 -0.06318393 0.3830941 -0.0017867122
00000000: 8158 343b e391 abbd aca2 9738 2507 3a3d
00000010: 19a1 dd3c b2d1 5f3e 51c5 fb3b 3ddb 84bc
00000020: 2dd8 a43d 2086 bcbd 7f66 113e 5f98 dcbb
00000030: d763 243d 8f40 643e 9e2b 5e3e 3dc1 d43d
00000040: 8c0d a53d d6c4 9dbd 2f97 8b3d 4142 773b
00000050: e563 373d 2787 5d3d ea5e 5f3d 5808 9c3c
00000060: 90b8 a6bd d36c ecbc aaa1 e6bc 9c3c 103d
00000070: 4d9e c7bb 78a6 27be eb28 6a3e feac 363c
00000080: 8556 b2bd ae2e 7cb9 2a97 093e 3b43 913c
00000090: 2a34 d23b 51be 80bb a19f c8bb 625e 57bd
000000a0: d21a 993e 8565 a6bd 9ed2 c7bd bff6 3ebd
000000b0: 133d 66bd f087 fd3c 2850 a1ba f55e 7abc
000000c0: c195 c13d f2b1 a03d 61fa 33bc 638e 153b
000000d0: 3da4 e7bc d115 4a3d 7b20 1c3c 47ea 0f3d
000000e0: 2d84 5cbd 8e30 f1b5 dcec 1e37 1cf6 14bd
000000f0: 0099 66bd 28e2 bc3d 3e12 c03d 2da4 6f3b
00000100: bc53 d63c 668b 38bd 20c1 1dbd 7ec6 2dbd
00000110: 4dc9 a1bd 94a7 bbbc 5d78 9bbd deb7 9cbd
00000120: 8e16 583d 4bd3 8c3e 286d dfbd 5186 1bbc
00000130: b9db 28bd 4de7 3b3d 432c 7f3e 1643 abbd
00000140: f503 2d3e a3d7 4d3e c42a fabc cead cebd
00000150: d7be 283d 68e3 7b3d 2981 923d 9205 91bc
00000160: 68c9 d53d dd68 c1bc 1902 67bb b5c3 11be
00000170: a5d0 023d cba8 9d3e 96fe 153d 0c1a 34bc
00000180: 8bd1 df3d 1258 07bb 06c1 923d 24ff 28bd
00000190: 6f61 a73c 53f7 773c 6047 1e3d 0f8f 4b3d
000001a0: 3821 41bd 8f60 ad3d 234c 3b3e 965d babc
000001b0: 8578 d73c d1a2 b83d 966e 65bb b13b 75bc
000001c0: 268f 28bd 68ac 66bd 6937 703d f49a 393d
000001d0: c187 83bd 30b3 a63c 8d67 36bc 7517 a53c
000001e0: e139 e93a 92ef 91bd 1136 61bd 7d78 ac3d
000001f0: 3338 afba 9466 81bd e924 c43e 1d30 eaba

network_body._body_endoder.seq_layers.2.weight f4 [128, 128]
-0.033521436 -0.09397121 -0.018880805 -0.22049895 -0.01124288 0.10638216 0.04405978 -0.1125862
0.040965106 -0.03330858 0.10733127 0.038853206 0.13408114 -0.27734396 -0.03301079 0.17331867
0.081671044 0.00022736924 0.13774967 0.001095954 -0.04778557 0.1494427 0.0770258 -0.034227796
-0.041432757 0.044600386 0.050319277 0.2274462 -0.11862585 0.07437703 -0.041318297 -0.034112904
-0.048107713 -0.09846723 0.064381845 0.05745547 -0.014579812 0.023470344 -0.09544756 0.045835588
0.12953247 -0.044710644 -0.0114649385 0.1511632 0.0973361 -0.037702825 -0.1205313 0.018922009
-0.043153945 -0.053787638 0.04360021 0.030442778 -0.0019682483 -0.03388537 0.06400356 -0.02705622
-0.0050249356 0.06887532 -0.082737945 -0.06765868 -0.10852029 0.01871999 -0.1825781 -0.15815249
-0.06338993 -0.029627437 0.044376224 0.07297045 0.14275607 -0.13954495 0.21520476 -0.08062298
-0.18864505 0.07660601 -0.13586245 0.10303856 -0.08294266 0.20165418 0.094584435 -0.023897585
0.173155 0.08471309 0.039991856 -0.096197456 0.11629197 -0.06507017 0.26455265 -0.015534362
0.33098456 -0.09848979 -0.10561554 0.041794635 -0.12852131 0.17489997 0.024907926 0.0054423707
-0.15249202 0.08768292 0.056482606 0.13091174 -0.024402883 -0.10106945 -0.001129898 -0.027463395
0.041225504 -0.11903118 -0.037871517 -0.08543377 -0.082550734 -0.07340976 0.023541076 -0.023427103
-0.11049275 -0.1179455 -0.09626716 0.01096445 0.123767585 0.16895694 -0.1752935 0.06361098
-0.06328396 0.13082354 0.042608194 0.092979 -0.08271942 -0.17366163 0.2085418 0.1719041
-0.07239382 -0.0415776 0.16012192 -0.079739735 0.007627592 0.11972972 0.07366534 0.169362
0.09482341 -0.15529877 0.16677596 -0.056481704 0.1362602 -0.053340927 0.016679035 0.24349613
0.10360596 -0.047233924 0.00062557746 -0.003880003 -0.003017534 -0.014330416 0.28690767 -0.0058026304
0.06985603 -0.048151124 -0.103745356 0.10295437 -0.04951032 -0.042633455 0.06907856 -0.013828375
0.0692377 -0.09411259 -0.037689585 0.1410396 -0.027423462 0.16729942 0.0048985267 -0.087804615
0.16161259 0.051267732 -0.07566182 0.1106588 -0.09599894 -0.019540196 0.04414881 -0.008535598
-0.010101356 -0.10664386 0.022924406 -0.15958492 -0.047582053 0.012529198 -0.049740825 -0.14419329
0.058823403 0.120460436 0.098781206 0.021508308 0.015449166 0.019486247 0.109242864 0.10984091
-0.13539019 0.13903037 0.04783521 -0.10962807 0.025444135 -0.0037047828 -0.048831284 -0.063826546
0.1591746 0.08948856 0.10382294 -0.13172978 0.15545984 -0.081415 -0.07353096 -0.07469494
-0.055649117 0.066777185 -0.036993887 -0.08551074 0.0907643 0.055246156 -0.06751864 0.094894394
0.21006317 0.09101995 0.05894292 0.0030808228 -0.038095795 0.35130072 0.21945773 0.13166884
-0.08123143 -0.004505608 0.122635536 0.10988705 -0.07782882 0.00064720487 0.015238672 -0.0218006
0.008823624 0.050330598 -0.12415954 0.14538947 0.016382545 0.06556967 -0.057704624 -0.029790265
0.03109968 0.0040479433 0.02456792 0.04725151 -0.2674456 0.06349592 0.0047113383 -0.08559033
0.055752482 0.087151766 -0.14391075 0.10121626 -0.12378675 0.037987094 0.25670913 -0.027130408
00000000: c64d 09bd fa73 c0bd ebab 9abc 7aca 61be
00000010: 0e34 38bc e4de d93d 0778 343d 9893 e6bd
00000020: 07cb 273d 946e 08bd 7fd0 db3d 8a24 1f3d
00000030: 914c 093e 0700 8ebe 5236 07bd 737a 313e
00000040: 2643 a73d f769 6e39 400e 0d3e 1da6 8f3a
00000050: cdba 43bd 8207 193e b4bf 9d3d 7232 0cbd
00000060: 65b5 29bd e5ae 363d 961b 4e3d a8e7 683e
00000070: 1cf2 f2bd fc52 983d 603d 29bd f9b9 0bbd
00000080: 980c 45bd 30a9 c9bd a1da 833d 6d56 6b3d
00000090: 2ae0 6ebc e144 c03c 037a c3bd 19be 3b3d
000000a0: 29a4 043e 8222 37bd 70d7 3bbc 87ca 1a3e
000000b0: 2658 c73d 476e 1abd 1dd9 f6bd 5402 9b3c
000000c0: 31c2 30bd 6d50 5cbd 2296 323d 2263 f93c
000000d0: bafd 00bb 63cb 0abd 4c14 833d 02a5 ddbc
000000e0: 37a8 a4bb 810e 8d3d 8372 a9bd a290 8abd
000000f0: e33f debd aa5a 993c c1f5 3abe baf2 21be
00000100: 94d2 81bd 3db5 f2bc d8c3 353d 8871 953d
00000110: a62e 123e dfe4 0ebe a35e 5c3e a91d a5bd
00000120: 2b2c 41be 9de3 9c3d 871f 0bbe e105 d33d
00000130: d7dd a9bd 6f7e 4e3e 7cb5 c13d dec4 c3bc
00000140: 8b4f 313e 0e7e ad3d 80ce 233d 2c03 c5bd
00000150: 7c2a ee3d 8243 85bd 7273 873e d683 7ebc
00000160: cf76 a93e 04b5 c9bd f64c d8bd da30 2b3d
00000170: 179b 03be fa18 333e b50b cc3c ea55 b23b
00000180: de26 1cbe 1a93 b33d 4e5a 673d ba0d 063e
00000190: 8ee8 c7bc 80fd cebd 1619 94ba eafa e0bc
000001a0: 13dc 283d 9fc6 f3bd 2a1f 1bbd e7f7 aebd
000001b0: 5c10 a9bd db57 96bd 37d9 c03c 32ea bfbc
000001c0: 064a e2bd 698d f1bd b727 c5bd 3da4 333c
000001d0: dc79 fd3d 0c03 2d3e 2480 33be 7946 823d
000001e0: 059b 81bd 9bf6 053e ee85 2e3d c66b be3d
000001f0: cd68 a9bd 5bd4 31be fb8b 553e a107 303e
00000200: 3643 94bd 464d 2abd 00f7 233e 964e a3bd
00000210: e1f0 f93b db34 f53d dbdd 963d 3b6d 2d3e
00000220: c732 c23d a406 1fbe 51c7 2a3e 5c59 67bd
00000230: cb87 0b3e 047c 5abd 79a2 883c 0d57 793e
00000240: 5d2f d43d 5c78 41bd cbfd 233a a647 7ebb
00000250: d2c1 45bb 1fca 6abc 90e5 923e fe23 bebb
00000260: ae10 8f3d 1d3a 45bd 7278 d4bd bed9 d23d
00000270: 55cb 4abd 6ba0 2ebd 0f79 8d3d 6990 62bc
00000280: 7fcc 8d3d 1abe c0bd 6560 1abd af6c 103e
00000290: 2ba7 e0bc 8a50 2b3e d283 a03b e8d2 b3bd
000002a0: c57d 253e 1dfe 513d 96f4 9abd 15a1 e23d
000002b0: 189b c4bd c312 a0bc 62d5 343d e5d8 0bbc
000002c0: 2880 25bc 1968 dabd f7cb bb3c 3b6a 23be
000002d0: 66e5 42bd 4447 4d3c 09bd 4bbd 68a7 13be
000002e0: cff0 703d f6b3 f63d cd4d ca3d 3132 b03c
000002f0: 801e 7d3c 9fa1 9f3c b9ba df3d 45f4 e03d
00000300: baa3 0abe fa5d 0e3e daee 433d ae84 e0bd
00000310: 3870 d03c f1cb 72bb 5003 48bd 7eb7 82bd
00000320: abfe 223e c745 b73d 1fa1 d43d 2ce4 06be
00000330: dd30 1f3e e8bc a6bd 6697 96bd a9f9 98bd
00000340: 54f0 63bd 7ac2 883d e786 17bd 4120 afbd
00000350: a2e2 b93d cb49 623d 3647 8abd fe57 c23d
00000360: cd1a 573e ab68 ba3d 226e 713d a1e7 493b
00000370: 560a 1cbd b0dd b33e 87b9 603e 32d4 063e
00000380: aa5c a6bd c8a3 93bb 5728 fb3d 760c e13d
00000390: b764 9fbd 2fa9 293a 9fab 793c 2c97 b2bc
000003a0: f690 103c 7527 4e3d 5b47 febd fae0 143e
000003b0: b034 863c 6449 863d af5b 6cbd b70a f4bc
000003c0: c2c4 fe3c 9ca4 843b aa42 c93c cd8a 413d
000003d0: a1ee 88be 260a 823d 9261 9a3b fc49 afbd
000003e0: b75c 643d a07c b23d 575d 13be 784a cf3d
000003f0: e883 fdbd 5b98 1b3d 616f 833e 9740 debc

network_body._body_endoder.seq_layers.2.bias f4 [128]
-0.00817148 -0.0213405 -0.011717169 -0.040695373 0.03606617 0.0028095045 -0.072651535 0.06977763
-0.00016840117 0.02998555 0.010044884 0.029023793 -0.0095288 -0.019342154 -0.015115888 0.0063079693
-0.0005784039 0.01856039 0.018152671 -0.10587878 -0.0074765794 -0.018013297 -0.058702726 -0.029024
-0.016932989 -0.0023108043 0.009402506 -0.055166937 0.10156513 -0.003935802 -0.0040361388 0.0076093054
-0.036621187 0.082615554 -0.0006189239 0.007459655 0.0044835233 -0.035168167 -0.01713299 -0.0032385942
0.011304428 -0.043018963 -0.024661627 -0.015507582 0.013371447 0.032129996 -0.0025631944 -0.030430801
-0.07087405 0.011887617 0.13018343 -0.00051733776 -0.0035188699 -0.06675234 0.024887726 0.0062656095
-0.00042744275 -0.02692523 0.003370053 0.06718864 0.03853698 0.049012266 -0.03176886 -0.038049452
0.006918717 0.044752818 -0.0057281707 0.050253015 -0.0030838007 -0.0024049974 -0.021722408 0.015789347
-0.033710267 0.008212719 0.04111785 -0.0114946235 -0.013482313 -0.047463734 -0.0021823156 0.011873126
0.056753226 -0.015762897 -0.025295964 0.052940156 -0.05005864 -0.036893494 -0.009902019 -0.01877066
0.0066718534 0.0069891424 -0.0371879 -0.05058845 -0.021236189 0.02110486 0.0054655345 -0.015959783
-0.021745667 -0.03061605 -0.0357334 -0.059339233 0.07678619 -0.095244355 -0.02879642 -0.005477635
0.0022751954 -0.045222457 -0.012924416 -0.0061620376 -0.04893976 -0.028979145 -0.0029223184 -0.0041923835
-0.04373437 -0.012836933 -0.006913503 -0.012420289 0.00894747 -0.034001593 0.006954284 -0.042811874
-0.02369074 -0.04842178 -0.005303475 -0.0015987671 0.025231563 -0.02538597 0.07343699 -0.022243232
00000000: ace1 05bc 46d2 aebc 5ef9 3fbc 31b0 26bd
00000010: 1fba 133d aa1f 383b 54ca 94bd 93e7 8e3d
00000020: d894 30b9 42a4 f53c 4c93 243c 4ec3 ed3c
00000030: af1e 1cbc 7073 9ebc a1a8 77bc 15b3 ce3b
00000040: 07a0 17ba f60b 983c e9b4 943c f9d6 d8bd
00000050: 18fe f4bb 9f90 93bc 4572 70bd bdc3 edbc
00000060: 0db7 8abc dd70 17bb f80c 1a3c baf6 61bd
00000070: 6101 d03d e6f7 80bb 9641 84bb 7b57 f93b
00000080: 1900 16bd 5832 a93d 483f 22ba 1f70 f43b
00000090: 85ea 923b 7f0c 10bd 7c5a 8cbc 983e 54bb
000000a0: 3536 393c a734 30bd 2e07 cabc 8313 7ebc
000000b0: ea13 5b3c be9a 033d 44fb 27bb 044a f9bc
000000c0: 6a26 91bd 48c4 423c ce4e 053e f39d 07ba
000000d0: d79c 66bb 73b5 88bd 58e1 cb3c be4f cd3b
000000e0: 651a e0b9 4d92 dcbc 1bdc 5c3b 339a 893d
000000f0: f4d8 1d3d 16c1 483d 1020 02bd bed9 1bbd
00000100: 68b6 e23b bb4e 373d 61b3 bbbb 1bd6 4d3d
00000110: 9719 4abb 299d 1dbb 31f3 b1bc a958 813c
00000120: c713 0abd a48e 063c 316b 283d f253 3cbc
00000130: ebe4 5cbc 5569 42bd 2e05 0fbb 8087 423c
00000140: 1276 683d 3121 81bc 7b39 cfbc c7d7 583d
00000150: 4a0a 4dbd a21d 17bd 143c 22bc edc4 99bc
00000160: 909f da3b 2d05 e53b 5752 18bd d635 4fbd
00000170: 84f7 adbc 19e4 ac3c 3a18 b33b 17be 82bc
00000180: f823 b2bc 83ce fabc 305d 12bd b20d 73bd
00000190: 1442 9d3d 790f c3bd 78e6 ebbc bc7d b3bb
000001a0: 721b 153b 2f3b 39bd eec0 53bc ebea c9bb
000001b0: 0f75 48bd ac65 edbc 5e84 3fbb 4360 89bb
000001c0: d022 33bd 0052 52bc ab8a e2bb 787e 4bbc
000001d0: 6998 123c 4145 0bbd c3e0 e33b 815b 2fbd
000001e0: 1513 c2bc eb55 46bd c6c8 adbb b98d d1ba
000001f0: 6cb2 ce3c 3df6 cfbc 2266 963d 7037 b6bc

action_model._discrete_distribution.branches.0.weight f4 [3, 128]
-0.005657488 -0.009878519 -0.004188473 0.0033561103 0.053083785 0.003144696 0.009546357 0.047392674
0.003228137 -0.20411724 -0.0073357592 -0.016944513 -0.0010783985 -0.0014334813 -0.016950736 0.014519634
-0.011700214 0.012681042 -0.016686605 -0.0031004946 0.00017962111 -0.0436144 -0.004805265 -0.015731785
0.017597025 0.040879466 0.0027621433 0.0016450229 -0.0055612717 -0.009583197 0.03598374 0.013994589
-0.009162259 0.029813837 0.015677035 0.0025561636 -0.011264848 -0.039878476 -0.0023056217 0.0071351994
0.002061736 -0.005670278 -0.0074466225 -0.007819472 0.007984748 3.8669412e-05 0.036431942 -0.0021028752
-0.0059282924 -0.0014517485 0.14014971 0.001320619 -0.004464936 -0.005020228 0.053037442 -0.008004443
-0.022838438 -0.0043548155 0.011659477 0.025841558 0.047690585 -0.012951631 -0.004756846 0.001063926
-0.045404106 0.041503023 0.0019184814 0.11245972 0.010623253 -0.017578991 -0.11338772 0.017518273
-0.0046875374 -0.011177217 0.00879411 -0.0013683077 0.009941046 -0.010399883 -0.024828333 0.014428238
0.04298962 0.00858303 -0.04484528 0.02100834 0.017119369 -0.009698764 -0.06331132 -0.00912945
0.022984596 0.01953139 0.008644488 -0.007681702 -0.022913214 0.006500862 -0.00067618414 -0.0063686953
-0.0084576905 -0.0067778537 -0.01164023 -0.005012969 0.0070023327 0.008870839 -0.004334267 -0.017574366
-0.014870712 0.00558916 -0.0035064626 0.02196724 -0.0014635717 0.007942563 -0.007730637 -0.0053501097
-0.003968407 0.008365183 0.012495215 0.011732099 -0.0020269444 -0.0053039915 0.002999184 0.013256732
0.005325741 0.0019309246 0.009046049 0.0047632535 0.027547881 -0.001369238 0.026597992 -0.011645545
0.012805758 -0.0033622112 -0.0048470725 -0.015939027 -0.08101325 0.0100968145 -0.032254115 -0.11908691
-0.008792957 -0.08559915 0.015807359 0.027857142 0.016258495 0.004854251 0.0053819665 -0.020907994
-0.0008741155 -0.017457927 0.012805098 -0.028689386 0.005245941 0.013020199 -0.013987896 -0.034958497
-0.013951683 -0.037422124 -0.031330526 -0.018560395 0.023104439 0.0015306761 -0.021240095 -0.10310744
-0.02223528 0.036974195 0.009293693 -0.012800176 0.01375062 0.008756717 -0.00025911012 0.013439476
-0.0002082221 -0.03262748 -0.016077198 -0.008305989 -0.050284468 -0.027891073 -0.09770068 0.000889063
-0.018205531 0.014450793 -0.3734507 -0.015286831 -0.011818397 -0.013838613 0.02166172 0.008755309
0.015133026 0.00069405534 -0.06215205 0.029772563 -0.1253016 0.026457252 -0.0005272823 -0.0043733106
0.017910587 -0.13622533 -0.0062962244 -0.08105055 0.034863763 -0.0081498 0.04083443 -0.030661846
-0.0023993317 -0.018860362 0.034908157 -0.0050060526 -0.021478653 -0.0101072565 0.016474163 0.022251233
-0.071524814 0.010123015 0.024837531 0.0220064 -0.0028861025 -0.0107186455 0.04703727 -0.004796845
-0.005694007 -0.003298349 0.004280916 -0.018050047 0.028672826 -0.007192685 -0.00066942646 -0.0029448818
0.014458813 -0.00913839 -0.017915357 -0.027002817 0.0348477 -0.011491678 -0.0017693475 0.009248859
0.011211557 -0.02844234 0.023893809 0.0133327525 -0.006434103 0.0012004671 0.0014057048 -0.00789469
-0.014146426 0.012388501 -0.035289653 -0.0027648883 -0.025063766 -0.014844691 -0.016681552 -0.009315755
0.0010052526 -0.02731736 -0.017767206 -0.020937653 -0.062038224 -0.0025454264 0.036431666 -0.009505353
00000000: 7362 b9bb 83d9 21bc 753f 89bb 30f2 5b3b
00000010: 626e 593d 3e17 4e3b 5368 1c3c d21e 423d
00000020: 278f 533b 1c04 51be cf60 f0bb 38cf 8abc
00000030: 0d59 8dba a7e3 bbba 45dc 8abc c2e3 6d3c
00000040: 41b2 3fbc 25c4 4f3c 59b2 88bc ab31 4bbb
00000050: ad58 3c39 03a5 32bd 7c75 9dbb f2df 80bc
00000060: a327 903c 3a71 273d 1305 353b cf9d d73a
00000070: 543b b6bb d702 1dbc b063 133d 9049 653c
00000080: 4d1d 16bc 263c f43c 206d 803c 4f85 273b
00000090: 3290 38bc 9d57 23bd ea19 17bb 64ce e93b
000000a0: 311e 073b bdcd b9bb cc02 f4bb 3e1d 00bc
000000b0: 76d2 023c f730 2238 a939 153d 64d0 09bb
000000c0: 1f42 c2bb 9948 beba 6883 0f3e 9f18 ad3a
000000d0: 994e 92bb ba80 a4bb ca3d 593d 1125 03bc
000000e0: ad17 bbbc d7b2 8ebb 6407 3f3c adb1 d33c
000000f0: 3457 433d 1433 54bc 51df 9bbb 6f73 8b3a
00000100: a8f9 39bd 13ff 293d 8e75 fb3a 4851 e63d
00000110: 270d 2e3c d101 90bc d237 e8bd 7b82 8f3c
00000120: ea99 99bb a520 37bc 2c15 103c ca58 b3ba
00000130: c5df 223c 4564 2abc ca64 cbbc 6b64 6c3c
00000140: e215 303d d69f 0c3c afaf 37bd af19 ac3c
00000150: eb3d 8c3c 91e7 1ebc 5ea9 81bd b093 15bc
00000160: 314a bc3c 4b00 a03c 9ca1 0d3c c9b6 fbbb
00000170: 7eb4 bbbc 2f05 d53b f341 31ba 7db0 d0bb
00000180: 2092 0abc c218 debb aab6 3ebc d543 a4bb
00000190: d373 e53b ff56 113c 7806 8ebb 1ef8 8fbc
000001a0: 49a4 73bc 4625 b73b aecc 65bb a4f4 b33c
000001b0: 51d5 bfba 8621 023c 4951 fdbb f94f afbb
000001c0: 6909 82bb 1f0e 093c bbb8 4c3c fd37 403c
000001d0: 7cd6 04bb 1bcd adbb f58d 443b c432 593c
000001e0: 8e83 ae3b 1417 fd3a e135 143c 1115 9c3b
000001f0: 18ac e13c 0178 b3ba 08e4 d93c f5cc 3ebc
00000200: 3ecf 513c 8b58 5cbb 31d4 9ebb 9092 82bc
00000210: 46ea a5bd 1c6d 253c e41c 04bd d6e3 f3bd
00000220: 5610 10bc 9b4e afbd 6f7e 813c a934 e43c
00000230: 8930 853c 6910 9f3b 355b b03b 3e47 abbc
00000240: e624 65ba ed03 8fbc 79cc 513c 0106 ebbc
00000250: 25e6 ab3b ac52 553c 7d2d 65bc a430 0fbd
00000260: 9a95 64bc f147 19bd 7054 00bd f80b 98bc
00000270: 8545 bd3c f8a0 c83a b5ff adbc fe29 d3bd
00000280: c326 b6bc 4172 173d 9344 183c d4b7 51bc
00000290: 484a 613c 5578 0f3c 2cd9 87b9 3f31 5c3c
000002a0: 3256 5ab9 64a4 05bd 54b4 83bc d815 08bc
000002b0: 16f7 4dbd d27b e4bc 4b17 c8bd 0210 693a
000002c0: c423 95bc 05c3 6c3c ee34 bfbe 9e75 7abc
000002d0: f3a1 41bc 5abb 62bc eb73 b13c 6d72 0f3c
000002e0: 83f0 773c 44f1 353a 2693 7ebd 97e5 f33c
000002f0: 104f 00be e1bc d83c 5139 0aba fd4d 8fbb
00000300: 39b9 923c a77e 0bbe 8f50 cebb d5fd a5bd
00000310: 4ecd 0e3d bd86 05bc 0142 273d 8d2e fbbc
00000320: 1b3e 1dbb 0c81 9abc dbfb 0e3d d009 a4bb
00000330: 00f4 afbc e898 25bc d3f4 863c 3848 b63c
00000340: 9a7b 92bd 01db 253c 1478 cb3c c446 b43c
00000350: c424 3dbb 429d 2fbc 27aa 403d da2e 9dbb
00000360: cb94 babb 1d29 58bb ed46 8c3b b1dd 93bc
00000370: 46e3 ea3c 9db0 ebbb 737c 2fba ebfe 40bb
00000380: a8e4 6c3c 30b9 15bc 3ac3 92bc 0335 ddbc
00000390: 76bc 0e3d 9747 3cbc 73e9 e7ba 8788 173c
000003a0: aeb0 373c e9ff e8bc f3bc c33c 9e71 5a3c
000003b0: 2bd5 d2bb fe58 9d3a a03f b83a bb58 01bc
000003c0: 69c6 67bc 24f9 4a3c e28b 10bd 2133 35bb
000003d0: 8752 cdbc 2637 73bc c0a7 88bc 1ca1 18bc
000003e0: aec2 833a a8c8 dfbc 888c 91bc 7185 abbc
000003f0: cb1b 7ebd 2bd1 26bb 5f39 153d 57bc 1bbc

action_model._discrete_distribution.branches.0.bias f4 [3]
-0.024668876 0.046262994 -0.01641905
00000000: 6216 cabc 447e 3d3d 3e81 86bc

action_model._discrete_distribution.branches.1.weight f4 [2, 128]
0.0064275544 -0.0022937052 -0.011876565 -0.016258005 -0.036181066 0.004999509 -0.014270522 -0.0764967
0.0013494202 0.030918524 4.3284825e-05 0.020366281 -0.017914325 -0.005041037 -0.0041259862 0.0020084814
0.003520527 0.0024879535 0.0052443705 -0.008989901 0.0073242728 -0.0020063543 0.00019864811 0.021902818
-0.015732609 0.08261194 -0.024555717 0.0004131077 0.0016632358 -2.9048013e-05 -0.022311768 0.0031895952
-0.012089066 0.035802677 0.0008321458 -0.0037158292 0.002212881 0.031156864 0.0060134046 0.012013744
0.096635394 0.017375574 0.010860109 -0.0003234932 -0.0066268775 -0.06944366 0.022241255 0.0015358533
-0.0006330597 -0.0003775246 -0.09044405 -0.009822991 -0.00675238 -0.0029743686 0.011004197 0.015511769
-0.0023564126 0.00398138 -0.024455916 0.024690269 -0.07421246 -0.021968493 0.009690579 0.005431373
0.020260336 -0.03773708 -0.009506817 0.037948534 -0.0054327263 0.011706225 -0.014095477 0.009441026
0.0010241703 0.0036921024 0.0023195953 0.0015563268 0.019236416 -0.002763147 0.033985853 -0.021978715
-0.04805717 0.0004978883 -0.0499955 0.0041203843 0.007828423 -0.012495637 -0.011983878 -0.008673177
0.019868448 -0.0023089794 -0.0061614634 -0.00504182 -0.0012148763 -0.012096437 0.021417782 -0.005258433
0.009334466 -0.0030811997 -0.005825126 -0.017746834 0.000121951154 -0.0028958267 0.00804946 -0.009195973
-0.016286256 0.008775012 -0.0056007258 -0.0062448033 -0.0099024 -0.0020264063 0.0055310996 -0.0038448034
-0.005654805 -0.0055127647 0.030506732 0.0019333138 -0.0091861235 -0.010704361 -0.011093586 -0.027531547
-0.007295353 0.0051546767 -0.005779408 0.008448429 -0.04166303 0.005644067 0.018329369 -0.00648628
0.007916927 -0.00017141017 -0.00502629 0.015112066 0.016157378 0.0038937107 0.0027932858 0.064382635
0.0017486071 -0.014023608 0.00823864 -0.031451978 0.00269444 0.001882576 -0.0056039877 0.01524799
-0.00052159483 0.004741331 0.024909548 -0.00039759348 0.009979616 0.0072241025 -0.0019113661 -0.024243921
-0.003559692 -0.053731043 -0.009886145 0.0060721394 0.015591303 -0.0048716716 0.01273741 0.0020542282
0.0074236584 -0.008965468 0.011694209 0.0051029264 -0.003908701 -0.026823191 -0.0073106554 -0.02743787
-0.08667352 0.011654979 0.016686523 0.0063583776 0.018788943 0.060499065 -0.005860849 0.0055231247
0.001776165 0.0035622031 0.08787823 -0.0044647953 -0.0065810187 0.0023706055 -0.008727412 0.0068499097
0.0037984147 0.008057701 0.023875501 -0.0334481 0.072273105 -0.002400152 0.012258964 0.017526811
-0.002050407 0.05030045 -0.0007520635 -0.028452918 -0.008143563 -0.000692882 0.007821183 0.005343435
0.00566334 0.0007604897 -0.01841269 0.00855618 -0.009283111 0.007180335 -0.01178783 0.0018355919
0.05885422 -0.0071965153 0.034532093 0.0061429064 0.007112274 -0.00048484805 0.010520613 -0.0016821285
-0.005927991 0.00042353343 -0.005113364 -0.0023540799 -0.00038587765 0.01646825 -0.051528092 0.0027608925
-0.029553453 -0.0076306537 0.009559158 -0.009670876 -0.00565686 0.0042559225 0.009498091 -0.0013027663
0.0061864466 -0.015824609 -0.009960975 0.015979225 0.0074664075 0.0022384843 0.0045419345 0.002737901
-0.0026276528 0.010101468 -0.034739383 0.0018731802 -0.0046294853 0.0038608622 0.0029230544 0.014965251
-0.0026092841 0.010768493 0.0011524764 0.0006891047 0.049882833 0.0029213044 -0.022192247 0.0028578583
00000000: 3c9e d23b fd51 16bb ed95 42bc 822f 85bc
00000010: 9932 14bd ecd2 a33b e8ce 69bc 4daa 9cbd
00000020: 07df b03a d848 fd3c ba8c 3538 30d7 a63c
00000030: 10c1 92bc 492f a5bb 4833 87bb baa0 033b
00000040: a4b8 663b ef0c 233b f8d8 ab3b 614a 13bc
00000050: 7400 f03b 0a7d 03bb 324c 5039 8a6d b33c
00000060: ace1 80bc 7330 a93d 1229 c9bc 6096 d839
00000070: ef00 da3a 22ac f3b7 2bc7 b6bc 8708 513b
00000080: 3811 46bc d4a5 123d 5c24 5a3a 4585 73bb
00000090: fc05 113b ae3c ff3c 180c c53b 4bd5 443c
000000a0: c7e8 c53d 3857 8e3c 99ee 313c 869a a9b9
000000b0: 4726 d9bb 7a38 8ebd 4b33 b63c af4e c93a
000000c0: ebf3 25ba 7eee c5b9 bb3a b9bd 9cf0 20bc
000000d0: 1243 ddbb a0ed 42bb f34a 343c 1325 7e3c
000000e0: 0b6e 1abb 3c76 823b c657 c8bc 3f43 ca3c
000000f0: b4fc 97bd 45f7 b3bc 3cc5 1e3c a9f9 b13b
00000100: 01f9 a53c 3292 1abd 7bc2 1bbc ec6f 1b3d
00000110: 0305 b2bb 77cb 3f3c b7f0 66bc 88ae 1a3c
00000120: 743d 863a 33f7 713b 5a04 183b a9fd cb3a
00000130: b095 9d3c ea15 35bb c034 0b3d b50c b4bc
00000140: 98d7 44bd b884 023a 15c8 4cbd 4a04 873b
00000150: c942 003c 80ba 4cbc 0758 44bc f119 0ebc
00000160: 28c3 a23c 3f52 17bb 1ae6 c9bb da35 a5bb
00000170: 7c3c 9fba 2230 46bc 5874 af3c ef4e acbb
00000180: 97ef 183c f4ed 49bb b3e0 bebb cf61 91bc
00000190: 07c0 ff38 e9c7 3dbb e2e1 033c b5aa 16bc
000001a0: c16a 85bc 11c5 0f3c 4b86 b7bb 35a1 ccbb
000001b0: ad3d 22bc 75cd 04bb 3a3e b53b 19f9 7bbb
000001c0: f14b b9bb 6ca4 b4bb 41e9 f93c 3f67 fd3a
000001d0: 6581 16bc 5861 2fbc dfc1 35bc d789 e1bc
000001e0: db0d efbb 90e8 a83b 3061 bdbb 486b 0a3c
000001f0: daa6 2abd def1 b83b 7927 963c dc8a d4bb
00000200: 00b6 013c 91bc 33b9 94b3 a4bb 9998 773c
00000210: 7a5c 843c a02d 7f3b 8f0f 373b 0bdb 833d
00000220: 8531 e53a 46c3 65bc 5cfb 063c cad3 00bd
00000230: 3495 303b c5c0 f63a a8a1 b7bb b5d2 793c
00000240: a3bb 08ba 2b5d 9b3b 1c0f cc3c 1874 d0b9
00000250: 8b81 233c 2ab8 ec3b ce86 faba 309b c6bc
00000260: b949 69bb 1515 5cbd 7ff9 21bc ccf8 c63b
00000270: aa72 7f3c 8ba2 9fbb 92b0 503c 3ba0 063b
00000280: 2942 f33b e6e3 12bc 1199 3f3c 7336 a73b
00000290: 8f14 80bb 4fbc dbbc 398e efbb 62c5 e0bc
000002a0: e381 b1bd 86f4 3e3c 2db2 883c f059 d03b
000002b0: 45eb 993c decd 773d 5d0c c0bb 54fb b43b
000002c0: 35ce e83a da73 693b 80f9 b33d 6b4d 92bb
000002d0: 96a5 d7bb 295c 1b3b 6bfd 0ebc 3575 e03b
000002e0: d3ee 783b 7304 043c 8e96 c33c e000 09bd
000002f0: ec03 943d de4b 1dbb d2d9 483c 6394 8f3c
00000300: 1f60 06bb d807 4e3d 2126 45ba 1816 e9bc
00000310: 946c 05bc 86a2 35ba 6b24 003c fb17 af3b
00000320: 8a93 b93b 9a5b 473a 36d6 96bc 382f 0c3c
00000330: 3118 18bc 0449 eb3b be21 41bc 3e98 f03a
00000340: 1f11 713d bfd0 ebbb 8671 0d3d 6f4a c93b
00000350: 140e e93b 3433 feb9 a65e 2c3c de7a dcba
00000360: 983f c2bb b20d de39 028e a7bb e846 1abb
00000370: 9f4f cab9 6ce8 863c 1f0f 53bd 17f0 343b
00000380: 151a f2bc 900a fabb 049e 1c3c 9872 1ebc
00000390: 2e5d b9bb 4475 8b3b e29d 1b3c 95c1 aaba
000003a0: adb7 ca3b 9ca2 81bc 5b33 23bc dde6 823c
000003b0: c4a8 f43b 89b3 123b 82d4 943b 5b6e 333b
000003c0: b334 2cbb a180 253c e24a 0ebd 7f85 f53a
000003d0: f0b2 97bb 8506 7d3b b790 3f3b d030 753c
000003e0: 8600 2bbb 556e 303c b10e 973a 09a5 343a
000003f0: f151 4c3d 5b73 3f3b 84cc b5bc e84a 3b3b

action_model._discrete_distribution.branches.1.bias f4 [2]
0.0064233127 -0.006423302
00000000: a77a d23b 907a d2bb

q1_network.network_body._body_endoder.seq_layers.0.weight f4 [128, 3]
-0.068007015 0.44058797 -0.32441536 0.27732816 0.6569105 -0.3001802 0.19533592 0.89288783
0.06421195 -0.14888757 -0.0067105982 -0.084901884 0.6022943 -0.37918344 0.29810417 -0.6779932
0.09086861 -1.1229875 0.011144323 -0.024353826 0.49973425 0.20781079 0.59136873 0.3711868
-0.50065243 0.6928844 -0.98224044 0.50912863 -0.38511318 -0.07103396 -0.5668265 -0.9530486
0.6956523 0.56983316 0.39218637 -0.24622214 -0.17462939 0.62564874 -0.28737766 0.8491969
-0.43653738 -0.6525692 0.031851895 0.6332813 -0.40316197 0.7317398 0.366351 -0.2971466
-0.38403007 -0.34209242 -0.2655774 0.47403964 1.7099415 -0.7893885 0.67694217 -0.7213455
-0.24421726 0.6334281 -0.7362325 -0.23429315 0.27395976 0.23208614 -0.64265746 0.40269345
-0.56448543 0.07662333 -0.38940528 0.25906724 0.7790086 -0.4269569 0.32039335 -0.99567825
-0.3106922 -0.27449337 -1.1926659 -0.48707736 0.5788312 0.76198965 -0.31151742 0.40459687
0.5406179 0.1579303 0.6070934 -0.0045345495 -0.16390575 0.018512815 -0.19176233 0.7599363
0.53912413 0.71289283 -0.27831882 -0.2523455 -0.04832696 -1.0630487 0.14225702 -0.17108256
-0.55747974 0.05270001 0.448025 -0.82628775 -0.73692226 -0.12152307 0.4099872 0.07163151
-0.4255146 -0.6477831 0.19922994 0.5771362 -0.6334278 0.6391426 0.8447191 0.07521001
0.119659334 0.83905613 0.3272267 0.1341612 0.005002089 0.9388075 1.2344571 0.11113478
0.096689165 0.59213233 0.06872581 -0.8091438 -0.3030488 -0.7910268 0.18616019 -0.00020698423
0.0661159 0.40435812 -0.37259588 0.118538395 0.9267647 -0.41078395 -0.026122319 -0.2724198
0.3955946 0.3090594 -0.10590062 0.3343596 0.1018373 0.41923636 -0.5276002 -0.7508831
-0.364279 -1.2672293 0.13721631 0.013417414 -0.27753773 0.5005443 0.04631246 0.31668314
-0.09179401 0.6840793 0.49455103 0.052464295 -0.15572675 -0.0087117 0.18732685 0.4085884
-0.23685086 0.039528105 0.103929825 0.23374744 -0.4383631 0.16354853 0.2632301 0.5346187
-0.4802077 -0.66592616 0.7371229 0.2395443 -0.61276543 0.2954053 -0.4105626 0.40933886
0.5474816 -0.482019 -0.42525232 -0.07265905 -0.9542681 1.4198751 -0.21790174 -0.19497801
-1.142074 1.0064143 1.2272218 -0.28899866 0.7487174 0.054790113 0.17133535 -0.80682194
-0.70925397 0.028818894 1.246947 0.35564813 0.9222974 0.48903283 0.5675383 0.123258896
-0.5098334 0.1495217 -0.20202556 -0.48688737 -0.2063851 0.014205108 -0.6089229 0.83768326
-0.19778499 0.377104 -0.4308865 -0.4065029 0.12766036 0.35865796 1.1269588 -0.3442492
0.09018596 1.3807528 -1.2595854 -0.019897798 -0.12602302 -0.8070326 -0.48411044 0.09619856
-1.1789033 -0.746501 0.62497395 -0.091293894 -0.32643783 0.048049998 0.4360634 -0.49384093
-1.1263247 0.2457292 0.15510058 0.4012638 -0.57513857 -0.6518956 0.79554373 1.4146901
-1.0180742 -0.3249433 -0.6003873 -0.74477476 0.051487062 -0.08505958 0.6302871 -0.68795985
0.011374163 -0.58422375 0.06998608 -0.616508 -1.01554 -0.292164 0.652993 -0.29933017
00000000: 4347 8bbd bf94 e13e c519 a6be f5fd 8d3e
00000010: 492b 283f 38b1 99be 2406 483e 4c94 643f
00000020: 8e81 833d fc75 18be 94e4 dbbb 0ae1 adbd
00000030: f62f 1a3f 5524 c2be 1ca1 983e f690 2dbf
00000040: 5219 ba3d 0ebe 8fbf ae96 363c ad81 c7bc
00000050: 2bdd ff3e 5acc 543e f163 173f 320c be3e
00000060: c22a 00bf df60 313f 1c74 7bbf 4156 023f
00000070: 8e2d c5be 417a 91bd 8b1b 11bf fefa 73bf
00000080: 4516 323f 96e0 113f a7cc c83e a821 7cbe
00000090: 0cd2 32be 842a 203f 2a23 93be f864 593f
000000a0: d481 dfbe c60e 27bf 2277 023d b91e 223f
000000b0: 3f6b cebe 4d53 3b3f 5c92 bb3e 9923 98be
000000c0: 979f c4be bd26 afbe c3f9 87be 53b5 f23e
000000d0: 5ddf da3f 5d15 4abf 154c 2d3f 19aa 38bf
000000e0: 1714 7abe 5828 223f bc79 3cbf 8bea 6fbe
000000f0: 7444 8c3e fda7 6d3e 3385 24bf d62d ce3e
00000100: 1e82 10bf b1ec 9c3d 2160 c7be 76a4 843e
00000110: 1c6d 473f 189a dabe 990a a43e c5e4 7ebf
00000120: 0c13 9fbe 658a 8cbe 47a9 98bf 3462 f9be
00000130: 482e 143f c111 433f 367f 9fbe 5227 cf3e
00000140: ef65 0a3f 7bb8 213e 796a 1b3f 8f96 94bb
00000150: e9d6 27be 30a8 973c 585d 44be 2f8b 423f
00000160: 0a04 0a3f 2580 363f ce7f 8ebe 6e33 81be
00000170: 7ef2 45bd fb11 88bf d3ab 113e 4430 2fbe
00000180: feb6 0ebf f7db 573d 8863 e53e 9887 53bf
00000190: f0a6 3cbf 16e1 f8bd d8e9 d13e 8bb3 923d
000001a0: 0ddd d9be 1dd5 25bf ef02 4c3e 33bf 133f
000001b0: 5328 22bf d99e 233f 833f 583f b507 9a3d
000001c0: f40f f53d 62cc 563f 428a a73e 8e61 093e
000001d0: 90e8 a33b b055 703f b102 9e3f a29a e33d
000001e0: f804 c63d fc95 173f 1ec0 8c3d 0c24 4fbf
000001f0: 3629 9bbe bb80 4abf c7a0 3e3e e809 59b9
00000200: c667 873d 0708 cf3e e3c4 bebe 42c4 f23d
00000210: 7440 6d3f 4652 d2be 79fe d5bc 9c7a 8bbe
00000220: 608b ca3e 093d 9e3e 6de2 d8bd 2e31 ab3e
00000230: 1390 d03d 26a6 d63e cf10 07bf e039 40bf
00000240: c782 babe 9234 a2bf 6f82 0c3e b7d4 5b3c
00000250: 6d19 8ebe ac23 003f 22b2 3d3d 4b24 a23e
00000260: 7ffe bbbd d21f 2f3f cb35 fd3e cde4 563d
00000270: d576 1fbe 85bb 0ebc 9cd2 3f3e 8032 d13e
00000280: 0889 72be 39e8 213d 29d9 d43d 7d5b 6f3e
00000290: 2171 e0be 4479 273e 18c6 863e c5dc 083f
000002a0: c9dd f5be 237a 2abf 16b4 3c3f 1a4b 753e
000002b0: 32de 1cbf 5d3f 973e 4335 d2be dd94 d13e
000002c0: c127 0c3f 32cb f6be acba d9be 45ce 94bd
000002d0: ea4a 74bf 78be b53f a221 5fbe 51a8 47be
000002e0: 7b2f 92bf 2fd2 803f 9b15 9d3f a2f7 93be
000002f0: f2ab 3f3f 996b 603d 8972 2f3e e28b 4ebf
00000300: ab91 35bf 9a15 ec3c f69b 9f3f 8317 b63e
00000310: af1b 6c3f 8362 fa3e 314a 113f 296f fc3d
00000320: 7184 02bf 371c 193e cadf 4ebe 4d49 f9be
00000330: 9e56 53be 8bbc 683c 5fe2 1bbf 6972 563f
00000340: 2688 4abe c713 c13e 289d dcbe 2621 d0be
00000350: 66b9 023e 04a2 b73e 3040 903f 6e41 b0be
00000360: 6bb3 b83d 82bc b03f 183a a1bf b500 a3bc
00000370: 2e0c 01be b099 4ebf 53dd f7be c003 c53d
00000380: 4ee6 96bf b11a 3fbf 4bfe 1f3f 4bf8 babd
00000390: dc22 a7be 13d0 443d b443 df3e b8d8 fcbe
000003a0: 682b 90bf 6fa0 7b3e b0d2 1e3e 7372 cd3e
000003b0: 483c 13bf a1e2 26bf c1a8 4b3f 9114 b53f
000003c0: 4150 82bf f85e a6be fbb2 19bf 8fa9 3ebf
000003d0: 19e4 523d b833 aebd 7f5a 213f 231e 30bf
000003e0: b35a 3a3c b08f 15bf dd54 8f3d 78d3 1dbf
000003f0: 37fd 81bf 8596 95be 8d2a 273f ce41 99be

q1_network.network_body._body_endoder.seq_layers.0.bias f4 [128]
-0.009688964 -0.016431931 -0.018040027 -0.01106157 0.013184553 -0.00034689557 0.02915979 -0.011453805
-0.070565686 0.01629276 -0.011936691 -0.006726142 0.016332831 0.039015144 -0.002615059 -0.013316219
0.42737514 -0.0247671 0.009310402 -0.008375828 -0.0060340734 0.0008438283 0.0015144636 0.006225993
0.040308967 -0.0008940578 0.0039556385 -0.002149658 -0.03163118 0.01921387 0.10011255 0.026580742
0.005368985 -0.005333702 0.0015179218 -0.013255637 -0.0022136858 -0.003397384 -0.0033311616 -0.028478773
-0.016724661 0.067962795 -0.0041610887 0.067878686 0.03502513 0.007828434 -0.005773508 0.2700146
-0.0012998754 -0.0027425634 -0.005001234 0.03199892 -0.01958079 0.041803446 0.02308196 -0.005502633
0.010143987 0.0331619 -0.022261564 0.41597548 0.00044806028 0.013369983 -0.027118644 0.015740894
0.0017599806 -0.055489294 -0.008917382 0.20504583 -0.023252824 -0.012157414 0.037748553 -0.014730945
-0.027871417 0.4800337 -0.005031755 -0.007551652 -0.0027076418 -0.010551622 0.0033725786 -0.02950829
0.06404728 0.020814935 0.04350885 -0.0036299813 0.06469282 0.018289253 0.030306285 0.02810758
0.0372069 0.29608196 -0.0019807338 -0.0058479533 -0.004975751 -0.010987234 -0.002298826 0.016528413
0.00019230988 0.044804472 0.007959454 -0.002249062 0.009378892 0.15866034 0.12664632 -0.0058036246
0.014189967 0.0115419775 -0.013650078 -0.010367881 0.011727241 -0.0035528839 0.122032054 0.028059483
0.31429225 0.046578776 0.008939839 0.014299604 -0.0130305495 -0.031358045 -0.01185194 0.024907777
0.003642559 0.014979101 0.09685909 0.019930359 -0.022844208 0.011553774 -0.017838677 -0.011526603
00000000: 76be 1ebc 429c 86bc aec8 93bc 963b 35bc
00000010: 0604 583c 89df b5b9 83e0 ee3c bda8 3bbc
00000020: be84 90bd 6578 853c 1c92 43bc f866 dcbb
00000030: 6ecc 853c 58ce 1f3d 6961 2bbb 452c 5abc
00000040: ead0 da3e 60e4 cabc a88a 183c c53a 09bc
00000050: 7ab9 c5bb 5c34 5d3a f780 c63a 6a03 cc3b
00000060: 041b 253d 345f 6aba 4d9e 813b 47e1 0cbb
00000070: b28f 01bd 6866 9d3c cf07 cd3d dbbf d93c
00000080: 4fee af3b 56c6 aebb 01f5 c63a 2c2e 59bc
00000090: 7c13 11bb a5a6 5ebb 9e4f 5abb 514c e9bc
000000a0: 2802 89bc 1430 8b3d be59 88bb fb03 8b3d
000000b0: 8376 0f3d d542 003c b22f bdbb 5b3f 8a3e
000000c0: 9560 aaba 94bc 33bb 64e1 a3bb 4d11 033d
000000d0: e567 a0bc 173a 2b3d 6116 bd3c 6e4f b4bb
000000e0: f732 263c c6d4 073d e25d b6bc bdfa d43e
000000f0: a2e9 ea39 c60d 5b3c eb27 debc 0cf3 803c
00000100: 26af e63a be48 63bd 361a 12bc 89f7 513e
00000110: b57c bebc e42f 47bc 3a9e 1a3d 105a 71bc
00000120: 9952 e4bc fac6 f53e 6ce1 a4bb d973 f7bb
00000130: b172 31bb b6e0 2cbc 7b06 5d3b 5fbb f1bc
00000140: 382b 833d 1584 aa3c 5636 323d fbe4 6dbb
00000150: ab7d 843d 58d3 953c e344 f83c de41 e63c
00000160: 4366 183d 0e98 973e 33cf 01bb 30a0 bfbb
00000170: a00b a3bb cd03 34bc e6a7 16bb 9866 873c
00000180: caa6 4939 e584 373d 5f68 023c 0065 13bb
00000190: eda9 193c db77 223e 93af 013e 552c bebb
000001a0: 097d 683c 901a 3d3c 94a4 5fbc 0bde 29bc
000001b0: 9d23 403c 80d7 68bb f1eb f93d 00dd e53c
000001c0: eaea a03e 63c9 3e3d 6778 123c e348 6a3c
000001d0: 167e 55bc 4b71 00bd a42e 42bc 650b cc3c
000001e0: 00b8 6e3b e76a 753c 0f5e c63d fe44 a33c
000001f0: c723 bbbc 0a4c 3d3c 6b22 92bc 14da 3cbc

q1_network.network_body._body_endoder.seq_layers.2.weight f4 [128, 128]
-0.049728867 -0.17308864 -0.0631276 -0.070222445 0.16085857 -0.051581666 -0.08046256 -0.0826416
-0.06822908 -0.042168457 0.05597561 -0.067000404 0.053254224 0.06852767 -0.05640086 -0.10911311
0.29184166 -0.014379325 0.0011725681 -0.033384852 -0.107182704 -0.038234536 -0.18918468 -0.03383948
0.1251615 -0.02666968 0.14994653 -0.15462025 -0.13094799 0.034809988 0.05069106 0.048224583
-0.020865718 -0.14246082 -0.0044188155 0.030518379 0.05141215 -0.09524187 -0.053560924 -0.030682217
0.041433424 -0.18495907 -0.050634008 -0.08470506 0.03775042 0.042296227 0.0624165 -0.15289374
0.12062159 0.028980164 -0.17838092 -0.11687585 0.048855845 0.021449968 0.13287833 0.06478127
-0.041298047 0.15292658 -0.13645126 0.111737795 0.024457166 0.17518449 -0.011305838 -0.09118248
0.20670187 0.048212156 0.058931977 -0.039976917 -0.079153284 0.01939154 -0.08827393 0.0010761527
0.024384942 0.49780884 0.083000995 0.20309666 0.15403 -0.07606367 -0.018613068 0.054766037
-0.11184007 0.08850306 -0.041215535 -0.054097682 0.037113145 0.05264285 0.20284802 -0.11707561
-0.046304595 0.4138115 0.06797154 -0.03289997 -0.053137764 -0.009236274 -0.13159579 0.0019945423
0.065771215 -0.26424214 0.09964983 -0.07038812 -0.12448846 0.25013775 0.0067059333 -0.05514604
0.046577867 -0.013103738 -0.021770323 -0.18404283 -0.023299823 -0.06947443 0.054478645 -0.0071298596
0.35759684 0.103909135 0.0050916723 -0.29796493 -0.068887845 0.03924389 0.055646367 0.17273599
0.107576676 -0.029582173 0.08196021 0.034499057 -0.08613964 -0.13522616 -0.06708006 0.037463203
-0.013366295 0.058295365 -0.082149886 -0.03441924 0.051564924 0.04851108 0.03148685 -0.15074313
0.004208484 0.13436146 -0.016096503 0.10755687 -0.22013399 0.03000874 -0.0041743196 -0.16341612
0.15253074 0.08437064 -0.08447312 0.13222401 -0.02470778 0.025887087 -0.13342099 -0.009525234
-0.07810946 -0.14880832 0.1325017 0.09157764 -0.14486894 -0.13029668 0.0011952206 0.2430517
-0.18885891 -0.06818294 0.09279098 -0.068170846 -0.16156812 -0.02057868 -0.03081502 0.022305911
0.031409867 0.072321825 0.2270917 0.11538111 0.027255816 -0.24898557 0.007120034 -0.020024884
-0.06288227 0.04672385 -0.04258481 -0.015215325 -0.10408555 0.1072295 -0.07465234 -0.023522226
-0.068866275 0.025372565 0.020065602 0.089309834 0.15008892 0.07865534 0.04606619 0.054082464
0.073208526 -0.0029278442 -0.017888399 0.027861895 -0.07580632 -0.06537347 0.037161615 -0.02495886
-0.12836716 0.05500787 0.013340671 -0.012733797 0.009269931 -0.11774165 -0.09959528 0.006118122
0.08305951 -0.034430213 0.08223753 -0.079652816 0.014886723 -0.016380632 -0.08142918 -0.016411718
-0.061987095 0.1457483 -0.11964071 0.06836111 -0.073846005 -0.07799424 -0.09908271 0.08799409
-0.21668695 0.03966848 0.043407857 0.0070434315 -0.09680779 0.10301877 -0.04657538 -0.018874232
0.20283638 -0.14315557 0.06711247 0.060605608 0.035226032 0.1378244 0.038516957 0.009165551
0.16860735 -0.10252628 0.0013770326 -0.08422727 -0.05364522 -0.074789315 -0.12567534 0.16926414
-0.014349333 -0.05633656 0.005533797 -0.1203857 0.012015123 -0.04990912 0.033628687 -0.16532342
00000000: 7fb0 4bbd 263e 31be 0b49 81bd c9d0 8fbd
00000010: 1cb8 243e 4c47 53bd 8ec9 a4bd 0040 a9bd
00000020: b0bb 8bbd d5b8 2cbd ae46 653d 8237 89bd
00000030: 1a21 5a3d 3c58 8c3d 9704 67bd b276 dfbd
00000040: 456c 953e 4397 6bbc dbb0 993a 8ebe 08bd
00000050: 9b82 dbbd d19b 1cbd a1b9 41be 449b 0abd
00000060: 562a 003e 5f7a dabc 958b 193e c554 1ebe
00000070: 3b17 06be eb94 0e3d 6ea1 4f3d 2487 453d
00000080: 95ee aabc 40e1 11be b6cb 90bb ae01 fa3c
00000090: 8c95 523d 2b0e c3bd b362 5bbd 4659 fbbc
000000a0: 18b6 293d e965 3dbe 9b65 4fbd d979 adbd
000000b0: 2fa0 1a3d cf3e 2d3d 72a8 7f3d 2d90 1cbe
000000c0: 7408 f73d cf67 ed3c 7da9 36be 9b5c efbd
000000d0: 111d 483d d8b7 af3c 4211 083e 0bac 843d
000000e0: 2428 29bd c998 1c3e e1b9 0bbe c9d6 e43d
000000f0: 655a c83c 9063 333e 1f3c 39bc e1bd babd
00000100: a8a9 533e 1c7a 453d a862 713d d6be 23bd
00000110: 1e1b a2bd 02db 9e3c f6c8 b4bd b10d 8d3a
00000120: eec2 c73c cde0 fe3e 6dfc a93d 92f8 4f3e
00000130: 0aba 1d3e 45c7 9bbd 6f7a 98bc 5a52 603d
00000140: 680c e5bd 1841 b53d 9fd1 28bd 8895 5dbd
00000150: f403 183d 07a0 573d 64b7 4f3e 56c5 efbd
00000160: e3a9 3dbd 1adf d33e aa34 8b3d 1ec2 06bd
00000170: fca6 59bd be53 17bc 0cc1 06be deb6 023b
00000180: 0fb3 863d bf4a 87be 3615 cc3d a627 90bd
00000190: cef3 febd 0e12 803e 72bd db3b d0e0 61bd
000001a0: 6fc8 3e3d 10b1 56bc ad57 b2bc b975 3cbe
000001b0: 45df bebc 9c48 8ebd 0025 5f3d 99a1 e9bb
000001c0: ef16 b73e 50ce d43d 0bd8 a63b dc8e 98be
000001d0: 1215 8dbd 34be 203d 72ed 633d b4e1 303e
000001e0: 2951 dc3d 5056 f2bc c1da a73d e24e 0d3d
000001f0: fb69 b0bd ba78 0abe 4561 89bd 0473 193d
00000200: 4efe 5abc 1fc7 6e3d 333e a8bd 30fb 0cbd
00000210: be35 533d 8eb3 463d 5bf8 003d 685c 1abe
00000220: 53e7 893b 0d96 093e d0dc 83bc c746 dc3d
00000230: ce6a 61be e4d4 f53c bbc8 88bb 8e56 27be
00000240: 0531 1c3e 84ca ac3d 3e00 adbd bb65 073e
00000250: f867 cabc 2811 d43c 839f 08be ba0f 1cbc
00000260: daf7 9fbd 3561 18be 87ae 073e 0f8d bb3d
00000270: 8658 14be 7e6c 05be f3a8 9c3a 8be2 783e
00000280: 3b64 41be 7fa3 8bbd 3309 be3d 289d 8bbd
00000290: 1d72 25be 9f94 a8bc c86f fcbc e3ba b63c
000002a0: a2a7 003d 771d 943d ba8a 683e ee4c ec3d
000002b0: 9747 df3c 13f6 7ebe 2d4f e93b 3a0b a4bc
000002c0: 6bc8 80bd 8261 3f3d 696d 2ebd b349 79bc
000002d0: ce2a d5bd 249b db3d 53e3 98bd afb1 c0bc
000002e0: c309 8dbd 20da cf3c 9e60 a43c 13e8 b63d
000002f0: e9b0 193e 0d16 a13d e7af 3c3d 9385 5d3d
00000300: 5aee 953d 13e1 3fbb b18a 92bc a13e e43c
00000310: 5840 9bbd 87e2 85bd c736 183d 8676 ccbc
00000320: ae72 03be ef4f 613d d492 5a3c 6aa1 50bc
00000330: e9e0 173c 8922 f1bd 9cf8 cbbd 877a c83b
00000340: 1b1b aa3d b206 0dbd 266c a83d 0421 a3bd
00000350: 71e7 733c ad30 86bc 58c4 a6bd de71 86bc
00000360: 2ee6 7dbd 0b3f 153e 3006 f5bd e900 8c3d
00000370: 933c 97bd 72bb 9fbd e0eb cabd 3f36 b43d
00000380: 2fe3 5dbe 6b7b 223d 70cc 313d 96cc e63b
00000390: 2a43 c6bd 81fb d23d d3c5 3ebd 229e 9abc
000003a0: 57b4 4f3e 6097 12be 4372 893d 963d 783d
000003b0: 2c49 103d d721 0d3e f5c3 1d3d 1b2b 163c
000003c0: 68a7 2c3e 4cf9 d1bd 8c7d b43a 597f acbd
000003d0: 17bb 5bbd 242b 99bd 09b1 00be 9453 2d3e
000003e0: 7719 6bbc 2ac1 66bd db54 b53b c78c f6bd
000003f0: 14db 443c 816d 4cbd 3cbe 093d 8b4a 29be
