results/first/SpaceInvaders/SpaceInvaders-11974.pt (torch, 958647 bytes, 83 tensors)

discrete_act_size_vector f4 [1, 2]
000000 00 00 40 40 00 00 00 40
       3.0 2.0

network_body._body_endoder.seq_layers.0.weight f4 [128, 4]
000000 a4 da 94 be 6c 75 8f bd 92 6f 3c be 20 fd 90 bf
       -0.2907306 -0.07004818 -0.18401936 -1.1327248
000010 1d 56 01 bf 6c 68 14 be 77 c3 50 3d 2e 1a e6 bd
       -0.50522023 -0.14492959 0.05096766 -0.11235462
000020 3f fe c3 3e 18 79 b4 3e 16 b5 a6 bd 6d 53 af 3d
       0.38279912 0.35248637 -0.08140008 0.08560834
000030 8e 6f c7 be bc de 8b be 6b 19 01 bf 78 a9 6f 3e
       -0.38952297 -0.2731837 -0.5042941 0.23404491
000040 26 88 38 3e e1 02 d9 bd 73 9b 54 be a4 27 f4 3e
       0.18020687 -0.10596252 -0.20762424 0.47686493
000050 d3 81 37 bf 8f 58 d8 3e 1a 2d 67 3e 0a 9c 88 bd
       -0.7168247 0.42255065 0.22575799 -0.06670387
000060 d0 8e c6 3d c6 af 9d 3e a4 aa 35 bf 04 2f 8a 3e
       0.09695208 0.30798167 -0.709635 0.26988995
000070 40 25 12 bf 4c 2e fa 3e 49 30 29 bd 60 01 c8 3d
       -0.5708809 0.48863447 -0.041305814 0.09765887
000080 a0 1c 18 3f 51 78 41 3e f3 bb 3e be ba c0 04 bf
       0.5941868 0.18893553 -0.18626384 -0.5185658
000090 26 11 64 be 57 7d 20 bf fe b1 0d 3f 32 10 42 bf
       -0.22272167 -0.62691253 0.5534972 -0.7580596
0000a0 b0 54 82 bf 03 0e dd 3e f5 2a ca bd d1 e3 b2 bd
       -1.0182095 0.43174753 -0.09871475 -0.08734859
0000b0 2b 5f 7b 3e 19 12 78 3e 7b 78 51 bd 2c ac d8 3d
       0.24548022 0.24225654 -0.05114029 0.10579714
0000c0 37 80 b8 be 26 c9 c8 3e 28 ed 13 3d b9 e9 ad be
       -0.3603532 0.39215964 0.03611484 -0.3396738
0000d0 ac 97 0d bd a2 9e f9 bd 5d 96 42 bd c2 fa dd be
       -0.034568474 -0.1218846 -0.04750668 -0.43355376
0000e0 a2 e0 b7 bd 0f c7 36 3f 1f 67 2a bf 4b 9b 80 3f
       -0.08978392 0.7139749 -0.665636 1.0047392
0000f0 62 83 8c be 1e 73 44 be 9c d5 2a be 65 77 58 3e
       -0.27443987 -0.19184539 -0.16683048 0.21139295
000100 20 7f c3 3c 6e 93 25 3f 11 72 3e bf 57 c7 bf 3e
       0.023864329 0.64678085 -0.743928 0.37456772
000110 cc 78 07 3e bd ee ec be 87 fa 56 3f 86 e7 14 bf
       0.13229674 -0.46275893 0.83976024 -0.58165777
000120 ed ec 32 3e 28 13 05 bf df e6 43 3d 6a 5a 46 3f
       0.17473193 -0.51982355 0.047827598 0.7748171
000130 18 33 8d bc 4b f5 6b 3e 33 23 0e 3f a6 3b 87 bc
       -0.017236277 0.2304279 0.5552246 -0.016507935
000140 23 02 d2 be a1 7a c6 3e c4 3b 50 be ff 34 ab be
       -0.41017255 0.38765433 -0.20335299 -0.3343887
000150 a0 ca af 3d fd 05 fe be 94 18 46 3e fc b2 2c 3f
       0.085835695 -0.49613944 0.19345313 0.6746061
000160 89 4b 0a bf b9 27 59 be 33 17 1d bf 3b 59 3b 3f
       -0.5402151 -0.21206559 -0.61363524 0.7318303
000170 76 c1 71 bc 78 09 81 3d 0c 3d 80 be 43 75 55 bd
       -0.014755597 0.06300634 -0.25046575 -0.052113783
000180 43 83 03 3f 31 25 04 3e a2 10 d5 3e 29 40 52 3b
       0.51372164 0.12904812 0.41614252 0.00320817
000190 29 6a 93 3e a5 e1 d9 3e 7d 83 1a be 56 91 4d 3f
       0.2879193 0.42554966 -0.15089221 0.8029989
0001a0 6b 80 c5 3f 3f a4 98 be 3b 72 a8 3e c7 b8 73 3e
       1.5429815 -0.2981281 0.3289965 0.23800956
0001b0 96 2f 22 3f e6 f0 67 bf f5 95 a8 3e 31 d7 eb 3e
       0.6335386 -0.90601957 0.32926908 0.46062616
0001c0 85 53 ee bd 60 11 1a be f2 af 70 3b 0c b6 58 3f
       -0.11637024 -0.1504569 0.0036725965 0.8465278
0001d0 68 e1 b0 bd 0b 6d 10 be 8b c2 a8 bd e0 09 d8 be
       -0.08636743 -0.14104097 -0.08240231 -0.42195034
0001e0 76 97 78 be a4 a0 4d be e9 66 e3 bd e2 1a 32 bd
       -0.24276528 -0.20080811 -0.11103613 -0.04348267
0001f0 75 81 eb be 35 1c f8 3e ac 15 97 3e c5 46 eb 3e
       -0.45997205 0.4845902 0.29508722 0.4595243
000200 31 12 2e 3e f4 9d 28 bd aa a4 1e 3e e3 02 bb be
       0.16999127 -0.04116626 0.15492502 -0.3652564
000210 e5 81 18 3f e6 1a f2 be 66 a0 71 be 2b db 57 3f
       0.59573203 -0.47286147 -0.23596343 0.843188
000220 4c 02 d8 3d 74 63 83 bd 37 3f eb be f3 3c 82 be
       0.10547313 -0.064154536 -0.45946667 -0.25437126
000230 15 58 50 be 7b 73 09 3f ef bc b4 be 9a 3c 38 be
       -0.203461 0.53691834 -0.35300395 -0.17991868
000240 9c 6e 2a bc 18 ff bd 3d 93 7f a3 3e 9c 16 4c 3e
       -0.010402348 0.09277171 0.3193327 0.199305
000250 73 89 84 be 2a 30 42 be a5 ff 98 bd a0 82 02 3e
       -0.25886115 -0.18963686 -0.07470635 0.12745142
000260 53 38 50 3e a9 b0 32 bc 02 a8 04 be 30 bf 61 3e
       0.20333986 -0.010906377 -0.12954715 0.22045588
000270 01 94 62 bf 81 c3 dd 3e 0a 68 88 bb bf 9e fb 3e
       -0.88507086 0.4331322 -0.004162793 0.4914455
000280 ce 01 d5 3c 97 46 94 be 70 5b b4 3e 5e de 27 be
       0.026001837 -0.28960106 0.3522601 -0.1639342
000290 76 a6 79 bc 66 09 e4 bd 01 5c 84 bf 48 03 1f bf
       -0.015237441 -0.11134605 -1.0340577 -0.6211438
0002a0 7d 78 1a bf f9 c4 1c bf 28 2f ed 3d f9 e0 2a 3f
       -0.603401 -0.61238056 0.1158126 0.6674953
0002b0 92 77 98 3e b1 4d 2e 3c 3c 3b 46 bf a8 d6 7e be
       0.29778725 0.01063864 -0.77434134 -0.24886572
0002c0 78 30 1c 3e 94 b2 18 3e 2b b3 91 be a9 d0 93 be
       0.15252864 0.14911872 -0.28457007 -0.28870133
0002d0 f0 6a 25 be 86 44 1a bf f5 d5 ca 3e b6 5b c0 bf
       -0.16154075 -0.6026081 0.3961636 -1.5027988
0002e0 b2 bd 20 be b1 0e c9 3e ae f1 81 3f 6c 72 37 3f
       -0.15697363 0.3926902 1.015188 0.7165897
0002f0 c9 8e c6 be 12 42 88 be 04 cf 2c bf 3e 46 b8 3e
       -0.3878081 -0.26612908 -0.6750338 0.3599109
000300 79 04 42 3e cb 42 3d 3e 80 af 7d 3f fd 17 19 be
       0.18947019 0.18482511 0.99095917 -0.14950557
000310 24 8a 3b bf 50 55 0c 3f 5c b3 a0 3e 46 f9 15 bf
       -0.7325766 0.54817677 0.3138684 -0.58583486
000320 c1 51 6d 3e 38 a0 46 bc 3f 9e 8b bc fc 4b 81 be
       0.23175718 -0.01212316 -0.017043231 -0.25253284
000330 52 fe 16 bd c0 2a ce 3e 7c ef 80 3d 62 b1 c6 be
       -0.036863633 0.4026699 0.06295678 -0.38807207
000340 5d 97 17 3e fe b5 3f bd 85 98 c7 be 85 88 41 3e
       0.14803834 -0.04680442 -0.3898355 0.18899734
000350 0e cd 9b 3e ae ee c8 3e 2b 36 b6 3e a0 10 5a bd
       0.30429882 0.39244598 0.35588202 -0.05323851
000360 78 79 63 3f ee a2 05 3f de bb 1f 3e 9b 24 91 3e
       0.8885722 0.52201736 0.1559901 0.2834824
000370 0a cc 45 3e 92 aa 1b 3e f9 82 26 be 05 4f fe bd
       0.19316116 0.15201786 -0.162609 -0.124174155
000380 cd 48 0f 3f 03 e5 29 bf 9c 4f 1b 3f 23 d8 45 be
       0.5597046 -0.6636507 0.6066835 -0.19320731
000390 f1 b3 27 bf 22 44 57 3e 84 17 32 3f 4f ee b9 bb
       -0.65508944 0.21022084 0.6956713 -0.0056741606
0003a0 4f e5 17 be 8b 56 14 3f d4 81 12 3d 55 98 e8 bd
       -0.14833568 0.57944554 0.035768345 -0.1135718
0003b0 83 87 3c bf ed 83 0b bf d0 82 df 3e b9 f5 48 bf
       -0.73644274 -0.5449818 0.4365449 -0.78499943
0003c0 9d 6f c2 be 96 89 8b 3e a7 a3 be 3c 61 ca 07 3e
       -0.3797578 0.27253407 0.023271395 0.13260795
0003d0 fb 7c 48 bf 41 c5 a5 be 8c 0b 9a bf 4d f5 18 bf
       -0.78315705 -0.32377055 -1.2034774 -0.597493
0003e0 17 a6 15 3f f9 bd 79 3e b9 72 3e be 43 ee 32 be
       0.5845656 0.24388875 -0.1859845 -0.17473702
0003f0 90 a0 58 be 4f 5d c0 bd 7d be 1b 3e 18 5a d3 3e
       -0.21155 -0.09392797 0.15209384 0.41279674

network_body._body_endoder.seq_layers.0.bias f4 [128]
000000 fa bd c0 3b a0 ec 43 3d 36 f1 11 bd 00 2a ed 3e
       0.005882022 0.047833085 -0.035630427 0.46321106
000010 b2 bb 87 3b dc c1 0b bd b9 a1 1b be 68 a3 99 3c
       0.004142248 -0.034120426 -0.15198411 0.018754676
000020 6d 3d 2c 3e 6d 57 3e 3e b1 ab 2e 3c ec fc 67 bd
       0.16820307 0.18588038 0.010661052 -0.05663769
000030 de f8 ac bb 9c 8a 0e 3f 83 0d 2c 3d 33 19 f5 bc
       -0.0052786907 0.5568025 0.042005073 -0.029919242
000040 84 31 78 bb d4 68 08 bd dd 4d 8a bd 72 fa 00 3d
       -0.003787131 -0.033303097 -0.067531325 0.031488843
000050 48 f8 b0 bd f2 fa 85 bb 76 23 f1 bd 18 71 9a be
       -0.08641106 -0.004088753 -0.11774342 -0.3016441
000060 46 f5 17 bd aa 20 ab bd b2 49 30 3d 65 66 e4 3d
       -0.037099145 -0.083558396 0.04303903 0.11152343
000070 18 a0 9e 3d 06 79 06 3f 9a a5 e6 3e 58 70 98 3d
       0.07745379 0.5252842 0.4504822 0.07443303
000080 0c 1f 8f 3d 85 e3 b3 bd 16 2a a1 3e 4d e4 6e 3c
       0.069883436 -0.0878363 0.31477422 0.014580798
000090 10 16 f4 bd 40 2f 1c 3d ab 5e c9 3c d3 29 6f 3d
       -0.119182706 0.038131 0.024581274 0.058389496
0000a0 07 69 9a 3d e8 7e b0 3e b8 59 aa 3b f3 6a 50 3e
       0.075395636 0.34471822 0.0051986836 0.20353298
0000b0 be 5e a2 be c7 d0 8e 3d 03 60 9b bd e6 44 d2 3e
       -0.31712908 0.06973415 -0.07586672 0.4106819
0000c0 45 56 99 3d 29 c9 90 3c b3 41 c1 3e 52 2d 50 bd
       0.07487158 0.017674046 0.37745437 -0.05082447
0000d0 7e a5 7e 3e 8e 8b 04 be 66 70 fb bd 89 65 42 be
       0.24867818 -0.12943861 -0.12277298 -0.18984045
0000e0 3f 43 63 3d 87 52 40 3d cf bb f6 bd c0 33 5a 3d
       0.055484053 0.046953704 -0.120475404 0.05327201
0000f0 a4 03 4b 3d 77 23 5f be e8 e7 65 be dd 8c 98 bc
       0.04956402 -0.21790873 -0.22451746 -0.018621856
000100 13 35 38 3d 09 97 4f 3e 52 f6 1f 3f 84 a8 d2 bd
       0.04497249 0.20272459 0.6248523 -0.10286048
000110 eb 1c 00 be 38 aa 55 bc f1 d6 14 3c 19 12 98 bd
       -0.12511031 -0.013041072 0.009084449 -0.07425327
000120 39 89 8d 3d ff 55 67 3d e4 06 10 3e 36 76 a1 bd
       0.06910939 0.056478497 0.14065129 -0.07883875
000130 42 72 d8 bd 63 b6 15 be cf 7c f7 3d 9a ac 7a 3b
       -0.10568668 -0.14620356 0.12084352 0.0038249851
000140 87 18 17 bd 84 98 24 be 6a 6c 98 3c 08 50 bc 3c
       -0.036888625 -0.16073805 0.018606383 0.02298738
000150 62 38 43 bc 6c 9b bd bc eb 7c 92 bc e9 14 ef bd
       -0.011915298 -0.0231454 -0.017881831 -0.1167391
000160 3a 0d 4b be 28 8b fe 3d 31 62 44 3e 11 60 48 3d
       -0.19829264 0.12428886 0.19178082 0.04891974
000170 a1 ec 0d be 1b 74 16 3e 62 b6 35 3d 24 15 c0 3e
       -0.13859798 0.14692728 0.044363387 0.3751613
000180 28 9c 14 be 81 df a5 bd 8f b0 17 3e c2 55 1e 3e
       -0.14512694 -0.080992706 0.14813446 0.15462402
000190 76 36 d4 bd 95 c5 87 ba 82 20 32 be 6f dd c0 3c
       -0.1036195 -0.0010358567 -0.17395213 0.023543088
0001a0 9a 15 81 bd 29 c4 e4 bd 01 32 c1 bd 9e 58 7e bd
       -0.06302948 -0.11170227 -0.094333656 -0.06209623
0001b0 11 55 ec 3b a9 84 33 bd 8d cd cf 3d 39 52 98 3d
       0.007212289 -0.043827686 0.101466276 0.07437558
0001c0 de 17 fb 3e 80 5c 81 bd 4c 11 84 3d d1 0f 1f bd
       0.49041647 -0.06316471 0.064486116 -0.038833443
0001d0 4c 81 f7 bd ce 03 a1 3d 07 73 13 bc 45 e9 26 bd
       -0.12085208 0.07862054 -0.008999593 -0.040749807
0001e0 02 34 5a 3e 97 d7 51 be 08 7d b6 3e e0 76 58 3b
       0.21308902 -0.20492397 0.35642266 0.003302984
0001f0 a1 14 a8 3d a3 c9 d1 bc 43 76 66 bd 3d 11 86 3d
       0.0820706 -0.025608843 -0.056265127 0.06546257

network_body._body_endoder.seq_layers.2.weight f4 [128, 128]
000000 06 bc 35 3e 55 93 1a 3e bb d3 98 be f4 f7 23 bd
       0.17747506 0.15095265 -0.29849038 -0.04003139
000010 2a a1 62 3e b6 bd 96 3d 11 ec be 3c b7 68 0f 3e
       0.22131792 0.07360403 0.023305925 0.1400479
000020 7a 4d 86 3e 51 a8 e0 bc 77 2f 9b bd 17 cb 00 be
       0.26230985 -0.02742401 -0.075774126 -0.12577473
000030 0c 26 17 3e 97 57 b7 3d cc 3b 1f 3e 1f 0b d6 3d
       0.14760607 0.08952253 0.15550154 0.1045134
000040 cb f9 05 bd da 3b c5 bc 27 56 46 3d d3 2f d4 bd
       -0.032708924 -0.024076391 0.048422005 -0.10360684
000050 00 0a 71 3c 6f 42 3c bd 43 12 91 3d 67 e4 1a be
       0.014711857 -0.045961794 0.07083561 -0.15126191
000060 cc 77 04 3d 53 41 b6 bd c6 4c 82 bd aa 56 73 bd
       0.03234081 -0.08899178 -0.063622996 -0.05940882
000070 95 ce d5 bd 51 b0 d4 bd 3c dc 9b 3d 80 9c d4 bd
       -0.10439793 -0.10385192 0.07610366 -0.103814125
000080 cd bd 03 3e e8 7b fc bb d1 f0 81 3d 93 56 84 3d
       0.12865372 -0.0077052005 0.0634476 0.06461825
000090 24 28 d7 3b b6 15 63 3e 0b 74 dd 3c 91 27 48 ba
       0.0065660644 0.22176251 0.027032873 -0.00076352904
0000a0 76 9c 08 be 25 48 2e bd 59 39 08 be 10 71 2b 3e
       -0.13340935 -0.04254927 -0.13303126 0.16742349
0000b0 5d 67 09 be 53 f3 50 3d 18 ec 07 3b 25 0c e7 bd
       -0.13418336 0.051013302 0.0020740088 -0.11281613
0000c0 c8 48 43 be 5d 3c c6 bc 36 59 46 3e 2e 05 7f 3d
       -0.19070733 -0.024198705 0.19369969 0.0622608
0000d0 79 29 12 3e 36 3e ad be 4d 92 71 3c 23 0d 8b be
       0.14273633 -0.33836526 0.0147443535 -0.2715846
0000e0 8c 96 c1 3d 1d b2 94 bd 93 b3 0a be 18 bd 15 3f
       0.09452543 -0.07260535 -0.13545065 0.5849166
0000f0 46 e3 44 3c 9d e0 c2 3d be 17 c5 3d 75 e4 cb 3e
       0.012017077 0.09515498 0.09623669 0.39822736
000100 6c 60 89 3d c0 42 c9 be 99 4e 3c be 2a 92 ec 3c
       0.06707844 -0.3930874 -0.18389358 0.02887829
000110 7c cb 7f bc 6e ed 89 3e f3 03 36 bc ea 73 0b be
       -0.015612479 0.26938957 -0.01110934 -0.13618436
000120 b8 bf e4 3e b3 2e ad 3d 9b 15 6a bc 92 c4 57 3b
       0.4467752 0.08456173 -0.014287378 0.0032923562
000130 86 2e 74 bd 3c 4f 30 3e c6 4e 7b 3d 16 40 b3 3e
       -0.05961468 0.17217726 0.06135442 0.3500983
000140 f2 ed ae 3d 13 8e 34 bd 07 19 15 be 96 81 c0 bc
       0.08541478 -0.044080805 -0.14560328 -0.023499291
000150 0d e0 10 3e 4c 56 0a bd c2 ac 15 3d f9 61 21 3d
       0.14147969 -0.033773705 0.036541708 0.039400075
000160 e3 e7 00 3d 53 4b a3 3d 07 02 33 be 08 dd cb bd
       0.031471144 0.07973351 -0.17481242 -0.09954268
000170 aa a7 66 3e 16 b6 4c bd 25 b2 0f 3e 39 35 1b bd
       0.22524896 -0.04997834 0.140328 -0.037892554
000180 96 d9 3c be 71 d1 2d be 0f ba 20 3e a3 a4 37 3e
       -0.18442377 -0.16974427 0.15695976 0.17933898
000190 d4 fc 95 3e be a8 c5 bd 44 36 77 bd 3a f0 3a 3d
       0.29294455 -0.09651326 -0.060354486 0.045639254
0001a0 41 d9 47 bd 18 36 fd bd b0 d9 ce 3d f3 07 9b 3d
       -0.048791174 -0.12363833 0.10100114 0.075698756
0001b0 2d ea f9 bc d3 df 6a be 94 15 18 be 8d 2c b0 bd
       -0.030507172 -0.22936945 -0.14851981 -0.086022474
0001c0 c6 c3 20 3d 07 46 c8 3c d9 78 a5 bc f9 66 01 be
       0.039249204 0.024447454 -0.020199226 -0.12636937
0001d0 b8 39 17 3d ba 8c 21 be 34 d5 da 3d 4f c2 94 bd
       0.03692028 -0.15776339 0.106851965 -0.07263624
0001e0 14 2f 9b 3c ab 0d 1e 3d b8 75 8f bd 62 87 ac 3d
       0.018943347 0.038587254 -0.07004875 0.0842426
0001f0 6e e3 58 be c4 51 12 3e 6b c2 bf bd 6c 67 83 3d
       -0.21180508 0.14289004 -0.09363254 0.064162105
000200 cf ec 57 bd 72 35 9a bd 8c e4 82 3d d9 58 58 be
       -0.052716073 -0.07529725 0.06391248 -0.21127643
000210 ad b4 2e be 02 ef ab 3a 0d e3 dc bc 3d de 32 bd
       -0.1706111 0.0013117495 -0.026963735 -0.043668974
000220 c0 93 75 3d 44 3d a9 3d 5d 7d 45 bd 21 66 d3 3c
       0.05995536 0.082636386 -0.04821526 0.025805535
000230 2f b6 86 3d 30 00 73 be f0 49 8a bc 17 3e c7 3d
       0.065777175 -0.2373054 -0.01688096 0.097286396
000240 af 52 fb bd 01 52 fa bd 61 c7 a2 bb bb 6d 1c 3e
       -0.1227163 -0.12222672 -0.0049676155 0.15276234
000250 1c 0c cf 3d ee 92 15 3d 65 bd d5 bb 45 42 99 3c
       0.101097316 0.036517076 -0.0065228217 0.018708358
000260 b0 2b 85 bc 15 df b9 3d 51 4d 6c bb 3b a8 e0 3c
       -0.016256183 0.09075753 -0.0036056826 0.027423969
000270 fc 23 2c 3d 01 6a ab bd d1 69 f9 bd 70 b5 71 be
       0.042026505 -0.08369828 -0.12178386 -0.23604369
000280 2b b4 2a bd 30 bd 5c bd 1f bd f1 bd 96 23 c7 bd
       -0.041675728 -0.05389136 -0.1180365 -0.09723584
000290 71 96 9d 3c 60 f3 4e be 35 bc d3 bc 1a 91 6d ba
       0.019236775 -0.20210028 -0.02584658 -0.00090624543
0002a0 d3 81 3e be bf 80 53 be e7 84 c9 bc 9b 76 4b be
       -0.18604212 -0.20654581 -0.024599506 -0.19869463
0002b0 17 68 80 3d 87 40 b0 bc fe a5 89 3d 27 98 0b be
       0.062698536 -0.021515144 0.067211136 -0.1363226
0002c0 d9 36 10 3e 20 01 19 be 31 a5 60 3c e0 c9 03 3d
       0.14083423 -0.14941835 0.01371126 0.032174945
0002d0 2a 64 19 be 57 35 83 bc 11 d6 c8 bb 52 3e 4b 3e
       -0.14979616 -0.016016645 -0.0061290343 0.19847992
0002e0 71 47 34 3e 0e 16 94 bd 19 c1 91 bd 6f 2a 24 be
       0.17605378 -0.07230769 -0.071169086 -0.16031812
0002f0 59 8a 23 3e 62 b5 03 3e 6c 67 24 3e e3 d7 e2 3d
       0.15970744 0.12862161 0.16055077 0.110763334
000300 37 bd c4 bd 30 0f b8 bc 63 f7 88 be 1c d7 88 3d
       -0.09606402 -0.02246818 -0.2675124 0.06681654
000310 37 3f d9 bd 9a 70 bb bd 36 2b 03 be 01 de 66 3c
       -0.106077604 -0.091523364 -0.12809452 0.014091016
000320 52 e6 9b bd 1f 3c 2c be 8b 00 b3 bd 99 c7 97 bd
       -0.076122895 -0.1681981 -0.08740338 -0.07411117
000330 5c c0 75 bd a0 79 17 3e 85 1b 2e bd 79 94 ab bd
       -0.0599979 0.1479249 -0.042506713 -0.08377928
000340 9e 0a 9d bc b4 10 55 3e 38 f3 bd bc c9 2b 39 3a
       -0.019170102 0.20807153 -0.023187265 0.00070637144
000350 6b 7d eb bd 8d 98 d1 bd 66 07 1a 3d af 9c 84 bd
       -0.11498531 -0.10234175 0.037604712 -0.064751975
000360 28 70 73 be d1 1b 15 bd cf fc fe 3d bb fa 06 bc
       -0.23773253 -0.03640348 0.12450563 -0.00823849
000370 73 5a ca bd df f7 22 3e f6 46 51 bc 50 d6 03 3c
       -0.09880533 0.15914868 -0.012773266 0.008046702
000380 af 58 4f bd 79 ab 5c bc 48 f9 96 bc 7e a7 56 3c
       -0.050621685 -0.013468617 -0.018429413 0.013101457
000390 f5 59 7e bb 01 dd ad 3d 48 06 5b 3b c7 aa 7e 3d
       -0.0038810943 0.08489419 0.0033420492 0.062174585
0003a0 4c 38 34 bb 26 fa 05 bd 68 98 85 bd 5e 76 36 3c
       -0.0027499376 -0.032709263 -0.0652321 0.011136619
0003b0 8e 24 b0 3c 6b 4b f4 3d a5 c4 f7 3c 4d a9 70 3d
       0.021501806 0.11928447 0.030245135 0.058755208
0003c0 46 25 39 be 24 fb d7 bd 32 61 f3 3d 63 df de bd
       -0.18080625 -0.10545948 0.11883773 -0.108824514
0003d0 04 af 28 be ff 9a 56 3c 54 06 b2 3d 16 f0 e6 ba
       -0.16473013 0.013098477 0.08692613 -0.0017619159
0003e0 c4 54 a7 3c 6c 96 c7 bb 7d 16 1a be 2d 04 80 3d
       0.020426162 -0.0060909297 -0.15047641 0.062507965
0003f0 f9 a7 82 3d b1 c1 99 bc cc 81 08 be d0 e5 22 3e
       0.063796945 -0.018769117 -0.13330764 0.15907979

network_body._body_endoder.seq_layers.2.bias f4 [128]
000000 56 9e 81 bc 13 1d 2e 3c 7e 6a 29 bd 6f 21 d2 3c
       -0.01582257 0.010627049 -0.041361324 0.025650708
000010 ca 2c 1f bc 15 f3 09 3d 8d 57 d2 3d 05 c5 56 3d
       -0.009715268 0.033679087 0.10270605 0.052433986
000020 1b 2e 42 bd 66 10 31 3d f5 da f1 bc fe 18 56 3d
       -0.04740725 0.04322853 -0.029523352 0.05226993
000030 96 02 50 bb d5 b9 e5 bc 04 cb 0c bc 5a 53 5b 3b
       -0.0031739823 -0.028042713 -0.008593325 0.003346643
000040 c4 26 5e 3d d8 e4 e4 3a d5 8d 9d bd c3 48 60 3c
       0.05423619 0.001746322 -0.07693068 0.013689223
000050 ac 0a 4b 3e 0b 00 21 bd d3 c6 6a 3a f7 be 67 be
       0.1982829 -0.03930668 0.0008956019 -0.22631441
000060 e4 a9 16 bc 6b 8f c7 bd ea cf cd 3a 7f 76 27 bd
       -0.0091957785 -0.09744152 0.0015702222 -0.04088449
000070 c2 5e 92 3d fb 73 7d 3d 99 c5 8c bd 1e e5 47 3d
       0.0714698 0.061878186 -0.06873626 0.048802488
000080 11 0b af 3b 74 b2 a7 3c fa 0b 1c 3c 07 b2 37 3d
       0.0053418954 0.020470835 0.00952434 0.044847514
000090 7d d1 9b 3d 2e 38 77 3e 22 e8 39 3b ec 24 b0 3e
       0.07608316 0.24142525 0.0028367122 0.3440317
0000a0 3a 49 6e 3b 8c 09 e3 bc fd af 98 3d 4d ad 36 bd
       0.0036359564 -0.027714513 0.07455442 -0.044598866
0000b0 d5 5b ea bc 54 60 a1 3d d4 cc e2 bc 66 56 9b bc
       -0.028608242 0.07879701 -0.02768556 -0.018962096
0000c0 da 1e 62 3c ec c5 c2 3c f5 69 ab 3c 5e 55 b4 bc
       0.013801301 0.023776017 0.020924548 -0.022013362
0000d0 c6 0e 18 bd 05 ef 89 bc 61 91 a2 bc b5 5d 85 3c
       -0.037123464 -0.016837606 -0.019844713 0.016280035
0000e0 85 f0 2c 3c dc a0 2a 3d 9f 47 b6 bc 8f 1c 91 bc
       0.010555391 0.041657314 -0.022250948 -0.017713813
0000f0 08 75 1e bd a8 1d e9 bc fa dc ec bb f0 99 55 3c
       -0.03868583 -0.028456524 -0.007228491 0.01303719
000100 47 31 ae 3d 98 89 61 bc e1 c1 e6 bc 05 5a 26 3d
       0.08505493 -0.013765715 -0.02816862 0.040613193
000110 8b 5e 3a bd d1 4b 08 bc 0e 5f 1d bb de ab 0b bb
       -0.04550032 -0.008318857 -0.0024012956 -0.0021312158
000120 a3 fa 07 3e ac 44 31 bc db 42 af bc ad 3e c8 3b
       0.13279204 -0.010819595 -0.021394184 0.006110987
000130 99 ca 1f 3b d8 94 a3 bb 37 fb c6 bc 4f df d5 3d
       0.0024382232 -0.004992109 -0.02428971 0.10442983
000140 81 62 3b 3e d8 ac 9b bd 42 d4 ef 3b ff b7 f2 3d
       0.18299295 -0.07601327 0.0073190043 0.11851501
000150 1f b2 4f 3e 46 09 c8 3b ce 55 8d 3d 10 ba 84 bc
       0.20282792 0.006104621 0.069011316 -0.016202003
000160 e0 2e 9e bc ca f8 eb 3b 93 fa ab bc 87 ab 5b bc
       -0.019309461 0.007201289 -0.020993507 -0.0134075945
000170 c2 b2 e4 3c 71 e5 fa 3d 9c 2f f5 bb f3 9f e3 3d
       0.02791727 0.12250794 -0.007482482 0.11114492
000180 22 f4 de bc d8 aa 8b 3c ee 39 21 bd 7d 95 54 3e
       -0.027216021 0.017049238 -0.039361887 0.2076015
000190 e1 22 00 bc 6f 5f a8 bb c7 3e 2c 3d c7 25 24 bd
       -0.007820816 -0.0051383297 0.042052057 -0.04007509
0001a0 a2 11 e7 bb d4 88 0e 3d fc 9f ca bc 62 45 3b bb
       -0.0070516625 0.03479846 -0.02473449 -0.002857529
0001b0 57 01 25 3c 08 ba a5 bc 7d 9d e7 bb df 49 c5 bd
       0.01007112 -0.020230308 -0.0070683346 -0.096332304
0001c0 fc ad ee bc dc 86 1d bd 4b e8 b7 3b 29 84 63 3e
       -0.029135697 -0.03845869 0.0056124083 0.22218384
0001d0 8f 1a 04 3e 12 dc 10 3e f1 12 a4 3d 67 74 8f bb
       0.12900756 0.1414645 0.08011425 -0.00437789
0001e0 88 74 b9 bc c4 be a7 3b b5 ae 74 be 22 26 4f 3d
       -0.022638574 0.0051191766 -0.2389477 0.050573476
0001f0 69 85 2d bc dc f3 07 bd e9 6c b7 bd f8 f8 05 ba
       -0.0105908895 -0.033191547 -0.0895632 -0.00051106466

action_model._discrete_distribution.branches.0.weight f4 [3, 128]
000000 f4 33 72 3d 18 d9 82 3d 25 c5 73 bc 94 bb 9e 3d
       0.059131578 0.063890636 -0.014878546 0.077506214
000010 08 8f 44 bc 2a 7c c6 3d 6c 8f 3d 3e de 93 33 3c
       -0.011996992 0.09691651 0.18511742 0.010960547
000020 92 38 e0 3b 3a 5f 26 bc f6 c2 ac 3b c5 c8 99 3c
       0.006842681 -0.01015454 0.0052722646 0.018772492
000030 1e 4d 36 3d 7c cf 73 b9 ed da 13 bd 6d 36 93 3d
       0.04450714 -0.0002325158 -0.036097456 0.07188115
000040 25 a6 10 3e 6f f9 04 3c df 00 dd ba 8e 35 2f bd
       0.14125879 0.00811611 -0.0016861222 -0.042775683
000050 4d 7c c0 bd 22 ac 05 bd 33 9a 88 3c ab 1d 06 3d
       -0.093987085 -0.03263486 0.01667509 0.032743137
000060 44 61 79 bc b5 a9 8d 3c 74 ed 6a bc 5c 1e 5f 3c
       -0.015220944 0.017292837 -0.01433884 0.013618078
000070 2a c5 bd 3d 2a 97 b4 3d 38 7c 61 3c 57 19 6e 3d
       0.09266122 0.08817895 0.013762526 0.058129635
000080 a2 ca 3c 3d ef bc 2d 3d 59 4e 72 3b bf 74 34 3d
       0.046091683 0.04241651 0.0036972968 0.04405665
000090 7a 2c e9 bb fd 2e 65 bd 56 11 19 3c 03 53 85 be
       -0.0071158977 -0.055953015 0.009342512 -0.26039895
0000a0 15 93 b2 ba c3 0c 4a 3c 9e f7 cb bd 2b 0f 32 bd
       -0.0013624156 0.012332144 -0.099593386 -0.043471497
0000b0 ce 1f bb b9 fb 44 97 3d ff d2 58 3d 24 22 11 3c
       -0.00035691116 0.07386204 0.052935597 0.008858237
0000c0 64 a6 e8 3b 85 96 97 3d f8 4b 87 3c 75 ad 0f bd
       0.0070999134 0.07401756 0.016515717 -0.03507753
0000d0 e3 8d 69 3b 46 f1 1b 3b dc 61 23 3d de 6c 66 3c
       0.003563755 0.0023794933 0.039888248 0.014064042
0000e0 d7 32 f0 ba 46 e9 5c 3d ad 5b 23 3c 04 6c f8 3d
       -0.0018325698 0.053933404 0.009970588 0.12129977
0000f0 f4 96 91 3c fd 39 47 3c 44 ce ab 3b 99 16 1e 3d
       0.017772175 0.012159822 0.0052430946 0.03859577
000100 84 f3 9f bc 99 e1 14 bc 65 26 ff ba b4 39 21 bb
       -0.019525297 -0.00908699 -0.0019466399 -0.0024601044
000110 04 e2 38 3b 5a c5 f9 ba 98 45 39 3c 3e 18 e6 3b
       0.0028210888 -0.0019056008 0.011308096 0.007021933
000120 54 5a 60 3e e9 0b 37 3d df 5a 97 3c fe 99 3d 3c
       0.21909457 0.044689093 0.018475948 0.011572359
000130 fe 04 47 3a f4 ab 88 bc 90 ae 32 3c 53 d0 95 3c
       0.00075919915 -0.016683556 0.010905877 0.018287813
000140 05 8e b7 3e 5b dc ae 3b 87 4e 18 3d 6a 76 64 3e
       0.3585054 0.005336327 0.037184265 0.22310796
000150 27 73 a6 3e 5e 20 05 3d 6a 95 d6 3d cf a5 12 3c
       0.3250973 0.03250157 0.10477717 0.008950665
000160 8e ab aa bc af 97 07 3c 4f 33 08 3d 28 f7 21 3d
       -0.020833757 0.00827591 0.033252057 0.039542347
000170 db e5 02 3d 79 73 5b 3e 11 9c e4 39 f0 30 0e 3c
       0.03195749 0.21430768 0.00043603827 0.00867866
000180 12 6b a3 ba c8 88 48 bc c8 1b 4b 3a c6 24 53 bd
       -0.0012467823 -0.012239642 0.0007747975 -0.05154874
000190 fe 05 2c 3c 8e 1f b3 3c f7 1e de 3d 24 f2 8d 3b
       0.0104994755 0.021865632 0.1084575 0.004331844
0001a0 48 5a cf 3b bf 0d db 3b 47 24 36 3b 7a e1 ea 3b
       0.006327901 0.0066849883 0.002779262 0.007167992
0001b0 85 65 cf 3b 32 c8 0a 3d 9c 34 9e 3c b6 4a 5c 3c
       0.0063292407 0.033882327 0.019312195 0.013445547
0001c0 9f d0 16 bc ec c9 50 bc df 3d 02 3a 07 21 ca 3e
       -0.009205013 -0.012743454 0.0004968326 0.39478323
0001d0 53 6a d4 bc 9d 51 80 3e 6b 6a bc bc 6d 76 a8 3c
       -0.025929606 0.25062266 -0.022999963 0.020564282
0001e0 f2 0f 55 bc 04 6e e0 bc fa 55 91 3d 28 bd 17 bc
       -0.01300429 -0.02739621 0.07096477 -0.009261407
0001f0 7f 93 16 3c a0 65 e2 3b 4b fe a6 3c d6 db 3c bd
       0.009190439 0.0069090873 0.020384928 -0.04610809
000200 c2 d4 c9 bd 52 47 0b 3c bc 19 fa 3c fa 5e e9 bc
       -0.098550335 0.008500891 0.03052985 -0.028487671
000210 28 71 6f bb 7d 90 b5 ba ad 73 c9 3c 72 05 71 3d
       -0.0036535952 -0.0013852265 0.024591291 0.058843084
000220 cd 56 ae 3b cb 78 69 bc d2 9d dc bb b7 5b 21 bd
       0.005320406 -0.014249991 -0.006732681 -0.039394107
000230 88 17 08 bd 52 11 0f 3c 22 da 25 3e 98 ca 0f bb
       -0.033225566 0.008732157 0.16196492 -0.0021940824
000240 a4 58 19 bd 58 44 3b 39 e3 24 0b 3c 89 9e 3b 3d
       -0.03743805 0.0001785917 0.008492681 0.045805488
000250 5e 14 bb bd 32 43 1a 3d 19 bc 13 bc b5 2a 2f 3d
       -0.09134744 0.03766174 -0.009017014 0.042765338
000260 33 89 22 3b bb e6 b6 3c 2f 40 87 3c b9 a7 83 3c
       0.0024801015 0.022326818 0.016510097 0.016071187
000270 e2 e7 6a 3d 95 b7 01 bc 1c 1d 90 3c 73 42 f8 ba
       0.057350047 -0.0079173045 0.017592005 -0.0018940702
000280 70 38 8e bb 4e bf 5a bd a0 10 3b 3e d6 3a d2 3b
       -0.004340224 -0.0534051 0.1826806 0.006415705
000290 91 5b be bc ef d6 2a bd 59 34 c1 bb 2d 2c be bd
       -0.023237022 -0.041708883 -0.005896133 -0.092857696
0002a0 b0 f2 99 3c ac e7 52 bd 1e c2 0f be 84 1f 8f 3d
       0.01879248 -0.05149047 -0.14038894 0.06988433
0002b0 57 16 57 b9 59 35 c2 3c d0 5b 75 bb 91 ef da 3c
       -0.0002051232 0.023707079 -0.0037438758 0.026725562
0002c0 36 12 40 bc fb 03 e3 bb 60 3b ad 3c 3d 5a ef bc
       -0.011723092 -0.0069279647 0.021146476 -0.029217834
0002d0 a4 e5 31 3d 8a 90 53 3d c9 0c 9c 3c a8 f6 9d 3d
       0.043431893 0.051651515 0.019049065 0.077130616
0002e0 9a cf b0 3b e0 74 24 3c 29 b1 a7 3c 39 b9 a1 bc
       0.005395842 0.010037631 0.020470219 -0.019741641
0002f0 f1 6e 9f 3c 35 9a de 3d 98 96 ef 3c 50 8f f4 bc
       0.01946208 0.108692564 0.029246613 -0.029853493
000300 5e 00 04 3c 84 00 17 3d 72 27 59 3c e9 4b bf 3c
       0.008056728 0.036865726 0.013254033 0.023351626
000310 6d c8 d4 bb 85 a5 69 3b 5f 1d ad bb 58 d5 aa 3b
       -0.006493619 0.0035651636 -0.0052830423 0.005213421
000320 5a 25 a6 3c 04 4a 43 bc 60 98 88 3d ed 31 29 ba
       0.020281482 -0.011919502 0.06669688 -0.0006454278
000330 ba 6e 56 3c 5a 55 91 3c a6 43 c4 bc 8f 0d 67 be
       0.013087923 0.017740894 -0.023958039 -0.22563766
000340 1e 93 a8 3d f2 d2 24 3c 5a 68 68 bc d0 f7 04 3d
       0.082311854 0.010060059 -0.014185036 0.032462895
000350 8b 7f bd 3d 8d 15 bb bc 54 54 f8 3c ef e9 9d bb
       0.092528425 -0.022837425 0.030313648 -0.004819147
000360 bf 1b b2 3d a6 2b 15 3d c3 25 87 bd bf e1 7d bd
       0.086966984 0.03641858 -0.06598999 -0.061982866
000370 01 f6 20 b9 28 dd 56 3c bd c1 e3 3b e1 e3 80 bd
       -0.00015350433 0.013114251 0.0069505856 -0.062934645
000380 4b 64 d7 3b f4 ce 89 bc c7 48 ee 3c 9c 3e d7 bc
       0.006573235 -0.016822316 0.029087437 -0.026274972
000390 e1 c0 ab 3a fd 01 73 bd b0 50 d4 3b aa 44 47 3c
       0.0013103747 -0.059328068 0.0064793453 0.012162367
0003a0 6a 2d a1 3c e4 19 d5 3c db e0 b7 3c b7 35 17 bc
       0.019674975 0.026013322 0.022446087 -0.009229115
0003b0 ce 87 5b bc f1 a7 22 3d 69 b8 f5 3b 79 2d 7f 3c
       -0.013399078 0.039710943 0.00749879 0.015574806
0003c0 d8 62 a1 3c 1a 77 0f 3b 9d 3b 92 3c 70 e8 ad 3d
       0.019700453 0.0021891058 0.017850691 0.084915996
0003d0 10 72 70 bc ea b2 a1 3c 17 32 6a bb ca 45 60 bc
       -0.014675632 0.019738633 -0.0035735422 -0.013688514
0003e0 52 45 24 39 df 7e 54 3c be d5 52 3d d4 98 7f 3c
       0.00015666083 0.012969702 0.05147337 0.015600402
0003f0 db c7 2a 3d 8e 6e f1 3b cd 99 b5 3c ee bc c9 3d
       0.041694503 0.0073679155 0.022168064 0.098504886

action_model._discrete_distribution.branches.0.bias f4 [3]
000000 85 8a 02 bd c4 6d 4f bc 44 15 77 3d
       -0.031870384 -0.0126604475 0.060323015

action_model._discrete_distribution.branches.1.weight f4 [2, 128]
000000 9d 57 c8 3d 85 bb ee bc db a5 76 bb 2b a0 b7 3d
       0.09782336 -0.02914215 -0.0037635479 0.089660965
000010 ed b4 83 bb 86 be d4 3e db 6c 58 3d c3 03 88 3c
       -0.004019371 0.41551608 0.052838188 0.016603356
000020 4b 3a cd bb 59 fd e6 3b 48 f4 90 3b 77 91 9b bc
       -0.0062630526 0.0070492444 0.004423652 -0.018990261
000030 4c 12 c1 3c 4a 6e a3 3b 0f b9 78 3c 9d 83 1c 3d
       0.023568295 0.0049875127 0.01518084 0.038211454
000040 17 82 14 3d 06 80 92 bc 66 9b ae 3b f2 36 4e bc
       0.036256876 -0.017883312 0.0053285835 -0.012586342
000050 61 e1 02 bd 43 2f 8d 3b 8c 74 34 3b 69 ee 13 3d
       -0.03195322 0.0043086126 0.0027535288 0.036116038
000060 16 68 82 bb c8 39 b7 bb d9 6c 9e 3b 08 a2 9c bb
       -0.003979693 -0.005591605 0.004834753 -0.004780058
000070 1b bb 70 3d ae 50 8a 3d 0d 79 1b 3c 30 e7 bc 3c
       0.058772188 0.0675367 0.00948931 0.023059458
000080 b1 33 80 3c 88 75 d8 3c 1d bc 09 bd 85 22 ae 3b
       0.015649648 0.02642323 -0.033626664 0.0053141736
000090 f6 f5 2f 3a e4 f0 3b bd 1a 1a 52 3c 56 19 68 bd
       0.0006712371 -0.045884028 0.012823606 -0.056664787
0000a0 d8 bb 96 3b c6 ad 8c 3b f9 ec 40 bd bc 0a 9d bb
       0.0046000294 0.0042931763 -0.047100995 -0.0047925394
0000b0 a3 4b f2 3b 2b 38 8b 3d 25 c5 40 bb 4b 64 3b bc
       0.0073942705 0.067978226 -0.0029414382 -0.011437486
0000c0 43 d8 62 bc db 88 c8 3c dd 66 ed 3b 84 12 a7 bd
       -0.013845506 0.02447932 0.0072449283 -0.081578285
0000d0 20 9a a2 3a c3 12 fc 3b 41 b7 63 3d 28 84 7b 3c
       0.0012405552 0.0076926663 0.055594686 0.015351333
0000e0 b6 ab 76 bb 62 10 b0 3c cf c9 5d bb 8f 20 71 bd
       -0.0037638969 0.021492187 -0.003384221 -0.05886894
0000f0 7b 29 52 bb 5c a4 e9 3c 3f 19 4c 3c ca 25 90 3b
       -0.0032068181 0.028520755 0.012457191 0.004399036
000100 83 d1 8d bc 7b 17 e6 bb b2 40 51 bb 41 ff de bb
       -0.017311817 -0.007021842 -0.003192943 -0.006805331
000110 19 73 2c 3b 5b 91 41 bb db 35 9b ba d8 f3 bf 3b
       0.002631372 -0.0029536102 -0.0011841612 0.005857926
000120 99 f0 ed 3d d8 e0 56 3c 04 1b c3 3c 8e 6b 25 bc
       0.11618156 0.01311513 0.023816593 -0.010096444
000130 bd 02 12 bc 84 9b 10 bc 74 80 7b 3c f9 12 d3 bd
       -0.008911786 -0.00882614 0.01535045 -0.10306353
000140 b3 2d 31 3e fe 65 b3 3b fd 3a ff bb 8b 01 d5 3d
       0.17302589 0.005474805 -0.0077890144 0.10400685
000150 1f b1 38 3e dc d0 42 bc 85 26 6b 3d be c2 e2 ba
       0.18036316 -0.011890616 0.057409782 -0.0017300469
000160 a0 30 81 3c 8e 07 dd 3b 07 db 04 3d 49 6f 18 3d
       0.015770257 0.0067452854 0.032435443 0.037215505
000170 70 59 22 3d f7 aa aa 3d e8 27 b2 3b aa d2 34 3b
       0.039636075 0.0833339 0.005436886 0.0027591386
000180 59 66 be ba 77 b4 32 3c f9 9e af 3a c6 24 56 bd
       -0.0014526352 0.010907284 0.0013398818 -0.052281164
000190 0f 73 58 bc 1c 24 ce 3d d8 25 03 3d 86 1f 2a 3b
       -0.013211026 0.10065481 0.032018512 0.002595873
0001a0 4c b3 8f ba 21 1e 07 bd 49 6e 36 3c 41 9f 9c bb
       -0.0010963469 -0.032987718 0.0111346925 -0.0047797267
0001b0 1a d0 ac b8 9c c4 2a bb b2 21 97 3a 03 74 fc 38
       -8.240361e-05 -0.002605713 0.0011530428 0.00012037905
0001c0 db 9b 68 3b 13 3c 0d 3c 22 c8 1b bc 9b a0 38 3e
       0.0035493288 0.00862028 -0.009508165 0.18030016
0001d0 97 d9 c3 bc 16 95 fb 3d 36 f1 dd bb 48 e6 3a bb
       -0.023907466 0.12284295 -0.0067731394 -0.0028518606
0001e0 aa 8e 1e 3c 52 f5 a6 bc d9 b8 53 3c 4f e1 be bc
       0.009677568 -0.02038065 0.012922489 -0.023300795
0001f0 52 02 fc 3b 4b bb 3e ba 33 14 27 b9 05 a0 e4 ba
       0.0076907063 -0.00072758336 -0.00015933886 -0.0017442709
000200 01 1c cf bd 11 26 f2 3c fe f2 4d bc b2 dd 97 bd
       -0.10112763 0.029559167 -0.012570141 -0.07415332
000210 63 b1 98 bc 0f e3 d0 be 8f a2 35 bd 5f 37 77 bc
       -0.018639272 -0.40798232 -0.04434448 -0.015088885
000220 99 b9 f6 bb 53 04 da 3c 8d b9 20 bc a8 36 57 3c
       -0.007529449 0.02661339 -0.009809864 0.01313559
000230 28 5a 7a bc 0c ae b5 bb 58 03 ce 3b 5b 07 e2 bc
       -0.015280284 -0.0055444296 0.0062870197 -0.027591398
000240 5c 47 1d bd 81 84 ab bc 4f 11 87 bb f6 6d 8d 3b
       -0.03839813 -0.020937206 -0.0041219364 0.004316087
000250 0e 92 33 3d 57 22 81 3a fd 4d 36 bc 93 ec 24 bd
       0.04384046 0.0009852153 -0.011126992 -0.040264677
000260 e3 d4 9b 3c b0 75 e8 bb b6 4a 46 3b 4a 1a 70 bb
       0.01902241 -0.0070941076 0.0030256934 -0.0036636763
000270 7b d0 7b bd b1 62 4f bd 0f 9e c8 3b 7c 5d 9e bc
       -0.06147812 -0.05063123 0.0061223577 -0.019331686
000280 d9 b1 08 bd a8 12 e9 bc 95 05 34 3d 3f 8d 80 bc
       -0.033372734 -0.028451279 0.043950636 -0.015692351
000290 9c 7a 0f 3c 2b c0 80 3d 14 47 42 bc 13 72 af 3d
       0.00875726 0.06286653 -0.011857767 0.0856668
0002a0 87 46 7f bb f2 1a 1f 3b c0 a4 53 3d 56 cc 07 3c
       -0.003895195 0.0024277535 0.05167079 0.008288464
0002b0 b3 5b 40 bc d8 e3 f1 bc f5 7e 14 bc 80 11 bf bb
       -0.011740613 -0.02952759 -0.009063472 -0.0058309436
0002c0 a7 b1 68 3c 02 de 0f bd 07 27 15 bc 94 a6 9a 3d
       0.014202512 -0.035123833 -0.009103543 0.075513035
0002d0 4e 0a 86 b9 e0 f3 ce b5 9c 99 31 bd 16 bb b8 bc
       -0.0002556615 -1.5419173e-06 -0.043359384 -0.022550147
0002e0 54 e0 49 bb cc 46 cb bc b1 ff 53 bc c6 64 fa 3c
       -0.0030803876 -0.024814032 -0.01293938 0.03056563
0002f0 f4 dc 08 bc b0 a6 22 bc 44 94 49 3c bd d5 c1 3b
       -0.008353461 -0.009927437 0.012303416 0.005915372
000300 d2 8a 9b 3c 54 07 05 ba 33 f0 5f bb 47 7c 43 3c
       0.018987093 -0.00050746393 -0.003417027 0.0119314855
000310 cf 47 09 bc d5 f0 9d 3b 1f 01 63 3c 72 7a 09 bc
       -0.008378937 0.004819969 0.013855248 -0.00839101
000320 76 36 e1 bd 2b 83 ec bb 5d ea 59 bc d8 ae 40 bc
       -0.10996716 -0.007217785 -0.0133005055 -0.011760436
000330 c1 95 9f bb ed 63 6f 3a d5 12 38 3c 12 2e ea 3d
       -0.004870147 0.00091320166 0.011234959 0.114345685
000340 38 89 49 be 55 2d b0 3b 0d 93 0c 3c ae 63 bd bd
       -0.19681251 0.0053764977 0.0085799815 -0.09247528
000350 1d fe 2c be ba e1 48 3c 6c 28 4f bd 46 d9 e9 bb
       -0.16893812 0.012260849 -0.05057566 -0.0071364967
000360 57 49 2d bc fd 16 9d bb 25 c9 13 bd bc 6c b9 bc
       -0.010576568 -0.004794 -0.0360805 -0.022634856
000370 ca cc 41 bd 3d f8 75 bd 74 17 dd 3a 8d cf 05 3c
       -0.047314443 -0.06005119 0.0016867951 0.00816716
000380 01 6b 56 39 ba 18 3a bb 4e 5b 3e 3b 9d 78 08 3d
       0.00020448492 -0.0028396086 0.002904612 0.03331815
000390 32 17 33 bc b0 ab ce bd 59 31 f1 bc 93 b2 b3 3a
       -0.010930823 -0.100913405 -0.029442476 0.0013709835
0003a0 72 76 a2 ba e9 84 e6 3c 5a 71 24 ba d2 06 5a 3c
       -0.0012394919 0.028139548 -0.0006272994 0.01330729
0003b0 13 5a d8 bb 74 1f 28 3c c6 22 4a bb 62 f1 af bb
       -0.0066025346 0.010261405 -0.003084348 -0.0053693512
0003c0 53 2a e6 bb 12 b5 ec bb f2 ac 50 bc 30 08 49 be
       -0.0070240884 -0.0072237337 -0.012736546 -0.1963203
0003d0 f8 b7 43 3c 62 19 0e be 33 41 51 3c 0f 61 5e bc
       0.011945717 -0.1387687 0.012771892 -0.013572945
0003e0 50 ee 81 bb 22 c3 c2 3c e5 d0 46 bd ae 27 34 3c
       -0.0039651766 0.023774687 -0.04853906 0.0109957885
0003f0 06 f6 fd ba 36 4a b8 bb f3 5e 1d bc 8b 7b e6 bb
       -0.0019375689 -0.005624081 -0.009605157 -0.0070337704

action_model._discrete_distribution.branches.1.bias f4 [2]
000000 98 f3 95 bc dc f3 95 3c
       -0.018304631 0.018304758

q1_network.network_body._body_endoder.seq_layers.0.weight f4 [128, 4]
000000 c0 f2 8b 3e 9c 97 c0 bb e8 ca a2 3e 26 35 1e 3e
       0.2733364 -0.0058774482 0.3179543 0.15449962
000010 7c a7 a9 3e 2f ef 91 3f 33 80 09 bf f9 95 98 bf
       0.33135593 1.1401118 -0.5371124 -1.1920768
000020 78 24 ed 3e 4f 14 db 3e 7a 6e e4 3e f9 ce a5 be
       0.46316886 0.42788932 0.44615537 -0.3238447
000030 ae c1 17 3d 56 45 3c be c1 73 81 bf 77 06 c7 3e
       0.03704994 -0.18385825 -1.011345 0.3887212
000040 e1 67 88 3e fd ef 69 be aa 48 56 3d f5 c4 65 3e
       0.26641753 -0.22845455 0.05231539 0.22438414
000050 f0 3d 82 3e 07 ca 94 3f e3 58 8e 3f 3c 7b 80 bd
       0.2543788 1.1624154 1.1120876 -0.06273505
000060 9e 48 57 bf 93 fa e6 be a8 76 3c bf 4b 0a ef be
       -0.8409518 -0.45113048 -0.73618555 -0.4668754
000070 f4 70 47 3f 4a 87 6b 3e 5d 10 00 bf 70 56 9e 3e
       0.7790673 0.23000827 -0.5002497 0.30925322
000080 e7 77 5d 3e 5a c6 dd be df a2 c8 3d 31 22 fe 3e
       0.2162777 -0.43315393 0.0979669 0.4963546
000090 6b ad 4b be 2b f8 08 be 3d db d4 3c 19 95 46 3f
       -0.19890372 -0.13375919 0.025983447 0.77571255
0000a0 e6 34 4e bd 8d 59 70 be 75 66 d6 3e a7 37 7e 3e
       -0.050343417 -0.23471661 0.41875044 0.24825917
0000b0 d9 51 7d 3f 53 a1 28 3f 19 63 d3 3e f4 a9 f0 bd
       0.98953015 0.6587116 0.41286543 -0.11751166
0000c0 8b c8 1f 3e 24 1a b1 bd 64 74 84 bf 12 3d 50 3e
       0.15603845 -0.08647564 -1.034802 0.20335796
0000d0 e1 62 e6 bd 6c b3 2f 3e d1 0d c7 3d c6 11 30 bf
       -0.112493284 0.17158288 0.09719432 -0.6877712
0000e0 30 79 41 3e a3 21 d1 bc d7 cc eb 3e 17 c0 40 3f
       0.18893886 -0.025528735 0.46054718 0.75293106
0000f0 ff 08 a5 3d 78 07 38 3d 7e b3 f7 bd 72 5c 92 3d
       0.080583565 0.044928998 -0.12094782 0.07146539
000100 24 49 9a 3e e4 75 82 bf f0 d9 ea be 77 31 56 bf
       0.30133927 -1.0192227 -0.45869398 -0.8366923
000110 ab 66 34 bf e6 d7 c9 3e 25 7f 58 bf ab 52 99 be
       -0.7046916 0.3942253 -0.8456901 -0.29945883
000120 ee 54 cd 3e 3a 66 da 3e 7d 82 00 be a6 fb 56 3e
       0.4010386 0.42656118 -0.12549777 0.20994434
000130 23 4d 36 3e 31 82 4f be 9c 57 67 3e 0d c2 44 3f
       0.17802863 -0.20264508 0.22592014 0.768586
000140 22 88 65 3e 32 7c 84 bc b5 27 d0 3e 57 8c fd 3e
       0.22415212 -0.016172502 0.40655294 0.49521133
000150 3b 10 d8 be 10 9d e5 3d d6 9a d2 be ae 86 86 be
       -0.42199883 0.11211598 -0.41133755 -0.26274627
000160 6b 6d c4 3e f6 72 a6 3f 2b 31 7b 3e c3 9f 60 3e
       0.3836473 1.3003833 0.24530475 0.21935944
000170 d3 48 30 3e 9d dd 45 be 1a f5 b4 3e 13 ca d8 be
       0.1721528 -0.1932282 0.35343248 -0.4234167
000180 d8 26 df 3e f8 f2 a1 3f 98 a1 3a bf 4a 0f e6 3d
       0.43584323 1.2652273 -0.7290282 0.11233385
000190 85 65 4c 3e 97 fc 80 3f 6e c3 95 3e 67 b6 0c bd
       0.19960602 1.0077084 0.29250664 -0.03435364
0001a0 f5 1a 03 be 22 46 ee be 88 25 91 3e 5a 85 4b bf
       -0.12803252 -0.46537882 0.28348947 -0.79500353
0001b0 4f 0f 62 3c 00 61 11 be 7f ce 3f 3e 83 7f 2d 3d
       0.013797595 -0.14197159 0.18731116 0.042357933
0001c0 0c de a2 be 8c ca 55 be 8e 31 f8 be 64 da 05 3f
       -0.31810033 -0.20878047 -0.48475307 0.5228636
0001d0 9b f9 17 bf bf 21 8f bc 18 f1 57 be 76 6e cb be
       -0.5936524 -0.017472146 -0.21088064 -0.39732713
0001e0 3f 59 af 3e 19 73 24 3f 98 b6 d1 be c5 ec 45 bf
       0.34247777 0.64238125 -0.4095962 -0.77314407
0001f0 9b 1f 00 be ec fd 1b 3f 48 3b 40 bf 7e 66 63 3d
       -0.12512057 0.6093433 -0.75090456 0.055517666
000200 6b 14 32 be e7 e3 8c be eb 66 1d 3e 3e b2 95 3e
       -0.17390601 -0.27517626 0.15371291 0.2923755
000210 74 e8 4b 3d 2c 7b 36 3f ad 03 a8 be 07 09 4a 3f
       0.04978223 0.71281695 -0.32815304 0.78920025
000220 4e 57 26 bf 4f c6 c8 bd ab 24 c5 3d 1d 9b 65 bf
       -0.64976966 -0.09803449 0.096261345 -0.8968981
000230 72 01 71 bb 42 e5 d7 3e f3 94 b1 be 96 a6 bc be
       -0.0036774543 0.42167097 -0.34683952 -0.36845845
000240 a5 d9 07 bf 2d 82 16 bf 78 d9 6d be 83 1f 21 3f
       -0.53066474 -0.5879238 -0.23227489 0.6293871
000250 87 cc 0c bf e4 16 4d be d0 b8 5b be 6f 93 02 3e
       -0.54999584 -0.20028263 -0.21457219 0.12751554
000260 cb 89 51 bf 7d ec f3 be 84 8f 0a bf 45 50 9b 3e
       -0.8185088 -0.47641364 -0.5412524 0.30334678
000270 e0 8d 18 be 21 b4 73 be 5b b1 99 be 4e 07 28 be
       -0.14897871 -0.23799182 -0.30018124 -0.16409037
000280 41 77 57 be a9 11 ed 3e c6 fb 69 be 7f bf 20 bf
       -0.21041586 0.46302536 -0.2284995 -0.627922
000290 18 ea 82 3e 94 ec 48 3f b9 3c ae be 72 97 91 3e
       0.25569224 0.7848599 -0.34030703 0.28435856
0002a0 2e 41 88 be c5 bf 02 3f 43 b5 0b bf 45 dd 6a 3c
       -0.26612228 0.5107387 -0.5457346 0.014334981
0002b0 e4 b7 aa 3e 10 96 52 3f b6 1c e8 be f1 78 f1 3e
       0.33343422 0.8226023 -0.45334405 0.47162583
0002c0 47 98 61 3e e7 e8 88 bd 17 ea e8 3d 08 7d dd be
       0.22030745 -0.066850476 0.11372774 -0.43259454
0002d0 c9 e9 2d 3f bd 1b ff 3d 15 17 90 bf 99 e4 cb 3e
       0.6793485 0.124564625 -1.1257044 0.39822844
0002e0 ac be 36 be 58 30 88 be 4c 10 5b bf 12 d8 d9 be
       -0.17846173 -0.26599383 -0.8557174 -0.4254766
0002f0 5f 3d b8 be 69 a1 12 3e 36 2a 3a 3b b3 52 49 3f
       -0.35984322 0.14319386 0.0028406507 0.78641814
000300 15 aa 12 3e ff 38 24 3f e1 fb 49 bf 94 e7 8f 3d
       0.14322694 0.6414947 -0.7889996 0.07026592
000310 7e d9 d2 3e e4 a1 d3 be c9 a6 29 3f 6d e6 d5 bd
       0.41181558 -0.4133445 0.6627012 -0.10444341
000320 9f 9d f0 3d 4b 38 05 3f 68 63 13 bf da ac 19 be
       0.11748814 0.5203902 -0.57573557 -0.15007344
000330 10 6c b2 3e 4a 50 94 be fa 73 02 bf 6b 03 64 3e
       0.3484807 -0.28967506 -0.50958216 0.22266929
000340 e7 11 22 bf 54 71 2a 3f 6f ee 05 bf 6d f9 32 3e
       -0.63308567 0.66579175 -0.52316946 0.17477961
000350 ab 6d 25 bd b0 73 c6 be 64 18 db 3e bb 61 5d be
       -0.04038779 -0.38760138 0.42792046 -0.21619312
000360 62 c2 3a 3e 2a 5a 65 3e 39 a9 08 3f c6 c3 e2 3e
       0.18238214 0.22397676 0.53383213 0.44289988
000370 b0 94 52 bd b7 38 1f bf ab 95 fc 3e 52 fc fd 3e
       -0.05141133 -0.62195915 0.49332938 0.49606568
000380 2f 90 58 be 9a 15 8e be f1 54 5e bf 74 5b 7e 3e
       -0.21148752 -0.27750856 -0.8684836 0.24839574
000390 bc 14 d8 3e 58 e4 39 3e b6 30 df be 3d a1 28 3f
       0.4220332 0.18153512 -0.4359185 0.6587103
0003a0 5e c9 39 be 47 22 80 bd 71 6a 38 3f 07 f5 fa be
       -0.18143222 -0.06256538 0.72037417 -0.49015066
0003b0 ca e1 8b be a5 b3 0e bf 2c 84 8f 3e 2e ba d3 3e
       -0.273207 -0.55742866 0.28030527 0.4135298
0003c0 c3 3b 7b 3f 57 ee b7 3e 66 fb 88 bf 77 06 9d be
       0.98138064 0.35924026 -1.0701721 -0.30668995
0003d0 af 35 68 bf 08 73 8a bd dd ed dc be c2 1d 12 bf
       -0.90706915 -0.06760222 -0.43150225 -0.57076657
0003e0 97 a9 28 3f 4f 4a bb be 9f e6 95 bd 34 05 16 3e
       0.65883774 -0.3658013 -0.07319378 0.14650422
0003f0 b2 e0 e8 be fa 9d b6 3e 5b bc 55 bf cc 0f 2e 3f
       -0.4548393 0.35667402 -0.8349053 0.67992854

q1_network.network_body._body_endoder.seq_layers.0.bias f4 [128]
000000 3b 98 7e bc a9 e1 7a bd af c5 d5 bc da 09 ac 3e
       -0.015539224 -0.061250363 -0.02609524 0.33601266
000010 c2 91 60 bc 87 14 cf bc fe d8 3b bd bd 03 16 3c
       -0.013706626 -0.025278343 -0.045861237 0.009156165
000020 a4 b1 45 bc ff 75 d8 3a 4c ab 37 3d 69 98 2b 3c
       -0.012066279 0.0016514658 0.044841096 0.010473349
000030 fc 80 ff 3d e5 16 a0 bc f9 51 1a bd ad 77 91 3d
       0.12475774 -0.019542167 -0.03767583 0.071029045
000040 af 80 69 b9 12 e4 d6 3a 5e b1 07 bd d4 df 28 3b
       -0.0002226855 0.0016394875 -0.033128135 0.0025768178
000050 25 c9 68 3c 99 6f 65 bb 2b 57 8d 3c 04 dd 37 3b
       0.014208113 -0.0035009144 0.017253479 0.002805532
000060 bc 93 8a 3c 7c 0a b2 bc 81 ba a5 3e 59 36 66 bd
       0.016916148 -0.021733515 0.32368854 -0.056204174
000070 7a fd 2b bc 9e 66 d7 bd 95 d7 8c 3c ba 56 48 bd
       -0.010497445 -0.105176196 0.017192641 -0.048910834
000080 b5 8e 20 3b 45 02 2b bd 8d 10 64 bd 5d 48 48 3b
       0.0024499123 -0.04175021 -0.055679847 0.003056071
000090 8c 84 6b 3d 14 50 7b 3d f8 8c 36 3c 1f c3 52 3e
       0.057499453 0.061355665 0.011142008 0.20582245
0000a0 2c 87 2b 3d f2 89 de bc 25 fd af bc 68 68 c4 3b
       0.041876957 -0.027165387 -0.021483013 0.0059938915
0000b0 83 4f b6 3d d5 9e 0c 3c 73 01 90 3e 7d f5 9f 3c
       0.089018844 0.00858279 0.28126106 0.019526238
0000c0 87 e8 9b b8 64 51 78 bd bd 1b 4f bd d8 5f f8 3d
       -7.4342875e-05 -0.060624495 -0.050563563 0.12127656
0000d0 4c b2 42 ba 5b 3e e3 bd ea 95 9b 3c 02 55 13 bc
       -0.0007427081 -0.11095878 0.018992383 -0.008992435
0000e0 ea ad fe 3d 03 a3 b8 bb 03 1b 07 bd 41 3a 32 bc
       0.12435515 -0.005634667 -0.032984745 -0.010878147
0000f0 ee 38 3c bb 48 f2 3e bd ac cb 5e bd c3 10 71 bc
       -0.0028720456 -0.046617776 -0.054393455 -0.014713469
000100 8c bb 80 bb 75 a4 dc 3d 30 32 c6 3c 6d ce 0c 3b
       -0.0039286073 0.10773555 0.024193853 0.0021485344
000110 c5 b8 0b bd 6f 83 22 3d 2e 22 20 bc 52 52 6c bc
       -0.034111757 0.039676126 -0.009773774 -0.014423924
000120 4d e4 2b 3b 2e 97 95 b8 de c7 a8 3d 3a 61 6b bd
       0.0026228607 -7.133033e-05 0.08241247 -0.05746577
000130 e9 d2 d5 3c 8c e8 24 3e 51 dd af 3d 11 19 15 3e
       0.026101546 0.16104335 0.08587135 0.14560343
000140 70 40 ad bc 17 1c 2b bd b0 6b 56 bb 7e 9b 05 bc
       -0.02114889 -0.041774835 -0.0032717995 -0.008154748
000150 59 cf 27 3c ab 83 b5 3c c6 d8 5b 3b 23 6e 80 3d
       0.010242307 0.02215751 0.0033545955 0.06271007
000160 c8 fa f1 bc cb 61 43 ba b3 ae b0 bc 79 f1 41 3d
       -0.029538527 -0.0007453232 -0.021567678 0.047349427
000170 4c a2 8f bc 83 fa 48 3c 90 2f b9 bc 25 63 5d 3c
       -0.017533444 0.012266758 -0.022605687 0.013512407
000180 27 e7 3a 3d 46 d9 9a bc db cd 68 3d 27 13 9e bc
       0.0456306 -0.018902432 0.056836944 -0.019296242
000190 3a 1f 51 bd 55 25 c8 3c ad 47 06 3d ff cf ea 3c
       -0.05105517 0.024431864 0.0327832 0.028663633
0001a0 44 79 16 3e ac d4 02 bc 3c e0 55 3c 69 4a df bc
       0.14694697 -0.007985275 0.01305395 -0.027257161
0001b0 89 72 81 3d b0 37 5b 3c b0 d2 5c bd 44 92 d6 bd
       0.06320674 0.013379976 -0.053911865 -0.10477117
0001c0 73 ad d5 bc 5e 51 ca bb b8 07 36 3d 3b a6 f9 3c
       -0.026083684 -0.0061742505 0.044440955 0.030474773
0001d0 cf fa 89 bc 0a ac d7 bb 29 4a d3 bc 95 e4 12 bc
       -0.016843228 -0.006581788 -0.025792198 -0.008965631
0001e0 cb a6 ec 3c 76 6b 24 bd e7 0b 0a bd 2e 21 dd bc
       0.028888127 -0.040141545 -0.033702757 -0.02699336
0001f0 2e 15 84 bd 55 b4 ce ba 16 db 79 35 be ae 1b bd
       -0.06449352 -0.0015770296 9.307854e-07 -0.038008444
