results/first/SpaceInvaders/SpaceInvaders-16991.pt (torch, 985271 bytes, 83 tensors)

discrete_act_size_vector f4 [1, 2]
000000 00 00 40 40 00 00 00 40
       3.0 2.0

network_body._body_endoder.seq_layers.0.weight f4 [128, 8]
000000 32 48 45 be 9c 89 e3 be d9 91 40 3e df 0a dd 3d
       -0.19265822 -0.44440925 0.18805636 0.10793089
000010 a4 ee 7a 3d 97 cd 40 3e 31 d4 e0 3e 7d 37 fc 3d
       0.06126274 0.18828426 0.4391189 0.12315271
000020 49 1f dc be e3 03 17 be fa 66 db 3d 9f b3 ed 3d
       -0.4299262 -0.14747576 0.107130006 0.11606526
000030 24 04 3a 3f 74 36 c1 bd 80 3e d5 bd 75 c0 9b be
       0.7266257 -0.09434214 -0.104123116 -0.3042027
000040 3b 8a c7 be 80 e6 6f 3e bc 2f 82 be 5d 0d d6 3d
       -0.3897265 0.23427773 -0.25427043 0.104517676
000050 be 43 76 be 55 fa 74 3e db c3 a3 3e a8 fa e8 be
       -0.24049279 0.23923619 0.31985363 -0.45503736
000060 c3 e5 fa 3d b6 12 20 3d f4 2d 16 bf 5e 3d 68 bd
       0.12250855 0.039080344 -0.5866387 -0.05669915
000070 8e 4a 6c 3e 83 a7 d0 3e ff dd 01 be 80 eb ba 3e
       0.23075315 0.407528 -0.12682341 0.36507797
000080 0a f0 5b be 20 45 8a bd e9 73 af bd 8d 47 c4 be
       -0.21478286 -0.06751466 -0.0856703 -0.3833584
000090 94 51 e9 3e 4b df 50 3e 93 5c 24 3e 07 16 d0 be
       0.45570052 0.2039768 0.1605094 -0.40641806
0000a0 ad 29 8a 3c 91 ab 55 be d2 65 89 3e 2a e0 de bd
       0.016865576 -0.20866229 0.26835495 -0.108826
0000b0 5f 66 1b bd cf 95 c5 3a af 24 9f be c2 24 86 3e
       -0.037939426 0.0015074554 -0.31082675 0.2619992
0000c0 89 38 aa 3e 71 90 9d 3d 00 b6 08 3f e3 06 ea be
       0.33246258 0.07693566 0.5340271 -0.4570838
0000d0 7a 99 cc 3d e0 e6 49 bf 06 a5 3d be 18 97 73 be
       0.09990211 -0.7886791 -0.18519983 -0.23788106
0000e0 d5 c5 7e 3d 25 95 bc bd e6 7b 02 bf a8 a1 2c 3e
       0.062200386 -0.092081346 -0.50970304 0.16858542
0000f0 17 13 76 3c 3a 95 30 3e 5b ae 5e 3e fd fc 07 bf
       0.0150192 0.17244425 0.21746199 -0.53120404
000100 e5 35 74 3f fb 3a e1 3e 40 d3 b3 be db 51 07 bf
       0.95394737 0.4399031 -0.35122108 -0.52859277
000110 bf 12 9e 3e c6 ff 58 be 55 a4 3d be 62 ec ef be
       0.30873677 -0.2119132 -0.18519719 -0.46860033
000120 15 50 4e 3e 6e 6d f0 3e 4d 23 09 3f 56 cb 66 3e
       0.20147736 0.46958488 0.5356949 0.22538504
000130 7a 36 c8 3e 8f 85 ef bc ba b8 be 3e dc ff 00 bf
       0.39104062 -0.02923849 0.3725031 -0.5039041
000140 d5 a1 15 bf 75 8b 99 be 9d 02 ad be 1a fe 49 be
       -0.5845006 -0.2998921 -0.33791056 -0.19725838
000150 e3 5a 09 bf dd 77 8a 3d 13 a1 51 3e 32 e1 5d 3e
       -0.5365431 0.06761143 0.20471601 0.21667936
000160 be ab 4b 3e 00 b0 c7 bc 45 f7 a2 be 7d 13 7b be
       0.19889733 -0.024375916 -0.31829277 -0.24519153
000170 9c e8 9f 3d 7d 15 c3 3e 2a a9 25 bf 85 2f 47 bd
       0.078080386 0.38102332 -0.6471125 -0.048629303
000180 76 e6 cd 3e 63 50 16 3e d8 f4 a0 3e 5c 87 11 3f
       0.4021489 0.14679103 0.314368 0.56847167
000190 b9 fe 4a 3e ac b1 42 3d e9 31 e7 be 51 d3 d2 be
       0.19823731 0.047532722 -0.45155266 -0.41176847
0001a0 c4 33 14 bf 0f a6 9b be 05 87 08 3f 21 9c 4f be
       -0.5789149 -0.3040013 0.53331023 -0.20274402
0001b0 a3 52 52 be 39 21 cb 3e dc c2 ae 3e dc 33 81 bd
       -0.20539336 0.39673784 0.3413304 -0.063087195
0001c0 e3 be c4 3e 5c a5 e8 be f6 99 0d bf e5 92 ac 3e
       0.38426885 -0.4543866 -0.5531305 0.33705822
0001d0 c2 76 03 bc cc 19 84 3f 4b 38 3b bf 02 33 5a 3f
       -0.00802392 1.0320373 -0.7313277 0.8523408
0001e0 88 02 89 bd 79 14 1d 3e 11 7f 1b 3f e0 6e 1b 3f
       -0.06689936 0.15339841 0.6074076 0.60716057
0001f0 bd 3c e7 bd a9 9a 20 be d0 e0 9d be aa 7b 15 3e
       -0.11290882 -0.15683998 -0.3083558 0.14597955
000200 c3 5c 7e be 78 1a 8d be 43 47 13 be d1 91 f4 3c
       -0.24840073 -0.27559257 -0.14382653 0.029854687
000210 1d d7 30 bf c0 20 4c 3d ff 90 b7 be c0 f2 91 be
       -0.69078237 0.04983592 -0.3585281 -0.28505516
000220 36 2a b0 3e 74 c8 b7 ba 0c 15 c2 3e 19 67 3a bf
       0.34407204 -0.0014021532 0.37906682 -0.72813565
000230 a0 f6 af 3e 7c 43 cf 3e 29 28 c4 3c 8c dc b9 be
       0.34367847 0.40481174 0.023944931 -0.36301076
000240 3f be 3f be 33 4f 90 3e 2d 25 80 be 91 f6 bb bc
       -0.18724917 0.28185424 -0.25028363 -0.02294472
000250 34 fe 07 3f e4 cf 62 3e ca a7 88 3e ea 12 ba 3d
       0.5312226 0.22149616 0.26690513 0.09085639
000260 72 3e 49 3e f0 07 45 3e 46 70 97 be 20 dd 93 3e
       0.19652727 0.19241309 -0.29577845 0.28879642
000270 3b b6 16 3e 8c b0 70 be f1 3f 94 be cc ba 4c 3e
       0.14717953 -0.23504847 -0.28955033 0.19993132
000280 4b 3a 52 be d7 e7 92 3d 1a d4 1e 3f 13 64 a2 be
       -0.2053005 0.07173126 0.6204239 -0.31716976
000290 f1 d6 05 be 25 b0 b6 be f9 0e a2 3e e6 29 bd be
       -0.13070275 -0.35681263 0.31652048 -0.36946028
0002a0 18 0b 94 3e a0 98 dc 3c a4 90 13 bf f2 cf 6d be
       0.28914714 0.026928246 -0.5764258 -0.23223856
0002b0 3e 9d 07 3f 32 a5 4b 3e 1d a6 a3 3e 7b 4b 8f bd
       0.5297431 0.19887236 0.31962672 -0.06996819
0002c0 39 cb af 3d 95 48 1c 3e 03 6e ec 3d 5f 1c 32 be
       0.085836835 0.15262063 0.115444206 -0.17393635
0002d0 ac b3 fd bd 32 46 29 3d 16 3e 1f 3f 7f d4 e0 be
       -0.12387785 0.04132671 0.6220411 -0.43912122
0002e0 e0 be 96 be 77 76 0b bf 18 b8 d2 3e 0c 6f 0c 3e
       -0.294425 -0.5447764 0.41156077 0.13714236
0002f0 0e 63 9e 3d c1 d0 d5 3b b7 ad ca 3b 52 3b fb 3e
       0.07733737 0.0065251295 0.006185259 0.49068695
000300 35 3c b1 3e ca 3f 85 be 79 e1 8f 3e 2c 80 45 3c
       0.34616247 -0.2602523 0.2810171 0.012054484
000310 ea cc fc be a6 e9 2d bf 1c f2 83 3b 5e 4c ee be
       -0.49375087 -0.67934644 0.0040266644 -0.4654264
000320 0e dd 13 3e 50 47 9f 3e be 4d f8 be 4d 8a b9 bd
       0.14439794 0.31109095 -0.48496813 -0.09059582
000330 cc d2 a9 3e 15 60 d8 be 04 69 3b be f2 36 17 bf
       0.33168638 -0.42260805 -0.18301779 -0.59068215
000340 66 f5 1b be 15 82 d8 3e d3 24 1a 3e e4 82 a1 3e
       -0.15230331 0.42286745 0.1505311 0.31545174
000350 dc 66 b5 3e 69 68 bb 3e 9e 1b 41 3e 43 c5 b6 bd
       0.35430038 0.36603096 0.18858191 -0.089243434
000360 30 43 c8 be 4f 6b ef be cd d1 e2 3c 5a 79 6c 3e
       -0.3911376 -0.46761557 0.027687931 0.23093167
000370 fb 89 02 3e 24 5f a6 3d d4 d5 29 3d 05 39 48 be
       0.12747948 0.081236154 0.041463688 -0.19553001
000380 11 5e 93 3c c2 91 ea bd 2c f9 2f bc f1 b7 63 bf
       0.01798919 -0.11453582 -0.01074056 -0.8895255
000390 5c 9c 8e 3d 27 ab 28 3f b0 b6 bb 3d 56 be d5 be
       0.06963417 0.6588616 0.09165704 -0.41746777
0003a0 32 71 2e 3f 0d da 88 3d c2 64 77 3e ba a3 fb bc
       0.6814147 0.06682215 0.2415953 -0.03071772
0003b0 14 d8 1c 3e bf df c3 3d dd 21 02 be fc 2e 9a 3e
       0.15316802 0.095641606 -0.1270823 0.3011397
0003c0 7a e9 a1 3e f9 0f 08 3f db c0 ad be 2c 88 5f be
       0.3162344 0.5314937 -0.339362 -0.21829289
0003d0 09 71 a5 3d 4c 90 c2 be 55 cd b8 3e 64 12 b4 be
       0.080782 -0.38000715 0.36094156 -0.3517028
0003e0 98 46 f6 3e 60 61 9c 3e 27 f1 68 be ea 8b 59 3d
       0.48100734 0.3054304 -0.22748242 0.053111948
0003f0 94 ea 30 3c be f0 11 be dc 01 89 be c7 8c 28 3e
       0.010798115 -0.14251992 -0.2675923 0.16459952

network_body._body_endoder.seq_layers.0.bias f4 [128]
000000 84 3a 35 3e a2 a6 a7 bd 6e 4b 0b bd d5 49 eb bc
       0.17698103 -0.081860796 -0.034007482 -0.02872173
000010 19 04 2d 3d 57 b5 2e 3d 71 24 69 3d b4 ef d2 3e
       0.042240236 0.042653408 0.05691952 0.41198504
000020 bb 4f 03 3f 89 b6 cb bc 4a dc 88 bc 77 cc e3 3e
       0.51293534 -0.024867313 -0.016706605 0.44491932
000030 d8 d1 b2 bd fc 7c 21 bd 7c 4b 81 bc df 52 23 bd
       -0.08731431 -0.039425835 -0.015783064 -0.039873954
000040 e6 37 d5 3e ba ca 98 3d 1a 6e e2 3c 7e c4 85 bd
       0.4164421 0.07460542 0.027640391 -0.065316185
000050 b2 b9 8f bd f3 63 cd 3e 3c 99 22 be 3f 4d 63 bd
       -0.070178404 0.40115318 -0.15878767 -0.05549359
000060 8e fd e6 3d 0b 7f 99 bd 12 05 eb bc dd 9d 60 bd
       0.112788305 -0.07494935 -0.028688941 -0.05483805
000070 ed 09 02 3f 6d 62 b5 bb 68 2c b7 bd 4f 76 fd bd
       0.50796396 -0.005535415 -0.08944017 -0.12376081
000080 ca e6 6f bd 83 6b b9 3e 68 52 9f bd 88 99 3c 3c
       -0.058569707 0.36214837 -0.077793896 0.011511214
000090 99 c3 b8 be 43 ce 6b bd 71 98 cd bb 67 01 4a bd
       -0.3608673 -0.057569753 -0.006274276 -0.049317744
0000a0 04 47 c8 bd fe 5c 40 bd 97 f7 d4 bd 97 69 58 3e
       -0.0977917 -0.046963684 -0.103987865 0.2113403
0000b0 3d 23 18 3f 16 42 1e 3e e0 e7 5b bd c7 bb 0b bc
       0.5942877 0.15454897 -0.05368793 -0.008528656
0000c0 07 c2 c6 3d 72 b0 01 3f 2f b1 ce 3e d4 dc bb 3b
       0.097049765 0.5065986 0.40369555 0.005733112
0000d0 37 24 28 be 76 d3 84 3c 91 35 98 3d 91 e3 0f bd
       -0.16420065 0.016214114 0.07432092 -0.035129134
0000e0 b2 2e 74 37 fb 2e b0 be a5 2e a0 3d dd a8 33 3f
       1.4554405e-05 -0.34410843 0.07821397 0.7017954
0000f0 4c 39 80 be 16 7a b9 bd b5 4c 04 bc f3 87 8c 3c
       -0.25043714 -0.09056489 -0.008074929 0.01715467
000100 d5 4a 41 3d 59 65 0b 3b 80 41 02 bc 5b 18 01 bd
       0.047190506 0.0021270125 -0.007950187 -0.031517368
000110 c9 49 7d bd 3d bc f2 bd 8c a2 2e be 42 c8 01 be
       -0.061837945 -0.1185231 -0.17054194 -0.12674049
000120 d3 9f 86 3d 24 2d 42 be 13 60 dc 3d e4 88 bb 3e
       0.06573453 -0.18962532 0.10760512 0.36627877
000130 5b 31 e5 bc 98 01 dc 3d 7f 45 20 3e db 15 f8 bd
       -0.027977636 0.107424915 0.1565151 -0.121135436
000140 40 12 8a 3b 70 43 b1 3e 71 b0 52 be a2 51 73 3e
       0.0042136014 0.34621763 -0.2057512 0.23761609
000150 e7 ec 1c bd 4f 4d f1 bc 97 e1 19 be 40 ba 36 3e
       -0.038311865 -0.029455809 -0.15027462 0.17844486
000160 1a ca 28 3d 1b 2c 8a be 91 46 e9 3c a0 9e 9a bc
       0.041208364 -0.26986775 0.028476031 -0.018874466
000170 db 1c 87 bd 97 52 74 bc 7e a7 89 be 34 eb 05 3f
       -0.065973006 -0.014912269 -0.268856 0.52312016
000180 3f e7 72 bd 53 e8 8a bd 76 ca 6a bd d0 1c 79 bd
       -0.059302565 -0.067825936 -0.057321988 -0.060818493
000190 f0 01 eb bc cd e5 d5 be a7 ce d9 3e 0b 8f b4 3e
       -0.028687447 -0.41776887 0.42540476 0.35265383
0001a0 e5 61 a5 be 44 96 d7 be 8f 39 ac bc 35 96 88 bd
       -0.3230125 -0.4210683 -0.02102354 -0.06669275
0001b0 02 55 66 bd a6 9a ef bc 85 fc 7b 3e b0 86 6a 3d
       -0.056233414 -0.029248547 0.24608047 0.057257354
0001c0 ae 0d 25 3d a9 8b 83 be bd 32 58 3e 29 4d 04 bd
       0.04029625 -0.2569249 0.21113105 -0.03230015
0001d0 51 08 f4 bd 8b e9 1d be d2 e4 ac 3d 88 19 f7 3d
       -0.11915649 -0.15421121 0.084420815 0.120654166
0001e0 11 4a 40 3d ed 53 26 be 24 90 2f be 15 80 f1 bc
       0.046945635 -0.16242953 -0.17144829 -0.02948002
0001f0 d4 91 2a 3d 92 58 66 be 4e 68 54 bd 2b 93 04 bc
       0.04164298 -0.22494724 -0.051857285 -0.008091728

network_body._body_endoder.seq_layers.2.weight f4 [128, 128]
000000 97 ed 25 be c6 75 85 bd a8 6d b0 3d b7 db 22 bc
       -0.16203915 -0.06516604 0.08614665 -0.009940079
000010 23 7e 08 3d 5c fa 41 bd 1e 50 67 bd 82 eb e5 3d
       0.03332342 -0.047357902 -0.05647289 0.1122656
000020 da 1f 76 bd 39 ab 41 bd 77 24 3a 3e 0e 8c f5 bb
       -0.06008897 -0.04728243 0.18177973 -0.0074935025
000030 8a 37 a2 be c8 0c 6a bd 58 f0 14 3e 14 13 f2 3b
       -0.31682998 -0.057141095 0.14544809 0.007387528
000040 af c5 8a 3d c6 9b 26 3e ac 0f f3 bd 53 ee 4f bc
       0.067759864 0.1627036 -0.118682235 -0.012691098
000050 43 6c 06 3a 1c 49 2c be 93 4a 87 3d c3 ce 99 bd
       0.00051278266 -0.16824764 0.06606021 -0.0751014
000060 73 9d 06 3e ae 2a 2a 3e 39 bb 07 be 39 de 4a be
       0.13146 0.16617844 -0.13255014 -0.19811334
000070 c6 6f 21 be 8e 5c 7d bd 14 13 30 bc 45 a4 48 3d
       -0.15765294 -0.061855845 -0.010746736 0.048984785
000080 d0 22 cd bd 31 38 67 3d a9 c2 f4 3c 89 e6 ac 3d
       -0.100164056 0.056450073 0.029877977 0.084424086
000090 2c 62 e5 bd d3 90 a1 3d 3a 82 01 3e 97 69 df 3c
       -0.112003654 0.07888951 0.12647334 0.027272029
0000a0 ad 0d 9f bd f6 3e 39 be e3 20 bc 3c 18 91 71 3d
       -0.0776628 -0.18090424 0.0229649 0.058976263
0000b0 85 1d ae bd 1e 8e 96 bc 61 b5 10 3e ba de 99 3b
       -0.08501724 -0.018378314 0.1413169 0.0046957405
0000c0 66 a6 9e bc c2 8b 1e bd 25 e2 02 3c 71 28 c1 3d
       -0.019366454 -0.038707502 0.007988487 0.09431542
0000d0 fc b0 46 bd 9a 1c 96 3d a9 b1 d6 3d a6 81 65 3e
       -0.04850863 0.07329674 0.10483105 0.22412738
0000e0 fa 7f 40 3d 80 d9 1a be 1b f3 c8 bd fe 53 f5 3d
       0.046997048 -0.15122032 -0.09811994 0.11978911
0000f0 d8 61 7a bd b2 87 c4 bd 87 e4 e5 3c 2a 88 bb 3d
       -0.061128467 -0.09596194 0.028063072 0.091568306
000100 05 cb 87 3d fc dc 45 bd f7 5d f0 3d cb 1a 54 bd
       0.0663052 -0.04830645 0.11736672 -0.051783364
000110 13 e9 e5 3d 02 7a 74 bd 21 02 28 bd 07 6f 0c bd
       0.11226096 -0.05968667 -0.041017655 -0.03428557
000120 31 ef 26 be 36 5d 1b be c5 13 59 3d 21 0d 06 3e
       -0.16302182 -0.15172276 0.05299737 0.13090946
000130 89 b9 cc 3c 27 8a 46 3d d6 0a bd 3d 7c 6b 02 3e
       0.024990814 0.048471596 0.092305824 0.12736315
000140 6b a5 b2 bc 29 b3 25 bd 67 8b 4b 3c 5b f9 0a 3e
       -0.021807393 -0.040454064 0.012423373 0.13571684
000150 5e ef 5a bd 56 27 93 bd 02 43 60 3b 5e dc e6 3d
       -0.053450935 -0.07185237 0.0034219627 0.112725005
000160 fe 41 1c 3d b6 80 e9 3d 6c 8b e3 bd b8 69 f4 3c
       0.038148873 0.11401503 -0.11110577 0.029835567
000170 c3 de cb 3c f4 12 61 3e 1f 01 f8 bd 70 09 08 be
       0.024886495 0.21979886 -0.12109589 -0.1328485
000180 13 7e 99 bc eb 3e 33 bd 0e af 58 bd 40 94 9a 3d
       -0.018736875 -0.043761175 -0.05290132 0.07547808
000190 d3 a3 38 be d6 fe 53 3c 53 b2 54 be a4 d4 04 be
       -0.18031244 0.012939176 -0.2077115 -0.12971741
0001a0 34 d5 79 bd 1c 3a 0f 3d d9 37 88 3c c6 7b 92 bc
       -0.060994342 0.034967527 0.016628193 -0.017881285
0001b0 9d 81 b3 bd eb dc 22 be 75 d5 c0 3e cf f7 bc bd
       -0.08764956 -0.15904586 0.37662855 -0.09226953
0001c0 37 1e 78 bd bf 54 43 3d 33 4c a6 bd 6d ea fd 3c
       -0.06057569 0.047688242 -0.081200026 0.030995572
0001d0 5f 93 41 bd f9 41 06 3d 1f 4d f3 bd 1b c9 77 3d
       -0.047259685 0.03277776 -0.11879944 0.060494523
0001e0 09 1c 65 3c 2d 0a d4 bd 68 a0 40 3d ac 89 8e bd
       0.013983735 -0.103535034 0.047027975 -0.069598526
0001f0 2b 4b 51 bc 94 71 7f bd 12 68 6b bc 8e a1 49 3c
       -0.012774269 -0.062364176 -0.014368074 0.012306584
000200 3d 49 c9 bd a3 88 35 3c 04 fd d6 bd 70 29 8b 3d
       -0.09828422 0.01107994 -0.10497478 0.06795013
000210 58 4a c0 bd b3 52 12 3e a6 81 e1 bc 80 02 23 be
       -0.0938918 0.1428936 -0.027527642 -0.15918922
000220 a9 29 ce bc 47 e2 b1 3d e7 49 03 be 92 50 ca be
       -0.02516635 0.08685737 -0.1282116 -0.39514595
000230 f3 0c 03 3e ff 47 96 bd 11 61 fa bd 09 84 02 bd
       0.12797908 -0.07337951 -0.12225545 -0.0318642
000240 e5 97 9a be e5 f3 0b be a9 d8 51 bd 63 d8 62 3e
       -0.3019401 -0.13667257 -0.051232014 0.22152857
000250 46 6a 22 bd 07 f7 82 be ab 34 a5 bd c9 c9 a6 bd
       -0.03965213 -0.25579092 -0.08066686 -0.08143956
000260 f3 70 f7 3c 10 19 97 3d 19 6a 14 be e1 bd 89 bd
       0.030205226 0.07377827 -0.14493598 -0.0672567
000270 b7 fd c7 be 96 ec db bd fa 30 2c 3c 9c 65 40 3d
       -0.39060757 -0.107384846 0.010509724 0.046971902
000280 49 22 81 3d e6 4f e2 bd 9a b5 94 bb 91 00 39 3c
       0.063053675 -0.11050396 -0.00453825 0.011291639
000290 2c 28 27 3d 90 25 00 3d 2c 5d 4e be 4b 18 ff 3d
       0.040809795 0.031285822 -0.2015273 0.124558054
0002a0 c3 3e a9 bd 3e 3c c1 3d 4a 1d b8 3d b5 77 43 be
       -0.08263924 0.094353184 0.089899614 -0.19088633
0002b0 cd eb 7a bd b6 c7 66 be c7 f9 8c bc 7e af f5 bd
       -0.061260033 -0.22537121 -0.017208947 -0.11996363
0002c0 dd 0c 61 3e 1b 27 78 be 69 c6 95 be f9 77 64 3d
       0.21977563 -0.24233668 -0.29252937 0.055778477
0002d0 01 f6 30 3c 56 77 50 3d 71 a9 1f 3c b0 08 c4 3d
       0.010800839 0.050895058 0.009744988 0.095719695
0002e0 49 03 b2 bd d8 e8 25 3b cc 99 82 3e 1d 97 b7 be
       -0.08692033 0.0025315788 0.25507963 -0.35857478
0002f0 6e 30 36 3d a0 21 85 bc f2 54 0a 3e 94 57 ca 3e
       0.04447978 -0.016251385 0.13508967 0.39519942
000300 34 75 ed 3d aa c8 c9 3d 07 bd 05 be 47 cc 3f bd
       0.1159462 0.09852727 -0.1306039 -0.046825673
000310 67 82 68 be e0 13 12 be 8d 1d d2 3c fc 4a 83 bd
       -0.22705995 -0.14265394 0.025648857 -0.064107865
000320 bf 07 12 be 8c 8c 15 be 25 ed 6a be e1 fc 9c be
       -0.14260767 -0.14604396 -0.22942026 -0.3066168
000330 da 28 55 3c e4 17 39 be d2 d7 b3 bc f0 fd 2a 3e
       0.013010228 -0.1807552 -0.021953497 0.16698432
000340 2d 1c ee bd 22 23 50 be 12 32 99 3d 9a f8 15 bf
       -0.11626468 -0.20325902 0.07480253 -0.5858246
000350 43 c0 e1 3d d4 2e 13 be b9 57 1a bd 96 e8 e3 bc
       0.11022999 -0.14373332 -0.037681315 -0.027820867
000360 56 0c ea 3d e2 b4 07 3d 61 9f a7 bd cb 2c 91 3d
       0.11428134 0.033131488 -0.08184696 0.07088622
000370 b2 d5 cc bd 3a b0 eb bd cc 99 16 bd 40 f2 dd 3c
       -0.10001697 -0.11508222 -0.036767766 0.027093053
000380 17 fd 31 be ae b1 f1 3c be 10 82 bc 5c 1b 60 3c
       -0.17381702 0.02950367 -0.015877124 0.013678398
000390 2b da 88 be 0d e2 fc 3c 55 8b 4c 3d 06 10 06 be
       -0.2672895 0.030869508 0.049937565 -0.1309205
0003a0 06 ac 60 3c fe 66 19 be 0a 5a 1c be 6b bc 55 bd
       0.013712889 -0.14980695 -0.15268722 -0.052181643
0003b0 be 00 f8 3d 37 14 dc 3d d4 95 21 be f0 06 d3 bc
       0.121095166 0.10746043 -0.15779811 -0.025760144
0003c0 33 7d a8 bb 51 4b 47 3c 41 8b 07 be 96 76 2c 3d
       -0.005141878 0.012163953 -0.13236715 0.04210528
0003d0 fa 9e 92 3d 9a 22 41 3d eb 05 3d be 02 a9 9a 3c
       0.071592286 0.04715214 -0.18459289 0.018879417
0003e0 ff 4b b2 bd 22 42 e1 3d ef 5d cf bb 83 f1 d0 3c
       -0.08705901 0.10998942 -0.0063283364 0.025505787
0003f0 32 1f 8e bd a4 92 e3 bc 6e 4d 82 bd 90 bb 68 bd
       -0.06939544 -0.027779885 -0.06362425 -0.0568195

network_body._body_endoder.seq_layers.2.bias f4 [128]
000000 e0 e4 0f bc 59 f6 93 3c 05 3c 42 be 7d d3 03 3b
       -0.008782595 0.018061804 -0.18968208 0.002011507
000010 56 78 ec 3a e1 b4 9b bc b9 bb 49 3d 09 11 01 bd
       0.0018041234 -0.019007148 0.049251292 -0.031510387
000020 0c 55 0c be 16 8a f7 3c 18 1b 6a bb b1 4d db bc
       -0.13704318 0.030217212 -0.0035721716 -0.026770445
000030 c7 12 e5 bd d2 c9 35 bc 86 52 0f bd d9 67 37 3e
       -0.11185222 -0.011095481 -0.03499081 0.17910708
000040 41 d4 aa 3d 87 0c 81 3d 5a 38 fc 3d 64 fa 1c 3d
       0.083412655 0.063012175 0.12315436 0.03832473
000050 ef 6f c0 3c e1 58 42 bc 54 45 12 3d 16 78 34 bb
       0.023490874 -0.011862011 0.035710648 -0.0027537397
000060 01 3c 46 3c 46 fd d7 3d 62 c4 14 be 8e 7b f9 3c
       0.012099267 0.10546355 -0.14528039 0.030454423
000070 bf de 13 3d 6d b7 52 be 42 f8 0c 3e dd 2d 17 be
       0.0361011 -0.20577784 0.13766578 -0.14763589
000080 68 d2 65 3d 8f f5 e3 bd d2 0f 37 3d 2b 88 a3 bd
       0.056108862 -0.11130821 0.04469282 -0.07984956
000090 eb 73 76 3d 9a e2 4c be 48 d7 c8 bc 6c 24 44 3c
       0.06016914 -0.20008317 -0.024516717 0.011971574
0000a0 90 52 52 3d c8 63 bc 3c d9 dc 0f 3d 02 8e 17 bb
       0.05134827 0.022996798 0.035122726 -0.0023125415
0000b0 14 81 a2 3d 58 0a 39 3d 3a bb 0d 3e 03 ed 96 bd
       0.07934776 0.04517588 0.13840953 -0.07369425
0000c0 ad ed 8b 3d 24 dc c0 bd 14 34 57 3d 66 e5 a1 3b
       0.068324424 -0.094169885 0.0525399 0.0049406765
0000d0 01 6c 8e bc 3b ea 18 3e d6 44 6d 3e 6a ef 14 3e
       -0.017385485 0.14933102 0.2317079 0.14544454
0000e0 89 67 a8 3c ec 59 3f bd c3 1f 5a 3e 05 57 f0 3c
       0.020557182 -0.046716616 0.21301179 0.02933837
0000f0 8a a8 11 3e 3b fb 13 3e 21 54 2d bc 88 04 cf bd
       0.14224449 0.14451306 -0.01057914 -0.10108286
000100 ef 8f c3 bd f2 4b ef 3b c3 ac 40 bd 73 8d 68 3d
       -0.095489375 0.0073027546 -0.04703976 0.05677552
000110 13 ed 80 3d 7d 7c 9f 3c 74 80 09 3d c6 9b 84 bd
       0.06295218 0.01946854 0.033569768 -0.06475024
000120 b1 5d 93 bd e4 52 19 3d 2e 36 a3 3d 6b da 59 bb
       -0.071956046 0.037432566 0.07969318 -0.003324176
000130 0b ed 2b bb e9 51 58 3d 44 cd bf 3d f4 b0 19 bd
       -0.0026233818 0.05281249 0.09365323 -0.03752227
000140 26 c4 ba 3c f8 a9 68 3d 05 0d 04 3d f5 5a 54 3d
       0.022798609 0.05680272 0.03223898 0.051844556
000150 ac 74 98 be 1b 83 ce bc d1 7a bc 3e d4 75 80 3e
       -0.29776514 -0.025209 0.3681245 0.25089896
000160 cf 74 fe 3d e3 78 bb 3c 53 48 85 bb b9 01 f7 3b
       0.12424623 0.022884792 -0.0040674596 0.007538047
000170 d1 2d 06 3c fb 8a fe 3d 7b a0 5a 3d 50 e3 59 be
       0.008189634 0.12428852 0.053375702 -0.21278119
000180 d7 78 8d bc 49 68 d8 3c 22 2a 97 3a bd 3b bc bd
       -0.017269535 0.026416915 0.0011532942 -0.09191082
000190 27 ea e2 3d d4 87 c3 3d 2b 87 4a 3e 58 ba fc 3b
       0.11079817 0.095473915 0.19778125 0.0077126436
0001a0 7d 0f 37 3e 9d c5 42 bd c4 18 7d 3b b2 32 f4 bc
       0.17877002 -0.04755174 0.0038619498 -0.02980933
0001b0 f5 48 69 3d ef 30 93 3c 7c 82 37 3e 60 68 63 3e
       0.056954343 0.01796767 0.1792087 0.22207785
0001c0 68 be 97 bd 5a 3e ea 3d 0e 56 d5 bb 60 e8 11 3d
       -0.07409364 0.11437674 -0.0065105027 0.035622
0001d0 8c 15 b9 bd a3 84 cd bd 9f a5 45 3e d7 0a c6 3d
       -0.09037313 -0.10035064 0.1930146 0.09670036
0001e0 8a 0b 83 bd a9 c7 6f bc 9a 64 df bd 62 d8 8b bd
       -0.06398685 -0.014635005 -0.1090786 -0.06828381
0001f0 62 12 e6 bc 1d 70 eb 3d 6f 0a 46 3c 01 1f b6 3d
       -0.028084937 0.11495993 0.0120874485 0.08892632

action_model._discrete_distribution.branches.0.weight f4 [3, 128]
000000 36 0a d7 3c 66 1a 71 bd 6e a3 4c 3c 29 90 04 3d
       0.026249986 -0.058863066 0.012490137 0.032364044
000010 94 ad b1 3c 25 a8 cf bb 40 e3 67 3d 4f bc 11 3d
       0.021689214 -0.006337183 0.056613207 0.035579976
000020 2f d5 4d 3d 14 b8 81 bc f0 1e 2a 3d 05 e5 4b bb
       0.050252136 -0.015834846 0.04153341 -0.0031111848
000030 37 07 3b 3a 82 cc b8 bc 36 06 5c bc f7 bb 22 3d
       0.0007134559 -0.022558454 -0.013429215 0.03973004
000040 6b e7 6b 3e e3 33 0f 3d c7 e8 f7 bc ae 65 b6 3c
       0.23037498 0.034961592 -0.030262364 0.022265282
000050 f0 9c 0f 3c 41 41 ca 3d c9 3e 5c 3e c4 18 08 bd
       0.008765444 0.098757274 0.21508326 -0.033226743
000060 fb a0 43 3d ae b5 84 3d f1 a1 66 3b 21 71 19 3c
       0.047760945 0.06479965 0.003519174 0.009365351
000070 4e bd 3c bd a0 74 33 3c 09 3e 49 3d a7 2a 6a 3c
       -0.046078973 0.010953099 0.049131427 0.014292396
000080 7d 7a a9 3c 02 0d 90 3c 8c f0 2f 3e 88 d2 08 3d
       0.02068829 0.017584328 0.17181605 0.033403903
000090 e2 84 94 3b 5b 5c 2e 3c 99 4e f7 3c 63 0c 66 3e
       0.0045324424 0.010642136 0.030188845 0.22465663
0000a0 0e ad f1 3c f4 55 95 bd d5 25 7b 3d 89 35 66 bd
       0.029501464 -0.07291785 0.061315376 -0.0562034
0000b0 2f 2c 4b 3c b2 97 5e 3d 1e ea d8 3c 5f 49 4d 3d
       0.012400671 0.054343887 0.026478823 0.0501188
0000c0 ac 4c 03 3e 39 cb 98 3d 60 c3 75 bd e6 44 b2 bd
       0.12822217 0.07460637 -0.060000777 -0.087045476
0000d0 87 50 e5 3c 26 45 f6 3e ff 78 c5 3d a3 5a e0 3d
       0.0279925 0.4809963 0.09642219 0.109547876
0000e0 55 59 e0 3d 75 91 cd 3a 46 8f 09 bc 80 82 7b 3d
       0.10954539 0.0015683608 -0.008395975 0.06140375
0000f0 c9 b2 dc bd 61 27 27 3d b4 26 ce bd 1a e6 ed bb
       -0.10776288 0.04080904 -0.10065976 -0.0072600963
000100 84 89 ff 3c 37 85 fb 3b 89 cd a0 3b 34 69 b2 bb
       0.031193502 0.0076757926 0.004907314 -0.00544467
000110 7d 6e 1c bd be ba cf bc eb f9 43 3e 90 c1 56 bc
       -0.038191307 -0.0253576 0.19138305 -0.013107672
000120 6b c3 48 3d 68 4f 8c 3d 44 8a af bc 45 21 a2 3d
       0.04901449 0.06851083 -0.021428235 0.07916502
000130 e5 90 96 3c 25 6e 28 bd 61 d1 46 3d cf 09 b4 3b
       0.018379638 -0.041120667 0.048539523 0.0054943333
000140 e8 39 c4 ba fe 4c e3 3a 53 5d de 3c 1c ec 05 3e
       -0.0014970871 0.0017341671 0.02714411 0.1307835
000150 95 7e 2d bc e5 6f 43 3d ba 24 78 bd 8b ba cb bc
       -0.010589262 0.047714133 -0.0605819 -0.024869224
000160 02 a1 aa bc a8 f9 67 3d e0 a0 60 3d 31 00 0f bc
       -0.020828728 0.056634575 0.054840922 -0.008728073
000170 e9 47 09 bd c5 a3 5c 3c 77 74 41 bc ed 41 a2 3c
       -0.033515844 0.01346678 -0.011807553 0.019806826
000180 08 e5 d6 bd bc fd 07 3d 27 07 bc 3d b1 b6 68 3d
       -0.10492903 0.033200964 0.09181052 0.056814853
000190 74 18 44 be 08 22 82 3d c8 71 30 3e ef ed 4f bc
       -0.19149953 0.06354147 0.17230904 -0.012691005
0001a0 ef 52 9d bc cb 92 58 bc 2d d1 28 3c 72 44 ba 3c
       -0.019204585 -0.013218592 0.010303778 0.022737715
0001b0 76 6d 80 3d b4 d6 c0 bc 16 3e ec 3c ff 0e 70 3c
       0.06270878 -0.023539878 0.028838199 0.014652013
0001c0 40 5b 28 3c a6 d6 b5 3e fd b5 85 3b ca 59 8e bc
       0.010275662 0.35515326 0.0040805326 -0.0173768
0001d0 c6 e9 34 3c 53 4c 2c bc 6c b8 84 3b b8 0e 72 3d
       0.011042064 -0.010516244 0.004050305 0.05909607
0001e0 fc c8 91 bc 7a 91 c5 bb f7 da 2b bc ce 10 50 be
       -0.017796032 -0.006029305 -0.010489217 -0.2031891
0001f0 e3 64 fc 3b 29 c6 eb bb 20 17 98 3c 43 c3 33 3f
       0.0077024563 -0.0071952534 0.018565714 0.7021982
000200 34 a6 42 3c 6d 24 d1 3d c1 92 ad 3c 97 d4 2d bc
       0.011880446 0.10212026 0.021188142 -0.010609767
000210 02 44 91 3c 6e 60 6b bc f5 2d dc bc b8 03 2e 3c
       0.017732624 -0.014366252 -0.026877383 0.010621004
000220 a6 73 2b bd 2c 13 9d 3c d9 22 a0 bc 0d 5c b0 bb
       -0.041858338 0.01917418 -0.019547867 -0.005382067
000230 9f b9 2f 3d 52 c7 ad 3d 8a e0 13 3d 74 20 cc 3e
       0.04290163 0.08485283 0.03610281 0.3986851
000240 af be 66 be 93 82 43 3d c1 35 80 3d 15 37 a8 bb
       -0.22533678 0.047731947 0.06260253 -0.0051335194
000250 9a c9 70 bc 93 50 93 3d 9b bd 41 be cc 43 8c 3d
       -0.014696503 0.07193103 -0.18919985 0.06848869
000260 fd e7 89 3d bd 6d 5c 3e 9b f0 9b 3c b1 f4 47 39
       0.067337014 0.21526237 0.019035628 0.00019069274
000270 b7 0d eb 3d 02 89 99 3c 06 a3 8b 3e 0a a5 e7 3c
       0.11477225 0.018742088 0.27272815 0.028276939
000280 22 c6 c6 3b 1f 72 53 3c d0 97 32 be dd 3f e9 3c
       0.0060660997 0.012905627 -0.17440724 0.028472835
000290 67 d2 be bc 76 48 2d 3b 08 b6 1b bd 67 3c 79 be
       -0.023293687 0.0026440895 -0.038015395 -0.24339448
0002a0 33 71 54 3a d3 cd a5 bb 5b 80 48 bc da b8 f8 bc
       0.0008104026 -0.0050599365 -0.012237634 -0.030361582
0002b0 85 45 4b bd 6c 70 09 3d 99 4a 47 bd 8d 44 e9 bc
       -0.049626846 0.03355448 -0.048655126 -0.02847507
0002c0 bb 67 01 be 41 25 f8 bd d8 ab 24 bd 45 cc e9 3d
       -0.12637226 -0.121164806 -0.040202945 0.114159144
0002d0 4f 7d 49 bd b5 c7 0c bf b8 77 d3 3e 39 6c e7 bb
       -0.04919177 -0.5499223 0.41302276 -0.0070624617
0002e0 05 fc 13 be 07 8a 05 3d 8f 4e b0 bd 0d 0c fc bd
       -0.14451607 0.032602336 -0.08608734 -0.12306986
0002f0 83 79 ce 3e 3b 92 f1 3d 89 ff 8d 3d f2 04 53 3c
       0.4032708 0.117954694 0.06933505 0.012879597
000300 ea 29 10 bc dc 7d d3 39 77 a6 85 bc a2 30 d6 3c
       -0.008799056 0.0004033883 -0.016314728 0.026146237
000310 71 17 44 3e 74 dc e5 3c 33 ca 24 be cb 89 f0 3c
       0.19149567 0.028059222 -0.16092758 0.02936258
000320 bb 7d ac bd cb e8 82 bc a9 d3 77 3b e8 73 81 bd
       -0.08422419 -0.015980145 0.0037815368 -0.063209355
000330 74 cf 2a 3b a8 ea ca 3a 87 56 09 3e 71 9b 86 bc
       0.0026063593 0.001548131 0.13411914 -0.016431542
000340 4c 7f 4b 3c a1 e9 12 3d 8a 0e 9d 3d f2 25 ba bd
       0.012420487 0.035867337 0.07668789 -0.09089269
000350 35 9c b5 3d 48 63 e5 3c 10 f4 21 be 85 6c cf bd
       0.08867685 0.028001443 -0.15815759 -0.1012812
000360 3d 9c 28 bd 4c a0 05 bd 45 cf 4b 3b 23 ee e7 3c
       -0.041164625 -0.032623574 0.0031098884 0.028311795
000370 4a 2c 52 3d 90 80 f0 3d 05 02 85 3d fc 31 aa 3c
       0.05131177 0.11743271 0.06494526 0.020775788
000380 ae cd 05 3e f1 3b ea 3b bb ff 6a bd 16 e9 03 be
       0.13066742 0.007148259 -0.05737279 -0.12881884
000390 c4 3b 35 3e 53 70 bf 3c 87 99 9c 3e ed 4f c9 3c
       0.1769858 0.02336899 0.30585882 0.024574244
0003a0 59 51 89 bd d8 a5 44 3c d4 40 b8 3c 33 5c db bb
       -0.06704969 0.012002431 0.02249185 -0.0066943406
0003b0 a4 db 87 bc 10 fe 30 3d 50 9e c8 3e 9b c1 88 bd
       -0.016584225 0.043211043 0.39183283 -0.06677552
0003c0 b2 95 46 3c a5 e9 c4 be a3 4c 60 3b 34 92 2c 3d
       0.012120651 -0.38459507 0.0034225367 0.042131618
0003d0 bf 80 cd 3b d7 23 24 3d af 0e c9 3e 97 33 20 3e
       0.0062714512 0.040073242 0.39269015 0.1564468
0003e0 fe e1 05 3d 82 21 f8 bc 58 c8 b0 3c 32 29 bb 3d
       0.032686226 -0.030289415 0.021579906 0.09138717
0003f0 61 0f f2 bb 9e a1 ff 3d 6b 43 2d bd 9b 78 3c bf
       -0.007387087 0.12481998 -0.042300623 -0.7362153

action_model._discrete_distribution.branches.0.bias f4 [3]
000000 1b 10 a7 bd 39 b1 37 3d bb a1 0b 3e
       -0.08157369 0.044846747 0.13635914

action_model._discrete_distribution.branches.1.weight f4 [2, 128]
000000 e4 11 28 bd 2a 27 36 3b 04 e4 fd bb c2 20 10 bd
       -0.041032687 0.002779434 -0.007748129 -0.03518749
000010 2c 8c 0d bc d1 c2 3f bc 7d ab cb bc 37 08 db 3b
       -0.008639377 -0.011704163 -0.024862045 0.006684329
000020 c6 6c 2c bc 75 af a4 3c 2b 88 c1 3d b6 44 9f 3d
       -0.0105239805 0.020103196 0.094498 0.077767774
000030 30 8b 5b bd 2c 8b 90 3c 64 4c f3 3a 4d d4 5a be
       -0.053599536 0.017644487 0.0018562195 -0.21370049
000040 f4 98 02 be 7a 61 a4 bd 64 22 e7 3c 22 85 9f 3d
       -0.1275366 -0.08026405 0.02821464 0.07789065
000050 e4 63 d7 3b 2e c7 19 3d 42 f3 81 3c 66 a7 43 bc
       0.006573187 0.03754347 0.015863065 -0.011941766
000060 ec 83 d0 bb d6 26 e6 bd 3c 13 ff bb 8e dc 1b 3e
       -0.0063633826 -0.11237876 -0.0077842753 0.15220854
000070 44 3e 3f 3e e5 53 20 bb 2d b1 22 be 28 d4 81 bc
       0.18676096 -0.0024464068 -0.158879 -0.015848234
000080 e9 71 b7 bb 77 db ff 39 63 fd 07 bd 94 f4 be bb
       -0.005598296 0.00048800904 -0.033200633 -0.005827496
000090 18 91 03 3c 50 f4 c6 3b 4a 53 05 3d a7 d5 29 3d
       0.0080301985 0.006071605 0.032550134 0.04146352
0000a0 19 a5 d1 bc fd 6b d6 bd 33 bd c7 bc b8 ce 15 3d
       -0.02559142 -0.10469816 -0.02438221 0.036574095
0000b0 7c da 83 bd 47 5c 10 bd 81 38 a8 bb c4 39 90 3a
       -0.06438157 -0.035244253 -0.005133689 0.0011003544
0000c0 2e 1c 82 bc 4a f9 96 bc d8 82 e0 bb 8d 20 6a bd
       -0.015882578 -0.018429417 -0.0068515353 -0.05715995
0000d0 d5 e7 55 3c e9 34 97 be db 01 58 be 12 53 bf bd
       0.013055761 -0.29532555 -0.21094458 -0.09342016
0000e0 fc e8 08 be 49 45 e6 3c 3e b9 c5 3c 91 d7 9b be
       -0.13370126 0.02810921 0.024136182 -0.30437902
0000f0 b2 a8 da bc 01 dc 62 bd 3e 63 85 3d fb 36 dd bb
       -0.026691768 -0.055385593 0.065130696 -0.006750939
000100 23 98 3a bc c3 51 62 3c 42 f2 e7 3b 13 30 f3 bc
       -0.011388811 0.013813439 0.00707844 -0.02968601
000110 b9 29 28 be 5e 32 9f 3d 1e d9 00 bd cd cc 61 bd
       -0.16422166 0.07773279 -0.03145706 -0.055126954
000120 cc 32 df bc 9f 45 9b 3c 29 f5 5d bc 5f 7c 33 3d
       -0.027245902 0.018954096 -0.01354722 0.04381978
000130 3c 96 dc bb 42 4f 7b 3c f3 1f 97 bd a4 bf 15 bc
       -0.0067317765 0.015338721 -0.07379141 -0.009139929
000140 6e ee 52 bc 13 d4 3f bd ef c1 86 bc f7 5f 00 bd
       -0.012874229 -0.04683311 -0.016449897 -0.03134152
000150 40 e8 b1 3b 04 a9 8b bc 2a c6 61 3d 92 c8 38 3c
       0.0054292977 -0.017048366 0.055120625 0.011278288
000160 6c 9d 9e bc f1 98 88 bd e8 d9 ac 3d e5 94 df bb
       -0.019362174 -0.06669796 0.0844 -0.0068231695
000170 46 05 7c 3d 14 30 95 bd 3a be f6 bb c8 49 6d 3a
       0.061528467 -0.07284561 -0.007530001 0.0009051827
000180 0b 9a 23 bc 36 91 bc bd 23 30 cc ba 07 73 0b be
       -0.009985457 -0.09207384 -0.0015578311 -0.13618098
000190 ca 07 1e 3d 6e 64 e3 bd 12 b3 71 be b2 f7 c9 ba
       0.038581647 -0.1110314 -0.23603466 -0.0015408902
0001a0 c8 9b dd 3b e2 df b8 bc 0c 49 b1 3d ab 70 6f 3b
       0.0067629553 -0.022567693 0.08656511 0.0036535661
0001b0 92 68 15 bd 1c e7 69 3e e5 b9 11 be 2c 77 0e 3d
       -0.03647668 0.22842067 -0.1423107 0.03478162
0001c0 92 1e bd 3b ce 15 56 be d2 b2 e4 bd ed d7 be 3b
       0.0057714665 -0.20906755 -0.1116692 0.00582408
0001d0 7c e2 ea 3b 98 f5 00 bd c4 8f 0b be 29 90 6b bd
       0.0071681123 -0.031484216 -0.13629061 -0.05751053
0001e0 6b 25 15 3b 48 aa 74 3d 98 3a 36 bc 17 b4 20 be
       0.0022757899 0.059732705 -0.011122368 -0.15693699
0001f0 58 0e 81 3c 1d ad b6 bc a8 67 4a bb 3e f6 27 be
       0.01575391 -0.022299344 -0.0030884538 -0.16402528
000200 f5 c4 78 3d cc 9f 8b 3b 9a e6 2d bc c7 2d 57 3d
       0.060734708 0.0042609926 -0.010614062 0.05253389
000210 22 ab 6b 3a fb 79 df 3b 85 61 1d bb ca 47 73 3b
       0.00089900394 0.006819961 -0.0024014425 0.0037121647
000220 9f 1b bb 3c 91 93 2c bb 59 00 a7 bd 3f a8 a1 bd
       0.02284032 -0.0026333074 -0.08154363 -0.078934185
000230 3f bb 2d 3d 04 f1 38 bd 94 62 82 3a 64 71 5c 3e
       0.0424149 -0.045151725 0.0009947591 0.2152763
000240 fb 78 eb 3d f6 99 b1 3d 8b 70 e7 bc f2 ab b3 bd
       0.114976846 0.08671944 -0.028251907 -0.0877303
000250 ec 1f 93 3a 60 3e c1 bc 65 c4 b0 bc ed f7 51 3c
       0.0011224723 -0.023589313 -0.021578023 0.012815458
000260 a0 35 45 bc b1 94 c4 3d fa bb 06 bc 73 ff 1e be
       -0.012036711 0.09598673 -0.008223528 -0.15527134
000270 16 94 56 be cf 09 86 3b 22 d4 1c 3e eb e7 4b b9
       -0.20954928 0.0040905247 0.15315297 -0.00019445985
000280 ce 6d ce 3c 35 b4 af ba 1e 69 20 3d 6e dc 0f 3c
       0.025198843 -0.0013405146 0.039162748 0.008780582
000290 05 8f 84 bc f8 ba 47 3c 11 4c 1e bc c6 e5 07 bd
       -0.016181478 0.012190573 -0.00966169 -0.033178113
0002a0 1e f9 86 bb 3c 3c d6 3d 80 94 28 3d 82 f5 04 bd
       -0.0041190526 0.104607075 0.041157246 -0.032460697
0002b0 16 02 80 3d c5 4a 98 3c f8 07 b3 3c 55 7b 36 bc
       0.06250398 0.01859034 0.021854386 -0.011137803
0002c0 fc 4b 6e 3b df 4a 8a 3c 46 99 5e b9 ad 2a 6a 3d
       0.0036361208 0.016881404 -0.00021228669 0.057169605
0002d0 9a da 8f 3c 83 fd 91 3e 68 05 67 3e ea 04 f2 3d
       0.017560292 0.28513727 0.22560656 0.118173435
0002e0 26 30 05 3e 2b f1 90 bc 38 84 ac bc 73 76 9e 3e
       0.13006648 -0.017693123 -0.02105914 0.30949745
0002f0 c7 a4 6e 3c b2 9b 6f 3d 2f 4a 8a bd 00 7c 0c 3c
       0.014565653 0.058498092 -0.06752431 0.008574486
000300 2f 19 ba bb c5 bf 12 3b 05 f9 26 bc f5 15 e7 3c
       -0.0056792716 0.0022392136 -0.010191207 0.028208712
000310 14 08 3b 3e 59 db c0 bd fe f9 18 3d 60 d8 57 3d
       0.182648 -0.09416837 0.037347786 0.052696586
000320 bd de 14 3d d0 21 b1 bb 7d 88 c4 bb 4f 05 37 bd
       0.036345232 -0.005405642 -0.005997716 -0.044682797
000330 56 7b 05 3c b0 78 04 bb 4a 89 97 3d fb 07 0d 3c
       0.008147081 -0.0020213537 0.07399233 0.00860786
000340 09 02 b1 3a 18 fe 06 3d d7 f5 84 3c bd ba 1e 3d
       0.0013504635 0.032957166 0.016230507 0.038752306
000350 2e 59 0c b9 80 3b 7f 3b 7e be 30 bd 46 7e fa bc
       -0.00013384662 0.0038945377 -0.043150418 -0.03057779
000360 a4 83 bb 3b f0 1c 89 3d 66 99 98 bd 4c 3a f7 bb
       0.00572248 0.066949725 -0.074511334 -0.0075447913
000370 30 30 58 bd 83 f3 9d 3d 7b 4e 47 ba fd 43 6b bb
       -0.05278033 0.07712462 -0.0007602942 -0.0035898678
000380 3e c5 aa bb 3e 52 d1 3d 9b d9 0c 3d 4a 08 14 3e
       -0.0052115014 0.102207646 0.034387212 0.14456287
000390 9b 4f ec bc 68 05 dc 3d 10 e0 58 3e bc 82 cd 3b
       -0.028846553 0.10743219 0.21179223 0.0062716883
0003a0 a5 72 68 bc dd 72 38 bc 4b 56 b2 bd 85 2b 06 bc
       -0.01418749 -0.011257854 -0.08707865 -0.008189087
0003b0 56 de 65 3d 23 b6 69 be c1 d3 0c 3e 14 c2 dd bc
       0.05612024 -0.22823386 0.13752653 -0.027070083
0003c0 a2 3c b8 3b be cb 6f 3e 47 b2 df 3d f6 79 7b bc
       0.0056224624 0.23417565 0.109226756 -0.015348902
0003d0 b5 f7 2b bb 92 d0 0c 3d 19 e4 07 3e a3 46 85 3d
       -0.0026240174 0.034378596 0.13270606 0.065076135
0003e0 c7 0e 1b bb 4a 8f 63 bd 31 67 b0 3c f4 c5 23 3e
       -0.002365993 -0.055556573 0.02153358 0.15993482
0003f0 25 13 ff bc dd 97 6d 3c 3f fd 48 3b 75 44 19 3e
       -0.031137059 0.014501539 0.0030668525 0.1496752

action_model._discrete_distribution.branches.1.bias f4 [2]
000000 8d ee 81 3d 90 ee 81 bd
       0.06344328 -0.0634433

q1_network.network_body._body_endoder.seq_layers.0.weight f4 [128, 8]
000000 9d 20 6a 3f b7 39 16 be 42 85 95 3e cf 7d 20 3f
       0.91456014 -0.14670454 0.2920323 0.6269197
000010 12 4d c1 3e 18 46 44 39 ee 74 0e be 69 bf 81 3e
       0.37754112 0.00018718129 -0.13911793 0.25341347
000020 d1 01 12 3d 3a 44 a9 be 53 0f e5 be 4a c1 8d be
       0.035646264 -0.33059865 -0.44738254 -0.2768653
000030 4c 5e 0c bf 92 0a 32 be 1f 4f 3b 3e 44 87 c4 3e
       -0.54831386 -0.17386845 0.18291901 0.3838445
000040 84 ca af bc 4b c0 a4 be fe 9b 41 3e 6a d8 ee be
       -0.021458872 -0.32177958 0.18907163 -0.46649486
000050 cf b0 d8 3e c2 dd ee be 6b 6f 04 bf 88 eb f1 be
       0.42322394 -0.46653563 -0.5173251 -0.4725001
000060 06 79 b0 3e 57 59 20 3f e4 3d ec bd 57 ee b1 3e
       0.34467334 0.6263632 -0.11535242 0.3475215
000070 5a 86 3e ba c2 93 13 be 94 c0 bf bd a9 fe 90 be
       -0.0007267945 -0.14411834 -0.09362903 -0.2831929
000080 45 ce 61 be 03 28 3b bd b7 24 ac bb 89 1d 4e 3e
       -0.22051342 -0.045692455 -0.0052534 0.20128454
000090 04 38 9f be 94 04 c4 bc 7f 4e 9b 3e e7 75 8f 3d
       -0.31097424 -0.023927964 0.30333325 0.0700491
0000a0 d8 1b b5 3e a9 80 1a 3c 00 c5 1e be 82 5c b7 3d
       0.35372806 0.009430089 -0.15504837 0.08953191
0000b0 5b 2a 11 3e d2 b5 43 3e 9d 13 d3 bd 58 41 98 3e
       0.14176314 0.19112328 -0.10306475 0.29737353
0000c0 2f b4 59 3d 1c 1c 06 3e b9 0b a5 be 6b b0 2f 3d
       0.053150352 0.1309666 -0.32235506 0.042892855
0000d0 99 ec 89 3e 82 a6 22 3f 69 ae 41 3e 03 90 02 3f
       0.26938322 0.6353532 0.18914188 0.51000994
0000e0 03 b5 b3 be 30 16 e7 3e 7b 9e 1c be ef ae a0 3d
       -0.35099038 0.45134115 -0.1529483 0.07845866
0000f0 1e 16 6d be 21 8c e7 3e bc d4 23 3e 11 cf cd 3c
       -0.23152968 0.45224097 0.1599912 0.025123151
000100 ed f8 4c be 1f 7e 53 be 95 7b 5c 3e 43 9f be 3e
       -0.20016833 -0.2065358 0.21531518 0.37230882
000110 c9 97 7f be d5 72 5b bd 3e 33 cb bd f3 bf 6d be
       -0.24960245 -0.05357631 -0.09921883 -0.23217754
000120 34 a6 0b 3f d3 70 b1 3e 3b cb 25 3e a1 bb af bd
       0.5455048 0.3465639 0.16190808 -0.08580709
000130 2f 93 0d bf 6a 50 0b bf 50 dc 57 be 9d 4c d4 bc
       -0.5530271 -0.5441958 -0.21080136 -0.025915438
000140 a1 42 18 be b6 ad 67 3f 9e 44 8d 3d 45 90 c9 bc
       -0.14869167 0.90499437 0.06897853 -0.024604926
000150 7f 01 ec be c6 1f 45 be 17 7a a0 be ec b4 3e bd
       -0.4609489 -0.19250402 -0.31343147 -0.04655926
000160 12 27 21 3e 2b a1 04 3f e8 0b ab 3e 73 29 96 3d
       0.1573756 0.5180842 0.3340752 0.073321246
000170 c3 c6 8a 3d f9 21 a8 bd 38 33 52 be c4 23 b1 3d
       0.06776192 -0.08209605 -0.20527351 0.086494
000180 a7 11 ef 3c d4 81 c2 3e 00 35 0b be 02 1b 3e be
       0.029183222 0.37989676 -0.13594437 -0.1856499
000190 4d f3 90 3e 4f ba d4 bc be b0 8d 3e c6 5b da 3e
       0.28310624 -0.025967745 0.27673906 0.42648143
0001a0 24 b6 38 3f 96 6b 3f 3e 4d 8a cb 3e d9 a3 9a be
       0.72152925 0.18693385 0.39753953 -0.3020313
0001b0 2f b6 f8 3e bb 1c 42 bf 42 1f 29 3e 3e b2 06 3f
       0.48576495 -0.7582509 0.1651583 0.52615726
0001c0 e0 14 9b 3e a3 c1 bd bc e7 7b 46 3e 5e 0f dd bd
       0.30289364 -0.023163622 0.19383202 -0.10793947
0001d0 09 0a b2 3c 9d d5 35 3d 31 63 16 bf 91 65 ff 3e
       0.0217333 0.04439317 -0.58745104 0.49882177
0001e0 97 13 94 bd 23 97 f9 3d 39 36 02 bf 8c c5 2d 3e
       -0.07230299 0.1218703 -0.5086399 0.1696989
0001f0 5e a3 33 3f 87 83 ac 3e 70 16 f0 bd 48 98 84 be
       0.70171154 0.33694097 -0.117230296 -0.2589743
000200 25 f4 c9 3e 96 1f 60 be 5d 1b 3c bf a4 04 b4 3e
       0.3944408 -0.21887049 -0.73479253 0.3515979
000210 5c 94 a6 3e 57 ab 18 3f 64 9f 0c bf 2e 64 32 3c
       0.32535064 0.59636444 -0.5493071 0.0108881425
000220 96 db 5f 3c c5 b7 1c 3e 24 34 23 bf 5b 10 60 be
       0.013663193 0.15304478 -0.63751435 -0.21881239
000230 4c 33 9d be 1e 51 36 3f 84 c6 5e bd 44 3a ca bd
       -0.307032 0.71217525 -0.054388538 -0.098743945
000240 af 6e d9 bd 77 ec 9a 3d 96 81 fe be 0e 17 f5 bd
       -0.10616814 0.07564633 -0.4970824 -0.11967288
000250 fa 88 d9 3d cd 29 23 bf 88 9c 53 3d 85 77 be 3e
       0.10621829 -0.6373566 0.05166295 0.3720056
000260 b6 99 95 3d 22 99 b4 3e 67 ba 3a bd 1f e5 63 bb
       0.07304709 0.3527308 -0.045587923 -0.0034774018
000270 b0 80 82 be 93 28 30 3f 03 60 f4 3d 37 b3 a0 3e
       -0.25488806 0.6881191 0.11932375 0.3138673
000280 ec ef ab be a8 b2 91 be 50 26 f2 3e a0 5a ce 3d
       -0.33581483 -0.28456616 0.47294855 0.10075879
000290 0c 21 6f 3e 61 c8 84 3d 0f bf 0c 3f bc b2 26 be
       0.2335245 0.06483532 0.5497903 -0.16279119
0002a0 0a 16 42 3e 1a a2 33 3e 24 fe 2f bf 1b 45 1d 3d
       0.1895372 0.17542306 -0.6874716 0.038395982
0002b0 6f f5 c2 bc bb 78 bf 3d 89 d0 1b bd e2 2a 25 be
       -0.023798672 0.093491994 -0.03804067 -0.1612964
0002c0 b3 21 9a 3e 1f d8 57 be b3 e6 e9 3d 7b 8a 57 3d
       0.30103835 -0.21078537 0.114209555 0.0526223
0002d0 86 c9 fe 3e e4 60 63 bc d8 f0 ce bd 77 88 6a 3e
       0.49763125 -0.013878081 -0.10104531 0.2290362
0002e0 c3 0c 1c 3f 74 7d 63 3e 05 24 2f be 00 50 ec bb
       0.6095697 0.22215825 -0.17103584 -0.007211685
0002f0 7b 89 ce be 17 9d 83 3e fd 4d 40 3d 85 99 51 3f
       -0.40339264 0.25705788 0.046949375 0.8187488
000300 96 ef e8 bd 2d 5a d8 bd 06 11 22 bf 69 e2 72 3e
       -0.113738224 -0.10564075 -0.63307226 0.23719181
000310 b3 95 88 3e 8f 9d 23 bf 0b 57 db 3e 16 01 6b 3e
       0.2667671 -0.6391229 0.42839846 0.22949633
000320 6d e5 a3 be 3b 14 e0 3e 5e 31 a4 3d cb 21 b5 be
       -0.32010975 0.43765435 0.080172285 -0.35377344
000330 de b3 29 3e f5 a6 d6 3e be 25 f8 3d b4 91 1a 3f
       0.1657252 0.41924253 0.12116574 0.60378575
000340 22 81 cf 3d 40 d4 4a 3e be fd d3 be 3e d3 19 bd
       0.10132052 0.1980753 -0.41404527 -0.037554972
000350 d3 ba d8 3e 53 77 d8 bc 64 45 66 be d3 f1 0a 3e
       0.42330036 -0.026424086 -0.22487408 0.13568811
000360 4b 5e 01 be b8 dc 89 be aa 70 1a be 67 f9 89 3e
       -0.12633626 -0.26926208 -0.1508204 0.2694809
000370 c3 ed 19 bd 3a 0d 4f be 5e a0 50 be 20 92 d1 3e
       -0.037580263 -0.2021989 -0.20373675 0.40931797
000380 31 ab 2d 3f 64 85 9b bc 16 fa 95 be 50 ba 9a 3e
       0.6783934 -0.018984504 -0.29292363 0.3022027
000390 27 2e 96 3e 5a d0 11 bf f9 b8 88 be 3b df 82 3e
       0.29332086 -0.56958544 -0.26703623 0.25560936
0003a0 74 78 03 3e b0 de 84 3e 1f 8f 6e 3d 11 fd 98 3e
       0.12838918 0.25951147 0.05824196 0.29880574
0003b0 bc a9 83 be 04 34 12 3c 76 3e 73 be ff 1b 87 bd
       -0.25715435 0.008923534 -0.23754296 -0.06597137
0003c0 80 fc ad be 7b ef 2d 3e 3d b9 c4 3e 57 61 08 be
       -0.33981705 0.16985886 0.38422576 -0.13318382
0003d0 0f 28 16 3e 5d 7e cf be f9 ad 65 3e b9 8f 82 be
       0.14663719 -0.40526095 0.22429647 -0.25500277
0003e0 f3 85 75 bd 48 c9 db bd e6 58 1f 3e 9b c3 c3 3e
       -0.059942197 -0.10731751 0.15561256 0.38235173
0003f0 fb fa 7a 3e cb c9 25 3e d8 e3 94 be 14 ac 00 bf
       0.24509804 0.16190259 -0.2908008 -0.5026257

q1_network.network_body._body_endoder.seq_layers.0.bias f4 [128]
000000 a4 ef 2e bd fd c7 77 3e 8f c2 3c 3e 54 fa 27 bc
       -0.042709008 0.24197383 0.18433593 -0.010252554
000010 fc d4 69 bd 5a 32 94 bc 90 63 74 bc 9b 10 96 bd
       -0.057087883 -0.018090416 -0.014916316 -0.07327386
000020 ad 1e 93 bd f6 00 bb 3c 87 67 35 3b ba 3f 5a 3d
       -0.07183585 0.022827607 0.0027680115 0.05328343
000030 8c 2c 99 bc 26 72 e8 bc ab 55 63 3d b1 8c 8c bd
       -0.018698 -0.028374743 0.05550162 -0.06862772
000040 e7 8a e3 bb 3e 18 39 bd 95 a7 30 bd 77 17 40 bc
       -0.0069440487 -0.045189135 -0.04312857 -0.011724344
000050 1d da 03 3d bc 9a 6f bb 34 90 fe bc 05 f9 c5 3d
       0.03219043 -0.0036560735 -0.03107462 0.09666637
000060 87 77 a7 3d db 99 4a bd c7 1f 94 ba 43 31 89 3e
       0.08177095 -0.049463134 -0.0011300974 0.26795396
000070 1a b4 cf 3b d1 eb 41 3c b6 2b e1 3c fc ae 6f bd
       0.0063386085 0.011836008 0.027486663 -0.058516487
000080 66 a9 c9 3c 87 7d 4f 3c 3b 36 d0 bb a1 03 71 bd
       0.024616908 0.012664205 -0.006354121 -0.05884135
000090 41 8c 68 bd c6 b0 70 3d a8 4e 09 bd db 58 a1 3d
       -0.05677438 0.058762334 -0.033522278 0.07878276
0000a0 f4 8d 04 bd 6d 2c 1b 3d f0 a7 9c 3b ce d0 45 3c
       -0.03236194 0.037884165 0.004780762 0.012073709
0000b0 f9 a5 55 3d d6 85 e6 bc 6e 21 aa bc 66 5d 37 3d
       0.052160237 -0.02813999 -0.020767894 0.044766806
0000c0 1d c3 1f 3c c4 7e 0f bd 7f f7 42 bd e8 44 42 bd
       0.0097511085 -0.035033002 -0.047599312 -0.047428995
0000d0 6f 21 5d bc dc 45 b7 3d b4 26 86 3d ba 26 6a 3c
       -0.013496741 0.089488715 0.06550351 0.01429146
0000e0 69 7f 59 bc a0 17 a8 3c bf aa 76 bc 80 1d 91 3d
       -0.013275006 0.020519078 -0.0150553575 0.07085705
0000f0 8d 1b 4d bd 99 d2 5e 3e 17 05 1c bc 25 70 d0 bb
       -0.050075103 0.21760024 -0.009522698 -0.006361025
000100 ce a6 3a 3d 9f ce 54 3d 64 85 a4 3c 7d 2c 37 bc
       0.045569234 0.05195486 0.020083137 -0.01118004
000110 dc 8e 03 3d e0 a1 b3 3d ba 01 2e 3d 19 42 f5 3d
       0.032118663 0.087711096 0.042482115 0.11975498
000120 1d e6 d1 3d be 10 86 3d 86 01 e0 3d 2c 16 c8 3d
       0.10248969 0.06546162 0.109377906 0.09769854
000130 b8 bd e9 bc ab ac 22 3e 86 44 91 bd 09 97 d2 3a
       -0.028532848 0.1588618 -0.07093148 0.001606674
000140 01 d5 86 bd 01 fd f3 3c da 96 6e bc 6d 61 ed 3c
       -0.06583596 0.029783728 -0.014562333 0.02897712
000150 4b 91 88 3d ec d6 d0 3c 61 ec 2b 3d 39 ad 65 3d
       0.066683374 0.025493108 0.041973475 0.0560734
000160 a2 04 f8 bb e1 f9 15 3e 2b b0 d0 3c fd 06 ec 3d
       -0.0075689116 0.14646102 0.025474628 0.115247704
000170 9e 26 4d bd 36 2b 88 3d 03 6c a3 bd 8e 77 22 bc
       -0.050085656 0.06648867 -0.07979586 -0.009916199
000180 70 53 ce bc d4 3a 16 3d e5 32 12 3c 86 61 74 bc
       -0.02518627 0.036677197 0.008923267 -0.0149158295
000190 38 ec 20 3d dc 17 85 3d 2f be 5e bd cf 97 40 3d
       0.039287776 0.064986914 -0.054380592 0.047019776
0001a0 2a 9f 86 bd b6 88 25 bc b4 0f 06 3e ed f8 18 bd
       -0.06573327 -0.010103395 0.13091928 -0.03734677
0001b0 b6 4c 00 bc de c5 f4 bb 45 99 6d bc 15 a7 8e 3d
       -0.007830789 -0.0074698767 -0.014501874 0.06965462
0001c0 91 63 f5 bb 89 84 24 3e 7b 41 58 bc f0 f2 2c 3d
       -0.007488676 0.16066183 -0.0131992055 0.04222387
0001d0 68 3e cf 3d 88 4e e1 bb ff 45 36 3d 9b cc be bd
       0.10119325 -0.0068758167 0.044500347 -0.09316369
0001e0 c1 a4 32 bd c8 bf 76 bd 00 17 16 bc 92 e3 4a 3d
       -0.043614153 -0.06024149 -0.009160757 0.049533434
0001f0 ac e4 4c 3d ad f9 0d bd 8b d2 10 3e a1 0b bc bd
       0.050022766 -0.034661938 0.14142816 -0.091819055
