results/first/SpaceInvaders/SpaceInvaders-26808.pt (torch, 951991 bytes, 83 tensors)

discrete_act_size_vector f4 [1, 2]
00000000: 0000 4040 0000 0040
3.0 2.0

network_body._body_endoder.seq_layers.0.weight f4 [128, 3]
00000000: 8e6a c2bd ee37 5dbe 392c 0e3f 2f88 613f
00000010: d67d c3bf c734 04bf 60db 653f 049c 7f3c
00000020: f93c 51bf 0bee dfbe 9e4d f9bd 34ff c13e
00000030: ece5 38be 24ed 6d3f 69d3 753f 3e62 523d
00000040: d567 6f3f ad83 26be 0644 e93e a519 b03e
00000050: e5d6 a2be 1c3f 083f 9fcf 9b3e 6aa7 bfbe
00000060: 2a99 b7bf a9cd 13bf b813 f3bd e9de d4bf
00000070: 0c69 07bc 7884 f73d 094e 90bd 5b32 04bf
00000080: 6006 873e 9334 c4bf c327 6dbf acae 633e
00000090: 9a0d afbf 76f6 8e3e 9b24 40be 972d 8cbf
000000a0: 938f 183f 214b bd3e 058f 8b3d 01fa 16be
000000b0: 7916 8a3e ec4c 94be 8129 29bf 456e 6d3e
000000c0: 89a0 a53d 6349 45bf c3ee 91bf 1209 293f
000000d0: 64e2 e9be 5b8f e1be d2a3 fe3e bc71 473f
000000e0: 7707 c1be 242b 6dbe fea5 c93f e7a9 e1bc
000000f0: e767 c13e 4a91 e93d 741b 193d 924b 36bf
00000100: 74db 8cbf 666c f03e cb9d 88be 3383 993f
00000110: ed1d 8fbf e1a1 e0bf 9fba a63b 0417 40be
00000120: 6805 c73d fb00 40be a1f9 f3bd 614e 953f
00000130: 86de fa3d eff9 97be 7039 34bf 4f4b a1bd
00000140: 735f 1a3f 2a55 e63e 77cb ff3e 7c37 a8be
00000150: 0cd8 253e 1fe2 eabe b1b7 863e c7e9 ed3e
00000160: 2fbc 463f f3bd c53c fa7d 693f 7661 fcbd
00000170: 1ab8 1abf 663d 76bf db50 9e3e 95de 203f
00000180: d954 c7bd 3ea6 6f3f 9fd2 473f 0ed9 dd3e
00000190: 44e3 17bf 5ab2 083e 8da5 793f f706 3f3f
000001a0: 15d0 4f3d 3349 7d3e 8a12 33bf c1b4 a73f
000001b0: ac0b ee3e e344 353e 9c22 0a3f 5fa7 5bbd
000001c0: 91b2 693e 0c26 693f 295d 8fbf ea4a a8be
000001d0: 758f c93e b2ff 1f3f 346c d43c 7e44 bd3e
000001e0: 6ac2 f13e c2e0 bcbd c49a 583e a108 26bf
000001f0: af99 7a3e c83c 15be 998d 253f 3f73 04bf
00000200: 91d0 cbbe b610 12be de42 313f 0473 003e
00000210: d38c 8fbf 8aae 82bf 8010 3a3e cda1 f83e
00000220: 49fa 41be bf57 a0be 6250 92be 2b11 48be
00000230: 32bb 5cbf 1eb6 763d 40ad ae3f 0972 34be
00000240: 702a 48bf 1f4d b3bf 0a2a 3f3f 5b69 5ebd
00000250: 425d 61bf ec23 dd3d 0b43 ea3e 52d0 b8bd
00000260: 62d4 263f 1f71 4a3d 0ea4 35bf 0844 5c3f
00000270: cb91 bf3f 89bd 3a3e f667 a43d 1c47 b73e
00000280: b643 ce3e bd84 87be b983 443f 70f1 71bc
00000290: a851 37bf fb6d 5ebf 987b 493f 4dae 673e
000002a0: bb89 2a3f 7d0e 49bf dffa cabe 86bf 833f
000002b0: aa96 87be 249f 6dbe ce0b 5d3d 9a31 85bf
000002c0: 698b e43d 1c84 99bd 2123 083f 63fd 9fbf
000002d0: 0483 193f d31e acbe 9aca 883e 294d 3c3f
000002e0: c154 e7be eb9d 0bbf 0297 c8bf f465 d3bc
000002f0: e35b 31be 7734 5d3f 28a3 76be 474d 893d
00000300: ed67 263e eb3a d63e 4684 f63e 9b93 0cbe
00000310: b5b1 e5be 2c6f edbf 130a bdbe 001e 90bf
00000320: f093 933e 0f3b 733f 8839 cebc c90f 133e
00000330: cb54 a53d 7b70 84be e4b1 ddbd 0734 8a3f
00000340: 89f6 0b3f 366c 7cbf ca5c 0cbe fa55 a23e
00000350: 6e03 773e edac 50be d39f 40bf 8bd5 98bf
00000360: 8c88 be3e 3929 8fbe c7ef 623f 80a3 bfbe
00000370: 10e4 53bd 6ff7 b13e 1994 7f3d b5c3 763d
00000380: c9b7 f7bd 3950 1abf 33f3 933b 38de 60bf
00000390: 3c59 413f f819 95bf aaf6 953f 2ae5 303f
000003a0: 2db5 f33e e702 f3be 6850 483f 473a 83bf
000003b0: e1bf 2cbf 71c2 123d 8435 cc3e e2e1 1fbe
000003c0: 7353 543f a945 8c3d 07ea 44bf 46d7 93be
000003d0: 195f f3bd 93f2 8c3e d6b9 a13d 5fc6 28bf
000003e0: cf7e b9bd e90a 0f3f 69ca 4abe 21b6 bbbe
000003f0: 3cef 9abf 7c9d 1ebe bd47 da3d 368a 6a3d
-0.0949298 -0.21603367 0.5553623 0.88098425 -1.5272777 -0.5164303 0.89787865 0.015601162
-0.8173366 -0.437363 -0.121730074 0.37890017 -0.18056458 0.9293997 0.9602571 0.051363222
0.9351781 -0.16261168 0.4555971 0.34394565 -0.31804577 0.532213 0.3043184 -0.37432414
-1.4343617 -0.5773569 -0.118689954 -1.6630527 -0.008264791 0.12085813 -0.07046134 -0.51639336
0.2637205 -1.5328544 -0.92638797 0.22234601 -1.3676026 0.2792241 -0.18763964 -1.0951413
0.59594077 0.3697138 0.06814388 -0.14743806 0.2697027 -0.28964937 -0.66078955 0.23186596
0.0808726 -0.77065104 -1.1400989 0.66029465 -0.45680535 -0.44054684 0.4973436 0.7790792
-0.37701008 -0.23160988 1.5753782 -0.027546836 0.37774584 0.11404665 0.037379697 -0.7120906
-1.1004472 0.469577 -0.26682886 1.1993164 -1.1181008 -1.7549402 0.005088165 -0.1875878
0.09717828 -0.18750374 -0.11912847 1.1664544 0.12249474 -0.29682872 -0.7040014 -0.07875692
0.60301894 0.4498685 0.4995992 -0.3285483 0.16195697 -0.45875642 0.2631202 0.4646742
0.77630895 0.024138426 0.9120785 -0.12323277 -0.60437167 -0.96187437 0.30921063 0.62839633
-0.0973298 0.9361304 0.7805576 0.43329662 -0.59331155 0.13349286 0.97518235 0.7462
0.050735552 0.24734955 -0.69950163 1.3102037 0.4649328 0.1770206 0.5395906 -0.053626414
0.22822024 0.9107368 -1.1200305 -0.32869655 0.39367262 0.62499535 0.025930502 0.36966318
0.4721864 -0.09222557 0.21152788 -0.64856917 0.24472688 -0.14573967 0.64669186 -0.5173835
-0.3980756 -0.14264187 0.69242656 0.12543875 -1.1214851 -1.0209515 0.18170357 0.48560944
-0.18943132 -0.31316945 -0.28576952 -0.19537799 -0.8622314 0.060232274 1.3646622 -0.17621626
-0.78189754 -1.400791 0.7467352 -0.054299694 -0.88032925 0.10797867 0.45754275 -0.09024109
0.6516782 0.049424287 -0.7095345 0.8604131 1.4966367 0.18236364 0.080276415 0.3579644
0.40286034 -0.2646846 0.7676349 -0.014767036 -0.7160897 -0.86886567 0.78704214 0.22625084
0.6661641 -0.7853773 -0.39644524 1.0292823 -0.26482135 -0.23205239 0.053966336 -1.0405762
0.11159403 -0.07495901 0.531786 -1.2499202 0.5996554 -0.33617267 0.26717073 0.7355524
-0.4518185 -0.5453784 -1.5671084 -0.025805451 -0.17320208 0.8640818 -0.24085677 0.067041926
0.16250582 0.41841826 0.48147792 -0.13728182 -0.44862142 -1.8549552 -0.3692175 -1.1259155
0.28823805 0.9501199 -0.025173917 0.1436149 0.080728136 -0.25867066 -0.108249456 1.0797127
0.5467306 -0.98602617 -0.13707271 0.3170622 0.24122402 -0.20378466 -0.7524387 -1.1940168
0.37213552 -0.27961138 0.8864712 -0.37429428 -0.05173117 0.3475909 0.062397096 0.060245235
-0.12095601 -0.6027866 0.0045150756 -0.8783908 0.75526786 -1.164855 1.1715901 0.69099677
0.47599164 -0.47463152 0.7824769 -1.025216 -0.67480284 0.035829965 0.3988458 -0.15613511
0.82939833 0.06849224 -0.769196 -0.28875178 -0.11883373 0.2752882 0.078967735 -0.6592769
-0.0905739 0.5587602 -0.19803776 -0.3666239 -1.2104259 -0.15489763 0.10658214 0.057260714

network_body._body_endoder.seq_layers.0.bias f4 [128]
00000000: 3145 e0bd 241a 1dbe a834 243b c29d abbd
00000010: e3df dcbd 5f74 123f da7f 133e ab8e 1d3e
00000020: 11b8 3c3e e4d4 8f3e 9340 a9be 17a8 4e3d
00000030: 1ed8 3a3e 101a ab3a c634 67bd 7882 9abe
00000040: 910a 40b7 fd59 c63d 2f34 a83e 31b1 683e
00000050: 6aa0 883d 17a2 07be cf5d bf39 0f2f d13e
00000060: aead 043f 308f 9cbc 4ca1 25be 4f2e 873e
00000070: f534 07be 1c5c bdbb 1696 17be c270 37bd
00000080: 55a9 f8bd ffd7 2fbe 9177 2b3d ae27 85be
00000090: 6f14 24be e860 8dbe fc98 bebd 38ae 2dbd
000000a0: 3229 e9bd b2b6 eb3e 93f4 cabd c0e2 203d
000000b0: a6e0 683e fb97 073e 75a9 be3b dd55 b53e
000000c0: f887 60be b744 a0be e7ca 3abd 3513 1dbe
000000d0: f99b 133d 9c95 d23e 4149 4b3d 6153 47be
000000e0: 51fb 2cbe 34a3 d53d c0ba 71bd 23f4 f636
000000f0: f134 72be 27f7 543e eb8e 0a3e 614f 5b3d
00000100: c8b0 a6bd e26e 4bad 0bbb 31be 9090 86bd
00000110: 592b c83e decb 873c 5d03 403d 13f9 2835
00000120: 6743 c63c f115 1cbe 1397 cb3e de11 903c
00000130: b42e 24be d66b eabd 3a7d 02bc b3da 093f
00000140: af88 04bd fe89 6d3d 9e99 243c 5e39 3f3e
00000150: ec4c 133e 80ef 8fbe 6abb 9d3e ef1f c7bd
00000160: a4de c73e e9c5 b92f 7ccc 09be 68c1 623e
00000170: 703d 063f d8c4 d5bd ed08 79be 3f57 bb3e
00000180: 91da f8bc b292 bfbd 29de 16be f283 32be
00000190: 93ad 7a3c 83b1 b73d 719b ecb9 8803 a43b
000001a0: 5d0a 923d 6287 11be b6f9 83bc edfb a73e
000001b0: b1ce cd3e b4ae 1dbd 54cd 953d 2cef 543d
000001c0: c3a4 b53d 7c52 8a3d d0e6 e83d 017f 473d
000001d0: f354 c03d 7a91 853e 03f7 413e 7e90 7e3e
000001e0: 0bb0 363d 5da1 853e 07ec 05bd b84e ea3e
000001f0: 96f9 1d3d 0d22 50be 3c11 60bc ab73 833d
-0.10950697 -0.15342003 0.00250558 -0.08379699 -0.107848905 0.5720882 0.1440424 0.15386455
0.18429591 0.2809211 -0.3305708 0.05045327 0.18246505 0.0013054032 -0.056446813 -0.30177665
-1.1446552e-05 0.09685133 0.32852313 0.22723843 0.066712216 -0.13245426 0.00036500252 0.40856215
0.51827514 -0.019111246 -0.16174811 0.26402518 -0.13203795 -0.0057788026 -0.14803347 -0.04478527
-0.121416725 -0.1717224 0.041862074 -0.26006836 -0.1602342 -0.27612996 -0.09306523 -0.042402476
-0.113848105 0.46037823 -0.0990993 0.039278746 0.22741947 0.1324157 0.0058185407 0.3541707
-0.21926868 -0.31302425 -0.04560366 -0.15339358 0.03603742 0.41129768 0.049630407 -0.194654
-0.16892745 0.10431519 -0.05901599 7.3597926e-06 -0.23653008 0.20797406 0.13531081 0.0535425
-0.08139187 -1.1563835e-11 -0.17356507 -0.06570542 0.39095572 0.016576704 0.046878207 6.294733e-07
0.024202062 -0.15242745 0.39763698 0.017586645 -0.16033441 -0.11446349 -0.007964427 0.53849334
-0.032356914 0.057992928 0.010046391 0.18674228 0.14384812 -0.28112411 0.30807048 -0.09722888
0.3903705 3.3791928e-10 -0.13456911 0.22144091 0.52437496 -0.104379356 -0.24319811 0.3659
-0.030377658 -0.09354152 -0.14733185 -0.17433146 0.015300172 0.089694045 -0.0004512924 0.005005304
0.07130883 -0.142118 -0.016110282 0.32809392 0.40196756 -0.038496688 0.07314554 0.051985905
0.088693164 0.06754014 0.11372149 0.048705105 0.09391203 0.26087552 0.18941884 0.24859807
0.04460148 0.26099673 -0.032695796 0.45763183 0.0385681 -0.2032549 -0.013675984 0.06418546

network_body._body_endoder.seq_layers.2.weight f4 [128, 128]
00000000: 9f61 f53c d4d3 63b9 e437 d8bd 9194 c6bc
00000010: 149f b43d c68d eabe 1302 a3be a3e1 aebe
00000020: 12d6 07bf a23c b23e 0665 ffbd e04d b63e
00000030: d80f f8be 6986 4e3d 906e 54bd ce29 8b3b
00000040: 1705 ab3d c0cf c7be 475f e3be f150 a73e
00000050: 751d b7bd e88d b63c 99f6 81bd b560 46bf
00000060: a35a b4be acc3 cebd 37d0 113e f5f3 dcbe
00000070: 7319 e73c ce74 b3bd 1051 3abc d1b2 163c
00000080: 4156 50bd 3409 c5bd 0dd0 88be ff5d 16be
00000090: 62af ddbd 7341 c9bc a506 bc3d c6c4 e7bd
000000a0: 0b48 613c 5e38 75be bb7e 7cbe d7c8 8f3d
000000b0: aa0d af3d a3c0 86be 5373 00bd a7e3 04be
000000c0: c654 323e e69e 773b c930 183d 482d abbb
000000d0: 69f0 a1be 84df bcbe 5489 31bc bc7d a73c
000000e0: bd53 9cbe 4515 d2bc 191a 10be 0964 beba
000000f0: 9533 12bd 1a1e 04be bb32 91be 2b16 ecbe
00000100: 2971 b43d f73e 253e 7f47 2c3d 565c bbbb
00000110: 8b0f 2fbe 4fc1 66be 4ad8 143b 952e a73d
00000120: e837 febc 21c5 8a3d f723 bd3d 30fa d1bd
00000130: 09da 92bd def3 debe eeea bdbd 0ba8 c2be
00000140: 05a1 aebd dc22 0dbd 3e05 39be 54d3 adbe
00000150: 6e6b 313e 317b 813d e77c aebe 3a26 14be
00000160: 994c f2be 2981 3c3d 6462 013e cabd debd
00000170: 761d b1be 0997 df3d a9cb f5bd 20ad 88be
00000180: bdef bf3c 7a2b 1cbe d3e4 bc3d 9f04 ca3d
00000190: 827b 91bd bb1a 9d3d bcc3 18be f538 4cbe
000001a0: 1e5b 233e 485c 1ebe 3bd0 373e 1485 88be
000001b0: c649 05bf 6795 963d 8e75 ccbc dfee 41bd
000001c0: 3702 463d 60ba c13d 321b 05be 8dea e1bc
000001d0: 156e 71be 3c55 383d b5e9 36be 5fc5 76be
000001e0: 569b 2cbe 157f edbe 8375 493b 2892 80be
000001f0: 8514 2bbe d7de 03be 337a 9ebe cee6 353e
00000200: d3c3 53bd 3647 39bc 1108 ccbc 54ae 913d
00000210: 847f 853d 9d1b d5be 06e3 57be 8b8b 7bbe
00000220: 3614 78bc 2fc2 6f3d 2d2a 283e 1acf 0e3e
00000230: 9f1c 1f3e b3b1 a13d c782 0f3e 6830 9f3b
00000240: ba1f 2ebd c63c d8bd 6e1a 86be e909 163e
00000250: cda1 643b aea9 fcbc 3383 83bd 0884 cc3d
00000260: dc3e 1fbe 9401 17be 307f 78bc 053b 6ebe
00000270: 38c2 de3c 71b2 bcbd b925 923d 3ada 79be
00000280: 84ff f93d 9eea 713d 76e2 4bba f8e1 d83b
00000290: cdaa 0fbe be0d 463d e56b d63d 25e1 45bc
000002a0: 8364 68be f339 d0bc 4f54 c8bb 3ccc 17be
000002b0: c7e9 273d 02d7 a0be 409d 3cbd 9791 fabd
000002c0: 24e6 343c 46a2 3db9 14d4 933d 9da5 8dbd
000002d0: 3cb5 ad3d 9fdd 78be 5019 a2bc 9439 df3c
000002e0: a65a 20be 8c95 b3bd 3d45 f5bc 990b 2bbd
000002f0: b358 e4bd 3372 3fbd 9137 703d e38a 73bd
00000300: 6b99 e93d 26c7 c9bb 7471 f63d 48ea a3bb
00000310: 6b87 47be 24be bebd e333 1e3e 2012 333c
00000320: 877a 0fbc 62e7 f8bc 1119 5abe 28f9 68bd
00000330: 580c 45be a7df f2bd b801 88bd 4f84 0ebe
00000340: 8f21 883e a8f6 8f3d 53f9 33be 5a3a ebbd
00000350: 6e82 f03d d0af 64bd f772 21be 9962 063e
00000360: e753 eabd ac55 8b3d 3385 073e 74b1 a0be
00000370: 7903 13be cb48 b53b 243c 1cbe affc 62be
00000380: fa54 9f3d 3e9d 34be 1948 a93d b471 debd
00000390: 92d4 ddbd c472 bebd 097c a9bc 432a e33b
000003a0: 6c11 0b3d 522a 053d 3b63 603d 354c 2fbe
000003b0: 7f2d 22bd 4d29 bbbc 2c5d 15be abbd 3cbc
000003c0: b076 ff3c 07cd 3d3e b29b 39be dab2 b23d
000003d0: 01a7 82bd 6b22 5fbd 003e 31bd 7f70 b3bc
000003e0: 2706 92be 30d8 0e3d 78e7 5fbd 0ba2 81be
000003f0: 5354 a1be 151e b8bd 8a1f 91be c9bc dd3d
0.029953776 -0.00021727319 -0.10557535 -0.024240764 0.08819404 -0.4581129 -0.3183752 -0.34156522
-0.5306102 0.34811884 -0.124704406 0.3560629 -0.48449588 0.050421152 -0.051863253 0.004246927
0.0835058 -0.39025688 -0.44408628 0.3267894 -0.08941165 0.022284463 -0.06345863 -0.77491313
-0.352254 -0.10095915 0.14239584 -0.43154874 0.028210377 -0.08762513 -0.011371866 0.009197907
-0.050863508 -0.09620896 -0.2672123 -0.14684294 -0.10824467 -0.024567341 0.09180955 -0.113168284
0.013750087 -0.23947284 -0.24657719 0.07020729 0.08547528 -0.26318845 -0.03135998 -0.12977467
0.17415151 0.003778392 0.0371559 -0.005223904 -0.3162873 -0.3688928 -0.010835964 0.020445697
-0.30532637 -0.025644908 -0.14072455 -0.0014525662 -0.035693724 -0.12902108 -0.28359017 -0.46110663
0.08810646 0.161373 0.04206037 -0.0057177944 -0.17095773 -0.22534679 0.0022711926 0.08163182
-0.031032518 0.067758806 0.092353754 -0.102527976 -0.07170493 -0.4354543 -0.09273325 -0.38018832
-0.08526806 -0.034457073 -0.18068406 -0.33950293 0.17326137 0.06322325 -0.34079668 -0.14467707
-0.47324064 0.046021614 0.1263519 -0.10876043 -0.3459279 0.109174795 -0.12001736 -0.26694584
0.023429746 -0.1525096 0.09223332 0.09864163 -0.07103635 0.07671114 -0.14918417 -0.19943602
0.15952727 -0.1546489 0.17950527 -0.2666403 -0.52065694 0.07352715 -0.024958398 -0.047346946
0.048341956 0.09459376 -0.12998655 -0.027577663 -0.23577149 0.04500316 -0.1786259 -0.24098729
-0.16856131 -0.46386018 0.0030740208 -0.25111508 -0.16707046 -0.12877975 -0.30952606 0.17763826
-0.051700424 -0.011308482 -0.02490619 0.071133286 0.06518462 -0.4162263 -0.21082696 -0.2456495
-0.015141537 0.058534797 0.16422339 0.1394619 0.15538262 0.078952216 0.14014731 0.0048580654
-0.042510726 -0.105584666 -0.2619204 0.14652218 0.003488648 -0.030842628 -0.06421509 0.099861205
-0.15551323 -0.14746696 -0.015167043 -0.23264702 0.02719222 -0.092137225 0.07136101 -0.24399653
0.12206939 0.05906164 -0.0007777581 0.0066187344 -0.14029999 0.04835295 0.10469798 -0.012077604
-0.22694592 -0.025418257 -0.006113566 -0.14824003 0.04099443 -0.31414038 -0.046048403 -0.122348
0.011041198 -0.00018084896 0.07218185 -0.06916354 0.08481833 -0.24303292 -0.01978746 0.027249135
-0.1565958 -0.08768758 -0.029940242 -0.041759107 -0.111497305 -0.04673977 0.058646742 -0.059458625
0.11406215 -0.0061577735 0.12033358 -0.0050022937 -0.19485252 -0.0931361 0.1544948 0.010929614
-0.00875724 -0.03038377 -0.21298625 -0.05687824 -0.1924299 -0.118590645 -0.06640953 -0.13917659
0.26588103 0.07029468 -0.17575578 -0.11485739 0.117436275 -0.05583173 -0.15766512 0.1312355
-0.11441784 0.0680345 0.13234405 -0.31385386 -0.14356793 0.0055323592 -0.15257317 -0.22166704
0.0777988 -0.17638108 0.08265705 -0.10861531 -0.1083156 -0.092992336 -0.020689027 0.006932528
0.03395216 0.032511063 0.054782134 -0.17118914 -0.03959417 -0.022846842 -0.14586323 -0.01151983
0.031184524 0.18535243 -0.181258 0.087255195 -0.0637951 -0.054476183 -0.04327202 -0.021904228
-0.2852032 0.03487414 -0.054664105 -0.2531894 -0.31509647 -0.08990113 -0.28344375 0.108270235

network_body._body_endoder.seq_layers.2.bias f4 [128]
00000000: 483d 803d 9774 933d 83ce ac3c 87a3 a33c
00000010: dc83 ec3d 854f b7bc 0a3b 75bb e3e7 443a
00000020: 99ef 303e ba7c b6bc cccf 87bb 9179 45bd
00000030: 9d27 56bd bd1c 683d 1d92 9e3d 6603 463d
00000040: 5820 4fba 438a 4a3e b732 043e 2288 3a3e
00000050: f7f9 443e f7ba ac3d cea1 883d 248d 1dbd
00000060: 2f39 803c bd1a 2a3d 63c4 8c3d 53d8 b73d
00000070: 23a1 1bbc b5ba 033d 4e3f 283d 06af 713d
00000080: a96e ea3c 1ec3 553d 149d fbbc ebd3 b0bc
00000090: 07f2 22bd cc0c cd3c ddf6 8a3e 452f 83bd
000000a0: c8c2 5d3d 6333 313d 9b61 03bd 2ac2 8e3d
000000b0: dd1d 003d 0e1f a63d dfd1 bebb 27ff 003d
000000c0: 452f 3a3c 8665 ef3d 45ee 6c3e a7bc 633d
000000d0: 6073 2f3b 5949 683e ce75 3c3e 2937 2ebd
000000e0: 90e7 5ebd 98ca 7d3d 73b7 233d 55c4 ad3c
000000f0: aabf b33c 3168 763d d125 af3d a6e1 193d
00000100: ec29 13bd ed8f 1abd 8e3b 333d 1108 c73c
00000110: 7e28 b0bd 1412 d13d 13dc a3bd f393 fabc
00000120: 4b9c 923d 484e 8b3e 7328 03bc 0cdd c0bc
00000130: e451 9f3e 28c9 cabc 033e 313d 2682 933d
00000140: 616a 1dbc 3328 513d facd 7c3c e176 6a3d
00000150: 6e2b 56bc 6637 20bc 145d f4bb 4844 373d
00000160: 8a97 d63d 1dab 85bd ada1 afbc cabd 8f3d
00000170: f893 a83d 9b3d 1c3c 13f2 11bd f54e 44bb
00000180: ef87 b33c 4a4e 23bd ac74 573e 5983 a43d
00000190: 8f46 debb 1d0f e53c 6f3e 1fbd 03f1 353d
000001a0: 23da 0bbd 5275 b93d 4f79 eb3a 6954 fd3c
000001b0: 067b 47bb 1485 b43d c19a de3b 5a7d 78bd
000001c0: 283e 613d 5825 42bd b0c4 833d 3229 d33d
000001d0: 3b7e 2a3c feeb 893d 99cf 993d 81a8 b8bb
000001e0: c863 303c fec0 1f3e 1af7 593d ba81 a53d
000001f0: 3056 1bbd f6ea e43c 5baa 873d f840 53bd
0.062616885 0.07199972 0.021094566 0.019975437 0.11548588 -0.022376785 -0.0037419223 0.00075113605
0.17278899 -0.022276271 -0.0041446444 -0.048211638 -0.052283872 0.056668032 0.07742713 0.048343085
-0.0007901243 0.19779305 0.12909971 0.18215993 0.19235979 0.08434098 0.06671487 -0.03846468
0.015652267 0.041529406 0.06873395 0.089768074 -0.009498867 0.03216048 0.041075997 0.059004806
0.02861722 0.05218803 -0.03071455 -0.021585425 -0.039781597 0.025030516 0.27141467 -0.064055
0.054140836 0.043261897 -0.032075506 0.069706276 0.03127848 0.08111392 -0.0058233584 0.031493332
0.011363809 0.11689286 0.23137768 0.055599835 0.002677165 0.2268423 0.18404314 -0.042533074
-0.054420054 0.061960787 0.039969873 0.021211782 0.021941978 0.06015796 0.08552135 0.03756871
-0.03592865 -0.037734915 0.043757968 0.024295839 -0.08601473 0.10208526 -0.0800096 -0.030588126
0.07158717 0.2720816 -0.008005249 -0.023542903 0.31117165 -0.024754122 0.04327203 0.07202558
-0.009607882 0.051063728 0.015429968 0.057242278 -0.013071878 -0.009778833 -0.007457385 0.044742852
0.104781225 -0.06526778 -0.021439398 0.07018621 0.08231348 0.009536172 -0.03563125 -0.0029954289
0.021915404 -0.039869584 0.210406 0.08032865 -0.0067833136 0.027961308 -0.0388779 0.0444193
-0.03414358 0.0905558 0.001796523 0.030924039 -0.0030438318 0.08814445 0.0067933504 -0.06066642
0.054990917 -0.047398895 0.064339995 0.10310592 0.010406072 0.06734465 0.07510299 -0.0056353216
0.010765977 0.15600964 0.05321417 0.08081384 -0.03792399 0.02794407 0.066242896 -0.05157563

action_model._discrete_distribution.branches.0.weight f4 [3, 128]
00000000: 40f8 15be df0e 373d 3b6e 66bc c193 20bd
00000010: 4dc9 b93d 389f a33d b0a5 65b9 bd81 1abc
00000020: a7f5 693c 65f9 203d 4664 f9bc 235a 77bc
00000030: dfc9 8abe 8998 083c 938e b8bd 2bdf 853d
00000040: d8ec 7e3b 9eb6 19bb 3c03 493d e713 07be
00000050: 365c 45be ecbd 9bbd 6ab7 203d d19a f0bb
00000060: d631 263d faca 95bd 7557 e8bd 00cd 7bbd
00000070: 7723 023c be32 21bc e0cc 353d f0d8 1fbe
00000080: a33a 553c d354 c33c 8942 aabb 4358 0dbd
00000090: 6c12 cbbd 3501 2a3b 1317 af3d 6cb7 95bd
000000a0: d496 e3bd f95c fd3b d685 5fbd 9d40 e0bd
000000b0: 72b2 4f3c 7a1d 363a aba7 e7b8 091b 28bd
000000c0: ab56 dbbd f8e6 ac3d f67b d5bd b383 f1bd
000000d0: e17a cf3c 3464 e73c 5299 8cbc c794 0ebd
000000e0: d74f eebd b88f 19be 4424 ccbc 61dc ba3b
000000f0: 44d1 1fbd 2e07 74bd b507 ad3c 1b53 b83c
00000100: a409 333d f947 a2bb e3db 8c3c ec1e 79bc
00000110: 1152 fabd f253 97bb 06de cabd 5ffc d43b
00000120: 039b 5c3c 7fab 2dbc 3078 4aba 9a6e 073e
00000130: 7e71 8d3d 60f6 123a bdff 89bc cbb3 bcbc
00000140: f262 65bd 44bc 233c b2b2 ab3c ab24 3abc
00000150: 12eb cbbd df11 793a fc85 c0bc c579 673c
00000160: cc75 303d 0e04 5fbd ccbd 273c fb71 7e3d
00000170: d051 c4bd 7e2f d33c d584 84bd e0e3 4a3c
00000180: 8335 41bc e626 93bb 886b 1dbe de6f 8b3c
00000190: f07e 41bd 5d3c f33b 5460 ffbd bbc4 a8bc
000001a0: 40a0 cc3d a8a1 633d 9eea 5f3b b4fb 8fbb
000001b0: a6c0 b43c 5af7 543d 0ba2 9cbd 4ed7 f6bd
000001c0: 3568 803b 48ac 80bd b7bd cebb 87da 5e3d
000001d0: 1f5a 3b3c eab3 9c3d 4fbd b3bd c610 c4bd
000001e0: 3959 613c 9763 9bbd be19 8dbc fea2 1b3d
000001f0: 0374 563e 901f b1bb d650 c73c 71ef 04be
00000200: c270 ff3c c506 f53d e6dd 1dbd 7d63 ccbc
00000210: d688 543e 350e 013c 8585 25bb 27cd 103d
00000220: 1e4c 0fbd 5afe eebc cd78 313d 8452 1d3a
00000230: 62ea 703e 31b3 2d3d 2bde fc3d 1ea1 953d
00000240: b166 08bd c8f9 72bd 0952 c63e 01fb 8cbe
00000250: 4ae2 f2be d39e 0fbd 5e03 c23d 4543 623d
00000260: 71e4 333d ff8a e33d c271 91bc b86a fb3d
00000270: 7e89 cfbb 5e61 8a3d 1e2a 7a3d 33df 403d
00000280: c437 983d a15a c23d bdf3 9c3c e24b ec3c
00000290: 4b80 6f3d 05d2 293d 8745 6abe 4dee 923d
000002a0: 1aaa 1d3e dc03 9f3d 3958 b7bc 255f 273e
000002b0: 6f29 5f3d 4190 5fbc 8181 0fbc ec5d 44bd
000002c0: c305 4b3d 4db2 8b3e 8c05 cfbe fb39 1e3e
000002d0: ce16 3ebc 3918 e5bd 3fe2 09bd 42fa 20bd
000002e0: 7844 d23d 670b 5dbb 5488 9a3d 5adf 12bd
000002f0: 7353 5dbd 34c0 8cbc d0f8 8dbc 63f3 0dbc
00000300: bb3d 3ebe 8f27 d0bb 6672 9b3d 9a4b 663d
00000310: 108e 9e3e 2404 b23c d73b 813d d608 a4bb
00000320: d8f9 94bc 7ee3 67be 3905 f33c 78d7 d7bc
00000330: e313 92be de61 59bd 3e2f 8b3d 3d32 f3bd
00000340: 7e64 8e3d 7512 ac3d be48 c0bd 2b4c d53d
00000350: 3f87 543e c2ef 68bb fb68 603c 28e5 ab3d
00000360: 767e 2f3e 0ab3 af3d 8a03 40bb 211c 303e
00000370: 3a75 dbbc 8993 533d 41df 3d3d 3725 873d
00000380: b7ef 3abb 038e 1a3b d3ba c4be 1ed8 023e
00000390: 24e3 a93b 4177 8e3d 2d24 5f3d d5fd 9f3d
000003a0: ebb8 debe a18d 343e 8548 d73c 0c6d 2cbd
000003b0: 8018 af3c 337e 1f3e b127 663c 0d90 283e
000003c0: d10e d1bd aa9f 223d 6619 053d c66b 4a3e
000003d0: 49c0 d43c 718a 953e 32c6 1cbd 047f 2a3e
000003e0: 6d98 893d 43cb 5bbe 4394 cd3c 2938 5d3d
000003f0: a21b dbbe 6d6b 323d e5c8 6e3d 2d6c a23e
-0.14645481 0.044691917 -0.014064367 -0.03920341 0.09071598 0.07989353 -0.00021900865 -0.009430346
0.0142797595 0.03930034 -0.030443322 -0.015097174 -0.2710714 0.008337148 -0.09011569 0.065367065
0.0038898494 -0.0023454796 0.04907535 -0.13191186 -0.19273457 -0.07604584 0.039237417 -0.0073426743
0.04057487 -0.07314105 -0.11344806 -0.0614748 0.007943026 -0.009838758 0.044384837 -0.15610099
0.013014468 0.023844158 -0.00519592 -0.034508 -0.09915623 0.002594066 0.08549323 -0.073103756
-0.111127526 0.0077320305 -0.054570995 -0.10949824 0.012676822 0.00069471414 -0.00011046169 -0.041041408
-0.1070989 0.08442491 -0.10424034 -0.11792698 0.025327148 0.028246023 -0.017162953 -0.034809854
-0.11636322 -0.1499623 -0.024919637 0.0057025407 -0.03901793 -0.05957716 0.021121839 0.022500565
0.043710366 -0.0049524275 0.017194694 -0.015205126 -0.12222684 -0.0046181614 -0.09905629 0.0064998115
0.013464692 -0.01059997 -0.0007723598 0.13225785 0.069064125 0.0005606171 -0.016845578 -0.02303495
-0.056002565 0.0099936165 0.020959232 -0.011361281 -0.099569455 0.0009501259 -0.023501389 0.014128153
0.04308109 -0.054447226 0.010238122 0.06212042 -0.09585917 0.025779482 -0.06470648 0.012383431
-0.011792543 -0.004490721 -0.15373051 0.017021116 -0.047240198 0.0074229673 -0.12469545 -0.02060162
0.09991503 0.05557409 0.0034166942 -0.004394019 0.022064518 0.051993705 -0.07648095 -0.12052785
0.0039186724 -0.0628286 -0.006309237 0.054407623 0.011435061 0.076515034 -0.08776342 -0.09573512
0.0137541825 -0.07587355 -0.017224189 0.03799724 0.20942692 -0.005405374 0.024330538 -0.12981965
0.031181697 0.11964182 -0.038541697 -0.024949783 0.20755324 0.007876922 -0.0025256586 0.0353519
-0.0349847 -0.029174019 0.043328095 0.00060013705 0.2352691 0.04240722 0.12347063 0.07306121
-0.03330106 -0.05932024 0.38734463 -0.2753525 -0.4743827 -0.035063576 0.094732985 0.055239934
0.04391903 0.11110496 -0.01775444 0.12276214 -0.006333529 0.067568526 0.061075322 0.04708786
0.074325114 0.09489942 0.019159192 0.028844777 0.05847196 0.041460056 -0.22878085 0.071743585
0.1539692 0.07764408 -0.022380935 0.16344889 0.054482874 -0.013645233 -0.0087589035 -0.047941133
0.04956604 0.2728447 -0.4043392 0.15451805 -0.011602117 -0.11186261 -0.03366303 -0.039301164
0.10266966 -0.003372872 0.07545534 -0.035857536 -0.05403466 -0.017181493 -0.017330557 -0.008663985
-0.18578236 -0.006352372 0.07590179 0.056224443 0.3096776 0.02173049 0.06310242 -0.005005936
-0.018185541 -0.22645375 0.029665576 -0.02634786 -0.28530797 -0.05307185 0.0679612 -0.118748166
0.06952761 0.08401958 -0.093888745 0.104149185 0.20754717 -0.0035543297 0.013696904 0.083933175
0.17138085 0.08579071 -0.0029298984 0.1719823 -0.026789296 0.051654372 0.04635549 0.06598895
-0.002852423 0.002358318 -0.38423786 0.12777755 0.005184548 0.0695634 0.05447786 0.078120865
-0.43500456 0.17632152 0.026279697 -0.042096183 0.021373987 0.15575485 0.014047549 0.16461201
-0.10207904 0.03970305 0.032494925 0.19767675 0.025970595 0.29207185 -0.03827495 0.16650015
0.06718526 -0.21464257 0.02509511 0.054008637 -0.4279452 0.04355948 0.058297057 0.31723157

action_model._discrete_distribution.branches.0.bias f4 [3]
00000000: a2dc 713c 605f 32bc eeb1 5dbc
0.014762076 -0.010886997 -0.013531191

action_model._discrete_distribution.branches.1.weight f4 [2, 128]
00000000: 5f01 6ebc d685 0b3d ef8d 16bd b17c 52bd
00000010: fa60 0b3d 5b27 0abd e18b d3bb fd0a 78bc
00000020: 5729 9dbd 3e1d 3cbd fce7 c03b b2d1 2d3c
00000030: 230b 133e 9b7f 0bbd 67cc 2abd c12f 1b3d
00000040: 2318 76bc 38f5 aebd bda7 973d ad92 19be
00000050: 851b 18be 5214 88bd 8b0d 393d e926 913c
00000060: f0e9 db3c 234f 7cbd 71db 44bd 74eb 43bd
00000070: 8f7c 87ba d2c1 8ebb c55d d83c 2c8a 2dbc
00000080: 6d32 b3bc 3aec 893b 28c2 5d3d d95c 423d
00000090: 7ec9 a23d 9ec6 44ba 6e89 48be 4c5d de3d
000000a0: 8498 b7bd c2c2 debc 3ff0 dc3d bfbc 23bd
000000b0: 1a8d 32bc 7844 42bc cbba 00bb 4c8a 843d
000000c0: b9a7 8b3b da24 963d eed7 0fbe aeae 85bd
000000d0: c64b b73a 81c6 0fbe 4bee aebd 5bb4 023e
000000e0: a358 043e 1b92 abbc 4bfd b13d 3e01 20bd
000000f0: 62ca bf3d 102f b9bd 69da 403e 3153 883d
00000100: 5a59 cdbb 9ee9 84ba 34d3 b3bc 7299 1ebd
00000110: 5b39 4c3e 7fe8 0f3e 40ce 1c3d 40e6 253b
00000120: f4e5 12bc 8c05 023d c01b 663b 839d 9d3c
00000130: c27e 7dbe ff35 58bb fee8 d1bb a3f9 50be
00000140: 5a88 5a3d e885 3f3d a489 493e c565 863d
00000150: 510a 85bc b399 433c d0a4 3c3d 6e8e 9abc
00000160: 655a 443d ce4b 0a3e 0bc1 173a 5125 253e
00000170: 410c 4fbd 0db3 dcbc b7b4 9b3c 043f 9a3c
00000180: e89c b73c bf43 0abc bf06 37be 2eb4 193d
00000190: 8434 a53c ce19 b8bc bcf3 b83d 5b70 2e3d
000001a0: db79 cabd 7d10 023d cd99 0ebc 51a2 473e
000001b0: b22f d6bc 85e8 de3c 104e 6c3c 50a9 1e3e
000001c0: fd78 343d ee0b 963d 5783 193e 4f05 083d
000001d0: 0bab 5cbc 3d7c 0b3d ca90 7dbd d2b2 873c
000001e0: eb1a 153b 330a 2fbe 387a 8e3d bcd1 2d3d
000001f0: 954b cebd 30e8 9cbb d4d2 323d 0334 11be
00000200: b1cb 903c 7616 27bd 5204 053d 7eed 523d
00000210: d759 5abd dc26 1c3d 6322 113c c473 e63c
00000220: 0f23 963d 81c8 233d 6ba6 9d3a c8cc 0abc
00000230: beab 0ebe 9cf4 b53c ca33 ef3c 3a7e fcbc
00000240: ee4c 253c f5ad 843d 721d abbd 4b40 1b3e
00000250: 9418 253e 5535 923d 256f 31bd 367e 01bd
00000260: defb 1ebd 66e8 793d 4bb5 433d d6c3 8c3d
00000270: 5c4a a3ba e02e a53a f5d0 27bd e1f8 793c
00000280: 748e fc3c 90cc 30bc db4d 82bd 8135 cdbc
00000290: 92d2 b1bd f04e 5bbb 011f 533e f3b6 f4bd
000002a0: 390e 8b3d e21d ee3c 9efe dabd 3a59 7b3d
000002b0: 58c9 5f3c 64e2 073c c91c debb beaf 73bd
000002c0: 62df eaba ea0f 93bd 06f1 1b3e f0ec 893d
000002d0: a667 693c 876f 043e 8468 b53d 11dd e5bd
000002e0: c5c4 ecbd 7e17 353c 0b7d babd 616d 4e3d
000002f0: 090f b7bd f72f 953d c920 53be b06b 8dbd
00000300: 3df9 4f3c e13d 2cbb e320 803c 2597 123d
00000310: e09d 43be 8792 11be f58f d2bc 8ae2 233c
00000320: 2f9e 463c c53f 3cbd c218 99bb 237d 503c
00000330: f328 853e 5b78 0b3b 4bca 3e3c 4721 503e
00000340: d12a 3abd 7a51 0cbd cdda 4fbe 1187 5cbd
00000350: d2c3 fb3c 102a 503c f2a9 24bd 8149 ae3c
00000360: bb2c 81bd 96be f9bd 14a8 32bb 0829 21be
00000370: 4dfe 483d b49c f93c f773 e3bb 164e 833a
00000380: 8f81 c5bc 0a3a 0ebc 5418 393e a403 36bd
00000390: 73d0 2ebd ba06 503c 5761 d5bd a1b4 86bd
000003a0: a399 8f3d 29c2 03bd ce7c 273c a7c3 2ebe
000003b0: 1620 ae3c ca85 17bd 4d56 f7bc 59cb 18be
000003c0: 69c0 4bbd c91e 98bd c6ee 0bbe 0481 7dbd
000003d0: 25a7 173c f22f f5bc 0419 8f3d 854f acbc
000003e0: 31cb 2f3c 975a 2b3e 3e9b a2bd 7160 15bd
000003f0: ff82 c23d cac7 683c 194f 55bd c5d4 ec3d
-0.014526694 0.034063183 -0.036756452 -0.051388446 0.03402803 -0.03372894 -0.006455884 -0.015139339
-0.076739006 -0.045926325 0.0058870297 0.010609077 0.14359717 -0.03405724 -0.04169884 0.03788734
-0.015020403 -0.085428655 0.074050404 -0.14997359 -0.14854248 -0.06644501 0.04517893 0.01771875
0.026844949 -0.06159891 -0.048060838 -0.047831967 -0.0010336804 -0.0043566013 0.0264119 -0.010592025
-0.02187463 0.0042090686 0.05414024 0.047451828 0.07948588 -0.0007506403 -0.19583675 0.10857639
-0.08964637 -0.027192477 0.10788011 -0.039974924 -0.010897899 -0.011857145 -0.0019642587 0.064716905
0.0042619375 0.07331248 -0.14047214 -0.06527458 0.0013984374 -0.14040567 -0.085415445 0.12764113
0.12924437 -0.020943692 0.0869089 -0.039063685 0.09364773 -0.090421796 0.18833317 0.066564925
-0.006266755 -0.0010140424 -0.021951295 -0.038720556 0.19943754 0.14053534 0.038282633 0.0025314242
-0.008965958 0.03174357 0.0035111755 0.019240147 -0.24755386 -0.0032991169 -0.0064059487 -0.20407729
0.05335269 0.046758562 0.19681412 0.0656238 -0.01624027 0.0119385 0.046055615 -0.018866744
0.04793777 0.1350548 0.00057889585 0.16127516 -0.050548796 -0.026940847 0.01900707 0.018828876
0.022413686 -0.0084390035 -0.17873667 0.03752535 0.020166643 -0.022473242 0.09030864 0.04258762
-0.09886523 0.031754006 -0.008703661 0.19495513 -0.02614579 0.027210483 0.014422908 0.15494275
0.044060696 0.07326494 0.14991508 0.033208188 -0.013468514 0.03405403 -0.06190566 0.01656476
0.002275164 -0.17093734 0.06956905 0.042436346 -0.1007301 -0.004788421 0.043658093 -0.14179997
0.017675253 -0.040792905 0.032474823 0.05149602 -0.053308334 0.038122997 0.008858296 0.028131373
0.07330906 0.039986137 0.0012027746 -0.008471675 -0.13932702 0.022211365 0.0291995 -0.030821908
0.010089142 0.06478492 -0.083552256 0.15161245 0.16122657 0.071390785 -0.043318886 -0.031614505
-0.038814418 0.061012648 0.047780316 0.0687329 -0.0012458074 0.0012602471 -0.04097076 0.015257091
0.030829646 -0.010790959 -0.06362506 -0.025049927 -0.08682741 -0.0033463798 0.20617296 -0.11948957
0.06789822 0.029066984 -0.106930956 0.06136439 0.013658844 0.008293722 -0.006778334 -0.059493773
-0.0017919356 -0.0718077 0.15228662 0.06734645 0.014245903 0.1293317 0.088578254 -0.11223806
-0.11560968 0.011052964 -0.09105881 0.05039728 -0.089384146 0.07284539 -0.20617975 -0.069053054
0.0126937 -0.0026282 0.015640682 0.035788674 -0.19103193 -0.14216052 -0.02570341 0.010002742
0.012122675 -0.045959253 -0.004672141 0.012725147 0.26007804 0.0021281454 0.01164491 0.20325194
-0.04545099 -0.03425739 -0.2029831 -0.053839747 0.030733023 0.012705341 -0.040201135 0.021275284
-0.0630736 -0.121945545 -0.0027260827 -0.15738308 0.049070645 0.03047023 -0.0069413143 0.0010017778
-0.02410963 -0.00868083 0.18075687 -0.044437066 -0.04267926 0.012696916 -0.10418957 -0.06577421
0.07011726 -0.032167587 0.010222627 -0.17066823 0.021255534 -0.036992826 -0.030192519 -0.14921321
-0.049744043 -0.07427747 -0.13665304 -0.061890617 0.009256159 -0.029930089 0.06987193 -0.021034012
0.010729597 0.16733776 -0.07939766 -0.036468927 0.09497642 0.01420779 -0.052077387 0.1156402

action_model._discrete_distribution.branches.1.bias f4 [2]
00000000: 305d 1c3d 555b 1cbd
0.038174808 -0.03817304

q1_network.network_body._body_endoder.seq_layers.0.weight f4 [128, 3]
00000000: c124 543c 7eec 15bf 1319 d8bd 3e10 7cbe
00000010: 7070 1bbf f926 b23c 5f7b 14bf f2e3 ae3e
00000020: d326 ccbe a96c 37bf 91ed 37be 530b 353f
00000030: a836 333b 5d83 8c3d 7bfb 09be 0c40 c63e
00000040: d9ac 8dbe 8f8f ae3e 02b4 723e c4cc edbe
00000050: a1ec 8b3e e2da d9bf 961c af3e 2a5c 06bf
00000060: a3bc 40bf 685d 63bf c2c7 133f a3af b73e
00000070: b190 1bbe 12b6 063f 2dd5 173e 96ca ecbe
00000080: 15c8 dc3d e802 acbe 3c5b 8c3e 987d d8be
00000090: f0f9 cf3d 8dde 073f 00d6 49be cb8d 26bf
000000a0: 3a9b 9dbf 3997 833e 9a78 70bf c532 ecbe
000000b0: e213 c03e fba9 f53e 2dc0 133f 8f6f ebbe
000000c0: 02af e6be 72af ffbe 9a48 293f bc7d ce3f
000000d0: 7ec3 8cbf 63f3 033d f35e 11bf f818 6e3e
000000e0: 2277 7c3f 99bd f1be 2593 e8bd 2429 62be
000000f0: 99dc ae3d 38f3 f63e 25d0 213f 60ed bbbb
00000100: 7c16 303e cb49 ae3e e63e 093f 8ae4 b43e
00000110: fc41 f63e afb4 293f d3cd aa3f 72cc 1fbf
00000120: f7c9 383e db8d 913f 6745 8f3f 8bd1 50bd
00000130: d82c ce3d 23e0 0c3f cee9 103f 24f2 e03e
00000140: 66a5 67be 981a 70be fbff 973e ba2a 9bbf
00000150: 7de6 c0bd 3cc2 333e 314b 8f3d df4d 30bf
00000160: 6d72 02bf 864a 3fbe 8eab 8cbe 83d7 68bf
00000170: 82d0 123f db58 d1bd 8824 9d3e ed7e b0be
00000180: 9bb0 22bf 8fdb 9e3e 5d67 393f d358 843d
00000190: 56dd ad3e f8b2 22be 4d58 05bf 029c cebe
000001a0: 72fb 193f f500 4abe 3e82 67bf c389 77bd
000001b0: ce91 5ebe 0cfb 023f 124b f6bd d56c a3be
000001c0: 982f 90bc b2ce 82be d2b9 29bf ff91 b9bd
000001d0: 5b43 a93e 593b 7cbf 4333 293f b46f 89be
000001e0: b44e e43d 3491 5abf 1101 f53e 37e4 8abe
000001f0: 909b 24bf c4e1 34bd c587 363f eb10 05bf
00000200: 9d16 b2be 88f1 1bbe ac7c db3e c781 343f
00000210: 97fe 02bf b30f 2f3f f10f 833e 0d5c 0c3f
00000220: d49e eb3d 5cc7 753e 4156 d4be b040 7a3e
00000230: 60e2 c5be f141 04be 75ef 153f ca06 bc3e
00000240: 159b 053f eeef 693e 24e2 573d 2133 1a3f
00000250: 5311 aa3e 5b87 e0be 89f0 863e ba70 64be
00000260: 9646 63bf 9c23 f2be d878 6dbd 6622 7c3e
00000270: 2fb4 5cbf 6687 d7be 9e9c d53e 3f38 df3e
00000280: 50f9 5fbe 24a0 413f 9144 f53e 5169 0d3f
00000290: 7190 03be 9c0e f33e 3fe6 59bf d2b2 cebe
000002a0: 4b96 20be cded 19be 19e8 dd3a 6927 973e
000002b0: 4edc 473e b367 8fbe 93ee 13bf b9fb 813c
000002c0: ea61 8e3f 34f7 d2be 4585 1b3f 6cc4 9bbd
000002d0: 1c5e c43e 4aa1 b83f e624 803e e2f9 063e
000002e0: 140c 263e 6a34 3cbe 9409 173e 0f73 023f
000002f0: d80b 4dbe 4fca aebf 44d0 e8be bdbf 28be
00000300: 2901 9dbe c079 7a3d 780c cbbe d1ab 813d
00000310: bed0 953e 5eec 6dbd 1e63 8dbf ac43 443f
00000320: 57bd 80be 935c 82bf 4f65 a33e 7ec5 bbbe
00000330: c908 94bf 78a3 ae3f 140b acbe 3677 cb3e
00000340: afbf 153f 923e 05bc f453 eebe b213 1a3f
00000350: aeb1 9e3e 7452 593e def3 bb3e 0bad 76be
00000360: 8891 8cbf 3739 c5be 8534 b53d aa57 e7be
00000370: 68e0 c43d 7d61 9abe 8b5a 43be 0890 713f
00000380: a15a fd3d ed12 bebd 2deb 8dbf 6dfd 64bd
00000390: 631b a93f 5542 1e3f 5884 82bf 8e05 fc3e
000003a0: af4c d2bd 6326 993f 4999 1a3f 3b93 a93f
000003b0: 3d36 343e c1c6 623f 2d62 953e 2a0e 1c3f
000003c0: 1a0a 9fbe 0f47 a3bf 8818 60bd cf2e 0b3f
000003d0: 37a2 37be d200 8bbf 9442 02be 866c 60be
000003e0: 2567 00be 570d 853e 889a 71bf 493a 343e
000003f0: ddf0 3dbf a662 c2bf 8230 90be 015b 47be
0.012948216 -0.58563983 -0.105516575 -0.24615571 -0.6071844 0.0217471 -0.5800075 0.34158283
-0.3987337 -0.7165018 -0.17961718 0.70720404 0.002734581 0.06860993 -0.13474838 0.3872074
-0.27670935 0.34093902 0.2370148 -0.46445286 0.2732897 -1.7019923 0.34201497 -0.5248438
-0.75287837 -0.888144 0.5772668 0.35876188 -0.15191914 0.5262157 0.14827414 -0.4624831
0.1078035 -0.33595967 0.27413356 -0.4228332 0.10155094 0.5307396 -0.19710541 -0.6506011
-1.2312996 0.2570131 -0.93934023 -0.46132484 0.3751517 0.47981247 0.5771511 -0.4598355
-0.45055395 -0.49938542 0.66126406 1.6132121 -1.099716 0.032214534 -0.56785506 0.23251712
0.9861928 -0.47214964 -0.113561906 -0.22086006 0.085381694 0.48232436 0.6320823 -0.0057350844
0.17196077 0.34040675 0.536116 0.3533061 0.48097217 0.66291326 1.3344063 -0.62421334
0.18045793 1.1371416 1.1193055 -0.050981086 0.10067147 0.55029505 0.5660676 0.4393474
-0.22621688 -0.23447645 0.29687485 -1.2122414 -0.09418962 0.17554563 0.069967635 -0.6886882
-0.5095585 -0.18680772 -0.27474636 -0.90953845 0.5734941 -0.10222026 0.30691934 -0.34471837
-0.6355073 0.31026885 0.72423345 0.064622544 0.33957928 -0.15888584 -0.5208786 -0.403534
0.601493 -0.19726928 -0.9043311 -0.060434114 -0.21735308 0.5116432 -0.12026037 -0.3191897
-0.01760082 -0.2554832 -0.66299164 -0.0906105 0.330592 -0.9852806 0.66093844 -0.26843035
0.11147824 -0.8537781 0.47852376 -0.2712724 -0.6429987 -0.04416062 0.7130092 -0.5197894
-0.34782878 -0.15228856 0.42868555 0.70510525 -0.51169723 0.6838333 0.255981 0.5482796
0.115049034 0.24001831 -0.41472057 0.24438739 -0.38649273 -0.1291578 0.5856851 0.3672393
0.5218976 0.22845432 0.0527059 0.60234267 0.33216342 -0.43853268 0.2635539 -0.22308627
-0.8877958 -0.47292793 -0.057976574 0.24622497 -0.8621244 -0.42095488 0.41721052 0.435976
-0.21872449 0.7563498 0.47903875 0.55238825 -0.12848069 0.47472084 -0.8511695 -0.40370804
-0.15682332 -0.1503212 0.0016930132 0.29522255 0.19517633 -0.28008804 -0.5778591 0.015867101
1.1123631 -0.41204226 0.6075023 -0.07605824 0.3835305 1.4424222 0.2502815 0.1318126
0.16215545 -0.1837937 0.14749748 0.50956815 -0.2002405 -1.365549 -0.45471394 -0.16479392
-0.30664948 0.061151266 -0.3965795 0.063315995 0.2926082 -0.058086745 -1.1045873 0.7666576
-0.25144455 -1.0184501 0.3191323 -0.36674112 -1.1565181 1.3643637 -0.33602202 0.39739388
0.5849561 -0.008132594 -0.46548426 0.601863 0.30994934 0.2122286 0.36709493 -0.24089448
-1.0981913 -0.38520214 0.08847908 -0.4518407 0.096131146 -0.30152503 -0.19077508 0.943604
0.12370802 -0.092809536 -1.1087395 -0.05590575 1.3211483 0.61819965 -1.0196638 0.49222988
-0.102685325 1.196484 0.60390145 1.3248056 0.17598815 0.88584524 0.29176465 0.6095911
-0.31062394 -1.275606 -0.054710895 0.543683 -0.17932974 -1.0859625 -0.1272071 -0.21916398
-0.12539347 0.2598674 -0.9437642 0.17600359 -0.74195653 -1.5186355 -0.2816201 -0.19468309

q1_network.network_body._body_endoder.seq_layers.0.bias f4 [128]
00000000: 6c36 3e3e cee5 1dbc c0f2 a23e 6d86 81bd
00000010: 4be8 dd3d f9ba b3bc 8993 4abc 5779 b83d
00000020: 6285 1abc 82eb 06bd 1be1 68bd e39f 863e
00000030: e6db bc3d 2cf2 00bc ef9a 2bbb 697a 413e
00000040: 9123 9ebc 5a61 30bd b79f 92bc 8c09 d4bc
00000050: d8a4 8cbc 88f9 113c 52aa 19bd 36d9 b93e
00000060: 3a7e f7bc 74e4 12bd fafe b4bc f66a 2b38
00000070: f20d 30bd 17f3 a43e 37e3 edbc ab06 a33e
00000080: 8ead 07bd 958f 973d f0e2 e2bc dc0c 333d
00000090: 8147 dc3c 953e 1d3e 261b 9b3c d022 e83e
000000a0: 8a77 9fbc 150b cb3c ca32 32be 3a82 2fbd
000000b0: c335 cfbc c847 bbbc 9a14 173e 78e1 63bd
000000c0: 1d2c 2f3c f930 8c3e ccd7 c13b a85f 29bc
000000d0: 13f6 2cbd 073d 38bd 1fa1 b5bd 8aec cc3e
000000e0: 5f61 f8bc 79ef 183d 17ec 79bd 5e9d cc3d
000000f0: a722 49bd 1592 b8bc df22 ee3e 8b46 323d
00000100: 0d89 9c3e a43a 353c 2edc a43d 23a2 6a3d
00000110: 6770 2c3e 5f0e 44bd f35f a4bc d9f3 f23d
00000120: c8bd 0d3d 18fd 663e f284 ddbc a7a2 6d3d
00000130: 4651 53bd 7b86 51bd b6ac 55bc c18a b4bc
00000140: 8f3e e1bb 4746 063c 2e2c 7a3d 9481 cebc
00000150: 6803 ab3e 33fe 80bd 58fe 9c37 9de2 debd
00000160: ba7e ea3e ce09 2abc a4fb 8ebb f2f4 9aba
00000170: 2647 f6bc e006 6cbc 5f04 fc3d 31ce 783e
00000180: 2cba 32bd 6906 0b36 3f8a 34ba a06f 903e
00000190: cc1c be3e 3cad 543e dff5 1f3e 8776 36bd
000001a0: 2439 c7bc f6fc adbd 104d 793e 6c7b bc3e
000001b0: 0700 e43d 9d22 2d3e 7567 babb d0c9 6f3e
000001c0: 222b 77be acb7 b2bb 50c0 473e b2a8 813e
000001d0: 6978 35bd c583 babd 2661 7fbc 6411 033e
000001e0: c3da b93c 88e7 443e 7b40 c43d 72ae 573e
000001f0: a2fe 823e 340c 9fbd 830e cc3b 71f2 1dbd
0.18575448 -0.009637309 0.3182583 -0.06324468 0.10835322 -0.021939741 -0.012364277 0.09007519
-0.009431215 -0.03293944 -0.056855302 0.2629386 0.0922163 -0.007870238 -0.0026184877 0.18894352
-0.019304069 -0.04306159 -0.017898424 -0.025883459 -0.017168447 0.008909591 -0.037515946 0.3629853
-0.030211557 -0.0358624 -0.022094239 4.0869192e-05 -0.04298205 0.32216713 -0.029039009 0.31841025
-0.0331245 0.07400433 -0.027696103 0.043713436 0.026889564 0.15355904 0.018933844 0.4533906
-0.01946618 0.024785558 -0.17402187 -0.042848803 -0.02529419 -0.022861376 0.14753953 -0.055634946
0.01069167 0.27381113 0.0059156176 -0.010337748 -0.042226862 -0.044980075 -0.08868622 0.40024215
-0.030319868 0.037337754 -0.06101617 0.09990953 -0.049105313 -0.022530595 0.4651098 0.043524306
0.3057331 0.011061344 0.080498084 0.057283532 0.16839753 -0.047865268 -0.020065283 0.118629165
0.034604818 0.22557485 -0.027040932 0.058016445 -0.05159118 -0.05115364 -0.013041666 -0.02203882
-0.0068739126 0.008195466 0.06107729 -0.025208272 0.33401036 -0.06298485 1.8715087e-05 -0.10883067
0.4579981 -0.010378314 -0.004363494 -0.0011822267 -0.030063223 -0.014405936 0.12305521 0.24297406
-0.04363458 2.0716345e-06 -0.00068870554 0.28210163 0.37131345 0.20769209 0.15621136 -0.04454663
-0.024319239 -0.08495514 0.24345803 0.36812913 0.11132818 0.16907735 -0.0056886026 0.23416829
-0.24137548 -0.0054540243 0.19506955 0.25324017 -0.044304285 -0.09107164 -0.015587127 0.12799603
0.022687322 0.19228947 0.09582611 0.2106264 0.25584894 -0.077659994 0.006227316 -0.03856129

q1_network.network_body._body_endoder.seq_layers.2.weight f4 [128, 128]
00000000: e570 123e ac41 f1bc 07eb bf3d e025 99bd
00000010: 2c53 5f3d d195 f23d 6c30 bbbd ae68 c03d
00000020: 0dc8 44bb 72ae 02be 17b5 8f3d aba8 483d
00000030: 60e0 a63d 159e b5bd e60d d3bd 07b9 9f3e
00000040: 781d fc3d d011 2c3c 351a ec3c 8590 323c
00000050: 5271 8dbd 67cf b73d ebec 4bbc 915c e13e
00000060: 4521 95bd b033 28bd ac51 a03d 7459 113d
00000070: cb78 70bd 16b5 723d f400 16be be51 893d
00000080: efbb 763c c09e 993d 665d 31bb 28d8 55bc
00000090: d637 e8bd a93f 693c 0ad4 883d 9580 213e
000000a0: 3dc3 7ebc 0164 d7bd eebd 9f3d 60b6 a23d
000000b0: 8022 7bbd d744 a63d b94b d53d b33e 44bc
000000c0: 35ad 0ebe 035d 2a3f 2d38 033e 9dc7 913d
000000d0: 54e6 67be 8252 32bb 2c2e 923c 2383 8b3e
000000e0: 09bc 583d 1edd 8b3c d7a3 0fbe 622c 87bc
000000f0: c830 8bbd 3a55 8abd 566f 293d 2399 713e
00000100: bbda ca3b 10c1 81bd cebc 1f3e 2684 a23d
00000110: a6f4 213d 2ad4 253e ea64 d7bd 23ad 01be
00000120: 94a8 1abe e33c 353d b72d d13c bebf 7d3d
00000130: 2ab3 073f 74aa 82bc 7efb a8bd 88cb 6c3d
00000140: 7bd8 39bc d5f2 b53d aa44 263e 197d f33d
00000150: f1f8 083e 67fa 883d 72e0 aebd 801f 09bd
00000160: a222 a7be 0dee d5bc ca36 013c f4c7 d4bc
00000170: 7cf8 d43c ae3d 82bd 3c5b 9dbb 83b3 313d
00000180: eae1 0c3e 6be0 efbd 6137 ea3d 5f70 d43e
00000190: 4787 e73e 454b 573e aa21 0c3d a48a d73c
000001a0: 58a1 b43d 06c9 54ba a30b c03d 4a93 0f3e
000001b0: 1ef6 16be d1f7 123e 4674 a3bb 3bf0 ac3d
000001c0: aaf5 863e 7aa0 a2bc 5c63 7b3e 4e2b 0e3f
000001d0: ff38 ffbd ad39 603c cd28 343c c43a 793d
000001e0: b8b7 273f f70b 603e a064 d83e a3af aa3e
000001f0: 47ce 2d3e bfa4 2f3c d911 723d f36d acbb
00000200: 4396 b53e d522 363e 6c04 11be 11b7 42be
00000210: 604a f33e c28e f73d 47d8 21be f04d 1d3e
00000220: 74ed b23d 299a b4bd ca46 6cbd 7f3a 9dbd
00000230: 0453 053e 6419 3d3e cacb 493d 7ad3 c93e
00000240: 590f b93d 657d 3d3e 5467 0dbd a481 bbbd
00000250: 0df5 81bc 105a febd ee02 423d b712 853d
00000260: 1cc7 06be f3f1 263e d52c 29bd f2c1 ea3c
00000270: 788f 8ebd d0cb 32be 6666 e43d b8a3 da3d
00000280: bc89 d9bd 9aff 183e 074f c8bb 652d 933e
00000290: 423d 7e3e 6a19 21be ae3f 143b d3c5 50be
000002a0: d8ac c3bd 0311 3c3e 8aeb cd3d 2782 98bd
000002b0: df0d 813d 7cad ed3d 9121 c5bd c6ab e13d
000002c0: 84e6 14bd bfdd 403d afb2 083b cae4 ee3d
000002d0: 6744 1a3e 6151 073e 4454 9b3c 27de 6b3d
000002e0: 1e22 c43c 55d0 3e3e 858a 32be 3175 c0bd
000002f0: 0520 70bd 1958 403e 2664 703e 5650 3bbd
00000300: 9e0e ffbd c837 2abe 6165 9abd 5061 fabc
00000310: f265 77be d5b0 adbd 5009 e1bd 1b50 da3d
00000320: 845e c43d 1a72 21be 2036 e9bb b917 503e
00000330: 64ae 333c 31c5 febc 7ad1 063e 7db9 5fbb
00000340: 8511 f0bc 51eb e23d 36df 683e 82cb 313c
00000350: fb45 58be 430a 703e aa38 4bbd e21a 473d
00000360: 3f90 c1ba 8fb1 f9bc 6fd8 ecbd 6c13 c13d
00000370: 24b8 3b3e b92a 923e 77f1 933a 9fb8 cb3d
00000380: ec85 b03c b655 303e 1c7a 91bd 1464 583e
00000390: 9cb2 93bd 60d9 53be 793f aebe d068 7d3d
000003a0: c81c 2cbb 61f9 783d 03d1 f43d 2d0f 883e
000003b0: 7cf4 95be 62b8 8f3c 6c61 a7bd 611f acbd
000003c0: bbf4 6f3e 3c80 a53d bca0 edbd 9c98 a13e
000003d0: e083 3d3d 7c64 793d 0663 65bd 7362 593e
000003e0: 9495 debd c80d c6bd 50be c13d 52b9 e4bd
000003f0: 9d42 013e c403 cbbd 8568 863e 72bb c1bd
0.14300878 -0.02945026 0.09371 -0.07477927 0.05452268 0.118449815 -0.09140095 0.09394966
-0.0030026466 -0.12761858 0.07016962 0.04898898 0.08148265 -0.088680424 -0.10305385 0.31195852
0.12310308 0.010502294 0.02882109 0.010898714 -0.0690638 0.08975106 -0.012446622 0.44015935
-0.07281736 -0.041064918 0.07828078 0.0354857 -0.058708947 0.05925473 -0.14648801 0.06705044
0.015059455 0.07500982 -0.0027063726 -0.013052024 -0.11338775 0.014236369 0.06681068 0.15771706
-0.015549478 -0.10517121 0.07799898 0.079449415 -0.0613122 0.08118599 0.104148336 -0.011977839
-0.1393326 0.66548175 0.12814398 0.07118151 -0.22646457 -0.0027209823 0.017844282 0.27248487
0.0529137 0.01707321 -0.14027344 -0.016500656 -0.06796414 -0.06754537 0.041365944 0.23593573
0.0061906255 -0.06335652 0.15599367 0.079353616 0.039539956 0.16194215 -0.10517295 -0.12663703
-0.1510337 0.04424752 0.025534494 0.061950438 0.5300776 -0.015950419 -0.08251093 0.05781129
-0.011343117 0.08884207 0.16237131 0.11889095 0.13376214 0.066883855 -0.08538903 -0.033477306
-0.3264361 -0.026114488 0.007886598 -0.025974251 0.025997393 -0.06359421 -0.0048021358 0.043384086
0.13758054 -0.11712726 0.11436344 0.41491982 0.45220396 0.21024807 0.034211792 0.026311226
0.088198364 -0.0008117113 0.093772195 0.1402103 -0.14742324 0.14352347 -0.004988226 0.08444258
0.26359302 -0.019851912 0.24549621 0.5553483 -0.12462043 0.013685626 0.010996056 0.06084706
0.6551471 0.21879564 0.4226427 0.33337125 0.1697322 0.010720431 0.059099052 -0.0052621304
0.35466203 0.17786725 -0.14161843 -0.19015147 0.4751768 0.12087776 -0.1580516 0.15361762
0.08736697 -0.08818466 -0.057684697 -0.07677173 0.13019949 0.18466717 0.049266614 0.39419156
0.090361305 0.18504865 -0.03452237 -0.09155586 -0.01586392 -0.12419522 0.047366075 0.0649771
-0.13161892 0.16303234 -0.04130252 0.028656933 -0.06960958 -0.17460561 0.111523435 0.10675758
-0.10621974 0.14941254 -0.0061129364 0.2874557 0.24828056 -0.15732351 0.0022620964 -0.20387964
-0.09554452 0.18365864 0.10054691 -0.074466996 0.06301474 0.11605355 -0.09625543 0.11019091
-0.03635265 0.047086474 0.0020858457 0.11664732 0.15065156 0.13214637 0.01896108 0.057584908
0.02394205 0.1863416 -0.17435654 -0.093973525 -0.058624286 0.18783607 0.23475704 -0.04573091
-0.1245396 -0.16622841 -0.07538868 -0.03056398 -0.24159983 -0.08480994 -0.10988104 0.1065981
0.0958834 -0.15766183 -0.007117048 0.2032155 0.010966871 -0.031099888 0.13165846 -0.003413766
-0.029305229 0.11080039 0.22741398 0.010851743 -0.21120445 0.23441415 -0.049614586 0.04860962
-0.001476772 -0.030480174 -0.11564719 0.094275326 0.18331963 0.2854822 0.0011287172 0.09947323
0.021548234 0.17220196 -0.07103369 0.21131927 -0.072118014 -0.2068839 -0.340328 0.061867535
-0.0026262272 0.0607847 0.11953928 0.26574078 -0.2928809 0.017543975 -0.081728786 -0.084044226
0.23433201 0.080810994 -0.11602923 0.31561744 0.046268344 0.060886845 -0.05600264 0.21228962
-0.108683735 -0.09670597 0.09460127 -0.111681595 0.12623067 -0.099128276 0.26251617 -0.094595805

q1_network.network_body._body_endoder.seq_layers.2.bias f4 [128]
00000000: d3a2 05bd 01bd b7bd 1e01 80bc ab3e 59bb
00000010: 1c68 213b 4633 97bc 9b8b 9939 dc87 5c3d
00000020: d97a 993d 189d 83bc 9ce2 82bc 5d68 863d
00000030: 2374 79bb c69d b13c 3584 9439 ddae 0b3c
00000040: 5638 8dba 4845 253d 9fcc 8eba 868f a9bc
00000050: 1088 d0bc f054 83bc 3df3 33bd 5eb3 1c3d
00000060: b097 713d e39a 3ebd 855e 193c 64a1 873c
00000070: 4648 0d3c 1504 043d 4629 1b3c 1ffb 093e
00000080: 34af 0fbb a08f 283d 4a08 483d 374e f33c
00000090: 5606 41bc 6b5e 56bc fa4c 863b a98a 3e3d
000000a0: dcc2 f63d 9ca1 283d 541a 91bd 767c 933c
000000b0: 3b55 003b 884b b63b b9af 123d 5303 0dbd
000000c0: cc35 03bd d417 133e ae50 4dbc 8328 2b3d
000000d0: 3cdf 823d 6b2b 9e3c 3dd7 d1bb e37c 973d
000000e0: 87ef 823b dfd4 0fbd cb47 61bc 13c5 e4bc
000000f0: cb9b 87bc 7cd5 963c c57b d4ba e089 073d
00000100: 17e5 fb3d a51e b6bc e217 323c d156 37bd
00000110: fee4 673d 1b7f a4bc 4d93 f13c b602 503d
00000120: f87b 20bd 135b 933d e6d3 123e 2891 18bd
00000130: 00c5 fdba cc73 453d c62a c2bb 864d a93d
00000140: db53 2ebd 2730 1dbc ee02 1bbd ae90 99bd
00000150: 8317 9abc fecb 1d3e 7713 833b f808 f53c
00000160: c7b6 933c eb18 2b3c 362f 903d 7e6d 653c
00000170: 4b2e 053d 995b aabc ea71 283e a9eb 61bb
00000180: 10f1 c9bc 8471 d53c 420e a9ba a02d d8bb
00000190: 7f88 5f3c 25c7 cbbc 2390 723d 023f a3bc
000001a0: 7e74 59bc 87eb 97bc 2f2d 45bc e8d7 1a3c
000001b0: 2c97 f03c 548d 25bd 6352 49bb 10dd 21bc
000001c0: e7c9 c73a cad8 103d 2b5f 59bc 8bcc 0ebd
000001d0: 3d72 2c3d c9f0 f7bc 2c6e 1c3a b51f d9bb
000001e0: e229 083c f9c0 2a3d c7c1 893d 7855 9cbc
000001f0: 17ef f9ba 5d18 b73b 6395 323d 069b 45bb
-0.032625984 -0.089715965 -0.015625533 -0.0033148925 0.0024628704 -0.018457066 0.00029286448 0.053840503
0.074941345 -0.01606612 -0.015977196 0.065628745 -0.0038063608 0.021681678 0.00028327262 0.008525577
-0.0010774236 0.040349275 -0.0010894722 -0.02069832 -0.025455505 -0.016031712 -0.043933142 0.038256995
0.05898255 -0.04653443 0.009360914 0.01655645 0.008623188 0.032230455 0.00947029 0.13474701
-0.0021924498 0.041152596 0.04883603 0.029700382 -0.011781296 -0.013084034 0.004098532 0.046518955
0.12048885 0.041169748 -0.070851 0.018003684 0.0019582051 0.0055632032 0.035812113 -0.034427
-0.032033727 0.14364558 -0.012531443 0.04178668 0.06390235 0.019307813 -0.006403832 0.07396867
0.003995839 -0.03511512 -0.013750027 -0.027926004 -0.01655378 0.018412344 -0.0016211203 0.033090472
0.12299555 -0.02223141 0.010869952 -0.04476053 0.05661487 -0.02008014 0.029489184 0.050783835
-0.039180726 0.071951054 0.14338645 -0.037247807 -0.0019361079 0.048206136 -0.005925509 0.082667395
-0.04256044 -0.009594 -0.03784459 -0.074982986 -0.01881004 0.15409848 0.004000123 0.029911503
0.018031491 0.010442953 0.07040255 0.014003156 0.03251485 -0.02079563 0.16449705 -0.003447274
-0.02465108 0.026055105 -0.0012897926 -0.006597236 0.013643383 -0.024875233 0.05921949 -0.019927505
-0.013272403 -0.018544925 -0.012034698 0.00945089 0.02936896 -0.040417984 -0.0030719272 -0.009879366
0.0015242667 0.035362996 -0.013267319 -0.034863036 0.042101134 -0.030266182 0.00059673446 -0.006626094
0.008310767 0.04168794 0.06726413 -0.019083723 -0.0019068447 0.005587621 0.043599498 -0.0030152216
