results/first/SpaceInvaders/SpaceInvaders-15978.pt (torch, 971959 bytes, 83 tensors)

discrete_act_size_vector f4 [1, 2]
000000 00 00 40 40 00 00 00 40
       3.0 2.0

network_body._body_endoder.seq_layers.0.weight f4 [128, 6]
000000 11 0f 09 3e 7e 09 7d 3d b4 b4 80 3d 3b c8 c4 3d
       0.13384654 0.06177663 0.062844664 0.096085034
000010 7b 57 c7 bd 39 7e 85 bf 2b 22 de be a7 13 84 bf
       -0.097334825 -1.0429145 -0.43385443 -1.0318497
000020 dd 14 de be 09 85 67 3f 41 51 ae bc 8e f1 e5 3e
       -0.43375292 0.9043737 -0.02127898 0.44910854
000030 e8 1f ba bc 16 c8 05 be f2 2a 23 bc f3 68 f7 bc
       -0.022720292 -0.13064608 -0.009958969 -0.03020141
000040 74 ad 0b 3e 79 03 e6 3e f5 27 04 3d 13 29 e3 3d
       0.13640386 0.44924524 0.03226467 0.11091819
000050 fe c4 29 be a7 0c 2e bf f4 41 b9 3c 47 8d 93 3d
       -0.16579053 -0.67988056 0.022614457 0.07204681
000060 a4 6e 6b 3f 23 58 c1 bd 07 b5 ba 3e 5f e1 17 bf
       0.919657 -0.09440639 0.36466238 -0.59328264
000070 4a 81 3e 3f 9f 6e 34 3e 3a 4a d7 bd 11 0a cc be
       0.7441603 0.17620324 -0.105122045 -0.3985143
000080 e0 31 2c 3f c2 36 65 be 84 53 63 3f 55 1a d6 be
       0.67263603 -0.2238417 0.8879931 -0.41816965
000090 3e 81 6c 3e 28 bc 21 bd 1d f0 70 3e 3b 41 86 bf
       0.23096177 -0.03948608 0.23529096 -1.0488657
0000a0 6c 52 0c 3f 17 06 72 bd 44 f6 50 3d e3 24 97 3d
       0.54813266 -0.05908784 0.051016107 0.073800825
0000b0 63 2d 86 be 43 69 4e bd ce 5d 58 3e f2 17 10 3f
       -0.26206502 -0.050393354 0.21129534 0.5628654
0000c0 5d 0c f3 3e 59 1a 9c 3e da 51 2b 3e b1 54 ef be
       0.4747037 0.30488852 0.16730443 -0.46744302
0000d0 4d 19 5a 3d 7b 14 66 3d e7 82 93 3e d4 03 ab be
       0.053246785 0.056171875 0.28810808 -0.33401358
0000e0 84 7c 7a 3e b9 e5 32 be e2 a3 02 3f 00 d8 99 bd
       0.24461561 -0.17470445 0.51031315 -0.07511902
0000f0 30 6a 28 3e 2a 69 59 be 39 e6 be 3e a3 ae 1f bf
       0.16446757 -0.21231523 0.3728502 -0.6237585
000100 e1 00 11 be b1 e4 27 3e d6 a1 91 3e 87 1c 53 be
       -0.14160492 0.16395833 0.28443784 -0.20616351
000110 a5 fb 2a 3e c4 b9 f5 3e 96 5c 4a be 32 5e 1d bf
       0.16697557 0.4799329 -0.19761881 -0.61471856
000120 74 e0 9f 3e bb 9d bc 3e c9 85 82 3e bf eb 31 bf
       0.31225932 0.3683909 0.25492695 -0.69500345
000130 16 48 d5 be 23 26 2c bf f3 d5 87 3d b3 50 84 bd
       -0.4165656 -0.6724569 0.066326044 -0.06460705
000140 5d ac 2d bf 99 d2 03 bf 6f 76 24 be 91 da 07 bf
       -0.6784113 -0.5149322 -0.16060804 -0.5306788
000150 7c 45 20 be c4 74 94 3e 43 1c 02 3d a5 66 f1 3e
       -0.15651506 0.28995335 0.031765234 0.47148624
000160 ab 2b e3 3d bf 7c 01 3f 17 14 b1 3d bf 62 94 bd
       0.110923134 0.5058097 0.0864641 -0.07245397
000170 9d d2 5e 3e 6b 2c bc 3e b7 8e b8 3e 37 a9 5a bc
       0.2176003 0.36752638 0.36046383 -0.013346008
000180 dc 99 c6 3e 2e 4c 7c bd cc ff 98 be b9 c4 bd 3e
       0.3878926 -0.061596088 -0.29882658 0.3706415
000190 14 82 3a 3e 1b 93 fe 3e c7 e9 3b 3e 1c 92 c9 be
       0.18213683 0.49721608 0.18350898 -0.39369285
0001a0 e0 01 35 be 1e 8c 2b 3f 94 c1 2e be 37 23 a1 be
       -0.17676497 0.67010677 -0.17066032 -0.3147218
0001b0 a9 f7 8a 3e 4b f0 38 bd e6 6a 88 bd 11 92 75 bd
       0.27142075 -0.045151036 -0.06661014 -0.059953753
0001c0 bd 6d 92 3e bc 1c 3e be 0d 1f 24 3e 99 f9 d3 bc
       0.2859935 -0.18565649 0.1602747 -0.025875853
0001d0 a5 5c c7 3e 85 17 af be 65 9f 17 3f be f8 84 be
       0.3893787 -0.3419763 0.5922759 -0.25971025
0001e0 78 8e 6a be d7 4f aa 3c 06 d8 6f bc 25 4a f4 3e
       -0.2290591 0.020790024 -0.014638906 0.47712818
0001f0 68 5e e1 bd 73 de b3 bd ac 98 48 3f 64 d6 f0 3e
       -0.11004335 -0.08782663 0.7835796 0.47038567
000200 c5 ac 1c 3e e8 6b 7e be 7c 10 40 bf 11 46 e3 3e
       0.15300281 -0.2484585 -0.75025153 0.44389394
000210 ef 01 29 bf 9e b8 05 3e 8c a8 66 3e b5 9c 07 3d
       -0.66018575 0.13058707 0.22525233 0.03310843
000220 ea a3 15 bd 78 e2 dd 3e 9d cc 5d 3e 54 ed 27 3c
       -0.036533274 0.43336844 0.21660085 0.0102494545
000230 97 cb e0 3c fa 3e b9 3c 8b 7d 59 3e 35 52 cd be
       0.02744083 0.022613037 0.21239297 -0.4010178
000240 dc 10 3e 3f a0 96 37 bf 35 96 b5 3e 8a 6b 2b 3e
       0.74244475 -0.7171421 0.3546616 0.16740242
000250 78 45 5e bf cd e4 8a be 99 0e 33 3f c9 ba eb 3e
       -0.8682475 -0.27127686 0.6994415 0.46040943
000260 1e 6c 44 3e a9 07 a5 3d a3 9a 8f be c4 28 04 3f
       0.19181868 0.08058102 -0.28047666 0.51624703
000270 8b 2e 8f be c9 93 e5 be d5 4a df 3e 9b a9 06 3f
       -0.27965197 -0.44839314 0.4361178 0.5260255
000280 3e a9 43 3f aa 55 ea be 3d 22 25 be 9e 56 62 be
       0.7643012 -0.45768481 -0.16126342 -0.22103354
000290 e3 07 c0 be 22 c5 65 3e f7 cf 03 be be ec f3 be
       -0.37506017 0.22438481 -0.12872301 -0.47641557
0002a0 f4 56 bd 3c 09 3e c5 bd 92 bd 31 bf 3e 6a 36 bd
       0.023112752 -0.09630973 -0.69429886 -0.044534914
0002b0 0a a4 cb 3d 9f bf 95 be f3 1c a0 be e7 9b 57 3e
       0.09943397 -0.29247758 -0.31272087 0.21055566
0002c0 5a c8 d6 be 5e ec 87 be ca a7 87 3f cb e7 85 3f
       -0.4194973 -0.2654752 1.059808 1.0461363
0002d0 51 fd ce bd 7b 7d 68 3e c6 ba ca be 84 8f 70 3d
       -0.1010691 0.22704117 -0.39595622 0.058730617
0002e0 6f 10 b8 3e ae e5 4c 3e fc df 57 bf 2e 34 1d bf
       0.35950038 0.20009491 -0.8432615 -0.61407745
0002f0 b4 23 92 be 49 be bb 3c 28 49 8f 3b bf 14 4a bd
       -0.28542864 0.022917883 0.0043727346 -0.04933619
000300 5e 3b c8 be 8c 6d 0b 3e 1c be 66 bc 22 e5 1a bf
       -0.39107794 0.13616008 -0.014083412 -0.6050588
000310 15 cf 6e bf 8f 1d 11 be 69 19 36 be 73 f5 64 be
       -0.9328473 -0.14171432 -0.1778313 -0.22359256
000320 0b 6c 68 be dd 6e 3c bd 6a 20 10 bf f3 10 29 3d
       -0.22697465 -0.046004165 -0.5629946 0.04127593
000330 81 18 a9 be f7 f4 f9 3e b3 30 f3 3d 91 06 5e be
       -0.33026507 0.48819706 0.11874523 -0.21682192
000340 f9 57 3c bd 4d c0 3f 3e 58 c6 70 bf 12 ad 9a be
       -0.045982335 0.187257 -0.9405265 -0.30210167
000350 15 3c 21 bd 27 5c 8c 3d a4 a5 10 3e fb 85 a6 bd
       -0.03936394 0.06853514 0.14125687 -0.081310235
000360 5e 38 36 3f 5e 82 0d bf 1a 87 14 3f a0 fb af 3e
       0.7117976 -0.5527705 0.5801865 0.34371662
000370 93 cc 2e bf 40 af 2a bf 34 d3 34 3f 26 d7 ca 3e
       -0.68280905 -0.6667366 0.7063477 0.3961727
000380 0a 05 1b 3c d6 c9 96 be 38 db a6 3e 05 54 06 3e
       0.009461651 -0.29450864 0.32589126 0.13117988
000390 ca fa d2 be fc fa ce bc 13 c2 8b be d1 7d 39 3e
       -0.41206962 -0.025266163 -0.27296504 0.18114401
0003a0 b1 8c 9a be 49 31 82 be 26 7b 58 be 87 d9 80 3e
       -0.30185464 -0.25428227 -0.21140727 0.2516596
0003b0 07 e1 85 bd c8 5a 0b bf 6b 48 de 3d 2a bb 5a 3e
       -0.06537061 -0.54435396 0.108536564 0.2136046
0003c0 b3 27 06 bf d9 0f 0e be c7 1d 98 3e 03 a4 9b 3e
       -0.52404326 -0.13873233 0.29710218 0.3039857
0003d0 93 19 83 3e 90 e9 1f 3f 20 3b a2 3d 7c 22 d7 3e
       0.2560545 0.62465763 0.079214334 0.42018497
0003e0 54 71 00 bf fc 04 ac bd 8f d6 9a bd 91 33 df be
       -0.50172925 -0.08399388 -0.07560455 -0.4359403
0003f0 59 e5 71 3f 2c c3 53 bf b5 8e 03 3f 4c 86 e6 3e
       0.9449058 -0.82719684 0.5138963 0.45024335

network_body._body_endoder.seq_layers.0.bias f4 [128]
000000 77 fb e8 bc 72 98 8b 3d 9b a3 26 3e 62 b6 d0 bd
       -0.02844022 0.06816186 0.16273348 -0.10191037
000010 3f d5 31 3e b2 33 9c bd d9 10 c3 3c b9 96 ad bc
       0.17366503 -0.076270476 0.023811745 -0.021190034
000020 9a 28 05 be ff 76 d1 3b 91 80 1d 3e 5e 41 22 3d
       -0.1300377 0.0063923593 0.15381075 0.03961312
000030 db 9c ce bd 4e d2 39 3e dc 26 da bd 76 00 4b bd
       -0.100885116 0.18146631 -0.10651943 -0.049560986
000040 25 64 d0 bb b5 96 2b 3d 62 d7 28 3e ea 88 03 be
       -0.0063595944 0.041891772 0.16488412 -0.12845197
000050 7e 03 1e bd f1 c4 0a bd 09 cc 2f be 49 18 34 bd
       -0.03857755 -0.033879224 -0.17167677 -0.043968473
000060 3d 5f 36 3d 6b bb 87 bc 81 06 0b bd e7 d6 a2 3e
       0.04452442 -0.01656886 -0.03394175 0.31804582
000070 3b b5 6e 3e f0 e2 0c bd d2 36 07 bc fc 17 c1 3d
       0.23311321 -0.034396112 -0.008252816 0.09428403
000080 07 75 8c 3c 7d 19 16 3e fc 87 ba bd 7d 31 f7 bc
       0.017145647 0.1465816 -0.09107968 -0.030174965
000090 22 38 82 bc 37 0f 8d 3d 5e 7c 20 bd 4e 39 e7 bc
       -0.015895907 0.068876676 -0.039181106 -0.028225567
0000a0 84 67 76 3b 9a f2 f6 bd a0 db 90 3d 19 83 91 bd
       0.0037598321 -0.12057991 0.0707314 -0.07105083
0000b0 7a ae 11 bd 6f fe ba 3d 22 f8 62 3e 03 35 bf 3d
       -0.035566784 0.091305606 0.22164968 0.09336283
0000c0 b3 90 93 3c 21 8c 10 bb bb 78 7b 3e 63 bd 4b bd
       0.018013334 -0.002205618 0.24557774 -0.04974116
0000d0 be 86 c1 bd 9b 98 f6 3d 61 53 49 3c f7 5d ac bd
       -0.09449528 0.12040826 0.0122879455 -0.0841636
0000e0 78 e7 04 3c d4 5d 5e bb c1 78 f3 bb 01 ea 43 bd
       0.008111827 -0.0033930438 -0.0074301665 -0.047830585
0000f0 82 97 90 bd 76 1f 1c be 49 69 22 bd 1e 16 89 3d
       -0.07060148 -0.15246376 -0.03965119 0.06693672
000100 fa 28 7c 3a 05 94 b1 3d 3a 4a 09 bd 23 43 4e 3e
       0.0009619143 0.086708106 -0.033518054 0.20142798
000110 38 5c 59 bd 3a 8e ee 3b a2 f1 a5 3d a2 46 3f bd
       -0.053066462 0.0072801383 0.081027284 -0.04669822
000120 7e 8c 8c bd 0d 3f 98 bd 6b 99 30 bd 9e be 1b 3e
       -0.06862734 -0.07433901 -0.04311506 0.15209433
000130 63 51 68 bd f0 e3 1e 3c 59 37 82 bc 47 ce 88 bd
       -0.05671824 0.009697899 -0.015895532 -0.06679969
000140 dc 37 78 3e 35 ef 46 3e ad 47 99 bb 9b f2 c6 bc
       0.24240059 0.19427188 -0.004677734 -0.024285605
000150 65 1a af 3d aa 91 16 be e8 52 0e 3e 14 76 cc 3c
       0.08549956 -0.14704004 0.13898814 0.024958648
000160 9d 42 db 3b 5d 7e b4 3c cb 6f e1 3c 92 48 aa bc
       0.0066912905 0.022032911 0.027519127 -0.020786557
000170 8b b5 d7 bd 1e 47 0b be cc ae dc 3c 05 71 55 bb
       -0.105326734 -0.13601348 0.026938818 -0.0032568586
000180 84 77 20 3e 51 97 b8 bd 6f d8 2f bd b1 f1 ff ba
       0.15670592 -0.09013236 -0.042931017 -0.0019526986
000190 a3 fc 9a bd 7b e1 1d 3d 47 ef b2 3e 87 97 02 3d
       -0.07567718 0.038545113 0.3494818 0.03188279
0001a0 a6 33 e8 3d f1 f8 37 3d 7a 7c 19 3c 82 a8 50 bd
       0.11337976 0.044915143 0.009368056 -0.05094195
0001b0 26 5c b3 3c 02 42 f3 3c 97 61 c4 bd c7 d9 75 3a
       0.021894526 0.02969456 -0.09588926 0.00093784597
0001c0 ea d9 29 3e ed 88 3c 3d cc 4c 6c 3c 4c 95 81 3d
       0.16587034 0.04602902 0.014422607 0.06327304
0001d0 4c 61 2e 3e 12 fc c2 bd 30 5b f0 3c 8f da 97 bd
       0.17029303 -0.09520735 0.029340357 -0.074147336
0001e0 cc cb 77 3e 33 80 b4 bb 3b 97 66 bd 07 09 de bc
       0.24198836 -0.0055084466 -0.05629657 -0.027103914
0001f0 a1 cf 8a bd f3 0d 1b 3c aa a8 d5 bc b2 3f 07 3d
       -0.06777883 0.009463775 -0.026081402 0.03301973

network_body._body_endoder.seq_layers.2.weight f4 [128, 128]
000000 59 42 a2 3d fe 22 31 3e c1 f7 0d bd bb 50 b1 bc
       0.07922811 0.17298505 -0.034660105 -0.02164494
000010 69 64 db be 59 78 cb 3b 8c 27 0d be 99 7e eb bd
       -0.42850044 0.006209415 -0.13784617 -0.11498756
000020 85 c1 89 3d 39 df 1d 3d 40 27 f9 bd 58 36 13 be
       0.06726364 0.03854296 -0.121656895 -0.14376199
000030 47 73 5c bd da 34 00 be 7c 32 ac bd fb 34 84 bd
       -0.053820875 -0.12520161 -0.08408067 -0.06455418
000040 ab 0e 5c be 19 47 0f be a9 e9 91 be 65 cf f4 3c
       -0.2148997 -0.13991965 -0.2849858 0.02988405
000050 4e 8f 83 be 5f 86 f1 3d c4 e5 45 be 3b c1 f2 3d
       -0.2569527 0.117932074 -0.1932593 0.11853262
000060 bf 19 07 be 56 f4 62 bc fa 46 94 3d 99 c2 3f be
       -0.13193415 -0.0138522 0.072401 -0.18726577
000070 85 1e 80 be 55 75 f3 bd 55 a9 f1 bd fa da db 3d
       -0.25023285 -0.11887614 -0.11799876 0.10735126
000080 3e 1a 35 3d 30 27 bf bd ff f9 b8 ba 6b 7e 2a bd
       0.04421448 -0.09333646 -0.001411259 -0.041624468
000090 b5 09 91 be 93 18 b8 3c c5 35 8f be a3 43 04 be
       -0.28327718 0.022472655 -0.2797071 -0.12916426
0000a0 ef 80 fc 3c 6c 4b 93 bc 8b 5b 0f be ee 93 75 bd
       0.0308232 -0.0179803 -0.13999765 -0.05995553
0000b0 b0 67 f3 bd 92 12 4c 3e 21 12 dd bd 6f 94 51 3e
       -0.11885011 0.19928959 -0.107944734 0.20466779
0000c0 b1 04 2f 3c 0c 3f 58 bd b5 19 d1 3d 5f 96 49 be
       0.010682271 -0.0527945 0.10209981 -0.19686268
0000d0 fa b4 ce 3d b3 d1 5c 3e c6 a6 d9 3d 18 07 64 3d
       0.10093112 0.21564369 0.10627513 0.055670828
0000e0 08 96 3f bd 30 77 ad 3d e4 ef 3d bd 41 83 31 3c
       -0.04677394 0.08469999 -0.046371356 0.010834516
0000f0 8d 74 37 bd 8f 0b c5 bc 8a 3b 25 3d ad b8 dc 3c
       -0.044788886 -0.024053363 0.040339984 0.026943529
000100 35 db 20 bd 02 3a 7b 3d bd 67 d6 bd 2e f1 2c be
       -0.039271552 0.061334617 -0.10469005 -0.16888878
000110 0c 9e 32 3d b7 3f b7 be ac 44 dc 3d e3 b5 26 be
       0.043607756 -0.35790798 0.107552856 -0.16280322
000120 ea 34 9b 3c 68 6d de 3c c9 63 08 bd c0 34 52 3e
       0.01894613 0.027151778 -0.033298288 0.20527935
000130 55 8c c3 3c 38 f7 68 3c 60 0a dd bb 57 2d a6 bd
       0.023870626 0.014219098 -0.0067456216 -0.08114117
000140 fb cc 46 be ee f7 17 bc 45 2d 9e bd e6 a4 b6 bd
       -0.19414131 -0.00927542 -0.07723478 -0.08918171
000150 99 67 63 3d 79 a7 86 bd 32 da bd 3c e7 68 91 be
       0.05551872 -0.065749116 0.023175333 -0.28400347
000160 1b 27 f4 bc 10 0c 20 bd 1e 97 c9 3d 1f 50 77 bb
       -0.029803803 -0.039074004 0.098432764 -0.0037736965
000170 d5 ec 02 3d e9 3a 49 bc 84 92 c0 3d fe 6c 00 3e
       0.031964142 -0.012282112 0.09402946 0.12541577
000180 68 8e 2e 3e ee 71 27 3d 1a 95 b1 bd 11 4f ca bd
       0.17046511 0.040880136 -0.08671017 -0.09878362
000190 65 25 6a bd e1 27 59 3e 03 f6 0c be 54 c6 5b be
       -0.05716457 0.21206619 -0.13765721 -0.21462375
0001a0 d0 28 cf 3b 31 61 a8 bd 44 5a c1 3d bd 1f 29 3c
       0.006322004 -0.08221663 0.09441045 0.010322508
0001b0 13 5e d1 bd 08 a3 e5 3d 03 90 8b bd f1 6e 28 3c
       -0.10223021 0.11212736 -0.068145774 0.010280357
0001c0 c0 97 32 bd 33 50 a9 3d 95 ab c6 3d 4e f2 c7 bd
       -0.04360175 0.0826725 0.097006954 -0.09763013
0001d0 3f 8c 2c bd 0a f0 2f bc c2 18 a8 3c 85 45 e1 3d
       -0.042125937 -0.010738382 0.020519618 0.10999588
0001e0 9b b4 99 bd b0 05 8a bd e8 f3 c7 bd 6d 43 9b 3d
       -0.07505151 -0.06739366 -0.09763318 0.0758122
0001f0 65 fb 22 be 93 c9 eb 3d 61 6d 02 bc dc bf eb bc
       -0.15916212 0.115130566 -0.007960648 -0.02877801
000200 29 b2 e8 3d 56 62 06 3e 37 6e 41 be cd 98 37 3d
       0.11362106 0.1312345 -0.188897 0.044823457
000210 73 82 43 3e 56 d3 90 3c 68 f8 11 be 44 a1 3c 3d
       0.19092731 0.017678898 -0.14254916 0.046052232
000220 cc f9 59 3d 2b c3 66 3d bf 57 1e be 6a d0 5a 3d
       0.05321674 0.05633847 -0.1546316 0.053421415
000230 26 9a ec bd 48 35 97 bd b8 fb c4 3d 7e 9e 33 be
       -0.11552839 -0.073832095 0.09618324 -0.17540929
000240 da 2a 06 3d 34 a0 07 be f1 93 aa 3d b3 12 6f bd
       0.03275571 -0.13244706 0.08328999 -0.058367442
000250 76 a0 05 be b3 86 25 bd 63 2f fe bb de b9 83 3d
       -0.13049492 -0.040411662 -0.007757114 0.06431936
000260 01 14 34 3d 7b aa 9f bd 5f d8 99 3d 4c af 18 be
       0.04396439 -0.077961884 0.07511973 -0.1491062
000270 06 e5 2e bd 58 dc 83 bd 6c 23 c3 3c c1 d6 46 3e
       -0.042698883 -0.064385116 0.023820601 0.1941786
000280 f5 91 88 3d ab 92 85 bd 3e 14 4c bd cc e7 85 3d
       0.06668464 -0.06522115 -0.049823992 0.06538352
000290 5f 71 f0 bd 96 59 f3 bd be 57 b9 3d 74 11 96 3c
       -0.11740374 -0.118823215 0.090499386 0.01831887
0002a0 50 d3 69 3d 41 19 95 3d 39 7d 17 ba cd 9b 1b bd
       0.05708629 0.072802074 -0.00057788525 -0.03799038
0002b0 21 da 95 3c a5 76 5d 3d 3d 1d 9d bd 1a 38 f4 3d
       0.018292489 0.054068226 -0.076715924 0.11924763
0002c0 81 48 a8 bd 45 f9 b9 3c 0c 8e 34 be 3c 51 84 bd
       -0.08216954 0.022701869 -0.17632312 -0.06460807
0002d0 6e d4 4d be aa 00 11 3e e2 74 fd bd d5 88 5f 3d
       -0.20100567 0.1416041 -0.12375809 0.054573853
0002e0 6e a3 15 be 4b 3d 17 3e 88 db ab bd 94 97 6f 3e
       -0.14613125 0.14769475 -0.08391482 0.23397666
0002f0 22 59 13 3e bc e4 8e bc 4e 85 dd bd ca 6d 21 3e
       0.1438947 -0.017443053 -0.108164415 0.15764537
000300 e5 1c 18 3d 27 4e 31 3d 3b a7 9f 3c 72 06 eb bb
       0.03713693 0.043287423 0.019488921 -0.007172399
000310 c3 fc 1d bd b5 19 a4 b9 04 00 49 3e 3c d7 83 3c
       -0.03857113 -0.0003129967 0.19628912 0.016093843
000320 d6 31 a2 bb 79 98 51 3d 4a d3 a3 bd 75 7c 0b be
       -0.0049497886 0.0511708 -0.079992846 -0.13621695
000330 dd 6d 8f bd 76 91 f1 3d c4 73 ad bd 41 52 a5 3d
       -0.07003377 0.117953226 -0.08469346 0.08072329
000340 1f ef 85 bd 23 2d bc bd f0 11 0d bd 34 0e ca 3c
       -0.06539749 -0.09188297 -0.034440935 0.024664976
000350 fd 7d 6e 3b ee da 08 3d 08 e9 02 3e 5e 77 3e bb
       0.0036391013 0.033411913 0.12784207 -0.0029062848
000360 99 99 0e 3d 0c 12 7e bd 1c 52 37 3e 54 91 7c bc
       0.03481445 -0.06202893 0.17902416 -0.015415508
000370 b2 b3 5b 3e 84 c5 fc bd 1d 1f 07 be e7 2f 6d bd
       0.21455267 -0.123423606 -0.13195463 -0.05790701
000380 1e 86 ff 3d 69 6d 81 3d e8 52 95 bd 70 61 05 be
       0.12476753 0.063196965 -0.07291204 -0.1302545
000390 9b b0 3b be cc a8 46 3e d1 67 cc be bf 9c c0 3c
       -0.18329088 0.19400328 -0.39922956 0.023512242
0003a0 1f 96 e2 3c 3b e0 0d 3e 3d e1 c7 bd 5c 1c 8b bd
       0.027659474 0.13855068 -0.09759758 -0.067925185
0003b0 39 aa 9d 3d 16 90 11 3c 2e de 8b 3e 1b 32 1c 3d
       0.07698483 0.00888445 0.27317947 0.03813372
0003c0 b5 67 89 bd 80 4c b6 bd 46 67 0b 3e a6 06 1e be
       -0.06709234 -0.0890131 0.13613614 -0.15432224
0003d0 d0 8f 05 be 8a 6e 1a 3e 05 69 81 3d 45 d5 99 bd
       -0.13043141 0.1508123 0.06318859 -0.07511381
0003e0 53 fa b0 be 52 b9 4d 3d 68 b0 67 bd 0c be 88 bc
       -0.34565982 0.050225563 -0.05656472 -0.016692184
0003f0 9d cb 25 3e 70 81 2e 3e a1 80 97 bd 2a ca bf 3d
       0.16190954 0.17041564 -0.07397581 0.093647316

network_body._body_endoder.seq_layers.2.bias f4 [128]
000000 d2 83 0f 3c bf de 8c bc 4c a4 99 3b 0f f8 20 bd
       0.008759456 -0.017196057 0.004688775 -0.039299067
000010 d8 b2 14 3b 15 09 90 bd b7 ef 9d 3c dc 76 b1 bb
       0.0022689607 -0.07032982 0.019279344 -0.0054157805
000020 70 5d ae bb b8 06 99 bb 6f c3 15 bd 0e 64 b3 bc
       -0.005321197 -0.0046699904 -0.036563333 -0.021898296
000030 0f 2b 22 bd 47 b2 e7 3c e5 b2 c1 3c ba c6 63 3c
       -0.039591845 0.028283251 0.023644874 0.013902361
000040 39 11 0a 3c 67 af 47 bd d2 ba 6e 3c 86 4e 88 3c
       0.008426958 -0.04875126 0.014570909 0.016639005
000050 ec 4f 43 3d e0 61 11 3d 4c 6f d8 bb 8a c3 8d bb
       0.04768364 0.03549373 -0.0066050645 -0.0043262886
000060 79 c6 ae 3c 71 fa 15 bd be 10 0b 3d 58 d3 c3 3b
       0.021334874 -0.036615793 0.033951513 0.005976122
000070 f3 1e d9 3a 0a 96 8b bd 3c d0 50 bd 3f f3 73 3d
       0.001656501 -0.06815727 -0.050979838 0.05955815
000080 8e 31 6c bb 27 44 3e bc de 41 a3 bc 12 e7 a4 3d
       -0.003604028 -0.0116129285 -0.019928869 0.08051886
000090 e9 67 7b ba d8 d8 0e bd 27 1d 18 bc 8c 4c c2 3d
       -0.0009590374 -0.034874767 -0.009284294 0.094872564
0000a0 d2 ee 01 bc 4e cd b0 bd cd 94 95 3d 10 bc 39 3c
       -0.007930474 -0.08632909 0.07303772 0.0113363415
0000b0 ac 19 55 bd e5 d6 80 bc c5 d7 90 bc 1e 98 58 bc
       -0.052026436 -0.01572747 -0.017681012 -0.013219861
0000c0 e5 04 89 bd 26 1b 8a 3d 38 b0 21 bd 80 eb 48 3c
       -0.06690387 0.067434594 -0.039474696 0.012263179
0000d0 ae e3 83 bc b0 eb 47 3c b5 09 2d 3c 9e 81 ec bc
       -0.016099777 0.012202188 0.010561396 -0.0288704
0000e0 30 3b 02 bd 6a 96 14 bd db db 47 3c 63 58 68 3c
       -0.031794727 -0.03627626 0.012198414 0.014181229
0000f0 b2 e3 c6 3d 20 24 82 bc 2d f9 01 bd 2f 89 e3 3c
       0.09711398 -0.015886366 -0.031731773 0.027775375
000100 88 df 0d 3d 53 72 79 bc c3 89 2f bd d1 22 9c bd
       0.034637004 -0.015225011 -0.04285599 -0.07623828
000110 28 4d 8e 3c 97 53 56 bd 23 4c 8d 3c ff db 65 3c
       0.017370775 -0.05232581 0.017248219 0.014029502
000120 8a 87 18 3c 5f d9 ea bc 7d f2 3b 3c c5 5d 1e bd
       0.009309659 -0.028668104 0.011471388 -0.038663644
000130 af 99 07 bd e0 a8 00 bb 53 0e 0f bd f1 01 69 bc
       -0.03310555 -0.0019631907 -0.03492577 -0.014221654
000140 2d be dd ba 62 a6 ac bc 85 7f 93 3c 7c 3a 91 bc
       -0.0016917639 -0.021075431 0.018005142 -0.017728083
000150 c9 04 11 3d ec 1e fa bb 85 73 3f bd fc 23 70 3c
       0.035404954 -0.0076330807 -0.046741027 0.014657017
000160 de 60 16 bc 46 a3 16 3d 13 92 c6 3c 35 36 13 3c
       -0.009178368 0.036776803 0.024239575 0.008985092
000170 1b 46 46 bd ce 43 48 3d c4 8c 0d bd bf 46 0e bd
       -0.0484067 0.04889279 -0.034558073 -0.034735437
000180 23 59 bc bb 52 56 ef 3c db 81 73 bd 4f 83 d4 bb
       -0.0057479306 0.029215965 -0.05945001 -0.0064853798
000190 c6 bd a9 3d f1 4d 91 3b 22 a4 16 bc 11 b9 6f 3d
       0.082881495 0.00443434 -0.009194406 0.058526102
0001a0 2a b8 5b bc ee e2 6c bc 22 20 a0 3c 5c 24 38 bd
       -0.013410607 -0.014458401 0.019546572 -0.04495655
0001b0 63 10 9a 3d 22 94 2b 3c f0 01 94 bc e3 1f 65 3c
       0.07522657 0.010472329 -0.01806733 0.013984653
0001c0 5d 4c 87 bc 81 e9 98 bc e7 60 23 bc 5d 9e 12 3c
       -0.016515905 -0.01866603 -0.009971834 0.00894889
0001d0 1c 10 bd 3c b9 c5 49 3d 9c e0 40 3d 84 b4 5f bc
       0.02307897 0.04926083 0.047089204 -0.013653878
0001e0 70 b9 76 3d 11 9c 9b 3d 26 13 3a 3c c1 72 4a 3d
       0.06023544 0.07598127 0.011357104 0.049425844
0001f0 e5 23 7d bd 8d bd 09 bd be d1 21 bd ed ae 81 3c
       -0.06180181 -0.033628035 -0.039506666 0.015830481

action_model._discrete_distribution.branches.0.weight f4 [3, 128]
000000 cc 71 98 3c 56 86 a8 3c e3 00 f7 3b 82 92 50 bd
       0.01860895 0.020571869 0.0075379475 -0.05092097
000010 e0 c3 24 3e e0 32 d3 bb 86 2e e4 3d 98 b9 9e 3b
       0.16090345 -0.0064452738 0.11141686 0.004843902
000020 b6 eb b3 3a 6a 8a f3 bb e8 84 a0 bc f6 f9 d1 3b
       0.0013726864 -0.0074322717 -0.019594625 0.0064079715
000030 66 81 ce ba 03 75 e2 bd ab ee 13 3c 33 f2 a0 3d
       -0.0015755116 -0.110574745 0.009029071 0.07858696
000040 57 7b b5 bb f0 bf 5d 3d 24 d0 1a 3d 12 9d c5 bc
       -0.005538385 0.054138124 0.037796155 -0.024122749
000050 b1 02 01 3e d1 82 b2 bb 46 4b a6 ba 31 a3 82 3c
       0.12598683 -0.0054477234 -0.0012687228 0.015946956
000060 a7 5a d7 be b1 68 a6 3c e8 45 88 bc ec 9b f1 b8
       -0.4206135 0.020313593 -0.016634896 -0.00011520818
000070 16 a5 34 be b0 5f 08 3a 9f 44 0a 3b 2b c4 c1 bd
       -0.176411 0.0005202247 0.002109803 -0.09461244
000080 86 bd e6 3b a7 30 bc 3c 6f 5e 74 3d 0b ce c1 bd
       0.007041636 0.022972418 0.05966037 -0.09463128
000090 eb b0 c9 3c 16 7c c3 bb c2 2f 84 bc 87 7f 2c 3c
       0.024620494 -0.00596572 -0.016136054 0.010528452
0000a0 c2 70 31 bc 24 ef 00 3c 04 3a 39 be 38 74 bc 3c
       -0.010830106 0.007869516 -0.18088537 0.023004636
0000b0 7e cd df bc 04 a9 3e 3d fa ec 40 3b 5a 28 c8 bd
       -0.027319666 0.046547905 0.0029438124 -0.097733214
0000c0 32 cd a5 bc d9 8c 7c 3c eb 63 44 bd 3e a2 25 3c
       -0.020239446 0.01541444 -0.04794685 0.010109482
0000d0 bb 93 a8 3b 1b f4 47 3c e1 f5 57 3d e1 96 54 b9
       0.005144564 0.012204195 0.052724723 -0.00020274102
0000e0 76 13 ed bd 38 51 52 be b0 cc 86 3c 8f 39 c0 ba
       -0.115759775 -0.20538795 0.016455024 -0.0014665591
0000f0 31 0a b0 bd 56 a6 9d 3c be d0 15 bd 87 bb d5 bd
       -0.08595694 0.019244354 -0.036576025 -0.104361586
000100 be 40 09 3d ae de f8 3c 2c 0a 04 3d ec 34 bb ba
       0.03350901 0.03037962 0.032236263 -0.001428274
000110 04 c6 d0 bd e3 5c 0c bb a9 95 35 bc f7 80 a6 3c
       -0.101940185 -0.002141767 -0.011083045 0.020325167
000120 02 bb 4f 3b 43 2f 08 3e 05 4c c7 3b 0d e5 c6 bc
       0.0031697159 0.13299279 0.0060820603 -0.024279142
000130 a2 af 57 bc c2 18 35 3c b9 39 13 3d ac 33 23 bc
       -0.013164433 0.011053266 0.03594372 -0.00996105
000140 61 7f 8a 3b 5a 6e 7d 3d 5d 82 ef bc 15 0d a6 3d
       0.0042266105 0.061872818 -0.029236967 0.08107964
000150 d0 d3 43 bd a6 a3 a2 bc 77 ca 96 bc 95 20 8d 3d
       -0.047809422 -0.019853424 -0.01840709 0.0689098
000160 92 f0 24 3d 0a 6d b7 3d 5a ad 56 bb 47 93 24 3d
       0.04026849 0.089563444 -0.0032757134 0.040179517
000170 11 d5 30 39 c5 db 50 bd 47 8d 25 bd 26 7d 18 3d
       0.00016864041 -0.05099084 -0.040417936 0.037228726
000180 da f7 06 3d 17 58 66 3c a5 ee 91 3c d1 3a a7 3c
       0.032951213 0.014059088 0.01781399 0.020413788
000190 08 a5 28 39 e0 47 27 bd 9f 45 18 bc f5 a8 79 bb
       0.00016083207 -0.04084003 -0.009293943 -0.003809509
0001a0 87 66 27 bb 44 03 86 bd 82 70 62 bc 87 89 40 3a
       -0.0025543289 -0.065435916 -0.013820769 0.0007344712
0001b0 d6 ef 12 3b 0e e8 ad bc bb 11 2f bc e6 80 6f 3d
       0.0022420785 -0.021228816 -0.01068538 0.058472537
0001c0 a3 ed 01 3c 88 3e f4 bb b9 86 29 bb 87 1b 04 3c
       0.007930192 -0.0074537434 -0.0025867654 0.008063204
0001d0 84 a4 73 bc 6d 7d 37 3a 6f d7 5f 3b 37 db 56 3d
       -0.014870767 0.0006999586 0.0034155508 0.052455153
0001e0 33 72 6e 3c ab 68 1e be b5 13 5a 3d 89 fc 7a 3c
       0.014553594 -0.15469615 0.05324145 0.015318998
0001f0 0e d2 b2 bc 9c 96 42 3c 54 d6 70 bd 18 ef 74 3c
       -0.021828678 0.011876728 -0.05879815 0.0149495825
000200 00 5c 0b bb 6e 5d b2 ba 67 e6 0f 3c 2a 86 ce 3d
       -0.0021264553 -0.0013608166 0.00878296 0.100841835
000210 5a 2e b2 bd ec 45 ae bc 24 1a 8f bd 35 cf d6 3c
       -0.08700247 -0.021273576 -0.06987408 0.02622185
000220 6f 5e 3c bd 35 90 15 3d 4a be 86 bc 3d 9f 2b 3c
       -0.045988496 0.03651448 -0.016448159 0.010474977
000230 97 99 92 bc 47 c5 c9 bb 6b 39 b7 3c 16 aa 4e bd
       -0.017895503 -0.0061575505 0.022366246 -0.050455175
000240 5c fb 21 3d d1 7d 74 bd 44 7f 9a bd 55 72 de 3d
       0.039546356 -0.0596903 -0.07543805 0.10861651
000250 2d 03 82 be a1 c1 d8 3c e5 bd 45 bb 1d e7 6c 3b
       -0.25393048 0.026459517 -0.0030173 0.0036148496
000260 6d 7a 81 3e e4 5b bb bc c5 10 b9 3c b8 68 55 3b
       0.25288716 -0.022870965 0.022591004 0.0032563638
000270 d8 20 10 3e 76 16 1e be 18 ca d5 bd 51 6a d2 3d
       0.14075029 -0.15438256 -0.10438937 0.102741845
000280 b3 af 0a bb 0f 68 2c 3d 24 fd e4 bb 33 ee d6 3e
       -0.0021161854 0.042091426 -0.0069881845 0.41978607
000290 f1 11 d0 bd 6c 27 68 bc 56 91 c8 3a c1 b9 47 3d
       -0.10159672 -0.014169555 0.0015302103 0.048761133
0002a0 9d b7 6a 3c 77 a4 10 be e0 ab 38 3e 14 3e e3 3c
       0.014326003 -0.14125238 0.18034315 0.027739562
0002b0 21 86 e4 bd 14 df 5f bd 9a 27 5f bc 53 30 1a bd
       -0.111583956 -0.054656103 -0.013620282 -0.03764374
0002c0 08 b3 33 bd 19 40 82 3c 70 7e 0f be 8a 8f c0 bc
       -0.04387191 0.015899705 -0.14013076 -0.023505945
0002d0 ac f3 f6 bb b9 fa 6d 3d a5 b7 fd 3d 89 8d db 3b
       -0.007536372 0.058100436 0.12388543 0.006700222
0002e0 85 db aa 3d f9 4c 0c 3e 94 76 15 3c 9e 02 bf bc
       0.08342651 0.13701238 0.0091225095 -0.023316678
0002f0 ab 7f 14 3e 96 cf b2 bb d3 f4 85 bd bc b5 d1 3e
       0.14501826 -0.005456875 -0.06540837 0.40958965
000300 2b 01 86 3c cf 66 96 b8 cc 7e 0b be ed 31 3a ba
       0.016357979 -7.171707e-05 -0.13622588 -0.00071027764
000310 0f f1 72 bd e7 0a ac bd 8f 5b 5b 3c 91 0e ac bd
       -0.059311923 -0.08400517 0.0133885285 -0.08401216
000320 08 ba bf 3b c9 fe a4 bd 95 53 50 bd 9f 82 c0 3c
       0.005851034 -0.08056409 -0.05086096 0.023499785
000330 99 31 18 bc 54 69 25 3b 3b f9 42 3b f7 59 e9 bc
       -0.009289169 0.0025239782 0.0029750604 -0.028485281
000340 1d 17 ff bb b8 36 76 bc 16 54 63 3d c9 53 4c 3b
       -0.0077847377 -0.015027694 0.055500112 0.003117787
000350 0f 35 f0 3d ad ad d6 3d a6 f8 ef 3c 1b c3 1b 3c
       0.1172887 0.10482345 0.02929337 0.009506966
000360 77 a5 72 bd 9d 57 02 be 20 f1 2a bd 40 bf 16 bd
       -0.05923983 -0.12728734 -0.04173386 -0.036803484
000370 cb af 1b be a2 14 97 bd 3b c5 65 3c 70 07 f9 bc
       -0.15203778 -0.07376982 0.014024074 -0.030399054
000380 2d 08 34 bd e0 69 44 3c 18 d6 2a 3d 7e 4a 92 bb
       -0.04395311 0.011988133 0.041708082 -0.0044644466
000390 0d 07 d9 3c 6e ce 29 3d 54 f3 85 3c 33 80 a3 3d
       0.02649262 0.041456632 0.01635138 0.079834364
0003a0 2f f5 33 bc 1a 94 df 3c b5 a8 19 bd 50 3a 12 be
       -0.010983749 0.0272923 -0.037514407 -0.14280057
0003b0 52 97 48 3d 7d 9e 38 bd e6 42 ed 3c 06 fa 8c bd
       0.048972435 -0.04507302 0.028962564 -0.06883626
0003c0 5d 95 01 bb 64 e8 f7 bb e1 9c 5c bc 69 54 3d ba
       -0.0019772865 -0.007565545 -0.013465137 -0.0007222356
0003d0 b9 43 99 3a 7a db 7e 3c f6 04 e1 3c 16 71 25 bd
       0.0011693157 0.015555257 0.027468186 -0.04039105
0003e0 1a 38 4a 3c 76 17 a9 3e f3 31 72 bd f6 7c ae bd
       0.012342477 0.33025712 -0.059129667 -0.08519928
0003f0 65 8b d4 bd 11 68 3a bc cb fa c0 3c bf 9b 79 3d
       -0.1037815 -0.01137735 0.023557087 0.060939547

action_model._discrete_distribution.branches.0.bias f4 [3]
000000 70 1e c5 bc fe 01 59 3d 8f 31 56 bd
       -0.024062365 0.052980416 -0.052293357

action_model._discrete_distribution.branches.1.weight f4 [2, 128]
000000 29 e7 df bd 14 d9 80 bc ff 13 94 bc b0 f7 05 bd
       -0.10932762 -0.01572851 -0.018075941 -0.032706916
000010 0a c4 a3 3d b3 08 46 bc 3d 5a dc 3d d6 d8 7b bb
       0.07996376 -0.012087035 0.10759399 -0.0038428805
000020 e4 b2 ad 3a f8 cb 34 bc 20 eb bb bb 8e 5d 47 ba
       0.0013252166 -0.011034958 -0.005734816 -0.00076051883
000030 ef 28 07 3c 4c f8 74 3e fd ee c5 3b 0a 25 bb 3c
       0.008249505 0.23922843 0.0060404525 0.02284481
000040 2e 3e 32 3d 55 ba 6d 3e d2 98 a0 3c 52 53 8a 39
       0.04351633 0.23215611 0.01960412 0.0002638349
000050 24 6f b8 3e 9f be 9a 3b 92 07 9e bc 7e 05 02 bb
       0.36022294 0.004722431 -0.01929072 -0.00198397
000060 20 0d 2a bc b0 96 d7 bd b6 91 c0 bb 66 c6 19 bc
       -0.010379106 -0.10526788 -0.005876745 -0.009385681
000070 73 4d f5 bc c9 a7 1d 3d 72 88 f5 3c f7 c5 ed bc
       -0.029944157 0.03849009 0.029972289 -0.029025061
000080 13 e7 d4 3d e9 65 8a ba 56 9f 76 3c ed f3 b8 bc
       0.103956364 -0.0010558936 0.015052637 -0.02257725
000090 87 4b a1 3d b3 be 2b bc a6 aa 5f bd d7 7a 18 3b
       0.07875734 -0.010482478 -0.054606102 0.0023266578
0000a0 e1 20 9e bd 8d 46 33 3d d2 cd 0c bc b2 96 6a bb
       -0.07721115 0.043768454 -0.008593993 -0.0035795388
0000b0 d4 ac 63 3c 43 ee 85 bc e8 12 13 3c b5 d0 a3 3d
       0.013896186 -0.016348964 0.008976676 0.07998792
0000c0 67 6d 3c bc 27 7c 69 3b 6c b0 76 bd 00 1f 9a 3c
       -0.011500693 0.003562698 -0.060226843 0.01881361
0000d0 c9 ca d0 3b 38 de 1f 3d bf 6d 9a bc ac 68 5b bc
       0.00637183 0.039030284 -0.01885116 -0.013391655
0000e0 2f 22 49 bb c0 18 d0 3c aa 6e 9c 3c 65 a0 aa bd
       -0.003069054 0.025402427 0.019095737 -0.08331374
0000f0 60 e8 b0 bc 8c 5a ed bb 8b 31 bf bc 3b 08 92 3c
       -0.02159518 -0.00724346 -0.023339054 0.01782619
000100 5b 17 10 3d 60 10 a8 3d c3 f3 19 3e 13 34 20 3e
       0.035178524 0.08206248 0.15034394 0.15644865
000110 24 c1 44 be 9d 04 2d 3c 05 62 0e 3c b5 2a 10 3c
       -0.19214302 0.010560182 0.008690362 0.008799245
000120 ee 62 6a bb 35 82 86 bd 86 a4 d4 bc 81 68 84 bb
       -0.0035764533 -0.06567804 -0.025957357 -0.004040778
000130 f6 b8 8f bd 3b 87 5a 3c 45 5f f6 bc 8f 2e 41 3c
       -0.070177004 0.0133379055 -0.030074725 0.011790886
000140 18 6b bc 3b 8c f8 b5 bb 36 53 6e ba ed 54 82 3c
       0.0057500713 -0.0055533107 -0.0009091379 0.015909636
000150 97 33 28 bc dc f8 53 3c e3 e9 c2 bc 75 3e ef 3a
       -0.010266206 0.012937751 -0.023793167 0.0018252867
000160 63 a0 3b bc a5 1f e6 3b 23 3f 11 bc c1 19 0f bd
       -0.011451813 0.0070228153 -0.008865151 -0.03493667
000170 3f 35 9e 3a 04 77 82 bc 5c 12 39 bd d6 ad 1a bc
       0.0012070312 -0.015925892 -0.045183524 -0.00944086
000180 2d ed e3 3b cc 2d ff 3c 3d 2e 06 bd a2 58 79 3c
       0.006955764 0.031149767 -0.03275894 0.015218886
000190 e0 ed 63 bc 5e 1a 19 ba d6 c9 1a bd ef 65 1a 3e
       -0.013911694 -0.0005840416 -0.037790142 0.15077947
0001a0 0f 49 7e bc 8b 97 4a 3e a1 0a d3 3d 7b b0 79 3c
       -0.015520348 0.19784372 0.10304762 0.01523983
0001b0 e4 99 07 3c 39 46 90 ba 83 b9 ca bb 20 30 38 bc
       0.0082764365 -0.0011007256 -0.0061866655 -0.011241943
0001c0 b2 47 4d bc ab a1 31 3c 07 4c be bd 53 7c 84 bc
       -0.0125293005 0.010841767 -0.09291845 -0.016172564
0001d0 ee 81 30 bc 35 8f 1c bc 52 82 f5 3a 86 cd 4a bb
       -0.010773165 -0.009555628 0.0018730855 -0.0030945255
0001e0 16 b4 58 bd 24 1f d8 bd 97 8d ff bb ec 62 94 3c
       -0.05290612 -0.105528146 -0.0077988612 0.018113576
0001f0 8c cf a3 bc 68 2b 41 3c bc 65 56 be 89 49 4d bc
       -0.019996427 0.011790134 -0.20937246 -0.012529739
000200 9a e0 b3 3d 66 55 bb 3c 3f 67 f3 3b 45 6c f8 3c
       0.08783074 0.02286787 0.0074280794 0.030325064
000210 ed 08 b9 bd ec 7e 5c 3c 23 9f dd bd c6 d7 ee ba
       -0.090349056 0.013457995 -0.108213685 -0.0018222264
000220 f3 4f 9f bb 3f 13 18 3c 70 bb 54 3c 6a d0 28 3c
       -0.0048618256 0.009281932 0.012984142 0.010303596
000230 f9 2c 04 b9 3b d0 75 be 97 bd d6 3b 14 de ad bc
       -0.00012605255 -0.24005215 0.0065533626 -0.02122406
000240 a0 bf 44 bd 40 de 7a be f5 c5 7e bc 56 ae 94 bc
       -0.04803431 -0.24498844 -0.015550126 -0.018149536
000250 77 21 b6 be 6b f7 20 3c c1 cb ca 3c 6d af c0 ba
       -0.35572407 0.009824614 0.02475536 -0.0014700718
000260 e6 75 96 bb 37 c6 de 3d 9d 75 48 3a 55 31 64 bb
       -0.0045916913 0.1087765 0.000764692 -0.0034819443
000270 5a 5c ef 3c fb de 05 bd f6 6d 4b bd 0e a6 16 3d
       0.029218841 -0.032683354 -0.049665414 0.036779456
000280 11 ba e1 bd 90 f8 e6 3a d6 e8 83 bc 99 32 f2 3c
       -0.110218175 0.0017621685 -0.016102236 0.029565142
000290 d9 93 8b bd 69 cc 17 bb 57 3e 57 3d fe 51 18 3b
       -0.06815309 -0.002316261 0.052549686 0.002324223
0002a0 39 b8 96 3d 88 e4 0c bd 2b a5 26 bb 1d 98 d1 bb
       0.073593564 -0.034397632 -0.0025428038 -0.006396307
0002b0 3c a5 3d 3c 8b e5 29 3c ed ba 89 3c cb 17 a1 bd
       0.0115750395 0.010369669 0.016812766 -0.07865866
0002c0 28 69 f3 3c dd 2a 03 3c fa 66 88 3d a5 d1 2f bc
       0.029713228 0.008005825 0.06660266 -0.0107311355
0002d0 9d 7d 51 bc fe b0 8f bc 18 d9 28 3c 80 4a c3 3a
       -0.012786296 -0.017540451 0.010305665 0.0014899522
0002e0 43 46 34 3c ab 79 20 bd 4f 09 fa bc c2 55 a8 3d
       0.01100308 -0.03917853 -0.030522017 0.08219482
0002f0 c4 3c ea 3c 38 7e 17 bc 3e 09 bf 3c 12 05 16 bd
       0.028593428 -0.0092464015 0.023319837 -0.03662593
000300 43 af 88 bc e3 98 7a bd 6a 3c 1c be d6 c9 26 be
       -0.016685134 -0.06118096 -0.15257421 -0.16287932
000310 d2 52 57 3e 05 f5 27 bc 61 3d 2c bc 9d 53 28 bc
       0.21027687 -0.010251288 -0.010512681 -0.010273841
000320 ed 24 ea ba 2b 2e 8d 3d b2 15 3e 3a 7e c2 70 3c
       -0.0017863788 0.068935715 0.00072511577 0.014694808
000330 e6 51 95 3d 99 99 c6 ba 84 22 20 3b 1b 4c 89 bb
       0.072910115 -0.0015151977 0.0024434635 -0.0041899807
000340 68 79 8e 3b 4a 83 08 bc ac 9e c1 bb 16 21 63 bc
       0.004347969 -0.008332083 -0.0059088077 -0.013862869
000350 c3 3c 63 3c 49 2b 1d ba b5 6f b2 3c 9f 90 c9 bb
       0.013869467 -0.00059955247 0.021781782 -0.0061512734
000360 79 97 21 3c fa 45 2a bb c7 68 6f 3c 73 02 98 3c
       0.009862774 -0.002598165 0.014612383 0.018555855
000370 bc 90 84 3c 60 80 d0 bb 16 d7 30 3d 0e ab 07 3c
       0.016182296 -0.0063629597 0.043173872 0.008280529
000380 70 82 ed bb 23 fc 90 bc 9c c1 16 3d b7 9d 10 bc
       -0.0072482154 -0.017698353 0.036805734 -0.008826665
000390 66 86 91 3b 13 a6 16 3a 6e f8 47 3d 8f 82 17 be
       0.0044410704 0.0005746793 0.048820905 -0.14795898
0003a0 78 8a ee 3b c3 b0 54 be 29 cd e4 bd 98 fd 05 bd
       0.0072796904 -0.20770554 -0.11171944 -0.03271255
0003b0 7f 29 ad bb fc bb db 3b f7 c1 27 bc 67 64 d0 bb
       -0.0052844877 0.006705759 -0.010239116 -0.006359625
0003c0 b2 86 4b 3c c8 18 4a bc 17 ab b6 3d df 44 9d 3c
       0.012422251 -0.01233501 0.089193515 0.01919788
0003d0 af 79 83 bb 4d a9 12 bc 1e 92 bf bb 40 8b 9b bc
       -0.0040123085 -0.008951497 -0.005846276 -0.018987298
0003e0 eb 8c 6e 3d 2e 1b f9 3d d6 ee d5 bb 6e 11 4e bc
       0.05823986 0.12163387 -0.0065287156 -0.012577398
0003f0 92 36 f6 3c c9 29 89 bc f0 b3 58 3e a6 42 e9 3b
       0.030055318 -0.016743558 0.2116239 0.007118541

action_model._discrete_distribution.branches.1.bias f4 [2]
000000 aa 6d 43 bb e7 9f 43 3b
       -0.0029820004 0.0029849948

q1_network.network_body._body_endoder.seq_layers.0.weight f4 [128, 6]
000000 15 bb 1e bd 85 45 5a bd a1 1f 09 be 09 7a ab 3d
       -0.038752634 -0.053288955 -0.13390972 0.08372886
000010 04 22 c2 be 29 84 8f 3d 9c 89 c2 bd 9e d6 81 be
       -0.37916577 0.070076294 -0.09498903 -0.25359052
000020 3a f5 63 be 50 90 5c 3e db ca 66 bd 7e 2a 07 bf
       -0.22261515 0.21539426 -0.0563458 -0.5279921
000030 ff db 20 3f f7 71 7c be 3a 70 31 bf 2d de ed 3c
       0.6283569 -0.24652849 -0.6931187 0.029036606
000040 ce 58 70 be 29 a6 17 bc 12 c9 3e be 7e 82 f3 3e
       -0.23471376 -0.009255924 -0.1863139 0.47560495
000050 bf 09 73 be ea d7 10 3d 49 d4 f1 be a0 67 24 bf
       -0.23734187 0.03536216 -0.47232273 -0.6422062
000060 c2 25 84 3e 25 3b 11 3f e7 0b de be 12 59 42 3e
       0.25810057 0.5673087 -0.43368456 0.1897929
000070 db a7 dd 3e b2 89 0c bd 40 10 b5 3e 7d 4a 3e 3e
       0.43292126 -0.034311004 0.3536396 0.18583103
000080 4c e5 2e 3f 91 78 7e be 15 56 4b be c0 24 5d be
       0.6831863 -0.2485068 -0.19857056 -0.2159605
000090 a7 d0 11 3f f9 dc f6 be 9b 0f e4 3e 56 b2 a1 be
       0.56959003 -0.48215464 0.44543156 -0.31581372
0000a0 c9 44 1b 3d 87 dd 4e 3e f9 82 2e 3e 8b 61 f6 3d
       0.037907396 0.20201693 0.1704215 0.120303236
0000b0 77 96 a2 3e a4 d8 97 3e cd 0a 29 3f 45 c2 ef be
       0.3175542 0.2965747 0.66032106 -0.46827903
0000c0 e1 a9 a7 be b8 22 d9 3e 5a 1f 3d 3e e1 8a 9a 3d
       -0.32746795 0.424093 0.18468991 0.0754602
0000d0 b4 ff 32 bf 63 85 14 3e 8b 19 29 bf 27 94 87 3e
       -0.6992142 0.14504008 -0.660546 0.2648022
0000e0 09 27 47 be c9 48 b8 3d b8 8c 37 bf ca 56 4f bf
       -0.19448484 0.08998258 -0.71699095 -0.80991805
0000f0 78 68 91 bd 4a 50 92 be 46 d4 38 bd 6d a4 ee 3e
       -0.07100004 -0.2857688 -0.045124315 0.46609822
000100 06 04 07 be 3a 93 c7 3e 14 a2 8a be bb d2 1d 3e
       -0.13185129 0.38979512 -0.2707678 0.15412419
000110 b9 da 48 3f c8 f5 cc be b7 74 8d be 56 63 e6 39
       0.78458744 -0.40031266 -0.2762811 0.0004394303
000120 9f ce d8 be ec 84 8c 3d ca 55 31 be eb 87 92 bf
       -0.4234514 0.0686129 -0.17317882 -1.1447729
000130 cc 83 91 be d1 0f 85 3e 7f 21 b4 3e 11 c8 5d 3e
       -0.28420866 0.2598863 0.35181805 0.2165835
000140 bf 30 af 3e 80 94 a6 3c 63 52 22 3e ef b0 37 bf
       0.34216878 0.020334482 0.1585174 -0.71754354
000150 70 49 71 be 32 1e 14 bf 8d 5a b2 3e f5 70 d5 bd
       -0.2356317 -0.57858574 0.3483471 -0.104219355
000160 d8 ab dd bd c1 93 94 be 8a e3 6b 3d 29 2c bd 3d
       -0.10823792 -0.29018977 0.057590045 0.092369385
000170 d0 8d 4d be e1 fc 78 be aa 24 45 3d b4 2f 19 bf
       -0.20073628 -0.24315216 0.04813067 -0.59838414
000180 bf 53 b7 3e 8c de 18 3f 97 9f bd 3d dd 67 2e bf
       0.3580608 0.5971458 0.09258955 -0.6812723
000190 22 6d b7 3d fd 58 c5 be 2a ac b6 3e 3d f0 47 3f
       0.08956362 -0.38544455 0.35678226 0.7810095
0001a0 72 9d e7 3e ce 43 ea 3e 76 81 33 bf 97 f7 2f bf
       0.4523731 0.45754856 -0.70119417 -0.6873717
0001b0 2e 9e ca 3e 3d ff 7f be 7b f9 20 3e 7c 34 ea be
       0.39573807 -0.2499971 0.15720169 -0.45743167
0001c0 5b db 34 bf 40 0d a9 3e f8 9b cc be 17 3e f4 3e
       -0.7064721 0.3301792 -0.39962745 0.4770362
0001d0 75 99 db 3d 07 1b 98 bf 16 db f8 be 8f 60 a7 3e
       0.10722629 -1.1883248 -0.4860465 0.32690856
0001e0 f1 03 ee bd 48 3f 9a be a3 68 76 3d 57 99 c5 3c
       -0.116218455 -0.30126405 0.060158383 0.02412097
0001f0 cd 6e a2 be 2e 5f 92 bd 92 a3 d7 be 77 69 ac 3e
       -0.3172516 -0.0714706 -0.42116982 0.33674213
000200 0a c7 cf 3b 86 e4 7c 3e c9 6a 0e be e5 08 80 bf
       0.006340866 0.2469655 -0.13907923 -1.0002714
000210 7b 65 dd bd ff 58 31 3f af d7 86 bd 54 73 37 bf
       -0.108103715 0.6927642 -0.06584107 -0.7166035
000220 ba 74 96 3e c2 96 6e bf 8e b8 93 3e 5e 6c ef be
       0.2938593 -0.9319879 0.28851742 -0.46762365
000230 20 d1 d3 3e ff 3b 79 3d 57 51 08 be 26 d1 26 be
       0.41370487 0.060848232 -0.13312279 -0.16290721
000240 6f 53 60 bf d1 78 d7 bd 08 96 15 bf ed c1 90 be
       -0.8762731 -0.10521091 -0.58432055 -0.28272954
000250 b3 0c ac bf 3c 1c 9b 3e 8b 02 fd 3d d8 da c1 3d
       -1.3441375 0.3029498 0.12354001 0.09465569
000260 1f 47 37 be 04 de 51 bf 2a cc 8b 3e c7 6a e5 3e
       -0.17898224 -0.81979394 0.27304202 0.44808027
000270 d8 db 3e 3f 5f b4 ec bc bb c3 8d 3d 4f 52 cd 3e
       0.74554205 -0.028894601 0.06922098 0.4010186
000280 08 cb 29 3f 9b d1 5e bf 97 1a 54 bf 79 9f d3 be
       0.66325426 -0.8703858 -0.8285307 -0.41332605
000290 2a eb ee bb 88 93 48 3e ae 4d 5a 3e 9a 6d 78 3e
       -0.0072912173 0.19587529 0.21318695 0.2426056
0002a0 b2 30 b7 be fb a1 56 bf c3 6a c5 3e e4 a4 3b 3d
       -0.3577934 -0.8384091 0.38558015 0.04581155
0002b0 1c 33 de be d0 e3 fc bd c4 0c 15 3e 3e 57 ab be
       -0.43398368 -0.12348139 0.14555651 -0.33464998
0002c0 57 43 0e 3f 0b cc 29 be 68 1c da be 66 7d 8c be
       0.555715 -0.16581742 -0.42599797 -0.2743942
0002d0 d4 65 d4 bc aa 37 3b be e9 71 6e bf bf a6 cf bd
       -0.025927462 -0.18282953 -0.93142563 -0.10139226
0002e0 20 fb e6 3d cd 4b 3f 3f e0 2f 75 3e 50 e0 e7 be
       0.11278367 0.7472504 0.23944044 -0.45288324
0002f0 9f 88 05 3e 91 7f ab 3e 33 65 24 bf 82 f9 d1 be
       0.13040398 0.33495763 -0.6421692 -0.41010672
000300 a3 b8 92 bd 7d ed 0e bd 1a a4 04 bd 77 f5 ac be
       -0.07164123 -0.034894455 -0.032383062 -0.33781025
000310 20 9c 81 bd 56 a7 ce 3e 7e 38 3b bd 94 31 87 bd
       -0.063286066 0.40362042 -0.045708172 -0.06601253
000320 ae 8b e8 3d d6 b5 30 3e 55 5f 2e bf 9b cd 42 be
       0.11354767 0.17256865 -0.68114215 -0.19023745
000330 12 84 3c 3e 8d 6c d0 3d f5 d6 14 be d1 59 09 bf
       0.18409756 0.101769544 -0.14535125 -0.53652674
000340 2c 0a 2e 3e 30 de 47 bf 0b 4e 29 be 31 fe d7 3e
       0.16996068 -0.78073406 -0.16533677 0.4218612
000350 a6 45 9d bd 49 f3 32 3f 2f 41 07 3f cc 45 ec be
       -0.076793 0.69902474 0.5283384 -0.46147
000360 5c e0 f5 be f8 ba 8e be 94 11 3f bf ca 65 5e be
       -0.48022735 -0.2787702 -0.746362 -0.21718517
000370 0e 42 1c bf 46 f2 48 bb 74 60 88 be c9 89 52 be
       -0.6103829 -0.0030661984 -0.26636088 -0.20560373
000380 bd 12 55 be f6 a2 98 3d 13 04 4d 3c bb 56 06 bf
       -0.2080793 0.07452957 0.012513178 -0.5247609
000390 13 22 4c be cf bc 77 3e ce 7c 06 3f 8c 67 56 be
       -0.19934873 0.24193119 0.52534187 -0.20937937
0003a0 51 97 84 bf 72 17 38 3e 9b 11 8b bd af 03 d0 3d
       -1.0358678 0.17977694 -0.06790467 0.101569526
0003b0 32 41 f1 be 41 94 be 3e b6 36 3f 3e 12 61 46 be
       -0.47120053 0.37222484 0.18673214 -0.19372967
0003c0 60 15 03 3f 01 8d 00 3d 88 01 79 3f 17 6a fd 3e
       0.5120449 0.03138447 0.9726796 0.49495003
0003d0 13 fa 74 be 42 b2 09 bf 83 24 3c 3f b6 89 18 3e
       -0.2392352 -0.53787625 0.7349321 0.14896283
0003e0 4e f9 c0 3e 55 24 a9 be 85 59 bf be 4a 19 35 3f
       0.37690204 -0.33035532 -0.37372985 0.70741713
0003f0 36 f4 a3 be fd de da be 44 48 05 be f9 e0 7f bf
       -0.32022256 -0.42748252 -0.13015848 -0.99952656

q1_network.network_body._body_endoder.seq_layers.0.bias f4 [128]
000000 16 54 83 3d 81 2d dd 3d ca d6 ad 3d 89 60 6e bc
       0.064125225 0.10799695 0.084882334 -0.014549383
000010 72 bc 4e bb f5 42 bf bb f2 1f 38 3e ee 76 eb 3a
       -0.0031545428 -0.0058368393 0.17980936 0.0017964521
000020 fe be 0a bc ac 09 4b bc ca 8c 66 bc be 86 ab bc
       -0.008468388 -0.012392443 -0.014071653 -0.020938274
000030 aa ff ea bb 04 66 22 3c 15 23 44 3d 73 67 61 bd
       -0.007171591 0.009912018 0.04788502 -0.055030297
000040 60 c9 77 bc 6c 1b ae ba a5 a3 ae 3d 05 ce 7e bc
       -0.015123695 -0.0013283319 0.085273065 -0.015552049
000050 23 31 34 3d b7 fb 31 bc 3f 63 4c bc 59 71 16 3e
       0.043992173 -0.010863236 -0.012474834 0.14691676
000060 33 0c ab bc dc 91 c8 3d d8 d0 2d bd 4a 05 8b 3c
       -0.02087984 0.097934455 -0.042435497 0.016970295
000070 12 2f ba 3d e6 bc ad 3b 46 3c 9d 3e 21 c3 75 3c
       0.09091009 0.0053020595 0.30710047 0.015000136
000080 1b 9d bf bc 33 51 f2 bb b8 c2 01 3e 53 ae f7 bb
       -0.023390343 -0.0073949336 0.12671936 -0.007558623
000090 2e 9d d9 bc 30 75 87 bb 1f 96 85 bc 2c 2b d6 bc
       -0.026564207 -0.004133843 -0.016306935 -0.026143633
0000a0 86 22 09 bd 07 67 2b 3b cd 1d b5 3c b4 97 c0 3d
       -0.03348019 0.0026153938 0.022108937 0.09403935
0000b0 8b 97 a3 3b 6e 2d a2 bd 16 72 0a bc 5b 1b 90 3d
       0.0049924306 -0.07918821 -0.008450052 0.07036468
0000c0 54 b9 85 bc 9a 5d 8c bb 18 c6 aa bb 2c 27 aa bb
       -0.016323723 -0.004283619 -0.005211603 -0.005192658
0000d0 c7 88 93 bc d7 19 45 bc de 17 c5 3a c8 e8 8c 3b
       -0.018009556 -0.0120300865 0.001503702 0.0043002106
0000e0 4b 70 7a 3d ff a5 89 3d ef 2a 8a 3a a4 63 41 3d
       0.061142247 0.06721114 0.001054136 0.047214165
0000f0 49 d0 b5 3c eb 36 00 3e 83 f1 d5 3d 84 50 13 bd
       0.022194045 0.1252095 0.10446455 -0.035965458
000100 c0 ce 20 3c 4f b8 83 3b 42 7c d5 bb a8 d8 a2 3e
       0.009814918 0.004019774 -0.006515057 0.3180592
000110 f8 58 be 3c 3a ba 4e bd 19 0c a9 bb 04 3a 71 bc
       0.023235783 -0.05047057 -0.005158913 -0.014723305
000120 aa 4e 5c bd 73 34 b2 bc 26 73 42 3d ab 37 84 bd
       -0.053785957 -0.021753525 0.047473095 -0.0645593
000130 59 77 84 bd 97 e0 84 3e 95 1f 55 3c e4 b1 25 bc
       -0.06468076 0.25952598 0.013008018 -0.010113213
000140 3d 9f 80 3c b9 81 3a 3d 9a 66 eb bb 8c 3a 74 3e
       0.01570093 0.04553387 -0.007183862 0.23850459
000150 61 bb a5 bc ec d0 6e 3a e1 b1 bc 3b 34 64 09 bd
       -0.02023095 0.0009110111 0.0057585095 -0.033542827
000160 20 65 84 bc 64 11 a3 3d 90 7c 80 bc a9 f2 04 3d
       -0.016161501 0.079623014 -0.015684396 0.03245798
000170 8a 06 07 bd 79 bc 39 bd 13 1a 0c 3d 6c 9a 02 bc
       -0.03296522 -0.045345757 0.034204554 -0.007971387
000180 a6 58 3f 3e 64 4c c1 bb 5d 8b 7d 3d 5e 46 fb 3b
       0.1868616 -0.005898999 0.061900485 0.0076683005
000190 3a b5 6a bd 96 17 16 bd fd 35 85 bc a4 0a cf 38
       -0.057301737 -0.036643587 -0.016261095 9.872511e-05
0001a0 9c 57 24 3b 65 e0 2b 3b d3 22 c8 3c ee 9c d3 bc
       0.0025076633 0.002622628 0.024430668 -0.025831666
0001b0 b2 e3 54 3b 19 01 cd ba 6e 8d d4 ba 55 32 7b b9
       0.003248435 -0.0015640586 -0.0016216466 -0.00023955975
0001c0 68 8f 7a 3c 8f cc 5e 3d 9c f2 df bc 62 b6 96 38
       0.01529298 0.0543943 -0.027337365 7.186529e-05
0001d0 d8 fe 27 bc 0b 36 64 bc 2a f9 a3 3b d8 e6 80 bc
       -0.010253631 -0.0139289005 0.005004068 -0.015735075
0001e0 11 ef a4 3d 48 1d e8 bb fc 4d df bb 8a f5 a4 ba
       0.08053411 -0.0070835687 -0.0068147164 -0.0012585383
0001f0 91 d3 cd bb 4c 28 0f 3e bb d8 ed bc fa 85 56 bc
       -0.006281324 0.13980216 -0.02903401 -0.013093466
