results/first/SpaceInvaders/SpaceInvaders-2957.pt (torch, 958521 bytes, 83 tensors)

discrete_act_size_vector f4 [1, 2]
0	0x40400000	3.0
1	0x40000000	2.0

network_body._body_endoder.seq_layers.0.weight f4 [128, 4]
0	0xbb08de97	-0.0020884627
1	0x3f5513cb	0.83233327
2	0x3f49b541	0.78792197
3	0x3f1db33d	0.6160162
4	0x3edfcea7	0.4371235
5	0x3f03cd97	0.5148558
6	0x3ddd1ebb	0.10796877
7	0xbd5dda1b	-0.05416308
8	0x3eb04955	0.34430948
9	0xbeceaae2	-0.40364748
10	0x3e854ca9	0.2603505
11	0xbef1e375	-0.47243848
12	0x3e09adc4	0.13445193
13	0xbf2de8aa	-0.6793314
14	0xbe8fac63	-0.28061208
15	0x3d781d64	0.060574904
16	0xbf277782	-0.6541673
17	0xbb303b82	-0.0026890938
18	0x3ec251c6	0.37953013
19	0xbe9b86e2	-0.30376345
20	0xbe9deb44	-0.30843556
21	0xbec01165	-0.3751327
22	0x3da40039	0.08007855
23	0xbe86c04d	-0.2631859
24	0x3e9c16a3	0.3048602
25	0xbe348d01	-0.17631914
26	0xbf5a7736	-0.8533815
27	0x3f15fe91	0.5859156
28	0xbf296852	-0.66174805
29	0x3f0dcdda	0.5539223
30	0x3f4a5f4f	0.7905168
31	0x3d4978eb	0.049187582
32	0xbf3a3267	-0.7273316
33	0x3dfb35ae	0.12266098
34	0xbf8ffb4c	-1.1248565
35	0x3f3c9b42	0.73674405
36	0xbe1683b4	-0.14698678
37	0x3eb05856	0.34442395
38	0x3ea98f8e	0.33117336
39	0xbf111f74	-0.5668862
40	0x3e09b1ee	0.13446781
41	0x3e03c17a	0.12866774
42	0xbd955ef4	-0.072935015
43	0xbed46b6b	-0.41488203
44	0xbe370995	-0.17874749
45	0xbe2f3fcc	-0.1711418
46	0x3ea7273f	0.3264713
47	0x3df47a96	0.11937444
48	0x3f12c23b	0.5732762
49	0xbe9ab2b7	-0.30214474
50	0x3f8597e7	1.0436982
51	0x3f0f6aee	0.56022537
52	0xbe2ef671	-0.17086197
53	0x3de59a51	0.11211074
54	0xbeab80b0	-0.33496618
55	0xbbb4a6f2	-0.0055130655
56	0x3d9f3cc4	0.07775262
57	0xbf868c1c	-1.0511508
58	0x3e8cc98f	0.27497527
59	0x3f1983b7	0.59966606
60	0xbe4f2746	-0.20229825
61	0xbeac27cd	-0.33624116
62	0x3f49fdf3	0.7890312
63	0xbe804c5d	-0.2505826
64	0x3ef10978	0.47077537
65	0xbf068148	-0.5254102
66	0x3ec2a443	0.38015947
67	0xbe66b712	-0.22530773
68	0x3d9c0992	0.07619013
69	0xbefda059	-0.49536398
70	0xbea5c7b9	-0.3237894
71	0xbe6895a0	-0.22713327
72	0xbd412098	-0.047150224
73	0x3e43f567	0.19136582
74	0x3e2ef529	0.17085709
75	0xbf7ee168	-0.9956269
76	0x3f0f2667	0.5591797
77	0xbf6409ff	-0.8907775
78	0x3f414967	0.7550263
79	0xbdf11cda	-0.11773081
80	0x3d68f44b	0.0568736
81	0x3de11d7f	0.10991954
82	0xbe8eea45	-0.27913108
83	0x3f5f5a39	0.87247044
84	0xbf3c42cc	-0.73539424
85	0x3e836278	0.25661063
86	0x3f3a85cc	0.7286041
87	0xbe09ed6e	-0.13469478
88	0x3ee4c9f9	0.44685343
89	0xbe9a53c6	-0.3014204
90	0xbf1c9247	-0.611607
91	0xbf36c289	-0.7139059
92	0xbe175d04	-0.14781576
93	0xbe56e485	-0.20985611
94	0xbdde35d4	-0.10850111
95	0xbe06a4bf	-0.13148783
96	0xbe8d805c	-0.27636993
97	0xbe49fa31	-0.19724347
98	0x3e4ac758	0.19802606
99	0xbe182c72	-0.14860705
100	0x3e5d3b19	0.21604575
101	0x3e9d2b2a	0.30696994
102	0xbe9290c0	-0.2862606
103	0xbed62f76	-0.41833085
104	0xbf03ed37	-0.51533836
105	0x3bad5ea7	0.0052908245
106	0xbf0c5581	-0.5481797
107	0x3f00ec39	0.5036045
108	0x3f83f85e	1.0310171
109	0x3ef000d5	0.46875635
110	0x3e93af3b	0.28844628
111	0xbd239e52	-0.039945908
112	0x3e09c90b	0.13455598
113	0x3f84b180	1.0366669
114	0xbedebd0d	-0.4350361
115	0x3f8256ff	1.0182799
116	0x3fba782b	1.4567922
117	0xbe397b15	-0.18113358
118	0x3ec752f4	0.38930476
119	0xbeea4401	-0.45755008
120	0xbe583b65	-0.21116407
121	0x3e805d49	0.2507117
122	0x3ec0d732	0.3766418
123	0x3e82f3f5	0.2557675
124	0x3fa28fdf	1.2700156
125	0x3dccbf5f	0.09997439
126	0xbc140d9b	-0.009036447
127	0x3f267a16	0.6503004
128	0x3ed4d0f1	0.4156566
129	0x3ed2fc65	0.41208187
130	0xbd95a517	-0.07306879
131	0x3f0235c9	0.5086332
132	0xbe033a58	-0.12815225
133	0xbe690d68	-0.2275902
134	0xbe9e6831	-0.30938867
135	0x3f3157db	0.6927468
136	0x3e918118	0.28418803
137	0xbcef734f	-0.029229788
138	0x3e51c75e	0.20486209
139	0xbec190b3	-0.3780571
140	0xbed41126	-0.41419333
141	0xbe952187	-0.29127142
142	0x3f2846fc	0.65733314
143	0xbe2ba81f	-0.16763352
144	0xbe81a279	-0.2531927
145	0xbe9c9908	-0.30585504
146	0x3d46ea3c	0.048563227
147	0x3f3a9bec	0.7289417
148	0x3f819240	1.0122757
149	0x3e86ca6e	0.26326317
150	0x3e90d9a7	0.28291056
151	0x3f8780ad	1.0586144
152	0xbe613a7a	-0.21994963
153	0xbe22c9f9	-0.15897359
154	0xbf37fda3	-0.71871394
155	0xbf823355	-1.0171915
156	0xbef5b91a	-0.47992784
157	0x3e8e11d1	0.27747968
158	0xbe592750	-0.21206403
159	0x3ee67cf2	0.450172
160	0x3dff7bf5	0.12474815
161	0x3e1fe65c	0.15615219
162	0x3f07ed0c	0.5309608
163	0xbf0203e6	-0.507872
164	0x3dec98f1	0.11552609
165	0x3e69b2b3	0.22822075
166	0xbe677992	-0.22604969
167	0xbefc5114	-0.49280608
168	0x3f447f0e	0.7675637
169	0x3dedbe7c	0.11608598
170	0xbea141b5	-0.31495443
171	0x3db757e8	0.08952314
172	0xbf271bad	-0.65276605
173	0xbe4a1773	-0.19735508
174	0xbd8aeff9	-0.067840524
175	0xbe84952b	-0.25895056
176	0x3dab2d2c	0.08358225
177	0x3ee97eaa	0.4560445
178	0xbf04b94a	-0.5184523
179	0x3f28711d	0.657976
180	0x3f08cf1c	0.53441024
181	0xbea86e41	-0.32896617
182	0x3e430647	0.19045363
183	0xbf16127e	-0.58621967
184	0xbd9f885d	-0.07789681
185	0x3d30d7eb	0.043174665
186	0x3e694287	0.22779284
187	0xbe27c1b2	-0.16382483
188	0x3e5598d2	0.20859078
189	0x3e06fb95	0.13181908
190	0x3ee9aee1	0.45641235
191	0x3eeb9dc9	0.46018818
192	0x3f560cb0	0.8361311
193	0xbe311213	-0.17292051
194	0xbc804333	-0.015657043
195	0xbed09161	-0.40735915
196	0x3e4afc8c	0.19822901
197	0xbf22f126	-0.63649213
198	0x3efd8ea9	0.49522904
199	0x3ebe968a	0.37224227
200	0x3f4614f3	0.77375716
201	0x3eb51b7b	0.35372528
202	0x3f1c5f32	0.61082757
203	0xbf3cf943	-0.73817843
204	0x3f7efb75	0.9960244
205	0xbf4d37e2	-0.80163395
206	0x3f6125f3	0.8794853
207	0xbf520974	-0.82045674
208	0x3f914256	1.1348369
209	0xbf02839d	-0.50982076
210	0x3ea59993	0.3234373
211	0x3e9dbbd1	0.30807355
212	0xbf6429ad	-0.8912609
213	0xbe82c992	-0.2554441
214	0x3e3515ca	0.17684093
215	0x3ec13945	0.37739006
216	0x3dda8a1b	0.10670873
217	0x3f183712	0.5945903
218	0x3ee3c1a2	0.44483668
219	0x3e49ace4	0.19694859
220	0xbcae5545	-0.021280894
221	0xbe019dcd	-0.12657852
222	0x3f12788c	0.5721519
223	0xbf8b5a71	-1.0886976
224	0xbe9937eb	-0.29925475
225	0x3e60ae3c	0.21941465
226	0xbe5c5061	-0.21515037
227	0xbedc95ff	-0.43083188
228	0xbe20e21c	-0.15711254
229	0x3f3c145a	0.73468554
230	0x3f00d31b	0.5032212
231	0xbed191d0	-0.4093156
232	0xbdae7852	-0.08519043
233	0x3f7b6db8	0.9821429
234	0x3e1f5927	0.15561353
235	0x3e916d56	0.2840373
236	0x3e316be5	0.17326315
237	0x3f7ca1b7	0.9868426
238	0x3e237e20	0.15966082
239	0xbd152b59	-0.036418293
240	0xbd49ad8e	-0.04923778
241	0xbee63a45	-0.4496633
242	0x3e719bb1	0.23594548
243	0x3f77885a	0.9669243
244	0xbfa92ea0	-1.3217354
245	0xbf4072ca	-0.75175154
246	0x3dfc63c0	0.12323713
247	0xbc81244e	-0.015764382
248	0x3dc64164	0.09680441
249	0x3f52191c	0.82069564
250	0x3f1da622	0.61581624
251	0x3e1e1793	0.1543868
252	0x3def48d9	0.116838165
253	0xbf0e65ea	-0.5562426
254	0xbe8c1de3	-0.27366552
255	0x3f7ac1e2	0.9795209

network_body._body_endoder.seq_layers.0.bias f4 [128]
0	0xbcb5402a	-0.022125322
1	0x3cee55fd	0.029093737
2	0x3b5e0cbc	0.0033882102
3	0x3b113abe	0.0022160257
4	0x3c0e3a3c	0.008680876
5	0x3e3c47d7	0.1838678
6	0xbb8f0b34	-0.004365349
7	0xbd0d0d9d	-0.03443681
8	0x3c6ac78f	0.014329805
9	0xbcce1422	-0.025156084
10	0xbcb35582	-0.02189136
11	0xbcbe1284	-0.023202188
12	0xbc87395a	-0.01650684
13	0x3b5ff8c5	0.0034175378
14	0x3a1023b7	0.0005498486
15	0xbd20dd30	-0.03927344
16	0x3e305700	0.17220688
17	0x3dcdf718	0.10056895
18	0xb9740d53	-0.00023274617
19	0x3c31b556	0.0108464565
20	0xbaf4d54b	-0.0018679289
21	0x3c498800	0.012300491
22	0x3c495b69	0.01228986
23	0x3e1b0141	0.15137197
24	0x3c1da805	0.0096225785
25	0x3d1d761f	0.038442727
26	0x3bf98944	0.0076152403
27	0x3d781415	0.060566027
28	0x3cd9f364	0.026605316
29	0xbba9aa02	-0.005177737
30	0xbc110abb	-0.008852656
31	0x3d6d9dd9	0.058011863
32	0xbcfa2312	-0.030534301
33	0x3d989391	0.07450021
34	0xbce5c582	-0.02804828
35	0xbcac024c	-0.020997189
36	0x3e083fa7	0.13305531
37	0xbda36a7c	-0.07979295
38	0xb9c49473	-0.00037494636
39	0xbcc4924d	-0.023995543
40	0xbc924c27	-0.017858578
41	0x3cd07d6d	0.025450433
42	0xbd1cfcb5	-0.038326938
43	0xbc05fb2e	-0.008177562
44	0x3cc2d4d0	0.023783118
45	0x3cb0da44	0.021588452
46	0x3c55886b	0.013033013
47	0xbb874426	-0.004127997
48	0x3d2cee81	0.042219643
49	0x3e3fa916	0.18716845
50	0x3cdec219	0.027192162
51	0x3c7400b4	0.014892746
52	0x3e132f0f	0.1437342
53	0xbc773890	-0.015089169
54	0xbd11adb3	-0.035566043
55	0xbb10eacb	-0.0022112604
56	0xbca695f4	-0.020335175
57	0x3b634f81	0.003468484
58	0xbd13e651	-0.03610832
59	0x3b729483	0.003701479
60	0x3d964f53	0.07339349
61	0x3cee5ab6	0.029095989
62	0xbcedd19a	-0.02903061
63	0xbc0d6744	-0.0086305775
64	0xbc018115	-0.007904311
65	0xbd15fbe8	-0.03661719
66	0x3b83372a	0.004004379
67	0x3c5eb8e9	0.013593891
68	0xbd638f07	-0.055556323
69	0x3de0f075	0.109833635
70	0xbcf53b4d	-0.029935503
71	0x3d200275	0.039064843
72	0xbcd42119	-0.025894688
73	0xbcfb2a45	-0.030659804
74	0xbc7a21c8	-0.015266843
75	0x3dae5f07	0.08514219
76	0x3ddc2cbd	0.10750721
77	0x3cc6050d	0.02417233
78	0x3c3f261c	0.011666801
79	0xbb9aab1d	-0.0047201053
80	0x3d332c20	0.043743253
81	0xbcc91c7a	-0.024549711
82	0xbc836fb1	-0.01604447
83	0x3df06442	0.11737873
84	0x3c77d362	0.015126081
85	0xbccdcb64	-0.025121398
86	0xbd499b1f	-0.0492202
87	0x3dbfe981	0.09370709
88	0xbc532f75	-0.012889733
89	0x3c8f8df1	0.017523738
90	0xbc8756e0	-0.016520917
91	0xbd33ca00	-0.043893814
92	0xbc9a852d	-0.018862331
93	0x3cff4bbb	0.03116404
94	0xbc3c5964	-0.011495922
95	0xbd74a8ea	-0.0597314
96	0x3cc3cfde	0.02390283
97	0xbd0235bb	-0.031789523
98	0xbcc925a9	-0.02455409
99	0xbc71a791	-0.014749424
100	0x3c85c294	0.016328134
101	0xbc64e51e	-0.013970641
102	0x3d6e262c	0.058141872
103	0xbc9bc9d3	-0.019017136
104	0x3d0a6ef2	0.033797212
105	0xbd4f9b9b	-0.050685506
106	0xbc036d99	-0.008021736
107	0xbd54408e	-0.051819377
108	0xbcb78cc7	-0.022405995
109	0xbc37dda2	-0.011222275
110	0x3e421d5c	0.18956512
111	0xbc9c52b6	-0.019082408
112	0xbd194d9e	-0.037427537
113	0x39ed991b	0.00045318235
114	0xbd2e17f5	-0.042503316
115	0xbce70fc3	-0.028205758
116	0x3c0fbf61	0.008773656
117	0xbd41ee2e	-0.047346286
118	0xbbf99dc5	-0.0076176845
119	0x3e791996	0.24326167
120	0xba909399	-0.0011030316
121	0xbc87355b	-0.016504934
122	0xbb836eaf	-0.0040109972
123	0x3c92c3fe	0.017915722
124	0xbce5d5e9	-0.028056102
125	0xbd052673	-0.03250737
126	0x3ccab00b	0.024742147
127	0xbc6bc26c	-0.0143896155

network_body._body_endoder.seq_layers.2.weight f4 [128, 128]
0	0x3b2a1407	0.0025951879
1	0x3d55951f	0.052144166
2	0xbd62d5f2	-0.055379815
3	0xbd52b0c9	-0.051438127
4	0xbe12713c	-0.14301008
5	0x3d9a3d11	0.07531179
6	0xbc14c936	-0.009081176
7	0x3c65c679	0.01402437
8	0xbd5d45a7	-0.054021504
9	0x3c4d3bcc	0.012526464
10	0x3c5cad98	0.013469122
11	0xbdab9417	-0.08377855
12	0xbbf45cf5	-0.0074573704
13	0xbdb9fa93	-0.09080996
14	0xbacfcc6c	-0.0015853769
15	0x3e187f93	0.14892416
16	0x3d4f5d5f	0.050626155
17	0x3e094beb	0.13407867
18	0x3e388009	0.18017592
19	0x3d949e41	0.07256747
20	0xbe0b35f4	-0.135948
21	0xbce410f1	-0.02784011
22	0x3e1b9a75	0.1519564
23	0xbc58848e	-0.013215197
24	0x3c0396ad	0.008031529
25	0x3da19abe	0.07890843
26	0x3ba05d75	0.0048939534
27	0x3dca9d6e	0.098933086
28	0xbdf9611f	-0.121767275
29	0xbc639498	-0.013890408
30	0xbcad2a14	-0.021138228
31	0x3cd817ca	0.026378531
32	0x3c89b998	0.01681213
33	0xbdbe2478	-0.092842996
34	0x3d46fba0	0.048579812
35	0x3bcbcac6	0.006219241
36	0x3e19ed30	0.15031886
37	0xbda97d08	-0.08275801
38	0x3e0d8452	0.13820007
39	0xbd839401	-0.06424714
40	0xbcfd20a3	-0.030899351
41	0xbcc6be11	-0.024260553
42	0x3dcc5ff5	0.0997924
43	0xbd72dce3	-0.059292685
44	0x3de2adcc	0.110683054
45	0x3e0d6019	0.1380619
46	0x3ad9cf31	0.0016617534
47	0xbd0f7172	-0.0350203
48	0x3e28adde	0.16472575
49	0x3dcf2390	0.10114205
50	0xbddd5896	-0.10807912
51	0x3dedc9f9	0.11610789
52	0xbcbe9e12	-0.023268733
53	0xbd949988	-0.07255846
54	0x3d86df1f	0.06585526
55	0x3d2af9a4	0.041741982
56	0xbdba663d	-0.09101532
57	0xbc330938	-0.010927491
58	0x3b9aefb1	0.0047282805
59	0x3dd311d8	0.10306138
60	0xbaf68dcc	-0.0018810569
61	0xbdc988ea	-0.098405674
62	0x3da33173	0.07968416
63	0xbd67d4bd	-0.056599367
64	0xbe649a08	-0.22324383
65	0xbe1456e9	-0.14486279
66	0xbdc8903b	-0.09793135
67	0x3df045b6	0.11732046
68	0xbc22176e	-0.009893281
69	0x3d706fb4	0.05870028
70	0xbc31f4f4	-0.010861624
71	0x3e0e4873	0.13894825
72	0xbcd8d20f	-0.026467351
73	0xbe39a72e	-0.1813018
74	0xbdca7a90	-0.09886658
75	0xbbb77654	-0.0055988226
76	0x3c38ea73	0.011286366
77	0x3dccc5e0	0.09998679
78	0x3e3dc00e	0.18530294
79	0xbe104aa6	-0.14090976
80	0x3c3536c7	0.011060423
81	0xbd7c460d	-0.061590243
82	0xbad57183	-0.001628444
83	0xbd3845de	-0.044988506
84	0x3c9cdd8a	0.019148607
85	0xbd99f8f1	-0.07518185
86	0xbddf511c	-0.10904142
87	0x3d8d7930	0.0690788
88	0xbdf0aad0	-0.1175133
89	0xbe0b1f41	-0.13586141
90	0x3e1c5c69	0.15269627
91	0xbd4b7a1b	-0.049676996
92	0xbdeb1e10	-0.11480343
93	0xbd982a33	-0.07429924
94	0xbdc860ed	-0.09784112
95	0x3c964407	0.018342985
96	0xbcc2f5c5	-0.023798833
97	0xbd904eb6	-0.07046263
98	0x3e0bec7b	0.13664429
99	0x3d4f1021	0.05055249
100	0xbde397d0	-0.1111294
101	0x3cc0dd58	0.023543045
102	0xbcd4161a	-0.025889445
103	0xbe2752fd	-0.16340251
104	0x3dfcd7cd	0.12345848
105	0xbdc31086	-0.09524636
106	0xbe1ac16a	-0.15112844
107	0x3dee13ee	0.11624895
108	0x3e01edd3	0.12688379
109	0xbdbaed1b	-0.091272555
110	0xbdac3279	-0.084080644
111	0xbb875452	-0.004129925
112	0xbc99dbd8	-0.018781587
113	0x3e1b92ab	0.15192668
114	0xbdb7d8a5	-0.089768685
115	0xbd5665ce	-0.052343182
116	0xbe036b3b	-0.12833874
117	0xbd88ffa9	-0.06689388
118	0x3d31e3ee	0.04343026
119	0x3e101a74	0.14072591
120	0xbd92ec82	-0.071740165
121	0xbd9ab1f8	-0.07553476
122	0x3e2d8cd5	0.16948254
123	0xbe33cfdb	-0.1755976
124	0xbd9a87f6	-0.07545464
125	0x3baf3108	0.005346421
126	0x3d61314c	0.054978654
127	0x3cead689	0.028666751
128	0xbcd301ef	-0.025757758
129	0x3d0b7279	0.034044717
130	0xbdefa922	-0.117021814
131	0xbd07d563	-0.033162486
132	0x3da3c556	0.07996623
133	0xbd9503b1	-0.07276095
134	0xbb98dfd5	-0.0046653547
135	0xbe65852a	-0.2241408
136	0x3cd1ea7f	0.025624512
137	0x3defcdaf	0.11709153
138	0xbd5b8ffc	-0.05360411
139	0x3beedb4c	0.007289326
140	0x3d8da997	0.06917112
141	0xbca79c9c	-0.02046042
142	0xbd07725c	-0.033068046
143	0xbe8e953d	-0.27848235
144	0xbc0ab778	-0.008466594
145	0x3db4bee0	0.08825469
146	0x3d1e17e6	0.03859701
147	0x3d4e65c1	0.05039001
148	0xbe2c6dab	-0.1683871
149	0xbd0082dd	-0.0313748
150	0xbd5137c3	-0.05107857
151	0xbe57988e	-0.21054289
152	0x3d4e43e4	0.050357714
153	0xbd480c52	-0.048839875
154	0x3d987c8b	0.0744563
155	0xbd1073bf	-0.035266634
156	0xbc1a09ae	-0.009401722
157	0x3de99cd1	0.114068635
158	0xbda397a7	-0.0798791
159	0x3e044a74	0.12919027
160	0x3d9b482a	0.075821236
161	0xbc099c16	-0.00839903
162	0xbdc879d3	-0.09788861
163	0xbbfae40f	-0.0076565812
164	0xbd2cc918	-0.042183965
165	0x3c82e342	0.015977506
166	0x3bc8c1dc	0.0061266255
167	0x3d8a1fd0	0.06744349
168	0x3daef8a6	0.0854352
169	0x3d1ce0ca	0.038300313
170	0x3e4a939c	0.19782871
171	0xbd0ba569	-0.034093294
172	0xbd8061aa	-0.06268628
173	0xbdff34dc	-0.12461254
174	0xb9cd3282	-0.00039138278
175	0x3db194d9	0.086709686
176	0xba3a13bf	-0.00070982793
177	0xbdba67f7	-0.09101861
178	0xbd343b2e	-0.04400175
179	0x3da119fb	0.078662835
180	0xbe56b54a	-0.20967594
181	0xbd0a86aa	-0.033819832
182	0xbe02807c	-0.12744325
183	0x3d9c2af1	0.07625378
184	0x3d672425	0.056430954
185	0xbdd44dcd	-0.10366402
186	0xbde4420c	-0.1114541
187	0xbdaefae8	-0.0854395
188	0xbd568ac3	-0.052378427
189	0x3d73e2e5	0.059542555
190	0xbc6c9fca	-0.014442394
191	0x3d22d6b3	0.039755534
192	0xbb4a0342	-0.0030824696
193	0x3da13235	0.07870904
194	0x3b5da300	0.003381908
195	0xbe30e94a	-0.17276493
196	0xbc60cc19	-0.013720536
197	0x3e8806fe	0.26567835
198	0x3e146962	0.14493325
199	0x3d86b8f4	0.06578246
200	0x3d86862e	0.065685615
201	0xbe45012a	-0.19238725
202	0x3dacc1fc	0.08435437
203	0xbe0ec95d	-0.13944001
204	0xbdc8653b	-0.09784933
205	0xbd88f64b	-0.06687602
206	0x3d893a1c	0.067005366
207	0x3caeff38	0.021361932
208	0x3d8af5b2	0.06785144
209	0xbda272a7	-0.079320244
210	0xbdc156a4	-0.094403535
211	0xbdf2c7d0	-0.118545175
212	0xbd9d0dee	-0.076686725
213	0xbd101444	-0.035175577
214	0x3cbd6175	0.02311776
215	0xbd546247	-0.051851537
216	0xbdc3409e	-0.09533809
217	0x3d116eee	0.03550618
218	0x3da205e5	0.079112805
219	0xbdc25d38	-0.09490436
220	0xbc29d7c0	-0.01036638
221	0x3e40b101	0.18817522
222	0x3d48056c	0.048833296
223	0xbc99a568	-0.01875563
224	0x3cd1094e	0.025517132
225	0x3c6c18f2	0.014410244
226	0xbe2b6c85	-0.16740616
227	0x3d4a4159	0.049378727
228	0xbdcf4633	-0.10120811
229	0x3e234431	0.15943982
230	0x3d96a360	0.0735538
231	0x3d0dd536	0.034627162
232	0x3cdd4f16	0.02701525
233	0x3dd79875	0.10527126
234	0x3dca93a2	0.0989144
235	0x3d4c7f73	0.049926233
236	0xbe215742	-0.15755942
237	0xbe197e43	-0.14989571
238	0x3debee69	0.115200825
239	0x3d09bea7	0.033629086
240	0xbe33c648	-0.17556107
241	0x3c87e73b	0.016589751
242	0x3cb10de8	0.021613076
243	0xbe3dd735	-0.18539126
244	0x3d39e727	0.04538646
245	0x3ca44afc	0.020055287
246	0xbcc1c0c7	-0.023651494
247	0xbef280d1	-0.47363904
248	0x3d9602a7	0.07324725
249	0x3d6ce61c	0.057836637
250	0xbcba9a97	-0.022778792
251	0xba917b27	-0.0011099324
252	0xbe1560b9	-0.14587678
253	0xbcb559a6	-0.022137474
254	0x3e7b5b25	0.24546488
255	0x3ceb765f	0.028742967

network_body._body_endoder.seq_layers.2.bias f4 [128]
0	0xbc3be952	-0.011469202
1	0xbce48fed	-0.02790066
2	0xbc9dfe07	-0.019286169
3	0xbb8c0fdf	-0.004274353
4	0xbb0a45d1	-0.0021098743
5	0xbba26dfc	-0.004956959
6	0xbc95f592	-0.018305574
7	0xbbfbb9b9	-0.007682052
8	0xbcc99e19	-0.02461152
9	0x3c3a98c9	0.011388966
10	0x3bc1c850	0.0059137717
11	0xbc766049	-0.015037605
12	0xbc3d31ef	-0.01154755
13	0x3a329580	0.00068124384
14	0x3b22a369	0.0024816638
15	0xbccd1084	-0.02503229
16	0xbd386ee2	-0.04502762
17	0xbc706351	-0.014672116
18	0xbbee9dff	-0.007282018
19	0xba9611aa	-0.0011449356
20	0x38cc2bb2	9.735617e-05
21	0xbcb4078f	-0.02197626
22	0x3c2ddf23	0.010612282
23	0xba8a41be	-0.0010548157
24	0xbc4a4029	-0.012344399
25	0xbc71dba3	-0.014761838
26	0x3adb675d	0.0016739179
27	0xbb1e0657	-0.0024112666
28	0x3d927c5c	0.07152626
29	0xbbf97b87	-0.0076136026
30	0xbc541455	-0.012944301
31	0xbc43e0e7	-0.011955476
32	0xbc134d3d	-0.008990583
33	0x3c2cb667	0.010541535
34	0xbc68a96e	-0.014200551
35	0xbcad47bf	-0.021152375
36	0xbc2ca761	-0.010537953
37	0xbbf95d71	-0.007610016
38	0xbd216331	-0.039401237
39	0xbc1972f3	-0.009365785
40	0xbc2e5289	-0.010639795
41	0xbce2c004	-0.02767945
42	0xbbf50032	-0.00747683
43	0xbcba6f7a	-0.022758234
44	0xbc1b422e	-0.009476228
45	0xbcc2b1f5	-0.023766497
46	0xbc125778	-0.008931987
47	0xbcaf78bb	-0.021419873
48	0xbc8feba5	-0.017568419
49	0xbccfd4a6	-0.025369953
50	0x3d4708b8	0.0485923
51	0xbc6dcade	-0.014513699
52	0xbc1ab72b	-0.009443085
53	0xbc027e42	-0.0079646725
54	0x3c0564cf	0.00814171
55	0x3a5616d8	0.0008166856
56	0xbc6c2453	-0.014412957
57	0xbcfb42d4	-0.030671515
58	0xba89f30d	-0.0010524705
59	0xbc6a1899	-0.014288091
60	0xbb8fdea1	-0.004390553
61	0xbc9702de	-0.018433984
62	0xbce5802e	-0.028015222
63	0xbc93c22b	-0.018036922
64	0xbc5fac88	-0.0136519745
65	0xbc8beb23	-0.017079895
66	0xbb63a730	-0.0034737103
67	0x3b870788	0.004120771
68	0xbd0330fc	-0.032029137
69	0xbb2f549f	-0.002675332
70	0xbc0847b6	-0.0083178785
71	0xbc96b4fd	-0.018396849
72	0x3cb0fd2f	0.021605102
73	0x3d4b3d90	0.049619257
74	0xbca8f57a	-0.020624865
75	0xbbc995cb	-0.00615189
76	0x3bb39e76	0.0054815365
77	0x3b00b1ca	0.001963722
78	0xbca292fa	-0.019845475
79	0xbc5f8d92	-0.013644593
80	0xbcde7a7f	-0.02715802
81	0xbc9f21b9	-0.01942526
82	0x3cbb0d93	0.022833621
83	0xbc730a1f	-0.014833956
84	0xbc50df71	-0.012748585
85	0xbc0eea9c	-0.008722927
86	0xbc76a141	-0.015053094
87	0xbbfe3d58	-0.0077587776
88	0xbcee8e50	-0.029120594
89	0xbc8acfdb	-0.016944816
90	0xba22f886	-0.00062168424
91	0x3c823973	0.015896535
92	0xbc26ea55	-0.010187705
93	0xbcb98a06	-0.022648823
94	0xbc8dfdc3	-0.017332917
95	0xbd1b88ae	-0.037972145
96	0xbcc86443	-0.024461871
97	0xbb3b47a4	-0.0028576637
98	0x3d4a9950	0.049462616
99	0x3cc27bd8	0.023740694
100	0xbc24f0ce	-0.010067178
101	0xbc8e785c	-0.017391376
102	0xbc53aeb7	-0.012920073
103	0xbc3a74f7	-0.011380426
104	0xbbb39535	-0.0054804333
105	0xbcb9e395	-0.022691527
106	0xbbede2f1	-0.0072597195
107	0x3be67f4d	0.0070342184
108	0xbcd4b0f3	-0.025963282
109	0xbc30b639	-0.010785633
110	0xbc00f4b7	-0.007870845
111	0xbc9147e4	-0.017734475
112	0xbb9a0d53	-0.0047012954
113	0x3cde8f2f	0.027167885
114	0xbb0e60d6	-0.00217252
115	0xbc182327	-0.009285725
116	0xbd2cff96	-0.042235933
117	0xbc8d1fc4	-0.017227061
118	0xbbcf061a	-0.006317866
119	0xbbb227cf	-0.0054368745
120	0xbc21f355	-0.009884675
121	0x3a58f4d2	0.0008276227
122	0xba851253	-0.0010152556
123	0x3c396523	0.011315617
124	0xbbdaec5e	-0.006681009
125	0xbcc1dff1	-0.023666354
126	0xbc9766bd	-0.018481607
127	0x3c0222b8	0.007942848

action_model._discrete_distribution.branches.0.weight f4 [3, 128]
0	0x3b35842c	0.0027697189
1	0x3c0eabd3	0.008707958
2	0x3bebbd01	0.007194162
3	0x3caacee6	0.02085061
4	0xbc417ea3	-0.011809978
5	0xba8dfa82	-0.0010832103
6	0x3a524a0d	0.00080218987
7	0xbca07a14	-0.019589461
8	0xbb970fbd	-0.0046100304
9	0xba98fc10	-0.00116718
10	0x3b8381d4	0.0040132795
11	0xbbaac1dd	-0.0052110986
12	0xbc30c8b2	-0.010790037
13	0x3b1a6de3	0.0023564033
14	0xbc25a104	-0.01010919
15	0x3971067f	0.00022985971
16	0x3be8cf7e	0.007104813
17	0x3b4940c6	0.0030708774
18	0x3c463a47	0.012098855
19	0x3c008c07	0.007845885
20	0x3db1e30d	0.086858846
21	0x3c232b65	0.0099590765
22	0x3bd0df00	0.00637424
23	0xbc0733f0	-0.008252129
24	0x3ac26658	0.0014831526
25	0x3bfc456c	0.0076987054
26	0xbb9820c1	-0.0046425764
27	0x3b438fb2	0.0029840288
28	0xbc71e950	-0.014765099
29	0x3bf6e654	0.0075347815
30	0xba75a862	-0.00093710993
31	0x3b8fa24e	0.004383362
32	0xbb947942	-0.0045310566
33	0xbd228c40	-0.039684534
34	0x3b1d916f	0.0024042984
35	0x3bdb291b	0.0066882498
36	0x3c815221	0.015786232
37	0xbb817f30	-0.0039519295
38	0x3bcdac2f	0.0062766294
39	0x3aef929b	0.0018277945
40	0xbb7e354c	-0.0038789092
41	0x3ac61a1a	0.001511398
42	0x3b14de31	0.0022715444
43	0xb78541e4	-1.5885518e-05
44	0x3b2b7a99	0.0026165603
45	0xba05daf3	-0.00051061733
46	0x3a6b9339	0.00089864765
47	0x3b1ab429	0.002360592
48	0x3bda08d4	0.0066538844
49	0xbd779164	-0.06044139
50	0x3b78103f	0.003785148
51	0x3b585ed9	0.0033015518
52	0x3b627e92	0.0034560305
53	0x3b2531fe	0.00252068
54	0x3c3f5530	0.011678025
55	0xbb127228	-0.0022345874
56	0xbaacdb76	-0.0013187963
57	0xbb235d71	-0.0024927522
58	0xbc06f4aa	-0.008237043
59	0x3c911b36	0.01771317
60	0x3a434745	0.00074492797
61	0x3c9e0f4e	0.019294407
62	0x3ca76ba7	0.020437075
63	0x3bc4234e	0.005985654
64	0x3c0bd780	0.008535266
65	0x3a9a1423	0.0011755269
66	0xbbdac6da	-0.006676537
67	0xbc1b7693	-0.0094887195
68	0x398983a9	0.0002622877
69	0xbc8ac31a	-0.016938735
70	0xbc6cecf9	-0.014460796
71	0x3cc295f3	0.023753142
72	0x3d7191ea	0.058977045
73	0xbd4a9979	-0.04946277
74	0x3b9712b9	0.004610386
75	0xba5356cf	-0.0008061947
76	0xbc117bb6	-0.008879593
77	0x3bd3568b	0.0064495257
78	0x3c32f06e	0.010921581
79	0xbc5accd3	-0.013354498
80	0xbb72fcf2	-0.0037077037
81	0x39b41cde	0.00034353783
82	0xbd265aff	-0.040614124
83	0x3c3a82ba	0.011383707
84	0x3c5e5ce9	0.013571956
85	0x3b23750b	0.002494159
86	0xbacdd1d8	-0.0015702797
87	0xba722e71	-0.00092384877
88	0xbb123e85	-0.0022315097
89	0x3c8bb1f9	0.017052637
90	0x3befc2c3	0.0073169186
91	0xbbef778a	-0.0073079513
92	0x3caed685	0.021342525
93	0x3a008d0c	0.000490383
94	0xbca18a02	-0.019719128
95	0xb9bcacc2	-0.0003598687
96	0x3c06997b	0.0082153035
97	0x3bf3c207	0.0074389013
98	0xbbf5f5b7	-0.007506098
99	0xbc39382d	-0.011304897
100	0x3ca30d31	0.019903751
101	0xbc25e5be	-0.010125576
102	0x3b33b985	0.002742381
103	0x3cc9c843	0.024631625
104	0x3ccc7a89	0.024960773
105	0x3c012c94	0.007884163
106	0xb97474f7	-0.00023313226
107	0xba2f6b8a	-0.0006691745
108	0x3b07f377	0.0020744482
109	0x3bbd9a28	0.005786199
110	0xba7229e8	-0.0009237812
111	0xbb474f87	-0.0030412392
112	0xbc4ef177	-0.012630812
113	0x3daa32ab	0.083104454
114	0xba15112c	-0.0005686458
115	0xbbccc941	-0.0062495773
116	0xbb6176b7	-0.0034403035
117	0x3b0a1c06	0.0021073832
118	0x3b097081	0.0020971599
119	0x3ba3593d	0.0049850033
120	0xba11ab6b	-0.00055568543
121	0xbb866577	-0.004101451
122	0x3b9a9848	0.0047178604
123	0x3ceafe1a	0.028685618
124	0xbb366f55	-0.0027837355
125	0x3cbf35ef	0.023341147
126	0xbbb8aee2	-0.005636082
127	0x3cb8363a	0.022486795
128	0x3bd85753	0.0066022067
129	0x3bd2e9bf	0.006436556
130	0xbb05648f	-0.0020354127
131	0xbc9acd14	-0.018896617
132	0x3c01bbd3	0.007918316
133	0xba5f9560	-0.00085290335
134	0xbb84756c	-0.004042318
135	0x3c2158c8	0.009847827
136	0xbb9f950c	-0.0048700627
137	0xbdb502cb	-0.08838423
138	0xbd26a060	-0.04068029
139	0xbbda2d33	-0.00665822
140	0xbcb88a04	-0.022526748
141	0xbd424c12	-0.047435828
142	0xbc8e88b6	-0.017399173
143	0xbb06473c	-0.0020489236
144	0xbcb0c8e2	-0.021580163
145	0x3c500aca	0.012697885
146	0xbce6d48f	-0.028177528
147	0xbc81dc55	-0.015852133
148	0x3d82a7ab	0.063796364
149	0xbb6b2781	-0.00358817
150	0xbd098fe6	-0.033584498
151	0x3c1bd85e	0.009512035
152	0xbcb611d9	-0.022225307
153	0x3b2b07fe	0.0026097293
154	0x3b647df8	0.0034865122
155	0x3c4b1fc5	0.012397711
156	0x3d0e24b6	0.03470298
157	0xbc0a25d4	-0.0084318705
158	0xbc4e90fa	-0.012607807
159	0xbc02bba9	-0.007979312
160	0xbc94f98c	-0.0181854
161	0x3cee469f	0.02908641
162	0x3bfdf474	0.0077500883
163	0xbbf51745	-0.0074795806
164	0x3bb723b1	0.0055889715
165	0xbba67a18	-0.0050804727
166	0xbbc3e0ef	-0.005977742
167	0x3b483513	0.0030549213
168	0xbca48fca	-0.020088095
169	0xbc0223d2	-0.007943111
170	0x3b649f31	0.0034884925
171	0xbbc553c8	-0.0060219504
172	0x3c82f644	0.01598657
173	0xbb010ffc	-0.0019693365
174	0x3b7318b9	0.0037093593
175	0xbb1e2886	-0.002413304
176	0xbc28cd2b	-0.010302822
177	0x3db98ff4	0.0906066
178	0x3cb3c3b2	0.0219439
179	0x3b8ddeae	0.004329524
180	0xb9476b20	-0.00019018026
181	0xbb667d3e	-0.0035169865
182	0x3a363126	0.0006950073
183	0x3c5efa70	0.013609514
184	0xbb8cfd46	-0.0043026535
185	0xbc1b5905	-0.009481673
186	0x3b6343b1	0.0034677798
187	0xbb3574b7	-0.0027687976
188	0x3b86593c	0.004099993
189	0x3c882cf3	0.016622996
190	0xbccf6ad6	-0.025319498
191	0xbb2f93c7	-0.0026790963
192	0x3bc4cd05	0.0060058855
193	0xb97f058b	-0.0002432076
194	0xba31afd7	-0.00067782163
195	0xbb9837a8	-0.0046453066
196	0xbb071ec3	-0.00206177
197	0xbbaccb9d	-0.005273296
198	0xbc4627bd	-0.012094435
199	0xbcf1b0f5	-0.029503325
200	0x3ade2b23	0.0016950112
201	0x3d6db599	0.058034513
202	0xbbfed99e	-0.007777407
203	0x3baeff6e	0.005340508
204	0xbaa05d59	-0.0012234851
205	0x3c36b650	0.011151865
206	0x3bf2cbfc	0.0074095707
207	0xbc1f8095	-0.009735246
208	0xbc4b25e7	-0.012399173
209	0xbb898d2c	-0.004197737
210	0x3d75d074	0.06001325
211	0x3c7b06a4	0.0153214075
212	0xbc7fbaff	-0.015608548
213	0x3abf6a00	0.0014603734
214	0xbc1947ab	-0.009355466
215	0xbaa38772	-0.0012476279
216	0xbc208a61	-0.009798617
217	0x3c512e8f	0.012767448
218	0xbc02a76c	-0.007974487
219	0x3d598cd9	0.05311284
220	0x3bbf172b	0.0058316193
221	0xbb07987f	-0.002069026
222	0x3bb28ab0	0.0054486617
223	0xbc7f5ae8	-0.015585639
224	0x3b0f0a26	0.0021826117
225	0x3b70c117	0.0036736184
226	0x3d101bea	0.03518287
227	0xbc82ebdf	-0.015981613
228	0xbb186074	-0.002325085
229	0xbc876697	-0.01652841
230	0x3b657dc1	0.0035017582
231	0x3ca288b6	0.01984058
232	0x3cf4bc9e	0.029875096
233	0x3b2e6b63	0.00266143
234	0xbc152927	-0.00910405
235	0xbd23b0bc	-0.03996347
236	0xbca7fa05	-0.02050496
237	0xb98a0bbe	-0.0002633016
238	0xbbbfbf99	-0.0058516976
239	0xbc10c382	-0.008835675
240	0xbbbba7fb	-0.005726812
241	0xbd832ddb	-0.064052306
242	0x3ca05a6a	0.019574363
243	0x3c7d88e8	0.0154745355
244	0xbbd07dd6	-0.006362657
245	0x3bcecbdf	0.0063109244
246	0xbda94c83	-0.082665466
247	0xbc47e24a	-0.012199948
248	0xbb15e587	-0.0022872405
249	0xbadddf52	-0.0016927517
250	0xbc857bbe	-0.016294356
251	0x3d5da7db	0.054115158
252	0x3c8d1db6	0.017226081
253	0x3a82c17c	0.0009975876
254	0xbb884b21	-0.0041593467
255	0xbafc4512	-0.0019246659

action_model._discrete_distribution.branches.0.bias f4 [3]
0	0xbc00bc60	-0.007857412
1	0x3ca17b2f	0.019712059
2	0xbcc409a3	-0.023930376

action_model._discrete_distribution.branches.1.weight f4 [2, 128]
0	0xbad44c2b	-0.0016197016
1	0x3c202b03	0.00977588
2	0x3b3c17db	0.0028700742
3	0xba9a7f24	-0.0011787158
4	0xbc460b56	-0.012087664
5	0xbc3c49b1	-0.011492179
6	0xbbd87ec2	-0.0066069076
7	0xbc816f5e	-0.015800174
8	0xbac86aec	-0.0015290654
9	0x3d9eb84e	0.07749997
10	0x3b194e8f	0.0023392772
11	0x3aaff8d6	0.0013425599
12	0xbbc85b6a	-0.006114413
13	0x3b8e30ee	0.004339329
14	0x3c0592dc	0.00815269
15	0xbc4cd1fb	-0.012501235
16	0x3bedb327	0.0072540226
17	0x3c0017f1	0.007818208
18	0x3ce244e1	0.027620735
19	0x3c2fcdf6	0.010730257
20	0xbd91eb13	-0.07124915
21	0x3bccadd4	0.006246308
22	0x3cf01a82	0.029309515
23	0xbc397980	-0.011320472
24	0x3c033941	0.008009256
25	0xbc5ad76a	-0.013357023
26	0xbb4f232b	-0.0031606655
27	0xbc25fe17	-0.0101313805
28	0xbc133e37	-0.008987001
29	0xb908fd0f	-0.00013064242
30	0x3c4c75e5	0.01247928
31	0xb9868af3	-0.00025661997
32	0x3d2aefd8	0.04173264
33	0x3c94e3de	0.018175062
34	0x3a8af95c	0.0010602879
35	0x3bb7a1ae	0.0056039905
36	0xbbe16bd6	-0.00687931
37	0x3d1c22a8	0.03811899
38	0xbc585ff9	-0.013206475
39	0xbbebd184	-0.007196607
40	0x3c959664	0.018260188
41	0x3c5ad9a0	0.01335755
42	0x3bc16ee9	0.005903114
43	0x3b489f59	0.0030612557
44	0xbc5c5f9f	-0.013450532
45	0x3bc07587	0.0058733854
46	0x3c706e55	0.014674743
47	0x3b93d762	0.0045117596
48	0x3bde0776	0.0067757918
49	0xbccc5323	-0.024941986
50	0x3b893771	0.0041875173
51	0x3c0e61d3	0.008690315
52	0xbaaceeb8	-0.0013193702
53	0xbc830366	-0.015992831
54	0x3cc5ceaa	0.024146397
55	0x3c13dbf4	0.009024609
56	0xbc0950d4	-0.008381087
57	0xbc08df1e	-0.0083539765
58	0xbcbab761	-0.02279252
59	0xbba9f8a1	-0.0051871096
60	0xbb404ddf	-0.002934329
61	0xbb43abf9	-0.0029857142
62	0x3c98f08b	0.018669387
63	0xbbafcab5	-0.0053647407
64	0xbc7c8aea	-0.015413979
65	0xbbb24c49	-0.005441223
66	0xbc7072f5	-0.014675845
67	0x3b88783b	0.004164723
68	0xbbe6b420	-0.0070405155
69	0x3b1ac8c9	0.0023618212
70	0x3ad106ad	0.0015947424
71	0xbc1e175b	-0.009649123
72	0x3d5fd4ae	0.054646187
73	0x3cf4b676	0.02987216
74	0x3be70aef	0.007050864
75	0x3bbf5dda	0.0058400454
76	0xbb099be2	-0.0020997454
77	0x3bc94f64	0.0061434973
78	0x3aa9ca20	0.0012953915
79	0x3bbe88e9	0.005814661
80	0xbada8d2a	-0.001667415
81	0x3ac5096b	0.0015032714
82	0x3c9ae483	0.018907791
83	0xbba34ec9	-0.004983757
84	0xb8b76ce8	-8.7464054e-05
85	0xbb2ccc4e	-0.0026366892
86	0xbb3b4fe2	-0.002858155
87	0xbbf192c0	-0.0073722303
88	0xbbb8081d	-0.0056162016
89	0x3c64b49c	0.013959076
90	0x3b5fd294	0.0034152614
91	0xbcfc8606	-0.030825626
92	0x3ab226ee	0.0013591924
93	0xbba9f0d4	-0.0051861797
94	0x3ccc97bf	0.024974702
95	0x3b8e5d83	0.0043446436
96	0xbb268920	-0.0025411323
97	0xbcae6bdc	-0.021291666
98	0x3a37d95b	0.00070132845
99	0x3d8999d6	0.06718795
100	0x3c599a9d	0.013281492
101	0x3bc0df9b	0.005886031
102	0xbc5a9255	-0.013340552
103	0x3a76b88f	0.00094116566
104	0x3b886cec	0.004163375
105	0xbb361bff	-0.0027787683
106	0x3d0403cf	0.032230195
107	0x3bddc194	0.006767461
108	0x3c4ddf49	0.012565442
109	0xbb7816b1	-0.0037855322
110	0xbc1ec544	-0.0096905865
111	0xbab84929	-0.0014059889
112	0x3a446503	0.00074918586
113	0x3dd25a4f	0.10271131
114	0x3c9250a9	0.017860727
115	0xbc7fe890	-0.015619412
116	0x3a07567a	0.00051627273
117	0x3b5076f5	0.0031809185
118	0x3da95243	0.08267643
119	0x3c118c83	0.008883598
120	0xbbdcc1a3	-0.0067369505
121	0x3c61a14d	0.013771367
122	0x3a9a90e9	0.0011792454
123	0xbd861e45	-0.06548742
124	0x3b8c59cb	0.004283165
125	0xbca36a29	-0.019948082
126	0xbc1b434d	-0.009476495
127	0xbb11c2f2	-0.002224144
128	0xbbbd3379	-0.0057739583
129	0xbcc48cc7	-0.02399291
130	0xbc3fa042	-0.011695923
131	0xbc441d52	-0.011969881
132	0x3cae2728	0.021258906
133	0x3cf1e3a4	0.029527493
134	0xbb7a62ea	-0.003820593
135	0x3ca79c29	0.020460205
136	0xbc3e5da2	-0.0116190035
137	0xbdc40096	-0.09570424
138	0xbb675b3d	-0.0035302185
139	0x3a89dc80	0.0010517985
140	0x3b78177c	0.0037855795
141	0xba1401bc	-0.00056460104
142	0x3b841ed0	0.0040319934
143	0xbc265adb	-0.010153498
144	0xbca4035c	-0.020021133
145	0xbc81369f	-0.015773116
146	0xbca130df	-0.019676624
147	0xbbd5be15	-0.0065229037
148	0x3d745a20	0.059656262
149	0x3c173f04	0.009231333
150	0xbd2384f5	-0.03992172
151	0x3ca3145d	0.01990717
152	0xbcc99d3b	-0.024611106
153	0x3a00921f	0.0004904586
154	0xbba1a1ff	-0.0049326415
155	0x3cb0566f	0.02152559
156	0x3b942d7d	0.004522024
157	0xbb9a5918	-0.004710328
158	0x3a81fcb9	0.0009917236
159	0xbbee6cf8	-0.0072761737
160	0xbd0e1f08	-0.034697562
161	0xbc7f1737	-0.0155695
162	0x3ba47430	0.0050187334
163	0x3b9978bd	0.0046835826
164	0xbb0509ce	-0.0020300034
165	0xbc913855	-0.017727057
166	0xbbc0ff6f	-0.005889825
167	0xbbd1b596	-0.0063998206
168	0xba120883	-0.00055707264
169	0xbbf2ee3e	-0.0074136546
170	0xbbba2e5b	-0.0056817955
171	0x3a6cd254	0.0009034027
172	0x3c962f99	0.018333243
173	0x3b3eb6b7	0.0029100606
174	0x3c979641	0.018504264
175	0x3c058f45	0.008151834
176	0xbbc1954b	-0.0059076897
177	0x3c55488f	0.013017788
178	0x3b9bc424	0.0047536064
179	0x3c12c969	0.008959153
180	0x3b315849	0.0027060679
181	0xbc26d27f	-0.010182022
182	0xbd236587	-0.039891746
183	0xbbd4006a	-0.006469776
184	0xbc25e9d9	-0.010126554
185	0xbbf41036	-0.0074482216
186	0x3cbcbc20	0.023038924
187	0x3cb47334	0.02202759
188	0x3b8ad154	0.0042363796
189	0x3bc16cb4	0.005902851
190	0xbcdba123	-0.026810234
191	0xbad7ca07	-0.0016463407
192	0xbbee10f4	-0.0072652046
193	0xbbbe8877	-0.0058146077
194	0xbc8e8c30	-0.017400831
195	0xbb9f8bf0	-0.004868977
196	0xbc7e4b9f	-0.015520959
197	0x3bc42cdb	0.0059867925
198	0x3bfda771	0.007740908
199	0x3c4f6b87	0.012659914
200	0xbd3ee0fd	-0.046601284
201	0xbc980b23	-0.018559998
202	0x39b70edc	0.0003491555
203	0x3cb0bd1f	0.021574555
204	0xbc2c314a	-0.010509798
205	0x3ba1a12a	0.0049325423
206	0x3bb2fce5	0.0054622763
207	0xbad2eeab	-0.0016092857
208	0xbb6e8ebe	-0.0036401
209	0x3bdd606f	0.0067558805
210	0x3c905117	0.017616792
211	0x3b5ff3f2	0.0034172502
212	0xbc966756	-0.018359821
213	0x3b71f709	0.0036920926
214	0xbb0ff40c	-0.0021965532
215	0xbbaacab9	-0.0052121547
216	0xba63d6b1	-0.00086913543
217	0x3bb1e86a	0.0054293172
218	0xbcab8709	-0.020938413
219	0x3cfe3299	0.031029986
220	0x3ba6974e	0.005083955
221	0x3b9b990e	0.00474847
222	0xbc33a91e	-0.010965614
223	0xbc3f0e76	-0.011661163
224	0x3be2977f	0.0069150324
225	0xbcadd966	-0.021221828
226	0x3b73834a	0.0037157112
227	0xbd8f931c	-0.07010481
228	0x3b849634	0.004046226
229	0xbc937eed	-0.018004859
230	0xbb63f462	-0.0034783115
231	0x3be0a3a6	0.006855446
232	0xbc764d13	-0.015033024
233	0xbbd7c26a	-0.0065844553
234	0xbca91145	-0.020638118
235	0xbc59514a	-0.01326401
236	0x3b43e6dd	0.0029892244
237	0xbbb2a5f4	-0.005451912
238	0x3b3a5446	0.0028431579
239	0xbc144f20	-0.009052068
240	0xbb50c350	-0.0031854697
241	0xbdc7f916	-0.09764306
242	0xbc567448	-0.013089247
243	0x3c9bc411	0.01901439
244	0xbb44d007	-0.003003122
245	0x3b732d1d	0.0037105747
246	0xbda91ea9	-0.08257801
247	0xbc25b613	-0.010114211
248	0x3c803938	0.015652284
249	0x3bc723dd	0.0060772733
250	0xbc5d163a	-0.013494069
251	0x3d794313	0.060854983
252	0x3b8d199a	0.0043060305
253	0x3c95e665	0.018298337
254	0xbc32acc0	-0.010905445
255	0xbbd7c73a	-0.006585029

action_model._discrete_distribution.branches.1.bias f4 [2]
0	0xba1f15a3	-0.0006068593
1	0x3a1f265c	0.00060710846

q1_network.network_body._body_endoder.seq_layers.0.weight f4 [128, 4]
0	0xbe8d4add	-0.2759618
1	0xbc0ca55e	-0.0085843485
2	0x3f13995d	0.5765589
3	0xbec85c2b	-0.3913282
4	0x3d0dcc1b	0.03461848
5	0xbea557b4	-0.32293475
6	0xbf366dd6	-0.71261346
7	0x3edfd2e1	0.43715575
8	0xbd0dc090	-0.03460747
9	0xbf247398	-0.6423888
10	0x3f42b38c	0.76055217
11	0x3f481e84	0.78171563
12	0xbf79ed11	-0.9762736
13	0xbec48e60	-0.38389874
14	0xbf1b3dfa	-0.60641444
15	0xbdea5de1	-0.11443687
16	0xbebb8de4	-0.3663169
17	0x3ced32b4	0.028954841
18	0x3cfb8e24	0.030707426
19	0x3f098d51	0.53731257
20	0x3f3a98e6	0.72889555
21	0xbd74a9b6	-0.05973216
22	0x3e2bdf02	0.1678429
23	0x3dbe9e16	0.09307496
24	0x3d922737	0.07136386
25	0x3e38c443	0.18043618
26	0xbf6a03ac	-0.9141185
27	0x3e29352f	0.16524194
28	0x3d95e8ff	0.07319831
29	0x3e95d2d2	0.29262406
30	0x3e0a35fb	0.13497154
31	0x3f473a93	0.7782375
32	0xbea0aae6	-0.31380385
33	0xbd09f3b5	-0.033679683
34	0xbf4ba30f	-0.7954568
35	0xbec99580	-0.39371872
36	0x3f0dd81a	0.5540787
37	0x3e88079d	0.26568308
38	0x3e5d2d16	0.2159923
39	0xbf464372	-0.77446663
40	0xbeb46f32	-0.35241085
41	0x3d88f3ff	0.066871636
42	0xbe504db5	-0.20342143
43	0x3ee002e9	0.4375222
44	0xbe63de03	-0.2225266
45	0x3e1006a6	0.14065036
46	0xbf0d172a	-0.5511347
47	0xbee1e33c	-0.4411868
48	0x3d80f87e	0.06297396
49	0xbed97c53	-0.42477664
50	0xbe6097c2	-0.21932891
51	0xbe8014c3	-0.2501584
52	0xbda9c150	-0.082888246
53	0xbe9f9fcc	-0.31176603
54	0xbcc7e506	-0.0244012
55	0xbde92ab5	-0.11385099
56	0x3e1ae471	0.15126206
57	0x3f49b507	0.7879185
58	0xbf0db760	-0.55357933
59	0xbe1e082a	-0.15432802
60	0xbeba761e	-0.3641824
61	0x3f34e5a5	0.7066291
62	0x3f1fb1ac	0.6238048
63	0xbf83026f	-1.0235118
64	0x3f009c52	0.50238526
65	0xbb789bf5	-0.0037934755
66	0x3eced45d	0.40396395
67	0xbf60aa62	-0.87759984
68	0x3e0af2ed	0.13569231
69	0x3ee5f3d6	0.44912595
70	0xbf2eb914	-0.68251157
71	0x3f05a0cb	0.52198476
72	0x3f1efa3a	0.62100565
73	0x3def0243	0.11670353
74	0x3e672dee	0.22576115
75	0x3d522ea5	0.051314015
76	0xbf03538f	-0.51299375
77	0xbec033a2	-0.37539393
78	0x3ec11a13	0.37715206
79	0xbe1c93b8	-0.15290725
80	0xbe89a9cc	-0.26887357
81	0xbe0aa35a	-0.13538876
82	0x3e0ff8ff	0.14059828
83	0xbec334f6	-0.38126343
84	0x3dcdc1eb	0.100467525
85	0x3e7bc5bf	0.24587153
86	0x3c114bda	0.008868182
87	0xbe9efbdc	-0.31051528
88	0x3eff380f	0.49847457
89	0x3e0b7846	0.136201
90	0x3f28edf2	0.65988076
91	0xbf335618	-0.70053244
92	0xbe329d55	-0.1744283
93	0x3e7f01fa	0.24903098
94	0x3de4b1ac	0.11166701
95	0xbf39fbd3	-0.7264988
96	0x3de785dd	0.11304829
97	0x3ee71551	0.4513345
98	0xbf700cd6	-0.93769586
99	0x3f368a76	0.71305025
100	0xbd564679	-0.0523133
101	0xbe819ff4	-0.25317347
102	0xbf6e46ac	-0.93076587
103	0x3e16ed3b	0.14738934
104	0x3f0ed9c8	0.5580106
105	0x3e77da71	0.24204423
106	0xbef4fd4e	-0.47849506
107	0x3ed1c2d3	0.40968952
108	0xbf00df92	-0.5034114
109	0x3e0c8011	0.13720728
110	0xbfabac07	-1.3411874
111	0xbf0c8963	-0.54897135
112	0x3e37e069	0.179567
113	0xbe72caa8	-0.2371012
114	0xbecbcf55	-0.3980662
115	0xbf191b05	-0.59806854
116	0xbebbfcaf	-0.3671622
117	0x3e6cfa47	0.23142348
118	0x3eaf1bbe	0.34200853
119	0xbeab52f2	-0.3346172
120	0xbe4867df	-0.19570874
121	0x3e5ad889	0.21371664
122	0xbfc3e974	-1.5305619
123	0xbd606e12	-0.05479247
124	0xbf00d7d6	-0.5032934
125	0xbe13db6f	-0.14439176
126	0x3e25ab83	0.16178708
127	0xbf7229e6	-0.9459518
128	0x3df0ad92	0.11751856
129	0xbe352b5d	-0.17692323
130	0xbe76d674	-0.24105245
131	0x3eb117b9	0.3458841
132	0xbefed0dc	-0.49768722
133	0xbed31336	-0.41225594
134	0xbe5d5439	-0.2161416
135	0xbf39d423	-0.7258932
136	0xbe69bb34	-0.22825319
137	0x3ee47a3a	0.446245
138	0x3f02a3a5	0.5103095
139	0xbee772d5	-0.45204797
140	0x3e18cf91	0.1492293
141	0x3e1cf2a2	0.15326932
142	0xbf57fe36	-0.8437227
143	0x3d68cbb2	0.056834884
144	0x3f1f27ab	0.62169904
145	0xbf3b467b	-0.7315442
146	0x3f10131c	0.5627916
147	0xbde50463	-0.11182477
148	0xbe940ad1	-0.28914502
149	0x3ecd4be9	0.40096977
150	0x3dfc6aea	0.1232508
151	0x3f35773a	0.7088505
152	0xbd30da47	-0.043176915
153	0x3f5ce79f	0.86290926
154	0xbf73020a	-0.94924986
155	0x3f0abd2d	0.5419491
156	0xbea25dae	-0.31712097
157	0xbe894eb5	-0.2681786
158	0x3f27fc5f	0.6561946
159	0x3f28be93	0.65915793
160	0xbe850b9c	-0.2598542
161	0x3e025b4a	0.12730137
162	0xbede840c	-0.4346012
163	0x3e58de14	0.21178466
164	0xbdf3b9bc	-0.119006604
165	0xbebd41e2	-0.36964327
166	0x3f1e8b23	0.61931056
167	0xbf0d6c45	-0.5524333
168	0x3e326e61	0.17424919
169	0x3ea989f7	0.3311307
170	0x3eed79ea	0.46382076
171	0xbeb1143b	-0.34585747
172	0x3d8b7a9b	0.068104945
173	0x3e897cd0	0.26853037
174	0x3ecee88f	0.40411803
175	0xbf86465c	-1.0490222
176	0xbf0a33e5	-0.53985435
177	0x3d8ab2f8	0.06772417
178	0x3ef1cb94	0.4722563
179	0xbe528f58	-0.20562494
180	0x3ef45042	0.47717482
181	0xbecc5a84	-0.39912808
182	0x3e07c14b	0.13257329
183	0x3f228b63	0.6349394
184	0xbf8c622f	-1.0967463
185	0xbf0f2e24	-0.5592978
186	0x3e9dba02	0.30805975
187	0x3f29dcc9	0.66352516
188	0x3ef3714b	0.47547373
189	0x3e60713a	0.21918193
190	0xbf728d41	-0.94746786
191	0x3ccfcf0f	0.025367288
192	0xbc76ebe5	-0.01507089
193	0xbec53d87	-0.38523504
194	0xbf2d1f9a	-0.67626345
195	0xbd3cb6a6	-0.046072625
196	0x3ea34aaa	0.31892902
197	0x3f5bacc0	0.8581047
198	0xbe28beed	-0.16479082
199	0xbeacaef8	-0.3372724
200	0xbdd8cc87	-0.105858855
201	0x3cccf1f1	0.02501771
202	0xbeeb0662	-0.45903307
203	0xbeb26eb2	-0.3485008
204	0xbefa61e5	-0.48902813
205	0xbebf7f7c	-0.3740195
206	0xbf0c5c67	-0.54828495
207	0x3e8e59a7	0.27802774
208	0x3ec89052	0.39172608
209	0x3c233c91	0.009963171
210	0x3e0db952	0.13840225
211	0xbdda7d0c	-0.10668382
212	0x3f0b4ec7	0.5441708
213	0x3dfad2cc	0.122472376
214	0xbf1a0fbe	-0.6018027
215	0x3e12f069	0.14349522
216	0xbe3181e8	-0.17334712
217	0x3d244791	0.040107314
218	0x3c93e4af	0.01805338
219	0x3e83c0f5	0.25733152
220	0x3e6c18a7	0.23056279
221	0xbee056d6	-0.4381625
222	0x3e9b8357	0.30373642
223	0x3ed28619	0.41117933
224	0xbd377562	-0.04478968
225	0x3e160455	0.1465009
226	0xbef003ba	-0.46877843
227	0x3dac87a7	0.08424311
228	0x3a8a013c	0.0010528932
229	0x3e1265e5	0.14296682
230	0x3e0edd83	0.13951688
231	0xbe93905b	-0.28821072
232	0x3f429ae0	0.7601757
233	0xbd2d5046	-0.042312883
234	0xbf404e8b	-0.7511985
235	0x3e08c658	0.13356912
236	0xbef84d0b	-0.4849628
237	0xbf0fffd4	-0.5624974
238	0xbe9c9d4a	-0.30588752
239	0x3e05a918	0.13052785
240	0xbf71a7bf	-0.94396585
241	0xbf542990	-0.8287592
242	0xbed637e6	-0.41839522
243	0x3f3a7fe5	0.728514
244	0x3efc5b15	0.4928824
245	0x3d639f82	0.05557204
246	0xbda45896	-0.08024709
247	0xbb0b74c7	-0.0021279322
248	0xbe277c14	-0.16355926
249	0x3e2db322	0.16962865
250	0x3dbd53db	0.0924451
251	0x3eba9751	0.3644357
252	0x3f89800b	1.0742201
253	0x3e8d60cd	0.27612916
254	0x3e55dbea	0.20884672
255	0xbef680e6	-0.48145217

q1_network.network_body._body_endoder.seq_layers.0.bias f4 [128]
0	0xbc109ec0	-0.008826911
1	0x3cf71a29	0.030163841
2	0x3c2d80c5	0.010589783
3	0x3c6dfa9c	0.014525082
4	0x39805900	0.00024480373
5	0x3d141c3a	0.03615973
6	0x3cf19069	0.029487805
7	0x3c2d63db	0.010582889
8	0xbcb17076	-0.02166007
9	0x3c489d41	0.0122445235
10	0x3c29aea8	0.010356583
11	0x3bb21cbf	0.0054355557
12	0xbca292a4	-0.019845314
13	0x3dbdcc7e	0.092675194
14	0x3bdb80e6	0.0066987155
15	0xb9db0d04	-0.00041780632
16	0xbb9de78d	-0.004818863
17	0xbc4e6346	-0.012596911
18	0xbc521985	-0.012823467
19	0x3cb7fe59	0.02246015
20	0x3c0b50a6	0.008503115
21	0xbb42dec6	-0.0029734834
22	0xbc0e2ee4	-0.008678172
23	0x3b9af3aa	0.004728754
24	0x3c268bd0	0.01016517
25	0x3c6e7155	0.014553388
26	0x3c51fab1	0.012816117
27	0x3b94d321	0.00454177
28	0x3bc8e9c1	0.0061313813
29	0x3c897c94	0.016783036
30	0xbc114b9f	-0.008868127
31	0x3d310602	0.04321862
32	0x3cb81c93	0.022474563
33	0x3d6d539b	0.05794106
34	0xb9f7e109	-0.00047279175
35	0xbb767cf1	-0.0037611092
36	0x3e0fceb6	0.14043698
37	0x3c1cb405	0.009564404
38	0x3bae8730	0.005326174
39	0xbc0437d4	-0.008069951
40	0xbc15095a	-0.009096468
41	0x3b440f4d	0.0029916347
42	0x3c6b9105	0.014377837
43	0x3b4eb09c	0.0031538373
44	0xbc77e098	-0.015129231
45	0x3d67928f	0.056536254
46	0xbc799f97	-0.015235803
47	0x3cddf4c5	0.027094254
48	0x3e38f9d2	0.18064049
49	0xbbf32b55	-0.007420937
50	0x3c41937d	0.011814949
51	0x3ce58de9	0.02802177
52	0xbc4969b3	-0.012293267
53	0xbc78d7b2	-0.0151881445
54	0xbc6afd90	-0.014342681
55	0x3e1a346a	0.15059057
56	0x3c8d911d	0.01728111
57	0x3abbc9c9	0.0014327104
58	0x3c47ef81	0.012203098
59	0x3d84730d	0.06467257
60	0x3c72693d	0.014795599
61	0x3cb9713c	0.022637002
62	0xbb8bfdbe	-0.004272192
63	0x3c5ab0c2	0.013347806
64	0x3c53c6a0	0.012925774
65	0x3b1f2fb4	0.0024289908
66	0x3da01792	0.07816996
67	0xbb6ddf1c	-0.0036296314
68	0x3bd0c17b	0.006370721
69	0x3c69c9db	0.0142693175
70	0x3c92f507	0.017939104
71	0xbbdd26f6	-0.0067490293
72	0x3d140b3e	0.036143534
73	0xbb8b974c	-0.0042599794
74	0x3daa2178	0.08307165
75	0x3b93ffa8	0.0045165606
76	0x3b87c27d	0.004143058
77	0x3c770b40	0.015078366
78	0x3c78ee5e	0.01519355
79	0x3d8bee84	0.068326026
80	0x3c01562f	0.007894083
81	0xbbbfe40d	-0.005856043
82	0x3de373ad	0.11106048
83	0xbb5efbf1	-0.003402468
84	0x3c4131b9	0.01179164
85	0x3c0775f3	0.008267867
86	0xbc5228bc	-0.012827095
87	0xbc169f36	-0.009193232
88	0x3d07be68	0.03314057
89	0xbc10459b	-0.008805658
90	0xbc2952d7	-0.010334692
91	0x3cfaa540	0.030596375
92	0x3d877fa0	0.066161394
93	0x3bb3a084	0.0054817814
94	0xbc430713	-0.011903542
95	0x3de8c067	0.11364823
96	0xbbe752d2	-0.0070594335
97	0x3c37001f	0.011169462
98	0xbc87d239	-0.016579734
99	0xbbcd237f	-0.006260335
100	0xbb4209e5	-0.0029607948
101	0x3c85c271	0.016328068
102	0x3ba71857	0.005099337
103	0x3bd9bbdc	0.006644709
104	0xbbbe5c55	-0.0058093467
105	0x3ccd7c2a	0.02508362
106	0x3af3bc4a	0.0018595543
107	0x3cc2630f	0.023728875
108	0x3c1c46b7	0.009538344
109	0xbbc29a3c	-0.0059387963
110	0x3c87dc21	0.016584458
111	0xbc188b6d	-0.009310585
112	0xbc4b9ba6	-0.012427246
113	0xbb735e7c	-0.0037135174
114	0x3b6f9775	0.0036558781
115	0x3bc37f2e	0.0059660887
116	0x3d0e0e03	0.03468133
117	0x3c2168ce	0.009851648
118	0xbc1dbdd8	-0.009627782
119	0xbc3844e2	-0.011246892
120	0xbbe6a338	-0.0070385
121	0xbc12686e	-0.008936031
122	0xbb18d18b	-0.0023318257
123	0x3aaf17cf	0.0013358536
124	0x3c7b2ab6	0.015330007
125	0x3c76fc1c	0.015074756
126	0x3d88e289	0.06683833
127	0x3bafc98f	0.005364604
