results/first/SpaceInvaders/SpaceInvaders-16914.onnx (onnx, 79398 bytes, 9 tensors)

discrete_act_size_vector f4 [1, 2]
000000 00 00 40 40 00 00 00 40
       3.0 2.0

network_body._body_endoder.seq_layers.0.weight f4 [128, 6]
000000 3e b2 0b 3e 6c 95 6b 3d 4e 70 71 3d ad 81 c7 3d
       0.13642213 0.057515547 0.058944993 0.097415306
000010 29 35 bc bd c6 7d 85 bf 70 93 e4 be e8 ed 82 bf
       -0.09189827 -1.0429008 -0.44643736 -1.0228853
000020 fd cc d9 be 06 bd 69 3f 6e 06 d1 bb 9c 64 e5 3e
       -0.42539206 0.9130405 -0.0063789403 0.4480332
000030 0c b5 f5 bc e9 cb fc bd 68 2d c2 ba 07 7e c9 bc
       -0.029993556 -0.1234358 -0.0014814558 -0.024596227
000040 af 2a 0e 3e 6a a3 e4 3e 9d 0b a7 3c 36 8a f4 3d
       0.1388347 0.44655925 0.02039128 0.11940424
000050 7e 9a 2b be 2c eb 2e bf a9 ac c8 3c 60 4c 95 3d
       -0.16758153 -0.68327594 0.024496393 0.07289958
000060 0d 56 69 3f 45 6e b5 bd af 62 bc 3e 60 bd 16 bf
       0.9114693 -0.08858923 0.3679404 -0.58882713
000070 7e dc 42 3f f2 1d 37 3e 18 de d4 bd 60 8c cd be
       0.76117694 0.17882517 -0.103939235 -0.4014616
000080 f1 0c 2c 3f b4 85 64 be f2 bc 63 3f 20 af d4 be
       0.67207247 -0.22316629 0.8896018 -0.4153986
000090 af 3c 6e 3e 37 1b 29 bd ff 57 71 3e d9 ea 86 bf
       0.23265336 -0.04128572 0.23568724 -1.054042
0000a0 34 0d 0b 3f b3 3a 77 bd 1d 25 05 3d 5e 73 c3 3d
       0.5431702 -0.060358714 0.032506097 0.09543489
0000b0 c0 f6 79 be be 34 42 bd b8 53 56 3e a5 42 0f 3f
       -0.24410534 -0.04741358 0.20930374 0.55961066
0000c0 bf f1 f4 3e 4d 8c 9a 3e 8c d4 26 3e a8 6d f1 be
       0.47840688 0.30185166 0.16292018 -0.47153974
0000d0 e4 91 75 3d 82 eb 6d 3d 0c 4b 98 3e f8 a9 aa be
       0.059953585 0.058085926 0.29744756 -0.333328
0000e0 46 15 7b 3e d7 2d 32 be c2 19 02 3f 9b 63 93 bd
       0.24519834 -0.17400299 0.50820553 -0.071967326
0000f0 72 6b 2c 3e 75 a7 5e be cd b7 bd 3e bd 9a 15 bf
       0.16837862 -0.21743567 0.3705429 -0.58439237
000100 16 23 0b be 1b 28 2e 3e 3c 12 96 3e 5c 5f 55 be
       -0.13587603 0.17007487 0.29310787 -0.20837158
000110 6b 34 28 3e f6 ed f3 3e 9b 6c 49 be 65 87 1c bf
       0.16426246 0.47642487 -0.19670336 -0.61144096
000120 cf f8 9e 3e 26 f5 bb 3e 2e ed 80 3e f9 49 33 bf
       0.310492 0.3671047 0.25180954 -0.7003475
000130 5e dc d7 be 23 26 2c bf 5c e1 8f 3d 95 90 85 bd
       -0.42160314 -0.6724569 0.07025406 -0.065217175
000140 7f b2 2e bf 99 d2 03 bf 6f 76 24 be 91 da 07 bf
       -0.68241113 -0.5149322 -0.16060804 -0.5306788
000150 5b 88 23 be 8a 3f 95 3e ce 3d 04 3d 80 96 ef 3e
       -0.15969984 0.2915004 0.032285504 0.4679451
000160 f1 2d d0 3d f8 8d ff 3e d0 c3 be 3d 5d 42 9e bd
       0.10165013 0.49913 0.09314692 -0.077275015
000170 61 ea 5a 3e e0 41 bb 3e c8 3d b8 3e 14 9e 36 bc
       0.21378471 0.36573696 0.35984635 -0.011146087
000180 ca ba c6 3e 6d 28 7c bd 01 70 99 be 8c 77 bd 3e
       0.38814384 -0.06156199 -0.29968265 0.3700527
000190 6d 2a 47 3e a8 01 fd 3e 1e 03 41 3e 0b da c9 be
       0.19449778 0.49415326 0.18848845 -0.39424166
0001a0 7d 41 35 be c9 b3 2b 3f 3a d2 2d be 1d c3 9e be
       -0.17700763 0.67071205 -0.16974726 -0.31008235
0001b0 7c 1e 8b 3e fe d3 46 bd a0 22 94 bd a8 8a 86 bd
       0.27171695 -0.048542015 -0.07233167 -0.06569415
0001c0 81 23 92 3e 15 d1 3d be 4b 74 23 3e 58 2a d2 bc
       0.28542712 -0.1853679 0.15962331 -0.025654957
0001d0 2f 74 c7 3e 32 a7 af be d8 d9 16 3f 96 fa 82 be
       0.3895583 -0.34307247 0.58926153 -0.25581807
0001e0 6d 4e 68 be e0 63 bf 3c 98 8e 4e bc bb bb f6 3e
       -0.22686167 0.023363054 -0.012607239 0.48190102
0001f0 a3 f3 e3 bd 22 da b5 bd 7d f7 48 3f 78 08 ef 3e
       -0.111304544 -0.08879496 0.7850264 0.4668615
000200 92 2d 1b 3e 75 5b 84 be f5 df 41 bf db 28 df 3e
       0.15154102 -0.25851026 -0.75732356 0.43585858
000210 86 20 29 bf 99 3a 03 3e 5b be 64 3e 9a 60 0b 3d
       -0.6606525 0.12815322 0.2233824 0.034027673
000220 ed 10 20 bd 0f 13 dc 3e b4 b3 60 3e aa 75 14 3c
       -0.03907864 0.4298329 0.21943551 0.009061256
000230 ee 89 bf 3c 08 15 7a 3c 68 87 55 3e b8 95 cf be
       0.0233812 0.015263803 0.20852435 -0.40543914
000240 aa 3f 3f 3f e4 28 37 bf ec 8a b6 3e c6 d5 2e 3e
       0.7470652 -0.7154677 0.35652864 0.17073736
000250 25 46 5e bf cd e4 8a be a4 9b 34 3f 3c 15 e9 3e
       -0.8682578 -0.27127686 0.7054999 0.45524013
000260 27 00 40 3e 82 e2 b1 3d 2e 6b 88 be 58 b1 04 3f
       0.18750058 0.08685781 -0.26644272 0.51833105
000270 b8 6c 8f be c1 f1 e5 be 07 d7 df 3e 71 63 06 3f
       -0.28012633 -0.44911006 0.4371874 0.52495486
000280 8c de 43 3f cc 25 ea be e3 e4 1e be ba 48 68 be
       0.76511455 -0.45731962 -0.15517001 -0.22683993
000290 9a 91 be be 5c c1 6b 3e 9f e7 12 be d3 ed f3 be
       -0.3722046 0.2302298 -0.14346169 -0.47642383
0002a0 07 1e cf 3c 1d b0 c7 bd e4 7c 33 bf c3 10 3d bd
       0.025282873 -0.09750388 -0.7011244 -0.046158563
0002b0 8a 91 cb 3d 04 c0 95 be b4 ba a2 be 5d 17 60 3e
       0.09939869 -0.2924806 -0.31783068 0.21883912
0002c0 17 a5 d3 be d6 9f 89 be 54 3d 87 3f a1 4a 86 3f
       -0.4133689 -0.26879758 1.0565591 1.0491525
0002d0 f1 d0 eb bd 63 31 71 3e 59 3b cd be 6d 26 50 3d
       -0.11514462 0.23553996 -0.4008434 0.050817896
0002e0 61 51 b3 3e eb ab 4a 3e 63 b5 59 bf 47 80 1b bf
       0.35023025 0.19792144 -0.850424 -0.6074261
0002f0 3a 9e 8e be 8d 87 36 3d c7 64 b9 3c d2 a5 48 bd
       -0.27855092 0.044562865 0.022631062 -0.048986264
000300 b7 b2 c8 be 1b 7f 0b 3e 16 18 7f bc 22 d0 14 bf
       -0.3919885 0.13622706 -0.015569707 -0.58130085
000310 15 cf 6e bf 8f 1d 11 be c4 3a 30 be 46 12 6b be
       -0.9328473 -0.14171432 -0.17209917 -0.2295619
000320 16 e5 63 be 1b c1 3f bd f2 1f 10 bf ab 10 29 3d
       -0.22255358 -0.04681502 -0.56298745 0.04127566
000330 a9 15 a7 be 27 2b f7 3e 4f a0 e6 3d 13 4c 62 be
       -0.32633713 0.4827511 0.11261045 -0.22099333
000340 ab 88 5b bd 35 3d 44 3e 28 e0 71 bf 78 f2 99 be
       -0.053597134 0.19163974 -0.9448266 -0.300678
000350 aa 13 16 bd ac 6d 93 3d c1 59 0f 3e 71 2c a5 bd
       -0.036639847 0.071986526 0.13999082 -0.08065117
000360 3d e2 36 3f 83 55 0d bf b5 f5 14 3f a7 0d af 3e
       0.7143896 -0.55208606 0.5818742 0.34190103
000370 f2 bc 2c bf 36 af 2a bf 44 37 34 3f 58 14 cb 3e
       -0.6747581 -0.666736 0.7039683 0.3966396
000380 eb 7a 03 3c 36 f7 98 be 51 e3 a8 3e 55 3a 06 3e
       0.008024911 -0.29876107 0.3298593 0.1310819
000390 38 48 d0 be 2f e6 ee bc 86 d9 8d be a7 ab 40 3e
       -0.406801 -0.029162494 -0.2770502 0.1881548
0003a0 e2 14 9c be 31 67 82 be ea 05 5a be 8c 64 81 3e
       -0.30484682 -0.25469354 -0.21291319 0.25272024
0003b0 dd 18 87 bd 4a 08 0b bf d7 3d dc 3d 71 75 59 3e
       -0.06596539 -0.54309523 0.107539825 0.21236207
0003c0 24 ad 05 bf 1f 6c 13 be 42 87 96 3e 96 7e 9a 3e
       -0.52217317 -0.14396714 0.2940007 0.30174702
0003d0 6e 78 81 3e 23 63 21 3f ef 3e 6e 3d 58 3b e0 3e
       0.25287193 0.63041896 0.058165487 0.43795276
0003e0 c3 76 00 bf 34 d4 b0 bd a3 5e 3b bd 8f a1 df be
       -0.50181216 -0.086342245 -0.04574455 -0.43677947
0003f0 1f 2c 72 3f 7c 36 54 bf ce 1d 03 3f 48 dd e5 3e
       0.94598573 -0.82895637 0.51217353 0.44895387

network_body._body_endoder.seq_layers.0.bias f4 [128]
000000 84 dd f3 bc 02 dc 9f 3d d0 a9 33 3e 2c d3 c1 bd
       -0.029768713 0.07805635 0.17545247 -0.09464106
000010 1a ed 3b 3e 1c d1 a6 bd 2d 76 ae 3c 01 40 a8 ba
       0.18352166 -0.08145353 0.021296585 -0.0012836457
000020 7c 85 08 be ff 4f d5 3b 7b 4f 17 3e a1 51 10 3d
       -0.1333217 0.0065097804 0.14776413 0.035234097
000030 1c e0 d5 bd cd 7e 3f 3e 4e 48 da bd 2a ae 63 bd
       -0.10443136 0.18700714 -0.10658322 -0.055586018
000040 8a 07 04 bc 86 67 2f 3d ce b5 24 3e 47 ed 03 be
       -0.008058438 0.042823337 0.16084978 -0.12883483
000050 3b 09 1b bd c3 79 0f bd ea 8f 39 be 63 3e 3b bd
       -0.0378506 -0.03502823 -0.18121305 -0.045713793
000060 ed 53 57 3d c5 15 ba bc a5 ed 0e bd 97 72 a2 3e
       0.052570272 -0.022715459 -0.034894604 0.3172805
000070 1d ba 72 3e 03 8e cb bc a7 3c 83 ba 80 b4 d1 3d
       0.23703809 -0.02484799 -0.0010012583 0.10239506
000080 84 9f 8e 3c 45 9d 15 3e d1 d1 cb bd a7 98 fb bc
       0.017410047 0.14610775 -0.09952129 -0.030712439
000090 27 22 4e bc 19 bb 92 3d 62 f4 2d bd 28 e9 e7 bc
       -0.012581385 0.07164592 -0.04246939 -0.02830942
0000a0 4b 7e b9 ba a6 9d d8 bd 48 3b 92 3d ff 75 87 bd
       -0.0014152018 -0.10576944 0.07140213 -0.06614303
0000b0 13 83 34 bd 84 00 c1 3d 74 f2 5d 3e f2 e8 d2 3d
       -0.044070315 0.094239265 0.2167452 0.10298337
0000c0 e9 1a a9 3c 7c 7e 1e bb f2 88 7a 3e c4 7e 64 bd
       0.020642715 -0.0024184277 0.24466303 -0.055784956
0000d0 42 b9 c6 bd ed bc fd 3d e6 25 38 3c d5 43 a3 bd
       -0.09703304 0.1238955 0.011239504 -0.07971922
0000e0 2e 94 35 3c 75 97 c2 bb c3 fc b4 bb b1 19 67 bd
       0.011082692 -0.0059384652 -0.0055232956 -0.056420986
0000f0 4f 7d a2 bd 35 b0 21 be 50 6a 64 bd dd 8c 89 3d
       -0.07934057 -0.15789874 -0.05576545 0.06716321
000100 21 30 bc 3b 77 7d bd 3d 4c 44 02 bd 33 c0 61 3e
       0.005743042 0.09252446 -0.031803414 0.22045974
000110 b9 94 62 bd eb b4 37 3c ba ba bc 3d 4b 09 36 bd
       -0.055317614 0.011212568 0.09215303 -0.044442456
000120 e9 82 98 bd 24 68 a7 bd 1e 1b 4f bd 93 3f 1a 3e
       -0.07446844 -0.0817416 -0.05056297 0.15063314
000130 01 72 53 bd b7 b4 8f 3c a9 a2 54 bc 6c 02 97 bd
       -0.051622394 0.017542226 -0.012978234 -0.07373509
000140 17 94 7c 3e e2 0a 4b 3e 74 d6 97 bb e9 a0 dd bc
       0.24665867 0.1982837 -0.004633719 -0.027054267
000150 93 db ae 3d 62 98 1c be 5d 94 0f 3e ac b5 cc 3c
       0.08537974 -0.15292504 0.1402144 0.024988972
000160 5d 48 03 3c 60 27 c4 3c fc 79 08 3d fc f4 d8 bc
       0.008012858 0.023944557 0.03331946 -0.026484005
000170 58 0d c1 bd d6 05 0d be 2f 77 f1 3c 93 77 8c bc
       -0.09426373 -0.13771757 0.029475776 -0.017146861
000180 83 99 24 3e 07 1a b0 bd 59 18 3b bd 0f 72 4d bb
       0.16074185 -0.08598714 -0.045677517 -0.0031348502
000190 dd a5 9a bd 7b e9 2a 3d 66 7e b1 3e 20 71 08 3d
       -0.07551167 0.04172657 0.34666747 0.03331101
0001a0 d0 1e e9 3d 27 bd 1c 3d 77 1b 19 3c ee 6d 4b bd
       0.1138283 0.038266327 0.009344927 -0.049665384
0001b0 b7 5f 88 3c 07 bd 0d 3d 86 63 d0 bd cd 3c 2a 3c
       0.016647203 0.0346041 -0.101752326 0.010390473
0001c0 ad f7 2c 3e 6b a0 49 3d 99 76 58 3c 40 ca 84 3d
       0.16891356 0.049225252 0.01321187 0.064838886
0001d0 5a 88 2e 3e d5 2a d0 bd 50 26 d1 3c 9f d9 97 bd
       0.17044201 -0.101644196 0.025530964 -0.07414555
0001e0 c4 8c 78 3e e3 71 dd b8 b5 33 70 bd 94 a1 ca bc
       0.24272448 -0.00010559314 -0.05864306 -0.02473525
0001f0 76 58 95 bd 02 d2 23 3c ea 91 78 bc 95 8b c9 3c
       -0.07292263 0.0099988 -0.015171507 0.02460269

network_body._body_endoder.seq_layers.2.weight f4 [128, 128]
000000 d0 b3 aa 3d 06 23 31 3e 69 18 2a bd d0 aa a4 bc
       0.08335078 0.17298517 -0.041527186 -0.020100981
000010 f0 08 e6 be 26 da ea 3b b3 f7 19 be 12 7d e6 bd
       -0.44928694 0.0071671186 -0.15035896 -0.11254324
000020 42 16 93 3d c1 64 2f 3d 93 fe 04 be 23 aa 19 be
       0.0718198 0.042820696 -0.12987737 -0.15006308
000030 2f b8 4e bd 92 1b 06 be 68 2a ac bd 9f 20 92 bd
       -0.05046862 -0.13096455 -0.08406526 -0.07135128
000040 54 30 78 be f7 b7 19 be a9 d5 99 be ad 87 c5 3c
       -0.24237186 -0.15011583 -0.30045822 0.024112547
000050 3f 56 8d be e2 cc fa 3d e1 4a 50 be 21 c6 f7 3d
       -0.27604863 0.122461095 -0.20341064 0.12098337
000060 d7 1f 1a be b3 3b 21 bc e2 f0 8a 3d 18 fd 47 be
       -0.15051208 -0.009840894 0.06784226 -0.19530141
000070 b2 82 83 be ce b3 f5 bd 5f d9 ef bd 39 cd db 3d
       -0.2568565 -0.11997186 -0.11711382 0.107325025
000080 a2 bb 24 3d 7e 61 ce bd 93 79 82 ba 57 84 f0 bc
       0.040218003 -0.10077189 -0.0009954445 -0.02935998
000090 c5 cf 93 be 6b 63 e0 3c 92 dc b8 be ba d3 03 be
       -0.28869453 0.027391156 -0.36105782 -0.12873736
0000a0 64 cc 04 3d 83 d6 83 bc 59 10 16 be 9b f6 85 bd
       0.032421485 -0.016093498 -0.14654674 -0.06541177
0000b0 9d 8c e7 bd 22 1d 53 3e 11 2e eb bd c2 7b 55 3e
       -0.11306117 0.20616582 -0.11483396 0.20847991
0000c0 78 67 3b 3c 77 87 6c bd 86 03 c1 3d 83 46 63 be
       0.011438243 -0.057746377 0.094245 -0.22194867
0000d0 33 4f d1 3d 7f ef 65 3e f4 8a e2 3d e9 28 6c 3d
       0.10220184 0.22454642 0.110616595 0.057656202
0000e0 db d4 5d bd 8d d4 a5 3d b6 c2 8b bd 16 78 9e 3c
       -0.054158073 0.080971815 -0.068242475 0.01934437
0000f0 67 29 52 bd 68 a5 be bc 6c 41 0b 3d 69 e2 10 3d
       -0.051309016 -0.023272231 0.033997938 0.03537217
000100 e3 3c 4f bd 90 fb 95 3d 0f 79 e6 bd 51 ea 46 be
       -0.050595175 0.07323372 -0.11253559 -0.19425322
000110 3c 81 32 3d 17 42 d9 be 24 42 dc 3d d1 70 2a be
       0.04358028 -0.42433235 0.10754803 -0.16644599
000120 b1 98 3c 3c 75 0a c7 3c 71 3f 1f bd 2b ad 52 3e
       0.011511014 0.024296978 -0.03887886 0.20573871
000130 f0 8f d9 3c da 96 8e 3c d7 07 a3 bb ed 37 a6 bd
       0.026557893 0.017405916 -0.0049753 -0.08116136
000140 6d 57 51 be 85 b9 a3 bc 44 52 9e bd 22 34 b1 bd
       -0.20443507 -0.019985924 -0.07730535 -0.08652522
000150 28 ec 76 3d b8 a9 8c bd da 0d 91 3c 0f 84 9d be
       0.06028381 -0.06868309 0.0177068 -0.30764815
000160 74 ec f9 bc 49 f9 89 bd 88 dc ca 3d 96 38 f8 bb
       -0.030508257 -0.067370005 0.09905344 -0.007575105
000170 cf 49 0c 3d 9b 40 33 bc ce ec c0 3d 39 26 09 3e
       0.034250077 -0.010940696 0.09420167 0.13393487
000180 0a bb 36 3e 94 98 2b 3d 03 7b b4 bd ad 6a cc bd
       0.17844787 0.041893557 -0.08812525 -0.09981284
000190 e1 ec 67 bd c8 15 59 3e fd 83 14 be b0 f2 6d be
       -0.05662239 0.21199715 -0.14503475 -0.23237109
0001a0 7a 4a af ba d1 30 a1 bd 39 73 c3 3d 07 df 2f 3c
       -0.0013373636 -0.07870639 0.09543461 0.010734326
0001b0 d9 27 dc bd 4c 55 ee 3d dc 08 8c bd 27 c0 0a 3c
       -0.10749788 0.11637363 -0.06837627 0.008468664
0001c0 14 c9 4f bd 1d 52 a3 3d b5 fc bd 3d 9f 46 c8 bd
       -0.050728872 0.07974646 0.09276716 -0.09779095
0001d0 f9 00 5c bd 13 b6 d3 bb 8f 22 b8 3c 34 85 e2 3d
       -0.053711865 -0.006460914 0.022477416 0.11060563
0001e0 31 5b 88 bd 2e 8d 8f bd 97 91 c2 bd 7d 50 a0 3d
       -0.066580184 -0.0700935 -0.09500425 0.07827852
0001f0 b6 1d 2d be 8e c3 eb 3d 1d 3f a0 bb 9a 57 c4 bc
       -0.16905865 0.115119085 -0.004890336 -0.023967553
000200 29 e9 f2 3d aa 49 ff 3d cf b1 49 be 4a 0a 71 3d
       0.11860878 0.12465222 -0.19696735 0.058847703
000210 fe 82 49 3e a3 0b 10 3c 93 6e 29 be 77 ac 6f 3d
       0.19678876 0.008791837 -0.16546087 0.058514085
000220 1e b5 86 3d 1a 53 4b 3d bf 3d 2d be e7 82 78 3d
       0.06577514 0.0496398 -0.16918086 0.060671713
000230 ab c9 e3 bd fd f6 b5 bd 00 71 c3 3d e5 8c 36 be
       -0.111224495 -0.08885 0.095430374 -0.17827184
000240 aa fe 2f 3d 42 0a e5 bd ab 7e aa 3d c1 52 84 bd
       0.042967476 -0.11183597 0.08324941 -0.064610966
000250 cf c3 06 be b0 02 00 bd c3 18 2e bc e8 5e 85 3d
       -0.13160633 -0.031252563 -0.010626021 0.065122426
000260 a2 93 9b 3d 42 ee 90 bd 77 95 8b 3d c3 10 24 be
       0.07596518 -0.07076694 0.068156175 -0.16022019
000270 79 11 66 bd 32 95 8a bd 96 b4 c4 3c 59 b4 4d 3e
       -0.056169007 -0.06766738 0.024011891 0.20088328
000280 24 17 9f 3d da 8a 9c bd dd 5c 48 bd 68 ee 96 3d
       0.077680856 -0.07643671 -0.048916686 0.07369691
000290 51 83 d9 bd 5b 9f e7 bd b8 fa cd 3d ac e2 ee 3c
       -0.1062075 -0.113096915 0.100575864 0.02916082
0002a0 8b 74 50 3d bb cb ab 3d 75 69 71 3c 5b 67 e3 bc
       0.050892394 0.08388468 0.014734616 -0.027759245
0002b0 42 2b 8c 3c 7e 50 6b 3d 57 cc b4 bd c1 fb 02 3e
       0.01711047 0.05744981 -0.08828037 0.12791349
0002c0 1d 15 b2 bd 55 43 7c 3c 8c a9 3f be 5c 8c 84 bd
       -0.08695433 0.015396913 -0.18717021 -0.06472084
0002d0 8d 05 46 be 7c cb 22 3e 77 a5 f1 bd c0 48 78 3d
       -0.19338055 0.15897936 -0.11799138 0.060616255
0002e0 b1 60 14 be b2 bd 15 3e 45 53 9c bd a5 b8 72 3e
       -0.1449001 0.14623144 -0.0763307 0.23703249
0002f0 38 25 0f 3e e0 de 8e bc 0c a7 df bd 76 0d 2b 3e
       0.13979042 -0.01744026 -0.109205335 0.16704354
000300 8f fa 3b 3d 36 94 58 3d 8b 3f 01 3d ae 56 21 bd
       0.04589325 0.05287572 0.03155474 -0.039389305
000310 af 66 1d bd 6a f5 f4 3b 77 c5 4f 3e 93 3c 63 3c
       -0.038428005 0.0074755447 0.2029017 0.0138694225
000320 af 32 37 3b 17 eb 63 3d 6e 49 8d bd 06 3c 0a be
       0.0027953794 0.05564412 -0.06898771 -0.1349946
000330 ea 06 82 bd ce df 03 3e b1 c3 93 bd 92 f4 b2 3d
       -0.06348975 0.12878343 -0.072150595 0.08738054
000340 d3 e3 96 bd 26 34 de bd 4b 17 0d bd 47 e8 eb 3c
       -0.07367673 -0.1084979 -0.034446042 0.028797282
000350 89 61 de 3b 7b 43 fd 3c 85 7d 17 3e ea ab ba bc
       0.0067865294 0.030915966 0.14793976 -0.022787053
000360 4f 18 03 3d b3 5a 8d bd 54 41 3d 3e 3f 68 35 bc
       0.032005604 -0.06902065 0.18481952 -0.0110722175
000370 35 4a 67 3e 95 ce f6 bd d8 e4 07 be cc be 49 bd
       0.22586901 -0.12051121 -0.1327089 -0.049254224
000380 0e 99 0e 3e f2 31 8f 3d eb c4 8d bd d6 b4 fd bd
       0.13925573 0.06991948 -0.06922325 -0.12388007
000390 c2 a7 3a be 96 47 4c 3e 8b 80 d1 be 52 c3 f2 39
       -0.18228057 0.19949183 -0.40918383 0.00046303362
0003a0 80 56 86 3c 78 bf 06 3e aa 2b c8 bd 0f 6d 87 bd
       0.016398668 0.13158977 -0.09773953 -0.06612598
0003b0 48 a3 aa 3d 29 3f c4 3c ce 17 8c 3e c4 bd 49 3d
       0.08331925 0.023955898 0.27361912 0.04925324
0003c0 57 ba 80 bd f3 5f bc bd 96 48 13 3e db f7 1c be
       -0.062855415 -0.09197988 0.14383158 -0.15328924
0003d0 9f a0 10 be b1 5a 1e 3e ca ef 82 3d e9 80 95 bd
       -0.14123772 0.15464284 0.063933924 -0.07299978
0003e0 2a cc b8 be 4f e7 46 3d 0d 69 51 bd 9a 0e b0 bc
       -0.36093265 0.048560437 -0.051125575 -0.021491338
0003f0 2e f3 2e 3e 88 32 39 3e e5 0d 96 bd 1a a7 c0 3d
       0.17084953 0.18085682 -0.07326869 0.09406872

network_body._body_endoder.seq_layers.2.bias f4 [128]
000000 6b 1e 50 3c c7 d2 6b bc c4 d8 02 3c c9 36 20 bd
       0.012702565 -0.014393515 0.007986251 -0.039114747
000010 18 71 5c 3b c9 10 91 bd fd f2 f2 3c c8 19 ee bb
       0.0033636745 -0.0708328 0.029656881 -0.007266257
000020 7b 39 fe 39 91 23 8c bb 8b e7 f9 bc 47 26 b2 bc
       0.00048489482 -0.004276701 -0.030505916 -0.021746768
000030 2b 83 2a bd 82 28 0e 3d 7e c2 99 3c 7c 7e 57 3c
       -0.041628998 0.0347066 0.018769499 0.013152715
000040 4e 13 88 3c 7d 53 4a bd b6 82 8a 3c 21 43 85 3c
       0.016610768 -0.049396027 0.016908031 0.016267361
000050 3c cd 48 3d 7e 3d 14 3d 14 f4 10 bc 75 af a1 bb
       0.04902385 0.036191456 -0.008847255 -0.004934246
000060 18 f3 55 3c aa 0e 0c bd f4 37 10 3d 07 84 91 3b
       0.013058446 -0.034193672 0.03520961 0.0044407877
000070 ee c8 49 3b da 99 91 bd c1 0d 53 bd 19 99 7f 3d
       0.003078993 -0.07109423 -0.05152679 0.062401865
000080 f2 6c 51 bb dd 4e 97 bc 21 c9 a8 bc f6 f4 ab 3d
       -0.0031955806 -0.018470222 -0.020603718 0.08396332
000090 1f c7 c3 ba 2a 62 ed bc 3c fc 30 bb d4 c0 c5 3d
       -0.0014936662 -0.028977472 -0.0027005812 0.0965592
0000a0 8b c1 3a bc 6b e6 b5 bd 28 55 97 3d 6f 59 15 3c
       -0.011398683 -0.08881839 0.07389289 0.009115561
0000b0 09 cd 47 bd 38 4e c3 bb bf 41 59 bc ef e4 2e bc
       -0.04877952 -0.005960252 -0.013260304 -0.010674699
0000c0 c5 cd 95 bd 21 27 93 3d 24 3d 22 bd 9f 26 43 3c
       -0.07314638 0.071851976 -0.03960909 0.011911063
0000d0 48 d6 8f bc 78 bb 3c 3c 44 54 6f 3c 4b 5c f8 bc
       -0.017558232 0.011519305 0.014607493 -0.030317446
0000e0 1b 85 f8 bc 12 9f 16 bd 57 ba cb 3c 38 64 8f 3c
       -0.030336907 -0.036772795 0.024869127 0.017503843
0000f0 03 f9 d3 3d 09 4b 8f bc f1 77 00 bd 75 cd cc 3c
       0.103502296 -0.017491834 -0.031364385 0.025000313
000100 23 a1 11 3d 8e 66 96 bc fd 43 2e bd 1e e7 9d bd
       0.035554063 -0.018359449 -0.042545307 -0.07710098
000110 7f f6 61 3c ee 3e 54 bd e9 d6 96 3c 49 09 8b 3c
       0.013791679 -0.051817827 0.018413024 0.016972201
000120 a1 e5 39 3c 24 1c f3 bc 30 e4 5d 3c d3 13 27 bd
       0.011346252 -0.029676504 0.013543174 -0.04079039
000130 6f 57 ea bc f7 9a 23 bb 49 23 16 bd 2e 37 22 bc
       -0.028606145 -0.0024964192 -0.036654744 -0.009900851
000140 55 bc 03 bb 59 5a b5 bc 25 ce af 3c d2 56 a9 bc
       -0.0020101268 -0.022137808 0.021460602 -0.020671282
000150 9e b3 19 3d 15 89 3b bc b9 b9 49 bd f7 31 4c 3c
       0.037524812 -0.011446257 -0.049249385 0.012463084
000160 74 f9 34 bc 41 e6 18 3d c8 1a e3 3c ca 57 2e 3c
       -0.011045802 0.037328962 0.027722731 0.010641048
000170 1d 7e 34 bd db da 40 3d 50 4d 04 bd 09 77 1f bd
       -0.044065583 0.047083717 -0.032300293 -0.03893188
000180 fd 0f e0 bb bc a7 af 3c e9 15 7f bd 2f 3f f0 bb
       -0.0068378435 0.021442287 -0.062276755 -0.007331751
000190 c3 58 a9 3d 5d ab 6e 3b 36 04 cb bb f3 8e 6f 3d
       0.08268883 0.0036418058 -0.0061955703 0.058485936
0001a0 67 15 0c bc 60 47 8b bc 31 4e d8 3c af d0 3a bd
       -0.008550025 -0.017001808 0.026404472 -0.045609172
0001b0 9e 1b a0 3d fb ac 1d 3c 6c 32 a1 bc d9 be 3a 3c
       0.078177676 0.009623761 -0.019677363 0.011398041
0001c0 c9 16 02 bc 18 51 a9 bc f9 66 62 bc e6 50 36 3b
       -0.007940003 -0.020668551 -0.013818496 0.0027819215
0001d0 16 4c aa 3c 06 03 51 3d 84 1d 4d 3d 76 1f 44 bc
       0.020788234 0.051028274 0.050076976 -0.0119703915
0001e0 80 58 68 3d 26 ba ac 3d 9b fb 4c 3c 2a 5a 52 3d
       0.056725025 0.084339425 0.012511159 0.05135552
0001f0 de 5f 85 bd eb 62 f9 bc 71 5e 2a bd 17 1f 29 3c
       -0.06512426 -0.030442676 -0.041593973 0.010322354

action_model._discrete_distribution.branches.0.weight f4 [3, 128]
000000 63 c8 a8 3c 08 06 a7 3c d5 0b d5 3b ec 47 50 bd
       0.020603364 0.020388618 0.0065016546 -0.05084984
000010 11 de 32 3e dc cc a5 bb a6 9f f3 3d 29 52 c4 ba
       0.17467524 -0.0050598215 0.11895685 -0.0014978099
000020 d8 d4 36 bb 5c 32 fa bb 0b bd cf bc 8d 33 c6 3b
       -0.002789786 -0.007635398 -0.025358697 0.006048626
000030 90 73 05 bc 4a a8 e3 bd f1 ea b3 3b 2e 5c a0 3d
       -0.008145228 -0.11116083 0.0054906537 0.07830082
000040 57 b3 f6 39 15 b1 5e 3d 08 85 3f 3d 5e 18 0a bd
       0.00047054395 0.054368097 0.046757728 -0.033714645
000050 6f ad bc 3d 12 83 a4 bb e3 9a ba bb 2e 91 9d 3c
       0.09212767 -0.0050205076 -0.0056947335 0.019234266
000060 a0 fd d8 be 3a 76 a5 3c e8 c4 a2 bc e1 c3 f1 ba
       -0.42381 0.020197976 -0.019869283 -0.0018445217
000070 34 15 44 be 6d da 21 3c aa d9 2a 3c e4 4a d6 bd
       -0.19148713 0.009878737 0.010427872 -0.10463503
000080 8a 69 20 3c c5 16 93 3c 3c 41 77 3d 70 2d e1 bd
       0.0097907875 0.017955193 0.060364947 -0.10994995
000090 1a b2 c9 3c 16 28 4b bb 26 08 64 bc 59 51 0c 3c
       0.024621058 -0.0030999235 -0.013917958 0.008564317
0000a0 d1 12 ee bc b2 a4 01 3c b1 c4 3a be 4a 4c ae 3c
       -0.029061707 0.007912802 -0.18239094 0.021276612
0000b0 84 41 f8 bc 66 44 33 3d 41 c5 13 3c 4b 2c c7 bd
       -0.030304678 0.0437664 0.009019197 -0.09725245
0000c0 06 80 c9 bc b3 f8 79 3c 53 57 4f bd 59 de 89 3c
       -0.02459718 0.015257048 -0.05062039 0.016829656
0000d0 af f1 9b 3b 1f 6e ae 3b 2c e8 5d 3d a6 3b 15 3b
       0.0047590355 0.005323186 0.054176494 0.002277115
0000e0 94 21 ed bd 37 bf 60 be d4 20 c9 3b f8 53 8e 39
       -0.1157867 -0.21947943 0.0061379466 0.00027146912
0000f0 72 5d b3 bd da e1 ba 3c b3 a9 19 bd b1 31 de bd
       -0.08758058 0.022812773 -0.037515353 -0.10849322
000100 24 eb 10 3d 66 b0 0c 3d 02 fe 0f 3d 9a 76 b3 ba
       0.035380498 0.034347914 0.03515435 -0.0013691962
000110 2b 28 ad bd 78 cd 2e 3b c0 58 dd bb 32 d4 cf 3c
       -0.08454927 0.0026672762 -0.0067549646 0.025369737
000120 3d 23 cb 3b 43 3d 08 3e 4f 3b dc 3b 44 ad 01 bd
       0.006199269 0.1330462 0.0067209373 -0.03165938
000130 34 73 55 bc 45 6a 52 3c a4 46 14 3d 76 42 23 bc
       -0.013027955 0.012842719 0.03620018 -0.009964576
000140 c4 a7 8b 3b 73 53 85 3d 10 15 2e bd c3 b3 af 3d
       0.0042619426 0.06510057 -0.042500556 0.08579209
000150 af 28 86 bd 77 98 a4 bc 43 df cc bc 27 20 8d 3d
       -0.065507285 -0.020092232 -0.025008803 0.06890898
000160 f3 21 8a 3c a3 a0 cf 3d fc a9 32 bc ca 83 57 3d
       0.016861891 0.10138061 -0.010904785 0.05261592
000170 e5 e0 66 3b 7f 54 3d bd a7 f7 28 bd c4 73 19 3d
       0.0035229262 -0.04622316 -0.041251805 0.03746392
000180 03 43 0c 3d 5f 1d 88 3c c6 3a 92 3c c3 97 b9 3c
       0.034243595 0.016615568 0.017850291 0.022655373
000190 3a 78 c7 3a e7 48 25 bd b7 49 0a bc f4 32 0c bd
       0.0015218325 -0.04035273 -0.008440427 -0.03422828
0001a0 1f 9e 9a bb ba 72 86 bd 49 d4 dd bc bf 72 4d bb
       -0.0047185565 -0.06564851 -0.027078765 -0.0031348912
0001b0 3f 27 02 ba 11 ca c7 bc 70 9c 1c bc 14 d9 95 3d
       -0.00049649546 -0.024388345 -0.009558782 0.07316795
0001c0 4a bd 01 3c 97 1f bb bb b3 1c 9c bc e6 e2 47 3c
       0.007918665 -0.005710553 -0.019056654 0.012200093
0001d0 a4 96 93 bc 9b db 0d bb 01 69 8c ba 9f af 55 3d
       -0.018016167 -0.0021645788 -0.0010712446 0.05216944
0001e0 3b 49 a3 3c c3 11 2c be d2 d6 53 3d 48 bc b6 3c
       0.01993238 -0.1680365 0.05171854 0.022306576
0001f0 4c 4b ba bc 31 a6 b9 3c 84 31 98 bd 3c bd 05 3c
       -0.022740982 0.022662254 -0.07431319 0.008162793
000200 7b 31 97 bb 3b 96 89 bb a1 97 0f 3c 2d 33 ce 3d
       -0.004614053 -0.004198817 0.0087641785 0.10068355
000210 34 06 d1 bd 2a 49 b9 bc 2f 9f a0 bd ce a7 03 3d
       -0.10206261 -0.022617895 -0.07842862 0.032142453
000220 f9 6b 3c bd 4b 52 16 3d 2d 10 5e bc 4b 60 31 3c
       -0.04600141 0.036699574 -0.013553661 0.010826181
000230 df 04 85 bc e2 07 b4 bb 91 b5 d1 3c 43 88 4d bd
       -0.016237674 -0.0054941038 0.025599273 -0.050178777
000240 8c 8b 07 3d b6 70 75 bd d1 69 ad bd c8 d6 ee 3d
       0.033092067 -0.059921943 -0.084674485 0.1166206
000250 4c e6 78 be c1 73 d8 3c 68 79 bb 3a 2f 40 92 3a
       -0.24306601 0.026422383 0.001430315 0.0011158044
000260 d1 c0 82 3e ce c0 ba bc 0a 16 d2 3c 9f 1b 7a 3b
       0.25537732 -0.022797015 0.025645275 0.0038163436
000270 9f 16 1e 3e fe a6 2f be c7 bc f0 bd f8 cf e4 3d
       0.15438317 -0.17153546 -0.117547564 0.111724794
000280 f6 cd 9d bb 2e 8d 46 3d 4d 34 01 bc 38 ff de 3e
       -0.004815812 0.048474483 -0.007886005 0.4355409
000290 7a 12 d0 bd 1a ca 8c bc 02 95 2a ba e4 ed 4f 3d
       -0.10159774 -0.017186213 -0.0006507189 0.05076398
0002a0 81 6f 08 3d 77 92 14 be 51 ca 3b 3e fb dd eb 3c
       0.033309463 -0.14508997 0.18338896 0.028792372
0002b0 de d2 eb bd e0 a1 57 bd 95 61 97 bc 69 e3 1c bd
       -0.11514829 -0.05264461 -0.018479148 -0.038302813
0002c0 f9 a7 3c bd 93 f5 84 3c ec f2 0e be d2 fe fc bc
       -0.04605863 0.01623038 -0.13959855 -0.030883227
0002d0 d1 07 ed bb 22 8b 88 3d 23 43 03 3e df e6 71 3b
       -0.007233598 0.066671625 0.1281858 0.0036911292
0002e0 69 e8 aa 3d f3 9d 19 3e 7e cd a4 3c a1 70 db bc
       0.0834511 0.15001659 0.020117518 -0.026787104
0002f0 20 70 1c 3e fc ea 0e bc 33 47 85 bd ac 65 d6 3e
       0.15277147 -0.008723017 -0.06507721 0.41874444
000300 8b cf 6d 3c da 92 80 bb 64 ba 0e be 8b 22 48 ba
       0.014514814 -0.003923756 -0.1393829 -0.0007634542
000310 73 93 80 bd 9f 09 b5 bd cb 6d 23 3c 8b 17 b5 bd
       -0.06278124 -0.08839726 0.009974907 -0.08842381
000320 21 39 57 3b 97 1d a5 bd cf 75 56 bd e3 d2 fb 3c
       0.0032840448 -0.080622844 -0.052358445 0.030740207
000330 d6 af 2f bc 97 16 50 3a f2 8e 34 3b 3c 8e e1 bc
       -0.010723075 0.00079379365 0.0027551022 -0.027533643
000340 ac f9 ee bb 71 39 98 bc 6f 58 88 3d 8d 06 dc 3a
       -0.007292947 -0.018582078 0.06657492 0.001678662
000350 c6 73 09 3e 07 b1 d8 3d 6f 34 10 3d 21 7d 23 3c
       0.1342307 0.1058064 0.035206255 0.0099785635
000360 20 7c 18 bd c4 81 0e be c8 db 00 bd 63 7b 43 bd
       -0.03722775 -0.13916689 -0.0314596 -0.047725093
000370 39 a2 28 be b0 72 a1 bd 07 8a 51 3c 99 01 f8 bc
       -0.16468133 -0.07883203 0.012789256 -0.0302742
000380 c0 24 3a bd 10 27 77 3c bc 98 2a 3d 48 00 e3 bb
       -0.045445204 0.015084997 0.041649565 -0.0069275238
000390 57 48 d1 3c d4 0e 28 3d 3c 32 79 3c 20 10 ca 3d
       0.02554719 0.041029766 0.015209731 0.09866357
0003a0 87 2c 2c bc 41 34 e1 3c 75 12 c5 bc 8b d6 24 be
       -0.010508663 0.027490737 -0.024056653 -0.16097467
0003b0 59 fb 3e 3d 01 aa 2d bd a6 f6 e6 3c a8 41 aa bd
       0.046626423 -0.042398456 0.028193783 -0.08313304
0003c0 87 34 11 bb 39 53 1a bc 23 87 86 3b 4f 2e 08 bb
       -0.0022156553 -0.009419256 0.004105465 -0.0020779555
0003d0 8e cc 5a b9 02 4a 96 3c f3 47 02 3d 46 fb 25 bd
       -0.00020866303 0.018345837 0.031806897 -0.040522836
0003e0 5b d4 17 3c de 2e b0 3e 65 6e 6b bd bb df ba bd
       0.009266938 0.34410757 -0.057478327 -0.091247045
0003f0 b9 d0 e7 bd 21 93 bc bc 66 26 1f 3d 4a eb 84 3d
       -0.113191076 -0.023019375 0.03885498 0.0649019

action_model._discrete_distribution.branches.0.bias f4 [3]
000000 3c 9a da bc 38 c5 62 3d a6 3e 49 bd
       -0.026684873 0.055363864 -0.04913201

action_model._discrete_distribution.branches.1.weight f4 [2, 128]
000000 78 1c 09 be ac 00 5b bc da 23 cf bc 16 97 63 bd
       -0.13389766 -0.013366859 -0.02528565 -0.05556401
000010 37 47 ac 3d 13 20 a7 bc 9e 59 06 3e 93 19 1b bb
       0.08412021 -0.020401036 0.13120124 -0.0023666366
000020 14 3b 90 3c 7b db 35 bc 89 01 d2 bb 50 0a 62 ba
       0.017606296 -0.0110996915 -0.0064088744 -0.00086227525
000030 c5 cc 7a 3c db 36 78 3e 74 15 11 3c 80 8e bc 3c
       0.01530761 0.24239676 0.0088552125 0.023017168
000040 94 2a 81 3d 5c 19 79 3e e4 61 80 3c 4e 25 54 bb
       0.06306949 0.2432608 0.015671678 -0.0032370868
000050 7d dd c6 3e 95 6c c3 3b a4 0c a7 bc a8 01 8f ba
       0.38840857 0.0059638717 -0.02039177 -0.0010910528
000060 24 e8 38 bb 6b 1d db bd f8 61 0c bb 91 be 08 bc
       -0.0028214538 -0.106989704 -0.0021420699 -0.008346216
000070 ea 32 0a bd a6 17 28 3d 95 37 12 3d 1e 50 e9 bc
       -0.03373996 0.041038178 0.03569754 -0.028480586
000080 7a ce e2 3d 9e 03 46 bb 5a 69 76 3c b4 78 18 bd
       0.110745385 -0.0030214558 0.015039766 -0.037224486
000090 5a a0 a0 3d f9 a3 55 bc 0c 57 85 bd fa 19 a4 3b
       0.07843085 -0.013039582 -0.065107435 0.0050079795
0000a0 d7 d2 ae bd 2a 9c 4a 3d 9a 7a f2 3a 8a 7d 18 bc
       -0.08536308 0.049465336 0.0018499673 -0.009307275
0000b0 c2 9c 0e 3c e1 69 8e bc a3 3b 00 3c af e5 a6 3d
       0.008704366 -0.017384471 0.0078267185 0.081492774
0000c0 99 d7 19 bc 5a f0 d8 3b 39 d9 97 bd b8 ab 7a 3c
       -0.009389781 0.006620449 -0.07414479 0.01529973
0000d0 30 8e b3 3b 2d 68 25 3d 99 d2 b0 bc fe 15 7b bc
       0.0054795966 0.040382553 -0.021584796 -0.015325068
0000e0 b6 90 1f bc 78 bf fc 3c 94 ba f8 3c 19 b7 d7 bd
       -0.009739092 0.030853018 0.030362405 -0.1053297
0000f0 48 33 be bc 2e 74 00 bc 53 43 16 bd be ff 65 3d
       -0.023217812 -0.007840199 -0.0366853 0.056152098
000100 ad 1f 18 3d 76 4a ae 3d a1 8f 23 3e b2 95 2d 3e
       0.037139583 0.08510296 0.15972759 0.16951635
000110 ec b6 4a be b4 7c 0b 3c dc 96 80 3c 02 fb 66 3c
       -0.19796342 0.008513618 0.015696935 0.014097931
000120 24 dd b9 bb c8 4a 94 bd 19 2b 07 bd 77 2f 2c bc
       -0.005672114 -0.07240826 -0.033000086 -0.010509363
000130 61 7d c2 bd e3 e6 6c 3c 99 11 f1 bc e8 12 e1 3c
       -0.094965704 0.014459345 -0.029427337 0.027474836
000140 25 4f 17 3c 36 ab 87 bc ea a3 77 3b 06 3c 1c 3c
       0.009235178 -0.016561132 0.003778691 0.009535795
000150 f8 23 51 bc 6c 45 76 3c 49 a9 03 bd 4e 86 86 3b
       -0.012764923 0.0150312 -0.032143865 0.004105366
000160 99 8b df 3a 05 fa 04 3b a4 94 07 bc 4d b7 4b bd
       0.0017055153 0.0020290625 -0.008275185 -0.049735356
000170 bd 51 12 bb be f1 8e bc 4e f0 7a bd 9d e8 9b bb
       -0.0022326552 -0.017449256 -0.06126433 -0.0047579543
000180 36 0f df 3b 03 12 96 3c c9 60 01 bd af 95 86 3c
       0.006807233 0.018319136 -0.031586442 0.016428797
000190 94 1f 38 bc e2 3d 22 39 fa b8 48 bd 9f 12 21 3e
       -0.011237998 0.00015472577 -0.049004532 0.1572976
0001a0 fe 4f 6c bc 90 f8 53 3e d2 c6 ec 3d 66 ba ca 3c
       -0.0144233685 0.20700288 0.115613595 0.024747085
0001b0 27 8b 55 3c b9 74 5e bc 44 d3 be bb ae 2c 88 bc
       0.013033665 -0.013577634 -0.0058235247 -0.016622867
0001c0 aa 83 d9 bc c7 85 03 3c ce 5f cd bd 09 ef 8f bc
       -0.02655204 0.0080275005 -0.10028039 -0.017570036
0001d0 34 df 03 bc 7c f9 d1 bb cd e3 bc 3b 00 14 0a 3a
       -0.008048821 -0.0064079147 0.0057644607 0.00052672625
0001e0 e6 df 74 bd 70 a2 00 be 2a d3 8c bb 48 25 92 3c
       -0.05978384 -0.12561965 -0.0042976337 0.017840043
0001f0 2b 0d 8f bc 7a 9b 85 3c 0f 4d 6c be 51 34 45 bc
       -0.017462334 0.016309489 -0.2307627 -0.012036399
000200 3d 32 e6 3d 9d fc a7 3c 7d d2 6f 3c 15 d5 59 3d
       0.11240051 0.020506198 0.014637587 0.053181726
000210 41 8c c1 bd 83 5b b2 3c fe fb 06 be c3 2a 58 bb
       -0.094505794 0.021772152 -0.13182065 -0.0032984472
000220 da 34 ad bc c9 22 19 3c e7 c6 5f 3c 4c 7b 2a 3c
       -0.021143366 0.009346672 0.013658262 0.010405373
000230 f7 68 eb bb c7 0e 79 be 43 04 75 3b 88 47 af bc
       -0.0071841436 -0.24322043 0.0037386573 -0.021396413
000240 41 6b 8a bd b3 1e 83 be f6 57 3e bc 13 01 70 bc
       -0.06758738 -0.2560936 -0.011617651 -0.014648694
000250 d0 8f c4 be 7e a1 0c 3c 90 d0 d3 3c 5d d6 1a bb
       -0.3839097 0.008583425 0.025856286 -0.0023626306
000260 cb 0c 47 bc f8 4c e2 3d 95 a1 42 bb 2e 27 94 bb
       -0.012149046 0.11049837 -0.0029698361 -0.004521272
000270 8d 3a 07 3d f7 4e 10 bd 79 e1 62 bd a2 6b 14 3d
       0.033014823 -0.035231557 -0.05539081 0.03623546
000280 bb a1 ef bd 06 4e 74 3b e7 cd 83 bc e2 17 35 3d
       -0.117007695 0.003727795 -0.016089393 0.04421223
000290 aa e8 8a bd 90 a6 7c 39 d5 20 81 3d 7c 20 bb b9
       -0.067826584 0.00024094642 0.0630509 -0.00035691622
0002a0 24 6a a7 3d fb 39 24 bd 31 c6 54 bc 87 43 2f ba
       0.081745416 -0.040094357 -0.012986706 -0.00066857826
0002b0 f7 5a 89 3c 0c dc 3a 3c d5 26 93 3c bc 2c a4 bd
       0.016767008 0.011405002 0.017962852 -0.08016345
0002c0 ce 1e e2 3c 46 25 a2 3b 16 e8 a4 3d 12 7e ec bb
       0.02760258 0.004948291 0.080520794 -0.007217177
0002d0 44 df 42 bc ac c4 9a bc 75 a3 55 3c d7 5b 60 3b
       -0.011894051 -0.018892609 0.0130394595 0.0034234428
0002e0 d7 c7 90 3c d3 cc 36 bd 9b 2a 2b bd 68 6c d5 3d
       0.017673416 -0.04462893 -0.04178868 0.104210675
0002f0 b9 88 f7 3c b5 b5 0d bc 55 2f 16 3d 66 80 99 bd
       0.030216562 -0.008649279 0.036666233 -0.07495193
000300 5d c0 98 bc c1 86 83 bd 65 d8 25 be 72 2b 34 be
       -0.018646413 -0.06422187 -0.16195829 -0.17594698
000310 ae 48 5d 3e 9c 6c 06 bc 85 84 8f bc 55 24 7f bc
       0.21609756 -0.008204605 -0.017519245 -0.015572627
000320 f1 31 a2 39 b2 f6 9a 3d 78 88 fe 3b b3 5e ad 3c
       0.00030936257 0.07566585 0.007767733 0.02116332
000330 2c 16 c8 3d fa cd 2c bb c5 6a eb 3a 6c cf a2 bc
       0.09769854 -0.0026367889 0.0017960897 -0.019874297
000340 f4 2c 62 3a c3 5a 2f 3b 01 9d 2d bc 40 66 f5 bb
       0.00086279144 0.002675698 -0.010596515 -0.007488996
000350 89 16 86 3c c4 79 30 bb 62 d8 f6 3c bb 22 0a bc
       0.016368167 -0.0026928047 0.030132476 -0.008431132
000360 a9 ee 57 bb c6 fd 1c 3b 36 be 65 3c 15 9f 08 3d
       -0.003294865 0.0023954972 0.014022401 0.033354837
000370 7f be a0 3c 26 94 9e bb 11 b5 72 3d 6f c3 6b 3b
       0.019622086 -0.004839438 0.05925471 0.0035974642
000380 7a a4 e8 bb 41 81 9f bb 37 f4 11 3d 21 71 24 bc
       -0.0070996853 -0.004867703 0.035633292 -0.010036738
000390 9d af e7 3a 89 09 2c b9 68 e7 75 3d 68 2f 1e be
       0.0017676238 -0.0001640675 0.06003514 -0.15447772
0003a0 05 99 ca 3b e9 11 5e be 9b 89 fe bd 8e ee 2c bd
       0.006182792 -0.2168652 -0.1242859 -0.04221969
0003b0 fb 85 24 bc e8 24 9d 3c 28 b5 2d bc 62 49 80 ba
       -0.010041709 0.019182637 -0.010602273 -0.0009787495
0003c0 c0 a2 d8 3c b4 fc 1b bc cd be c5 3d c0 b7 a8 3c
       0.026444793 -0.009520698 0.09655533 0.020595431
0003d0 04 be dc bb bb 3b 46 bc 2b 8b 1f bc 98 35 b9 bc
       -0.006736519 -0.012099202 -0.00973777 -0.022608563
0003e0 4d 5c 85 3d 57 20 11 3e ed 55 24 bc 5d 96 49 bc
       0.065117456 0.14172493 -0.010030252 -0.012303916
0003f0 bb 74 e1 3c 0f 30 ae bc 50 9b 6e 3e 23 19 d9 3b
       0.027521482 -0.02126315 0.23301435 0.006625311

action_model._discrete_distribution.branches.1.bias f4 [2]
000000 17 f1 b2 b9 34 94 b4 39
       -0.00034130432 0.00034442695
