results/first/SpaceInvaders/SpaceInvaders-13978.pt (torch, 971959 bytes, 83 tensors)

discrete_act_size_vector f4 [1, 2]
00000000: 0000 4040 0000 0040
3.0 2.0

network_body._body_endoder.seq_layers.0.weight f4 [128, 6]
00000000: bf88 f93d 3c46 903d 4bf9 8f3d 9f96 d63d
00000010: d8c5 d2bd cf7e 85bf 5351 d5be 4e37 83bf
00000020: 4182 dabe 803c 693f 5fea 2ebc cdd6 f03e
00000030: 0fb5 96bc cf9f fcbd fae8 09bb 5811 87bc
00000040: 560d 193e a9e8 ea3e 9351 323d c323 d03d
00000050: 7d1b 22be 36ef 2abf 93d3 b73c db29 953d
00000060: 26d8 6c3f 8ffb c8bd 6bcc ba3e 223b 19bf
00000070: 1842 363f b2c4 343e 031c dabd a68b c8be
00000080: 4c82 2c3f c7cb 5ebe 8566 643f f6b1 d5be
00000090: 5008 6d3e 155d 18bd 33f5 6d3e becc 83bf
000000a0: 0426 113f 5932 46bd bace 853d de2c 6b3d
000000b0: 21db 84be 4b1f 24bd 6328 673e 52ac 123f
000000c0: 654d f33e e377 9c3e 4bf3 2d3e 9c82 e7be
000000d0: 0b57 ff3c b68b 323d 5b25 8b3e 84d9 abbe
000000e0: e64c 783e 28c5 37be 0221 033f bcef 98bd
000000f0: 0708 2d3e 2b94 59be ebcd bb3e f6cc 29bf
00000100: 8506 0cbe 39c9 2d3e ce41 8f3e b008 5abe
00000110: 979b 233e 9b90 f23e 6353 57be ee42 28bf
00000120: ee5f 9b3e 3865 bd3e b7ee 843e d8ef 31bf
00000130: 0b00 c6be 2326 2cbf 41f6 a33d e79b a4bd
00000140: 73f5 2cbf 99d2 03bf 6f76 24be 91da 07bf
00000150: df4d 1cbe 37a0 923e 0314 083d 2059 ef3e
00000160: 7ffa dd3d 5983 073f f854 b03d b6cc 89bd
00000170: 7bfc 613e 47eb bf3e d491 b73e b5e6 66bc
00000180: 2632 c03e b541 71bd aa2c 97be 2c93 bf3e
00000190: 4809 393e 0cde fe3e 8d5d 373e 63e9 c8be
000001a0: 5ef4 34be bfc1 2a3f 7c11 42be 12e5 9fbe
000001b0: 84a8 893e 7e0a 55bd 9a05 8ebd 0526 82bd
000001c0: 3a93 8a3e 9cee 3abe 5ea9 213e 8a17 60bc
000001d0: 1a37 cd3e 5f59 a7be 2b0d 1c3f e64b 88be
000001e0: 46ec 6cbe 9965 c93c 1416 11bc ce09 f33e
000001f0: bab3 dbbd 95a2 adbd 00ec 473f a554 f13e
00000200: 5185 1c3e f20d 80be db54 3fbf 3682 e53e
00000210: 81a2 26bf 9c9f 0c3e cfc4 6a3e a3c8 173d
00000220: 21a2 66bc 4f0d e43e b562 573e 336a 1c3a
00000230: 08dd ba3c 4791 c03c de38 593e 9c2a c9be
00000240: b48e 3b3f 09ea 37bf b302 b53e 748d 283e
00000250: 4044 5ebf cde4 8abe c427 333f ab11 ec3e
00000260: b2d7 443e aa3d a13d 0135 9bbe 4e03 023f
00000270: 8e62 8dbe 5ee6 e5be 12a4 dd3e 75ac 083f
00000280: ddb2 443f 2aab e6be feed 25be 0ef7 5fbe
00000290: b4c1 d7be ad78 243e 67b2 00be 33ed f3be
000002a0: ff95 0f3d 8df6 d6bd bc5a 2ebf 3c0c 29bd
000002b0: 8641 cd3d bbbe 95be 15f3 a0be d5e7 563e
000002c0: d7dc d5be e945 85be ac45 883f c6b8 853f
000002d0: f31a bebd ffdc 633e 54dc c3be cca9 853d
000002e0: c616 bd3e 4b73 553e 3a4a 58bf 3902 1cbf
000002f0: a97a 88be 3f61 f03c 71a5 973b 8aef 52bd
00000300: e959 cabe adab 0d3e ad94 2abc 5dcf 1fbf
00000310: 15cf 6ebf 8f1d 11be f624 36be 1bb3 61be
00000320: 0eb7 5ebe c259 9bbd 8a22 10bf 090b 293d
00000330: 283b a8be 64df f93e 66a5 f63d f19e 5bbe
00000340: f545 fcbc 47f4 313e f4b2 70bf 3760 97be
00000350: 5e79 21bd 39ef a03d 35b6 193e 3606 a2bd
00000360: 5bef 353f ebd1 0bbf 237f 153f d5d7 b33e
00000370: bace 2bbf 13af 2abf 3b69 343f ee9a c83e
00000380: 4a79 fc3b 18dd 98be 0498 a13e d35f 0c3e
00000390: ca63 d2be b252 dbbc 98de 8dbe 90ee 383e
000003a0: cd9d 8fbe 7c80 81be 5691 58be 6169 803e
000003b0: 8bef 8fbd 5a92 0dbf ea31 d83d ae96 5d3e
000003c0: 018a 05bf 0adc 09be 0378 993e 8e71 a43e
000003d0: 9ed7 8e3e 3d6a 183f d540 933d 2ab6 d23e
000003e0: 6a2e fcbe 86d9 11be bfed 5abd 19d7 ddbe
000003f0: 048b 6f3f 9d94 53bf a59e 033f 868c e53e
0.12184285 0.07044646 0.07029971 0.104779474 -0.10291642 -1.0429324 -0.41663608 -1.0251253
-0.426775 0.9110794 -0.010675996 0.4703888 -0.018396882 -0.123351686 -0.0021043406 -0.016487762
0.14946494 0.4588063 0.043534826 0.10163071 -0.15830798 -0.66771257 0.022439754 0.07283374
0.92517316 -0.09813606 0.36484084 -0.59855855 0.711946 0.17653158 -0.10649874 -0.39169043
0.6738632 -0.21757422 0.8921893 -0.41737336 0.23147702 -0.037198145 0.23238067 -1.0296857
0.5669863 -0.04838786 0.065335706 0.057415836 -0.25948432 -0.040068906 0.22574 0.5729419
0.47519985 0.30560216 0.1698734 -0.45216835 0.031169435 0.04359027 0.27176937 -0.3356439
0.24248084 -0.17946303 0.5122224 -0.07467601 0.16897593 -0.21247928 0.3668054 -0.6632837
-0.13674362 0.16971292 0.27979892 -0.21292377 0.15977322 0.4737595 -0.21027903 -0.65727127
0.30346626 0.36991286 0.25963375 -0.695066 -0.38671908 -0.6724569 0.080059536 -0.080375485
-0.67562026 -0.5149322 -0.16060804 -0.5306788 -0.1526408 0.2863786 0.03322221 0.46747684
0.10838794 0.52934796 0.086099565 -0.06728499 0.2206897 0.3748419 0.35853446 -0.014093091
0.3753826 -0.058900554 -0.29526263 0.3741697 0.18069947 0.49778783 0.1790678 -0.3924056
-0.17671344 0.66701883 -0.18951982 -0.31229454 0.2688638 -0.05201196 -0.06934662 -0.06354908
0.2706545 -0.18255085 0.15787265 -0.013677487 0.40081102 -0.32685372 0.6095759 -0.26620406
-0.23137006 0.024584578 -0.0088553615 0.47468418 -0.107276395 -0.08478276 0.7809448 0.4713489
0.15285231 -0.2501064 -0.74738854 0.44825906 -0.6509171 0.13732761 0.22926639 0.037056576
-0.0140767405 0.44541404 0.21033747 0.00059667527 0.022810474 0.023506774 0.212131 -0.3929032
0.7326462 -0.71841484 0.35353622 0.1646021 -0.8682289 -0.27127686 0.6998255 0.4610723
0.19222906 0.078730896 -0.30313876 0.5078629 -0.27614254 -0.4490232 0.43289238 0.5338815
0.76835424 -0.45052463 -0.16204068 -0.21871588 -0.4213997 0.16061659 -0.12568055 -0.47641906
0.035055157 -0.104962446 -0.681072 -0.041271433 0.10022263 -0.29247078 -0.31435457 0.20986874
-0.4177005 -0.260299 1.0646262 1.0447013 -0.09282484 0.22252272 -0.38254035 0.06526527
0.36931437 0.20844762 -0.8448826 -0.6094089 -0.26656082 0.029343246 0.0046278764 -0.051497974
-0.3952172 0.1383502 -0.010411424 -0.62425786 -0.9328473 -0.14171432 -0.17787537 -0.2204098
-0.21749517 -0.07585479 -0.563027 0.04127029 -0.32857633 0.48803246 0.12043266 -0.2144735
-0.030795077 0.1737834 -0.9402306 -0.29565594 -0.039422385 0.07858128 0.15010913 -0.07911341
0.7106835 -0.54617184 0.5839712 0.35125604 -0.67112315 -0.6667339 0.7047307 0.39180702
0.0077048885 -0.2985618 0.3156129 0.13708429 -0.41091758 -0.02677283 -0.27708888 0.18059754
-0.2805008 -0.25293338 -0.21149191 0.25080398 -0.07028111 -0.5530144 0.10556395 0.21639511
-0.521637 -0.13462844 0.29974374 0.32117885 0.27898878 0.59537107 0.071901 0.41154605
-0.4925416 -0.14243135 -0.05344939 -0.4332817 0.93571496 -0.8264864 0.5141395 0.44833773

network_body._body_endoder.seq_layers.0.bias f4 [128]
00000000: b897 dcbc aafc 943d e486 243e e9da bfbd
00000010: 7b36 263e dc2a 8fbd d09a ba3c 2424 d1bc
00000020: 3cfb ffbd 31da 8c3b 4512 193e b0fb f43c
00000030: 518b aebd f0ca 1a3e 450f cbbd 9134 3bbd
00000040: 70dd bd3b 4f56 193d 492a 1b3e 00cb e4bd
00000050: b03d 02bd c960 24bd 0210 1abe 26d8 43bd
00000060: 6d60 0c3d 434e 67bc 4519 2cbd 5843 9b3e
00000070: bea2 553e 4c44 19bd 845c 39bc 63bb c53d
00000080: c2c1 9a3c 5851 053e c707 b3bd 841a 97bc
00000090: c108 79bc c4dc 803d 1e92 2ebd eb66 d1bc
000000a0: 5c5a 873b 5d0b e8bd 9054 833d 6b09 86bd
000000b0: e4e4 17bd 1950 ac3d da80 5f3e 81b5 ac3d
000000c0: 123a ad3c 34db ea3a df12 6c3e 524a 1fbd
000000d0: aad6 a2bd 6792 003e efa1 593c a179 9ebd
000000e0: 3472 4a3c 2594 44bb 3977 14bc 0def 01bd
000000f0: 8200 83bd 5138 0ebe bebc 01bd 6af0 643d
00000100: f98c b03b 18a2 ca3d 6f36 c0bc b798 4e3e
00000110: 5e44 3abd d3ba 91bb 80c2 a03d 1655 31bd
00000120: 992d 70bd a02e 91bd 96da 3cbd 36e9 1b3e
00000130: ea4e 68bd 3ec2 223b 7481 8bbc d7b8 83bd
00000140: 9a36 723e 416d 423e d1fc 9bbb 8211 e6bc
00000150: b6bc b83d 6ab8 0bbe e350 0f3e 5247 d63c
00000160: b1e9 213c f0a4 e73c 003c a33c eb56 94bc
00000170: 6a1d e6bd 347b f4bd 53e7 d33c a757 443b
00000180: f514 263e a73d afbd bf0b 06bd 6a67 0f3a
00000190: 2a8a 8dbd 53df 4e3d 81c7 a43e 4346 c23c
000001a0: 8f07 cb3d 1c8c 253d f22f 0e3c a889 43bd
000001b0: 1060 903c 927c fd3c b885 aebd 70a8 b037
000001c0: e879 1e3e 6ccc 2f3d 51f4 b03c b1c5 603d
000001d0: 5d9f da3d 2fbd c2bd 5132 ca3c 2e71 83bd
000001e0: e218 7a3e 4f47 ffba dc41 46bd 7653 d6bc
000001f0: 859a 74bd 7dbd 6c3b 3ec7 16bd 85be 2a3d
-0.026927814 0.07274754 0.16067082 -0.09367926 0.1623172 -0.06990597 0.022778898 -0.025529929
-0.12499091 0.0042984714 0.14948376 0.02990517 -0.08522666 0.15116477 -0.09915022 -0.045704428
0.0057942197 0.037435826 0.1515285 -0.11171532 -0.03179711 -0.040131364 -0.15045169 -0.047813557
0.034271646 -0.01411778 -0.042016286 0.30324817 0.20862862 -0.03741865 -0.011313561 0.09654882
0.018891219 0.13019311 -0.08741718 -0.01844526 -0.015199841 0.06292108 -0.042619817 -0.02556177
0.0041306447 -0.113302924 0.064126134 -0.06544765 -0.03708352 0.08413715 0.21826497 0.084330566
0.021145854 0.0017918111 0.23054074 -0.038889237 -0.079511 0.12555848 0.013283237 -0.077380426
0.01235633 -0.0029995528 -0.009061628 -0.031722117 -0.06396581 -0.1388867 -0.03167414 0.05589334
0.005387899 0.09894198 -0.023463456 0.20175444 -0.045475356 -0.00444732 0.07849598 -0.043294035
-0.058637235 -0.07088971 -0.046106897 0.15225682 -0.056715883 0.0024835016 -0.017029501 -0.0643174
0.23653641 0.1898699 -0.0047603627 -0.02808452 0.09020369 -0.13644567 0.139957 0.026157055
0.0098823765 0.02827689 0.019926071 -0.018107852 -0.11236079 -0.11937562 0.02586714 0.0029959471
0.16218932 -0.08556681 -0.032726046 0.0005470427 -0.06911118 0.050505947 0.3218346 0.023715144
0.09913551 0.04041682 0.008678423 -0.0477387 0.017623931 0.030943189 -0.085215986 2.105927e-05
0.15476191 0.04291956 0.021600874 0.054876033 0.106749274 -0.0950874 0.024682196 -0.06418072
0.24423555 -0.0019476208 -0.048402652 -0.026162844 -0.059717674 0.0036123686 -0.036811106 0.0416856

network_body._body_endoder.seq_layers.2.weight f4 [128, 128]
00000000: d3a0 973d 801e 313e 10cd b5bc 806f cbbc
00000010: 2db7 c9be f794 183c d1fa e7bd 2a70 fbbd
00000020: ce21 6e3d 88a8 203d 60d5 cebd b5d5 08be
00000030: 4d24 76bd 9d57 e5bd a72f a3bd 4718 4cbd
00000040: 4ae0 29be 8819 04be 2b17 83be cb41 383d
00000050: 2478 5abe d6db e03d 28fc 23be d992 ef3d
00000060: c8b5 ddbd aa20 a6bc 90b7 a73d 2f0d 34be
00000070: f7d2 70be 8498 e8bd 66b1 f2bd 7a18 db3d
00000080: 8797 703d 6d38 acbd 9b02 053a 3608 70bd
00000090: 07ba 8cbe b44f 513c 3399 f8bd 5157 03be
000000a0: 57c5 043d bf20 b0bc 4495 05be d301 2bbd
000000b0: fdf3 03be bc64 3f3e f73a c2bd a90e 4b3e
000000c0: 1112 f53b cbd5 22bd f2d3 e63d eead 17be
000000d0: 6b32 cb3d 38e1 483e 88aa cb3d 1a39 583d
000000e0: ca20 a4bc 4fbc c33d 922b f3bb aec9 aebb
000000f0: fb59 fcbc 6973 c2bc 69c4 573d 5663 0a3c
00000100: a187 9ebc 1eab 2f3d ca77 a7bd dd81 06be
00000110: 2cd0 323d f896 63be 3081 db3d fd61 17be
00000120: d1a9 1b3d 1ec9 1c3d adae b5bc 60fd 553e
00000130: aa3b a13c f1f7 ea3b 4bfd 26bc 68a0 acbd
00000140: 42fa 30be 0655 383c 01df 9dbd ef79 bdbd
00000150: 142e 383d 93d5 56bd 267e 063d 521e 80be
00000160: b031 bfbc ed74 1c3c 259c b73d 01df 943b
00000170: c2c7 e23c e129 62bc d02b c63d 1d85 e23d
00000180: ac8d 1c3e d030 243d d311 a3bd ee58 dabd
00000190: f6c1 63bd dbe8 583e 8666 0bbe 46d2 3bbe
000001a0: bfc4 923c 3eeb aebd 38e7 c23d fb90 4f3c
000001b0: 2418 c3bd 5a2d d23d a8c1 81bd 0b14 923c
000001c0: eaaa 14bd 3f0e b63d 0871 d63d 9d94 e0bd
000001d0: 9834 e1bc 2ff5 98bc 1913 973c 2dc2 e33d
000001e0: 613d c2bd 6344 69bd 38ba cfbd b0b5 933d
000001f0: de8b 01be 8447 eb3d 5c25 5fbc 8c70 0ebd
00000200: e590 ed3d 9d5e 043e 863e 35be ab8f 523d
00000210: 06f5 283e 3a69 c53c 2c97 c8bd b91e 4e3d
00000220: fa7f 403d f0a0 423d 654a f9bd 0472 543d
00000230: df78 c2bd 21bd 85bd 91f8 d43d e3b9 2dbe
00000240: 2a36 373c 63f4 1bbe 1d99 5b3d 9190 5ebd
00000250: 9a50 fcbd 8b30 16bd 0aa2 c53a e0b7 733d
00000260: b953 29bc 8ea1 a0bd 48be a93d 3efb 12be
00000270: 77ce 0bbd a84a 73bd b036 e53c 06c4 363e
00000280: 570f 803d 92f0 78bd 5668 29bd 7be8 843d
00000290: 36f8 f8bd 283a 02be 29c3 b53d dd50 843c
000002a0: 4f1b 873d c7cd 983d 26be 6cbc 04f1 28bd
000002b0: fd11 c43c 9964 583d 1ad5 8ebd 68a9 ef3d
000002c0: a082 98bd 82eb e33c fbcf 2ebe 7f72 67bd
000002d0: 02b7 4cbe fb33 ee3d d6bb fbbd ff0b 723d
000002e0: e25d 0cbe 6997 1e3e 2cbb afbd d15e 6e3e
000002f0: 2cc2 1c3e 2941 12bc 13d6 d1bd 0898 113e
00000300: 245a 133d bab2 2f3d 948c 823c 4113 a03d
00000310: 3c48 1ebd 962e a43a 4da5 393e 9834 c83c
00000320: 2afe f9ba 94ee 7e3d 919c b4bd 682f ecbd
00000330: 5b5a 85bd 4f85 f23d 003a 9fbd 9d9e a93d
00000340: 9f27 8dbd 4eee 75bd 8d0c 0dbd b734 fa3c
00000350: c130 80bb 3244 2e3d 6ad8 cf3d 84d7 6b3d
00000360: aae2 343d 730c 58bd 7e45 323e 782c 97bc
00000370: 233e 5f3e 682f f1bd 9fe1 ffbd 8085 5abd
00000380: e371 003e 9ccb 843d b8b4 8abd e207 14be
00000390: bb9b 33be 0596 453e 5fee cebe f416 b03d
000003a0: 2201 0c3d 8a6b 093e 780c b8bd f04e 71bd
000003b0: 9fed a33d a193 74bc 1872 8f3e b9f9 0a3d
000003c0: d5e3 85bd 64f4 a5bd 193f 033e ea24 1cbe
000003d0: 3174 c4bd e9fb 173e 3475 933d f300 89bd
000003e0: e4b8 9ebe fe74 653d ccf5 3abd a922 3ebc
000003f0: 2a22 273e e225 253e 82d0 90bd b96f da3d
0.07403722 0.17296791 -0.022192508 -0.02483344 -0.39397565 0.00931286 -0.11327136 -0.12277253
0.058137707 0.039223224 -0.10099292 -0.13362773 -0.060093213 -0.111983515 -0.07968073 -0.04982784
-0.16589466 -0.12900364 -0.25603613 0.04498462 -0.21334893 0.109794304 -0.16014159 0.11697931
-0.10825688 -0.020279247 0.08189309 -0.17583154 -0.23517977 -0.11357215 -0.11850242 0.10698028
0.058738258 -0.084092 0.00050739356 -0.05860158 -0.27485678 0.01277535 -0.121385954 -0.12826277
0.03241476 -0.02149999 -0.13045222 -0.041749787 -0.12886043 0.18690771 -0.09483903 0.19829811
0.0074789603 -0.03975467 0.11270894 -0.14812443 0.09921726 0.19617164 0.09944636 0.05278883
-0.020035166 0.095574014 -0.0074209655 -0.0053341007 -0.030804625 -0.023736672 0.052677546 0.008446535
-0.019351782 0.0428878 -0.08177145 -0.13135476 0.04365556 -0.22225559 0.10718 -0.14783473
0.038003746 0.038277738 -0.022178018 0.20897436 0.01968177 0.00717067 -0.010192226 -0.084290326
-0.17282966 0.01125074 -0.0770855 -0.092517726 0.04496582 -0.052449774 0.03283515 -0.25023133
-0.023339123 0.009549362 0.08965329 0.0045431857 0.027683143 -0.01380393 0.09676325 0.110605456
0.15288419 0.040085614 -0.07962384 -0.10661493 -0.055604897 0.21182577 -0.13613328 -0.18341932
0.017916081 -0.08540963 0.09516758 0.012668843 -0.09526089 0.102625564 -0.06335765 0.017831823
-0.03629581 0.08889436 0.10470778 -0.10965846 -0.027490899 -0.0186716 0.018441724 0.111210205
-0.09484363 -0.056949984 -0.1014294 0.072123885 -0.12651011 0.1148825 -0.013619747 -0.0347753
0.11599902 0.12926717 -0.17699632 0.051406544 0.16499719 0.024098027 -0.09794459 0.05032227
0.046997048 0.047516763 -0.12172393 0.051866546 -0.094957106 -0.06530214 0.10398973 -0.16965441
0.011182347 -0.15229945 0.053612817 -0.054337088 -0.12320061 -0.036667388 0.0015078199 0.05950153
-0.010334902 -0.07843314 0.082882464 -0.14353654 -0.034132447 -0.05939737 0.027980179 0.17848215
0.06252926 -0.0607763 -0.041359268 0.06489655 -0.121567175 -0.12717497 0.088751145 0.01615184
0.065970056 0.07461124 -0.014449632 -0.041245475 0.023934359 0.052830312 -0.0697424 0.117022336
-0.0744679 0.02782226 -0.17071526 -0.056505676 -0.19991687 0.11631008 -0.12291686 0.05909347
-0.13707688 0.15487446 -0.08580622 0.23278357 0.15308446 -0.008926668 -0.102459095 0.14218152
0.035974637 0.042895056 0.015936173 0.078161724 -0.038643107 0.0012526091 0.18129463 0.024439141
-0.0019072939 0.062239245 -0.08818925 -0.115324795 -0.065113746 0.11841833 -0.077747345 0.08282206
-0.06892323 -0.06004172 -0.034435797 0.030542715 -0.003912062 0.042545505 0.101486996 0.05757858
0.044161476 -0.052746248 0.17409322 -0.018453822 0.21801047 -0.1177662 -0.12494206 -0.05334997
0.12543444 0.06484148 -0.067727506 -0.14456132 -0.17539875 0.19295509 -0.40416238 0.08598128
0.034180768 0.13419929 -0.08986753 -0.05891317 0.08004307 -0.014927776 0.28016734 0.03392956
-0.06537596 -0.081032544 0.12817039 -0.15248457 -0.09592474 0.1484219 0.07200089 -0.06689634
-0.31000435 0.056019776 -0.045644566 -0.011604943 0.16321626 0.16127732 -0.0707102 0.10665841

network_body._body_endoder.seq_layers.2.bias f4 [128]
00000000: 11f5 1f3b ad23 70bc 4cad c13a 91a3 30bd
00000010: 7ba0 77b9 439f 63bd f1c5 6a3c 0df6 c3bb
00000020: a828 50bc eca2 6fbb f70a 1cbd 4cd6 93bc
00000030: aaa9 10bd 2e9f 103d 10ff 9b3c bfe4 f33c
00000040: b2d5 123c 9dda 35bd a814 5d3c af54 8a3c
00000050: baf7 323d efd8 093d 8a1f 8abc 0485 e93a
00000060: a61a 843c 6d97 e4bc e36a f23c ef07 103c
00000070: ca69 483b 76d9 8fbd 4a17 66bd a660 4b3d
00000080: 7d66 df39 ce57 2ebc 4f06 42bc 3f04 8d3d
00000090: c488 d039 a85e f8bc 2bff 59bc ccfd b93d
000000a0: dd9a 85bc 5760 a9bd 4601 673d 6fb8 893c
000000b0: d116 6abd 55b4 59bc 1486 aebc 4572 55bc
000000c0: 0570 4ebd ca93 643d 9c76 12bd 722a 3a3c
000000d0: 3f7a 70bc 434d 713c 2cc1 9a3c cb51 f0bc
000000e0: 6e27 06bd ca40 06bd 6e04 1c3c e0e4 1e3c
000000f0: 8501 b43d ee02 56bc 1244 d8bc c60f 983c
00000100: 6a69 173d b477 1abd 5bb6 1dbd de73 93bd
00000110: 29ec 5a3c ef51 69bd e382 6e3c 020a 863c
00000120: 2f78 703b a2cf e2bc 0bf8 463c 49cf 09bd
00000130: bd13 19bd a769 61bb a80f 0bbd a8ee a4bc
00000140: 473b 4fb9 511e 94bc 7c0a 683c 0574 03bc
00000150: f6d0 f03c 2b7b 663b 4811 25bd c397 a73c
00000160: 39e3 87bc 54ba 103d cc90 9b3c b538 e8bb
00000170: 5caa 4cbd 92df 0a3d ab8b 07bd a362 07bd
00000180: fb9a 223c 2a76 493c e851 70bd 3db4 e7ba
00000190: 1be3 a03d 6217 d23b 2e3b 7dbc 5ec5 573d
000001a0: 09a6 81bc 21a2 e6bb c338 b13c 6f72 13bd
000001b0: 1a21 7b3d 7d62 163c 951e 23bc b25f 953c
000001c0: 7ede 98bc 1c75 59bc d8e6 64bc 1ab7 003c
000001d0: aea1 d53c e3cf 3e3d 14d1 373d 0bf7 f9bb
000001e0: 608a 783d d3fa 8c3d 460c 1a3b 8052 363d
000001f0: 3b26 3ebd c5bb 12bd 5da8 32bd 2253 a73c
0.0024407546 -0.014656943 0.0014776378 -0.04312474 -0.00023615539 -0.055571806 0.0143294195 -0.0059802593
-0.012705006 -0.0036565615 -0.038096394 -0.01804652 -0.035318054 0.035308056 0.019042522 0.02977216
0.008962082 -0.04439794 0.013493694 0.016886083 0.04369328 0.03365415 -0.016860742 0.0017816131
0.016125988 -0.027904237 0.029591983 0.008790954 0.0030580633 -0.07023899 -0.056174554 0.049652718
0.00042610234 -0.010641051 -0.011842324 0.068855755 0.0003977475 -0.030318573 -0.013305466 0.09081611
-0.016309196 -0.082703285 0.0563977 0.016811578 -0.057150666 -0.013287623 -0.021304168 -0.013027732
-0.0503998 0.055805005 -0.035757646 0.011362659 -0.014677583 0.014727893 0.01889094 -0.029335877
-0.032752447 -0.03277663 0.0095225405 0.009698123 0.08789352 -0.013062222 -0.026399646 0.018562209
0.036965765 -0.037711814 -0.038503986 -0.07199834 0.013361969 -0.056962904 0.014557573 0.016362194
0.0036692729 -0.027686898 0.012144099 -0.03364495 -0.03737234 -0.003439525 -0.033950478 -0.020133331
-0.00019763141 -0.018080862 0.014162656 -0.008023267 0.029396515 0.0035168629 -0.040299684 0.020458108
-0.01658784 0.035333946 0.018989943 -0.007086838 -0.049967155 0.03390462 -0.033092182 -0.03305305
0.009924646 0.012296239 -0.058671862 -0.0017677617 0.07855817 0.006411479 -0.015456004 0.05267846
-0.015826242 -0.0070383702 0.021633511 -0.035997804 0.061310865 0.009178755 -0.009956022 0.018234108
-0.01866078 -0.01327255 -0.013971053 0.007856155 0.026078071 0.046584975 0.044877127 -0.007628327
0.06067884 0.068837784 0.002350585 0.044512272 -0.04642318 -0.035823602 -0.043617595 0.020425383

action_model._discrete_distribution.branches.0.weight f4 [3, 128]
00000000: aa98 6d3c 21d6 a03c b91b 9e3b b82d 50bd
00000010: 99b0 153e 11a8 a339 b32d a93d 3a14 4e3c
00000020: 213e 01bb c85d fdbb 0362 96bc d456 0f3c
00000030: de7f c83a 9615 e5bd 9a83 e03b 1e56 a13d
00000040: 9b23 03bd b7b9 4d3d f4fa e03c f4eb c8bb
00000050: a311 2d3e 0bd6 05bb e239 25bc d9f7 853c
00000060: 0550 c1be e052 a93c 69fb 66bc f383 b03b
00000070: 05ef 1abe 63ba eebb e954 823a 13d6 88bd
00000080: be0f d03b 4cb0 e63c 53a6 5b3d 46b9 85bd
00000090: a6b7 c93c 8ce7 b7bb 47af a3bc 93b9 7e3c
000000a0: 4853 3c3c 9e04 053c 9861 2cbe 2254 d03c
000000b0: f809 b6bc e5fa 163d 441e 9a39 57c3 c8bd
000000c0: c853 30bc 727a 893c 4144 49bd 580c 743c
000000d0: 8a9b c13b d4d7 5a3c 724d 583d a46e ffb9
000000e0: 2ea2 ecbd e220 26be ebed 6d3c 5abc 7ebb
000000f0: ebaa a3bd 087b 8a3c d3c1 25bd 0a89 94bd
00000100: 0df8 113d 4284 633c 44aa e23c a904 26bb
00000110: 64c8 1abe 6ad9 b0ba d1cc b8bc 4903 933c
00000120: 62b0 753b fcc3 073e 46ea 99bb 162d 53bc
00000130: dda8 17bc f925 093c 4495 103d 5706 28bc
00000140: 66fc a63b 1b01 7b3d aefc 2dbc 31d5 b33d
00000150: 3140 b2bc 5809 86bc 5c84 c3bb 0d10 923d
00000160: 6df0 3c3d 6e7d 863d 49ac 39bc 6475 f13c
00000170: 3bd8 e63b 6410 53bd 2d50 f5bc 9187 b33c
00000180: 27dc 323d e314 983c b37a 8f3c 6c26 843c
00000190: 5e43 eab9 e821 2cbd 2009 19bc f9fc 2a3d
000001a0: a3ce 913b 7d65 8abd c88f 66bc 2d86 fb3b
000001b0: d833 b93a 9cc1 1cbd a468 4e3c ea38 0c3d
000001c0: 7906 923b 215b 0dbc bcc8 c13c c21a eb39
000001d0: 7553 61bc 9c55 773a 59c9 963b b97a 3f3d
000001e0: 1e7b ae3b aad7 02be c5b8 35bb 4dff b63b
000001f0: c3bd 49bc 9f62 5b3c c6d1 49bd 54d6 733c
00000200: db58 2b3b e3fd 1b3b 5d4c 683c 6437 ce3d
00000210: 7088 8ebd 8449 b3bc ad7a 4bbd 6253 823c
00000220: f7fc e2bc e239 173d 26aa 46bc 2800 063c
00000230: 9a02 90bc e678 16bc 5aa1 b23c 475d 53bd
00000240: e6c8 6a3d 342d 64bd a17d 84bd c606 b93d
00000250: 5ea6 95be a5f3 b73c 3541 923b 2cb9 0a3b
00000260: ef83 583e 5a3e bdbc 2a17 9c3c ccaa 7839
00000270: 66fe ea3d 96ee ffbd 49ba a6bd 0bf6 963d
00000280: e433 c0ba f38f 093d 45f1 e4ba 0a76 c63e
00000290: 8414 d0bd 15eb 59bc 403c b23b c27e 313d
000002a0: 972f 27bc 9159 06be f4c4 283e 00d6 d33c
000002b0: 4cb0 bfbd 0db2 37bd 1268 12bc ca99 18bd
000002c0: d0db 10bd e4eb 603c f684 febd 453a d6bc
000002d0: 8c73 02bc 2866 5c3d 8a00 ec3d 3c39 1e3c
000002e0: 1171 aa3d cd89 c33d 856b 223c 4067 9bbc
000002f0: 672f 013e e95a 80bb 7e72 6abd ac85 bf3e
00000300: 0e02 733c 2a8c 7b3c 007d 06be cf4f 9939
00000310: 3683 b7bc c5a6 a0bd cb33 da3c e540 a3bd
00000320: 7368 7b3b d416 a4bd bbb0 2fbd 9511 473c
00000330: 8e1f 20bc 084a 003b 1ba6 643b e71f a0bc
00000340: 584c e1bb 5e16 73bc b16a 1d3d 42df d5bb
00000350: c186 a23d 0e95 c93d c934 913c 402e c43b
00000360: 5c8c 82bd 54c9 cfbd c47d 02bd c18b 8dbc
00000370: 0db4 07be 6240 8abd 566f 0d3c 32e1 87bc
00000380: 59f8 5dbd 36b0 a83b 46d0 2c3d 12c0 033b
00000390: 3a04 d43c ac45 2e3d 2a3c 8d3c 7ff8 1a3d
000003a0: ec46 a6bc c3f0 f03c 8c6e 18bd 3dac d8bd
000003b0: 06c4 4d3d 77ec c9bc 33bd 703c 119b 31bd
000003c0: e053 083b 16c6 b0bb 0ec2 30bd 2779 ee3b
000003d0: f757 2a3b dabc 693c 8236 d13c e38e 10bd
000003e0: e0b9 a03c bdc4 9a3e 6a80 a7bb d1ca 98bd
000003f0: 5806 acbd 7953 79bb c36c 443c 8dfe 743d
0.01450173 0.019633355 0.004825082 -0.05082485 0.14618148 0.00031215002 0.082606696 0.012578065
-0.001972087 -0.007732127 -0.018357283 0.008748729 0.0015296896 -0.11185758 0.0068516256 0.07877754
-0.032016378 0.05022594 0.027463414 -0.0061316434 0.16901259 -0.002042177 -0.010084601 0.016353535
-0.37756363 0.0206694 -0.014098027 0.0053868233 -0.15130241 -0.0072854026 0.0009943518 -0.066814564
0.006349533 0.028160237 0.053625416 -0.06529479 0.024623703 -0.0056123193 -0.01998104 0.015547174
0.011494465 0.008118777 -0.16834104 0.025430743 -0.02222155 0.036860365 0.0002939572 -0.09802883
-0.0107621625 0.01678202 -0.049137358 0.014895521 0.0059084343 0.0133571215 0.052808233 -0.00048719824
-0.11554371 -0.16223481 0.014522056 -0.003886959 -0.079915844 0.016904369 -0.04046805 -0.072527006
0.03563695 0.013886513 0.02766908 -0.0025332368 -0.15115505 -0.0013492529 -0.022558602 0.017945902
0.0037489166 0.13258356 -0.004697117 -0.012889167 -0.009256569 0.00837087 0.0352986 -0.010255418
0.005096006 0.06128035 -0.010619326 0.087808974 -0.021759124 -0.016361877 -0.005966706 0.07131968
0.046127725 0.065668926 -0.01133258 0.029474922 0.0070448196 -0.051529303 -0.029945457 0.021915229
0.043666985 0.018564647 0.017514562 0.016131602 -0.0004468215 -0.042024523 -0.0093405545 0.04174516
0.004449682 -0.067576386 -0.014072366 0.007675907 0.001412983 -0.038270578 0.01259819 0.034233965
0.004456338 -0.008627684 0.023655288 0.0004484263 -0.013752808 0.0009435059 0.004601639 0.046747897
0.0053247353 -0.12777582 -0.002772854 0.0055846334 -0.012313309 0.013390212 -0.04927232 0.014882643
0.0026145491 0.0023802451 0.014178363 0.10069159 -0.06959617 -0.02188564 -0.04967754 0.0159089
-0.027708514 0.036920436 -0.0121255275 0.008178748 -0.017579366 -0.009184098 0.021805454 -0.051602628
0.057320498 -0.05570717 -0.06469274 0.09034495 -0.2922849 0.022455046 0.0044633397 0.00211675
0.21144079 -0.02310102 0.019054014 0.0002371475 0.11474304 -0.124966785 -0.08141 0.07371148
-0.0014663902 0.033584546 -0.0017466923 0.38761932 -0.10160163 -0.013300677 0.0054393113 0.043333776
-0.010204217 -0.13120104 0.16481382 0.02585888 -0.09359798 -0.044847537 -0.008935945 -0.03725604
-0.03536588 0.013728116 -0.12427704 -0.026150832 -0.007962119 0.05380836 0.1152354 0.0096572
0.08322347 0.09547768 0.00991333 -0.018970132 0.12615739 -0.0039170873 -0.057238095 0.3740667
0.014832033 0.015353242 -0.13133621 0.00029241896 -0.022401433 -0.07844309 0.026636025 -0.07971362
0.0038361817 -0.080121666 -0.042893153 0.012150188 -0.009773148 0.0019575376 0.0034889046 -0.019546462
-0.006875556 -0.014836876 0.038431827 -0.0065268585 0.079358585 0.09842883 0.017725365 0.0059869587
-0.06374428 -0.10145822 -0.03185822 -0.017278554 -0.13252278 -0.06750561 0.008632502 -0.016586874
-0.05419192 0.005147959 0.042190813 0.0020103496 0.025880922 0.042546913 0.017240603 0.03783464
-0.02029749 0.02941168 -0.0372148 -0.10579727 0.05023577 -0.024648888 0.014693546 -0.043360773
0.0020801947 -0.0053947074 -0.043153815 0.007277626 0.0025992373 0.014266217 0.025538687 -0.035292517
0.019619882 0.30228224 -0.0051117437 -0.07460559 -0.083996475 -0.0038044138 0.011988821 0.05981307

action_model._discrete_distribution.branches.0.bias f4 [3]
00000000: 4344 a1bc d758 473d d9b8 59bd
-0.01968587 0.04866871 -0.0531548

action_model._discrete_distribution.branches.1.weight f4 [2, 128]
00000000: 1c55 86bd 1670 8638 a76b 48bc 5497 31bc
00000010: 6e45 543d 9bbb b0bb 8a87 b83d eebf 8bba
00000020: 47ad 5bba 84fc 37bc f07a a2bb 528e 1cbb
00000030: 532b 243a e733 773e cda4 1f3c e5c8 f13c
00000040: a7a9 dc3c 2931 3d3e 61ee 863c e2c5 c43c
00000050: 6fa3 833e 300c 893b 0bc1 2dbc 58b5 b4bb
00000060: 0133 0fbd ab52 02be eb18 35bb 4487 20bc
00000070: 7fa5 f6bc e981 cd3c f4d6 713c 0ecd b3bc
00000080: 00e3 993d 8429 5d3a 84fe e53c e20f afbc
00000090: cdfe a23d 9d1a 22bc aa6c 21bd 6ce1 8d3b
000000a0: 2991 54bd bfb8 063d d6a9 f2bc 3b58 88bb
000000b0: 3e43 833c 8fae 67bc dcff 453c c897 a33d
000000c0: ac3f 0abc 3df7 943b c9c6 35bd 3ea0 b93c
000000d0: 7384 f83b 0055 c73c a435 f1bc 6529 12bc
000000e0: 043f a13b 37b5 513c d271 973c 54c5 5ebd
000000f0: 5f5d 10bc 41f2 1cbc 7c11 62bc ef9b 50bc
00000100: 96ee 6a3d 519c 1a3d 7e70 e93d e782 e43d
00000110: 69cb 17be 5382 bc3b bf57 143c 9952 25bc
00000120: cc1e 95ba 2dd6 5fbd 961a cbbc 672d a1bb
00000130: 907c f3bc e4f4 4f3c d9a7 f1bc 9f84 01bb
00000140: 1d11 673b 6fac 443c a790 d13a 1075 413c
00000150: 019e 983a 8c6d f3ba 4ab5 72bc 3127 553b
00000160: a74b fdba 0836 33ba 48b5 acbb 941c 84bc
00000170: 4886 b93b d9ce 25bc 33f0 8cbc c865 21bc
00000180: dd55 dc3b f4ee a33c 1927 f2bc c1ab 0f3c
00000190: 3095 5fbc 6fdb 1eba bd2c a2bc 4d5c db3d
000001a0: ead8 14bc d7c2 253e 94a5 cf3d 2abb 833b
000001b0: 02f5 85bb 35ef 89bb b22b 1cbb 69e2 5ebc
000001c0: 0150 e1bb 5ecf 9a3c 6e52 92bd c51c bcbb
000001d0: 5e9b 7fbc 0e32 f5bb 42c0 953b e1f7 453c
000001e0: 58a1 3bbd fc2b c9bd cc37 c0bb c84f 483c
000001f0: e754 80bc 24da 09bb 90bc 33be 6347 ecbb
00000200: 0f9d 343d b2d7 e73b bfb7 cf3a 8390 0a3c
00000210: 2ccf 7ebd fca3 dd3b 78cc b9bd 82b2 96bb
00000220: 46d9 30bb d643 1b3c 4903 483c 127e 433c
00000230: 3bad f53b d80b 78be 45c4 3a3b e381 e4bc
00000240: a1d6 00bd 1c55 4abe 1771 4bbc 88a5 2bbd
00000250: c555 81be 04cf 293c 53a5 833c 8105 073b
00000260: d3c0 a33c fce9 053e d5f0 19bb dc2f 49bb
00000270: dbb3 f03c f0f0 9dbc b61f 0dbd 2b52 f33c
00000280: edb5 a6bd 447f 10b9 d797 eebc f04d e83c
00000290: 1e47 8dbd 3a5e 3ebb e4ff 183d 122d a839
000002a0: 1cc0 453d 97ae c0bc 166f 973c 058d bebb
000002b0: 8bca 1a3c 56b6 053c cd88 603c dfde a0bd
000002c0: 6451 da3c ad19 e63b cce3 4f3d 0fd5 6ebc
000002d0: 915a 65bc e654 3abb b132 ab3c 1357 43bb
000002e0: 8377 453b 4eb5 d9bc 170d f5bc 1b30 5a3d
000002f0: 1c81 813c 9b75 e2bb 79bf 613c 12cd c6bb
00000300: e32e 1fbd 9728 8abc c501 eebd 97ae f1bd
00000310: 0c5d 2a3e f866 b2bb ec34 32bc 3e28 0d3c
00000320: 1174 8abb 3c2e 6d3d 007e e6b9 0226 7f3c
00000330: c8ef 043d c112 64ba 80cd f43a 14ea 1c3c
00000340: 665b d73b 9615 d4bc 8ee7 09bc 0bef 1fbc
00000350: 3ad3 1f3b 0891 683c 7cc1 513c 9957 f8bb
00000360: 4cef b339 2f64 a73b 6384 343c dd27 85b9
00000370: 7024 403c a75e 47bc 32f4 783c c864 0e3c
00000380: 2eeb e5bb 79fa d6bb f3a6 093d 46c1 1bbb
00000390: ffd0 883b f766 1c3a 348a fc3c 7995 d5bd
000003a0: e654 5d3a 25dc 2fbe b667 e1bd 5c12 b0bc
000003b0: d7fe e73b 1bca 203c 5e14 66bc 13ff 82bb
000003c0: 46cb dd3b 580b a7bc 9db1 8a3d b49f 0f3c
000003d0: 8fb5 553a e59f 34bc 68f8 0bbc 9cf0 0bbd
000003e0: 367a 513d b127 ea3d 90a2 0abc d435 dbbb
000003f0: 0dbb d23c f7c5 3abb db0a 363e f5d3 eb3a
-0.06559202 6.4104956e-05 -0.012232698 -0.010839302 0.051824026 -0.005393458 0.09010227 -0.0010662058
-0.00083800073 -0.011229638 -0.004958503 -0.002388854 0.00062625593 0.24140893 0.009743881 0.02951474
0.026936365 0.18475784 0.01647109 0.02402014 0.25710627 0.004182361 -0.010605107 -0.005514782
-0.03496075 -0.12726848 -0.002763326 -0.009797875 -0.030108212 0.02508636 0.0147607215 -0.021948364
0.07514 0.0008436667 0.028075464 -0.021369878 0.07958756 -0.00989404 -0.03941027 0.004329851
-0.051896248 0.03289103 -0.029622 -0.0041609085 0.016023275 -0.014140739 0.012084927 0.07987934
-0.008438032 0.0045460747 -0.04437903 0.022659417 0.0075841486 0.024332523 -0.029444523 -0.008921002
0.004920842 0.012799553 0.018486891 -0.054387406 -0.008811324 -0.009579242 -0.013798114 -0.01273249
0.05735644 0.03774673 0.11398409 0.1115778 -0.14823689 0.0057528405 0.009054123 -0.010090494
-0.0011376976 -0.054647613 -0.02479295 -0.0049187425 -0.029722482 0.012692664 -0.029498981 -0.0019762886
0.0035258003 0.012004002 0.0015988544 0.011807695 0.0011643769 -0.0018572076 -0.0148137305 0.003252458
-0.0019324914 -0.00068363594 -0.005270634 -0.016126908 0.0056617595 -0.010120117 -0.01720438 -0.009850927
0.006724103 0.020011403 -0.029559659 0.008768977 -0.013646409 -0.000605992 -0.019796723 0.10710964
-0.0090849195 0.16187607 0.101390034 0.0040201144 -0.004088045 -0.004209424 -0.0023829755 -0.013603785
-0.0068759923 0.018897709 -0.071446285 -0.0057407343 -0.015601007 -0.0074827736 0.004570038 0.012083025
-0.045808166 -0.098228425 -0.0058660265 0.012226053 -0.015665485 -0.0021034563 -0.175524 -0.0072106584
0.044095095 0.0070752734 0.0015847607 0.008457306 -0.062209293 0.006763933 -0.090722024 -0.0045989165
-0.0026984974 0.009476623 0.0122078145 0.011931913 0.0074974573 -0.24223268 0.0028498333 -0.027893966
-0.031454686 -0.19759029 -0.012417099 -0.04190591 -0.2526075 0.010364298 0.016070044 0.0020602646
0.019989407 0.13077539 -0.0023489494 -0.0030698692 0.029382637 -0.019279927 -0.03445407 0.029702267
-0.08140168 -0.0001378032 -0.029125137 0.028357476 -0.0689833 -0.0029047863 0.03735341 0.00032077037
0.048278913 -0.02352075 0.018485587 -0.0058151507 0.009447704 0.008161148 0.013704491 -0.07855009
0.026650138 0.0070221038 0.050754353 -0.014577164 -0.0139986435 -0.002843195 0.020898195 -0.002980654
0.003013105 -0.02657571 -0.029913468 0.053268533 0.015808634 -0.0069109923 0.013778561 -0.0060669268
-0.038863074 -0.016865058 -0.11621431 -0.118008785 0.16637057 -0.0054444037 -0.010876875 0.0086155515
-0.004225262 0.05790542 -0.00043962896 0.015573027 0.032455236 -0.00087003043 0.0018676966 0.009577293
0.006572175 -0.0258892 -0.008417023 -0.009761582 0.0024387375 0.014194734 0.012802478 -0.007578802
0.0003431983 0.0051083784 0.011017892 -0.00025397437 0.011727437 -0.012168563 0.015194939 0.00869102
-0.007016561 -0.0065606204 0.03360648 -0.0023766323 0.004175305 0.00059662707 0.03082762 -0.104289
0.0008443132 -0.17173822 -0.110061094 -0.02149313 0.00707994 0.009813811 -0.014042942 -0.0039976924
0.006768617 -0.020391151 0.06772158 0.008766104 0.00081523595 -0.01102445 -0.008543111 -0.03416501
0.05114194 0.11433352 -0.0084616095 -0.0066897664 0.025723958 -0.0028499344 0.17777579 0.0017992245

action_model._discrete_distribution.branches.1.bias f4 [2]
00000000: db61 d9b9 96d4 da39
-0.00041462373 0.0004173859

q1_network.network_body._body_endoder.seq_layers.0.weight f4 [128, 6]
00000000: bd62 1ebd ea30 4fbd b872 0abe 6006 b83d
00000010: 8da0 bebe 6907 953d e88d c9bd c95d 79be
00000020: 951e 5bbe 3a9e 633e 9107 82bd f251 07bf
00000030: 1bf8 213f 3af8 76be 04d4 31bf fa64 dd3c
00000040: 9557 70be 02a7 17bc d945 3fbe d9de f33e
00000050: afa2 72be 741f 133d 2eda efbe e75f 24bf
00000060: 95a8 833e 5279 113f e106 ddbe 613b 433e
00000070: 89b6 dd3e 4957 0bbd a463 b33e d4f8 423e
00000080: 6324 303f 8338 7bbe 464d 4abe fee5 5abe
00000090: d6c6 0f3f 3508 f5be 2ccc e53e c386 a1be
000000a0: 00c2 153d 470c 4e3e 0e1e 2e3e 6371 f73d
000000b0: 2ed2 a23e bb9f 983e 24aa 293f a8e5 efbe
000000c0: a28b a8be a35f da3e b131 3f3e 4b27 a13d
000000d0: c8b8 31bf 211e 153e 5558 29bf a9a7 883e
000000e0: 9d78 45be be53 be3d 8f7e 35bf ca56 4fbf
000000f0: 4b43 97bd 96e6 90be 9d81 2ebd d97f f03e
00000100: a685 05be 2a1f c93e 13e0 8bbe aed2 1f3e
00000110: bb54 493f be4d cdbe ff66 8dbe dfdc ccba
00000120: 9b9f d9be 9433 903d 4774 2fbe 8b89 92bf
00000130: cc83 91be d10f 853e bdbb b33e fd46 5e3e
00000140: ab98 af3e 6180 ab3c a041 233e 80ef 3abf
00000150: d2ea 74be 2d4b 13bf 7497 b33e 953d cfbd
00000160: bbd4 f7bd 2640 94be 0f88 653d 3bc4 bb3d
00000170: 629a 52be afe7 76be 744a 7a3d 2431 19bf
00000180: 3ee1 b63e d747 193f 39d8 bf3d 57af 2ebf
00000190: 09cc a43d 6118 c0be dc17 b63e 7654 483f
000001a0: c78c e83e b25d eb3e 79ec 32bf aa52 2fbf
000001b0: e10d cc3e 2c4d 84be 0dbb 193e dee2 eebe
000001c0: a5ce 34bf 9226 a93e 8b23 cdbe bc63 f43e
000001d0: 440f dd3d b41f 97bf 1eae f8be ef6c a73e
000001e0: 4d2f eebd 40e5 9abe a10d 733d 58c9 ce3c
000001f0: 84b4 98be a99c 94bd ff58 d8be 6135 ad3e
00000200: d83f 083c 07b0 7e3e 8f0b 0cbe e2b8 7ebf
00000210: b1b5 ddbd 8781 313f 1d4f 86bd aad0 36bf
00000220: 9499 963e 9122 6ebf c003 933e 7257 efbe
00000230: 4903 d43e 87b8 783d 4ebf 0bbe 8e5e 28be
00000240: 4c7c 5fbf 1b4b ddbd 8462 17bf fbca a2be
00000250: b30c acbf 3c1c 9b3e e8c2 013e 03b9 b93d
00000260: 1f14 3ebe d6b5 51bf c00a 8c3e 969d e53e
00000270: f89f 3f3f f7f2 e7bc bbf3 8b3d cb00 cf3e
00000280: 2e11 2a3f e3c1 5ebf 095e 55bf 6a8f d1be
00000290: 5b9c 7ebb d2c3 423e 40fd 593e cbbe 7a3e
000002a0: babd b7be 15c6 55bf 248d c73e 0efd 3c3d
000002b0: 2909 d7be 309d fcbd 0b7d 143e b627 abbe
000002c0: 856e 0e3f 3aad 27be 9ece e1be 8e1e 8abe
000002d0: 65bc f9bc 21e2 30be e619 6dbf 23cf c4bd
000002e0: 6b0d f23d 78b2 403f 6309 783e 3433 e6be
000002f0: 81cd 083e ee75 ad3e af40 23bf 83fb d1be
00000300: 7e9a 95bd 3ad1 03bd 8fca 02bd 386e aebe
00000310: 7441 85bd 5ea2 cd3e 1885 3bbd 8594 86bd
00000320: a73c e93d b663 303e 2467 33bf ae10 41be
00000330: b261 3f3e 12c5 cd3d d0ac 10be 69cd 0abf
00000340: a9d0 2a3e 07de 47bf 59ee 2abe a46b d93e
00000350: 1547 99bd 9f95 333f bbf3 073f ae7e ecbe
00000360: 04a9 fbbe 8a33 87be 4e61 3dbf 4c3a 5ebe
00000370: 0e42 1cbf 46f2 48bb 95df 89be 6618 53be
00000380: 6b83 59be 6dd9 8e3d 4881 bb3c 3358 06bf
00000390: a404 4fbe 5d25 7a3e be56 073f e379 54be
000003a0: 3645 84bf 209b 393e 3812 97bd 7a62 d83d
000003b0: d954 eebe 4494 c13e fe4e 453e 2694 44be
000003c0: 39a4 023f 2d28 093d 769f 793f 52e8 fe3e
000003d0: 9680 74be 7d94 09bf ee6d 3c3f 2ef1 173e
000003e0: ca02 c13e 1bce a9be e4aa bfbe f626 353f
000003f0: 0162 a3be ba5f dcbe e83e 0ebe 1623 80bf
-0.038668383 -0.050583757 -0.13520324 0.08985591 -0.37231866 0.07276804 -0.098415196 -0.24352182
-0.21398385 0.22228327 -0.063490994 -0.52859414 0.63269204 -0.24118128 -0.69464135 0.027025688
-0.2347091 -0.009256126 -0.18678989 0.47630957 -0.23694871 0.035918668 -0.46846145 -0.64208835
0.25714555 0.56825745 -0.4316931 0.1906562 0.43303326 -0.03401879 0.35036957 0.19040233
0.6880552 -0.24533276 -0.1975604 -0.21376798 0.56162775 -0.47857824 0.44882333 -0.31548128
0.036561966 0.20121871 0.17003652 0.12082174 0.3180098 0.29809365 0.6627524 -0.468549
-0.3291903 0.4265109 0.186713 0.07868823 -0.6942258 0.14562275 -0.6615041 0.26690415
-0.19284292 0.09293316 -0.7089624 -0.80991805 -0.07385882 -0.28300923 -0.042604078 0.4697254
-0.13039264 0.3928159 -0.27319393 0.15607712 0.78644913 -0.40098375 -0.27617642 -0.001562979
-0.42504582 0.07041088 -0.171342 -1.1448225 -0.28420866 0.2598863 0.3510417 0.21706767
0.34296164 0.02093524 0.15943003 -0.730217 -0.23917702 -0.57536584 0.35076487 -0.10119168
-0.12101122 -0.2895519 0.05603796 0.09168287 -0.20566705 -0.24111818 0.06110616 -0.5984061
0.3571872 0.59875244 0.09367413 -0.682363 0.08046729 -0.375186 0.35565078 0.7825388
0.45419905 0.4596992 -0.6989208 -0.6848551 0.3985434 -0.25840127 0.1501276 -0.4665746
-0.70627815 0.3303724 -0.4006618 0.4773234 0.10793927 -1.180655 -0.4857034 0.32700297
-0.11630116 -0.3025303 0.05933917 0.025242493 -0.29825222 -0.07256443 -0.422554 0.33829787
0.008316003 0.24871837 -0.13676284 -0.9950086 -0.108256705 0.6933827 -0.065580584 -0.71412146
0.29414046 -0.93021494 0.287138 -0.46746403 0.41408756 0.060722854 -0.13647196 -0.1644232
-0.87299037 -0.10805341 -0.591347 -0.31795487 -1.3441375 0.3029498 0.12672007 0.09068491
-0.18562363 -0.81918085 0.27351952 0.4484679 0.7485347 -0.028314097 0.06833597 0.40430292
0.66432464 -0.870146 -0.8334661 -0.4092973 -0.003885052 0.19020012 0.21288013 0.24486844
-0.35886937 -0.83505374 0.3897487 0.04613977 -0.41999176 -0.12334669 0.14500825 -0.33428735
0.5563739 -0.16374674 -0.4410295 -0.26976436 -0.030485341 -0.17273761 -0.9261764 -0.09609821
0.118189655 0.7527232 0.24222331 -0.4496094 0.13359644 0.33879036 -0.63770574 -0.410122
-0.07304858 -0.032181956 -0.031931456 -0.34068465 -0.06506625 0.4016294 -0.045781225 -0.065712966
0.11388522 0.17225537 -0.70079255 -0.18854019 0.18689612 0.10047354 -0.14128423 -0.5421968
0.1668116 -0.7807316 -0.16692485 0.42464936 -0.07484261 0.7015018 0.5310628 -0.461904
-0.49152386 -0.2640651 -0.739766 -0.21701926 -0.6103829 -0.0030661984 -0.26928392 -0.20614776
-0.21241538 0.069750644 0.022888795 -0.5247833 -0.20216614 0.24428315 0.52866733 -0.20749621
-1.0333622 0.18125582 -0.07376522 0.10565658 -0.4654911 0.3780843 0.19268414 -0.19197139
0.51031834 0.03348558 0.97508943 0.4978662 -0.23877177 -0.537422 0.7360524 0.14838096
0.3769744 -0.33165058 -0.37435067 0.70762575 -0.3191071 -0.43041784 -0.13891184 -1.0010707

q1_network.network_body._body_endoder.seq_layers.0.bias f4 [128]
00000000: f51a 7b3d cefc f33d 717b ba3d 4c14 7dbc
00000010: 0279 ffbb 8717 54bb dc3a 373e 085b 5b3b
00000020: 0e5e 27bc a995 3ebc 8fa0 2cbc 868a aebc
00000030: 55ef d4bb 11ca 3a3c 387a 563d 8d0a 59bd
00000040: 5942 63bc 10bd 983b 4bcd 973d e9c4 45bc
00000050: 4611 2d3d 61a3 98bb 7ffa 69bc 413a 183e
00000060: 6083 d8bc 3222 cc3d 0fc9 2cbd f307 aa3c
00000070: c123 bd3d 4dd8 f23b ab1b a33e e009 af3c
00000080: e949 90bc 0328 18bc 6e3f 073e 5fae b2bb
00000090: ae2a 8cbc 0778 19bc c965 1ebc df8b b4bc
000000a0: cf21 e6bc 85fb 2bbb 1c0c 9d3c cb9f a93d
000000b0: d3f4 f9bb 5399 93bd 1074 83bc 0a6d 973d
000000c0: 04c1 5abc aa97 e2bb f0bb fcb8 300d 7cbb
000000d0: 1770 93bc f031 45bc 4430 8cbb bc85 ec3b
000000e0: 912d 813d 9124 873d 7348 2a3b bcf7 463d
000000f0: a4c6 ba3c 986f 083e cdcf cf3d 092b 26bd
00000100: 9803 4a3c c475 cc3b 80f7 2abb 2497 9d3e
00000110: a8a5 de3c 1bf7 2cbd 6819 38bb 4193 3ebc
00000120: b60e 55bd ae02 aabc 49ab 273d b135 8bbd
00000130: 65ad 7ebd 23d5 813e 30e5 4c3c 1c00 afbb
00000140: 8564 863c 5d40 133d c575 06bc 2188 803e
00000150: 2967 bbbc a7db 2239 bd22 0e3c 9b09 d7bc
00000160: c8e0 82bc b13a a23d 56da 9bbc 14e7 033d
00000170: d9e4 cfbc 7c07 35bd 1585 e63c f891 91bb
00000180: 2551 293e ee5d 02bc ffba 723d 7380 593c
00000190: 9942 59bd 671e 03bd 76fb 5cbc 4b77 ce3b
000001a0: e034 c73b faa2 c63b 52b6 e43c 5129 07bd
000001b0: 1590 8a3b a6af 893a 3716 15bb 1a00 81ba
000001c0: 490a af3c 5f14 593d 7969 b8bc bb80 223b
000001d0: 353d 22bc 257b 42bc c6d5 aa3b e2be 8cbc
000001e0: 20b3 a53d cdfe c3bb 77b9 b1bb dbe3 363b
000001f0: 089e 8b39 e973 083e 6937 d7bc 6830 0ebc
0.061305005 0.11913453 0.09105576 -0.015446734 -0.0077964077 -0.0032362656 0.17893547 0.0033471007
-0.0102152955 -0.011632361 -0.010536327 -0.021306287 -0.006498257 0.011400715 0.05236265 -0.052988578
-0.013870799 0.00466121 0.074122034 -0.012070873 0.0422528 -0.004658148 -0.014280914 0.14865972
-0.026429832 0.0996746 -0.042183932 0.020755744 0.09235335 0.007411039 0.31857046 0.021367013
-0.017613368 -0.009286883 0.1320779 -0.0054529156 -0.017110195 -0.009366996 -0.009667822 -0.022039352
-0.028092293 -0.0026242447 0.019170813 0.08282431 -0.0076280623 -0.07206979 -0.016046554 0.073938444
-0.013351683 -0.0069150524 -0.000120513025 -0.0038460009 -0.017997785 -0.012035832 -0.0042782146 0.007218091
0.06307519 0.06598771 0.0025983125 0.0485761 0.022799797 0.1332382 0.10147057 -0.040568385
0.012329958 0.0062396247 -0.0026087463 0.30779374 0.0271786 -0.042227846 -0.0028091315 -0.011631788
-0.052015983 -0.02075323 0.040934835 -0.0679735 -0.06217708 0.25357923 0.012505814 -0.005340589
0.016405353 0.035950053 -0.008206789 0.25103858 -0.022876339 0.00015531351 0.008675274 -0.026249697
-0.015976325 0.07921351 -0.01902501 0.032202795 -0.025377678 -0.04419659 0.02813963 -0.0044424497
0.1653486 -0.007956965 0.059260365 0.013275254 -0.053042028 -0.032011416 -0.013487687 0.006300842
0.0060793012 0.006061909 0.027918968 -0.032998387 0.0042286017 0.0010504618 -0.0022748837 -0.0009841949
0.021367209 0.052997943 -0.02251123 0.0024795968 -0.009902288 -0.01187018 0.005213472 -0.017180864
0.08090806 -0.0059813024 -0.0054237205 0.0027906809 0.00026629888 0.13325466 -0.026271539 -0.008678533

q1_network.network_body._body_endoder.seq_layers.2.weight f4 [128, 128]
00000000: b7f9 27bd 4654 173e 3845 873d 19c1 d03b
00000010: a8e1 6d3d a904 3cbb f30b 56bd 80da 6ebd
00000020: 9617 803e 6359 543d 81da af3b daf0 9e3b
00000030: df45 14bd 4897 3fbc ec96 523d a9e1 0d3d
00000040: 00a5 4a3d 029a 033e 3790 1bbe ab9f a1bb
00000050: 8fe8 0c3e e00a 863c b0be ce3d 4369 913e
00000060: e83b 0a3e 54a9 56be 8886 083c bbe3 aa3d
00000070: 9552 8c3d 65db a6bc 6d94 813e 09e2 62bd
00000080: bce5 2a3d 7507 c33d db26 82bd b04a 0cbc
00000090: 211f bdbc 94a9 bfbd e11d 50bd d3bb 40bd
000000a0: f2fd 82bd 9821 443d 05ce 6b3c a463 cfbc
000000b0: cc7d bfbd 00cc 81bd 5964 1abd ed25 29be
000000c0: b7af ca3d 8dad 87bd 1cbc c4bd 7af5 88bd
000000d0: 450d 81bd e523 713d 0dd1 223e 4f03 67be
000000e0: 957b 4dbe 72c8 ad3d d9b9 9f3d 82b3 80bd
000000f0: 8c8e 063e 8104 36be 9d80 52b9 46b9 57be
00000100: bc00 26bd 7a71 b5bd a460 b13d e53b bcbc
00000110: 9d46 293d 2c66 00bd 49ce dbbd 5d06 13be
00000120: 4230 aabd 36dc e5bd 2d18 b4bd d68e c6bd
00000130: 00d0 57bd 91d1 af3c 67a6 90bc a8e8 b1bd
00000140: 8989 353b 422e 4b3d 7365 e53d e8c3 863c
00000150: 0e92 bb3c 0c68 df3d 184b 903d c5a4 c4b8
00000160: 577c 963d d02a 0e3d 9d2c b4bc 77f3 7bbc
00000170: 2322 afbc 4b81 fabd f533 65be bdc9 3e3e
00000180: a507 8dbd 7672 62bc 9c15 7a3d a43c 19be
00000190: 2582 0d3c f730 27bd 160f 11be 1c51 293e
000001a0: e914 a73c 045f 45be 0a21 033e fa9a 86be
000001b0: b390 0b3e 937c 97bd 911c 353e ebe6 883d
000001c0: 14f2 ef3d dc45 80bd afeb 033e 2a96 e0bc
000001d0: ce87 083d b4e3 4e3e 7ec4 af3d 5ddd 56bd
000001e0: 534e 2cbb 2413 7fbd 7c90 913d d6e0 48bd
000001f0: 7b33 3fbd 6e15 4cbd 4b12 3bbd 1586 5f3e
00000200: bdc1 e2bd 2367 823b 923c b83d 4e55 4bbd
00000210: afd7 dc3d 07ca 9abc f597 bcbc e7d5 df3d
00000220: d95c 9ebd 7d8f 83bc 3710 9dbc f571 e1bc
00000230: 9ee8 113d e85b f6bd f9cc e33d be10 c7bd
00000240: f195 903b 5ec4 37be a18a 893d 7bfd e5bd
00000250: cc44 133e ee95 ecbd 79d3 6fbd 54e0 983d
00000260: 87b7 2b3e 85c1 9cbc 6714 143e 5c76 6cbe
00000270: 55cf 1bbd 9d40 28bd 4c47 213d 0739 91bd
00000280: bc79 a03d c682 c4bd 2005 91bd d3ee 2e3d
00000290: 16ec 363c cde3 a3bd e0c2 b6bc 0bb4 863b
000002a0: 2961 8ebd a8f8 c33d b04c da3d 786a 6dbd
000002b0: 79d3 8ebd 3c04 2d3d ee4b 75be 29b4 5e3d
000002c0: 160d 28be a0b7 063e 67e0 6abd 4ac0 fb3c
000002d0: b854 a8bd 411c 8dbc 5079 58bb 1d31 94bd
000002e0: 7f31 413e 5721 f23d ccb4 17be b0ef 8b3d
000002f0: bbb1 2bbe d246 e4bb 0f8f 103e 2e08 4abd
00000300: 6c40 18bd a6ae 61bd 87b7 a53d 76a5 c4bd
00000310: c28d 533e 407f bf3d add7 4abd 2be3 2d3d
00000320: f4d6 37bd fc68 88bd cfe6 f63d a8eb db3c
00000330: ff02 a5bd a698 573e 7116 e3bc a403 0f3e
00000340: 1f0c 73bc 24b9 48be c87e 27be 232e 9b3d
00000350: ab55 653c b657 d43c dcbb 233c 5051 2cbe
00000360: 00d4 1d3d bcf9 0c3d f825 86bd 6da7 5fbd
00000370: b282 e6bd 737f 893a 4147 40bd 4ad6 cabb
00000380: 1977 e13c cd39 f8bc ab7e 11be 1be1 fbbd
00000390: ee3c b73d 930c 6ebd 518d ef3d f07e 20bc
000003a0: 3e29 9dbd 6d79 c5bd 3b08 82be 3b45 a6bd
000003b0: 96ce f43b 8694 163d af0e 373e 3444 d5bb
000003c0: ca2a 90bd 6e6e a6bc 22a3 64bd af7a b3bd
000003d0: 2274 9fbc 715f 9fbd fcd8 bdbc c770 46bd
000003e0: 90bb 5a3d 0008 3a3c 521b 95bd b7f7 0bbe
000003f0: 3a8f ae3d 05f8 61bd 8393 44be 39c7 9d3d
-0.04100963 0.14778242 0.06604999 0.0063706753 0.05807653 -0.00286893 -0.05225749 -0.058313847
0.25017995 0.05184306 0.005366624 0.004850489 -0.036199447 -0.011693783 0.05141346 0.034639034
0.049473763 0.12851718 -0.15191732 -0.004932364 0.13760589 0.016362607 0.100949645 0.2840062
0.13499415 -0.20963031 0.008332856 0.083442174 0.06851689 -0.020368287 0.25308552 -0.055391345
0.041722998 0.09522907 -0.06355067 -0.008562729 -0.023086132 -0.09358516 -0.050809745 -0.047054123
-0.063960925 0.0478836 0.014392381 -0.025316067 -0.09350166 -0.06337738 -0.037693355 -0.16518374
0.09896796 -0.06624899 -0.096061915 -0.06687446 -0.06301359 0.058872122 0.15900059 -0.22559856
-0.20066674 0.084854975 0.077991195 -0.062842384 0.13140315 -0.17775156 -0.00020075073 -0.2106677
-0.040528044 -0.088595346 0.08661011 -0.022977779 0.041327108 -0.03134744 -0.10732705 -0.14357896
-0.08309986 -0.112236425 -0.08793674 -0.096952125 -0.0526886 0.021462234 -0.017657472 -0.08686954
0.0027700386 0.04960466 0.112009905 0.016450837 0.022896793 0.10908517 0.07045573 -9.376699e-05
0.07347935 0.034708798 -0.02199393 -0.015377871 -0.021378582 -0.12231692 -0.22383101 0.18631645
-0.06886224 -0.013821235 0.061055765 -0.14964539 0.008636986 -0.04081818 -0.14165911 0.16534847
0.020395713 -0.19274527 0.12805572 -0.26290113 0.13629417 -0.073968075 0.17686678 0.06684669
0.117160946 -0.062633246 0.12882875 -0.027415354 0.03333264 0.2020405 0.085824 -0.052457202
-0.0026291802 -0.062274113 0.07107636 -0.049042545 -0.046679955 -0.049825124 -0.045671742 0.21828492
-0.11072109 0.00397958 0.08995928 -0.0496419 0.10783326 -0.018895162 -0.023021678 0.109294705
-0.07732553 -0.016059631 -0.01917277 -0.02752016 0.03562223 -0.120292485 0.1112308 -0.0971999
0.0044124057 -0.17946002 0.067158945 -0.11229988 0.14381713 -0.11552034 -0.058551285 0.07464662
0.16769229 -0.019135246 0.14460908 -0.23092026 -0.038039524 -0.041077245 0.039374635 -0.07090955
0.07835719 -0.095952556 -0.07081056 0.04270823 0.011164686 -0.08002434 -0.02230972 0.0041108183
-0.069521256 0.09568912 0.10659158 -0.057962865 -0.06973929 0.042240366 -0.23954746 0.054371033
-0.16411242 0.13155985 -0.057342913 0.030731339 -0.08219284 -0.017225387 -0.0033031292 -0.0723593
0.18866538 0.11822765 -0.14815062 0.06832826 -0.16767018 -0.0069664503 0.14117073 -0.049324207
-0.037170812 -0.0550982 0.08091646 -0.09601872 0.20659545 0.09350443 -0.04952209 0.042452972
-0.04488273 -0.06660649 0.12055742 0.026845768 -0.08057212 0.21054325 -0.027720662 0.13966233
-0.014834433 -0.19601876 -0.16356957 0.07577159 0.013997476 0.02592073 0.00999352 -0.16827893
0.038532257 0.034417853 -0.06550211 -0.05460303 -0.11255397 0.0010490253 -0.046942953 -0.006190096
0.02752261 -0.030300999 -0.14208476 -0.12298795 0.08947168 -0.05811746 0.11696876 -0.009795889
-0.07673882 -0.09642301 -0.25396904 -0.081186734 0.007470916 0.036762737 0.17876695 -0.0065083746
-0.07039411 -0.020316329 -0.055819638 -0.087636344 -0.019464556 -0.07781876 -0.023174755 -0.048447397
0.05340153 0.011354446 -0.072806016 -0.13668714 0.08523412 -0.05516817 -0.19196896 0.07704014
