results/first/SpaceInvaders/SpaceInvaders-44960.onnx (onnx, 77862 bytes, 9 tensors)

discrete_act_size_vector f4 [1, 2]
00000000: 0000 4040 0000 0040
3.0 2.0

network_body._body_endoder.seq_layers.0.weight f4 [128, 3]
00000000: 34dd 81bf a2b9 a4bf 0761 3b3f 916d bdbe
00000010: eef1 c7bd 79a8 043e 532a 43bf 66d8 04be
00000020: 1e1e 84bf de24 11bf 7771 723f d9b4 c93e
00000030: 6517 133f a58e 21be 8ed8 913c d872 8fbd
00000040: a486 993f dff8 46be bc76 903d 55ca 6e3f
00000050: beb3 2ebe 59e3 f93f bd5a f23e 5272 edbd
00000060: 215b b13f 3763 803f 4a7c 033e e51c 253f
00000070: 02a3 23bf a860 2e3f 907c f33f ddde 32bd
00000080: eeca 29bc 0317 4e3f e177 2fbf 8267 343f
00000090: 5899 873f a4f9 efbd c8b2 91be fe68 2f3f
000000a0: 3841 133f 40d5 063f c33a 82be f163 9bbe
000000b0: 7ab6 4ebe dce8 6b3f 49dc 263f de6d 18be
000000c0: 4cc8 ca3e 9163 cf3e 0f32 653e a2ca f93e
000000d0: 6942 efbe d3a2 1d3f 8777 6dbe 048b c0be
000000e0: 21a4 c8bf e7e7 043f 57c0 753f f50e 95bf
000000f0: 3806 1f3f ce10 e9be 3d7e b7bf cc6a d4be
00000100: b2d6 853e de9e 9fbe afe2 92bd 1e7b cebe
00000110: 3f1e 513d caae 523f 1654 85be 5a03 dd3e
00000120: d4df a7be ca93 7cbe c4a1 813f 29fc 593f
00000130: e740 abbe 6a5f 343f e2b0 3bbe 0f6c 05be
00000140: e06b 343f 442e 013e 8bd4 85bf 88a6 483e
00000150: 60e0 413f b6bc 84be 9ddb a8bf 3935 d83d
00000160: 7d24 73be a6ec e6bd 6c46 2ebe 506a 803f
00000170: e015 a83f ea72 aabf 8c88 bf3e eb1a 993e
00000180: b76b 163f 1098 733f ea17 f5bc 68a7 35bf
00000190: 7395 ca3e 3910 ae3e 9b1d 30bf 944d f93f
000001a0: 1bb0 08bf ee38 97be 9a07 09bf 0572 423d
000001b0: bdb5 3abe 7b34 783f 2aef 98bd 2419 84be
000001c0: d16b 6ebf 6a4e 123f 6b7e 373e 3a88 783d
000001d0: de19 673f 4110 963f ff12 693e 1c2d 96be
000001e0: 8b95 f9bd 883b 223f d3ee 153e f907 1abf
000001f0: 899b bc3c 6a19 8a3d 059f 263f 89bd 38bf
00000200: cd75 2a3f 39d5 f23d cbd6 ab3e 8906 403d
00000210: ae94 61be 149a 8ebf b0e1 853d 421e 12bf
00000220: 6150 aabf 51dc 61bf db81 993f f272 0abf
00000230: b129 95be 0da6 303f ad7b a33e 2aef 1a3f
00000240: da57 99bd c424 0dbe 322f 3e3f 8d8c 913e
00000250: 9c39 9e3e 97dd 243e b084 e73e e7c4 423f
00000260: 5fcb a63e d2ed 193f ffd2 363f b731 a43e
00000270: 814e 56bf 2199 1fbf a288 03bf c621 02be
00000280: 7162 d23f 58b8 d4bd 4ca1 a43f c6d9 873e
00000290: 6bd6 833f a3e5 803e 4e84 573f 73a8 113e
000002a0: 1cb7 0a3f 0e33 50bf e52e d73e 19d5 f23f
000002b0: 82ab 16bf c0f0 f73d 7516 2ebe 08fe 4bbf
000002c0: a6ec a03d d18c 753f 0b7c fe3e 7751 75be
000002d0: 0010 103f a77b 293f f1ad 9b3e cd49 b1be
000002e0: c8a7 993b 4e53 ae3e 5532 dfbc 3aa0 b7bf
000002f0: 619c 6a3f c7c2 2abf 3e5b 113f 7bf5 0b3e
00000300: f4b0 5e3f cadf 003d 05b4 e4bd a36d 43bf
00000310: 0ea2 15bf 8ee9 1d3f 5a94 e33e b9fb b8bd
00000320: 3a15 853e 2689 5a3e 6dc3 863f bc8b 2fbe
00000330: a09c 5b3e 71d5 34bf 52b1 b63e e8b3 c6be
00000340: 270a 1ebf 5618 8d3e 76b0 a33f 068b fcbe
00000350: 5ecc 54be 8354 ebbe 1a81 1cbf bd9c 833e
00000360: c65c 3abe c838 fbbe c6e4 0dbe 393b a5be
00000370: 8dc7 533f dc4e bfbd 06b1 29bf 6b8c 123e
00000380: fcf8 a3be 700f 9c3f f377 a1bf 9537 52be
00000390: 44b5 833f afa6 d43e fb55 99be bb48 963e
000003a0: 213a 80bb 2f6e 063e 4c40 24bf 3296 0b3d
000003b0: d09e b5bd f8ef fc3d 6ea0 dbbe 639e 223e
000003c0: 073b 47bc c234 78bf f81f 133e 61f4 8dbe
000003d0: 02e3 f63e 63a5 42be 056a 0440 4292 46bd
000003e0: 5369 213e 2fe0 abbd d6bc 0ebf ee72 373f
000003f0: c291 3fbe dee8 8e3d 9a9f ccbf a6a1 f83f
-1.0145631 -1.2869151 0.73194927 -0.36997655 -0.09762941 0.12954892 -0.76236457 -0.12973174
-1.0321691 -0.5669688 0.94704384 0.39395788 0.5745757 -0.15777071 0.017803457 -0.070043266
1.1994214 -0.19430874 0.07053897 0.93277484 -0.17060754 1.9522506 0.47334853 -0.115940705
1.3855935 1.0030278 0.12840381 0.64497215 -0.63920605 0.68116236 1.9022388 -0.04366957
-0.010363324 0.80503863 -0.68542296 0.7047044 1.0593672 -0.11717537 -0.28456712 0.6851958
0.5752139 0.52669144 -0.25435457 -0.30349687 -0.20186797 0.9215219 0.6517988 -0.14885661
0.3960594 0.4050565 0.22382377 0.4878741 -0.46730354 0.61576575 -0.23190127 -0.3760606
-1.5675088 0.51916355 0.9599661 -1.164519 0.62118864 -0.45520633 -1.43354 -0.4148773
0.26140362 -0.31175894 -0.07172143 -0.40328306 0.051054236 0.82297957 -0.26040715 0.4316662
-0.32787955 -0.24665752 1.0127492 0.8515039 -0.33447954 0.7045809 -0.18329194 -0.13029502
0.70477104 0.12615305 -1.0455488 0.19594777 0.75732994 -0.25925225 -1.3192021 0.105570264
-0.23744388 -0.11275606 -0.17019051 1.0032444 1.3131676 -1.3316319 0.37408864 0.2990335
0.5875811 0.95153904 -0.02991863 -0.70958567 0.39567146 0.33996752 -0.68795174 1.94768
-0.53393716 -0.2953562 -0.53527224 0.04747202 -0.1823339 0.9695508 -0.07467492 -0.2580043
-0.93133265 0.571509 0.17919318 0.06067679 0.90273845 1.172371 0.22761153 -0.2933129
-0.12186726 0.6337209 0.14641885 -0.60168415 0.023023384 0.067431286 0.65086395 -0.7216421
0.66586 0.11857075 0.33562312 0.046881232 -0.22029373 -1.1140771 0.06537187 -0.5707742
-1.330578 -0.882268 1.1992754 -0.5408164 -0.2913337 0.69003373 0.31930295 0.60521185
-0.074874595 -0.13783556 0.74290764 0.28427544 0.30903327 0.16100155 0.4521842 0.760817
0.32577035 0.6012851 0.71415704 0.3206918 -0.8371354 -0.6234303 -0.5138036 -0.12708196
1.6436292 -0.10386723 1.2861724 0.26533335 1.029981 0.251752 0.84186256 0.14224415
0.5418565 -0.81327903 0.42027965 1.8971282 -0.5885545 0.12106466 -0.17000754 -0.79684496
0.07857637 0.95917994 0.49704012 -0.23956858 0.56274414 0.66204304 0.30406144 -0.34626618
0.0046891905 0.3404793 -0.02724568 -1.4345772 0.91644865 -0.66703457 0.5677985 0.13667862
0.8698876 0.031463422 -0.111671485 -0.7633917 -0.584504 0.616845 0.4444912 -0.09032387
0.25992757 0.2134138 1.0528389 -0.17143148 0.21446466 -0.70638186 0.3568216 -0.38809133
-0.6173424 0.2755763 1.2788227 -0.49324816 -0.20781085 -0.45962915 -0.61134493 0.2570552
-0.18199453 -0.49066758 -0.13856801 -0.32271746 0.82726365 -0.09341213 -0.6628574 0.14311378
-0.32025898 1.2192211 -1.2614731 -0.20529015 1.0289693 0.4153342 -0.2994841 0.29352364
-0.0039131795 0.13127969 -0.6416061 0.034078784 -0.08868182 0.12350458 -0.42895836 0.15880732
-0.012160069 -0.969555 0.14367664 -0.2772551 0.48220068 -0.19008403 2.068971 -0.048479326
0.15762834 -0.08392369 -0.5575689 0.71659744 -0.18707946 0.0697801 -1.5986207 1.9424331

network_body._body_endoder.seq_layers.0.bias f4 [128]
00000000: a012 abbe b7ac afbe 3249 893e fdd3 f53d
00000010: fd84 2a3f 5018 b33e 5cc9 fc3e 17f9 3c3e
00000020: 87d1 463e 39f5 95be e1cc 69bb 18db cdbd
00000030: aca8 1d3e 63a5 e53d 2a91 003f 392b 233f
00000040: 4bc9 213e b964 d7be 4575 5534 dcb0 8bb8
00000050: cbd2 1d33 ffb7 3e3f cfa8 5dbe b848 aabd
00000060: 620f 52be f90f 49be 483e 96be abd4 a5be
00000070: 577d 8835 49ce da3e c8ba c93d 26a7 19be
00000080: 49ac b83e 8bf6 11bd b89a eb3e 065b bbbd
00000090: 5237 dd3e cbf5 09be 6f30 843d e944 f63d
000000a0: 56c0 fb3d 3362 36bd 37ce 52bd d5a5 353e
000000b0: 558a ddbd ce91 0b3d d1b2 d33e f185 50be
000000c0: 46d5 7abe 4469 183e e174 283e 5b9f 473d
000000d0: ee52 ec3d c582 fd3e ab61 873e ced1 8a3d
000000e0: 3921 e9be 2d2b 14bd 3127 fabd ff8b 9f3e
000000f0: c054 813d 5e0f babc 677c e2be c8d0 3dbe
00000100: 573c 223f 0f7c dbbe 1def 70bd 531a d43e
00000110: 7ffa c4be 1ac0 9abe a002 a23d 8706 94be
00000120: 9545 3b3f 08ba 133f 84ec 4ebd bdf1 583e
00000130: bad4 853e 9974 03be 6690 a5bc 2fab 8dbe
00000140: 8668 08bf b504 133f 380e a13d d3b1 d8be
00000150: 5724 3fb3 4b8f adbc eb5d f5be 7935 9ebc
00000160: 1985 b73e 8c91 f5bd d514 b2bd 00c8 143f
00000170: 39fc 5dbe b919 693e 056b b2be 947f 26be
00000180: eea1 1abe a204 a3be 109e b53e 32ab 7abe
00000190: 476d 4f3f 0a11 453d ee98 cebe cd5b b1be
000001a0: 8481 a73e 645c 0cbd be12 8a3e a43d 11be
000001b0: 6cd9 d4be c90f 6abd 31f5 a1be bf8e c63e
000001c0: 408f 543e 5ff2 5abd 29c9 eabc 37a3 b2be
000001d0: 66f8 70be 9d0a 2d3f c41f 2fbe e41f 8cbe
000001e0: c519 623d 9fdf e9bd 4b60 243f 2b37 b3be
000001f0: d675 653f 0dd7 9dbd 64d1 693f 0a0a e03c
-0.33412647 -0.34311458 0.26813656 0.12003324 0.66609174 0.34979486 0.49372375 0.18454395
0.19415866 -0.29288653 -0.0035675096 -0.100515544 0.15396374 0.11213186 0.502215 0.6373783
0.15799443 -0.42069033 1.9879833e-07 -6.660979e-05 3.6746126e-08 0.74499506 -0.21646427 -0.08314651
-0.2051368 -0.19635 -0.29344392 -0.32388815 1.0169268e-06 0.42735508 0.09850079 -0.15005168
0.36068943 -0.035635512 0.4601648 -0.09148221 0.4320627 -0.13472669 0.064545505 0.12024862
0.122925445 -0.044527244 -0.051466193 0.17739041 -0.108174 0.034074597 0.41347364 -0.20363595
-0.2449542 0.14883906 0.16450836 0.048735958 0.11539255 0.49513832 0.26441702 0.06778298
-0.4553316 -0.036173988 -0.122145064 0.31161496 0.06314993 -0.022712406 -0.44235536 -0.18536675
0.6337332 -0.42868087 -0.058821786 0.41426334 -0.38472363 -0.30224687 0.07910657 -0.2891123
0.7315305 0.57705736 -0.050518528 0.21185966 0.2613886 -0.12837447 -0.020210456 -0.27669665
-0.5328449 0.5742906 0.0786404 -0.4232317 -4.4503704e-08 -0.021186491 -0.47923216 -0.019312607
0.35843733 -0.119906515 -0.0869538 0.58117676 -0.21678247 0.22763719 -0.34847274 -0.16259605
-0.15100834 -0.31839472 0.35472155 -0.24479368 0.8102612 0.048111953 -0.4035105 -0.3464035
0.32716 -0.034267798 0.26967424 -0.1418367 -0.4157213 -0.05714396 -0.3163238 0.38780782
0.2075777 -0.0534538 -0.028660374 -0.34890148 -0.23532256 0.6759432 -0.17101961 -0.2736808
0.055200357 -0.114196055 0.6420943 -0.35003027 0.8963293 -0.07707033 0.9133513 0.027348537

network_body._body_endoder.seq_layers.2.weight f4 [128, 128]
00000000: 2481 d9bd 58b0 52bd f66c 57be 8e66 b83d
00000010: 302c 543e 03e0 b93c a898 bebe 4e01 523e
00000020: 0a2b ae3d 629c 75bc 88b5 763e f4e9 873d
00000030: 17fa 8cbe 8724 813c 72cf 46be 44c2 c3be
00000040: ce46 41bd 6dbf 22bd ad50 36be a044 5fbd
00000050: a8d8 373d 1145 cdbe 69bb 72be 0412 a4bc
00000060: 7285 e2bd ae41 08be db35 e1ba c8c8 c5bd
00000070: 3a5a 28be 5dff a0be f895 fabd 42a7 b5bb
00000080: 728d 0fbe 2139 4e3d 07b5 7dbe 5922 513e
00000090: 4b30 32be 05c6 26be 4bd9 f83c 5cfe 99be
000000a0: a493 a93d a0ea 1bbd 9045 77bd 1f71 c0bd
000000b0: e4f2 f4bb 5bd6 b73d 76ed 65be 6b18 cc3b
000000c0: c6f3 2ebe f02d 313d d49f d8bd b56e a83d
000000d0: cba6 9abe 3ef8 8bbe 8069 483e f60e 7b3d
000000e0: 3e48 9fbc 3ea9 6c3d a9ed fdbd ac6f 01bf
000000f0: c334 563d a8ac 8cbd e962 d9bd bc54 da3d
00000100: f6cf eebe b1c9 e0bd 500b 9e3d 95b4 16be
00000110: 4f2b 4cbd 48e8 b33d a8f6 f93e 14f8 febd
00000120: 8232 e2be 66a4 a13c 1c03 1abe 4485 52be
00000130: 019b 0ebf 4c6e ac3c 6d3f eebc 1882 4fbd
00000140: 1391 59be 5f22 96be e21e a1bc 0dfc 873d
00000150: 2920 b23d f61f be3c b549 39bd f4b9 303e
00000160: 5638 a6be 1df8 1ebe 3bb8 803d 42da f3bd
00000170: 60eb 233e f5b5 27be 5b71 12be 7df0 753d
00000180: 9514 983d 4043 1dbd 8b57 8abe 245e aebd
00000190: b2f4 5dbe bebc f13b b191 9b3c 1c83 c4ba
000001a0: de91 53be 85e5 3abe 9908 05be a8e2 3cbd
000001b0: 1199 b6bc d92f 2e3d d267 bf3d c302 4ebe
000001c0: a84a 293e a0fc 84be 63ed b03d 64e8 41bd
000001d0: f5f0 5fbd f648 80be 32f8 3c3d bc10 81bd
000001e0: 7d23 813e ccf3 74b9 681c 313e 3bb9 d0bc
000001f0: d196 4dbe 6999 74bb 51ae e5be 0419 5fbd
00000200: 8528 e9bd d476 8b3a ec73 343e 8f28 05be
00000210: 0bca 133d b9e4 a73d b03c 963d 7baf 343e
00000220: 6534 a53c 28e2 9d3c 46cd 1a3e 63b9 04bd
00000230: 1be6 78be a098 85bd bab8 2dbe a11f dcbb
00000240: 2123 153e 2381 6dba c52f 38bd 4ab0 bb3c
00000250: 5384 43bd c55c 8ebd 3d7e c23d 296c 84bd
00000260: 011b 1abe 797f 7f3d deb5 a3bd 65f3 033b
00000270: e00f 8bbd 1ce8 36be b539 2fbd 01f1 5bbe
00000280: 3e9b c1bc d85f 003d 874c ad3d f4d9 aebe
00000290: de80 9a3c 1d80 dc3c c349 3fbe 9c43 50be
000002a0: 5cb1 93bc 0a91 dc3d 568a 003e f093 09be
000002b0: 0054 afbd dd77 bb3d bf63 e2bd 2e00 f6bc
000002c0: ce22 9dbd 456c d13d 5a7b b8bc af75 463d
000002d0: f599 853d 1415 deba 62c1 c93d 4737 933d
000002e0: 8032 b53d 7ee8 da3d 9cdd 95be b37d b4be
000002f0: 33dc 6d3d 3549 eebb 7f21 5a3c 4401 38be
00000300: c90c 7d3d 360d 423d cedc 6a3e daf9 82be
00000310: d5b7 75bd 9894 1d3d 01e1 86be db0d 213d
00000320: 7344 97bd 979d edbd f19e 71be b767 03be
00000330: 6ece 64be e367 20bd 5644 17be 490a 6f3d
00000340: 00ab a03b b028 14be 6455 32be 9227 1ebe
00000350: 611b 30bd 1e01 523d d170 3abd d774 94bd
00000360: 06b5 3dbd fea9 f1bd b226 c7bd 73d0 3abe
00000370: a506 92bd b547 4d3d a50a e6bd 068d babc
00000380: 90e3 cdbd 15d0 c83d a225 89bd c330 a9be
00000390: 68d4 a6be f15a 9ebc 5ad5 ebbd 8cf0 c7bd
000003a0: 7b3e 93be 4eac 5cbe ff17 40bd a50b 3ebd
000003b0: 98da 193e e56c b1bc 52f8 a2bd 3d20 70bd
000003c0: a56d 07be bae5 44bd 563d 28be b4f9 243e
000003d0: 0ba8 e13c d608 a3bd a505 63bd 9a7b 9bbc
000003e0: 143b b2bd afde 663d 7a28 743c d452 82bc
000003f0: dc5c 6dbe 59b1 27be 84f6 bfbd 1803 00be
-0.10620335 -0.051437706 -0.21037659 0.09003936 0.20719981 0.022689825 -0.37225842 0.2050831
0.08504303 -0.014990898 0.24092686 0.0663642 -0.27534553 0.015764488 -0.19415072 -0.3823415
-0.047186665 -0.03973334 -0.17804213 -0.054508805 0.044884354 -0.40091756 -0.23704304 -0.020028122
-0.11060609 -0.13306305 -0.0017182188 -0.096574366 -0.16440669 -0.31444827 -0.122356355 -0.0055436203
-0.14018801 0.05034745 -0.24776088 0.20423259 -0.17401235 -0.16286476 0.03037705 -0.30076873
0.08280113 -0.038065553 -0.060369074 -0.09396576 -0.007475244 0.08976432 -0.22453865 0.006228497
-0.1708518 0.0432567 -0.1057736 0.08224241 -0.30205378 -0.2733783 0.19571495 0.061293565
-0.019443627 0.05777859 -0.12398846 -0.5056102 0.05229641 -0.06868869 -0.10614569 0.10660693
-0.46643037 -0.109759696 0.077170014 -0.14717324 -0.04984599 0.087845385 0.48820996 -0.12449661
-0.4417916 0.019731712 -0.15040249 -0.2055865 -0.5570527 0.021048687 -0.029082978 -0.050661176
-0.21246748 -0.29323098 -0.019668046 0.06639872 0.0869754 0.0232086 -0.045236308 0.17258435
-0.32464856 -0.15524335 0.06285139 -0.11906864 0.16007757 -0.16378005 -0.14301054 0.0600438
0.07425801 -0.038394213 -0.27019915 -0.0851405 -0.21675375 0.007377236 0.01899037 -0.0014992687
-0.20661113 -0.18251617 -0.12991561 -0.046114594 -0.022289785 0.0425261 0.09345974 -0.20118241
0.16532385 -0.25973988 0.08639028 -0.047340766 -0.054673154 -0.25055665 0.046135135 -0.0630202
0.25222388 -0.00023360475 0.17295992 -0.02547895 -0.20077063 -0.0037322885 -0.44859555 -0.054467216
-0.113846816 0.0010640272 0.17622346 -0.13003753 0.036081355 0.08197922 0.07335794 0.17645065
0.020166585 0.019272879 0.15117368 -0.03240336 -0.24306528 -0.065232515 -0.16964999 -0.0067176376
0.14564182 -0.00090600754 -0.04496743 0.02291121 -0.047733616 -0.06951288 0.09496734 -0.064659424
-0.15049364 0.062377427 -0.07993673 0.0020134088 -0.06790137 -0.1786198 -0.042779643 -0.21478654
-0.023633596 0.031341404 0.08461862 -0.3415066 0.018860277 0.026916558 -0.18680482 -0.20338291
-0.018028907 0.107698515 0.12552771 -0.1343534 -0.085609436 0.091537215 -0.11054181 -0.030029383
-0.07672654 0.10225729 -0.022519756 0.048452076 0.065235056 -0.0016943538 0.09851338 0.07188278
0.08847523 0.106888756 -0.29270637 -0.3525215 0.058071326 -0.0072719106 0.01331365 -0.17969233
0.06177977 0.04737588 0.22935793 -0.25581247 -0.05998977 0.03847179 -0.2634354 0.039319854
-0.073861025 -0.116023235 -0.23595788 -0.12832533 -0.22344372 -0.039161574 -0.14772162 0.058359418
0.0049031973 -0.14468646 -0.17415386 -0.15444782 -0.04299486 0.051270597 -0.045517746 -0.07248848
-0.046315216 -0.118000016 -0.097241774 -0.1824358 -0.071301736 0.050117213 -0.11232499 -0.022772323
-0.1005317 0.098053135 -0.06696631 -0.33045015 -0.32583928 -0.019330474 -0.11515303 -0.097626776
-0.28758606 -0.21550104 -0.046897884 -0.046397824 0.15024793 -0.02165837 -0.079575196 -0.058624495
-0.1322542 -0.048070647 -0.16429648 0.16110879 0.02754595 -0.0796067 -0.055425305 -0.018979836
-0.087026745 0.05636471 0.0149022285 -0.015908636 -0.23179954 -0.16376247 -0.09373191 -0.1250118

network_body._body_endoder.seq_layers.2.bias f4 [128]
00000000: 077c 083d 655f 8f3c b96a 6e3e 6aa4 acbc
00000010: bbaf 3ebe 01c2 ee3d e717 e7bc 6160 d63d
00000020: 814f 313e a004 983e a05a 853e f620 723e
00000030: a6c8 53bc 82c4 30be 9db2 24be 2fcb f8bb
00000040: f659 c6bc 1954 9f3d 70db d63c c3e5 d4bd
00000050: f04b df3c 27c6 543d e045 963d 04ec de3b
00000060: e19b 18bd b8a2 5a3e 6fbf 5ebd 68c4 c9bd
00000070: dd83 873d 1062 f93d 2299 3bbe 749e 66b9
00000080: cc3a dabc 5e69 b63d d122 63bb 6ac3 a23d
00000090: 99cf 393d d3b9 96bd b70d 4ebe 56c2 a2bc
000000a0: c6bf 8b3d 02d3 413c 8099 353e d166 80bd
000000b0: 19f1 513d 073a 74be f459 e23c 0af5 493d
000000c0: 09da f23d 9378 b5bd 0d5f 9d39 752f 173d
000000d0: e974 5d3d 73f8 81bd 1799 873c f5eb 6a3d
000000e0: fa2f 803d 604d 433e a744 ef3c ace3 5ebe
000000f0: 082b 1d3e b84e 193e cae3 01be eb69 49bc
00000100: 81a8 c63d dff5 4a3a da78 a23e 72b5 a83d
00000110: ab85 6b3b 9363 e5bc 136b d63d 2935 2dbd
00000120: f8c6 7a3d ed59 da3d 73c6 58bc 1135 9239
00000130: 42a5 5fbe 0942 973d 2256 5abd 85c9 a53e
00000140: b6a7 f73c 12bf 6abd ae93 973d f3d6 973c
00000150: 5ebb fb3b 4833 013d 2c52 783e 8fa3 073e
00000160: 4284 30be 5969 4ebd 0aa0 ac3e e77d c43b
00000170: 8ba0 d4bc 7f7f a0bd 6524 cebd 5a20 5c3e
00000180: 1405 083e 0d08 6f3a 106e 5ebe ce06 a93d
00000190: decf c53c f001 0dbd 4203 67be d08b bbba
000001a0: 5f9d 943e 8659 01be a7a7 dd3c 76eb 7f3e
000001b0: 8e6a 033b 19e8 293e b320 a83d e4dd 983d
000001c0: c47b a83d 18a7 e03c 43ba ba3d db61 8d3e
000001d0: 74a7 1ebd 490a be3d 9531 f83d 7ad9 073e
000001e0: e19e 023d 4391 973d a3a1 b73d ab85 d93c
000001f0: 056b cd3c f813 0c3b 303a 063e b367 2fbc
0.033321407 0.017501542 0.23282899 -0.021074492 -0.18621723 0.11658097 -0.02820964 0.104676016
0.17315485 0.2969103 0.26045704 0.23645386 -0.012926256 -0.17262462 -0.1608376 -0.0075925807
-0.024212819 0.07779712 0.026227683 -0.10395386 0.02725789 0.051946785 0.07337546 0.0068030376
-0.037258033 0.21351135 -0.054381784 -0.09851915 0.06616948 0.12176907 -0.18320134 -0.00021993538
-0.026639365 0.08906816 -0.0034658203 0.079474285 0.045363996 -0.07359662 -0.2012242 -0.019868057
0.06823687 0.011830093 0.17734337 -0.06269611 0.05125532 -0.2385026 0.027630784 0.049305953
0.11857993 -0.08860888 0.00030016192 0.036910493 0.054066572 -0.06346216 0.016552491 0.057353932
0.06259151 0.19072485 0.02920754 -0.21766537 0.15348446 0.14971435 -0.12684551 -0.012293319
0.09700108 0.0007742326 0.31732827 0.08237733 0.0035937827 -0.028001582 0.104696415 -0.042287026
0.061224908 0.10661683 -0.013230908 0.00027886828 -0.21840385 0.07385642 -0.0533048 0.3238031
0.030231338 -0.057311125 0.074012145 0.018535113 0.007682248 0.031543046 0.24250096 0.13245986
-0.17237952 -0.050393436 0.3371585 0.005996454 -0.02595546 -0.07836818 -0.100655355 0.21496716
0.13283187 0.0009118326 -0.21721673 0.08253251 0.02414697 -0.034425676 -0.22559837 -0.0014308635
0.29026315 -0.12631807 0.027057482 0.24992165 0.0020052525 0.16592444 0.08209362 0.07464197
0.082267314 0.027423427 0.09117558 0.2761372 -0.038733914 0.092793055 0.12118832 0.13266554
0.0318898 0.07400753 0.08966377 0.026552996 0.025075445 0.0021374207 0.13108134 -0.010705876

action_model._discrete_distribution.branches.0.weight f4 [3, 128]
00000000: 3588 ec3b 6180 04bd 0938 dd3d 28fd 22be
00000010: c38e e9bc 4554 2bbd d0d1 063d 869e a93d
00000020: 0247 1dbd 2a36 94bd d5ed 41bc 722f 7fbc
00000030: 96a3 adbc e3dc c2bc 3c2c 97bc e800 873c
00000040: 1a5c 1f3d 156e 15bc 4b02 033c eb9d 9c3d
00000050: d5c9 a43d 1409 8fbe 91c1 37be 1e53 d3bd
00000060: 477e 843d 4883 91bd af56 103e 2f57 b73b
00000070: 1ac5 0dbe 1b07 783c 623f 97bc e54e 7ebd
00000080: 5f23 e4bd f3db ba3b 476d 40be d44c 003e
00000090: 80cd 12bd 49c9 c1bc 2abb 9ebc c236 5e3d
000000a0: a5c7 293e eb5a de3c 57a6 343e 74e3 b2bd
000000b0: 22bc 01be 3dbe 533c f128 893d c5b6 163e
000000c0: c4b5 693d 4bac 513d 5493 d7bd 7b33 2b3c
000000d0: f3a2 773d 4f18 97bc 7839 d73c cd8f 1a3a
000000e0: 6205 803e 0d5a aebd 41ff 5bbe bfde 3abb
000000f0: c25d 363d 8d86 a23c 790b 903a 399b 1e3e
00000100: 2371 65bc d99b 8ebb 1b33 303e dc45 dd3d
00000110: 74a4 263d c768 dbbc d8af ae3c d6e5 4d3e
00000120: e478 3abd 80a4 6ebd c260 6abe a057 5fbd
00000130: 2329 2f3c 3b82 c53d dc31 86bd f9b0 6bbd
00000140: 233f e1be ab07 6b3d cf0d e73b 8608 f9bd
00000150: 7593 7bbe c0de c83d 95c9 a5bd 0e38 033e
00000160: b3ca e6bc fbd4 503e 1251 f23d 410f a83d
00000170: fb1c 7bbe eae2 cfbd acfd 22bd 0292 5fbd
00000180: 8501 32bd 049c 56be 5c73 5a3c 3073 a63d
00000190: 37a0 473d cc50 5c3d eefd 91bc a8ec edbd
000001a0: fa6f 183e 7a3e c3bc f25b 683d dd93 c7bd
000001b0: 7ab7 263e d9cc 9a3c ec14 84bd e764 babc
000001c0: 6eed 5d3d db23 7e3e a5e8 0b3d 704d 9bbe
000001d0: 841a 0a3c 12d5 e33d 1409 eebc ab60 5dbd
000001e0: ad6a babc 63f3 813c dcee 883d d6cc 99bd
000001f0: b03d 7bbd d771 09bd 1562 243d 8c4d 19bd
00000200: 87c3 c0bd 2e7f 29bc 7dcb bbbe 93d6 543d
00000210: 1db6 cb3c b5c6 febc ed43 37ba 060d 64be
00000220: 802b f13e 3a1a 83be 5b4b 3b3f 94b5 09be
00000230: e3ee 233c 0dd9 f33c 6807 f53c 025f 99bd
00000240: 31ec 98bd ecef 853b 7861 68be a571 b53d
00000250: 2667 f6bd 91b7 d4bc b2b6 5c3d 2358 513d
00000260: 7e5a 853e 7d88 bbbc 703c c53e f965 003c
00000270: 66da 8ebd 5000 28bd 84f5 98bb f573 d03d
00000280: 4d21 0fbc 77e4 25be c445 b73c 5cac 31be
00000290: ca9b 693e d156 463d 9eb8 dc3c 3467 97bd
000002a0: e9c2 183e 7aa0 49be a743 843d 8cad ec3d
000002b0: 3187 9f3d 0f01 56bd 7a56 ca3e d752 f23d
000002c0: 3709 cbbd 559d 103e 3d36 2abe c787 bf3b
000002d0: 6e74 933d 8ca0 be3c 633d 13bd 041e d03e
000002e0: a75f 91be c655 153f cf91 b93d 678d 32bc
000002f0: 3c32 8ebe caa3 863c c04d a13d 1c65 37bc
00000300: e713 383c a405 40be 0f13 21bf 2992 e93e
00000310: bb08 c8bd 1b2f 993c 7cd8 2dbd c4a2 dc3d
00000320: 62bd a1be e586 293e 154e 583d d267 943d
00000330: eb8c d93c 3e1c a13d 4aa2 6f3c 3534 aabe
00000340: 75dc 2d3e 978b 823e a30a 35bd db51 833c
00000350: 88e3 533e 1571 27be a646 853f 145a 67be
00000360: 95c5 163d 5212 c43e c974 5ebf 0a1a 0bbe
00000370: a206 443e 2f7d d5bd 0eb9 4ebe c3fc 253f
00000380: 2835 883e 1c4d 563e 1156 0fbd 0d7b 3abe
00000390: 1a4c d4bd d600 d7bd 9d54 883c 8219 f1bd
000003a0: e808 24bf 4532 67be 83b2 91bd 7f8e 3e3f
000003b0: 0832 d1bc f502 8f3e b843 353e f2d5 963e
000003c0: b3ec b83c e2cb 103c 0c55 b63e 1227 9e3f
000003d0: ef7b bcbd a877 0b3e f78a 4a3d b701 b03e
000003e0: 6e81 69bd c9a1 59bd 8fbb 7b3e 179d 0dbe
000003f0: 4099 2abe d82b c1bc 9e5e afbd f464 4d3d
0.0072183856 -0.032348994 0.108017035 -0.15916884 -0.028510457 -0.041828413 0.032914937 0.08282189
-0.038397796 -0.072368935 -0.011836489 -0.015575277 -0.021196168 -0.023786968 -0.01845371 0.016479924
0.038906194 -0.009120484 0.007996152 0.07647308 0.08046309 -0.27936614 -0.17944933 -0.10318588
0.06469398 -0.07105118 0.14095567 0.00559511 -0.1384472 0.015138413 -0.01846284 -0.06208696
-0.11139559 0.0057024895 -0.18791686 0.12529308 -0.03584051 -0.02365555 -0.019376356 0.05425144
0.16580065 0.027142962 0.17641579 -0.087347895 -0.12669423 0.012923774 0.06697262 0.14718159
0.05705811 0.051189702 -0.105261475 0.010449286 0.060458135 -0.018444208 0.02627252 0.0005896062
0.25004107 -0.085132696 -0.2148409 -0.0028514115 0.04452301 0.01983955 0.0010989747 0.154889
-0.014004025 -0.0043520746 0.17206995 0.1080434 0.04068418 -0.02678336 0.021324083 0.20107207
-0.045525447 -0.05826235 -0.22888473 -0.054526925 0.01069096 0.0964398 -0.06552479 -0.05754182
-0.43993482 0.05738036 0.0070512067 -0.12159829 -0.24567969 0.09808111 -0.08095089 0.12814352
-0.028172826 0.20393746 0.11831869 0.082060345 -0.24522774 -0.10150702 -0.0397927 -0.054582603
-0.04345848 -0.20957953 0.013333168 0.08127439 0.048736777 0.05378799 -0.017821278 -0.11617404
0.14886466 -0.023833502 0.05672831 -0.097449996 0.16280928 0.018896507 -0.06449303 -0.022753192
0.05418151 0.24818365 0.034157414 -0.30332518 0.008429173 0.11124624 -0.029057063 -0.054047268
-0.022755945 0.015863126 0.06686184 -0.075097725 -0.061338127 -0.03355583 0.0401326 -0.03742747
-0.09412294 -0.010345263 -0.36678687 0.051962446 0.024867112 -0.03110061 -0.0006991018 -0.22270593
0.471035 -0.25605947 0.7316186 -0.13448173 0.0100056855 0.029766584 0.029910758 -0.074888244
-0.07466925 0.004087439 -0.22693431 0.088595666 -0.12031393 -0.025966438 0.05388517 0.051109444
0.26045603 -0.022892231 0.38522673 0.007836812 -0.0697525 -0.041015923 -0.0046679396 0.10178367
-0.008735967 -0.16200434 0.022372134 -0.17350906 0.22813335 0.04842264 0.026943501 -0.07392731
0.14918102 -0.19690123 0.06458216 0.11556539 0.077894576 -0.052247103 0.395191 0.11832207
-0.09913867 0.14122517 -0.16622253 0.0058450433 0.071999416 0.023269914 -0.035947215 0.406479
-0.2839329 0.58334005 0.09061014 -0.010897971 -0.277727 0.016435523 0.07876158 -0.01119354
0.011235214 -0.18752152 -0.62919706 0.45619324 -0.0976729 0.01869922 -0.042442784 0.107732326
-0.315898 0.16555364 0.05280884 0.07246365 0.026556453 0.07866715 0.014626095 -0.33242956
0.16978629 0.25497124 -0.044199597 0.016030243 0.20692265 -0.16351731 1.0412185 -0.22592956
0.036809523 0.38295227 -0.8689695 -0.13584152 0.19143155 -0.104242675 -0.2018778 0.6483881
0.26603055 0.20927852 -0.03499419 -0.18211003 -0.10366078 -0.10498206 0.01664191 -0.11772443
-0.6407609 -0.2257777 -0.071141265 0.7443618 -0.025536552 0.27931944 0.17701614 0.29460102
0.022573804 0.008837672 0.3561176 1.2355673 -0.09203326 0.13619864 0.049448933 0.34376308
-0.0570082 -0.053132806 0.24583267 -0.13829456 -0.16660023 -0.023580477 -0.08562969 0.050145105

action_model._discrete_distribution.branches.0.bias f4 [3]
00000000: 3949 0f3d 2f9d c4bd 8b6c bb3d
0.03498194 -0.09600293 0.09151562

action_model._discrete_distribution.branches.1.weight f4 [2, 128]
00000000: f5e5 f13c 6cea 1e3e 90ed 333e b454 18be
00000010: 2240 c93c 7602 0a3e 9bd5 4dbd 6cf2 373d
00000020: ab44 bc3e 9ca9 c3bd eba2 973e b74c eabc
00000030: 8b77 093e c501 333d ff63 073d 3290 81bd
00000040: ed71 0abd df58 063e 669b 1a3e 8bd9 173b
00000050: 1cba be3d afa5 4fbe 4850 4f3e db05 8d3d
00000060: 2406 913e ec72 7ebd ec8b ef3d 4b1f d03d
00000070: d063 ce3c a832 45bc db61 973d 555a 753c
00000080: 4b60 2dbe 6aa8 6dbc b3b8 453e d34c 4a3e
00000090: bf02 b03d 59b8 653d b6ce 713d 2433 f03e
000000a0: f08b 893d 43e5 1a3c ba63 c6bd 8e5a ed3d
000000b0: e54a 863d 9a97 ca3d 21eb da3e a09c 09be
000000c0: 3faf f6bc 4850 d33d b509 503e f418 14be
000000d0: 4f8f 5d3d 110a d43d 19a5 993e 43af 133f
000000e0: da1b 3d3e 0d1d 4f3e 12e1 903e 60d8 493d
000000f0: f257 8f3c 2b25 2d3e ce21 503c a685 9a3e
00000100: a8cb ff3d 4cdf 0bbd 77c8 9fb9 fb05 493e
00000110: ace7 7d3c 741b ed3d d40e 803e 6787 97bd
00000120: 5ab6 cd3d 069b 193e e85a 18be d51d 503d
00000130: 9f6c c83d e8ef 603e 979f cf3d f8b0 1ebe
00000140: 618a 0fbf 34b2 61bc 36f7 973d fa07 9c3d
00000150: ee38 e03e 9e31 943e fc38 bf3e 04d7 4dbd
00000160: d3ac 3a3d b547 a0bd 8925 4bbc 9beb 833e
00000170: 7d0f 243e cec3 a3bd da38 b1bd daab 3d3e
00000180: 21e6 1bbd c8dc 913e 24d0 8c3d efab 9b3e
00000190: a8a6 ba3e a314 c23b 756b 5e3d cc1f 6bbd
000001a0: 6769 aa3d a2ae b4bd b6c1 53bc e83d 703e
000001b0: 7bdd 0d3f fb55 9b3e 8e19 f43d 12f1 b53e
000001c0: d7fb f63d ad86 013e 29df 9a3d 1d08 ce3e
000001d0: 4ad0 3bbe dca2 8dbe 9b2b 3fbe 6215 c83e
000001e0: d193 ee3d 6db7 7a3d e782 b13e 1e85 9c3c
000001f0: c4bd abbd fdc0 8f3d 6f4c 0abd b204 263d
00000200: 9bf2 cebc 310c 25be 2d4b 42be cbe6 133e
00000210: 0ddd 03bd 046d e4bd 1eb3 d53c 9cce c6bc
00000220: 0f17 b8be c682 e53d 487c 99be a512 633c
00000230: 171c e7bd 5d02 54bd 4c95 80bd f97a 4b3d
00000240: cb9a 263d 2d57 10be e836 2cbe 5aba 7f3c
00000250: bc67 ebbd 10a8 533e 0eb9 3bbe 0085 14bd
00000260: 022f 89be 579a 583d 5040 0cbe 5b88 d8bd
00000270: e0c6 6abb 6db0 043c be98 33bd 60fc 98bb
00000280: 85bf 343e 855f 7b3c ccf5 3cbe 2e5b 43be
00000290: 0884 bebd 58af 01bd bc18 88bd 6206 fbbe
000002a0: 1174 35bd 6133 78bb 3a6f e53d 5a6a cabd
000002b0: 9b43 8fbd d2df c2bd 113e d2be bbee 003e
000002c0: 28f9 313d c981 ccbd 846a 42be 92ac 243e
000002d0: 3064 1ebd a86a a3bd 78f2 97be 1283 11bf
000002e0: 8a8a 43be 9de2 54be 1402 86be e7ef 1abd
000002f0: 2fce eebc cd63 1dbe 52bb b9ba e9b5 9cbe
00000300: 8c0f ffbd 19d0 ac3c 0093 adbc 532a 3cbe
00000310: e4db f7bc b8aa cdbd 5b8d 7ebe 7a96 653d
00000320: d96e f9bd 2b68 29be 28b3 143e 2396 4bbd
00000330: a507 e8bd 412b 6abe cc04 c9bd 7f7c 303e
00000340: 989c 083f 34da 323c ca2d 7abd ce9a 8fbd
00000350: d94d dbbe 1f80 92be ede2 bdbe 2f1f 793d
00000360: 60a4 11bd b5fc 963d c5a2 b33b b7a4 89be
00000370: 9230 2bbe 0490 773d 93fe 9c3d ebcf 44be
00000380: ccfc 623d d6fa 97be 2d0e 97bd 178b 98be
00000390: 8192 b5be 0e85 13bc a9b7 73bd 72eb 943d
000003a0: 2fa6 b6bd c31f 903d 9730 d93c 1d02 79be
000003b0: 17eb 0dbf 7a67 a2be 5d9c fdbd ba0f b8be
000003c0: 9b9a f0bd 3e80 febd fa8e 98bd 5ffb dbbe
000003d0: d2f1 3f3e dfc5 973e 9e77 433e 8f6a cbbe
000003e0: 6593 efbd 5491 4ebd 913a aabe b07c e6bc
000003f0: fc2d cc3d 44f3 96bd 1d7b d33c 2d18 3fbd
0.029528597 0.15519112 0.17571092 -0.14876062 0.024566714 0.13477501 -0.05025254 0.044908926
0.3677114 -0.09553835 0.29616484 -0.028601034 0.13424508 0.04370286 0.033054348 -0.06326331
-0.033800054 0.13119839 0.15098342 0.0023170437 0.09312841 -0.20278047 0.20245469 0.068858825
0.28324997 -0.062121317 0.1169661 0.10162219 0.025194079 -0.012036003 0.07391711 0.01497515
-0.16931264 -0.014505485 0.19308738 0.19755869 0.08594274 0.05608401 0.059035026 0.46914017
0.06716144 0.009454074 -0.0968699 0.115895376 0.06557254 0.09892197 0.42757514 -0.13438654
-0.03011286 0.10318047 0.20316203 -0.14462644 0.054091748 0.103534825 0.30008772 0.57689303
0.18467656 0.20225926 0.28296715 0.049278617 0.01749799 0.1690871 0.012703372 0.3018009
0.12490016 -0.0341485 -0.000304762 0.19631188 0.015497129 0.11577502 0.25011313 -0.07398873
0.100445464 0.15000543 -0.14878428 0.0508097 0.09786343 0.21966517 0.10137861 -0.15497196
-0.56070524 -0.013775397 0.074201986 0.07618709 0.43793434 0.28944105 0.37348163 -0.050253883
0.045574974 -0.07826177 -0.012399086 0.2576569 0.16021533 -0.07996331 -0.08653422 0.18522587
-0.038061265 0.28488755 0.06875637 0.30404612 0.36455274 0.0059228702 0.054301698 -0.05740337
0.08320885 -0.08822371 -0.012924602 0.23461115 0.5541608 0.30339035 0.11918937 0.35535485
0.120597534 0.12649031 0.07562096 0.40240565 -0.18341175 -0.27663314 -0.18668978 0.39078814
0.116492875 0.061210085 0.34670183 0.019106444 -0.08385804 0.070192315 -0.0337643 0.04053182
-0.025262168 -0.16117932 -0.1897399 0.1444351 -0.032193232 -0.111536056 0.026086386 -0.02426844
-0.35955092 0.11206584 -0.29977632 0.013859426 -0.112846546 -0.051760066 -0.06278476 0.049677823
0.040674966 -0.14095755 -0.1681782 0.0156083945 -0.11494395 0.2066958 -0.18332312 -0.03625965
-0.26793677 0.052881565 -0.13696408 -0.10572883 -0.0035824105 0.008098704 -0.04384684 -0.0046687573
0.17651184 0.015342598 -0.18453139 -0.19077751 -0.09302527 -0.03166136 -0.06645343 -0.49028307
-0.044300143 -0.003787242 0.112028554 -0.09883566 -0.069953166 -0.095153466 -0.41062978 0.12591068
0.043450505 -0.09985692 -0.18985945 0.16081455 -0.038669765 -0.079793274 -0.29677176 -0.5684062
-0.19095817 -0.20789571 -0.2617346 -0.037826445 -0.02915105 -0.15370102 -0.0014170206 -0.30607536
-0.12454137 0.021095322 -0.02118826 -0.1837552 -0.03025622 -0.10042328 -0.2485861 0.05605171
-0.12179346 -0.16543643 0.14521468 -0.04970373 -0.11329583 -0.22868063 -0.09815368 0.17234991
0.53363943 0.0109162815 -0.061078824 -0.070119485 -0.4283283 -0.28613374 -0.37087193 0.060820755
-0.03555715 0.07372419 0.00548205 -0.2688348 -0.16717747 0.06044008 0.07665744 -0.1921994
0.055416867 -0.2968356 -0.07375751 -0.29793617 -0.35463336 -0.009003891 -0.059501324 0.0727147
-0.08918416 0.07037308 0.026512427 -0.24317212 -0.55436844 -0.3171957 -0.123833396 -0.35949498
-0.11748239 -0.12426804 -0.074491456 -0.42965218 0.18744591 0.2964315 0.19088599 -0.39729735
-0.11698035 -0.050431564 -0.33247808 -0.028135628 0.09969708 -0.07370618 0.02581554 -0.046653915

action_model._discrete_distribution.branches.1.bias f4 [2]
00000000: 73d9 5ebd b8da 5e3d
-0.054406594 0.054407805
