results/first/SpaceInvaders/SpaceInvaders-17055.pt (torch, 985271 bytes, 83 tensors)

discrete_act_size_vector f4 [1, 2]
00000000: 0000 4040 0000 0040
3.0 2.0

network_body._body_endoder.seq_layers.0.weight f4 [128, 8]
00000000: 6fb1 44be f8d9 e3be 84fd 3f3e 0fc2 db3d
00000010: cf45 783d 5247 3f3e 31d4 e03e 7d37 fc3d
00000020: b0e5 dbbe 2d9e 17be ea65 db3d eb23 ed3d
00000030: 8def 393f b7f1 c2bd 803e d5bd 75c0 9bbe
00000040: c549 c7be cd70 6f3e 6161 82be dc8d d43d
00000050: aabd 76be 62ee 743e dbc3 a33e a8fa e8be
00000060: 3d1a f73d f473 273d 3526 16bf 24be 67bd
00000070: 216b 6c3e 22b9 d03e ffdd 01be 80eb ba3e
00000080: f4b0 5abe d81a 8dbd bb22 b1bd 23a4 c4be
00000090: 25f8 e83e 72f8 4f3e 935c 243e 0716 d0be
000000a0: 0041 883c e19e 55be 0f70 893e e183 debd
000000b0: 4857 1abd 60a2 093b af24 9fbe c224 863e
000000c0: 4ae2 a93e 6f6e 9e3d b6d1 083f 99cf e9be
000000d0: d9b3 cc3d 380c 4abf 06a5 3dbe 1897 73be
000000e0: 8c33 7e3d 3558 bebd 6fd0 01bf cb41 2f3e
000000f0: 3c07 903c 4c4a 323e 5bae 5e3e fdfc 07bf
00000100: f7dc 743f 9915 e03e 514b b4be ba5f 07bf
00000110: 5e2c 9e3e c18f 5abe 55a4 3dbe 62ec efbe
00000120: 7932 4e3e 75b2 f03e 1b31 093f 18ee 663e
00000130: 9a25 c83e 8ffe eebc bab8 be3e dcff 00bf
00000140: 40c0 14bf 7b9c 9bbe 2a2a adbe badd 55be
00000150: d45b 09bf e077 8a3d 13a1 513e 32e1 5d3e
00000160: 9782 4b3e 5e4f cdbc 57af a2be 7b74 7abe
00000170: a831 a13d 5e6c c33e 2aa9 25bf 852f 47bd
00000180: 71cd cd3e c091 163e 59ce a03e 4a4d 113f
00000190: a473 4a3e c8e6 463d e931 e7be 51d3 d2be
000001a0: 3c04 14bf 6325 9cbe ec66 083f f124 50be
000001b0: b4c8 52be 0a07 cb3e dcc2 ae3e dc33 81bd
000001c0: 4bb8 c43e 4636 e8be 1b62 0dbf 8d02 ad3e
000001d0: f5fc eabb e035 843f 4b38 3bbf 0233 5a3f
000001e0: eb0a 8abd 60a6 1d3e 2e78 1b3f b285 1b3f
000001f0: 9add e5bd 0096 20be d0e0 9dbe aa7b 153e
00000200: 05ce 7dbe c18d 8dbe 61de 13be e079 fb3c
00000210: 14df 30bf 090c 4c3d ff90 b7be c0f2 91be
00000220: 520c b03e 25e6 9aba 9b38 c23e e2b8 39bf
00000230: bb39 b13e aa9e cf3e 2928 c43c 8cdc b9be
00000240: 5bfc 3ebe d1f8 8f3e 8c58 80be 6bc3 b7bc
00000250: f120 083f 8da6 623e caa7 883e ea12 ba3d
00000260: 5aae 483e 61b6 453e fd61 97be e3f7 933e
00000270: d3ee 163e af58 70be f13f 94be ccba 4c3e
00000280: 7c62 52be 5e01 933d 46d5 1e3f 3b89 a2be
00000290: 752c 06be f2b5 b6be f90e a23e e629 bdbe
000002a0: c9df 933e 462f db3c a510 13bf 72d5 6bbe
000002b0: 1f1b 083f e472 4d3e 1da6 a33e 7b4b 8fbd
000002c0: 953f ae3d 3f59 1d3e 8e2c ec3d 5977 33be
000002d0: 2a27 febd 852c 293d 163e 1f3f 7fd4 e0be
000002e0: e8e2 96be 8d65 0bbf e9de d23e fc43 0b3e
000002f0: a7b4 9e3d d64e c23b b7ad ca3b 523b fb3e
00000300: f43a b03e 98f3 84be 1c47 903e 6652 003c
00000310: 758f fbbe a6e9 2dbf 1cf2 833b 5e4c eebe
00000320: ba91 123e 9816 a03e df03 f8be 650f b8bd
00000330: 903a aa3e 4686 d8be 0469 3bbe f236 17bf
00000340: 41b4 1cbe 92ee d83e 1253 1a3e 1fac a13e
00000350: 3baa b53e 6491 bb3e 9e1b 413e 43c5 b6bd
00000360: 56cb c7be aee8 efbe 652d db3c 4785 6b3e
00000370: 779e 013e df2c a63d d4d5 293d 0539 48be
00000380: 3800 903c 00db ebbd 031a 22bc f02a 63bf
00000390: f9fe 923d cc37 293f b0b6 bb3d 56be d5be
000003a0: ddb2 2e3f e533 883d 1604 773e f510 febc
000003b0: 4075 1c3e 5033 c53d dd21 02be fc2e 9a3e
000003c0: a5a0 a13e 0e74 083f be1d aebe 076b 5cbe
000003d0: c457 ac3d 48d6 c1be 55cd b83e 6412 b4be
000003e0: 6fa7 f43e 2175 9d3e b330 69be 2b4a 5a3d
000003f0: 0311 313c e6b0 11be dc01 89be c78c 283e
-0.1920831 -0.44502234 0.18749052 0.10730373 0.06061345 0.1867955 0.4391189 0.12315271
-0.42948675 -0.14806433 0.10712798 0.115791164 0.7263115 -0.0951876 -0.104123116 -0.3042027
-0.3892347 0.23382874 -0.2546492 0.1037862 -0.24095789 0.23919061 0.31985363 -0.45503736
0.120655514 0.040882066 -0.5865205 -0.056577817 0.23087741 0.40766245 -0.12682341 0.36507797
-0.21356565 -0.06889886 -0.086492024 -0.38406476 0.4550182 0.20309618 0.1605094 -0.40641806
0.016632557 -0.20861389 0.26843306 -0.10864998 -0.037680894 0.0021001324 -0.31082675 0.2619992
0.33180457 0.07735907 0.53444993 -0.45666197 0.09995241 -0.78924894 -0.18519983 -0.23788106
0.062060878 -0.09294168 -0.5070867 0.17114942 0.017581575 0.17411155 0.21746199 -0.53120404
0.95649666 0.43766478 -0.35213712 -0.5288044 0.30893224 -0.213439 -0.18519719 -0.46860033
0.20136441 0.47011152 0.53590554 0.22551763 0.39091188 -0.029174117 0.3725031 -0.5039041
-0.5810585 -0.30392823 -0.3382123 -0.20885363 -0.53655744 0.067611456 0.20471601 0.21667936
0.19874035 -0.02506226 -0.317744 -0.24458496 0.07870799 0.38168615 -0.6471125 -0.048629303
0.40195802 0.14704037 0.3140743 0.5675856 0.19770676 0.048559934 -0.45155266 -0.41176847
-0.5781896 -0.30497274 0.53282046 -0.20326592 -0.20584375 0.39653808 0.3413304 -0.063087195
0.38421854 -0.45353907 -0.5522782 0.3379101 -0.007171268 1.0328941 -0.7313277 0.8523408
-0.06740364 0.15395498 0.60730255 0.6075088 -0.11223908 -0.1568222 -0.3083558 0.14597955
-0.24785621 -0.27647212 -0.144403 0.030697763 -0.6909039 0.049816165 -0.3585281 -0.28505516
0.343844 -0.0011817856 0.37933812 -0.72547734 0.34614357 0.4055074 0.023944931 -0.36301076
-0.18650953 0.2811952 -0.25067556 -0.02243205 0.53175265 0.22133847 0.26690513 0.09085639
0.1959776 0.19307853 -0.29566947 0.2890006 0.14739542 -0.2347133 -0.28955033 0.19993132
-0.20545381 0.07177995 0.6204418 -0.31745324 -0.13102897 -0.35685688 0.31652048 -0.36946028
0.28881672 0.02675594 -0.5744727 -0.23030642 0.53166384 0.20063359 0.31962672 -0.06996819
0.08508221 0.15366076 0.11531936 -0.17525996 -0.12409814 0.041302223 0.6220411 -0.43912122
-0.2946999 -0.5445183 0.41185692 0.13600153 0.077493005 0.005929808 0.006185259 0.49068695
0.34419978 -0.25967097 0.28179252 0.007832145 -0.49132887 -0.67934644 0.0040266644 -0.4654264
0.14313403 0.31267238 -0.48440453 -0.08987311 0.33247805 -0.42289943 -0.18301779 -0.59068215
-0.15303136 0.42369515 0.15070751 0.3157663 0.35481438 0.36634362 0.18858191 -0.089243434
-0.3902232 -0.46857208 0.026755044 0.2300006 0.12658106 0.08114027 0.041463688 -0.19553001
0.01757823 -0.1151638 -0.009893897 -0.8873739 0.071775384 0.66100764 0.09165704 -0.41746777
0.68241674 0.06650523 0.24122652 -0.031013945 0.15279102 0.09628928 -0.1270823 0.3011397
0.31567875 0.53302085 -0.34007066 -0.21525203 0.084151775 -0.37858796 0.36094156 -0.3517028
0.47783992 0.30753425 -0.22772484 0.05329339 0.010807279 -0.14227638 -0.2675923 0.16459952

network_body._body_endoder.seq_layers.0.bias f4 [128]
00000000: 792f 343e 9543 a9bd 285b 0ebd 73a3 dcbc
00000010: a97e 253d 4dfa 2f3d f370 6b3d e5a2 d23e
00000020: 7c13 033f 6d46 c8bc 4f2e abbc 849a e33e
00000030: 115c b2bd bf9b 25bd ddaa 74bc 0507 20bd
00000040: 39d9 d43e c0b6 993d 4611 d93c 6a66 83bd
00000050: 2d4a 90bd 598d cd3e 9372 21be 917f 61bd
00000060: 39fc e83d b69a 94bd 5c75 e1bc d72a 66bd
00000070: fcf6 013f f245 c5bb 2cc5 b1bd dc4d f8bd
00000080: 10fa 72bd fa68 b93e 7343 a1bd 8684 3c3c
00000090: 5d00 b8be fd65 66bd 5813 a0bb 727b 4dbd
000000a0: 9448 c6bd bb30 43bd e72a d5bd 8d9f 583e
000000b0: 0560 183f 2376 1e3e aa1a 67bd cb87 0abc
000000c0: 4c62 ca3d d181 013f f227 cf3e 2b93 b23b
000000d0: ceb8 28be d2be 843c 15f6 963d 5cd7 0fbd
000000e0: ac44 7337 ed0f afbe a545 a23d b16d 333f
000000f0: f1b5 81be 6957 bbbd 9f13 f3bb 4292 a33c
00000100: b861 473d 2cd3 533b a6ae 15bc 88c9 edbc
00000110: ebec 80bd 4b5d f5bd 13e7 2dbe 1b59 febd
00000120: 18f2 873d 6d61 42be 5d15 de3d 3685 bb3e
00000130: 007f ddbc 0c24 dc3d afef 203e cd04 00be
00000140: 9b91 903b 656e b33e bf43 52be 0eed 733e
00000150: 7736 1cbd ce26 fbbc a046 16be 233c 353e
00000160: 5a9a 293d e9c0 89be ad59 eb3c 33da 8fbc
00000170: f46e 87bd 6072 82bc 1d65 89be 1c4d 063f
00000180: 3103 76bd 4829 86bd fdef 66bd bb17 7cbd
00000190: 9d61 e9bc 6406 d6be ae6b da3e 2433 b53e
000001a0: 396b a4be e275 d6be c9c6 95bc b512 8abd
000001b0: 87d8 65bd c6f5 01bd 2879 7b3e 3575 6d3d
000001c0: 43f5 2a3d 9483 83be fdfb 583e d3b6 06bd
000001d0: 1d11 f7bd 1477 1ebe 5d0b b13d f0e9 f43d
000001e0: 4447 3f3d 1110 27be 7b78 2fbe 2bb0 dcbc
000001f0: c070 2b3d 91d6 65be f1ac 53bd 727f 28bc
0.17596234 -0.082648434 -0.034754902 -0.026933407 0.040403996 0.042963315 0.057480764 0.41139904
0.51201606 -0.024447644 -0.020896105 0.44453824 -0.087089665 -0.040431734 -0.014933315 -0.039069194
0.41571978 0.0750556 0.026497494 -0.06416018 -0.07045398 0.40146902 -0.15766363 -0.055053297
0.11376233 -0.07256071 -0.027521782 -0.0561932 0.50767493 -0.006020301 -0.08680186 -0.121242255
-0.05932051 0.36212903 -0.07874193 0.011506205 -0.35937777 -0.056249607 -0.0048851185 -0.050166555
-0.09681812 -0.047653895 -0.104085736 0.21154614 0.59521514 0.15474753 -0.056421913 -0.008455227
0.0988203 0.5058871 0.40460163 0.0054496727 -0.16476747 0.016204271 0.07371155 -0.035117492
1.4499918e-05 -0.34191838 0.0792344 0.7008925 -0.25334123 -0.091475315 -0.0074181105 0.019967202
0.048677176 0.0032321913 -0.009135878 -0.029026762 -0.062951885 -0.11980685 -0.16982679 -0.12419339
0.066379726 -0.18982477 0.108439185 0.3662507 -0.027038097 0.10749063 0.15716432 -0.12501831
0.004411889 0.35045162 -0.20533656 0.23820898 -0.03813788 -0.030658152 -0.14675379 0.17698722
0.041406967 -0.2690499 0.028729284 -0.0175601 -0.066129595 -0.015923679 -0.26834956 0.5246141
-0.060061637 -0.065508425 -0.056381214 -0.06154607 -0.028488928 -0.4180175 0.42660278 0.3539058
-0.32113054 -0.41886812 -0.018283265 -0.06741849 -0.0561147 -0.03172853 0.24557936 0.057973105
0.041737806 -0.25686324 0.21189876 -0.0328892 -0.12063811 -0.15475112 0.086447455 0.119586825
0.046698824 -0.16314723 -0.17135803 -0.026939472 0.041855574 -0.22445132 -0.0516786 -0.010284292

network_body._body_endoder.seq_layers.2.weight f4 [128, 128]
00000000: 2dfd 25be 6b36 85bd 84f9 b03d 0337 2abc
00000010: e3bb 093d 420f 42bd 3a59 67bd c629 e53d
00000020: c83e 77bd e9e9 40bd 3b33 3a3e a499 01bc
00000030: 713d a2be 54fb 69bd 1cee 143e a2f3 f53b
00000040: 440d 8a3d 8f97 263e fa81 f2bd 532e 4bbc
00000050: d27e 233a e1bc 2cbe 7db7 873d b5c9 99bd
00000060: aa6b 063e 7e71 2a3e 207f 07be 16f0 4abe
00000070: 1dce 21be 16ed 7dbd a34b 2bbc 634a 493d
00000080: d5b5 ccbd e8c8 653d 6fe1 f63c 1e55 ac3d
00000090: 5ed2 e4bd 00a8 a13d ca81 013e 6685 e13c
000000a0: 71ae 9ebd 1ffb 38be 9304 be3c 36b2 6f3d
000000b0: 0ce4 aebd 1625 97bc ebfd 103e a2b0 a23b
000000c0: e800 a3bc 4cf6 1fbd 8742 fb3b 5198 c13d
000000d0: 89c9 45bd 07a0 963d dcc7 d63d f47e 653e
000000e0: fa7f 403d 5a81 1abe cef3 c8bd a49f f43d
000000f0: 9044 79bd b302 c4bd 6bde e53c 6503 bb3d
00000100: fbcb 873d f794 47bd 6dac f03d a0f6 53bd
00000110: 7f3e e63d b17a 74bd a9d8 26bd 9a01 0cbd
00000120: 3733 27be f310 1bbe ae18 5a3d b1ae 053e
00000130: e333 ce3c 9e7e 473d fd77 bc3d a194 023e
00000140: 1994 b2bc 79f6 27bd 6a03 503c 06f4 0a3e
00000150: e0df 59bd 44a5 92bd c21d 6b3b f45e e73d
00000160: fa17 1c3d 5901 ea3d 0429 e3bd cebd f63c
00000170: 7b98 cc3c d221 613e a771 f7bd 426c 08be
00000180: e170 97bc 7a7f 32bd 22ae 58bd 5e0a 9b3d
00000190: 69a2 38be e17e 583c b716 55be d53b 05be
000001a0: e6e9 78bd ea6a 103d 4e3e 893c c874 92bc
000001b0: c899 b3bd da9e 22be d6a6 c03e 3877 bcbd
000001c0: 5512 77bd ebfc 433d 6d41 a7bd f1e4 fa3c
000001d0: 20b8 42bd 1459 073d 7d68 f3bd d7ac 783d
000001e0: 4c9d 643c 33ae d3bd c098 413d c0df 8dbd
000001f0: 8fb3 4dbc 964b 7fbd 5ac7 67bc f5bd 4d3c
00000200: 358c c7bd 7603 393c 80f5 d8bd 59cd 8a3d
00000210: 26af bfbd ebac 113e 3739 e6bc cce7 21be
00000220: 5e63 cebc a048 b23d bd26 02be 0483 c9be
00000230: ad5d 033e cdda 97bd 2962 fabd ccd0 01bd
00000240: fc3a 9abe 1e3a 0dbe 94fa 50bd 5466 633e
00000250: 0454 23bd a504 84be 6939 a7bd 9b7a a6bd
00000260: 785a ee3c 633a 9c3d b839 14be ec26 89bd
00000270: 4950 c7be 2d8f d8bd aed1 1b3c d7e5 483d
00000280: 0230 803d d184 dfbd eadf aabb b1a6 3d3c
00000290: 4493 213d 87a4 003d 65d3 4dbe eece ff3d
000002a0: e49a a8bd aa8e c13d 0095 b63d 26b3 41be
000002b0: c7d0 80bd bcb5 65be cdbf 8ebc 7f07 f5bd
000002c0: caf7 653e 22e4 76be af35 96be fcc4 633d
000002d0: 131a 303c b484 4f3d 1500 363c 9d2e c53d
000002e0: 4903 b2bd e538 713a 491a 853e ebfc b6be
000002f0: a8d5 2e3d fb5e 84bc 317b 0a3e d1ad cc3e
00000300: f3cc f33d 7387 ca3d 7f40 04be f25f 3ebd
00000310: 3bac 68be aa03 12be 7113 c63c d630 86bd
00000320: 227f 11be d556 15be 28d2 6abe 2f49 9cbe
00000330: 5c14 553c a4af 39be 50a7 91bc 841b 2c3e
00000340: 4702 ecbd e1af 51be 2cb6 993d efdf 15bf
00000350: b42f e23d a6f3 12be bed2 20bd a610 e0bc
00000360: a796 e93d 600e 023d 677c aebd ffd4 913d
00000370: 0987 ccbd 9624 ebbd e753 15bd 9238 cf3c
00000380: 9b31 32be 866b e63c 857c 7fbc 977c 5f3c
00000390: 29df 88be a836 f53c 2bc9 473d 8af9 07be
000003a0: c38e 533c 160e 1bbe d747 20be 8fca 59bd
000003b0: e730 f93d 9c2c dc3d f3c2 20be c306 e7bc
000003c0: cef9 30bb 0bee 4a3c 1657 0abe 8732 2e3d
000003d0: 0a83 933d 7d94 413d 7261 3fbe b5bc 9c3c
000003e0: 9c13 b3bd b890 e13d 28fc cbbb 22a4 d33c
000003f0: b037 8ebd 9562 e2bc 1e50 82bd 2a33 6cbd
-0.1620986 -0.0650452 0.08641341 -0.010389092 0.03362645 -0.047377832 -0.056481577 0.11189608
-0.060362607 -0.047098074 0.18183605 -0.007910166 -0.316875 -0.05712445 0.14543957 0.00750585
0.067408115 0.16268753 -0.11841197 -0.012401181 0.0006236854 -0.16868927 0.066267945 -0.07509176
0.13127008 0.16644856 -0.13232088 -0.19818148 -0.15801282 -0.06199368 -0.010455045 0.049143206
-0.09995619 0.056099802 0.030136792 0.08414672 -0.11172937 0.078933716 0.12647167 0.02752943
-0.07748116 -0.18064545 0.02319554 0.058519565 -0.0853959 -0.018450301 0.14159362 0.004964904
-0.019897893 -0.039053246 0.007667843 0.0945288 -0.048287902 0.073547415 0.10487339 0.2241171
0.046997048 -0.15088406 -0.09812127 0.119445115 -0.060856402 -0.09570827 0.028060159 0.09131507
0.06630703 -0.04872605 0.117516376 -0.05174887 0.11242389 -0.05968732 -0.040733967 -0.034181215
-0.1632813 -0.15143184 0.053246193 0.1305492 0.025171226 0.048704736 0.092025734 0.1275201
-0.021799134 -0.04100654 0.0126961265 0.1356965 -0.05319202 -0.07160428 0.0035875891 0.11297408
0.038108803 0.11426038 -0.110918075 0.030119803 0.024975052 0.21985558 -0.12082224 -0.13322547
-0.018486442 -0.043578602 -0.05290044 0.07570337 -0.18030705 0.013213844 -0.20809446 -0.13011105
-0.060769938 0.03525821 0.016753342 -0.017877951 -0.08769566 -0.1588091 0.37627286 -0.09202427
-0.060320217 0.047848623 -0.08166776 0.030626746 -0.047538877 0.033043936 -0.11885164 0.060711708
0.013953518 -0.1033596 0.047264814 -0.069274426 -0.012555017 -0.062327944 -0.01414665 0.012557496
-0.09743539 0.011292329 -0.105937004 0.06777448 -0.09359579 0.14226119 -0.028103454 -0.1581108
-0.025193866 0.08705258 -0.1271009 -0.3935777 0.12828703 -0.0741478 -0.12225754 -0.031693265
-0.30123127 -0.13791701 -0.05102022 0.22207004 -0.039875045 -0.25784793 -0.08165247 -0.08128854
0.029095873 0.07628324 -0.14475143 -0.06696877 -0.3892844 -0.105741836 0.009510441 0.049047317
0.06259157 -0.109140046 -0.005214681 0.011575387 0.039447084 0.031406906 -0.20100172 0.124906406
-0.08232668 0.09451039 0.08915138 -0.18915996 -0.06289821 -0.22432607 -0.017425442 -0.119643204
0.22457805 -0.24110463 -0.29337832 0.05560778 0.010748404 0.050663665 0.011108418 0.096280314
-0.08692033 0.00092018984 0.25996616 -0.35739836 0.042684227 -0.016158571 0.13523556 0.3997636
0.11904325 0.09889116 -0.12915228 -0.04647822 -0.2272195 -0.1425921 0.024179192 -0.065522835
-0.14208654 -0.14583905 -0.22931731 -0.30524585 0.013005342 -0.18133408 -0.017779976 0.16807371
-0.11523872 -0.20477249 0.0750545 -0.5854482 0.11044255 -0.14350757 -0.03926348 -0.027351689
0.11405688 0.03175199 -0.085198216 0.07120704 -0.099866934 -0.114815876 -0.03645697 0.02529553
-0.17401735 0.028127443 -0.015593653 0.013640544 -0.26732758 0.029933289 0.048775833 -0.13278785
0.012912455 -0.15142092 -0.15652405 -0.05317169 0.121675305 0.10750696 -0.15699367 -0.028201466
-0.0027004364 0.012385855 -0.13509783 0.042528655 0.07202728 0.04726075 -0.18689516 0.019132951
-0.087439746 0.11013931 -0.0062251277 0.0258351 -0.06944215 -0.027634898 -0.063629374 -0.05766598

network_body._body_endoder.seq_layers.2.bias f4 [128]
00000000: 19c5 0abc 3a9c 973c a7e6 3fbe a179 8c3b
00000010: 3e8a 363b df3f 9abc 5187 4c3d 6b30 04bd
00000020: 468a 0dbe afd5 fc3c 3827 5abb 864e dbbc
00000030: 4af8 e3bd cc92 37bc 83d0 0cbd 1673 373e
00000040: 4132 ad3d cb11 813d 05a1 fe3d 529f 1e3d
00000050: f5ee c03c 8cc3 44bc 59c9 163d b72c 18bb
00000060: 270a 323c 7042 da3d 761f 12be d94d fa3c
00000070: 5e43 143d c9bf 51be f32f 0e3e db6d 16be
00000080: 87f5 683d 6315 e2bd c098 3b3d 9a2a a2bd
00000090: 1fe1 793d e1a9 4cbe 1cb6 c7bc 4a62 503c
000000a0: d176 543d c777 ae3c a112 123d b24f 80ba
000000b0: f120 a53d 49f9 383d 8681 103e 37a8 97bd
000000c0: c19f 8e3d b1e4 c3bd 0fdc 5b3d fba2 fb3b
000000d0: 1c6c 90bc dae9 193e 8bcf 6e3e 3648 143e
000000e0: 6b73 bd3c e49a 3fbd 2a70 5a3e e800 f03c
000000f0: bfed 133e 079e 143e 99a9 36bc b9e3 cebd
00000100: 3a87 c4bd e405 fd3b a39e 3fbd 4e90 6b3d
00000110: 028e 803d e624 9e3c 5579 0d3d 8e63 81bd
00000120: d4b7 92bd 657b 1a3d df45 a13d 17e3 88bb
00000130: d5c6 06bb 4bb0 593d 9ddf bf3d 5742 0fbd
00000140: 9a6d b93c 374b 7c3d 83bb 033d 7ed9 553d
00000150: 1b84 97be 366c cebc 5174 bc3e dfa3 803e
00000160: 3a8e fd3d f213 ca3c a42e 54ba e013 083c
00000170: 38b4 063c bd6e 003e 5b16 623d 0473 59be
00000180: a3e7 89bc b407 db3c d04a 103b 12d3 bcbd
00000190: 1ed3 e53d e913 c33d e767 4b3e b38d 023c
000001a0: d6a9 373e 2076 42bd 1429 823b ead7 f6bc
000001b0: ea44 673d fb60 923c 723f 383e 4725 653e
000001c0: 4073 95bd 67c6 ec3d 20b2 25bc beb2 193d
000001d0: 5c6b babd d457 cebd 8425 463e 3706 c63d
000001e0: 46aa 7dbd 84c7 6dbc 4215 dfbd 6f2b 90bd
000001f0: ec3c e6bc 6876 ef3d 05e4 3a3c 4894 b73d
-0.008469843 0.018507112 -0.1874033 0.0042869602 0.0027853395 -0.018829284 0.049933735 -0.032272737
-0.13822278 0.030863611 -0.0033287536 -0.026770841 -0.11131342 -0.011204433 -0.03437854 0.17914996
0.08456851 0.06302222 0.12433056 0.03872616 0.023551444 -0.012009513 0.036813114 -0.0023220011
0.010866678 0.10657203 -0.14269814 0.030554699 0.03619706 -0.20483316 0.13885479 -0.14690344
0.056874778 -0.110392354 0.04579997 -0.07918282 0.061005708 -0.19986679 -0.024378829 0.012718746
0.051871125 0.021297349 0.035662297 -0.0009789376 0.08062924 0.04515961 0.1411191 -0.07405131
0.069640644 -0.09565104 0.05367666 0.007679341 -0.017629676 0.15030614 0.23321359 0.14480671
0.023126325 -0.046778575 0.2133185 0.029297307 0.14446162 0.14513408 -0.011148834 -0.101020284
-0.09596105 0.0077216495 -0.046782147 0.057510667 0.06277086 0.019304704 0.03453954 -0.06317817
-0.07163969 0.037715334 0.07874655 -0.004177462 -0.002056529 0.05314664 0.09368823 -0.034975376
0.02263527 0.061595168 0.032161247 0.05220937 -0.29592976 -0.025198083 0.36807492 0.25125024
0.12380643 0.024667714 -0.0008094108 0.00830552 0.008221678 0.12542243 0.0551971 -0.21235281
-0.016834086 0.026737072 0.0022017248 -0.09219946 0.11221908 0.09525282 0.19863854 0.007968354
0.17935881 -0.047475934 0.003972182 -0.030132253 0.056462206 0.01786851 0.17992952 0.22377501
-0.07297373 0.1156128 -0.010113269 0.037523977 -0.091025084 -0.10075346 0.19350249 0.09669154
-0.061929964 -0.0145129 -0.108927265 -0.07039534 -0.028105222 0.11692506 0.011406903 0.08963829

action_model._discrete_distribution.branches.0.weight f4 [3, 128]
00000000: b185 d73c 767f 76bd 97fa 4b3c cbdf 023d
00000010: c074 b83c 9c27 c0bb af2e 6c3d bd54 113d
00000020: 4097 4c3d cdb2 82bc 24ec 293d 87dd 4bbb
00000030: 3433 3f3a 0fa8 b8bc fe46 60bc d1db 233d
00000040: 6ce7 6b3e 6d06 0e3d 5a3a fabc b0a9 b33c
00000050: 6586 183c 0151 ca3d 0de1 5b3e 216c 0bbd
00000060: e7e0 443d d65b 853d 746c 653b efe0 fd3b
00000070: 49a3 3dbd 22fd 353c 165b 4a3d 233c 6a3c
00000080: 2103 b13c 25d8 903c 44ec 313e 4aef 0b3d
00000090: a60d c53b e430 2e3c e6fd f63c d0b6 673e
000000a0: 4eed f63c 67f5 96bd 156e 803d f787 67bd
000000b0: 62b7 483c 2fb0 5f3d b05c e33c c27b 4d3d
000000c0: d48f 043e 7dcc 973d de9c 77bd 5d47 bebd
000000d0: 582b e63c c86c f83e 1ee2 c53d ca13 df3d
000000e0: 6ce8 e03d 7736 d43a 17c4 0abc 4286 743d
000000f0: 0e83 ddbd 5769 273d 6963 d1bd e33a edbb
00000100: ba43 fe3c 7926 ef3b 5c6a a03b 4f69 b1bb
00000110: 8b77 18bd 4527 d4bc ae32 463e eacb 63bc
00000120: 7fc4 443d c97e 8c3d 42de acbc d1f5 a13d
00000130: 4992 973c efb4 28bd e350 473d e130 cb3b
00000140: 0865 c7ba 6b18 263b 792e e03c 9217 063e
00000150: 5a25 2dbc 77e8 433d fd05 79bd 2320 cdbc
00000160: e0b5 b4bc eaca 663d 391a 7b3d f84c 17bc
00000170: e49f 09bd 93f4 5d3c 50e0 44bc 5bd1 a13c
00000180: 7b5c dbbd 88fa 053d 7cff bc3d 3bd2 613d
00000190: 4360 46be 9477 813d 88bd 313e 5727 51bc
000001a0: 5d50 9ebc 888d 58bc 96c9 283c 62c3 ba3c
000001b0: 5965 803d 9df6 c0bc ec95 ee3c 494f 863c
000001c0: 4c9a 283c c493 b73e 57a4 3bb9 3b66 92bc
000001d0: 8fe4 383c ea15 2fbc 0e7f 853b 34ce 733d
000001e0: c448 92bc bf9c c6bb bfd2 2bbc da36 50be
000001f0: c84c fc3b 00d1 f8bb ce51 9c3c f120 343f
00000200: 3e52 453c 3236 d63d cbd8 ae3c 6637 36bc
00000210: 899a 8b3c a4c3 72bc 0b72 e5bc 28ac 2f3c
00000220: 9543 2abd 52ba 9d3c 112c a0bc 1f55 b0bb
00000230: c320 2f3d a5ef ae3d 65d5 153d 3f48 cc3e
00000240: d8dd 67be db1b 443d 22df 803d 6974 aabb
00000250: 2539 7bbc be35 943d cbf4 42be 63bf 8d3d
00000260: 78dd 883d b25c 5c3e 8b6e 9d3c f512 d93a
00000270: bd0d eb3d a77a 983c 7875 8b3e 822d e83c
00000280: 4851 a13b 30a3 523c 2f8c 34be db63 dc3c
00000290: 0fce d0bc 10bf 2e3b dd94 1bbd 28de 7abe
000002a0: f609 8738 5645 e2bb 221b 61bc 1f61 fdbc
000002b0: 9e7f 51bd 3f26 093d c96e 51bd 52a8 e9bc
000002c0: 38b5 02be eea8 f8bd 9410 27bd 4646 f03d
000002d0: 8ff8 49bd 13d4 0dbf df49 d33e b19f d6bb
000002e0: a914 16be 1ee7 073d 0cfc b0bd f2f0 fbbd
000002f0: 54cc ce3e fd72 f03d e73b 913d 5a2e 523c
00000300: 9cbb 0dbc c097 3a3a e2ee 85bc 5ae1 d53c
00000310: d18f 423e fac0 ed3c 14fd 26be ca5f f83c
00000320: 28cf adbd 875e 86bc 56c0 793b 828b 81bd
00000330: eb60 1d3b a0f4 c33a ccfc 083e 5c32 8ebc
00000340: 750e 4c3c 9105 0f3d 7859 9c3d 27d4 babd
00000350: df08 b73d 3783 e83c 0e46 22be 2ff4 d0bd
00000360: 9f5e 28bd e6b9 07bd 9d02 263b 83e5 eb3c
00000370: 752c 523d a01d ef3d abdf 853d 3b89 aa3c
00000380: f1d9 083e 7ae5 ed3b a107 72bd 4eab 03be
00000390: 1513 373e c5f5 c03c ee89 9b3e 6e10 ca3c
000003a0: eb46 8abd 2ef5 443c 0a3f b83c 4802 cebb
000003b0: e62d 89bc 10fe 303d f56b c83e f0c7 8dbd
000003c0: c7b1 463c ba95 c6be ee9a e93b eaf4 2f3d
000003d0: 37c6 c43b 7d8c 253d 4bd9 c83e 7c9a 1f3e
000003e0: 420d 093d f4ef f7bc 7c54 b03c 7671 b63d
000003f0: 110f f2bb 291e 003e 6860 2fbd ede3 3cbf
0.026308866 -0.06018015 0.012449882 0.031951707 0.022516608 -0.005864097 0.05766171 0.035481203
0.04994893 -0.0159544 0.041484967 -0.0031107382 0.00072937016 -0.022541074 -0.013688801 0.040004555
0.23037499 0.034674097 -0.030545402 0.0219315 0.009309386 0.098787315 0.21472569 -0.034038667
0.048066046 0.06511657 0.003500727 0.0077477614 -0.0462983 0.011107715 0.049403273 0.014296564
0.021607937 0.01768119 0.17375284 0.03416375 0.00601359 0.010631774 0.030150365 0.22628331
0.030142453 -0.073710255 0.062709965 -0.05652615 0.012250753 0.05461138 0.027754158 0.050166853
0.12945491 0.0741205 -0.060452335 -0.09290955 0.02809684 0.48520494 0.09662269 0.10892446
0.10981831 0.0016190548 -0.008469603 0.05969835 -0.10816012 0.040871944 -0.10224039 -0.007239686
0.031038154 0.0072982875 0.0048954915 -0.005414165 -0.03722338 -0.025897631 0.1935527 -0.013903597
0.048038956 0.0686012 -0.021102075 0.07908214 0.018502371 -0.041188177 0.048661124 0.006200895
-0.0015212605 0.0025344144 0.02736591 0.13094929 -0.010567987 0.047829118 -0.060796726 -0.025039738
-0.022059381 0.056345858 0.061304305 -0.009234659 -0.03359975 0.013547081 -0.012016371 0.019753149
-0.107109986 0.03270963 0.09228417 0.055132132 -0.19372658 0.06321636 0.17357457 -0.012765727
-0.01932543 -0.013217337 0.010301968 0.022798244 0.062693305 -0.023555094 0.029124223 0.016395228
0.0102906935 0.35854924 -0.00017894931 -0.017871013 0.011284961 -0.010686377 0.004073984 0.059522822
-0.017856963 -0.006061166 -0.0104872575 -0.20333424 0.0076995827 -0.007593274 0.019081976 0.70362765
0.012043534 0.10459556 0.02134361 -0.011121606 0.017041462 -0.014817152 -0.028008481 0.010722198
-0.041568357 0.019253884 -0.019552262 -0.005381241 0.042755853 0.08541802 0.036580462 0.3989887
-0.2264322 0.047878128 0.06292559 -0.0052018655 -0.015333449 0.07236813 -0.19038694 0.0692127
0.06682867 0.21519735 0.01921775 0.0016561436 0.1147723 0.018613173 0.2723806 0.028342012
0.0049230196 0.01285629 -0.17631601 0.026903084 -0.025488881 0.0026664175 -0.037983764 -0.24498808
6.439157e-05 -0.006905238 -0.013739379 -0.0309301 -0.051147096 0.03348374 -0.051131044 -0.028522644
-0.12764442 -0.12141596 -0.040787295 0.117321536 -0.04930931 -0.55401725 0.41267297 -0.0065497984
-0.14656319 0.033179395 -0.08641824 -0.12301816 0.40390265 0.11740682 0.070915036 0.012828434
-0.008650687 0.00071179494 -0.01634926 0.026108433 0.19000174 0.029022682 -0.16307479 0.030319113
-0.084867775 -0.016402496 0.0038109026 -0.06325437 0.0024014066 0.0014950223 0.13377684 -0.017357998
0.012454619 0.034917418 0.07634252 -0.09122496 0.08937239 0.02838288 -0.15847036 -0.10202824
-0.041105863 -0.03313627 0.0025331147 0.028795963 0.05131193 0.116755724 0.06536802 0.02081739
0.13364388 0.0072600218 -0.059089307 -0.12858316 0.17878373 0.023554692 0.3037867 0.024666037
-0.06751808 0.012021346 0.022490997 -0.006286893 -0.016745519 0.043211043 0.39144865 -0.06922901
0.012127346 -0.38786107 0.0071290648 0.042958178 0.0060050744 0.040417183 0.3922828 0.15586275
0.03345991 -0.030265786 0.02152466 0.0890836 -0.00738705 0.12511505 -0.04281655 -0.7378529

action_model._discrete_distribution.branches.0.bias f4 [3]
00000000: 44d2 a7bd ef5d 393d 5eac 0a3e
-0.08194402 0.045255598 0.13542315

action_model._discrete_distribution.branches.1.weight f4 [2, 128]
00000000: a6ff 28bd f044 863b b169 f6bb 4fc9 14bd
00000010: 92e0 16bc d94e 40bc 7290 d1bc c6f5 f13b
00000020: 632d 27bc 50fa aa3c d573 c23d eb44 9f3d
00000030: dfaf 5dbd 6291 8e3c 3c0f 173b 6321 5cbe
00000040: c3f4 03be f913 a5bd 58e5 ed3c a893 a13d
00000050: 9985 d53b 05b8 193d 2597 7f3c 6ee7 47bc
00000060: 33e8 fbbb 1a84 ebbd 8aae f7bb 1737 1d3e
00000070: a5c6 3f3e 2888 05bb b800 26be 1765 81bc
00000080: a408 d8bb 08bb 6a3a 8b69 09bd 1ea0 e0bb
00000090: ee6e a03b 3182 d53b f4b2 053d 2cec 223d
000000a0: fe51 d9bc d1a2 d5bd 9b00 d1bc 8928 1a3d
000000b0: d025 84bd aec2 17bd 3ca4 cabb cfc3 0c3b
000000c0: 5a14 8bbc 7c02 8dbc 375b dbbb 6027 7abd
000000d0: 2fc0 5d3c 10ab 98be fae9 59be 46ed c0bd
000000e0: 480b 0bbe f959 e53c 7619 d43c 02c8 9cbe
000000f0: 79da d7bc 3dbc 6bbd 8769 8b3d e08e e4bb
00000100: c630 33bc dc4b 6a3c 424c 0d3c 169e fabc
00000110: 0f35 28be 9b41 a13d d313 02bd 8545 65bd
00000120: 2dca e3bc f68e 903c 364c 48bc 8cbf 293d
00000130: 46fb f5bb d307 813c eee8 9abd 20c6 30bc
00000140: 50be 57bc 1220 5bbd 60ca 92bc c249 01bd
00000150: 3814 ec3b 7efc 8ebc 420b 6d3d 3bf0 543c
00000160: b57b 9bbc 77cc 8abd 960d ac3d 0763 cfbb
00000170: 1c7b 7c3d 4d55 9abd c488 fbbb 0f44 983a
00000180: 319a f7bb c5d6 bdbd 5d22 21bb 75b2 0cbe
00000190: d35e 153d 10bf e4bd e270 74be 205d 88ba
000001a0: 3fb7 023c 8910 b9bc dac1 b13d 6c81 0c3b
000001b0: 0267 16bd 5032 6a3e 5a2d 15be db17 023d
000001c0: 2724 c23b b87f 58be c457 cabd 81bc ee3b
000001d0: c273 df3b 37ed febc 00d5 0cbe c36a 76bd
000001e0: 198c 383b cef4 743d 2b59 3abc 8c78 20be
000001f0: 2bf3 803c f35f babc 81f4 7abb 9f12 28be
00000200: b6b2 793d ebdc 403b c3a3 31bc 52d6 5b3d
00000210: 1878 c03a 0c92 e03b b573 dcba ae6c 453b
00000220: ec7b b83c 5aea 5ebb 03ec a7bd 74a8 a1bd
00000230: eedf 2f3d 21f4 37bd 5c20 0f3a 77be 5d3e
00000240: 9230 ee3d 754c b23d 8033 eebc 78ba b5bd
00000250: 2c99 9a3a 1420 c1bc b19c aebc ec37 563c
00000260: 8483 2fbc f5f1 c93d 566e 0abc fb59 20be
00000270: 771c 57be d847 713b ac23 203e 2db8 81b9
00000280: 7e93 d63c dd1a e5ba 47d5 213d deb1 203c
00000290: 86c4 55bc 0774 403c b1ca 1fbc 4efc 00bd
000002a0: 2a8b 50bb 1373 d53d 3736 2d3d 544f 09bd
000002b0: 674d 803d 9017 a73c eaa2 bb3c 14a5 47bc
000002c0: 9406 9b3b 1254 803c 39c9 c1b9 7f31 7a3d
000002d0: 6bee 8b3c aa73 933e 87ed 683e 1b9f f33d
000002e0: 7252 073e db05 90bc 6ee4 babc e666 9f3e
000002f0: 4f08 693c ed7b 783d 1f50 90bd f427 103c
00000300: f1e7 c8bb b2ae e53a 284c 40bc f683 ee3c
00000310: 6513 3b3e 94ea c2bd b534 1a3d 1451 5b3d
00000320: 702a 173d 1e47 86bb 5fda efbb 7b48 2dbd
00000330: d92d 123c 507a 1fbb 4352 9b3d 780e 283c
00000340: 3481 d73a 164a 223d 44fe 903c 89a4 1f3d
00000350: fb3a faba a4eb 8c3b 9403 3cbd 0849 04bd
00000360: befc ae3b 7650 8b3d 19cd 97bd 18b6 03bc
00000370: 06a6 58bd bc18 a33d 44fa 20ba 8913 7cbb
00000380: 195f fabb cc97 d23d 3e8a 103d ba47 153e
00000390: aefd dabc 0860 dd3d e09d 5b3e 131c bd3b
000003a0: fd5b 7cbc 9211 38bc 19cf b2bd 98df dabb
000003b0: cadc 663d 5701 6abe 3647 103e 7203 c5bc
000003c0: 0637 b33b a735 723e 3c57 c53d 21b6 89bc
000003d0: 641a 15bb 9651 0b3d 5529 093e f2b3 8a3d
000003e0: 7775 3ebb d0d9 63bd 7d76 b23c 6b8a 233e
000003f0: f8f7 febc 80fd 743c 1b8a 793b d560 193e
-0.04125943 0.0040975735 -0.0075199236 -0.036324795 -0.009208815 -0.011737549 -0.025581572 0.007384035
-0.010203692 0.020871311 0.094947495 0.07776817 -0.054122802 0.017403308 0.0023049852 -0.21497111
-0.12886338 -0.0806045 0.029040024 0.07889491 0.00651617 0.03752901 0.0156000005 -0.012201173
-0.0076875924 -0.11499806 -0.0075586485 0.15353046 0.1872812 -0.0020375345 -0.16211212 -0.015795274
-0.006592827 0.00089542614 -0.03354792 -0.006855025 0.0048960363 0.006515764 0.032641366 0.039776012
-0.026528355 -0.104314454 -0.025512984 0.037636314 -0.06452525 -0.037050895 -0.006184129 0.0021479016
-0.016977478 -0.017213099 -0.0066942233 -0.061072707 0.01353459 -0.2981801 -0.21280661 -0.09420256
-0.13578522 0.027997004 0.025891047 -0.30621344 -0.026349293 -0.057552565 0.06807237 -0.00697504
-0.010936921 0.014300313 0.008624138 -0.03059296 -0.1642649 0.078738414 -0.031757187 -0.055974502
-0.027806366 0.017646294 -0.012225201 0.04144244 -0.007506761 0.015750801 -0.07563959 -0.010789424
-0.013167933 -0.05349738 -0.017918766 -0.03156448 0.0072045587 -0.017454382 0.057872064 0.0129967285
-0.018979887 -0.0677728 0.08401029 -0.0063289437 0.061640844 -0.07535801 -0.007676216 0.0011616963
-0.007556223 -0.0926948 -0.0024587133 -0.13739951 0.036467385 -0.11169255 -0.23871186 -0.001040373
0.00797826 -0.022590892 0.086795524 0.0021439446 -0.03671933 0.22870755 -0.14568081 0.03176103
0.00592472 -0.21142471 -0.09880021 0.007285655 0.0068192193 -0.031118972 -0.13753128 -0.06016041
0.0028159677 0.059803776 -0.011373798 -0.15670985 0.015740952 -0.02275083 -0.0038292708 -0.16413353
0.060961448 0.0029428552 -0.0108422665 0.05367119 0.0014684228 0.0068533476 -0.0016819151 0.0030124593
0.022520028 -0.0034014196 -0.081993125 -0.07893458 0.042938165 -0.044910554 0.0005459839 0.21654688
0.11630358 0.08705989 -0.029077291 -0.08873457 0.0011794916 -0.023574866 -0.02131495 0.013074856
-0.010712508 0.09860603 -0.008449158 -0.15659325 -0.21006952 0.0036816504 0.15638608 -0.0002474202
0.026193377 -0.0017479319 0.039510038 0.009808032 -0.013047343 0.011746413 -0.009752915 -0.031490617
-0.003182123 0.10422339 0.04228803 -0.03352292 0.06264763 0.020396978 0.022904832 -0.012185354
0.004731009 0.015665088 -0.0003696175 0.06108236 0.01708146 0.28799182 0.2274686 0.11895581
0.13215044 -0.017580917 -0.022814002 0.31133193 0.014223172 0.06066506 -0.07046532 0.008798588
-0.006131165 0.0017523377 -0.011736907 0.029115658 0.18269117 -0.095173985 0.03764792 0.05354412
0.036905706 -0.0040978333 -0.007319733 -0.04230545 0.008922064 -0.0024334379 0.075840496 0.010257356
0.0016441704 0.039621435 0.017699368 0.038975272 -0.0019091064 0.0043005515 -0.04590185 -0.03229621
0.005340188 0.06802456 -0.07412166 -0.00803902 -0.052892707 0.07963702 -0.0006140808 -0.0038463792
-0.007640731 0.10282859 0.035288088 0.14578143 -0.026732292 0.10809332 0.21446943 0.005771169
-0.015402791 -0.011234658 -0.08730907 -0.0066794865 0.056362905 -0.22852074 0.14089665 -0.024049494
0.005469206 0.23653279 0.09635779 -0.016810479 -0.0022751326 0.034013353 0.13394673 0.06772603
-0.0029061714 -0.055627644 0.021785015 0.15970771 -0.0311241 0.014953017 0.0038076702 0.14978345

action_model._discrete_distribution.branches.1.bias f4 [2]
00000000: 8c4f 833d 904f 83bd
0.06411657 -0.0641166

q1_network.network_body._body_endoder.seq_layers.0.weight f4 [128, 8]
00000000: 531c 6a3f c215 16be fe87 953e d97c 203f
00000010: e848 c13e 41bd 3639 ee74 0ebe 69bf 813e
00000020: 8b31 153d e878 a9be 1b30 e5be e6c1 8dbe
00000030: 4c5e 0cbf 920a 32be 1f4f 3b3e 4487 c43e
00000040: cf6c aebc 5fd5 a4be a26f 413e a0f6 eebe
00000050: 1792 d83e 0516 eebe 6b6f 04bf 88eb f1be
00000060: cf7d b03e 1f5f 203f 6e61 ecbd 52e9 b13e
00000070: 6688 3dba 9932 13be 94c0 bfbd a9fe 90be
00000080: efc5 61be 4062 3bbd d5f1 adbb 7df6 4d3e
00000090: 96fa 9ebe f9fa cbbc 7f4e 9b3e e775 8f3d
000000a0: 2b38 b53e efe9 193c 93bd 1ebe 775e b73d
000000b0: c53b 113e 0b9f 433e 9d13 d3bd 5841 983e
000000c0: 9d86 593d 060e 063e 4810 a5be ae98 2f3d
000000d0: b5e9 893e 73a0 223f 69ae 413e 0390 023f
000000e0: 0eb4 b3be c817 e73e 829e 1cbe 2f8d a03d
000000f0: c819 6dbe 4653 e73e bcd4 233e 11cf cd3c
00000100: bd0c 4dbe 9378 53be 857f 5c3e 3599 be3e
00000110: 4692 7fbe 72d6 5bbd 3e33 cbbd f3bf 6dbe
00000120: 0aaf 0b3f ce52 b13e 39a6 253e 1a14 b0bd
00000130: 0798 0dbf e472 0abf 50dc 57be 9d4c d4bc
00000140: 7b38 18be 94b5 673f c843 8d3d 3221 c8bc
00000150: 4cf2 ebbe 441c 45be 177a a0be ecb4 3ebd
00000160: ed0a 213e 78a1 043f 0808 ab3e b541 963d
00000170: 25b4 8a3d d83f a8bd 3833 52be c423 b13d
00000180: 92bc f03c b063 c23e ad37 0bbe 2930 3ebe
00000190: e6f7 903e ae7f d7bc beb0 8d3e c65b da3e
000001a0: a49b 383f 50ae 3f3e dea0 cb3e 36a4 9abe
000001b0: 3ebb f83e 5669 42bf 421f 293e 3eb2 063f
000001c0: a510 9b3e 283f bebc 9e65 463e e77a ddbd
000001d0: f7d1 af3c ee68 363d 3163 16bf 9165 ff3e
000001e0: 15cf 93bd c297 f93d 7231 02bf 51cd 2d3e
000001f0: 6fa5 333f 7783 ac3e 7016 f0bd 4898 84be
00000200: 7ace c93e f0f0 5fbe 1a18 3cbf f10c b43e
00000210: 899d a63e 57b0 183f 649f 0cbf 2e64 323c
00000220: 1877 643c 9e5e 1c3e aa22 23bf 19c6 5fbe
00000230: 910b 9dbe 9c65 363f 84c6 5ebd 443a cabd
00000240: a16e d9bd 3f44 9a3d f44e febe 22a1 f6bd
00000250: d70b d83d d229 23bf 889c 533d 8577 be3e
00000260: a57a 953d 5f90 b43e 6966 3bbd d667 74bb
00000270: db8e 82be 191b 303f 0360 f43d 37b3 a03e
00000280: d4e5 abbe a5b4 91be 4026 f23e efc0 ce3d
00000290: 5a41 6f3e cc28 863d 0fbf 0c3f bcb2 26be
000002a0: c5e0 413e 45a4 333e b6fc 2fbf 76b1 1d3d
000002b0: f559 c2bc af8a bf3d 89d0 1bbd e22a 25be
000002c0: ba1b 9a3e 63df 57be 6cce e93d e53c 573d
000002d0: 91c2 fe3e b667 62bc d8f0 cebd 7788 6a3e
000002e0: affe 1b3f f795 633e 9630 2fbe eb9a ecbb
000002f0: 777d cebe c038 843e fd4d 403d 8599 513f
00000300: 807a e8bd 760a d9bd 951c 22bf 71be 723e
00000310: e582 883e 547f 23bf 0b57 db3e 1601 6b3e
00000320: f8c2 a3be c60f e03e fa3c a43d 3728 b5be
00000330: 67bd 293e 20a8 d63e be25 f83d b491 1a3f
00000340: 8498 cf3d 7fc8 4a3e 7f0e d4be 2857 1abd
00000350: 72aa d83e eddf d9bc 6445 66be d3f1 0a3e
00000360: f492 00be 2625 8abe 28d2 1abe 0ecc 893e
00000370: a222 1abd 0680 4dbe 5ea0 50be 2092 d13e
00000380: 3595 2d3f 8f74 96bc ddc5 95be 9df8 9a3e
00000390: 5d72 963e 8c8c 11bf f9b8 88be 3bdf 823e
000003a0: 2691 033e e4df 843e 3a56 6e3d 8e00 993e
000003b0: 0da8 83be 54ef 123c 763e 73be ff1b 87bd
000003c0: 730d aebe f205 2e3e f4b1 c43e 5c55 08be
000003d0: ee38 163e 3086 cfbe f9ad 653e b98f 82be
000003e0: 4039 75bd 66cb dbbd df57 1f3e 53c7 c33e
000003f0: 7701 7b3e f9d8 253e d8e3 94be 14ac 00bf
0.9144947 -0.14656737 0.29205316 0.626905 0.37750936 0.00017427375 -0.13911793 0.25341347
0.0364242 -0.33100057 -0.44763264 -0.27686995 -0.54831386 -0.17386845 0.18291901 0.3838445
-0.021292118 -0.3219404 0.18890241 -0.46672535 0.42298958 -0.46501175 -0.5173251 -0.4725001
0.34470984 0.62645143 -0.11542021 0.34748322 -0.0007230103 -0.1437477 -0.09362903 -0.2831929
-0.22048162 -0.045747995 -0.0053083696 0.20113559 -0.31050557 -0.024899947 0.30333325 0.0700491
0.35394415 0.009394153 -0.15502004 0.089535646 0.14182957 0.19103639 -0.10306475 0.29737353
0.053106893 0.13091287 -0.32238984 0.042870216 0.26936117 0.63526076 0.18914188 0.51000994
-0.35098308 0.4513533 -0.15294841 0.07839429 -0.23154366 0.4518072 0.1599912 0.025123151
-0.2002439 -0.20651464 0.2153302 0.37226263 -0.24958143 -0.053671308 -0.09921883 -0.23217754
0.54563963 0.34633487 0.1617669 -0.08597584 -0.553101 -0.5408156 -0.21080136 -0.025915438
-0.14865296 0.9051144 0.06897694 -0.024429891 -0.46083295 -0.19249064 -0.31343147 -0.04655926
0.15726824 0.5180888 0.33404565 0.07336751 0.06772641 -0.08215302 -0.20527351 0.086494
0.029386792 0.3796668 -0.13595457 -0.18573059 0.28314131 -0.026306 0.27673906 0.42648143
0.7211249 0.18718839 0.3977117 -0.30203408 0.48580354 -0.7594198 0.1651583 0.52615726
0.30286136 -0.023223475 0.19374701 -0.108144574 0.021462424 0.044533662 -0.58745104 0.49882177
-0.07217232 0.12187149 -0.508567 0.16972853 0.70174307 0.3369405 -0.117230296 -0.2589743
0.39415342 -0.21869254 -0.73474276 0.35166124 0.32542065 0.59644073 -0.5493071 0.0108881425
0.01394441 0.15270469 -0.6372477 -0.21852912 -0.30672887 0.71248794 -0.054388538 -0.098743945
-0.10616804 0.07532548 -0.4966961 -0.120424524 0.10549133 -0.6373569 0.05166295 0.3720056
0.07298783 0.35266396 -0.045751963 -0.0037293336 -0.25499615 0.6879135 0.11932375 0.3138673
-0.33573782 -0.28458133 0.47294807 0.10095393 0.23364773 0.0655075 0.5497903 -0.16279119
0.18933399 0.17543133 -0.6874498 0.038499318 -0.023724535 0.09352624 -0.03804067 -0.1612964
0.3009928 -0.21081309 0.11416325 0.052548308 0.49757817 -0.013818672 -0.10104531 0.2290362
0.6093549 0.22225176 -0.17108378 -0.007220616 -0.40330097 0.25824547 0.046949375 0.8187488
-0.1135149 -0.105976984 -0.6332486 0.2370546 0.26662365 -0.6386616 0.42839846 0.22949633
-0.31984687 0.43762034 0.08019443 -0.35382244 0.16576158 0.41925144 0.12116574 0.60378575
0.10136512 0.19803046 -0.4141731 -0.037680775 0.4231754 -0.026596034 -0.22487408 0.13568811
-0.12556058 -0.26981467 -0.15119231 0.26913494 -0.037630685 -0.20068368 -0.20373675 0.40931797
0.67805797 -0.018366126 -0.2925252 0.30267802 0.29384127 -0.5685508 -0.26703623 0.25560936
0.12848338 0.25952065 0.0581877 0.29883236 -0.2571415 0.008968193 -0.23754296 -0.06597137
-0.33994636 0.16994455 0.38417017 -0.13313812 0.14670154 -0.40532064 0.22429647 -0.25500277
-0.05986905 -0.107321545 0.15560864 0.3823801 0.24512278 0.1619605 -0.2908008 -0.5026257

q1_network.network_body._body_endoder.seq_layers.0.bias f4 [128]
00000000: 5f35 2ebd 4b6a 773e 5791 3c3e 29c2 25bc
00000010: db2e 6abd ed1f 94bc 8d48 75bc 6d20 96bd
00000020: ae15 93bd a12d b93c b992 403b e779 5a3d
00000030: 41be 9cbc 74c9 e4bc 5030 633d 537d 8cbd
00000040: 143c dabb 1d7a 3bbd 27c4 30bd d2cd 40bc
00000050: 1f09 043d 6b18 6abb 5f4b febc 8047 c63d
00000060: aeb0 a63d 10f3 4abd 9cca 88ba 5fcf 883e
00000070: 3055 df3b 4935 423c 261a e33c 6e8f 6fbd
00000080: 578b ca3c 4a67 4b3c 8a7c febb acdc 70bd
00000090: 5d59 68bd 2239 713d fc3e 0cbd d818 a03d
000000a0: cc67 02bd d1e6 1a3d 2bc3 9f3b 2bbd 423c
000000b0: b5ac 553d 0581 e6bc 3852 abbc bdce 373d
000000c0: ead6 203c 5637 10bd 5567 43bd 7d66 42bd
000000d0: 4833 62bc f3b8 b53d 44f7 853d 6790 6a3c
000000e0: b397 5abc cdf3 a73c 3c32 76bc 574c 913d
000000f0: a47d 4ebd dbed 5e3e a8f3 1abc d6c1 cbbb
00000100: f91b 393d bd62 523d 0436 a23c 4f4c 38bc
00000110: aa0d 013d 3e87 b33d 39ed 2d3d 402f f63d
00000120: 007e d03d 98bc 843d f8d3 de3d 49f9 c73d
00000130: 7cb1 e8bc 478e 223e cd49 91bd d282 eb3a
00000140: 7839 87bd 25e2 f43c 8f78 6ebc e5c2 ed3c
00000150: 918c 883d d920 d23c 20a1 2b3d 6218 663d
00000160: 932e fbbb 8718 163e 9332 d03c 3ecb ea3d
00000170: d28e 4dbd d118 883d b16e a3bd 5112 28bc
00000180: 6930 cfbc 86cc 163d 2ff0 143c 6cea 73bc
00000190: 08f5 203d 1dd4 843d 57a8 5ebd 029a 413d
000001a0: e0fd 86bd f683 2ebc 9999 053e 00b7 19bd
000001b0: 9290 fdbb 9a9e fcbb 80b8 6fbc 0978 8e3d
000001c0: af27 febb 63fa 243e d0c8 59bc ada8 2a3d
000001d0: 4ca2 ce3d ef84 e8bb 08fc 363d 5923 bfbd
000001e0: 8892 33bd c01a 77bd d88f 10bc 85d2 4a3d
000001f0: 28ce 4c3d 59c5 0cbd 13c0 103e cb57 bebd
-0.042531367 0.24161641 0.18414818 -0.010117092 -0.05717359 -0.01808163 -0.014970911 -0.073304035
-0.071818694 0.022604765 0.0029384329 0.05333891 -0.019133689 -0.027928092 0.055465996 -0.06859841
-0.006659994 -0.045770753 -0.043155815 -0.011767821 0.03223526 -0.003572012 -0.0310418 0.09681606
0.08139168 -0.04954821 -0.0010436359 0.26720712 0.006815575 0.0118535245 0.02772243 -0.058486395
0.024724646 0.012414763 -0.007766311 -0.0588042 -0.05672585 0.058892377 -0.034239754 0.078172386
-0.03183727 0.03781778 0.0048755608 0.0118859215 0.05216666 -0.028137693 -0.020913228 0.044874895
0.0098168645 -0.035209022 -0.047705967 -0.04746102 -0.013806172 0.08873167 0.06541303 0.014316655
-0.013341832 0.020501995 -0.015026625 0.07094639 -0.05041279 0.21770422 -0.009457506 -0.0062181754
0.045192692 0.051363695 0.019801147 -0.011248662 0.03150717 0.0876603 0.04246256 0.12020731
0.101802826 0.06481284 0.108802736 0.09764344 -0.028404944 0.15874587 -0.070941545 0.0017968065
-0.06602758 0.02989299 -0.014555111 0.029023597 0.06667436 0.025650429 0.041901708 0.056175597
-0.007665464 0.14657794 0.02541474 0.114645466 -0.050185032 0.06645358 -0.07980097 -0.010258273
-0.025291638 0.036816142 0.009090467 -0.0148874335 0.03929618 0.0648577 -0.05435976 0.047266014
-0.065913916 -0.010651579 0.13046874 -0.037528038 -0.0077381814 -0.0077093365 -0.014631391 0.06956489
-0.0077561955 0.1611114 -0.013292506 0.041664768 0.100895494 -0.007095925 0.04467395 -0.09332914
-0.043840915 -0.060328245 -0.0088233575 0.049517173 0.050001293 -0.034367893 0.1413577 -0.09294089

q1_network.network_body._body_endoder.seq_layers.2.weight f4 [128, 128]
00000000: 6fff 09bd 6cd6 88bd e96a 503d 01d3 613d
00000010: b585 11bd 9933 4bbd 471b 0f3d a034 3ebe
00000020: bf75 313c b399 103d 7a48 d7bd 9e08 633d
00000030: 1bf3 be3d 7396 40be 28c8 f83d 90df 153e
00000040: 123c bbbc 6e4c 24be 816c 1b3d bc2d 913d
00000050: 7c19 e2bc eb71 68be 780d a33d 53cb 2f3d
00000060: 0c86 1b3e d7ce a13d ddba 223c 1822 bdbd
00000070: 1636 ddbc b7fe 043e 2488 22bd f5d4 cebc
00000080: 4475 cf3c 8b2a 4e3e 2786 533e ab84 7ebb
00000090: 7c5c d7bc 8f15 123c c265 ccbd 928f 9fbd
000000a0: 2c26 973a eb35 85bd 701a 343c d060 a63c
000000b0: 6990 bf3d 0df9 e93b fd21 23bc f696 1c3e
000000c0: aebf c03d fb72 c9bd 1eb0 9a3d 0d72 aebd
000000d0: ec6c 97bd 6e8d febc 74ce e0bd d7d0 a13e
000000e0: 76dc 8d3d 3105 bfbc f0f3 ed3d af77 333e
000000f0: 5ecc 8f3b ba25 81bd 0997 a13d 5d7c 773c
00000100: 78fc f33d f2b9 8e3d d5bb 263c 3bff c53d
00000110: 7880 99be 2aa1 21bd ea4f 813d 036d e0bd
00000120: 4046 edba 4e28 79bd 5128 fdbd 129c ec3a
00000130: 35cc 243d 42c5 d83d 0465 173b f555 963c
00000140: f4ae 33bd 96b5 a2bd a519 febd 2f3d bd3b
00000150: e89f 113e 1c2d bcbc 5c0a 1e3d 9bd6 3cbe
00000160: 6e17 993d b52e 94bd afdc 063e ce23 7fbd
00000170: 8169 6ebd df49 a1bd 0f92 c53c 342a 9ebd
00000180: 4df2 9c3c 1a3c ab3d 3a8f 493d 6086 3dbe
00000190: 7b62 13be 74b5 253e 0f43 773c 5c93 b2bb
000001a0: b771 993d 37b5 5dbd 4035 a5bc 8595 99bd
000001b0: f72b 88bd 3cf7 0f3c ef9d 02be 56aa 063e
000001c0: ba8a 0b3e 3989 3cbd cf0d 283d 9389 b43d
000001d0: 629a 74bc 411f e33d 1209 cabd 9c70 b53b
000001e0: 2a26 3d3d df1f 023c 7c71 9a3d ebad d9bb
000001f0: 3fff b4bc d368 4e3b fc55 bf3d 10a3 903b
00000200: 6682 0f38 f320 a43e e5d0 a93d b665 493c
00000210: fe47 243d d77c 413e ad4d c0bd 1cc0 583a
00000220: 408e 7cbb 7e02 bd3d 95d2 773d c6f6 a8bd
00000230: 80c9 b7bc 50f7 913d 69aa 1b3e 3e9b 05be
00000240: d600 2d3d 4dfc 553c d152 9f3c 497f dbbd
00000250: f110 893d 5928 96bc 3424 4cbd db66 af3c
00000260: 31e0 1c39 d245 0f3d 179d b7bd e2c7 603d
00000270: 72a7 bcbd 6d5f acba 1162 d9bc 0c0e d73c
00000280: c414 543e 956f a33c 182b c83d b943 f63d
00000290: b099 59bc 784d 323e 3470 dd3c ee6d 033e
000002a0: 1005 15be 3573 ccbd f02e 643e dc68 82bd
000002b0: 747c e8bd 4fd6 81bd 298d a73b 10ed 54bd
000002c0: 9be9 343e e406 d93c 87e0 963b 57ce c9bd
000002d0: c080 c33d 8a19 6f3d b102 e3bc ec9b 1f3d
000002e0: 55d7 c0bd 8740 24ba efe4 4d3e 960e 153e
000002f0: 0cae 713d 31b4 9f3e bded 49bc f23a 253d
00000300: 0e80 aebd 6f94 323e 8a8b 9dbd 8c91 213d
00000310: 1142 12bd e0f9 5d3a b934 993d eb46 ce3d
00000320: e3f5 8fbc 97a0 a6bd f315 dd3d 4111 bdbd
00000330: c409 193e 8297 e43c 4936 41bd ac6b 543d
00000340: 50c5 82bd efcd 69bc 73e6 9abd 2784 1c3d
00000350: 6a0b d4bd 7b75 f23d 3b9f 2fbd caf0 5fbd
00000360: e43f adbb 2016 7b3d de34 f2bd 438c 213e
00000370: 7edf d9bd 86f1 2b3d d595 ca3c c643 0cbc
00000380: 8eed 8dbd 721c e63b 61bc cfbd bb30 ee3d
00000390: 03b9 263e 1a2e 263d 1d82 c3bd a2ff 06be
000003a0: fd1f 0d3d 70f5 8a3c 0afa ed3c c710 c23b
000003b0: 43c3 edbd fc9d 1fbc a87f 203d ebf8 2b3d
000003c0: 6deb d4bd 605f 1f3e fef1 a8bd d7cf 34bd
000003d0: 4054 603d 18f5 853d f1b3 b53d bcf0 243c
000003e0: 698b 07be 7f25 a03c 628f 433e 2997 a43b
000003f0: 47bf 1cbe 1d69 cebd 5e12 5f3e 5f53 d43d
-0.033690866 -0.06681523 0.050883207 0.05513287 -0.035527904 -0.049609754 0.034938123 -0.18574762
0.0108312955 0.03530283 -0.10511871 0.05542814 0.093237124 -0.18807392 0.12147552 0.14636064
-0.022855792 -0.1604478 0.037945274 0.07088801 -0.027600043 -0.22699706 0.07961553 0.042918514
0.15187854 0.0790078 0.009932247 -0.092350185 -0.02700333 0.12987791 -0.039680615 -0.02524803
0.025324471 0.20133416 0.20656644 -0.00388364 -0.026289217 0.008916273 -0.09980346 -0.07791056
0.0011531762 -0.06504425 0.010992631 0.020309836 0.09353716 0.007140285 -0.009956834 0.15291962
0.0941156 -0.09836384 0.07553123 -0.08517847 -0.07393822 -0.031073298 -0.10976878 0.31604645
0.06926815 -0.023317905 0.11618793 0.17526124 0.004388376 -0.06306024 0.07890136 0.015105334
0.11913389 0.0696906 0.010176619 0.09667822 -0.29980826 -0.03946034 0.063140705 -0.10958292
-0.0018102601 -0.060829453 -0.12361205 0.0018051884 0.04023381 0.10584499 0.0023100981 0.018351534
-0.04386802 -0.07944791 -0.12407235 0.005775116 0.14221156 -0.022970729 0.0385841 -0.1844124
0.07475172 -0.07235471 0.13170122 -0.062290005 -0.058206085 -0.07875418 0.024117498 -0.07722893
0.019158507 0.08361073 0.049208857 -0.18508291 -0.14393036 0.161825 0.015091672 -0.0054496955
0.074923925 -0.054127898 -0.020166993 -0.07499222 -0.06649011 0.008786973 -0.1275556 0.13150916
0.13627139 -0.046029303 0.041028794 0.08815303 -0.014929386 0.110899456 -0.09865011 0.0055371057
0.046178974 0.007942169 0.07541177 -0.006643047 -0.022094367 0.0031495586 0.09342572 0.00441397
3.42153e-05 0.32056388 0.082917966 0.012292316 0.04010772 0.18895279 -0.093898155 0.00082683726
-0.0038536936 0.09228991 0.06050356 -0.08250193 -0.02243495 0.07127249 0.15201725 -0.13047501
0.042237125 0.0130606415 0.01944867 -0.10717637 0.066926844 -0.018329786 -0.049839213 0.02141135
0.00014960837 0.034978695 -0.089655094 0.054878123 -0.09211625 -0.0013150998 -0.02653602 0.026251815
0.20711046 0.019950667 0.097738445 0.12024636 -0.013281271 0.17412364 0.027031042 0.12834904
-0.14552712 -0.099829115 0.2228353 -0.063676566 -0.113518625 -0.06339704 0.005113263 -0.051983893
0.17667238 0.026492544 0.0046044025 -0.09853809 0.095460415 0.058373965 -0.027711244 0.038967058
-0.09416071 -0.0006265719 0.20106862 0.14556345 0.059003875 0.31192163 -0.012324748 0.040339418
-0.08520518 0.17439435 -0.076926306 0.039445445 -0.035707537 0.0008467715 0.07480759 0.1007212
-0.017573303 -0.08136099 0.10795202 -0.092318065 0.14945132 0.027904276 -0.04717091 0.051860496
-0.063852906 -0.01427029 -0.07563486 0.038211968 -0.103537396 0.11838814 -0.042876463 -0.054672994
-0.0052871574 0.061300397 -0.1182649 0.15776162 -0.10638331 0.04197838 0.024729649 -0.00856108
-0.069300756 0.007022434 -0.10143352 0.11630388 0.16281514 0.04057131 -0.095463015 -0.13183454
0.034454335 0.016962737 0.029049892 0.00592241 -0.11609509 -0.009742256 0.039184242 0.041985434
-0.103964664 0.15563726 -0.08249281 -0.044143524 0.054767847 0.065408885 0.08872212 0.010067161
-0.13236775 0.01954913 0.19097665 0.0050229025 -0.15307342 -0.100786425 0.2178435 0.10367464
