results/first/SpaceInvaders/SpaceInvaders-5940.onnx (onnx, 79910 bytes, 9 tensors)

discrete_act_size_vector f4 [1, 2]
3.0 2.0
00000000: 0000 4040 0000 0040

network_body._body_endoder.seq_layers.0.weight f4 [128, 7]
-0.15201089 -0.07002685 -0.07765432 -0.5400292 -0.15309055 -0.103531815 0.45462736 -0.20247029
-0.30513337 0.14309408 0.18034881 0.012132252 0.7799821 0.071109116 0.4567161 -0.87555957
0.009233545 0.62584436 -0.117636584 0.21925059 -0.5975477 -0.09407967 0.012874987 -0.18677095
-0.80699223 -0.016912816 0.14543907 -0.27308136 0.12140416 -0.13518132 0.13574949 -0.32368696
0.63474345 -0.39455 -0.06342553 0.2612089 0.061887775 0.2784422 -0.5712082 0.35207465
-0.36860773 0.03775057 0.07921519 -0.050482605 0.5005194 0.1883175 -0.101189844 0.28257188
-0.7870468 -0.08737126 0.41177174 0.7584254 -0.0020175527 -0.5542999 0.09665508 -0.355303
-0.41431642 0.8511868 0.30715275 -0.7377213 0.17435196 0.12019725 0.21735498 -0.3688258
0.06620721 -0.10788787 -0.09069876 0.15674472 -0.6472814 0.3779868 0.40523413 0.42653212
-0.43188104 0.06404721 -0.119731724 -0.8498092 0.06120648 -0.45887828 -0.14036767 -0.16048203
0.72466767 -0.17837933 0.4846372 0.1671217 0.13220249 0.18126923 0.14065644 0.41172937
-0.34541166 0.079239376 0.051000047 -0.5139046 -0.3060495 -0.112198494 -0.67546725 0.4716876
-0.10717493 -0.065516144 -0.43163756 -0.043717995 0.22340351 0.26857772 -0.62890226 -0.589956
-0.110604525 0.079118274 -0.28328326 0.5084391 -0.34625542 0.1643259 0.4142177 0.07484165
-0.12789153 0.07933339 0.79382914 -0.16820407 -0.21435891 0.15988643 -0.63911575 0.08711575
0.39049274 -0.0671406 -0.09655013 -0.20859541 -0.047722645 -0.40533367 -0.3675695 -0.3933358
0.5256665 -0.52829194 0.38533217 0.49942335 -1.1507242 0.4250709 0.74863327 0.18975396
0.25283107 -0.1450658 -0.30226523 0.16866341 -0.36288375 -0.37334317 -0.41910467 -0.4643703
-0.49331728 -0.26983678 -0.00682803 -0.36480102 -0.105273485 -0.09575129 -0.079487815 -0.04395284
-0.628541 -0.85762453 0.59437567 0.5224098 0.34331974 1.1030626 -0.438102 0.19015653
-0.46314692 0.5171103 0.077075906 -0.17364994 -0.18609922 0.14103559 -0.23825906 0.47173318
-0.03408075 -0.52828425 -0.11605179 -0.10856981 -0.4255144 0.5752901 -0.42068237 -0.10264556
0.5072466 0.31821388 -0.07192778 0.096857004 0.31181085 0.28324053 0.10304951 0.5990334
0.22839475 0.17952259 -0.39613426 0.13621631 0.13107808 -0.30542773 0.37497103 -0.47750452
0.2281329 0.19269294 -0.16208673 0.41530976 0.2839117 0.2166895 -0.18145347 0.64396137
0.5032388 -0.4563172 0.37255603 -0.4663966 0.4462956 -0.3316338 -0.15290996 -0.23912595
-0.559684 0.016135558 0.75643504 -0.39284372 -0.68321514 -0.08408748 0.20191543 0.7171546
-0.20182942 0.34143096 0.20732175 0.6586805 0.31571823 -0.12671328 1.1104745 -0.23866668
0.04531333 0.07298675 -0.09956561 0.02164593 -0.312708 0.10174571 -0.4097703 1.0990222
-0.17069976 -0.0329394 -0.0973277 0.30107537 -0.3405417 0.3304237 -0.5017979 -0.31527057
0.28497505 -0.0831407 0.35435453 -0.1784133 -0.56996554 0.12779024 0.08776387 -0.3705563
0.44860047 0.5019825 -0.089157574 -0.7750765 -0.07374541 1.0505582 -0.21549685 -0.3529328
00000000: bea8 1bbe 3d6a 8fbd 3a09 9fbd 5b3f 0abf
00000010: c5c3 1cbe 7d08 d4bd ebc4 e83e 5f54 4fbe
00000020: 713a 9cbe 4187 123e 5cad 383e 5ac6 463c
00000030: e8ac 473f a8a1 913d b1d6 e93e ac24 60bf
00000040: 4b48 173c 5637 203f 73eb f0bd 3a83 603e
00000050: e3f8 18bf d8ac c0bd 9cf1 523c e240 3fbe
00000060: 0b97 4ebf bf8c 8abc fbed 143e 52d1 8bbe
00000070: bfa2 f83d f96c 0abe ea01 0b3e 4cba a5be
00000080: 8c7e 223f 7502 cabe 3fe5 81bd 2cbd 853e
00000090: 097e 7d3d fa8f 8e3e b33a 12bf 2143 b43e
000000a0: 27ba bcbe 57a0 1a3d 933b a23d d9c6 4ebd
000000b0: 0a22 003f 4dd6 403e 9f3c cfbd 43ad 903e
000000c0: e67b 49bf b4ef b2bd bfd3 d23e 2b28 423f
000000d0: eb38 04bb 99e6 0dbf 19f3 c53d 46ea b5be
000000e0: 4821 d4be 61e7 593f 2043 9d3e 4edb 3cbf
000000f0: 5289 323e fa29 f63d 4e92 5e3e bcd6 bcbe
00000100: a597 873d 51f4 dcbd 45c0 b9bd b081 203e
00000110: 3cb4 25bf 7c87 c13e d97a cf3e 6b62 da3e
00000120: 831f ddbe 2f2b 833d e835 f5bd 198d 59bf
00000130: a5b3 7a3d 18f2 eabe 8bbc 0fbe 6755 24be
00000140: d283 393f 12a9 36be 5e22 f83e f321 2b3e
00000150: 1760 073e a49e 393e 3e08 103e 31ce d23e
00000160: ccd9 b0be 4148 a23d 6de5 503d 408f 03bf
00000170: 85b2 9cbe 53c8 e5bd 6ceb 2cbf 0981 f13e
00000180: 887e dbbd 542d 86bd 99ff dcbe a411 33bd
00000190: e4c3 643e 0583 893e bdff 20bf 5b07 17bf
000001a0: a084 e2bd c308 a23d 810a 91be 1129 023f
000001b0: 6448 b1be 0c45 283e 5814 d43e 9446 993d
000001c0: fff5 02be 8b79 a23d 6338 4b3f b03d 2cbe
000001d0: e780 5bbe 45b9 233e 179d 23bf be69 b23d
000001e0: aaee c73e 0381 89bd 13bc c5bd 099a 55be
000001f0: d278 43bd e587 cfbe 1232 bcbe 4f63 c9be
00000200: 1492 063f 243e 07bf 424a c53e 6bb4 ff3e
00000210: ee4a 93bf e5a2 d93e 6ea6 3f3f dd4e 423e
00000220: 1373 813e 218c 14be 82c2 9abe 1ab6 2c3e
00000230: e6cb b9be d626 bfbe e394 d6be f2c1 edbe
00000240: 1594 fcbe 0c28 8abe abbd dfbb 33c7 babe
00000250: a099 d7bd 4119 c4bd 82ca a2bd e507 34bd
00000260: 10e8 20bf 488d 5bbf 0129 183f a6bc 053f
00000270: 9bc7 af3e 2831 8d3f e84e e0be 65b8 423e
00000280: 9821 edbe 5761 043f f9d9 9d3d 4ad1 31be
00000290: cb90 3ebe a26b 103e 2ffa 73be 0387 f13e
000002a0: 4298 0bbd a33d 07bf 90ac edbd d959 debd
000002b0: 06dd d9be 3646 133f ae63 d7be d637 d2bd
000002c0: eada 013f eeec a23e df4e 93bd f75c c63d
000002d0: aca5 9f3e e704 913e 9f0b d33d 415a 193f
000002e0: 50e0 693e c5d4 373e 1cd2 cabe 4a7c 0b3e
000002f0: 5539 063e 0661 9cbe 34fc bf3e 797b f4be
00000300: ac9b 693e 4c51 453e 10fa 25be 7ba3 d43e
00000310: e05c 913e dae3 5d3e f0ce 39be a7da 243f
00000320: 42d4 003f 68a2 e9be aabf be3e 89cb eebe
00000330: db80 e43e e8cb a9be 6e94 1cbe 6fdd 74be
00000340: 7347 0fbf b82e 843c baa5 413f d022 c9be
00000350: 30e7 2ebf 0f36 acbd ebc2 4e3e 7297 373f
00000360: 5fac 4ebe 0ad0 ae3e 274c 543e 499f 283f
00000370: d2a5 a13e 20c1 01be 0724 8e3f 0a65 74be
00000380: 789a 393d 147a 953d 0ee9 cbbd ce52 b13c
00000390: 431b a0be 0e60 d03d 6acd d1be c2ac 8c3f
000003a0: ebcb 2ebe 77eb 06bd bf53 c7bd 8d26 9a3e
000003b0: 7b5b aebe 4c2d a93e d475 00bf 256b a1be
000003c0: 40e8 913e ac45 aabd f56d b53e fab1 36be
000003d0: 43e9 11bf 72db 023e 8bbd b33d 8eb9 bdbe
000003e0: f6ae e53e ed81 003f 3f98 b6bd 6a6b 46bf
000003f0: d507 97bd b178 863f 35ab 5cbe 9cb3 b4be

network_body._body_endoder.seq_layers.0.bias f4 [128]
0.02831139 -0.07684146 -0.09629975 0.328497 -0.010523045 0.04031057 -0.013657789 -0.04090477
-0.07787685 0.0017541398 0.0065290164 -0.016755152 0.038289648 -0.07264239 -0.0976712 -0.03576922
-0.033572946 -0.005317019 -0.057623178 0.03333178 0.18128245 0.008867778 0.0022169135 -0.031444546
0.235098 -0.03844207 -0.0025428312 -0.007161836 -0.020662911 0.065280356 0.041355167 -0.01611226
0.2134681 0.10064749 -0.036815166 0.0013252473 0.1992066 -0.048364796 -0.0034369547 -0.02351268
-0.041816548 -0.0074426043 -0.017988186 -0.025684135 0.015105235 -0.045324627 0.18405388 0.046865415
0.026875911 -0.07210524 -0.03370477 -0.025008975 -0.0010636128 0.20017096 -0.04634128 -0.04256867
0.050506525 0.03248313 0.004744405 0.004489954 -0.010329213 -0.054717936 -0.040251404 0.0010949916
-0.039579097 -0.04945225 -0.055522896 0.028658597 0.003467048 -0.010764957 -0.058540657 0.0022348312
-0.014560599 -0.02368347 -0.011857399 -0.029935842 -0.04407296 -0.011597557 -0.0073887827 -0.05303808
0.013338149 -0.00012758595 -0.035182465 0.045833595 -0.003449954 -0.0020391876 0.059308514 0.02566397
0.12436976 0.07040765 -0.0059573697 -0.010302268 0.012227367 -0.06295892 -0.033363957 -0.0057666576
0.12060252 -0.0026518318 -0.024413368 0.006343647 -0.019434432 -0.0070855 0.027978634 0.0030560915
-0.001548963 -0.051139608 0.18433578 0.022320945 -0.02135629 -0.021758819 -0.025525067 0.018835453
-0.021726374 0.09189613 -0.028485607 0.008251814 -0.029208008 0.022007374 0.10582344 0.03986961
0.045564752 0.10099726 -0.009573599 0.1283918 0.07172457 -0.040522367 0.0063302065 -0.051752362
00000000: 4aed e73c 0e5f 9dbd ce38 c5bd c230 a83e
00000010: da68 2cbc b21c 253d ebc4 5fbc c38b 27bd
00000020: e67d 9fbd 2aeb e53a 5cf1 d53b 1a42 89bc
00000030: 9bd5 1c3d 89c5 94bd d707 c8bd bf82 12bd
00000040: c983 09bd 633a aebb 4806 6cbd e886 083d
00000050: 1ba2 393e 284a 113c a349 113b ffcb 00bd
00000060: 88bd 703e 6f75 1dbd a1a5 26bb d6ad eabb
00000070: 4445 a9bc b5b1 853d 0964 293d dcfd 83bc
00000080: 6297 5a3e 4520 ce3d 80cb 16bd ecb3 ad3a
00000090: d1fc 4b3e 2a1a 46bd 883e 61bb aa9d c0bc
000000a0: d447 2bbd 17e1 f3bb f65b 93bc 8967 d2bc
000000b0: f37b 773c 51a6 39bd 9f78 3c3e f3f5 3f3d
000000c0: df2a dc3c e9ab 93bd 030e 0abd 9fdf ccbc
000000d0: ec68 8bba 9ef9 4c3e 5bd0 3dbd 7c5c 2ebd
000000e0: eedf 4e3d 080d 053d f476 9b3b 7720 933b
000000f0: dc3b 29bc ea1f 60bd a8de 24bd d285 8f3a
00000100: b11d 22bd 718e 4abd fa6b 63bd 6fc5 ea3c
00000110: 6a37 633b 815f 30bc 54c8 6fbd 3f76 123b
00000120: 948f 6ebc d603 c2bc 8945 42bc 033c f5bc
00000130: d985 34bd ae03 3ebc 9a1d f2bb 753e 59bd
00000140: 4088 5a3c 98c8 05b9 7d1b 10bd 02bc 3b3d
00000150: a018 62bb e4a3 05bb 7ced 723d 3f3d d23c
00000160: 93b5 fe3d e331 903d 0a36 c3bb d8ca 28bc
00000170: 4b55 483c 9bf0 80bd a5a8 08bd 3bf6 bcbb
00000180: 74fe f63d 5bca 2dbb 8bfe c7bc 5ede cf3b
00000190: f534 9fbc 7b2d e8bb 7333 e53c b548 483b
000001a0: 9306 cbba c477 51bd 85c2 3c3e 6ada b63c
000001b0: 63f3 aebc 8d3f b2bc f219 d1bc cf4c 9a3c
000001c0: 82fb b1bc 0a34 bc3d a65a e9bc 9e32 073c
000001d0: a245 efbc cf48 b43c f6b9 d83d 514e 233d
000001e0: 1ba2 3a3d a7d7 ce3d 96da 1cbc 2479 033e
000001f0: 55e4 923d c8fa 25bd 9f6d cf3b 49fa 53bd

network_body._body_endoder.seq_layers.2.weight f4 [128, 128]
-0.07294518 0.026468996 -0.06957314 -0.14761461 -0.0103375735 0.14870004 0.026294202 0.2164137
-0.11849617 -0.048624024 0.20660767 -0.040401094 -0.049197767 0.074265026 0.0751929 0.002429088
0.009347256 -0.03458742 -0.01953108 0.037500873 0.0336198 0.057315163 -0.0068984064 -0.114683405
-0.05367751 -0.13339345 -0.057475433 0.051413283 0.074887805 0.3831675 -0.006169217 -0.075368844
0.05983226 0.030611072 0.071129486 -0.13096859 0.032990877 0.06795128 0.09082076 0.11638034
-0.023231406 -0.08924539 0.11696884 -0.06585416 0.13227095 0.13260907 0.06852658 0.083168514
-0.074071534 -0.04807002 -0.064219244 0.06538267 -0.19495365 0.101668075 -0.003307655 -0.02333203
-0.04501137 -0.049376015 -0.11133978 -0.0714969 0.13908163 -0.0011232152 -0.097901605 0.09287982
0.1770682 -0.0020024169 -0.10280854 0.03067614 -0.065507844 -0.012638123 -0.0669953 -0.10110191
0.053572547 0.061794296 -0.036957867 0.11015126 -0.033422895 0.035812017 -0.18848303 0.15269446
0.0037701942 0.08224972 -0.12541942 -0.18005042 -0.046252724 -0.11316495 -0.04777674 -0.11935063
-0.04987598 0.32648358 0.08026373 -0.1450642 0.15729706 -0.19841976 0.10429447 0.07119859
0.04624933 0.080276646 0.09467148 -0.03350572 -0.095485345 0.05323176 -0.08426666 -0.20546682
0.010206815 -0.02193006 -0.13867295 -0.027362121 -0.011768661 0.029137416 0.1473687 0.015612492
0.049927156 0.020105354 0.04280998 0.14000423 -0.14444286 -0.06695574 -0.04248322 0.14671883
-0.038324654 0.05280851 -0.06211606 -0.045093108 -0.10037825 -0.1578076 0.061778188 -0.14563061
0.2402209 -0.08805794 -0.01766911 0.08113214 -0.038650885 -0.19959846 0.06376997 -0.23012468
0.08428964 0.23056129 0.092262775 0.055245753 -0.06298188 -0.084516324 -0.080731004 -0.059292812
0.009595442 -0.03825546 0.032771703 0.007926859 -0.2480769 -0.018520009 -0.10964114 -0.03635793
0.028094092 0.23452199 0.045528397 0.17769697 -0.040812068 0.2854073 0.14418912 -0.06253037
0.14247747 -0.22183892 -0.03407626 0.0016791687 -0.049687605 -0.05356547 -0.13218206 -0.1576525
-0.007460041 -0.1212536 -0.04291008 0.04148786 0.0031801567 -0.14168614 0.0022996853 0.00988679
-0.0679828 0.15571865 0.003578925 -0.07509584 -0.022899264 -0.20849223 -0.006316163 0.064708196
-0.15045393 -0.0800153 0.112284794 -0.089979954 0.25805333 0.07272403 -0.08006668 -0.122767314
-0.09955212 0.029088946 0.04181132 -0.116691306 -0.23871423 -0.15760247 -0.09273981 0.124097966
-0.18279344 -0.04030017 -0.009346088 -0.19302438 0.020063387 0.07932101 0.058908828 -0.026504952
0.10353399 -0.052683804 0.060170054 0.029825374 -0.034404352 0.009998945 -0.007933905 0.046492197
-0.10646295 0.43265715 0.0648922 -0.084503025 0.08746186 0.063152745 -0.08504066 0.09550192
-0.036150753 0.22578566 0.0794006 -0.40801245 -0.10984779 0.38838255 -0.0812708 0.042954877
-0.041353595 -0.027933937 0.053678993 -0.046681583 0.033168998 0.03489388 0.022837745 -0.22231802
0.040593363 0.026327953 0.18100335 0.06577074 0.0525728 -0.11954966 0.024510795 -0.19652638
-0.3281498 -0.1256418 -0.14624125 0.061536044 0.13193813 0.050826985 0.05335954 0.048212167
00000000: 4864 95bd 82d5 d83c 5d7c 8ebd 4928 17be
00000010: ed5e 29bc d344 183e f066 d73c 8e9b 5d3e
00000020: 1fae f2bd fc29 47bd f690 533e 9e7b 25bd
00000030: 9983 49bd 4318 983d bcfe 993d 5631 1f3b
00000040: 3c25 193c 8aab 0dbd a5ff 9fbc 849a 193d
00000050: eab4 093d 4ec3 6a3d 070c e2bb 22df eabd
00000060: f3dc 5bbd 4b98 08be 5c6b 6bbd bc96 523d
00000070: c75e 993d 882e c43e 2527 cabb fb5a 9abd
00000080: ac12 753d 12c4 fa3c 56ac 913d a11c 06be
00000090: 7121 073d 0a2a 8b3d 3c00 ba3d d158 ee3d
000000a0: ca4f bebc 49c6 b6bd 5c8d ef3d 8cde 86bd
000000b0: 0972 073e acca 073e aa57 8c3d 4154 aa3d
000000c0: d1b2 97bd 12e5 44bd 6185 83bd 59e7 853d
000000d0: eea1 47be 5a37 d03d 3ec5 58bb d022 bfbc
000000e0: d85d 38bd 813e 4abd 1c06 e4bd f76c 92bd
000000f0: 6a6b 0e3e d938 93ba a380 c8bd c637 be3d
00000100: 5e51 353e fb3a 03bb 498d d2bd 874c fb3c
00000110: fa28 86bd 2110 4fbc d534 89bd 850e cfbd
00000120: e36e 5b3d 041c 7d3d 2261 17bd fc96 e13d
00000130: 72e6 08bd 9faf 123d b201 41be f05b 1c3e
00000140: 5d15 773b 8b72 a83d f36d 00be 235f 38be
00000150: 7f73 3dbd 06c3 e7bd 8bb1 43bd 1a6e f4bd
00000160: c14a 4cbd db28 a73e 4f61 a43d b68b 14be
00000170: 7b12 213e 8d2e 4bbe 5798 d53d 91d0 913d
00000180: f06f 3d3d 1568 a43d 1fe3 c13d 4b3d 09bd
00000190: d28d c3bd 8c09 5a3d 0094 acbd e565 52be
000001a0: 7c3a 273c aba6 b3bc 4800 0ebe 8726 e0bc
000001b0: 58d1 40bc 97b1 ee3c d2e7 163e 8acb 7f3c
000001c0: 6b80 4c3d fcb3 a43c 8559 2f3d 455d 0f3e
000001d0: d4e8 13be 1720 89bd e302 2ebd 763d 163e
000001e0: 50fa 1cbd bc4d 583d 696d 7ebd 8db3 38bd
000001f0: 1d93 cdbd 5198 21be 200b 7d3d 3120 15be
00000200: 78fc 753e b957 b4bd cfbe 90bc 9b28 a63d
00000210: 6450 1ebd 8a63 4cbe d499 823d cea5 6bbe
00000220: 0ca0 ac3d 4218 6c3e 44f4 bc3d 5f49 623d
00000230: a5fc 80bd e516 adbd 4c56 a5bd 05dd 72bd
00000240: 3336 1d3c c2b1 1cbd 9f3b 063d a8df 013c
00000250: df07 7ebe 46b7 97bc 898b e0bd 0eec 14bd
00000260: 9525 e63c 8826 703e fc7b 3a3d 32f6 353e
00000270: 8e2a 27bd e820 923e 50a6 133e ec0f 80bd
00000280: 9de5 113e be29 63be 8c93 0bbd 8d17 dc3a
00000290: 3b85 4bbd 7767 5bbd bc5a 07be a86f 21be
000002a0: 5c73 f4bb cf53 f8bd 7bc2 2fbd 2def 293d
000002b0: 2d6a 503b 2c16 11be 51b6 163b 34fc 213c
000002c0: 913a 8bbd b674 1f3e 668c 6a3b d9cb 99bd
000002d0: 3d97 bbbc fd7e 55be d1f7 cebb bb85 843d
000002e0: 9810 1abe 10df a3bd 92f5 e53d 6947 b8bd
000002f0: 911f 843e 56f0 943d 00fa a3bd 6e6d fbbd
00000300: fbe1 cbbd f14b ee3c 5942 2b3d dafb eebd
00000310: 8171 74be 8b62 21be 5fee bdbd 1327 fe3d
00000320: 342e 3bbe cb11 25bd 5620 19bc 2fa8 45be
00000330: f95b a43c 0e73 a23d 624a 713d ea20 d9bc
00000340: a109 d43d f9ca 57bd e074 763d 5854 f43c
00000350: 94eb 0cbd 9dd2 233c 36fd 01bc 9a6e 3e3d
00000360: 3f09 dabd 3d85 dd3e 34e6 843d ec0f adbd
00000370: 341f b33d 3a56 813d cc29 aebd 8396 c33d
00000380: d012 14bd 5b34 673e c89c a23d 02e7 d0be
00000390: e1f7 e0bd 14da c63e 4e71 a6bd 74f1 2f3d
000003a0: 6362 29bd b6d5 e4bc 81de 5b3d 3035 3fbd
000003b0: 37dc 073d e3ec 0e3d 3916 bb3c 56a7 63be
000003c0: 3a45 263d b8ad d73c f158 393e cfb2 863d
000003d0: 9456 573d 74d6 f4bd ddca c83c 363e 49be
000003e0: 4003 a8be 3ea8 00be 44c0 15be 380d 7c3d
000003f0: ca1a 073e f52f 503d 888f 5a3d 1f7a 453d

network_body._body_endoder.seq_layers.2.bias f4 [128]
-0.0034186572 -0.009894126 -0.007033804 -0.008835799 -0.011720513 -0.0038400702 -0.010780626 -0.017718997
0.00013159803 -0.01091028 -0.011168894 0.0414574 -0.012043132 -0.0040341117 0.019971492 -0.0017545301
-0.008138982 0.013753187 -0.004153242 -0.008309679 0.047514416 -0.011908488 -0.0033539373 -0.013996156
-0.029430998 -0.01711024 0.03375981 -0.028939836 -0.000328867 -0.008655889 0.040725637 -0.06195061
0.017509766 -0.036336612 0.02031571 -0.013204271 -0.00012272311 0.016984629 -0.006644072 0.0026801152
0.043818377 0.04024632 -0.00979895 -0.032627452 0.0048290854 -0.029426195 -0.019738603 0.004091539
-0.0029180308 0.013297297 -0.0003651242 -0.01943811 0.012842637 0.008852404 -0.0077400114 0.009783401
-0.019263998 -0.01186367 0.00021725561 -0.0028958619 -0.011026656 -0.020848105 -0.0047923108 -0.004152076
-0.0011158088 0.061814863 -0.02294817 0.0012371814 0.0033679463 0.0019393915 -0.027677502 0.018266456
-0.007964765 0.021183267 0.0020793688 -0.00811077 0.002789916 0.036507998 -0.025990479 -0.024234975
-0.054540686 -0.018371256 -0.042129114 -0.010197792 -0.028026631 0.043246098 0.05380727 -0.021414911
-0.005697586 -0.017486334 0.0014799084 -0.003041928 -0.010111343 -0.004640047 -0.0032380733 -0.01139894
0.04157932 -0.02038735 -0.019175349 -0.009380805 0.0016999383 -0.014717229 -0.0014087335 -0.01710789
-0.014053162 -0.014420587 -0.020717083 -0.013045198 -0.015926626 0.005337232 -0.025621766 0.00794755
-0.011283988 0.0035090211 -0.007818801 -0.060227517 -0.0019018855 -0.02318954 0.003368235 0.016944686
-0.0041787415 -0.023201147 -0.004578969 -0.009875375 0.03695299 -0.017842976 0.0009025024 0.016523164
00000000: 8d0b 60bb f91a 22bc d37b e6bb 07c4 10bc
00000010: 6507 40bc b0a9 7bbb 39a1 30bc 6e27 91bc
00000020: 94fd 0939 08c1 32bc bdfd 36bc 3ccf 293d
00000030: 8f50 45bc 9530 84bb 419b a33c 43f8 e5ba
00000040: 5d59 05bc 0c55 613c eb17 88bb 5225 08bc
00000050: 7a9e 423d d21b 43bc bbcd 5bbb 2250 65bc
00000060: 4719 f1bc c62a 8cbc ba47 0a3d 3c13 edbc
00000070: c86b acb9 6ed1 0dbc edcf 263d ecbf 7dbd
00000080: a470 8f3c b3d5 14bd 226d a63c ba56 58bc
00000090: 3caf 00b9 5923 8b3c 84b6 d9bb dfa4 2f3b
000000a0: e67a 333d 53d9 243d c68b 20bc 5da4 05bd
000000b0: 4e3d 9e3b 340f f1bc dab2 a1bc 5112 863b
000000c0: 6f3c 3fbb e8dc 593c 246e bfb9 ac3c 9fbc
000000d0: ec69 523c ac09 113c ec9f fdbb 8f4a 203c
000000e0: 88cf 9dbc d75f 42bc 1ccf 6339 80c8 3dbb
000000f0: 26a9 34bc a5c9 aabc d108 9dbb 230e 88bb
00000100: 5540 92ba 9531 7d3d cdfd bbbc eb28 a23a
00000110: c3b8 5c3b 2e33 fe3a eebb e2bc 89a3 953c
00000120: a57e 02bc 8888 ad3c 0546 083b 09e3 04bc
00000130: 06d7 363b 6989 153d fce9 d4bc 6d88 c6bc
00000140: 0e66 5fbd 517f 96bc 948f 2cbd a414 27bc
00000150: 1b98 e5bc d222 313d 0365 5c3d 536e afbc
00000160: d1b2 babb 803f 8fbc 7cf9 c13a 155b 47bb
00000170: 0caa 25bc 890b 98bb db35 54bb 9fc2 3abc
00000180: 144f 2a3d 5f03 a7bc 9f15 9dbc f3b1 19bc
00000190: 77d0 de3a 8820 71bc 41a5 b8ba d925 8cbc
000001a0: 3c3f 66bc 5344 6cbc dfb6 a9bc 87bb 55bc
000001b0: 8e78 82bc f2e3 ae3b bde4 d1bc 7136 023c
000001c0: 7ae0 38bc 9bf7 653b 6e1a 00bc 21b1 76bd
000001d0: b048 f9ba fdf7 bdbc 9bbd 5c3b 95cf 8a3c
000001e0: d3ed 88bb 5510 bebc 2d0b 96bb 53cc 21bc
000001f0: 055c 173d 6f2b 92bc e995 6c3a 965b 873c

action_model._discrete_distribution.branches.0.weight f4 [3, 128]
0.018381245 -0.041199025 -0.034121 0.16319403 -0.002211139 -0.0024443232 -0.00717351 0.005844868
-0.00067415065 0.064939745 0.012472308 -0.052397963 0.023218827 0.015070355 0.0073167295 -0.07276949
0.0025152501 0.0128388945 -0.03216185 0.008781568 0.022046644 0.00953451 0.0033851354 -0.0022371043
0.0019481905 0.034927115 0.0012543609 -0.00041878698 -0.013346752 -0.054042898 0.0039566336 0.014222368
-0.0645187 -0.013260932 0.005615813 -0.013984316 -0.04115955 0.059348665 -0.09404107 -0.0075655775
-0.026797805 0.0035543665 -0.04494101 -0.0046811015 -0.00032433736 -0.009381178 0.013284848 0.010103472
0.002749337 0.03226358 -0.00022756236 0.0037516188 0.0061831856 0.013229615 -0.004741417 -0.0030804959
0.0012985762 -0.015257655 0.01049408 0.051892143 -0.013547873 0.005227601 0.02774167 0.042237367
-0.0125789605 -0.023200646 0.012406168 0.064710535 -0.0066450606 0.028805634 0.018571464 -0.027288925
-0.0142364595 0.0071591274 0.019161444 0.013335093 0.030574778 0.011217407 -0.0072419075 -0.010721187
-0.008156699 -0.019852933 0.018128779 -0.035112325 -0.0077204797 -0.01871178 0.022975288 0.017818972
0.0010433036 -0.008728687 -0.011423461 0.027301634 -0.001543468 -0.092342995 0.04063554 -0.024225146
-0.008085483 -0.016556902 -0.008862818 -0.0047808546 0.012608098 0.0013855732 -0.0002867077 -0.00019602178
0.0006233725 0.00602435 0.004848886 0.014129922 0.0116272215 -0.02205932 -0.0041925274 0.01029068
-0.021853281 -0.008309116 -0.011351471 -0.012763744 0.004554364 0.044104785 0.010884229 0.006375233
-0.03522296 -0.0004648952 0.052809034 -0.017300794 -0.0040184413 0.0014937808 0.006285756 0.22645923
0.0043105073 0.0064187027 0.012755349 -0.06653581 -0.0009413628 0.005431737 -0.01134177 0.0060075745
-0.00858633 -0.0218402 -0.0074480334 0.16701704 0.03450613 -0.008839517 -0.019829387 0.056359887
0.019049862 0.014216888 0.03679872 -0.008744492 -0.02522783 0.040635526 0.00010718322 -0.007490641
0.010302746 0.1280538 -0.011198112 0.009556757 0.01548281 0.017394107 -0.024556005 0.032337856
0.1348377 0.025616301 0.011452251 -0.010423205 -0.04179796 0.0046804366 0.030035814 -0.00684412
0.042565536 0.06535541 0.010714114 0.0037940033 0.02645211 -0.0021226346 -0.0019030462 0.015739838
-0.004941594 -0.10247343 -0.01040636 0.0077263922 -0.010708519 -0.007113466 0.0067475378 0.029878445
0.010890622 0.00064434874 -0.012151694 0.018129084 0.016564794 0.0066650608 0.08479606 -0.057325546
0.026052302 0.20895904 0.005911582 -0.15621918 0.007532665 -0.007148723 0.023906207 0.03168801
0.0151313385 -0.015409347 0.019989882 0.0046134554 -0.011880374 -0.020523675 -0.0006159118 0.005361898
0.004104665 0.05489225 0.04542005 0.021574875 -0.0031279724 0.067274936 -0.022671409 0.00019494547
0.10082856 0.028417198 0.0076261978 0.00879419 -0.004608198 -0.00046542147 0.0025847673 0.011852697
0.08540108 -0.00045383835 -0.009192541 0.0030924154 0.027781298 0.011649034 -0.009568315 0.0162708
-0.010130064 -0.0005882153 -0.010331331 0.010816692 -0.00044839838 0.040167216 0.0026609593 0.017703107
0.04242317 0.023052247 0.011398114 0.0033871317 0.051816702 -0.049043085 0.011577835 0.07139986
0.07019998 0.00504893 -0.020208212 -0.020114291 -0.038608626 0.0009498316 -0.006867189 -0.07160121
00000000: 4494 963c 4fc0 28bd 76c2 0bbd 561c 273e
00000010: c2e8 10bb f030 20bb c30f ebbb 4e86 bf3b
00000020: 7cb9 30ba 21ff 843d a758 4c3c 3f9f 56bd
00000030: 6935 be3c a6e9 763c 2dc1 ef3b 2c08 95bd
00000040: e5d6 243b 3a5a 523c 25bc 03bd 91e0 0f3c
00000050: 2a9b b43c a236 1c3c 26d9 5d3b 629c 12bb
00000060: 6d5a ff3a bc0f 0f3d 5e69 a43a a390 dbb9
00000070: 56ac 5abc 165c 5dbd a6a6 813b ef04 693c
00000080: 6122 84bd 6144 59bc db04 b83b 791e 65bc
00000090: eb96 28bd 9617 733d 9b98 c0bd aae8 f7bb
000000a0: 1287 dbbc 60f0 683b 1114 38bd ed63 99bb
000000b0: d30b aab9 83b3 19bc b1a8 593c 0889 253c
000000c0: 392e 343b d126 043d ce9d 6eb9 b8dd 753b
000000d0: 529c ca3b 07c1 583c e35d 9bbb 25e2 49bb
000000e0: fd34 aa3a 3efb 79bc 5def 2b3c db8c 543d
000000f0: e6f7 5dbc 4c4c ab3b 8042 e33c 1701 2d3d
00000100: fc17 4ebc 480f bebc 3d43 4b3c f586 843d
00000110: cfbe d9bb cbf9 eb3c 2f23 983c 068d dfbc
00000120: 0a40 69bc 1d97 ea3b 76f8 9c3c 6f7b 5a3c
00000130: f577 fa3c 37c9 373c 864d edbb eba7 2fbc
00000140: ada3 05bc 9ea2 a2bc ce82 943c f1d1 0fbd
00000150: 14fc fcbb 7249 99bc ac36 bc3c 18f9 913c
00000160: 76bf 883a c402 0fbc 7829 3bbc ada7 df3c
00000170: 314e caba 531e bdbd 7471 263d d073 c6bc
00000180: f978 04bc 57a2 87bc 5a35 11bc b7a8 9cbb
00000190: 3292 4e3c 1f9c b53a 4251 96b9 328b 4db9
000001a0: d269 233a e967 c53b 67e3 9e3b 3081 673c
000001b0: 1a80 3e3c bfb5 b4bc 7861 89bb 3e9a 283c
000001c0: a705 b3bc f522 08bc 85fb 39bc 061f 51bc
000001d0: c63c 953b 38a7 343d c453 323c 55e7 d03b
000001e0: f345 10bd 2dbd f3b9 494e 583d 65ba 8dbc
000001f0: 21ad 83bb f7ca c33a bef8 cd3b eee4 673e
00000200: 283f 8d3b fb53 d23b d0fb 503c ed43 88bd
00000210: cac5 76ba b6fc b13b d5d2 39bc 30db c43b
00000220: aead 0cbc 38ea b2bc a20e f4bb 8406 2b3e
00000230: 4d56 0d3d 9fd3 10bc 3d71 a2bc a0d9 663d
00000240: 750e 9c3c f3ed 683c 41ba 163d 0f45 0fbc
00000250: 98aa cebc 7071 263d 8ec7 e038 0d74 f5bb
00000260: d9cc 283c 8920 033e 4978 37bc f293 1c3c
00000270: 9dab 7d3c 167e 8e3c ad29 c9bc b374 043d
00000280: e512 0a3e 47d9 d13c 39a2 3b3c 17c6 2abc
00000290: 5634 2bbd 595e 993b ab0d f63c a444 e0bb
000002a0: 3359 2e3d 0fd9 853d 408a 2f3c d0a4 783b
000002b0: 18b2 d83c e61b 0bbb a26f f9ba d5f0 803c
000002c0: 18ed a1bb 97dd d1bd 707f 2abc ad2d fd3b
000002d0: c972 2fbc 1418 e9bb 731a dd3b a4c3 f43c
000002e0: 946e 323c 83e9 283a e617 47bc 7283 943c
000002f0: e4b2 873c 9566 da3b 8fa9 ad3d 31ce 6abd
00000300: a36b d53c 5cf9 553e f2b5 c13b ecf7 1fbe
00000310: 93d4 f63b d63f eabb f3d6 c33c 49cb 013d
00000320: 6fe9 773c 7c77 7cbc d2c1 a33c 782c 973b
00000330: e6a5 42bc 4421 a8bc 2475 21ba dcb2 af3b
00000340: 6d80 863b b2d6 603d 600a 3a3d cbbd b03c
00000350: abfe 4cbb 71c7 893d 64b9 b9bc 476a 4c39
00000360: 347f ce3d 2fcb e83c 2fe5 f93b 8215 103c
00000370: 5e00 97bb d003 f4b9 3365 293b d031 423c
00000380: c3e6 ae3d 27f1 edb9 509c 16bc 1faa 4a3b
00000390: 9b95 e33c 97db 3e3c 6cc4 1cbc 574a 853c
000003a0: 91f8 25bc 7632 1aba be44 29bc 7f38 313c
000003b0: 0317 ebb9 6186 243d 7d63 2e3b 1b06 913c
000003c0: ebc3 2d3d 11d8 bc3c 28bf 3a3c a4fa 5d3b
000003d0: c03d 543d 67e1 48bd f6b0 3d3c 173a 923d
000003e0: 02c5 8f3d 7f71 a53b b18b a5bc bac6 a4bc
000003f0: 1424 1ebd 1ffe 783a 2806 e1bb a8a3 92bd

action_model._discrete_distribution.branches.0.bias f4 [3]
0.00088472397 -0.019990673 0.021274189
00000000: d2ec 673a 7bc3 a3bc 3547 ae3c

action_model._discrete_distribution.branches.1.weight f4 [2, 128]
-0.0014023255 -0.010755332 0.008023936 0.023616288 -0.007358098 -0.01087622 0.01137497 0.0056797313
-0.010528262 0.008352943 -0.00061793765 0.0032735136 -0.016193306 0.016683312 -0.00018955403 -0.016108083
-0.0073326267 0.024870427 -0.008132908 0.0050589745 0.011753822 -0.0003768845 -0.008592064 -0.0018832131
0.00050443073 0.023479993 0.015668757 -0.01236296 0.0014253758 -0.008587972 0.007155556 0.014093333
0.09382636 -0.0027637917 -0.0018445892 0.001131806 -0.018416187 -0.017892048 -0.0025800953 0.009534769
-0.017803334 -0.015604783 -0.0010454571 0.00016733285 -0.0022389153 -0.012180291 0.0005372946 0.0073850458
0.010524025 0.032149952 -0.010644154 0.0047972873 0.009551488 -0.011823857 -0.014222222 -0.02021643
-0.005069577 0.016540682 -0.006419987 -0.014239703 -0.01947022 0.0037137123 0.062322274 -0.006086149
-0.003413738 -0.07599387 -0.00076457363 0.0046871654 -0.011654518 -0.014612178 -0.003241948 -0.0017952424
0.0012985156 0.0005779549 0.021039752 0.00484115 0.0004951713 -0.0013567419 -0.003526894 -0.011450951
-0.0024240564 0.010722017 0.0016305596 0.00811813 -0.004815184 -0.006782736 -0.006487209 0.005215115
0.034634043 0.0031753124 0.0053943736 -0.0022088822 0.004914135 -0.03136 -0.003159642 -0.0105969235
-0.033441246 0.0062139295 0.005489693 -0.009271107 0.005181942 -0.00230501 0.008629945 -0.0056224894
0.0007119382 0.015114597 -0.003982872 -0.00981085 0.0045430013 -0.0023750155 -0.014803108 -0.0035160861
-0.02319391 0.0029002514 -0.0023413503 0.0030297297 0.014507543 -0.03035913 0.006730617 -0.020565225
0.003534952 -0.015910052 0.0050992197 -0.00032219975 0.024029644 0.01297534 -0.0026246908 -0.08888378
-0.0049392134 -0.0012013454 -0.0103121 -0.025099028 -0.007483915 -0.0041333623 0.0027390618 0.004151154
-0.013490991 -0.038324453 -0.006490141 -0.014953559 0.01982271 0.011475708 -0.011630692 0.009039112
-0.009426544 -0.005380289 0.018171918 0.0031829476 4.786503e-05 -0.003102379 -0.0048616673 -0.0029499168
0.0033728501 -0.03826141 -0.011835862 0.0026527878 -0.008107771 -0.011292782 -0.0035843898 0.013924487
-0.11076816 0.0095024835 -0.0056786523 -0.027000269 0.006872159 0.03697294 0.002472557 0.0067192167
0.0018737506 0.023352288 0.0070590065 0.0038399736 -0.0058480846 -0.010469371 0.003085899 0.0013336554
0.0077553373 -0.013778513 -0.01157124 0.008206565 -0.008202958 -0.015247302 0.0058330875 0.018451402
1.4745387e-05 0.008446895 -0.013034068 -0.011033292 0.010654173 0.0034261975 -0.07452694 -0.009199387
0.013925404 0.07781667 0.0024680307 0.0018249112 -0.0054375865 0.0008286815 -0.0039877826 0.0093355235
0.003513166 0.006357327 0.005432681 -0.0230997 -0.012761732 0.0010801428 -0.007929835 0.0038282515
-0.004299637 -0.0032383127 0.00021841197 -0.0021036544 0.011755646 0.0078028385 -0.011540602 -0.017515441
-0.057326607 -0.010905121 -0.0019684215 -0.014187241 -0.00289291 0.0060920664 -0.018806702 -0.010053513
0.029904554 0.0114020435 0.008503426 -0.003879207 -0.0005933591 -0.0020107382 0.008877171 -0.011280827
-0.0043880343 0.0059424266 0.0018295906 0.0045690774 0.007237559 0.0077103954 -0.010953155 0.0058982335
0.013434464 -0.008679859 0.0018023195 0.007080091 0.006941678 0.038564086 0.0056036892 0.018483672
0.0007816756 -0.015108309 -0.009354607 0.0063384976 0.012939305 0.004639836 0.00029110588 0.103190474
00000000: 3cce b7ba 2237 30bc d476 033c f276 c13c
00000010: 331c f1bb 2c32 32bc 155e 3a3c 0a1d ba3b
00000020: bb7e 2cbc c8da 083c 18fd 21ba 7288 563b
00000030: d3a7 84bc 71ab 883c 06c3 46b9 19f5 83bc
00000040: 8846 f0bb 11bd cb3c e33f 05bc c1c5 a53b
00000050: 1a93 403c 9598 c5b9 bac5 0cbc 25d6 f6ba
00000060: c63b 043a 1d59 c03c c45b 803c 038e 4abc
00000070: add3 ba3a 91b4 0cbc 2879 ea3b b9e7 663c
00000080: 0928 c03d bb20 35bb 25c6 f1ba 1c59 943a
00000090: 8bdd 96bc 5892 92bc d116 29bb b837 1c3c
000000a0: 4cd8 91bc 34ab 7fbc b807 89ba 1276 2f39
000000b0: c4ba 12bb d88f 47bc 3bd9 0c3a 41fe f13b
000000c0: f66c 2c3c abaf 033d d164 2ebc 9032 9d3b
000000d0: d87d 1c3c dab8 41bc 5304 69bc ed9c a5bc
000000e0: b21e a6bb 5380 873c c15e d2bb a54d 69bc
000000f0: 0380 9fbc c161 733b a445 7f3d 516e c7bb
00000100: 05b9 5fbb ada2 9bbd ab6d 48ba cb96 993b
00000110: 97f2 3ebc eb67 6fbc dd76 54bb 574e ebba
00000120: f432 aa3a e681 173a 8f5b ac3c 82a2 9e3b
00000130: 62ce 013a b4d4 b1ba 7623 67bb c59c 3bbc
00000140: ebdc 1ebb 66ab 2f3c 80b8 d53a e801 053c
00000150: b1c8 9dbb b741 debb a792 d4bb 8ee3 aa3b
00000160: 6ddc 0d3d e718 503b 49c3 b03b e5c2 10bb
00000170: c106 a13b 5873 00bd ff11 4fbb b89e 2dbc
00000180: b0f9 08bd 389e cb3b e2e2 b33b d7e5 17bc
00000190: 48cd a93b a70f 17bb 9d64 0d3c dc3c b8bb
000001a0: 5da1 3a3a 37a3 773c c082 82bb b0bd 20bc
000001b0: 75dd 943b 26a6 1bbb bc88 72bc 236e 66bb
000001c0: 2801 bebc 2512 3e3b 5771 19bb 6e8e 463b
000001d0: 0cb1 6d3c b6b3 f8bc 828c dc3b 6778 a8bc
000001e0: a7aa 673b cc55 82bc 5b17 a73b ebec a8b9
000001f0: d1d9 c43c 8596 543c 0103 2cbb b308 b6bd
00000200: 20d9 a1bb 7676 9dba 15f4 28bc 7a9c cdbc
00000210: a13b f5bb 2871 87bb d581 333b 6706 883b
00000220: 5109 5dbc 1afa 1cbd 40ab d4bb c6ff 74bc
00000230: 3c63 a23c 9c04 3c3c a88e 3ebc c918 143c
00000240: cb71 1abc 234d b0bb 46dd 943c 0099 503b
00000250: afc2 4838 4851 4bbb 9f4e 9fbb 6453 41bb
00000260: 090b 5d3b ffb7 1cbd 34eb 41bc 65da 2d3b
00000270: 75d6 04bc 5c05 39bc 15e8 6abb 8823 643c
00000280: 6bda e2bd 4eb0 1b3c fd13 babb ab2f ddbc
00000290: d92f e13b f070 173d 9f0a 223b e02c dc3b
000002a0: a398 f53a 4c4d bf3c 3d4f e73b 11a8 7b3b
000002b0: 4aa1 bfbb ba87 2bbc cb3c 4a3b 0dce ae3a
000002c0: 7c20 fe3b 46bf 61bc 4c95 3dbc d474 063c
000002d0: b365 06bc d2cf 79bc 7c23 bf3b 6527 973c
000002e0: f462 7737 d864 0a3c d88c 55bc fbc4 34bc
000002f0: d78e 2e3c 0e8a 603b 95a1 98bd 07b9 16bc
00000300: 6127 643c 595e 9f3d afbe 213b dc31 ef3a
00000310: c82d b2bb e03b 593a f2ab 82bb 06f4 183c
00000320: 253d 663b 2051 d03b a204 b23b 953b bdbc
00000330: 9516 51bc 9493 8d3a 23ec 01bc 67e3 7a3b
00000340: f8e3 8cbb df39 54bb 8405 6539 77dd 09bb
00000350: c19a 403c f4ae ff3b cb14 3dbc 8b7c 8fbc
00000360: 4ecf 6abd 65ab 32bc a200 01bb 9a71 68bc
00000370: fa96 3dbb f59f c73b 8310 9abc 7db7 24bc
00000380: 65fa f43c a3cf 3a3c f451 0b3c 4b3a 7ebb
00000390: a88b 1bba 97c6 03bb 8e71 113c 38d3 38bc
000003a0: 80c9 8fbb b0b8 c23b e0ce ef3a 33b8 953b
000003b0: 0c29 ed3b 7ca7 fc3b dd74 33bc f845 c13b
000003c0: 3a1c 5c3c f835 0ebc cf3b ec3a 1c00 e83b
000003d0: 0477 e33b 60f5 1d3d 279f b73b 126b 973c
000003e0: 5de9 4c3a d788 77bc 1144 19bc 2cb3 cf3b
000003f0: 61ff 533c c409 983b 929f 9839 8755 d33d

action_model._discrete_distribution.branches.1.bias f4 [2]
0.009570152 -0.009569956
00000000: 20cc 1c3c 4ecb 1cbc
