results/first/SpaceInvaders/SpaceInvaders-4949.onnx (onnx, 77862 bytes, 9 tensors)

discrete_act_size_vector f4 [1, 2]
0	0x40400000	3.0
1	0x40000000	2.0

network_body._body_endoder.seq_layers.0.weight f4 [128, 3]
0	0xbf0832fa	-0.53202784
1	0x3f349adc	0.70548797
2	0x3f92e859	1.1477157
3	0xbe235a03	-0.15952305
4	0x3f704623	0.9385702
5	0xbe78b2ec	-0.24287003
6	0xbe50cb45	-0.20390041
7	0x3f3bd3b0	0.73369884
8	0x3f3bd73a	0.73375285
9	0xbdb87abf	-0.09007787
10	0x3ed8029b	0.42189488
11	0x3f95d825	1.1706587
12	0xbe294dc7	-0.16533576
13	0x3e211901	0.15732194
14	0xbe62d3cc	-0.22151107
15	0xbebe3a86	-0.37154025
16	0x3dc7fc41	0.097649105
17	0x3ccabd8f	0.024748592
18	0xbe953e5a	-0.29149133
19	0xbdc79fb9	-0.097472616
20	0xbe957754	-0.29192603
21	0xbe840785	-0.25786987
22	0x3e027ff0	0.12744117
23	0x3f3d85c8	0.7403226
24	0xbe2f192e	-0.17099449
25	0x3e61d593	0.22054128
26	0xbe5fb9fd	-0.21848293
27	0xbe0df235	-0.13861926
28	0xbe615814	-0.22006255
29	0xbe2deb2f	-0.16984247
30	0x3f6855bf	0.9075584
31	0xbf35eb9d	-0.7106264
32	0x3edf7eea	0.43651515
33	0x3ef803db	0.4844044
34	0xbf3690f7	-0.7131495
35	0x3e13ad00	0.14421463
36	0xbdaae7bd	-0.08344982
37	0xbf54f000	-0.8317871
38	0xbf5c0938	-0.85951567
39	0x3f3fb9d2	0.74892914
40	0xbdcd5304	-0.100255996
41	0xbd1b54c6	-0.037922643
42	0x3f207a04	0.6268618
43	0xbe9fba42	-0.3119679
44	0xbf29c7f3	-0.66320723
45	0x3f343193	0.70388144
46	0x3e3f4b21	0.18681003
47	0x3efd0518	0.4941795
48	0xbd82a1ca	-0.06378515
49	0xbe1cb522	-0.15303472
50	0x3f9b078e	1.211168
51	0x3d914354	0.0709292
52	0xbf1fd232	-0.6243011
53	0xbd30f73f	-0.043204542
54	0xbea0bd1b	-0.31394276
55	0xbf2d0658	-0.67587805
56	0xbe9e22c0	-0.30885887
57	0x3f11396d	0.5672825
58	0xbee7287a	-0.4514807
59	0x3de9dea4	0.114194185
60	0x3e3d9eb6	0.18517575
61	0x3ccecfe4	0.025245614
62	0xbfa920b6	-1.3213108
63	0xbe88b52a	-0.26700717
64	0x3f77677f	0.966423
65	0xbeb02390	-0.34402132
66	0xbf6c3eca	-0.9228331
67	0xbe97f7ad	-0.2968115
68	0x3dc7f46a	0.09763415
69	0x3df4d098	0.119538486
70	0xbeda000f	-0.4257817
71	0x3f7814a3	0.9690649
72	0xbe6be7d4	-0.23037654
73	0x3f418963	0.7560026
74	0xbe97a6e4	-0.29619515
75	0xbfb46a98	-1.409503
76	0x3ccaf2b7	0.024773939
77	0x3e567341	0.20942403
78	0x3fb579ef	1.4177836
79	0x3dcf4479	0.10120482
80	0xbe8a3d3e	-0.2699985
81	0xbe9ef2c6	-0.31044596
82	0xbefe4b6b	-0.49666914
83	0x3eb296c3	0.34880647
84	0xbedb4aaa	-0.42830402
85	0xbec9abd4	-0.39388907
86	0xbed34495	-0.4126326
87	0xbda8ad8d	-0.08236227
88	0xbe8b13dd	-0.27163592
89	0x3e87045f	0.26370522
90	0x3e3f5ad3	0.1868699
91	0x3e3d813a	0.18506327
92	0x3e259b14	0.16172439
93	0xbed666b7	-0.4187524
94	0xbf24c334	-0.64360356
95	0xbecf678f	-0.40508696
96	0x3ed52306	0.41628283
97	0xbf817993	-1.0115227
98	0x3ebca7c7	0.36846754
99	0xbe6fdb11	-0.23423411
100	0x3d68670c	0.0567389
101	0x3eb74929	0.35798004
102	0x3e3ade7e	0.18248937
103	0x3bd0b38c	0.00636906
104	0x3eb56d5e	0.35435003
105	0x3e8820b4	0.2658745
106	0xbee3eb1e	-0.44515318
107	0x3ef01046	0.46887416
108	0xbed0d545	-0.40787712
109	0x3f785eec	0.9701984
110	0x3f3308f0	0.6993551
111	0x3de58a46	0.11208014
112	0xbd8312d1	-0.06400073
113	0x3e9623d6	0.29324216
114	0xbe929525	-0.28629413
115	0x3e103222	0.14081624
116	0xbe9df169	-0.30848244
117	0x3ec5d311	0.38637593
118	0xbee375b0	-0.44425726
119	0xbe652b5e	-0.22379825
120	0x3d4b588e	0.049645
121	0xbf377f79	-0.7167888
122	0x3e2331ce	0.15936968
123	0x3eef2548	0.4670813
124	0xbec09b5e	-0.37618536
125	0x3ea67f69	0.3251908
126	0x3eff194f	0.49823996
127	0x3eda3b26	0.42623252
128	0x3f1153e2	0.5676862
129	0xbed27ab2	-0.41109234
130	0x3eee8e28	0.46592832
131	0xbee0a3aa	-0.43874866
132	0x3ea9be94	0.33153212
133	0xbf23a140	-0.6391792
134	0x3ead74c0	0.33878136
135	0x3ea9a4ae	0.33133453
136	0xbdce7afb	-0.100820504
137	0xbeff5cca	-0.4987548
138	0x3f5406c1	0.82822806
139	0x3edcdc41	0.4313679
140	0xbecc531f	-0.39907166
141	0xbe95dbbf	-0.29269215
142	0x3eedbeea	0.46434718
143	0x3f9d3ced	1.2284218
144	0xbe14b526	-0.14522228
145	0x3ebfeb85	0.37484375
146	0xbe499e85	-0.19689377
147	0xbe44c8de	-0.1921725
148	0x3edcc0bf	0.43115804
149	0x3f3e9a8e	0.7445458
150	0x3ea595d0	0.3234086
151	0xbef5b311	-0.4798818
152	0x3c08bf90	0.008346453
153	0xbe5c8e54	-0.21538669
154	0xbf1bcace	-0.6085633
155	0xbe62850b	-0.22121064
156	0xbec48f5f	-0.38390633
157	0x3f05d744	0.52281594
158	0xbc59dc28	-0.013297118
159	0xbe0df6e2	-0.1386371
160	0xbefb416d	-0.49073353
161	0x3f231b5b	0.63713616
162	0xbd6508da	-0.055916645
163	0x3f3d8f3c	0.74046683
164	0x3f29710a	0.6618811
165	0xbf012b01	-0.50456244
166	0xbeaae027	-0.3337414
167	0x3f0d4013	0.55175894
168	0x3f7c6762	0.9859525
169	0xbf745db3	-0.95455474
170	0x3ece64b6	0.4031121
171	0x3f115c47	0.5678143
172	0xbd8eec3c	-0.06978652
173	0x3e00caed	0.1257741
174	0x3e329bfa	0.17442313
175	0xbcdf479a	-0.027255822
176	0x3e98695b	0.2976788
177	0x3ce81c6c	0.028333865
178	0xbd8a1813	-0.06742873
179	0xbf4e1a43	-0.8050882
180	0xbee837f4	-0.4535519
181	0xbece6f7f	-0.4031944
182	0xbedd9ec5	-0.43285194
183	0xbdf7b79c	-0.120955676
184	0xbed5b25c	-0.4173764
185	0xbe17e1d2	-0.14832237
186	0xbf64ed64	-0.8942473
187	0xbf9330be	-1.149925
188	0x3d872790	0.06599343
189	0xbea69fa1	-0.32543662
190	0xbe2d4dee	-0.16924259
191	0x3d0d3ca6	0.034481667
192	0xbf2e27ba	-0.6802937
193	0x3ea0e2d3	0.31423053
194	0x3e95ac72	0.29233128
195	0xbef2eb66	-0.4744522
196	0xbec08931	-0.3760467
197	0x3f3fa4e5	0.74860984
198	0xbf0c6b5b	-0.5485131
199	0x3ea5a45c	0.3235196
200	0xbd75c04a	-0.059997834
201	0x3ef6ed41	0.48227885
202	0x3f2cd713	0.6751568
203	0xbdea3efe	-0.11437796
204	0x3e6abdce	0.22923967
205	0x3e7e6aeb	0.24845473
206	0xbeaad1c3	-0.3336316
207	0x3e3a8e55	0.18218358
208	0xbe02fd8c	-0.12792033
209	0x3f29b858	0.6629691
210	0x3ee1b9f8	0.44087195
211	0xbefdcb99	-0.49569395
212	0x3e16447e	0.14674565
213	0x3fc4a476	1.536269
214	0xbe9dea94	-0.3084303
215	0xbeb6292a	-0.3557828
216	0x3e5f45fd	0.21804042
217	0xbe7f4012	-0.24926785
218	0x3ca5f051	0.020256193
219	0x3d527b80	0.05138731
220	0xbed1fbdb	-0.41012463
221	0xbdd48857	-0.10377567
222	0x3ef31e9b	0.47484288
223	0xbea5d84a	-0.32391578
224	0xbe5fad1d	-0.21843381
225	0xbe9470a3	-0.28992185
226	0x3f6cbd50	0.9247637
227	0xbeb2bb1d	-0.3490838
228	0xbe518051	-0.20459105
229	0x3dd32179	0.10309119
230	0x3eed29e5	0.46321025
231	0x3f4f08cb	0.8087279
232	0x3ea05e31	0.31321862
233	0xbf14f928	-0.5819268
234	0xbe4197b5	-0.18905528
235	0xbe81740b	-0.25283846
236	0xbe57122e	-0.21003029
237	0xbc41badb	-0.011824335
238	0x3e9b6b3d	0.30355254
239	0x3ec6289f	0.38702866
240	0xbe8e955b	-0.27848324
241	0xbe7a016b	-0.24414603
242	0x3f728b74	0.9474404
243	0x3f11b92e	0.56923187
244	0x3e45bc17	0.19310032
245	0xbfb1b920	-1.3884621
246	0xbebf9b54	-0.37423193
247	0xbeb201f7	-0.34767124
248	0xbebe0c7b	-0.37118897
249	0xbf0536d6	-0.520368
250	0xbea29cab	-0.31760153
251	0x3ec608b6	0.3867852
252	0xbf19e719	-0.6011825
253	0x3f05665b	0.5210931
254	0xbf1e3ed3	-0.6181461
255	0xbf19198c	-0.59804606

network_body._body_endoder.seq_layers.0.bias f4 [128]
0	0x3cf334e6	0.02968831
1	0x3df2dd9e	0.118586764
2	0x3c965fd9	0.01835625
3	0xbbf43c00	-0.0074534416
4	0x3dfb5e2a	0.1227382
5	0x3d272f10	0.040816367
6	0x3d8957bf	0.06706189
7	0xbc70e28c	-0.0147024505
8	0x3d9cfd53	0.07665505
9	0x3dd5f52a	0.10447152
10	0x3c02f60c	0.007993232
11	0xbcefbffc	-0.02926635
12	0xbba6b31e	-0.0050872704
13	0xbda44338	-0.080206335
14	0xbc89c5ab	-0.016817888
15	0xbbfb7e90	-0.0076749995
16	0xbd8f7554	-0.070048004
17	0xbc9521cf	-0.018204598
18	0x3e101208	0.14069378
19	0xbd65e9b1	-0.05613107
20	0x34bbb081	3.4959888e-07
21	0x3ddf3981	0.1089964
22	0x3cf3ed8e	0.02977636
23	0xbc06014a	-0.008179018
24	0x3e0cae3f	0.13738345
25	0x3c84f651	0.016230734
26	0x3c995e11	0.018721612
27	0xbb8dd758	-0.0043286495
28	0x3da5388b	0.08067425
29	0x39f2a2b6	0.00046279066
30	0xbd4cc20c	-0.049989745
31	0x3e4cb769	0.1999184
32	0xbd17e830	-0.037086666
33	0xbbb7d846	-0.0056104986
34	0xbb185cd0	-0.002324868
35	0x3c00058d	0.007813823
36	0xbbdc8485	-0.0067296647
37	0xbc9e9661	-0.019358816
38	0x3e2dbc11	0.16966273
39	0x3cf35869	0.029705243
40	0x3a8ffcfd	0.001098543
41	0xba5eef04	-0.0008504244
42	0xbc7cc874	-0.015428651
43	0x3e5d5775	0.21615393
44	0xbd6d78b2	-0.057976432
45	0x3d6d1cae	0.05788868
46	0x3d815ab6	0.0631613
47	0xbccf0042	-0.025268678
48	0x3d839df3	0.06426611
49	0x3c40896e	0.011751516
50	0x3b250924	0.002518245
51	0x3dbf5109	0.09341628
52	0x3cb73dea	0.02236839
53	0xbccb700f	-0.024833707
54	0xbc3b90e6	-0.011448121
55	0xbc51ea56	-0.012812218
56	0xbcdf2edc	-0.027244024
57	0xb998b741	-0.00029128234
58	0xbd05c978	-0.03266284
59	0xb9c89816	-0.00038260286
60	0x3dd2a65a	0.10285635
61	0x3c937a32	0.018002603
62	0xbd4b05c1	-0.049566034
63	0xbcf59e66	-0.029982757
64	0x3c18a859	0.009317481
65	0x3c85bc9a	0.016325284
66	0x3d80e196	0.06293027
67	0xbbbb5559	-0.0057169613
68	0x3d87e58b	0.06635579
69	0xbd1e6f91	-0.038680617
70	0xba383fb2	-0.00070285343
71	0xbc0b6b72	-0.008509504
72	0x3c3a4508	0.011368997
73	0x3d8542eb	0.06506904
74	0x3dc9563d	0.09830902
75	0x3e0b3f25	0.13598306
76	0xbc8fbeb3	-0.017546987
77	0x3dc3098f	0.095233075
78	0x3dfec2f0	0.12439525
79	0xbc8862be	-0.016648646
80	0xbc393d1c	-0.0113060735
81	0x39ae1433	0.00033202916
82	0x3d2f1a7e	0.042749874
83	0xbd2352b9	-0.039873812
84	0x3e19d42b	0.15022342
85	0xbd59ada4	-0.053144112
86	0xbc3c7007	-0.011501319
87	0x3c33a450	0.010964468
88	0x3dc0f315	0.09421364
89	0xbd17e077	-0.0370793
90	0xbd64489d	-0.055733312
91	0x3c3817a6	0.011236107
92	0xbb0fbc39	-0.0021932258
93	0xbc12be49	-0.0089565
94	0x3e1b8c1d	0.15190168
95	0x3ccba7a2	0.024860207
96	0x3caae5b4	0.020861484
97	0x3dbbadf5	0.09164039
98	0xbc59a6ef	-0.013284429
99	0xbb061bc9	-0.0020463339
100	0x3d1a8418	0.03772363
101	0xbc4c552c	-0.012471478
102	0xbc4f6404	-0.012658123
103	0x3e1cda92	0.15317753
104	0xbd0cc497	-0.03436717
105	0x3e456cf3	0.19279842
106	0x3d725593	0.05916364
107	0xbd128034	-0.035766795
108	0xbba6135b	-0.0050682253
109	0xbcda2daa	-0.026633102
110	0xbcc6b5ed	-0.02425667
111	0xbc28180f	-0.010259642
112	0x3d9836e2	0.07432343
113	0x3e02a8c4	0.12759691
114	0x3e42ed36	0.19035801
115	0x3e47ba40	0.19504642
116	0x3e175664	0.14779049
117	0x3d22380f	0.039604243
118	0xb7b2780b	-2.1275153e-05
119	0xbcc8151b	-0.024424126
120	0x3d215a5c	0.039392814
121	0xba861794	-0.0010230416
122	0x3d75f362	0.06004656
123	0xbcc33f85	-0.023834
124	0xbd0b8ff8	-0.034072846
125	0x3c4cc8d6	0.012499055
126	0x3b9874bb	0.004652587
127	0x3d478491	0.04871041

network_body._body_endoder.seq_layers.2.weight f4 [128, 128]
0	0xbe145484	-0.14485365
1	0x3d8ff6a6	0.07029466
2	0xbe0e697d	-0.13907428
3	0xbe04b1f4	-0.12958509
4	0x3d32a044	0.043609872
5	0x3dea39ca	0.11436804
6	0x3caaa246	0.020829331
7	0xbc4519cf	-0.012030079
8	0x3ca1b1f8	0.019738182
9	0xbaf6e269	-0.0018835786
10	0xbc0008a9	-0.007814565
11	0x3da86a73	0.082234286
12	0xbe6a3b4a	-0.2287418
13	0x3d7a4d31	0.06110877
14	0x3e0ad556	0.13557944
15	0xbc2b062c	-0.010438483
16	0x3dc32c26	0.09529905
17	0x3e01692a	0.12637773
18	0xbdde781a	-0.10862751
19	0x3df12b31	0.11775816
20	0xbc7d6062	-0.015464874
21	0xbd599201	-0.053117756
22	0x3e833024	0.25622666
23	0x3dd207f2	0.10255422
24	0x3dfac9fb	0.12245556
25	0xbce50a0f	-0.027958898
26	0x3c6fa071	0.014625655
27	0xbd924899	-0.07142753
28	0x3cb38d40	0.02191794
29	0xbd804c87	-0.062645964
30	0x3d2757a7	0.040855076
31	0x3cd0d374	0.025491454
32	0x3e85cecf	0.26134345
33	0xbdc01c31	-0.09380377
34	0xbcb2f9a5	-0.021847555
35	0x3aaa2368	0.0012980523
36	0xbda47389	-0.08029849
37	0xbe0ad4d2	-0.13557747
38	0x3e3398ea	0.17538801
39	0xbde9f8d7	-0.114244156
40	0xbe59f085	-0.21283157
41	0xbca35f6b	-0.01994296
42	0xbd902630	-0.07038534
43	0xbd2e4e93	-0.042555403
44	0x3be2c754	0.0069207344
45	0x3e22ce39	0.1589898
46	0xbdb1a0db	-0.08673259
47	0xbd5dfb91	-0.05419499
48	0x3dcdb007	0.1004334
49	0xbd968925	-0.07350377
50	0xbdc5e50a	-0.09662826
51	0x3dfef8ec	0.12449822
52	0x3ddef37c	0.10886285
53	0xbd8329e1	-0.06404472
54	0xbdd80215	-0.10547272
55	0x3b083be7	0.0020787658
56	0x3dbd5d0b	0.09246262
57	0x3e140f24	0.144589
58	0xbd654f60	-0.0559839
59	0x3d516bf0	0.051128328
60	0xbd949d0c	-0.07256517
61	0x3c9c72d9	0.019097732
62	0x3dc6db73	0.09709825
63	0x3e4a9c3e	0.19786164
64	0xbd4d9d7e	-0.050199024
65	0xbd5a608c	-0.05331473
66	0xbe685561	-0.2268882
67	0xbbfe9ee4	-0.007770406
68	0x3e07a0ee	0.13244984
69	0x3ddafa22	0.1069224
70	0xbc2a063c	-0.010377463
71	0x3d07bbff	0.03313827
72	0xbd9960ad	-0.074891426
73	0x3e2645dc	0.16237587
74	0x3d2ea952	0.042641945
75	0xbd06088a	-0.032722987
76	0xbe1eeb86	-0.15519533
77	0xbe1aec54	-0.15129215
78	0x3c821c86	0.015882742
79	0xbdbb9f82	-0.09161283
80	0xbe8126ff	-0.25225064
81	0x3d7f8933	0.062386703
82	0xbdc2a78a	-0.09504612
83	0xbd21a231	-0.03946132
84	0x3cf772f0	0.030206174
85	0xbeb22490	-0.3479352
86	0xbded8b57	-0.115988426
87	0x3c5b94c7	0.0134021705
88	0x3e1f4231	0.15552594
89	0xbde432a2	-0.1114247
90	0xbdb71952	-0.08940376
91	0x3e080e64	0.1328674
92	0x3d4f3b0a	0.050593413
93	0x3d48d41f	0.04903042
94	0xbd8daa4f	-0.069172494
95	0x3d6a9b5a	0.05727706
96	0xbd6828ee	-0.05667966
97	0xbd9d428b	-0.07678708
98	0xbd1e5cbc	-0.038662657
99	0x3dedf24c	0.1161848
100	0xbe009c9a	-0.12559739
101	0xbde00288	-0.10937983
102	0x3ca680ff	0.020325182
103	0x3d0a000b	0.033691447
104	0xbd67c86b	-0.056587618
105	0x3d3f43b7	0.046695437
106	0xbe0b5053	-0.1360486
107	0x3b3b9fc9	0.0028629175
108	0x3d42d945	0.047570486
109	0xbdb61d61	-0.08892322
110	0x3e163113	0.14667158
111	0x3d4b7dd9	0.049680565
112	0x3caf774f	0.021419195
113	0x3e350775	0.17678626
114	0x3e2d347e	0.16914555
115	0xbdf82e1f	-0.12118172
116	0x3dea4e2f	0.114406936
117	0x3c8b653b	0.017016044
118	0xbd2c8242	-0.04211641
119	0xbc55ddd2	-0.013053374
120	0xbf17ec12	-0.5934459
121	0xbd70e03f	-0.058807608
122	0x3c5374a5	0.012906228
123	0xbded6ca4	-0.11592987
124	0x3def8194	0.11694637
125	0xbdbb3e2e	-0.09142719
126	0x3e6cb9ca	0.23117748
127	0xbd873c6c	-0.066033214
128	0xbe822393	-0.25417766
129	0xbdc91d36	-0.09820025
130	0x3d92bed9	0.071653076
131	0xbbec9872	-0.0072203213
132	0x3e47542d	0.19465704
133	0xbd1a03d5	-0.03760131
134	0xbe0afd0a	-0.13573089
135	0xbe1f8ba4	-0.15580612
136	0x3d1ba88b	0.038002532
137	0xbdee2616	-0.11628358
138	0xbd52ffc2	-0.05151344
139	0x3d7eefc7	0.06224039
140	0xbdb60f3c	-0.088896245
141	0xbc801e73	-0.01563952
142	0x3d9496f7	0.07255357
143	0xbd585bc5	-0.052821893
144	0xbdd36291	-0.103215344
145	0xbe063957	-0.13107811
146	0x3e4bbbf7	0.19895922
147	0x3d0a17ea	0.033714212
148	0x3d3c3044	0.045944467
149	0xbc8ce52e	-0.017199125
150	0x3d0727e7	0.03299704
151	0xbce21f2f	-0.02760276
152	0xbcea77fc	-0.028621666
153	0xbcf784fe	-0.030214783
154	0xbe0d2b74	-0.13786107
155	0xbc249407	-0.010045058
156	0x3d2e9016	0.04261788
157	0x3de2ea3b	0.11079832
158	0x3cab26f2	0.020892594
159	0x3e168a0c	0.14701098
160	0xbda4399b	-0.080188
161	0xbe0c1e33	-0.13683395
162	0xbd8adda2	-0.06780554
163	0xbcc9f349	-0.02465214
164	0xbe0c39de	-0.1369395
165	0xbd11f6cc	-0.035635754
166	0x3daf5aa7	0.085622124
167	0x3c962404	0.01832772
168	0x3df077cb	0.11741599
169	0x3c128d85	0.008944874
170	0xbc12edd1	-0.008967833
171	0x3ded5773	0.11588945
172	0x3de05dc0	0.109553814
173	0x3d05b6b2	0.032644935
174	0x3d8c1cde	0.068414435
175	0xbde3169f	-0.11088299
176	0x3e009666	0.12557372
177	0xbd780043	-0.060547125
178	0xbe178b10	-0.14799142
179	0xbdefe789	-0.11714084
180	0xbd8976b9	-0.06712098
181	0xbc8e62d6	-0.017381113
182	0x3e1a0e8d	0.15044613
183	0xbcb0d1f2	-0.021584485
184	0x3afa4559	0.0019094154
185	0x3df20bfd	0.11818693
186	0xbd2bbddf	-0.041929122
187	0xbcb70894	-0.022342958
188	0x3d6f770c	0.05846314
189	0xbbf2fa17	-0.007415067
190	0x3da10404	0.07862094
191	0x3d00b70a	0.03142456
192	0x3ddeaa79	0.10872359
193	0xbccec6b3	-0.025241232
194	0x3d9a9c8a	0.07549389
195	0xbd37469b	-0.04474507
196	0xbacb0740	-0.0015489832
197	0x3d9bcb22	0.07607104
198	0xbd9210ab	-0.071320854
199	0x3dd272ae	0.1027578
200	0xbd992813	-0.07478347
201	0x3df787d5	0.12086455
202	0xbc6d759c	-0.014493372
203	0xbdeddc30	-0.11614263
204	0x3dba9c85	0.09111885
205	0x3e02c0a2	0.12768796
206	0x3dd6d364	0.10489538
207	0xbd0fcbe4	-0.035106555
208	0x3dba5ba2	0.09099509
209	0xbe0a37da	-0.13497868
210	0xbdf3f7db	-0.11912509
211	0x3d5d5d6b	0.05404417
212	0x3d3e2498	0.046421617
213	0x3ce6ba70	0.028165072
214	0xbd134257	-0.03595194
215	0x3dd1e1e7	0.102481656
216	0xbdf5a14b	-0.11993655
217	0x3c83584d	0.016033316
218	0x3e0a5333	0.135083
219	0xbd9ee2a7	-0.07758074
220	0x3e0fd011	0.14044215
221	0x3decda5d	0.11565087
222	0x3dc06e0f	0.09395992
223	0x3dbfc085	0.09362892
224	0x3e19efde	0.15032908
225	0x3ac9b6ee	0.00153896
226	0x3e2734f4	0.16328794
227	0x3d7768c1	0.060402635
228	0xbdae8cd0	-0.085229516
229	0x3e03a564	0.1285606
230	0xbdb38ed8	-0.0876748
231	0xbb400b86	-0.0029303744
232	0xbdf30b02	-0.11867334
233	0x3ca1927b	0.019723168
234	0x3d5c9332	0.053851314
235	0x3d2cf27f	0.04222345
236	0xbc79aefb	-0.0152394725
237	0x3db091a5	0.086215295
238	0xbc8f2566	-0.017473888
239	0xbd9eb36d	-0.077490665
240	0x3c136178	0.008995406
241	0xbdbd9bd1	-0.09258235
242	0x3d8faef8	0.070157945
243	0x3c9cb711	0.019130262
244	0x3d9be7ee	0.076125965
245	0xbd1f851c	-0.038945302
246	0x3d02317b	0.03178547
247	0x3d05273f	0.03250813
248	0xbdae4cb9	-0.085107274
249	0xbdc3f284	-0.095677406
250	0xbd49f0cd	-0.04930191
251	0x3d2ba85f	0.041908618
252	0xbd848606	-0.064708754
253	0x3cb33cb5	0.021879533
254	0xbe1dfa4c	-0.15427512
255	0xbd47601a	-0.048675634

network_body._body_endoder.seq_layers.2.bias f4 [128]
0	0xbcacf2e2	-0.02111191
1	0xbc2f1b32	-0.010687636
2	0x388160a0	6.169197e-05
3	0xbc28e781	-0.010309101
4	0x3a34390e	0.0006874957
5	0x3d288219	0.041139696
6	0xbbd5a2f3	-0.006519669
7	0xbb8afc5c	-0.0042415094
8	0xbc109f08	-0.0088269785
9	0xbaa8342e	-0.0012832934
10	0xbbf87b29	-0.007583041
11	0xbccc4cce	-0.024938967
12	0xbc242623	-0.010018858
13	0xbc1e6837	-0.009668401
14	0x3bf9ed7f	0.0076271887
15	0xbc43041a	-0.011902833
16	0xbc428f6c	-0.011875015
17	0x3b64766c	0.0034860624
18	0x3b49c54f	0.003078777
19	0x3cd8d800	0.026470184
20	0xbbac6dbe	-0.0052621057
21	0xbc97ba19	-0.018521355
22	0xbb68e8f8	-0.003553925
23	0x3b56fc79	0.0032804294
24	0xbbf2489d	-0.00739391
25	0xbaf4a1d2	-0.0018663949
26	0xbc32f303	-0.010922196
27	0x3b72100d	0.0036935837
28	0xbba69a20	-0.005084291
29	0xbbf51f06	-0.007480505
30	0xbc23c351	-0.0099952975
31	0xbc8a581e	-0.01688772
32	0xbca4ca66	-0.020116042
33	0xbbe60a23	-0.0070202514
34	0xbc1e9d6b	-0.009681086
35	0x3d4a7983	0.04943229
36	0xbb8f9ab4	-0.0043824557
37	0x3c3883e0	0.01126191
38	0xbc9ad8f4	-0.01890228
39	0xbb6fee7f	-0.003661066
40	0x3ca73444	0.020410664
41	0x3b7b4bba	0.0038344697
42	0xbd877816	-0.066147014
43	0x3cd331e0	0.025780618
44	0xbc5823be	-0.013192115
45	0xbc086e6e	-0.00832711
46	0xbc910d88	-0.017706648
47	0xbd0b6b4e	-0.03403788
48	0xbb73fe7a	-0.0037230537
49	0xbc80b1a4	-0.015709706
50	0xbbb3adbd	-0.0054833577
51	0xbb08ede5	-0.002089375
52	0xbbefa107	-0.007312897
53	0xbc04f141	-0.00811416
54	0xbc217806	-0.009855276
55	0xbaa1a409	-0.0012332211
56	0xbcf3bd5b	-0.029753378
57	0x3d0a3d32	0.033749767
58	0xbc2f0f05	-0.010684733
59	0xbb8b4626	-0.0042503057
60	0x3c72f549	0.014828988
61	0xbcbb402f	-0.022857754
62	0xb88ad099	-6.619207e-05
63	0xbccbb0fb	-0.024864664
64	0xbc8d37e9	-0.017238574
65	0xbc86fd90	-0.01647833
66	0x3d0b6ba8	0.034038216
67	0xbbcf0144	-0.0063172895
68	0xbc95368b	-0.018214485
69	0x38260143	3.957866e-05
70	0xbc4379e9	-0.011930921
71	0xbbe95334	-0.0071205143
72	0xbbc8a090	-0.006122656
73	0x3b787647	0.0037912296
74	0xbc94882d	-0.01813134
75	0xbcd0f196	-0.025505822
76	0xbba0809c	-0.004898144
77	0xbc14bf04	-0.009078745
78	0xbc3a1108	-0.0113566
79	0xba3abc0d	-0.00071233587
80	0xbbb81cae	-0.0056186533
81	0x3cbd1800	0.023082733
82	0xbc088767	-0.008333064
83	0xbc7b9534	-0.015355397
84	0x3d151e07	0.03640559
85	0xbc897804	-0.01678086
86	0x3c50c888	0.012743123
87	0x3c58384b	0.013197015
88	0xbc0b0bb4	-0.008486677
89	0xbbe9a473	-0.0071301996
90	0xb91ef850	-0.00015160558
91	0x3cb4b263	0.022057718
92	0xbcc630b5	-0.024193147
93	0xbd3197ff	-0.043357845
94	0xbcf1f233	-0.029534435
95	0x3ccc1192	0.024910722
96	0xbace8df6	-0.001575886
97	0xbbe64500	-0.0070272684
98	0x3cacfdde	0.021117147
99	0xbcdcc8a6	-0.026951145
100	0x3c08a4d8	0.008340083
101	0xbbb39e3e	-0.0054815104
102	0x3bb575f8	0.0055377446
103	0x3d0b3886	0.03398945
104	0xbc5c0393	-0.013428587
105	0x3ca9c345	0.020722995
106	0xbcec541c	-0.0288487
107	0x3af22239	0.0018473334
108	0xbb8c1840	-0.0042753518
109	0xbc7723e2	-0.015084239
110	0x3cc9119b	0.024544528
111	0x3c51e05c	0.012809839
112	0xbc3eaa23	-0.011637243
113	0xbbf88033	-0.007583642
114	0xbd15b7cb	-0.03655223
115	0xbc90caee	-0.01767489
116	0xbc19928e	-0.00937332
117	0xbcb47cc8	-0.022032157
118	0xbbd38731	-0.006455325
119	0xbc55cabc	-0.013048824
120	0x3c83fa72	0.016110633
121	0xbc15a1e8	-0.00913284
122	0xbb96565b	-0.004587931
123	0x3caa1799	0.020763205
124	0xbabb3fd3	-0.0014285989
125	0xbc804a68	-0.01566048
126	0x3a3e51c0	0.00072601065
127	0x38e21abf	0.000107815016

action_model._discrete_distribution.branches.0.weight f4 [3, 128]
0	0x3ddd2511	0.107980855
1	0x3ce4e058	0.027939007
2	0x3d5c3400	0.05376053
3	0xbca777c3	-0.020442849
4	0xbd41dde7	-0.047330763
5	0xbe809413	-0.25112972
6	0xbc877682	-0.016536001
7	0x3c00f255	0.007870276
8	0x3c000aef	0.007815107
9	0x3c286c37	0.010279707
10	0xba162f15	-0.00057290617
11	0x3b766a36	0.0037599928
12	0xbb5ddeaf	-0.0033854654
13	0xbb97b195	-0.0046293237
14	0x3c4705e5	0.012147401
15	0x3b44121d	0.0029918023
16	0xbae0be15	-0.0017146493
17	0x3b00f558	0.0019677486
18	0x3cee8004	0.029113777
19	0xbd82b02d	-0.06381259
20	0x3c1b1018	0.009464286
21	0x3c3e18b0	0.011602566
22	0xbc192800	-0.009347916
23	0x3d9a77d6	0.07542388
24	0x3c8b4c23	0.017004078
25	0xbca2215e	-0.019791301
26	0x38d21db0	0.0001001911
27	0x3cb8cca3	0.022558516
28	0x3b36f816	0.0027918867
29	0x3c477eb9	0.012176209
30	0x3c1982d3	0.00936957
31	0x3caca096	0.021072667
32	0xb9b7792c	-0.0003499476
33	0xbc5cbd3d	-0.013472852
34	0x3b2307ec	0.0024876548
35	0x3ce7bd8b	0.028288623
36	0xbc7ff82f	-0.015623136
37	0x3c383425	0.011242901
38	0x3a9eae7d	0.0012106445
39	0xbb84cc74	-0.004052693
40	0x3cf0874b	0.029361388
41	0x3bca887b	0.0061808205
42	0x3bb4f72d	0.0055226297
43	0x3e2925ba	0.16518298
44	0x3a2737b9	0.0006378848
45	0x3d17dcb8	0.03707573
46	0xbd8b2d4d	-0.0679575
47	0x399a3048	0.0002940914
48	0xbb012ade	-0.0019709389
49	0xbc6cc630	-0.014451548
50	0xbb34d8d2	-0.0027595055
51	0xbc2b32db	-0.010449137
52	0x3ca539aa	0.020169098
53	0xbc371fc0	-0.011177003
54	0xbbe0f82e	-0.006865523
55	0xbbad74a0	-0.005293444
56	0xba879900	-0.001034528
57	0xbcf8a7da	-0.030353475
58	0x3c05fca0	0.008177906
59	0x3b2ac0da	0.002605489
60	0x3a94433b	0.001131154
61	0x3cea1ddb	0.02857869
62	0x3cf42f09	0.029807584
63	0xba11153c	-0.0005534475
64	0xbaf6b491	-0.0018822124
65	0x3cce2a8e	0.025166776
66	0xbb166aa0	-0.0022951737
67	0xbc83c5ed	-0.01608559
68	0x3b4e37c9	0.0031466356
69	0xbc4219a3	-0.011846933
70	0x3c446aa2	0.011988314
71	0xbbbbd09e	-0.005731656
72	0x3c88d723	0.016704148
73	0x3c883342	0.016626004
74	0xbb98e40a	-0.0046658562
75	0xbbca52b8	-0.0061744116
76	0xbc20fcf3	-0.009825933
77	0xbd2708e1	-0.040779952
78	0x3c5c16a0	0.013433129
79	0x3da5cd72	0.08095826
80	0x3c1e9d65	0.0096810805
81	0xbdcacd79	-0.09902472
82	0x3b2515f5	0.002519009
83	0xbbb10913	-0.005402693
84	0xbb9c5c59	-0.004771751
85	0x3c4576bc	0.012052234
86	0x3b727fda	0.0037002475
87	0xbb2b0d21	-0.0026100355
88	0x3cc5c56b	0.024141988
89	0xbcb425cd	-0.021990681
90	0xbcad971b	-0.021190217
91	0xbdabc7a5	-0.083876885
92	0x3c3ec060	0.011642545
93	0xbc13bf89	-0.0090178335
94	0xbc3c70d7	-0.0115015125
95	0xbc7d86f6	-0.015474072
96	0x3c6403e6	0.013916945
97	0x3aab9d4c	0.0013093143
98	0x3bace41b	0.0052762157
99	0x3ad6253d	0.0016338002
100	0xbd0ac23f	-0.033876654
101	0xbc213f02	-0.009841682
102	0x3e72c304	0.23707205
103	0xbe8fbb17	-0.28072426
104	0xbcad8edf	-0.02118629
105	0x3cc4ea3d	0.024037475
106	0xbcbf07c1	-0.023319127
107	0x3dab382a	0.08360322
108	0x3cdb4612	0.02676681
109	0x3c41a086	0.011818057
110	0x3e47e36e	0.19520351
111	0x3b3ec40d	0.0029108555
112	0xbc10cac8	-0.008837409
113	0xbc722a77	-0.014780632
114	0xbc8e7267	-0.017388536
115	0xbc28137a	-0.01025855
116	0xbd052e8e	-0.0325151
117	0x3b7f4d08	0.0038955826
118	0x3c117754	0.008878548
119	0xbbb14521	-0.005409852
120	0x3c9ccabf	0.019139646
121	0xbc9b4f57	-0.01895873
122	0xbb5c5c65	-0.0033624407
123	0x3c971d85	0.018446693
124	0x3d0fb45b	0.03508411
125	0xbc275e8c	-0.010215413
126	0xbba58587	-0.005051318
127	0x3c81c0ff	0.015839098
128	0xbee8226f	-0.4533877
129	0xbb4870b8	-0.0030584764
130	0xbb59c480	-0.0033228695
131	0x3c6cc5c4	0.014451448
132	0x3d1e8e4a	0.038709916
133	0xbe34d65e	-0.176599
134	0x3c1dac45	0.009623592
135	0xbbb68ce8	-0.0055709966
136	0xbabe6142	-0.0014524835
137	0x3cc0b617	0.023524327
138	0x3c57fea4	0.01318327
139	0x3b71cfc3	0.0036897517
140	0x3c0fd5a8	0.008778967
141	0x3c3f3876	0.011671176
142	0xbcd00318	-0.0253921
143	0x3a91956b	0.0011107152
144	0xba535e58	-0.00080630695
145	0xbc91dbfb	-0.01780509
146	0x3d3e58cc	0.046471402
147	0x3d8e9a60	0.069630384
148	0x3d174888	0.036934406
149	0x3c892962	0.016743366
150	0x3b5ad96d	0.0033393756
151	0x3e60d492	0.21956089
152	0x3c466266	0.012108421
153	0x3c793a5c	0.015211668
154	0xbc2f2ba4	-0.010691557
155	0x3c86cacc	0.016454123
156	0xbc4702c6	-0.012146657
157	0xbcc80da1	-0.024420561
158	0x3ce8ef01	0.028434278
159	0xbd01e8fc	-0.03171633
160	0xba299a9c	-0.0006469877
161	0x3cba7002	0.022758488
162	0x3a404256	0.00073341036
163	0x3dd4746b	0.103737675
164	0x3d410a6d	0.047129083
165	0xbabefe6e	-0.0014571676
166	0x3b246cc2	0.0025089239
167	0x3b8fd275	0.004389102
168	0x3cbff0ec	0.02343031
169	0x3a8e470e	0.0010854916
170	0x3c61d82d	0.0137844505
171	0xbced79d8	-0.028988764
172	0x3bc48a7f	0.0059979553
173	0x3c6a05de	0.014283625
174	0x3d45dcc4	0.04830624
175	0x3b9f1577	0.0048548537
176	0xba0962bd	-0.00052408484
177	0xbb88ff47	-0.004180822
178	0xbd2862d6	-0.041109882
179	0xbbdb63e8	-0.0066952594
180	0x3c958930	0.018253893
181	0x3bec2011	0.007205971
182	0xbb2d0b6b	-0.002640451
183	0x3d221f8f	0.039580878
184	0x3ac098f8	0.0014694026
185	0x3d6d7916	0.057976805
186	0xbc51a52b	-0.012795727
187	0x3b08cf41	0.0020875486
188	0xbca5e842	-0.02025235
189	0xbbdba0ec	-0.006702533
190	0x3cb793d0	0.02240935
191	0x3ac8608f	0.0015287566
192	0x3a3a068d	0.0007096313
193	0x3c217e2a	0.00985674
194	0xbccfcb7f	-0.02536559
195	0x3b6263e7	0.003454441
196	0x3bcd8ac7	0.006272647
197	0x3c082087	0.008308536
198	0x3c08f293	0.008358615
199	0xbcc1969e	-0.02363139
200	0x3c89c042	0.016815308
201	0x3cb1537b	0.021646252
202	0x396ea139	0.00022757509
203	0xbd058b95	-0.03260382
204	0xbb4cabc4	-0.003123031
205	0x3c3471e5	0.011013483
206	0x3b3658b3	0.0027823865
207	0x3e7ce893	0.24698095
208	0x3cb2c63b	0.02182304
209	0xbdb750fd	-0.08950994
210	0x3a16cac5	0.0005752261
211	0xbaeab75c	-0.0017907429
212	0x3db04148	0.086062014
213	0x3bb0d6c3	0.0053966953
214	0xbca2459f	-0.019808589
215	0xbcc46c62	-0.023977462
216	0x3d0f3f0a	0.034972228
217	0x3c9f81c7	0.019471062
218	0xbc08c1e5	-0.008347009
219	0xbd9cbf02	-0.07653619
220	0xbc8c4393	-0.017122066
221	0xbbdccd25	-0.0067383223
222	0x3ce03398	0.027368352
223	0xbca71d45	-0.020399699
224	0x3ce82cb4	0.028341629
225	0xbbb27c07	-0.005446914
226	0xbca1e825	-0.019764015
227	0x3ccd2c21	0.025045456
228	0x3d4a6471	0.049412195
229	0xbbf2e579	-0.007412609
230	0x3d27bf0e	0.04095369
231	0x3c850e58	0.016242191
232	0xbcc21a4a	-0.023694176
233	0x3d25f10e	0.04051309
234	0x3be8892e	0.007096431
235	0xbe1cc723	-0.1531034
236	0xbaa5a785	-0.0012638426
237	0x39e6032b	0.0004387138
238	0x3d376fa2	0.044784196
239	0xbcb3844e	-0.021913674
240	0x3c01d518	0.007924341
241	0x3c6fe153	0.014641124
242	0x3cd04c1e	0.02542692
243	0xb923d4d6	-0.00015624179
244	0x3d1f847c	0.038944706
245	0xbc8b09c2	-0.016972426
246	0xbc8c9c7e	-0.017164465
247	0x3dbafc0c	0.091301054
248	0xbd3edf34	-0.04659958
249	0x3c03bdb8	0.008040838
250	0x3c503a2e	0.012709184
251	0x3d1acc26	0.037792347
252	0x3d000e23	0.03126348
253	0x3c96d3fd	0.01841163
254	0xbc88b5e8	-0.016688302
255	0xbb38d4aa	-0.002820293

action_model._discrete_distribution.branches.0.bias f4 [3]
0	0xbb8f1a48	-0.0043671466
1	0xbc97aece	-0.01851597
2	0x3ca5ff97	0.020263476

action_model._discrete_distribution.branches.1.weight f4 [2, 128]
0	0xbb8e82b8	-0.004349079
1	0xbb8469dd	-0.00404094
2	0x3b897185	0.004194441
3	0x3e1b7a88	0.1518346
4	0xba9bbbe1	-0.0011881554
5	0x3e0ac9f8	0.13553607
6	0xb9683c5a	-0.00022147727
7	0x3bff5dca	0.007793163
8	0xbca69ecf	-0.020339398
9	0x3a61dfec	0.0008616436
10	0xbaad092c	-0.0013201586
11	0x3d1bf573	0.038075875
12	0xbc099df0	-0.008399472
13	0x3b89c525	0.0042044097
14	0x3b864a25	0.004098194
15	0xbbf99118	-0.0076161735
16	0xbc0a6c74	-0.008448709
17	0x394ffa23	0.00019834242
18	0xbd07aff6	-0.033126794
19	0x3e0b6939	0.13614358
20	0xbba0d45b	-0.0049081272
21	0xbc091c0e	-0.008368505
22	0xbbf250c5	-0.0073948824
23	0xbe023d7d	-0.12718768
24	0xbc05aa82	-0.008158328
25	0x3bf7261c	0.007542385
26	0x3c2a96ae	0.010411901
27	0x3c611aeb	0.013739328
28	0x3beead10	0.0072838143
29	0xbb47f770	-0.0030512474
30	0x3bb6422b	0.005562087
31	0x3b81a520	0.003956452
32	0xbb00bc9b	-0.0019643668
33	0xba6e8266	-0.00090984104
34	0x3aab05a6	0.0013047948
35	0x3d13a180	0.03604269
36	0xbd0af6e0	-0.033926845
37	0x3c1b04f5	0.009461631
38	0x3b49d1d8	0.0030795243
39	0xbc267533	-0.010159778
40	0x3d48d6dd	0.049033035
41	0x3bed9989	0.007250969
42	0x3c07973e	0.008275805
43	0x3d84fb6b	0.06493267
44	0xba07341e	-0.00051576074
45	0x3d331dbf	0.04372954
46	0x3e43cacb	0.19120328
47	0xbbf70ccd	-0.007539368
48	0xbae1f888	-0.0017240206
49	0xbb45ba02	-0.0030170684
50	0xbc71272d	-0.014718813
51	0x3b221ba6	0.0024735718
52	0x3bcf68df	0.0063296403
53	0x3c050e92	0.00812115
54	0x3b433038	0.002978338
55	0x3c1f709d	0.009731439
56	0xbc0d7034	-0.008632708
57	0x3d723073	0.059128236
58	0x39e86484	0.00044325378
59	0xbc5d63d1	-0.013512568
60	0xbc266279	-0.010155314
61	0x3cd127b5	0.02553163
62	0x3c4b3a9a	0.012404108
63	0x3bed57f5	0.0072431513
64	0x3864e269	5.4570297e-05
65	0xbc657e67	-0.014007187
66	0x3a74e492	0.0009341921
67	0xbb5f99f0	-0.0034118854
68	0x3afac413	0.0019131921
69	0x390c0c9b	0.00013356136
70	0x3be0aaf2	0.006856316
71	0xbb293329	-0.0025817847
72	0x3c121256	0.008915504
73	0xbb3be46f	-0.0028670093
74	0x3b5f1905	0.0034042012
75	0x3de86660	0.113476515
76	0x3bbaaf88	0.0056971945
77	0x3d840855	0.06446902
78	0xbb536e44	-0.0032261768
79	0xbde2ba50	-0.110706925
80	0x3c3055a8	0.01076261
81	0x3c3f2974	0.011667598
82	0x3c3167f0	0.010828003
83	0xbba8fdea	-0.005157222
84	0x3c323b0a	0.010878334
85	0x3beecc74	0.0072875563
86	0x3c48fa44	0.012266699
87	0x3c77324c	0.015087675
88	0xbb8bb724	-0.0042637754
89	0x3bd60d3f	0.006532341
90	0xbc651402	-0.013981821
91	0x3b95f5d7	0.0045764255
92	0x3d3e718b	0.046495
93	0xbc20bb1b	-0.009810234
94	0xbc3c8a6f	-0.0115076145
95	0x3a6c32c1	0.00090102485
96	0x3d111602	0.03542138
97	0xbc218a6b	-0.009859662
98	0xbb08e252	-0.002088685
99	0x3c28d0d8	0.0103036985
100	0x3d59f8fe	0.053215973
101	0xbb92aa61	-0.004475877
102	0xbe53eaa4	-0.20694977
103	0x3e4babfc	0.19889826
104	0xbbd81dc1	-0.006595344
105	0x3c6ffa4f	0.014647081
106	0xbc5e1b6d	-0.0135563435
107	0xbc2f8400	-0.010712624
108	0xb9d4a205	-0.00040556505
109	0x3b45100b	0.0030069377
110	0x3c3e597a	0.011618013
111	0x3b5ec02b	0.0033989053
112	0x3a92d638	0.0011202758
113	0xbb6f6f7f	-0.0036534963
114	0xbc217d96	-0.009856602
115	0xbc326500	-0.010888338
116	0x3d589353	0.052874874
117	0xbb1cbe4c	-0.0023917137
118	0xbbcab9ba	-0.006186691
119	0xbdb26f77	-0.087126665
120	0x3c4402a6	0.011963522
121	0x3bf2d4ab	0.007410606
122	0xbb1bc089	-0.0023765883
123	0x3cfc3d16	0.030790847
124	0x3d0f749b	0.035023313
125	0xbb8e1131	-0.0043355455
126	0x3be5616d	0.0070001394
127	0xbc3faf32	-0.011699485
128	0x3bc7a157	0.0060922313
129	0xbc087b9c	-0.008330252
130	0xbbd10a23	-0.006379382
131	0xbe138ca9	-0.14409126
132	0x3b6d7f38	0.0036239158
133	0xbe0e9d0d	-0.13927098
134	0x3c357a3a	0.011076504
135	0x3b6112e5	0.0034343537
136	0x3ca6d076	0.020363074
137	0x3b3f7c20	0.0029218271
138	0xbab176a3	-0.0013539385
139	0xbd490adc	-0.049082622
140	0xbc1b8a3e	-0.009493409
141	0x3affd129	0.0019517291
142	0xbc7ccea7	-0.015430129
143	0x3ba0d517	0.004908215
144	0xbc54bdf7	-0.012984744
145	0xbab1496c	-0.001352591
146	0x3bffe418	0.0078091733
147	0xbdfb89c8	-0.12282139
148	0xbcc9928d	-0.024606014
149	0xbbd44174	-0.006477529
150	0x3b1cf8ba	0.0023951964
151	0x3e0aec69	0.13566746
152	0xbc357051	-0.011074142
153	0xbae2d8d5	-0.0017307053
154	0xbaa4bd6c	-0.0012568659
155	0xbc09c2bc	-0.008408245
156	0xbb5114c9	-0.0031903258
157	0x3c317bc9	0.010832735
158	0xbc70fc76	-0.014708629
159	0x3cafeeb5	0.02147613
160	0xbb5a30d9	-0.0033293276
161	0x3c425cc8	0.011862941
162	0x3a971815	0.0011527563
163	0xbd54321c	-0.0518056
164	0x3d63247d	0.05545472
165	0xbbbf8f28	-0.005845923
166	0x3b064137	0.0020485648
167	0xbc332a62	-0.010935398
168	0xbd369c1f	-0.044582482
169	0x3bf87871	0.007582717
170	0x3b29ff4f	0.002593953
171	0xbd8ca198	-0.06866759
172	0xb9b4146d	-0.00034347494
173	0xbd4b881c	-0.04969035
174	0xbe42027c	-0.1894626
175	0xba7efc09	-0.0009726887
176	0xbb8e9136	-0.0043508066
177	0xbc5efb4e	-0.01360972
178	0x3bd75410	0.0065713003
179	0x3b87877e	0.004136025
180	0xbb67f2a1	-0.003539242
181	0xbc02e9c4	-0.007990304
182	0x3b3dbe83	0.0028952665
183	0xbc9cb5bd	-0.019129628
184	0xbc07370f	-0.008252873
185	0xbd857b2a	-0.06517632
186	0xbb90d24d	-0.004419601
187	0xbc6a50b3	-0.014301467
188	0x3b6ee6d4	0.0036453502
189	0xbd19dbd2	-0.037563153
190	0xbbd411c2	-0.0064718435
191	0x3bfb589a	0.0076704742
192	0x3a9135d6	0.0011078666
193	0x3c63189a	0.013860846
194	0x3b7c424f	0.0038491671
195	0xbb854699	-0.004067254
196	0x3b1d85da	0.002403608
197	0x3c04518e	0.008076085
198	0xbac6a9c1	-0.0015156792
199	0x3cc47d2a	0.023985464
200	0xbc84e6e4	-0.016223378
201	0xbabbcd7c	-0.0014328207
202	0x3c1301c3	0.008972588
203	0xbdeac0aa	-0.11462529
204	0x3c77796b	0.015104632
205	0xbd9d2f22	-0.076750055
206	0xbc6607d7	-0.014039955
207	0x3dd193b0	0.10233247
208	0x3b1ac2e6	0.0023614704
209	0xbb77004f	-0.0037689393
210	0x3c40cf72	0.011768209
211	0xbb7b6bbc	-0.0038363775
212	0x3acf4953	0.0015814699
213	0x3c0ce073	0.008598435
214	0x3c1d7649	0.009610721
215	0x3c4bc00d	0.012435925
216	0xbbcfae9c	-0.0063379537
217	0xbc4bf779	-0.012449139
218	0x3be3abbe	0.0069479635
219	0xbb2e14c3	-0.0026562668
220	0xbd4ad682	-0.049520977
221	0xbc08226a	-0.008308986
222	0xbb0dbb42	-0.0021626507
223	0x3bab5595	0.005228708
224	0xbd5d1ad9	-0.053980682
225	0x3bfecf62	0.007776187
226	0xbb9b4161	-0.0047380184
227	0x3c445bb4	0.011984754
228	0xbd37f893	-0.044914793
229	0x3c5cbe98	0.0134731755
230	0x3e539033	0.20660476
231	0xbe478fca	-0.19488445
232	0xbc210a0b	-0.009829055
233	0xbbb9549e	-0.005655839
234	0xbbd511d1	-0.006502368
235	0x3d071ec4	0.032988325
236	0x3ba24b62	0.004952834
237	0xb92538c7	-0.00015756777
238	0x3bbf30a4	0.005834656
239	0xbab1d944	-0.0013568779
240	0x3c2f9e49	0.0107188905
241	0xbc0ed844	-0.008718554
242	0xbb117f91	-0.002220128
243	0xbc306d41	-0.010768236
244	0xbcf99571	-0.030466767
245	0xbb687ea3	-0.0035475872
246	0xba21dcf5	-0.0006174588
247	0x3da37444	0.0798116
248	0xbd08cf9d	-0.03340112
249	0xbc29a4a8	-0.0103541985
250	0x3bc48223	0.005996959
251	0xbd2f8d51	-0.04285938
252	0xbcf8dab8	-0.03037773
253	0x3c801e8c	0.015639566
254	0xbb94a2fd	-0.0045360313
255	0x3b594531	0.0033152814

action_model._discrete_distribution.branches.1.bias f4 [2]
0	0xbba0afd8	-0.0049037747
1	0x3ba0b063	0.0049038394
